FYPprototype/results/ShortTest4/AIBalancing.onnx (onnx, 70746 bytes, 6 tensors)

action_model._discrete_distribution.branches.0.bias f4 [2]
0	0x00000000	0.0
1	0x00000000	0.0

action_model._discrete_distribution.branches.0.weight f4 [2, 128]
0	0xbc98ce2f	-0.018653003
1	0x3b2e7533	0.002662015
2	0x3c270e00	0.010196209
3	0xbba35749	-0.0049847704
4	0xbbbdfe79	-0.005798158
5	0xbc2f1dd0	-0.01068826
6	0x3bbaac09	0.0056967777
7	0xba4ef8d3	-0.0007895354
8	0xbb8726e5	-0.0041245096
9	0xbc01b1eb	-0.007915954
10	0xbb98bfca	-0.004661535
11	0xbb7c1b72	-0.0038468507
12	0x3b961885	0.0045805597
13	0xbb42b06a	-0.0029707202
14	0xbb93707f	-0.0044994946
15	0x3bdb8868	0.0066996105
16	0xbba349a3	-0.0049831434
17	0x3beffad8	0.007323604
18	0xbb904935	-0.004403258
19	0xbbd797b2	-0.006579363
20	0xbca85d6e	-0.020552363
21	0xbb0dbfa6	-0.0021629124
22	0x3ba5487b	0.0050440407
23	0xbcce68da	-0.025196481
24	0xbb330643	-0.0027316965
25	0x3a934061	0.0011234396
26	0x3c5582df	0.01303169
27	0x3cbf3856	0.023342293
28	0xbbce4ba7	-0.0062956396
29	0xbb44716a	-0.0029974827
30	0x3ad99f2b	0.0016603222
31	0xbc42ac99	-0.011881971
32	0xbc97c3ef	-0.018526046
33	0xbc024520	-0.007951051
34	0xbc5896d0	-0.01321955
35	0x3c20100f	0.009769454
36	0x3c1bfa5f	0.009520142
37	0x3b11b04b	0.0022230323
38	0xba9f7a93	-0.0012167267
39	0xbc617a4f	-0.013762071
40	0xb98efe1a	-0.0002727367
41	0x3c967f69	0.0183713
42	0xbb4f1db0	-0.0031603388
43	0xbbe8d598	-0.0071055405
44	0xbc589c32	-0.013220834
45	0xb8356f30	-4.3257314e-05
46	0xbbbe10a3	-0.005800323
47	0xba77e2e5	-0.0009456112
48	0x3b2bf4e6	0.00262385
49	0xbb1e26a8	-0.0024131928
50	0xbc07b33b	-0.008282478
51	0x3bc89e4a	0.006122385
52	0x3a70fe0a	0.0009193128
53	0x3a7d815a	0.0009670459
54	0x3bf3bd12	0.0074383104
55	0x3c20b763	0.009809348
56	0x3ba209a1	0.0049449955
57	0xbbb959b8	-0.0056564473
58	0xbbae5ed2	-0.005321362
59	0x3b8d91a6	0.004320341
60	0xbbb0db3c	-0.0053972285
61	0xbc942286	-0.018082868
62	0x3ab42cc4	0.0013746251
63	0x3bc8f7dc	0.0061330628
64	0x3c53fde5	0.012938951
65	0xbb9347c5	-0.0044946396
66	0xb92d487f	-0.00016525573
67	0x3b090211	0.0020905773
68	0x3c22202d	0.009895367
69	0x3c752d78	0.014964454
70	0x3b8b4c03	0.0042510047
71	0xbc41cf5a	-0.011829222
72	0x3ade3505	0.0016953057
73	0xbc427693	-0.011869091
74	0xbc8d2eb4	-0.017234184
75	0x3b08af90	0.0020856597
76	0x3b5b9d3b	0.0033510465
77	0x3c17279c	0.009225752
78	0xbc3e4f53	-0.011615592
79	0xbae7c070	-0.0017681252
80	0xbb1f1583	-0.0024274297
81	0xbc6c9707	-0.014440305
82	0xbc233865	-0.009962176
83	0xbbd9f15b	-0.0066510863
84	0x3bc94463	0.0061421855
85	0x3bc8dd12	0.0061298693
86	0x3c40938c	0.011753928
87	0xbbdbb4f7	-0.0067049223
88	0x3b0f3c9d	0.0021856197
89	0x3a16c253	0.00057510025
90	0x3c5c081b	0.013429667
91	0xbba0aa31	-0.004903101
92	0x3b33417f	0.002735227
93	0xba2cff81	-0.00065993523
94	0x3bd950ef	0.0066319625
95	0xbb8f3918	-0.00437082
96	0x3befcd62	0.0073181847
97	0xbb4193f5	-0.0029537652
98	0xbb8e15ed	-0.00433611
99	0x3b8c4863	0.00428109
100	0x3ad3b2db	0.0016151326
101	0x3c25cb0d	0.010119212
102	0x3bbd82ec	0.0057834294
103	0x3c67430a	0.014115104
104	0x3a8cd254	0.0010743835
105	0x3b81ca77	0.0039609033
106	0x3c41fd7b	0.01184022
107	0x3babce17	0.0052430737
108	0x3bd9e7bb	0.006649939
109	0xbca41f25	-0.020034382
110	0xbc3cf826	-0.011533773
111	0x3b02215f	0.0019856317
112	0xbaa935c5	-0.0012909701
113	0xbc00f6cd	-0.007871342
114	0xbb9ea529	-0.004841466
115	0xba4f2c27	-0.00079030026
116	0x3b9ceceb	0.004788985
117	0xbbd54d25	-0.0065094405
118	0xbba27403	-0.0049576773
119	0x3c27959d	0.010228542
120	0x3ba81baa	0.005130251
121	0x3ae4906d	0.0017438062
122	0xbc1878ed	-0.009306175
123	0x3b95177b	0.004549918
124	0xba9ee06c	-0.0012121326
125	0xbaffec97	-0.0019525465
126	0x3c3fe64a	0.01171262
127	0x3c4f95c5	0.012669985
128	0x3bc04e85	0.0058687353
129	0x3bd960ea	0.0066338675
130	0x3c24455a	0.0100263
131	0x3b93e845	0.0045137727
132	0xbca9edf6	-0.020743351
133	0x3bd4755a	0.006483716
134	0xbbc7a1cb	-0.0060922853
135	0xbc0e3993	-0.008680719
136	0xbb5e8672	-0.0033954647
137	0x3c2fe4e5	0.010735725
138	0xbc8858c4	-0.01664389
139	0x3b804caa	0.003915389
140	0x3b36ca0f	0.0027891432
141	0x3b44fb2b	0.0030056934
142	0x3c95401d	0.018219048
143	0xbb791a87	-0.0038010196
144	0x3aa5b38f	0.0012642014
145	0xbc073e3e	-0.008254586
146	0x3c036eea	0.008022049
147	0x3c270aba	0.0101954285
148	0x3bbb179d	0.005709602
149	0x3b1a447b	0.0023539353
150	0x3c35cd59	0.011096322
151	0x3c2bc708	0.0104844645
152	0x3c4263e2	0.011864634
153	0x3c14c405	0.009079938
154	0x3adf992b	0.0017059197
155	0x3a9788d3	0.0011561163
156	0xbc4b30bf	-0.012401759
157	0x3bd7d25d	0.0065863566
158	0xbc4598f7	-0.012060395
159	0x3c138437	0.00900369
160	0xbc4fa878	-0.012674443
161	0x3b8980f1	0.004196279
162	0xbbab8917	-0.0052348482
163	0x3c172e81	0.009227396
164	0x3c0a1dd4	0.008429963
165	0xbb9edf03	-0.0048483624
166	0xbc9e2ac3	-0.0193075
167	0xb80c0085	-3.3379085e-05
168	0x396ea815	0.00022760064
169	0x3a8df93b	0.0010831723
170	0x3b233c1f	0.002490766
171	0xbc6d5243	-0.014484945
172	0xbb5d4f60	-0.0033769235
173	0xbbbd267c	-0.00577241
174	0x3c35a020	0.01108554
175	0xbb96784c	-0.004591977
176	0xbc312461	-0.010811896
177	0x3c15b06c	0.0091363005
178	0xbc4c8e5c	-0.012485113
179	0xbc882b8e	-0.016622331
180	0x3c50982f	0.012731596
181	0xba63cd00	-0.000868991
182	0xbbeb4978	-0.007180389
183	0xbc058ba0	-0.008150965
184	0xbc013290	-0.00788559
185	0xbb48fe07	-0.003066899
186	0x3a79e520	0.00095327385
187	0x3b085d7b	0.0020807672
188	0xbc5d1a77	-0.013495079
189	0x3b728742	0.003700689
190	0x3b0f7bd1	0.0021893869
191	0x3c2ee60b	0.010674964
192	0x3ba14bf7	0.004922386
193	0xbbf0c7cb	-0.007348036
194	0x3b01896e	0.0019765752
195	0x3baedc74	0.0053363387
196	0x3b72f79b	0.0037073854
197	0x3bb68864	0.0055704582
198	0xbc4f09db	-0.012636627
199	0x396138a5	0.00021478774
200	0x3bdadc15	0.006679068
201	0x3b34a6bb	0.00275652
202	0xbc3d5669	-0.011556246
203	0x3bee7fb5	0.0072784075
204	0xbc329406	-0.010899549
205	0xbb50a20f	-0.0031834876
206	0xbb82468b	-0.0039756945
207	0xbc373ed9	-0.011184418
208	0x3a904db3	0.0011009484
209	0xb9957aa3	-0.00028510866
210	0x3b96eb5d	0.004605694
211	0x3c2f0ff8	0.01068496
212	0x3b7aaaaf	0.0038248708
213	0xba649400	-0.00087195635
214	0xbbb84d93	-0.005624482
215	0xbc519895	-0.012792726
216	0x388d7fcf	6.74721e-05
217	0xba18241b	-0.000580372
218	0x3c9ce917	0.019154115
219	0xbc1b737d	-0.009487984
220	0xb8c5137d	-9.397322e-05
221	0x3c71be70	0.0147548765
222	0xbbda23bf	-0.0066570933
223	0xbb91f916	-0.004454742
224	0xbb29eb82	-0.0025927727
225	0xbb4ea89d	-0.0031533607
226	0x3b9bb9cf	0.0047523747
227	0x3b965aa4	0.004588442
228	0x3b043c22	0.0020177444
229	0xbbbb12f9	-0.005709049
230	0x3b419e93	0.002954398
231	0xbb9e92d4	-0.0048392806
232	0x3ba5143f	0.005037814
233	0xb96a184d	-0.00022325032
234	0xbb7734e2	-0.003772073
235	0x3b891cf3	0.004184359
236	0x39e670bd	0.00043953015
237	0x3b8eb441	0.004354984
238	0xbc0e06d1	-0.008668617
239	0x3ad393fa	0.0016142123
240	0xbc125157	-0.008930526
241	0xbbf0a397	-0.00734372
242	0x3c2db5f1	0.01060246
243	0xbc04d036	-0.008106282
244	0xbb99513a	-0.0046788724
245	0x3c30ac09	0.010783204
246	0x3b793f30	0.0038032047
247	0xbbad31c5	-0.005285474
248	0x3af07fb8	0.001834861
249	0xbbd48875	-0.0064859935
250	0xbaf206ab	-0.0018465122
251	0xbb821d10	-0.0039707497
252	0xbac172f6	-0.0014758992
253	0x3a34b9ba	0.00068941305
254	0x3bf88560	0.007584259
255	0x3c06c447	0.008225507

network_body._body_endoder.seq_layers.0.bias f4 [128]
0	0x00000000	0.0
1	0x00000000	0.0
2	0x00000000	0.0
3	0x00000000	0.0
4	0x00000000	0.0
5	0x00000000	0.0
6	0x00000000	0.0
7	0x00000000	0.0
8	0x00000000	0.0
9	0x00000000	0.0
10	0x00000000	0.0
11	0x00000000	0.0
12	0x00000000	0.0
13	0x00000000	0.0
14	0x00000000	0.0
15	0x00000000	0.0
16	0x00000000	0.0
17	0x00000000	0.0
18	0x00000000	0.0
19	0x00000000	0.0
20	0x00000000	0.0
21	0x00000000	0.0
22	0x00000000	0.0
23	0x00000000	0.0
24	0x00000000	0.0
25	0x00000000	0.0
26	0x00000000	0.0
27	0x00000000	0.0
28	0x00000000	0.0
29	0x00000000	0.0
30	0x00000000	0.0
31	0x00000000	0.0
32	0x00000000	0.0
33	0x00000000	0.0
34	0x00000000	0.0
35	0x00000000	0.0
36	0x00000000	0.0
37	0x00000000	0.0
38	0x00000000	0.0
39	0x00000000	0.0
40	0x00000000	0.0
41	0x00000000	0.0
42	0x00000000	0.0
43	0x00000000	0.0
44	0x00000000	0.0
45	0x00000000	0.0
46	0x00000000	0.0
47	0x00000000	0.0
48	0x00000000	0.0
49	0x00000000	0.0
50	0x00000000	0.0
51	0x00000000	0.0
52	0x00000000	0.0
53	0x00000000	0.0
54	0x00000000	0.0
55	0x00000000	0.0
56	0x00000000	0.0
57	0x00000000	0.0
58	0x00000000	0.0
59	0x00000000	0.0
60	0x00000000	0.0
61	0x00000000	0.0
62	0x00000000	0.0
63	0x00000000	0.0
64	0x00000000	0.0
65	0x00000000	0.0
66	0x00000000	0.0
67	0x00000000	0.0
68	0x00000000	0.0
69	0x00000000	0.0
70	0x00000000	0.0
71	0x00000000	0.0
72	0x00000000	0.0
73	0x00000000	0.0
74	0x00000000	0.0
75	0x00000000	0.0
76	0x00000000	0.0
77	0x00000000	0.0
78	0x00000000	0.0
79	0x00000000	0.0
80	0x00000000	0.0
81	0x00000000	0.0
82	0x00000000	0.0
83	0x00000000	0.0
84	0x00000000	0.0
85	0x00000000	0.0
86	0x00000000	0.0
87	0x00000000	0.0
88	0x00000000	0.0
89	0x00000000	0.0
90	0x00000000	0.0
91	0x00000000	0.0
92	0x00000000	0.0
93	0x00000000	0.0
94	0x00000000	0.0
95	0x00000000	0.0
96	0x00000000	0.0
97	0x00000000	0.0
98	0x00000000	0.0
99	0x00000000	0.0
100	0x00000000	0.0
101	0x00000000	0.0
102	0x00000000	0.0
103	0x00000000	0.0
104	0x00000000	0.0
105	0x00000000	0.0
106	0x00000000	0.0
107	0x00000000	0.0
108	0x00000000	0.0
109	0x00000000	0.0
110	0x00000000	0.0
111	0x00000000	0.0
112	0x00000000	0.0
113	0x00000000	0.0
114	0x00000000	0.0
115	0x00000000	0.0
116	0x00000000	0.0
117	0x00000000	0.0
118	0x00000000	0.0
119	0x00000000	0.0
120	0x00000000	0.0
121	0x00000000	0.0
122	0x00000000	0.0
123	0x00000000	0.0
124	0x00000000	0.0
125	0x00000000	0.0
126	0x00000000	0.0
127	0x00000000	0.0

network_body._body_endoder.seq_layers.0.weight f4 [128, 2]
0	0xbf0f465d	-0.5596674
1	0x3ed10dcd	0.40830842
2	0xbf2df031	-0.6794463
3	0x3f019b50	0.50627613
4	0xbf351140	-0.70729446
5	0x3f129993	0.57265586
6	0x3ee8dfec	0.4548334
7	0x3f7c7237	0.9861178
8	0xbf290886	-0.6602863
9	0x3dc988fe	0.09840582
10	0x3e4bae28	0.19890654
11	0x3f3207d9	0.69543225
12	0xbc97ce60	-0.018531024
13	0x3fbef21a	1.4917634
14	0xbf8f62d7	-1.1202039
15	0xbd687170	-0.056748807
16	0xbf7446ea	-0.95420706
17	0xbec40847	-0.38287565
18	0xbe9e59a3	-0.30927762
19	0x3ea1b881	0.31586078
20	0xbd5213b5	-0.051288325
21	0xbe8a52d7	-0.27016327
22	0xbf99d4d7	-1.2018079
23	0xbf757438	-0.9588046
24	0x3f89f252	1.0777075
25	0x3d70ae31	0.058759872
26	0x3ea433bd	0.32070723
27	0xbe0dc5d1	-0.13844992
28	0x3f85fbe7	1.04675
29	0x3eb3b6ad	0.35100308
30	0x3fd5c9e7	1.6702241
31	0x3e28a2d7	0.16468368
32	0xbf131563	-0.5745451
33	0xbef71c1a	-0.48263627
34	0x3f9256d0	1.1432743
35	0xbe9afeed	-0.30272618
36	0xbe3f1a47	-0.18662368
37	0xbeb5d843	-0.35516557
38	0xbf43b7a8	-0.7645211
39	0xbd9e8225	-0.07739667
40	0xbe97b262	-0.29628283
41	0x3dcf63f1	0.10126484
42	0xbf331b5a	-0.6996361
43	0xbfca1a1d	-1.5789219
44	0xbef2d19e	-0.4742555
45	0xbf1b4ee4	-0.6066725
46	0xbf5de173	-0.86672133
47	0x3f13f3c8	0.57793856
48	0xbfdac3ef	-1.7091044
49	0x400183fb	2.0236804
50	0xbda2a241	-0.07941104
51	0x3e643978	0.22287548
52	0x3ebbd2c8	0.3668425
53	0x3f25692c	0.64613605
54	0xbf751dbe	-0.9574851
55	0x3f8b0823	1.0861858
56	0x3e7c65c2	0.24648193
57	0x3f1f0389	0.6211477
58	0xbedd331e	-0.43203062
59	0xbe47709f	-0.19476555
60	0x3ee6ec19	0.45102003
61	0x3e61682f	0.22012399
62	0x3f1d9ccf	0.61567396
63	0x3efae64f	0.49003837
64	0x3f12ed51	0.57393366
65	0x3db0cf76	0.0863332
66	0xbe8d95fd	-0.27653494
67	0xbe1b17f7	-0.1514586
68	0x3e94df98	0.29076838
69	0x3eb2bc99	0.34909514
70	0x3e913636	0.28361672
71	0x3eca5c81	0.395237
72	0x3ed053ce	0.40688938
73	0x3eb38c54	0.35068
74	0x3e46acf1	0.1940191
75	0x3e63ed8a	0.22258583
76	0x3e81a6ab	0.2532247
77	0xbf8d3540	-1.1031876
78	0x3f9d071e	1.2267797
79	0x3f2aa37f	0.66655725
80	0x3fb75b91	1.4324819
81	0x3f01b464	0.5066588
82	0xbecbc48e	-0.39798397
83	0x3f39a103	0.7251131
84	0xbe3e4af6	-0.18583283
85	0x3e8be96b	0.2732652
86	0xbea8bbee	-0.3295588
87	0x3f603d1b	0.8759324
88	0x3e6babc2	0.23014739
89	0xbf00d363	-0.5032255
90	0x3f44c6da	0.76865923
91	0xbef0bf65	-0.47021022
92	0x3ea0b785	0.31390014
93	0x3e6296a6	0.2212778
94	0x3ef34d34	0.4751984
95	0xbf76ecbd	-0.96454984
96	0xbda395e0	-0.07987571
97	0x3e535fb6	0.2064198
98	0xbf8805a2	-1.0626719
99	0x3e48eba2	0.19621137
100	0xbdd7fa05	-0.10545734
101	0x3f62d6c3	0.8860895
102	0xbf624189	-0.8838125
103	0xbf5717b0	-0.8402052
104	0xbd914339	-0.070929
105	0x3f228066	0.6347717
106	0x3ea7f2c8	0.32802415
107	0xbed0b1e3	-0.40760717
108	0x3fa6dc5f	1.3036002
109	0xbe07377b	-0.13204758
110	0xbf65db90	-0.8978815
111	0x3f853108	1.0405588
112	0x3dddc8c7	0.10829311
113	0xbe22f915	-0.1591533
114	0xbea20976	-0.31647843
115	0xbea99d11	-0.33127645
116	0x3f89f3bb	1.0777506
117	0xbf01d03c	-0.50708365
118	0x3e0b889f	0.13626336
119	0xbf4f3cd7	-0.8095221
120	0xbfd17dac	-1.6366477
121	0xbf4dd336	-0.8040041
122	0x3e8ed427	0.27896234
123	0xbfa1856b	-1.2618841
124	0xbdb16294	-0.086613804
125	0x3f9b7340	1.2144547
126	0xbef3bd8c	-0.4760555
127	0x3eb2b779	0.34905604
128	0xbf83316e	-1.024946
129	0x3f778298	0.96683645
130	0xbf2c46f9	-0.67295796
131	0x3e9775cb	0.29582056
132	0xbf0570df	-0.5212535
133	0xbee377ca	-0.4442733
134	0xbe38f985	-0.18063934
135	0x3f3f6dbb	0.7477681
136	0x3ea0138d	0.31264916
137	0xbeab9986	-0.33515567
138	0x3c82ac7d	0.01595139
139	0x3faaed1b	1.3353609
140	0x3e7f38a3	0.24923949
141	0x3fb66481	1.4249421
142	0xbf213e87	-0.62986034
143	0x3e2b188d	0.16708584
144	0xbf51eb4b	-0.81999654
145	0xbf70eac9	-0.94108254
146	0xbf67d3c5	-0.9055751
147	0xbe7f3e4b	-0.24926107
148	0x3f2e34ee	0.68049514
149	0xbf51bfc7	-0.81933254
150	0xbea5cbf6	-0.32382172
151	0xbfb02ee4	-1.376431
152	0x3eb1793d	0.3466281
153	0xbf93372c	-1.1501212
154	0x3f21a609	0.63143975
155	0x3de4538b	0.11148747
156	0xbec796ec	-0.38982332
157	0x3ee97d7d	0.45603552
158	0x3cc93cd8	0.024565145
159	0x3e20a47c	0.15687746
160	0xbf8a1663	-1.0788082
161	0xbfa4aa6f	-1.2864512
162	0xbc84ac6b	-0.016195497
163	0xbe882428	-0.26590085
164	0xbcba49f7	-0.022740347
165	0x3e7687da	0.24075261
166	0xbf1c30b2	-0.61011803
167	0xbd99a4c9	-0.075021334
168	0xbf104b76	-0.56365144
169	0xbe43728d	-0.19086666
170	0x3ee7539f	0.45180985
171	0x3f4c2d4e	0.7975663
172	0x3f82bfa8	1.0214739
173	0x3ea1732b	0.3153318
174	0x3f497530	0.7869444
175	0x3eba9d6d	0.3644823
176	0x3e8999ea	0.2687524
177	0x3e8c8ccd	0.27451172
178	0x3f2d6a3c	0.67740226
179	0xbc720552	-0.014771776
180	0x3d0ba862	0.03409613
181	0x3fa932ac	1.3218589
182	0xbfb0c130	-1.3808956
183	0xbed704e9	-0.41995934
184	0x3f30be52	0.69040406
185	0xbece62f1	-0.4030986
186	0xbe18acf1	-0.14909722
187	0xbfced4f0	-1.6158733
188	0x3c9c6e75	0.019095639
189	0xbe8d4771	-0.27593568
190	0x3f1b8ad1	0.6075869
191	0xbd8296b9	-0.06376404
192	0xbf2a2a2d	-0.66470605
193	0xc00bd868	-2.1850834
194	0x3f7f65a3	0.9976446
195	0xbe8db736	-0.2767884
196	0x3e844f85	0.2584192
197	0xbd11f1ad	-0.03563087
198	0x3fcb794d	1.5896393
199	0x3f2d6b2c	0.67741656
200	0x3f2253c7	0.63409084
201	0x3eed77e6	0.46380538
202	0xbe39a61e	-0.18129775
203	0x3f30e2eb	0.6909625
204	0x3f7e75bc	0.993984
205	0x3f38a2ca	0.72123396
206	0xbf651d29	-0.8949762
207	0x3f22f729	0.63658386
208	0xbe8e2ea4	-0.2776996
209	0x3e0e07eb	0.13870208
210	0x3d9bd6af	0.07609307
211	0xbeb3a886	-0.3508951
212	0x3f87272e	1.0558832
213	0xbcf64913	-0.030064141
214	0x3eb73d97	0.35789177
215	0x3e23ae5b	0.1598448
216	0xbe25ee5e	-0.16204211
217	0x3d6f7db6	0.058469497
218	0xbecd487d	-0.40094367
219	0xbe85bbb2	-0.26119763
220	0xbde1e543	-0.11030056
221	0xbefc79fc	-0.49311817
222	0xbf4088a5	-0.75208503
223	0x3ea0e2e4	0.31423104
224	0x3f57416c	0.840842
225	0xbfa7b8ac	-1.3103232
226	0x3efaf215	0.4901282
227	0x3f012db0	0.5046034
228	0x3f9692bd	1.1763531
229	0x3c7ee8d0	0.0155584365
230	0xbef528da	-0.4788273
231	0xbe931f04	-0.287346
232	0xbec2d042	-0.38049513
233	0x3ec7dcf8	0.39035773
234	0x3ddafeea	0.10693152
235	0x3ce4df6e	0.02793857
236	0x3de416e9	0.11137182
237	0x3f99597e	1.1980436
238	0x3f643374	0.8914101
239	0xbf1b5cd0	-0.60688496
240	0xbe8278ce	-0.25482792
241	0xbf76192a	-0.9613215
242	0xbf0619d9	-0.5238319
243	0xbe0c49c5	-0.13700016
244	0x3e538482	0.20656016
245	0xbe10655d	-0.14101167
246	0x3f073318	0.5281234
247	0xbec31c48	-0.38107514
248	0x3f03e675	0.51523525
249	0xbf8b1a80	-1.0867462
250	0x3f0d3ff4	0.5517571
251	0x3e796c80	0.24357796
252	0xbf556ca2	-0.83368886
253	0x3f528db3	0.82247466
254	0xbf0b5155	-0.5442098
255	0xbf512757	-0.8170065

network_body._body_endoder.seq_layers.2.bias f4 [128]
0	0x00000000	0.0
1	0x00000000	0.0
2	0x00000000	0.0
3	0x00000000	0.0
4	0x00000000	0.0
5	0x00000000	0.0
6	0x00000000	0.0
7	0x00000000	0.0
8	0x00000000	0.0
9	0x00000000	0.0
10	0x00000000	0.0
11	0x00000000	0.0
12	0x00000000	0.0
13	0x00000000	0.0
14	0x00000000	0.0
15	0x00000000	0.0
16	0x00000000	0.0
17	0x00000000	0.0
18	0x00000000	0.0
19	0x00000000	0.0
20	0x00000000	0.0
21	0x00000000	0.0
22	0x00000000	0.0
23	0x00000000	0.0
24	0x00000000	0.0
25	0x00000000	0.0
26	0x00000000	0.0
27	0x00000000	0.0
28	0x00000000	0.0
29	0x00000000	0.0
30	0x00000000	0.0
31	0x00000000	0.0
32	0x00000000	0.0
33	0x00000000	0.0
34	0x00000000	0.0
35	0x00000000	0.0
36	0x00000000	0.0
37	0x00000000	0.0
38	0x00000000	0.0
39	0x00000000	0.0
40	0x00000000	0.0
41	0x00000000	0.0
42	0x00000000	0.0
43	0x00000000	0.0
44	0x00000000	0.0
45	0x00000000	0.0
46	0x00000000	0.0
47	0x00000000	0.0
48	0x00000000	0.0
49	0x00000000	0.0
50	0x00000000	0.0
51	0x00000000	0.0
52	0x00000000	0.0
53	0x00000000	0.0
54	0x00000000	0.0
55	0x00000000	0.0
56	0x00000000	0.0
57	0x00000000	0.0
58	0x00000000	0.0
59	0x00000000	0.0
60	0x00000000	0.0
61	0x00000000	0.0
62	0x00000000	0.0
63	0x00000000	0.0
64	0x00000000	0.0
65	0x00000000	0.0
66	0x00000000	0.0
67	0x00000000	0.0
68	0x00000000	0.0
69	0x00000000	0.0
70	0x00000000	0.0
71	0x00000000	0.0
72	0x00000000	0.0
73	0x00000000	0.0
74	0x00000000	0.0
75	0x00000000	0.0
76	0x00000000	0.0
77	0x00000000	0.0
78	0x00000000	0.0
79	0x00000000	0.0
80	0x00000000	0.0
81	0x00000000	0.0
82	0x00000000	0.0
83	0x00000000	0.0
84	0x00000000	0.0
85	0x00000000	0.0
86	0x00000000	0.0
87	0x00000000	0.0
88	0x00000000	0.0
89	0x00000000	0.0
90	0x00000000	0.0
91	0x00000000	0.0
92	0x00000000	0.0
93	0x00000000	0.0
94	0x00000000	0.0
95	0x00000000	0.0
96	0x00000000	0.0
97	0x00000000	0.0
98	0x00000000	0.0
99	0x00000000	0.0
100	0x00000000	0.0
101	0x00000000	0.0
102	0x00000000	0.0
103	0x00000000	0.0
104	0x00000000	0.0
105	0x00000000	0.0
106	0x00000000	0.0
107	0x00000000	0.0
108	0x00000000	0.0
109	0x00000000	0.0
110	0x00000000	0.0
111	0x00000000	0.0
112	0x00000000	0.0
113	0x00000000	0.0
114	0x00000000	0.0
115	0x00000000	0.0
116	0x00000000	0.0
117	0x00000000	0.0
118	0x00000000	0.0
119	0x00000000	0.0
120	0x00000000	0.0
121	0x00000000	0.0
122	0x00000000	0.0
123	0x00000000	0.0
124	0x00000000	0.0
125	0x00000000	0.0
126	0x00000000	0.0
127	0x00000000	0.0

network_body._body_endoder.seq_layers.2.weight f4 [128, 128]
0	0x3da130ce	0.07870637
1	0xbc73ca86	-0.014879828
2	0xbd94d40b	-0.072670065
3	0xbd157517	-0.03648862
4	0x3b0d110b	0.002152505
5	0xbc239268	-0.009983636
6	0xbd57e3c9	-0.052707467
7	0xbcc15dd4	-0.023604311
8	0x3b43a450	0.0029852577
9	0xbd254b82	-0.040355213
10	0xbd0ed66d	-0.03487246
11	0x3deae9af	0.11470353
12	0xbc7d5cc3	-0.015464011
13	0x3e350583	0.17677884
14	0x3e122307	0.14271174
15	0x3c849703	0.01618529
16	0x3cb37dfe	0.021910664
17	0xbd458d64	-0.048230544
18	0xbe0bc840	-0.13650608
19	0x3d890295	0.066899456
20	0x3c7dcfc0	0.015491426
21	0x3dbe9d13	0.09307303
22	0x3d8a7f21	0.06762529
23	0xbdd47a9e	-0.1037495
24	0xbcf0905d	-0.029365713
25	0x3d0c7636	0.034292422
26	0xbc02b91c	-0.007978704
27	0xbcc589c2	-0.02411354
28	0x3db09660	0.08622432
29	0xbd84edde	-0.06490682
30	0x3d4f6141	0.050629858
31	0xbe204a41	-0.15653326
32	0xbdbef95e	-0.09324907
33	0xbc672902	-0.014108898
34	0xbd312c82	-0.043255337
35	0x3e4676e9	0.19381298
36	0xbe84a6c9	-0.25908497
37	0xbd0158b8	-0.03157875
38	0x3df6dd2c	0.12053904
39	0x3b8bb7ea	0.0042638676
40	0xbd2d6d6d	-0.042340685
41	0xbe0e6211	-0.13904597
42	0xbb82709d	-0.0039807097
43	0x3d05aef6	0.03263756
44	0xbbc44c32	-0.0059905285
45	0x3cae5788	0.021281973
46	0xbe006283	-0.12537579
47	0xbd8988a1	-0.06715513
48	0x3d97293b	0.07380911
49	0xbc8eccff	-0.017431734
50	0xbc232bcf	-0.009959175
51	0xbdb7b0b3	-0.089692496
52	0x3d3b4989	0.045724425
53	0x3b3c6174	0.002874461
54	0x3bc51bbf	0.0060152705
55	0x3d6e3090	0.05815178
56	0x3d043bb8	0.032283515
57	0xbc90e4b0	-0.017687172
58	0xbc4b7c90	-0.012419835
59	0x3d74c2ee	0.059756212
60	0xbd7d04c1	-0.06177211
61	0xbd1ea187	-0.038728263
62	0x3ccce7b4	0.025012828
63	0xbdf522d5	-0.11969534
64	0xbdeab41b	-0.11460134
65	0x3d272e8f	0.040815886
66	0xbe0d52c6	-0.13801107
67	0xbd02d150	-0.031937897
68	0xbd593fee	-0.053039484
69	0xbdd6f178	-0.10495275
70	0x3da164e0	0.078805685
71	0x3e740315	0.238293
72	0xbe0275b5	-0.12740214
73	0x3e1cd7ad	0.15316649
74	0x3de4ffb0	0.11181581
75	0xbd40122c	-0.04689233
76	0x3e089a4b	0.13340108
77	0xbd721e80	-0.05911112
78	0x3da20409	0.07910926
79	0xbcf0cb3e	-0.029393788
80	0x3d97050a	0.07374008
81	0x3d8d652d	0.069040634
82	0xbd33bff4	-0.043884233
83	0xbe187e52	-0.14891937
84	0x3d54ab8c	0.051921412
85	0xbd08219f	-0.03323519
86	0xbb9a2c93	-0.0047050207
87	0xbadc459e	-0.0016805416
88	0xbd975787	-0.073897414
89	0xbdc069dc	-0.09395191
90	0x3d5e71a7	0.054307606
91	0xbd21ffe2	-0.03955067
92	0x3e0f50e3	0.139957
93	0x3da902e8	0.082525074
94	0xbc6324ed	-0.013863784
95	0x3d2f6754	0.04282315
96	0xbd3e302c	-0.04643266
97	0x3e335871	0.17514206
98	0xbd3636ed	-0.044485975
99	0xbe070977	-0.13187204
100	0xbc96093a	-0.018314946
101	0x3d0a0ef6	0.033705674
102	0x3cf185b7	0.029482706
103	0xbd9a7c93	-0.07543292
104	0xbce3477c	-0.027744047
105	0x3d24c722	0.04022897
106	0xbbcbb7ad	-0.006216964
107	0x3e1a768f	0.15084289
108	0xbda2cd09	-0.079492636
109	0xbc400c16	-0.0117216315
110	0x3d47e62c	0.048803493
111	0x3e01c25c	0.12671798
112	0x3d80ae81	0.06283284
113	0x3befd539	0.0073191193
114	0x3e2b6aae	0.16739914
115	0x3dc45ce5	0.09588031
116	0x3c198df7	0.009372226
117	0xbd4a2c47	-0.049358632
118	0x3b95da88	0.00457317
119	0xbb070173	-0.002060023
120	0xbd7165b2	-0.058934875
121	0xbd7d3abb	-0.061823588
122	0xbcaeff4b	-0.021361968
123	0x3c115a93	0.008871692
124	0x3d1c45ac	0.03815238
125	0xbd8a036e	-0.067389354
126	0x3b840c7c	0.0040298086
127	0xbd971021	-0.07376123
128	0x3d073ee3	0.033018958
129	0xbd989d86	-0.0745192
130	0xbcfb42d7	-0.03067152
131	0xbc9cd4e1	-0.019144477
132	0x3cfaf7ca	0.030635733
133	0x3de25619	0.11051578
134	0xbc11dff8	-0.008903496
135	0x3d86114e	0.06546269
136	0xbe34a882	-0.17642406
137	0xbe019262	-0.12653497
138	0xbda485b9	-0.08033318
139	0xbd7ce945	-0.0617459
140	0xbd995794	-0.07487407
141	0x3bbefd95	0.005828569
142	0x3dc740ca	0.097291544
143	0xbd87b0a2	-0.06625487
144	0x3d3c587a	0.045982815
145	0x3d932128	0.071840584
146	0x3cc75c04	0.024335869
147	0xbd822de9	-0.06356413
148	0xbda6c30f	-0.08142673
149	0x3dcf8651	0.10133041
150	0x3e2e2ee5	0.17010076
151	0xbd89938f	-0.06717598
152	0x3d36bec9	0.04461554
153	0xbea7fe42	-0.3281117
154	0x3df2cefe	0.11855887
155	0x3c6056ad	0.01369254
156	0xbcc88351	-0.024476679
157	0x3ccaac0c	0.024740241
158	0x3e2a7b41	0.1664858
159	0x3d15c90b	0.036568683
160	0xbd0d5219	-0.034502123
161	0x3c8f62d9	0.017503189
162	0xbcd8ca48	-0.026463643
163	0xbc6a8eaf	-0.014316245
164	0xbc03ad06	-0.0080368575
165	0x3d503158	0.050828308
166	0xbda066d7	-0.07832115
167	0x3d356b9b	0.044292074
168	0x3ccf4075	0.02529929
169	0x3db78ae7	0.089620404
170	0xbbb7c55b	-0.0056082434
171	0x3da96ee4	0.08273104
172	0xbd299b8f	-0.041408118
173	0xbcfe7257	-0.03106038
174	0x3cd05ce2	0.025434915
175	0xbba47325	-0.005018609
176	0x3d159d9a	0.036527254
177	0xbdc82a4f	-0.09773695
178	0x3d8ee5d5	0.06977431
179	0xbe01e10b	-0.12683503
180	0xbd9cf56e	-0.076639995
181	0x3c802e3d	0.015647048
182	0x3c180b7b	0.009280081
183	0x3d0b4bb1	0.03400773
184	0x3d6758f8	0.05648133
185	0xbd0cf97c	-0.034417614
186	0x3ded541a	0.11588307
187	0x3e082235	0.13294299
188	0xbdf7d517	-0.121011905
189	0x3e2732eb	0.16328017
190	0x3d4d65c9	0.050145898
191	0x3e5bb021	0.21453907
192	0xbc6e8424	-0.014557872
193	0xbd8a951d	-0.06766722
194	0xbd0faccc	-0.0350769
195	0xbcf6eb2e	-0.03014144
196	0x3d7c3ab7	0.061579432
197	0x3c43d069	0.011951544
198	0xbd22e20b	-0.039766353
199	0xbdb11333	-0.0864624
200	0xbe47cc25	-0.19511469
201	0xbd46b52c	-0.048512623
202	0x3e0afbce	0.13572618
203	0x3d0bce24	0.034132138
204	0xbe2cc698	-0.16872633
205	0xbe28cc8b	-0.16484277
206	0xbd8f97ab	-0.0701135
207	0x3e1149dd	0.14188333
208	0xbde6a28c	-0.11261472
209	0xbdc6cef6	-0.097074434
210	0x3ddda50e	0.10822497
211	0xbdb1e835	-0.08686868
212	0xbcd836e2	-0.026393358
213	0x3c6bc79f	0.014390855
214	0xbcb2b512	-0.021814857
215	0x3ce74875	0.028232792
216	0xbde26514	-0.11054435
217	0x3dc894bf	0.09793996
218	0x3e78a443	0.24281411
219	0xbd8cec05	-0.06880955
220	0xbe218057	-0.15771614
221	0xbd86dd31	-0.06585158
222	0x3de66257	0.112492256
223	0xbdb78287	-0.08960443
224	0xbe18b947	-0.14914428
225	0xbd0b93a3	-0.034076344
226	0xbd67c999	-0.056588743
227	0x3dbfe57f	0.09369945
228	0x3d385baa	0.045009293
229	0xbd3a8bad	-0.04554336
230	0xbc2c63d8	-0.0105218515
231	0x3ccb6e5a	0.024832893
232	0x3d7798fc	0.06044863
233	0x3d936e6a	0.07198794
234	0x3ddc05c0	0.10743284
235	0xbe2c95c1	-0.16854002
236	0xbc0c2fc8	-0.008556314
237	0xbb356c5a	-0.002768299
238	0x3dc9b451	0.09848846
239	0xbd344766	-0.044013403
240	0xbc9dc7ae	-0.019260254
241	0xbcf24946	-0.029575955
242	0xbca77958	-0.020443603
243	0x3ab5931c	0.0013853046
244	0xbdb984d5	-0.09058539
245	0x3cd35ba1	0.025800528
246	0xbe18883c	-0.1489572
247	0x3e1fb074	0.15594655
248	0xbe2f9372	-0.1714609
249	0x3d84344b	0.064552866
250	0xbd506055	-0.05087312
251	0x3d413ae0	0.04717529
252	0xbd9719d4	-0.07377973
253	0x3d86e9d2	0.065875664
254	0x3daea25a	0.0852706
255	0x3d863517	0.06553095
