FYPprototype/results/SpawnLocationTest1/AIBalancing/AIBalancing-500019.onnx (onnx, 128465 bytes, 11 tensors)

action_model._discrete_distribution.branches.0.bias f4 [2]
0	0x3bf10231	0.0073549976
1	0xbbf1022d	-0.0073549957

action_model._discrete_distribution.branches.0.weight f4 [2, 128]
0	0xbb912f90	-0.0044307187
1	0x3bfce33b	0.0077175177
2	0x3c3618e7	0.011114336
3	0x3c1db453	0.009625512
4	0xbaecb22d	-0.0018058472
5	0xbbf74e57	-0.0075471806
6	0xbbba94b8	-0.005693998
7	0x3b59e7d2	0.0033249748
8	0x3ca59c78	0.020216212
9	0xbbbcc422	-0.0057606855
10	0xbc9afcfb	-0.018919459
11	0xbc947558	-0.01812236
12	0xbc306afb	-0.010767694
13	0x3c8def28	0.017325953
14	0xbcaae6a5	-0.020861933
15	0xbb23c251	-0.0024987648
16	0xbb073eb6	-0.0020636744
17	0xbc877025	-0.016532967
18	0xbc412bf5	-0.011790265
19	0x3b64b485	0.0034897637
20	0x3ca43651	0.020045431
21	0x3c0614d9	0.008183681
22	0xbbb5d27d	-0.005548774
23	0x39171694	0.00014408893
24	0x3b0c3690	0.0021394826
25	0xbbb6bfc3	-0.005577059
26	0xba8c84ab	-0.001072069
27	0xbc03183f	-0.008001386
28	0x3a91b39d	0.0011116151
29	0xbc0e5bd0	-0.008688882
30	0xbcc48c3b	-0.023992648
31	0xbbeba8a7	-0.007191736
32	0xbbb85bcc	-0.0056261774
33	0xbc930872	-0.017948363
34	0xbbae54f1	-0.0053201844
35	0xbb2fe4a1	-0.0026839154
36	0xbb13e388	-0.002256604
37	0x3c5221be	0.012825428
38	0x3a5c1263	0.0008395074
39	0x3a93426e	0.0011235008
40	0x3af6cfd9	0.0018830254
41	0xbc4f167a	-0.012639636
42	0xbc30c977	-0.01079022
43	0xbcb931bc	-0.022606723
44	0xbc169d83	-0.009192827
45	0x3bc43f3a	0.0059889825
46	0x3c5027b7	0.012704781
47	0x3b81990f	0.0039550136
48	0xbab0d5d2	-0.0013491458
49	0x3c580f36	0.01318722
50	0x3ac3cdcf	0.0014938655
51	0x3be83e77	0.0070875245
52	0x3c4d8a5c	0.0125451945
53	0xbc47e2d8	-0.01220008
54	0xba4f1317	-0.0007899268
55	0x3a1e57e3	0.0006040318
56	0xbc5405c2	-0.012940826
57	0xbca45a5c	-0.020062618
58	0x3b950f2e	0.0045489287
59	0x3a2ddc89	0.00066322886
60	0xbca5cfb0	-0.020240635
61	0xba42579e	-0.00074135687
62	0x3c39894b	0.011324237
63	0x3b004a0b	0.0019575383
64	0x3c22c6d7	0.009935102
65	0xbc5fe1f5	-0.013664712
66	0x3c6345bd	0.013871607
67	0xb91913f6	-0.00014598653
68	0xbc4f12ce	-0.012638761
69	0x3c0e78a2	0.008695753
70	0xbc8b0a3c	-0.016972654
71	0x3c1039c0	0.008802831
72	0xbb821c4c	-0.0039706584
73	0xb8c00fe9	-9.158237e-05
74	0xbbd8b190	-0.006612964
75	0xba27bcdc	-0.00063986867
76	0x3c1a7528	0.009427346
77	0xba634af6	-0.0008670533
78	0xbc80f19e	-0.015740212
79	0xbbdd8c38	-0.0067611
80	0xbb31429e	-0.0027047764
81	0x3c179df2	0.009253966
82	0xbc66c724	-0.014085565
83	0xbc37b3f1	-0.011212335
84	0xbbb4aad3	-0.005513528
85	0x3c46e5ae	0.012139721
86	0x3a8503d3	0.0010148234
87	0x3a2b3e0f	0.000653238
88	0x3c5becce	0.013423158
89	0x3b88e7d6	0.0041780276
90	0xbb2f8bb9	-0.0026786162
91	0x3bc8e443	0.0061307265
92	0xb94b728c	-0.0001940226
93	0x3b8474a7	0.0040422264
94	0xbbceeb30	-0.0063146576
95	0x3b0895eb	0.0020841311
96	0x3ba99d6a	0.005176236
97	0x3c669405	0.014073377
98	0xbc6bef26	-0.014400279
99	0x3c2e1431	0.010624931
100	0x3b8675e4	0.004103409
101	0x3c9c73b5	0.019098142
102	0xbca520bf	-0.020157216
103	0x3c44f696	0.012021681
104	0xbc7ed700	-0.01555419
105	0x398b3f2f	0.0002655922
106	0xbc836b90	-0.0160425
107	0x3b9bb5f0	0.0047519132
108	0xbbd06ac1	-0.0063603823
109	0xbbe093e0	-0.0068535656
110	0xbbaec90a	-0.0053340243
111	0xbc814537	-0.015780075
112	0xbb1161a7	-0.002218345
113	0x3ba1e519	0.0049406406
114	0x3b5dfebd	0.003387376
115	0xbb9edef3	-0.004848355
116	0x3c07d1ab	0.008289735
117	0xbbee6b68	-0.0072759874
118	0xbb945528	-0.004526753
119	0x3c5a5e6e	0.013328178
120	0xbac428e4	-0.00149658
121	0xbc4f3e93	-0.012649196
122	0xbc47abd5	-0.012186964
123	0xbc084165	-0.0083163725
124	0x3c0b3510	0.008496538
125	0x3cac7936	0.021053892
126	0x3c23587f	0.00996983
127	0xbc8c93c3	-0.017160302
128	0x3b1b0ade	0.00236576
129	0xbc1c8fe8	-0.009555794
130	0x3bb0d429	0.005396385
131	0xbc097996	-0.008390805
132	0x3c502e35	0.012706329
133	0x3b8a21ea	0.0042154687
134	0x3c01c544	0.007920567
135	0xbba74c82	-0.005105556
136	0xbba14883	-0.004921974
137	0x3b8bf5c7	0.0042712423
138	0x3c84af6a	0.016196925
139	0x3c20c29b	0.009812023
140	0x3bd8715f	0.0066053118
141	0x3acb5ccd	0.0015515328
142	0x3c43f07c	0.011959191
143	0xbc7794cf	-0.015111162
144	0x3aa8be66	0.0012874126
145	0x3cd405d4	0.025881685
146	0x3b329de8	0.0027254764
147	0x3afba98c	0.0019200309
148	0x3c5c550b	0.01344801
149	0x3c79bae0	0.015242308
150	0xbbfba8f2	-0.007680052
151	0x3c0b87bb	0.008516247
152	0x38a1a6c0	7.708138e-05
153	0x3c6f7024	0.014614139
154	0xbbec68a5	-0.007214623
155	0x3b6a22c5	0.003572629
156	0x3c12a40d	0.008950246
157	0x3c6f127a	0.0145918075
158	0xbb61cfae	-0.0034456062
159	0xbb8780c1	-0.0041352217
160	0x3befe9e6	0.007321584
161	0xbcb1ac0e	-0.021688487
162	0x3bf4c71c	0.0074700247
163	0x3c097faa	0.008392254
164	0xbc3a746f	-0.011380299
165	0xbc8238fb	-0.015896311
166	0xbc3bd648	-0.011464663
167	0xbacf9fad	-0.0015840434
168	0x3c01617f	0.00789678
169	0x3b3751d1	0.002797235
170	0x3b5ca258	0.00336661
171	0x3b9112f9	0.0044273105
172	0xbb0e8a09	-0.0021749756
173	0xbb8212f3	-0.003969544
174	0xbb09c077	-0.002101926
175	0xbb374fad	-0.0027971074
176	0x3b0146f3	0.0019726127
177	0xbc5e05f0	-0.01355122
178	0xbc2f638b	-0.010704885
179	0x3b1d82c2	0.0024034237
180	0xbc71d579	-0.0147603685
181	0x3a847f23	0.001010869
182	0x3c81251f	0.015764771
183	0x3c1e9f70	0.009681568
184	0x3bc6e68d	0.0060699643
185	0x3a918146	0.0011101149
186	0xbc2b2aae	-0.010447187
187	0x3b505144	0.003178672
188	0x3bd72a98	0.006566357
189	0xbbee1c6f	-0.007266573
190	0xbb316729	-0.0027069545
191	0x3c077a5b	0.008268918
192	0x3b5158a4	0.0031943703
193	0x3cc03636	0.02346335
194	0x3bc4f7d1	0.0060109873
195	0xbc8a719e	-0.01689988
196	0x3c37d950	0.011221245
197	0xbc4ce1fe	-0.012505053
198	0x3b57bc8e	0.0032918784
199	0x3bdd3f26	0.0067519126
200	0xbbdae337	-0.006679918
201	0xbba72307	-0.005100611
202	0xbc813fa9	-0.015777426
203	0x3be87420	0.0070939213
204	0xbb3be57b	-0.0028670717
205	0x39909b69	0.0002758161
206	0x3cb546b8	0.022128448
207	0xb99e50c3	-0.0003019628
208	0x3b87ca3b	0.004143981
209	0xbc7a903b	-0.015293176
210	0x3a10573a	0.0005506162
211	0x3c73ea62	0.014887424
212	0x3ba50b0f	0.0050367187
213	0x3b69f33b	0.0035697955
214	0x3b68a650	0.003549952
215	0x3ca06d9c	0.019583516
216	0xbccea8e1	-0.025227012
217	0x39d5c59f	0.00040773765
218	0x3c198a54	0.009371359
219	0xbc4784b0	-0.012177631
220	0x3c100b40	0.008791745
221	0xbb81b2f8	-0.0039581023
222	0x3bee8a5b	0.007279677
223	0xb978c86a	-0.00023725783
224	0xba470951	-0.0007592636
225	0x3c1d1d82	0.009589555
226	0x3c4b4b60	0.0124081075
227	0xbc0b997f	-0.008520483
228	0x3cd659fa	0.026165951
229	0x3b93747d	0.0044999705
230	0x3ad0f2d5	0.001594151
231	0x3c53cf0f	0.012927785
232	0x3c256fea	0.010097483
233	0x3a1b39e3	0.00059214066
234	0xbc382c43	-0.011241022
235	0x3c33af0b	0.010967026
236	0x3c784d92	0.015155213
237	0xb62c1eb3	-2.5647867e-06
238	0x3b987f55	0.004653851
239	0x3b8042db	0.00391422
240	0x3ccd7282	0.025079016
241	0x3b28bef5	0.0025748585
242	0xbbe3ebe4	-0.0069556106
243	0xbc6130fb	-0.013744588
244	0x3b885d3c	0.004161505
245	0xbc3aba02	-0.011396887
246	0xbbb5601a	-0.005535138
247	0xbbe25d7d	-0.0069081173
248	0x3af944de	0.0019017716
249	0xbc515e33	-0.0127788065
250	0x3c11c57e	0.008897183
251	0x3bfc5574	0.0077006165
252	0x3bf190f9	0.0073720184
253	0xbca43b9e	-0.020047959
254	0x3bf53b7d	0.007483898
255	0xbc274c45	-0.010211055

action_model._discrete_distribution.branches.1.bias f4 [19]
0	0xbc3a5f2a	-0.011375228
1	0xbbd75c76	-0.0065723015
2	0xbac1a8c9	-0.0014775033
3	0xbbb6d069	-0.0055790436
4	0x3b489d3d	0.00306113
5	0x3a1eed46	0.0006062578
6	0x3ab456f8	0.0013758829
7	0xbaa19069	-0.0012326363
8	0x3b0fbc84	0.0021932432
9	0x3ae6eb94	0.0017617815
10	0x3bc78182	0.0060884366
11	0x3b3f326b	0.0029174339
12	0x3bed808f	0.0072479914
13	0x3b4c2ec2	0.00311558
14	0x3b34fd04	0.002761663
15	0xbb4cc9b9	-0.0031248166
16	0x3b01cc11	0.001980547
17	0xbb111d41	-0.002214268
18	0x3b9f00a8	0.004852373

action_model._discrete_distribution.branches.1.weight f4 [19, 128]
0	0x3b9b3324	0.004736321
1	0xbc506c8d	-0.012721193
2	0x3c539824	0.012914691
3	0xbc01adb8	-0.007914953
4	0x3be3c191	0.006950565
5	0x3c0c8cdd	0.008578506
6	0x3c1203ea	0.008912066
7	0xbc8fec20	-0.017568648
8	0xbcb933d9	-0.02260773
9	0x3b438516	0.0029833964
10	0x3c89a7a1	0.016803565
11	0x3c625233	0.013813543
12	0x3c0bfff1	0.008544908
13	0xbcb18a4c	-0.02167239
14	0x3cee8fb9	0.029121267
15	0x3b38cbcb	0.0028197642
16	0x3c16500b	0.009174357
17	0x3b0fd0ff	0.002194464
18	0xbb9daea6	-0.0048120795
19	0x3b2214d3	0.002473165
20	0x3ab4e733	0.0013801813
21	0x3c939e79	0.018019902
22	0x3c4d6314	0.012535829
23	0x3b123623	0.00223101
24	0xbc0f58f3	-0.0087492345
25	0x3c63756b	0.013882975
26	0xbb8e9d60	-0.0043522567
27	0x3c437de0	0.011931866
28	0xbc25cdaa	-0.010119835
29	0x3cd208ed	0.025639022
30	0x3c96321b	0.018334439
31	0xbc0447dc	-0.008073773
32	0x3ca6b7ba	0.02035128
33	0x3b873eee	0.004127375
34	0x3bf1b578	0.007376369
35	0xbc089857	-0.008337102
36	0xba219bb3	-0.00061648636
37	0xbba4b497	-0.005026411
38	0xbbf66300	-0.007519126
39	0x3a384062	0.0007028637
40	0xba380ebd	-0.0007021239
41	0x3ad290e2	0.0016064907
42	0x3b93ee05	0.004514458
43	0x3c792f32	0.015209006
44	0xbc2676ce	-0.010160161
45	0x3ab08d09	0.0013469766
46	0x3c191c20	0.009345084
47	0xbc83a37d	-0.016069168
48	0x3c54a981	0.012979866
49	0xbca61524	-0.020273753
50	0xbc7329eb	-0.014841537
51	0x3b8f4d4a	0.0043732272
52	0xbca12f16	-0.019675773
53	0x3b9dbc96	0.004813741
54	0x3cc23a97	0.023709578
55	0xbb97b1c3	-0.004629345
56	0x3caed38e	0.021341112
57	0x3aedb1f6	0.0018134702
58	0x3ba6a10e	0.005085117
59	0x3a96329c	0.0011459175
60	0x3ca3b5a6	0.019984078
61	0xbca5365a	-0.020167518
62	0xbc2a0235	-0.010376503
63	0x3b3e972c	0.0029081805
64	0x3bef121e	0.007295861
65	0x3c9181e2	0.017762128
66	0xbccc7c13	-0.024961507
67	0xbccdd786	-0.025127184
68	0x3c9c3c59	0.019071745
69	0xbc89faab	-0.01684316
70	0x3bea261e	0.007145657
71	0x3b8fb05d	0.004385038
72	0xbbdbf0ad	-0.0067120404
73	0xbba59136	-0.005052711
74	0x3beb1b7d	0.0071749077
75	0xbc03aec5	-0.008037274
76	0xbbfdd098	-0.0077458136
77	0x3be4335d	0.006964131
78	0x3d2c2b3d	0.042033423
79	0x3c695405	0.014241223
80	0xbba3eb40	-0.005002409
81	0xbc54f04b	-0.012996743
82	0x3c330b57	0.010927997
83	0x3bb2c1b4	0.00545522
84	0xbbe09484	-0.006853642
85	0xbc8927b5	-0.016742567
86	0xbbe737b5	-0.0070562013
87	0xbb0a5eef	-0.0021113714
88	0xbc90f11d	-0.017693097
89	0x3cad1250	0.021126896
90	0x3ccdaaca	0.025105853
91	0xbcbee314	-0.023301639
92	0x3c25af22	0.010112556
93	0xbcd8c60e	-0.026461627
94	0x3cacf5fb	0.021113386
95	0x3b70e0ae	0.0036755013
96	0x3b9e618a	0.004833405
97	0xbb75fb1d	-0.0037533708
98	0x3ce0a6aa	0.027423222
99	0xbc0d7fe5	-0.008636449
100	0xbc371887	-0.011175281
101	0xbc106a9f	-0.008814483
102	0x3c4d7650	0.012540415
103	0x3c7417a9	0.014898219
104	0x3cb84790	0.022495061
105	0x3c872c73	0.016500687
106	0x3c57ca77	0.01317083
107	0xba9499fe	-0.0011337397
108	0x3c146a7a	0.009058589
109	0x3b998a4a	0.004685675
110	0x3c3f936e	0.011692865
111	0x3c47d572	0.012196885
112	0x3cce82a6	0.025208782
113	0x3c0fb357	0.008770785
114	0xbc14e693	-0.009088176
115	0x3cc56896	0.024097722
116	0x3c5fbe6d	0.013656241
117	0x3c5047de	0.012712447
118	0x3baab2c9	0.005209301
119	0xbcb838c0	-0.022487998
120	0x3bfa59b7	0.0076400894
121	0xba9b4ece	-0.0011849047
122	0x3ceb9746	0.028758656
123	0x3b65ec8c	0.003508362
124	0x3bf24709	0.007393722
125	0xbc8d79d8	-0.017270014
126	0xbbc65529	-0.0060526324
127	0xb98930dd	-0.00026167082
128	0x3c1de56c	0.009637218
129	0xbca10ac7	-0.01965846
130	0x3c280374	0.01025473
131	0xbcbcc1e6	-0.023041677
132	0x3c77406d	0.015091044
133	0xbbe7a467	-0.007069159
134	0x3c15abf6	0.009135237
135	0xba1c941d	-0.00059729983
136	0xbc3d8b20	-0.0115688145
137	0x3c95485b	0.018222978
138	0x3c23d63e	0.00999981
139	0x3bf994af	0.0076166014
140	0x3c0e8693	0.008699077
141	0x3a861e91	0.0010232498
142	0xbbc7e158	-0.006099861
143	0x3ba7256f	0.005100898
144	0x3be40612	0.0069587315
145	0x3b93d504	0.0045114774
146	0x3b80db1b	0.0039323694
147	0xbc8266c7	-0.015918149
148	0x3cb85cb1	0.022505136
149	0x3b278925	0.0025563922
150	0x3c04ca0a	0.0081048105
151	0xbc7ffee5	-0.015624736
152	0x3c4b0906	0.012392288
153	0x3c1dea70	0.009638414
154	0xbb920a0b	-0.0044567636
155	0x3b67482b	0.0035290818
156	0x3c549541	0.012975038
157	0x3c73ce54	0.014880735
158	0x3bd3b5c0	0.0064608753
159	0xbb8df891	-0.00433261
160	0x3bea69fe	0.0071537485
161	0xbc4690f6	-0.012119522
162	0x3c7a940e	0.015294088
163	0x3c50f7d8	0.012754403
164	0xbb5d7730	-0.0033792965
165	0xbc8e2593	-0.017351901
166	0x3b3dfb40	0.0028988868
167	0x3b12fe9e	0.0022429596
168	0x3be7e2b9	0.007076588
169	0x3cc6ea8a	0.024281759
170	0x3bb82632	0.0056197876
171	0xbb9e97e4	-0.004839884
172	0x3bd3ee44	0.0064676125
173	0xbb992c83	-0.0046744957
174	0x3beb639c	0.007183505
175	0xbba76dce	-0.0051095253
176	0xbc8b732a	-0.017022688
177	0xbc27ee9d	-0.010249761
178	0xbbf796d6	-0.007555823
179	0xbba7752c	-0.0051104035
180	0xbca31bb1	-0.019910665
181	0xbb9cea34	-0.0047886614
182	0x3c491d0e	0.012274994
183	0x3c1c3990	0.009535208
184	0x3ba8ab07	0.005147341
185	0x3b272a52	0.0025507403
186	0xbcb65fc0	-0.022262454
187	0x3ba20743	0.0049447133
188	0x3c55505d	0.013019648
189	0x3b7ebb4d	0.0038868964
190	0x3c216b74	0.009852279
191	0x3c4b309d	0.012401727
192	0x3ba1f01a	0.0049419524
193	0x3cef9122	0.02924401
194	0xbb718f6c	-0.0036859168
195	0xbb9bdf16	-0.0047568185
196	0x3cba3c5f	0.022733865
197	0xbca4e485	-0.020128498
198	0x3c00f73f	0.007871448
199	0x3c1cc560	0.009568542
200	0xbb7c7941	-0.0038524421
201	0xbc6c9b5a	-0.014441336
202	0x3bb0a5c9	0.005390857
203	0x3bdc3073	0.006719643
204	0xbb9415f1	-0.004519217
205	0x3b8d78d1	0.004317381
206	0x3c0e7f2c	0.008697312
207	0xbaaec2b2	-0.001333317
208	0x3c29554e	0.01033528
209	0x39fa6b6b	0.00047763748
210	0xbbe97f40	-0.007125765
211	0xbc1983c3	-0.009369793
212	0xbbead014	-0.007165918
213	0xbbbf4fb1	-0.0058383574
214	0xbbedf1da	-0.007261497
215	0x3848b55c	4.785262e-05
216	0xbc61c479	-0.013779753
217	0xb934e8a2	-0.000172528
218	0x3be5c800	0.0070123672
219	0xbb2389f5	-0.0024954055
220	0xbbb8d945	-0.005641135
221	0xbb8c551a	-0.004282606
222	0xbbbc5028	-0.00574686
223	0xbaebd7d1	-0.0017993395
224	0xbb56c5e0	-0.0032771751
225	0xbc69f0f4	-0.014278639
226	0x3c1a1cc3	0.009406271
227	0xbc825fda	-0.015914846
228	0x3c1016e7	0.008794523
229	0xbb9c9bc0	-0.004779309
230	0x3c170058	0.009216391
231	0x3be326ac	0.0069321003
232	0x3bde7b79	0.0067896214
233	0xbb851d9d	-0.004062368
234	0x3c28ae9c	0.010295536
235	0x3bcf1641	0.0063197915
236	0xbc6e01ac	-0.014526766
237	0xbb657bb8	-0.003501637
238	0x3b82c43a	0.003990677
239	0x3bc2c08b	0.005943363
240	0x3c2107bb	0.009828503
241	0x3bdd53dd	0.006754382
242	0x3b5e43ee	0.0033915
243	0xbb022363	-0.0019857518
244	0x3c6442ff	0.013931989
245	0xbbdc35ae	-0.0067202663
246	0xbbbac30a	-0.00569952
247	0x38931ed2	7.015247e-05
248	0xbbe7798b	-0.0070640496
249	0xbb86d3d8	-0.004114609
250	0x3c071dd6	0.00824686
251	0x3c19c7fb	0.009386058
252	0xbc46f127	-0.012142456
253	0xbcc330fc	-0.023827069
254	0x3b8652a9	0.0040992093
255	0xbbfb975b	-0.007677955

action_model._discrete_distribution.branches.2.bias f4 [14]
0	0xbc212ca0	-0.0098373
1	0xbb5a01ec	-0.0033265306
2	0xb76fed7c	-1.4300804e-05
3	0x3b9820e4	0.0046425927
4	0xbba0d0b7	-0.0049076932
5	0xbb1ff529	-0.0024407601
6	0xbbd4df92	-0.006496378
7	0x3bcb766f	0.0062091867
8	0x3b21af8c	0.0024671284
9	0x39c53bb3	0.00037619247
10	0x3a23e179	0.00062515546
11	0x3c0f3ed5	0.008743008
12	0x3b68b330	0.0035507195
13	0x3afbca16	0.0019210007

action_model._discrete_distribution.branches.2.weight f4 [14, 128]
0	0x3c3e0038	0.011596732
1	0x3bf8bb03	0.007590653
2	0x3bc2f291	0.0059493263
3	0x3c54c712	0.012986915
4	0x3b804606	0.0039145974
5	0x3aaf2dbf	0.0013365074
6	0x3c25ee30	0.010127589
7	0xbbe439ef	-0.006964914
8	0xbc41d40c	-0.011830341
9	0x3ca15d1b	0.019697716
10	0x3bdb2155	0.006687323
11	0x3b380414	0.0028078603
12	0x3c0fe8cf	0.008783533
13	0xbbd585d6	-0.0065161986
14	0x3c2bad84	0.010478381
15	0xbcb71a5b	-0.022351434
16	0x3b32a842	0.0027260934
17	0x3c18905e	0.009311764
18	0xbb10429a	-0.0022012354
19	0xbb503ee4	-0.0031775767
20	0x3b2494ac	0.002511303
21	0x3b1c8e2f	0.002388846
22	0xbc171477	-0.009221188
23	0xbc43c839	-0.011949592
24	0x3bcc76b7	0.006239738
25	0x3b5b31d7	0.0033446455
26	0xbb7292c9	-0.003701376
27	0x3c3e6dfc	0.011622902
28	0xbc2666dd	-0.01015636
29	0x3c4c553c	0.012471493
30	0x3c168239	0.009186321
31	0xbc4552a8	-0.012043633
32	0x3bac80e9	0.0052643907
33	0x3bd8ee6a	0.006620218
34	0x3bba556a	0.0056864517
35	0x3c14c1e1	0.009079427
36	0xbba3d145	-0.004999312
37	0x3b8d24cf	0.0043073664
38	0x3b9bb507	0.0047518048
39	0xbbb6a6c7	-0.0055740806
40	0xb8a3d173	-7.8114586e-05
41	0x3bfd5471	0.0077310135
42	0x3c91160f	0.017710714
43	0x3b17aa02	0.0023142104
44	0x3bdabfe0	0.0066757053
45	0xba933df8	-0.0011233678
46	0xb8a5cb37	-7.905665e-05
47	0x3a595817	0.00082910195
48	0xbb915561	-0.004435227
49	0xbc5aeb1b	-0.013361718
50	0x3bf7d5de	0.0075633368
51	0xbc2bd00f	-0.010486617
52	0xbc5941ef	-0.013260349
53	0x3ba43f0a	0.0050123977
54	0x3c1e759c	0.009671595
55	0x3c6a67ca	0.014306972
56	0x3cb1f8d9	0.021725105
57	0x3c2b4531	0.010453508
58	0x3bce4c06	0.006295684
59	0x3c23fc1a	0.010008836
60	0x3cd8b028	0.026451185
61	0xbb4d37c3	-0.0031313754
62	0xbc2ea85b	-0.010660256
63	0x3b929df1	0.0044743945
64	0x3c69d977	0.014273039
65	0x3cd04725	0.02542455
66	0xbc3ecf5c	-0.011646118
67	0xbc2dbbe0	-0.010603875
68	0x3c881232	0.016610239
69	0xbbf3ba13	-0.0074379533
70	0x3ca8d726	0.020610403
71	0x3c487197	0.012234113
72	0xbbec2437	-0.0072064656
73	0xbb5bb9d8	-0.003352752
74	0xbcb2292e	-0.021748152
75	0x3b96b763	0.004599498
76	0xbc6d1db5	-0.014472415
77	0x3c064f10	0.008197561
78	0x3d00b395	0.031421263
79	0x3ca59a80	0.020215273
80	0x3c3a1fb4	0.011360098
81	0xbcb86960	-0.022511184
82	0x3b010c18	0.0019691046
83	0x3ac20853	0.0014803506
84	0x3c6391e5	0.013889764
85	0xbc2689fb	-0.010164733
86	0x3b3867c7	0.0028138028
87	0x3b60758d	0.0034249753
88	0xbc848256	-0.01617543
89	0x3c82b2d0	0.015954405
90	0x3981246c	0.00024631934
91	0xbce1d5a5	-0.027567694
92	0x3c858da8	0.016302899
93	0xbc745eb5	-0.014915158
94	0xbc1d33b8	-0.00959485
95	0xbc03d69e	-0.008046774
96	0xbbeb6699	-0.0071838615
97	0x39c3cd4b	0.00037346254
98	0x3c0cd5bb	0.008595879
99	0xbcbc3d69	-0.022978501
100	0x3c0dad72	0.00864731
101	0xbb0c864b	-0.002144235
102	0x3c73f334	0.014889527
103	0x3bcde5a3	0.0062834783
104	0x3c1cad03	0.009562734
105	0x3a2d0b79	0.0006601136
106	0x3c9c0672	0.019046042
107	0xbbbe2333	-0.005802536
108	0x3baf976d	0.0053586275
109	0x3c182d29	0.009288111
110	0x3b416a5b	0.0029512856
111	0x3bbb4d5d	0.0057160095
112	0x3cd11e0e	0.025527027
113	0x3c7cd59c	0.015431788
114	0xbcc64fa6	-0.024207901
115	0xbc10a1db	-0.008827652
116	0x3c31c41f	0.010849982
117	0xba80af4c	-0.0009817868
118	0x3c6b24cc	0.014352035
119	0xbc061f7c	-0.008186217
120	0xbbb63097	-0.0055599916
121	0xbb9468c6	-0.0045290915
122	0x3c9efd29	0.019407826
123	0x39bf0d0d	0.00036440082
124	0x3c22cda4	0.009936724
125	0xbcb5a460	-0.022173107
126	0x3c193009	0.009349831
127	0x3af0ea7a	0.0018380426
128	0x388d04fc	6.724332e-05
129	0xbc23819f	-0.009979635
130	0x3b1cf241	0.0023948106
131	0xbbf43dc3	-0.0074536516
132	0x3b8631e5	0.0040953034
133	0x3c0a15b0	0.008428022
134	0x3c095843	0.00838286
135	0xbc9d4fc3	-0.019203072
136	0xbc7c9008	-0.015415199
137	0x3c09def1	0.00841497
138	0xbb26c7f6	-0.0025448776
139	0xbb8d6ade	-0.004315718
140	0x3ca060be	0.01957738
141	0xbbbfabe8	-0.0058493502
142	0x3c17826d	0.0092474045
143	0xbb608601	-0.003425956
144	0x3b0d4690	0.002155695
145	0x3bed5e43	0.007243903
146	0xbc6a2cd2	-0.014292913
147	0x39d6fc1f	0.00041005106
148	0xb8ab3006	-8.1628605e-05
149	0x3c1c8f3a	0.009555632
150	0x373d780b	1.12932275e-05
151	0x3bdcd8b9	0.0067397025
152	0xbb71c0d3	-0.0036888614
153	0x3b1ae68f	0.0023635959
154	0xbc4b6ddf	-0.012416332
155	0x3c63d00f	0.0139045855
156	0x3bba7bcc	0.0056910273
157	0x3bbf5ab2	0.005839669
158	0x3bbbf607	0.005736116
159	0xbb81361c	-0.003943218
160	0xbbed956a	-0.0072504776
161	0xbb7d5643	-0.0038656152
162	0xbc495356	-0.012287935
163	0x3b7641ae	0.003757577
164	0xbc03abac	-0.008036535
165	0xbbf6bc1d	-0.007529749
166	0x39defe7a	0.0004253274
167	0x3b8d1829	0.0043058586
168	0x3bc2988a	0.005938594
169	0xbb4295a9	-0.0029691255
170	0x3af15bc3	0.0018414188
171	0xbb711c84	-0.0036790678
172	0xbc3f05ec	-0.011659127
173	0xbc957148	-0.018242493
174	0xbc0dbdc0	-0.008651197
175	0xbc94d8eb	-0.01816984
176	0x3b87d103	0.004144789
177	0xbbaf3a65	-0.0053475373
178	0x3c390645	0.011292999
179	0xbbf3f723	-0.0074452325
180	0xbb4ac23b	-0.0030938524
181	0x3ae79ef7	0.0017671277
182	0x3c06507b	0.008197899
183	0x3c41b1d8	0.011822186
184	0x3b889dad	0.004169187
185	0x3b1fc7c2	0.002438054
186	0x3a3c8dbe	0.0007192752
187	0x3c011ae6	0.007879948
188	0x3b630110	0.0034638084
189	0xbb329bcb	-0.0027253504
190	0xbc644141	-0.013931573
191	0x3aade108	0.0013265917
192	0x3b3c4aa7	0.002873102
193	0x3b91fec3	0.004455419
194	0xbad08b73	-0.00159107
195	0xbc74f619	-0.014951252
196	0x3c965e70	0.018355578
197	0xbbbfc03a	-0.0058517726
198	0x3c0c21ac	0.00855295
199	0xba4903eb	-0.00076681253
200	0xb6b0a88e	-5.264831e-06
201	0xbb757a88	-0.0037457068
202	0x3c3601d1	0.0111088315
203	0xbaffb4a1	-0.0019508788
204	0x38c07ec0	9.1788825e-05
205	0x3bb080e1	0.0053864573
206	0x3b043d11	0.0020178
207	0xbb8b6d06	-0.00425494
208	0x3ac4ebfe	0.0015023944
209	0x3b029d4e	0.0019930187
210	0x3ac3d14f	0.0014939698
211	0x3bfb2de2	0.0076653818
212	0x3b307eb4	0.002693099
213	0x3ba46bae	0.005017719
214	0xbb8dbd2c	-0.0043255296
215	0xbb3ab23f	-0.002848759
216	0xb941cfbf	-0.00018483306
217	0x3c29c40a	0.010361681
218	0x3b6421e1	0.0034810232
219	0xbc607c97	-0.0137015795
220	0xbbc0898b	-0.0058757714
221	0xbb7a3fc3	-0.0038184978
222	0xbb902f7b	-0.0044001914
223	0xbb9afe55	-0.004730026
224	0x3c3e6481	0.011620642
225	0xbbb2be50	-0.005454816
226	0xbb7422ae	-0.0037252116
227	0xbc1cd07b	-0.00957119
228	0xbb1ffb34	-0.0024411203
229	0x3b6ca033	0.0036106228
230	0x3c33395a	0.010938967
231	0x3c778cb3	0.015109229
232	0x3c0a15b7	0.008428029
233	0x39d0f2d5	0.00039853776
234	0x3a27c792	0.0006400283
235	0xbbc66f3c	-0.0060557406
236	0xbc16be1d	-0.0092006
237	0x3be351b4	0.00693723
238	0x3bbad3de	0.005701526
239	0x3c524415	0.012833615
240	0xbc66e3bc	-0.014092382
241	0xbc5fe333	-0.013665008
242	0xbc7612ab	-0.015019099
243	0x3c35c29f	0.011093765
244	0x3c25a7c9	0.010110804
245	0xbc321258	-0.010868631
246	0xbc074cbb	-0.00825804
247	0xbb1dab4a	-0.0024058395
248	0x3ba076e1	0.004896984
249	0xbaf896b3	-0.001896581
250	0x3b5e5914	0.0033927606
251	0x3c256e69	0.010097125
252	0xbc8050b4	-0.015663482
253	0xbb9660e0	-0.004589185
254	0xbc1c0e44	-0.009524886
255	0xbc2b2178	-0.010444991

discrete_action_output_shape f4 [1, 3]
0	0x40000000	2.0
1	0x41980000	19.0
2	0x41600000	14.0

network_body._body_endoder.seq_layers.0.bias f4 [128]
0	0xbb11b659	-0.0022233932
1	0xb82af052	-4.0754974e-05
2	0x3ad2ed5a	0.0016092465
3	0xbbc624d7	-0.006046872
4	0xbbba8335	-0.0056919106
5	0xb9a167d5	-0.00030785674
6	0xbbbad3ba	-0.0057015093
7	0xbb1a3344	-0.0023529092
8	0xb9116a85	-0.00013867959
9	0x3baaed5d	0.005216284
10	0xba6ffcb7	-0.0009154784
11	0x39fb0e6c	0.00047885196
12	0xbb9ba034	-0.0047493223
13	0xbb427a1c	-0.0029674834
14	0xba8d9e93	-0.0010804705
15	0x3a40fde4	0.00073620514
16	0x3bbdd276	0.005792911
17	0x3a1efd17	0.0006064935
18	0xbc22e50d	-0.009942305
19	0x3bb0e777	0.0053986865
20	0xbb939e77	-0.0045049745
21	0xbb2f0bef	-0.0026709994
22	0xbb5bd555	-0.0033543904
23	0x3ba395a4	0.004992204
24	0x3accca95	0.0015624339
25	0xbb2a4043	-0.0025978244
26	0xba8bb774	-0.0010659532
27	0xbc30e0ef	-0.010795816
28	0x3a256373	0.00063090696
29	0xbaba2685	-0.0014202154
30	0xbb79dd26	-0.00381262
31	0x3b9992a4	0.0046866704
32	0xbafe68cb	-0.0019409893
33	0xbb938cfe	-0.0045028916
34	0xbb621d22	-0.0034502228
35	0x3b12b36b	0.0022384773
36	0xbb40bf7a	-0.0029411004
37	0x3b62d9dd	0.003461472
38	0x3b3f7a08	0.0029217023
39	0x3c25a4cb	0.0101100905
40	0x3ba6b865	0.0050878995
41	0xba8d9acd	-0.001080358
42	0x3a948bbc	0.0011333148
43	0xbb7b42ab	-0.0038339298
44	0xbb7e4f9f	-0.0038804782
45	0xbb419365	-0.0029537317
46	0xbb7fe02c	-0.003904353
47	0xbc11aefe	-0.008891819
48	0x3b14818b	0.0022660221
49	0x3b1a3f5a	0.0023536296
50	0xbb11d12d	-0.0022249923
51	0xba8c5cc7	-0.0010708802
52	0x3b35cdeb	0.0027741145
53	0xbaa1d0a6	-0.0012345507
54	0x3b869216	0.0041067703
55	0xbbbee1e6	-0.005825269
56	0xbb5a3bb0	-0.0033299737
57	0xbbb8d219	-0.00564028
58	0xbb9fc580	-0.0048758388
59	0xba1a3cb5	-0.000588368
60	0xbbd0cb76	-0.0063719107
61	0xbb461272	-0.0030223397
62	0xbbc22037	-0.0059242505
63	0xbb9bb0cc	-0.0047513004
64	0x3b95e50c	0.0045744237
65	0xbb74c5b3	-0.0037349283
66	0xbbe5b008	-0.00700951
67	0x3bed0a31	0.007233881
68	0x3a22cbae	0.000621016
69	0xbabfa0d4	-0.0014620074
70	0x3b48ac7b	0.0030620384
71	0x3b02c7da	0.0019955547
72	0x3b886271	0.0041621258
73	0xbb80deea	-0.0039328234
74	0xbb9c3a6e	-0.0047677075
75	0xbb78daf9	-0.0037972315
76	0xbc2a1246	-0.010380333
77	0xbbf6811d	-0.0075227157
78	0xb9ba5d16	-0.0003554604
79	0x3be49dfd	0.0069768415
80	0x3b2daf68	0.0026502255
81	0xbc087693	-0.008329052
82	0xbc0829cd	-0.008310747
83	0x3bd1bdf7	0.0064008194
84	0x3b74b681	0.0037340226
85	0xba8b854a	-0.0010644582
86	0xbb4b0d87	-0.0030983405
87	0xbb3f00cc	-0.0029144762
88	0xbb180a1c	-0.0023199385
89	0xbacdab76	-0.0015691358
90	0x3b93765b	0.004500193
91	0xbbba545e	-0.005686327
92	0xbbb4179d	-0.005495979
93	0xbb59357c	-0.0033143451
94	0x3c3dc00a	0.01158143
95	0xbba13b01	-0.004920364
96	0xbbcf4fcb	-0.0063266507
97	0x3c60ed31	0.013728426
98	0x3bc448f8	0.005990144
99	0xbc415731	-0.011800573
100	0xbb34ccb4	-0.0027587833
101	0xbc17fa85	-0.009276037
102	0xb8bc7790	-8.986809e-05
103	0xbbfb6782	-0.007672251
104	0xbbf87cfc	-0.0075832587
105	0x3b2c0d51	0.0026253054
106	0xbbd78003	-0.0065765395
107	0x3b1cc91a	0.0023923577
108	0x3b6e2dfc	0.0036343327
109	0xbb05021f	-0.0020295454
110	0x3a8e6ba6	0.0010865822
111	0x3b12a571	0.0022376443
112	0xbc2eed1b	-0.010676648
113	0xbb2d0bef	-0.0026404818
114	0xbb3b3ce1	-0.0028570222
115	0xbc09cfd5	-0.008411367
116	0xbb4d5c48	-0.0031335521
117	0x3885340f	6.351631e-05
118	0xbc2b2b66	-0.010447359
119	0x3b29aaa1	0.0025889056
120	0x3b66020f	0.0035096442
121	0x3a098470	0.000524587
122	0xbb4f57ba	-0.0031637982
123	0x3b8eacdc	0.0043541025
124	0xba76caa8	-0.00094143534
125	0xbbdd1d9e	-0.0067479154
126	0x3c1a3b34	0.009413529
127	0x3c03e179	0.008049362

network_body._body_endoder.seq_layers.0.weight f4 [128, 78]
0	0x3c4010e0	0.011722773
1	0xbd885c9e	-0.0665829
2	0x3db68c20	0.089134455
3	0x3e1ce738	0.15322578
4	0xbd9cbb24	-0.07652882
5	0xbddd39de	-0.10802053
6	0xbe91c7d2	-0.28472763
7	0xbc5bb3eb	-0.013409595
8	0xbcd6cd20	-0.026220858
9	0xbe17a36e	-0.14808437
10	0xbe192e8d	-0.14959164
11	0x3e4c69a0	0.19962168
12	0xbc4ffc62	-0.01269445
13	0xbdfa4730	-0.12220609
14	0xbe57c6a5	-0.2107187
15	0x39b7f75b	0.00035088774
16	0x3d650618	0.055914015
17	0xbda85fc6	-0.08221392
18	0xbc82964b	-0.015940806
19	0x3c7d4372	0.015457975
20	0x3d854740	0.065077305
21	0x3b1e481b	0.0024151865
22	0xbd8638af	-0.0655378
23	0x3e8372fe	0.2567367
24	0xbe51e3ff	-0.2049713
25	0x3d372622	0.0447141
26	0xbd8310e0	-0.06399703
27	0x3dd52bc4	0.10408738
28	0x3ba308e8	0.004975427
29	0xbdfe0fa8	-0.1240533
30	0x3c713716	0.014722606
31	0x3d54fc0f	0.051998194
32	0x3dc481bf	0.095950596
33	0xbb5d7ab1	-0.0033795054
34	0x3cccc44b	0.024995944
35	0x3c60ee5b	0.013728703
36	0x3d8da509	0.069162436
37	0xbd91aa4a	-0.07112558
38	0x3dda7b4c	0.10668048
39	0xbc7db1f1	-0.015484319
40	0x3dc090c8	0.09402615
41	0x3db54b6c	0.08852276
42	0x3cce642f	0.025194256
43	0x3e4583e5	0.19288595
44	0xbe0c3c67	-0.13694917
45	0xbe601471	-0.21882798
46	0x3e46c157	0.19409691
47	0x3ddc0fb9	0.10745186
48	0xbc6e4a44	-0.0145440735
49	0x3d4975ba	0.04918454
50	0xbe0694c2	-0.13142684
51	0xbb488129	-0.0030594564
52	0x3caef6cb	0.021357914
53	0xbcd7be53	-0.02633587
54	0x3e6ce88e	0.23135588
55	0x3bfdb074	0.007741982
56	0x3c3c596e	0.011495931
57	0x3e8f6620	0.28007603
58	0x3e280c77	0.16411005
59	0x3e7bffa9	0.24609245
60	0xbc583cda	-0.013198102
61	0xbb901ebc	-0.004398195
62	0xbc79c31a	-0.01524427
63	0x3e045b99	0.12925567
64	0x3ddf1a96	0.10893743
65	0x3d2454bc	0.04011987
66	0x3e0a844d	0.13527031
67	0x3e179b48	0.14805329
68	0xbda966f5	-0.082715906
69	0x3e1a0822	0.15042165
70	0x3e18c335	0.14918216
71	0x3a98b734	0.0011651278
72	0x3dabd3ab	0.08389982
73	0xbd19ada4	-0.037519112
74	0xbe31867e	-0.17336461
75	0xbeadefa9	-0.3397191
76	0xbca8bb74	-0.020597197
77	0x3e3b60e0	0.18298674
78	0x3e0485fa	0.12941733
79	0x3b3259c4	0.002721415
80	0x3db8059c	0.08985445
81	0x3db27591	0.0871383
82	0x3dbcc4b8	0.092172086
83	0xbe6182c7	-0.22022544
84	0xbded929a	-0.11600228
85	0x3ca8e837	0.020618541
86	0xbe157179	-0.14594068
87	0x3d9a4535	0.075327314
88	0xbcbb23a1	-0.022844138
89	0x3d83fcbd	0.064446904
90	0x3dff2182	0.12457563
91	0xbd12980d	-0.03578954
92	0xbc8b5ec2	-0.017012957
93	0xbdc0bee7	-0.09411412
94	0x3d9a53a1	0.07535482
95	0x3d9dbd5d	0.07702134
96	0x3e22883e	0.15872285
97	0xbe03b547	-0.1286212
98	0xbd3a44b1	-0.045475665
99	0xbc013e62	-0.007888408
100	0xbd7f6715	-0.062354166
101	0xbde17466	-0.11008529
102	0x3d2aaa2f	0.041666206
103	0x3e1245b6	0.14284405
104	0x3cb1a50d	0.021685148
105	0xbdd086ff	-0.101819985
106	0x3d12a5ed	0.03580277
107	0x3e8bba22	0.27290446
108	0x3dff9799	0.12480087
109	0xbc9bddc8	-0.019026652
110	0x3d722490	0.0591169
111	0x3d819869	0.06327898
112	0x3d97de7e	0.07415484
113	0x3e228624	0.15871483
114	0x3e4d8778	0.20071208
115	0xbd2778cb	-0.04088668
116	0xbe41d6f3	-0.18929653
117	0xbdb3fd5d	-0.087885596
118	0xbd9bfcbd	-0.076165654
119	0x3e689346	0.2271243
120	0x3c6fcef3	0.014636743
121	0x3d95c456	0.07312839
122	0x3d6b47f6	0.057441674
123	0xbb9c6b55	-0.004773537
124	0x3b4c7a5c	0.0031200862
125	0xbbb1bfa1	-0.0054244553
126	0xbd204cfb	-0.039135914
127	0xbdfdee6d	-0.12398992
128	0x3e034b89	0.12821783
129	0x3d8dfa85	0.069325484
130	0xbd67d880	-0.056602955
131	0xbe2085b8	-0.1567601
132	0x3c964049	0.0183412
133	0xbdd051b6	-0.10171835
134	0xbe241342	-0.16022971
135	0xbdd66f2f	-0.10470425
136	0xbd1834d1	-0.037159745
137	0x3d83e516	0.06440179
138	0xbe179d26	-0.14806041
139	0xbd1d8ef9	-0.038466427
140	0x3de973d2	0.11399044
141	0x3c18cbb3	0.009325909
142	0xbdffdb8e	-0.124930486
143	0x3d65925a	0.056047775
144	0x3c3e1898	0.011602543
145	0xbd5bb148	-0.053635865
146	0xbdbfb7c5	-0.09361223
147	0xbcd5cd65	-0.026098916
148	0x3db256d2	0.08707966
149	0x3de6eb79	0.112753816
150	0xbe0cabba	-0.13737383
151	0xbd8ca19c	-0.06866762
152	0xbcbd2c01	-0.023092272
153	0x3e0e0e9b	0.13872759
154	0x3e8651b6	0.26234215
155	0x3d28d2e0	0.04121673
156	0x3e2165f8	0.15761554
157	0x3c6c0528	0.014405526
158	0xbd08f16b	-0.03343336
159	0x3dec656f	0.115427844
160	0xbcc531b5	-0.024071554
161	0xbc9bbd4d	-0.019011164
162	0xbdce5732	-0.10075225
163	0xbdfad042	-0.12246753
164	0x3d4d4320	0.050112844
165	0xbd670c03	-0.05640794
166	0xbc20b3e8	-0.009808518
167	0x3d67435b	0.05646072
168	0x3d97be91	0.074093945
169	0xbe377f48	-0.17919648
170	0xbe822820	-0.25421238
171	0xb8c79c9b	-9.5182295e-05
172	0xbd874df3	-0.066066645
173	0x3e16979a	0.14706269
174	0x3e8a3a78	0.26997733
175	0xbccfe94a	-0.025379796
176	0x3d9da5c1	0.07697631
177	0xbca99b53	-0.020703947
178	0x3e41c74e	0.18923685
179	0x3d88ef36	0.06686251
180	0x3ddddbcf	0.10832941
181	0xbe6353ef	-0.22199987
182	0xbd591ef1	-0.053008024
183	0xbe04fe0b	-0.12987535
184	0xbe095c15	-0.13414033
185	0x3cdebaa2	0.027188603
186	0xbd74fa3a	-0.059808947
187	0x3cbe665d	0.02324217
188	0x3ac29410	0.0014845151
189	0x3b8e35cd	0.0043399096
190	0x3e9c6963	0.30549154
191	0x3c7f257e	0.015572904
192	0xbded977e	-0.116011605
193	0xbdebe525	-0.11518315
194	0xbe1dd83b	-0.15414517
195	0xbdad40db	-0.08459636
196	0x3e8dd75c	0.2770337
197	0x3d9a84dc	0.07544872
198	0x3c80db9c	0.015729718
199	0xbad172d7	-0.001597966
200	0xbcb27846	-0.021785866
201	0xbe5b8eea	-0.21441236
202	0x3d7c6e85	0.061628837
203	0xbe408609	-0.1880113
204	0x3c340fb7	0.010990075
205	0x3e1e7266	0.15473327
206	0x3cb94279	0.022614704
207	0x3e36e1bb	0.17859547
208	0x3d7055d2	0.058675595
209	0x3e08ef43	0.13372521
210	0xbe2d2fe1	-0.16912796
211	0xbe3f5d05	-0.18687828
212	0xbdabd4c7	-0.083901934
213	0x3c8f19b2	0.017468307
214	0xbd1f93ff	-0.0389595
215	0xbcb2265b	-0.021746805
216	0x3e04dbc7	0.12974463
217	0x3dd9de15	0.10638062
218	0x3d4c5609	0.049886737
219	0x3e085cf4	0.13316709
220	0x3e19ca92	0.1501868
221	0xbd787c52	-0.060665436
222	0x3d3a85bf	0.045537706
223	0x3d544031	0.05181903
224	0xbd518d28	-0.051160008
225	0xbd4b807c	-0.04968308
226	0x3de19cab	0.1101621
227	0xbda1c1e4	-0.0789831
228	0x3d517c81	0.051144127
229	0x3ca57c25	0.020200798
230	0x3d8ac6cb	0.06776198
231	0x3bbda02a	0.0057869153
232	0xbe06b1dd	-0.13153787
233	0x3ca7787e	0.020443197
234	0x3d40d179	0.04707477
235	0xbe3ae054	-0.18249637
236	0x3d04a7a4	0.032386437
237	0x3e167519	0.14693107
238	0x3d3e92f0	0.04652685
239	0xbe1fed38	-0.15617836
240	0xbe600f5b	-0.21880858
241	0x3e05fc2c	0.13084477
242	0xbe4acf83	-0.19805722
243	0x3e2e43ed	0.17018099
244	0x3e0107ec	0.12600678
245	0xbd6a2868	-0.05716744
246	0xbc59cd45	-0.013293569
247	0xbcd87762	-0.026424114
248	0x3ceca525	0.02888734
249	0xbc99b410	-0.018762618
250	0xbde67f2e	-0.11254726
251	0x3dddeaf2	0.10835828
252	0xbe1bdb02	-0.15220264
253	0x3db1db8e	0.08684455
254	0xbd0fdc7b	-0.035122376
255	0xbd198706	-0.037482284

network_body._body_endoder.seq_layers.2.bias f4 [128]
0	0xbb94f33d	-0.004545598
1	0xba7fe939	-0.0009762231
2	0xba90a4ca	-0.0011035439
3	0xbb127bea	-0.002235169
4	0xbc230083	-0.0099488525
5	0xbbbad580	-0.0057017207
6	0xbc1e0a63	-0.009646031
7	0xbc09e4e0	-0.008416384
8	0x3ba4b308	0.005026225
9	0x3a585bdf	0.0008253436
10	0xbb4fb6fc	-0.003169476
11	0xb98b8253	-0.00026609245
12	0x3a871fa0	0.0010309108
13	0xbace7962	-0.0015752728
14	0xbb84aa23	-0.004048602
15	0xbb95dc64	-0.0045733918
16	0xbbb9f055	-0.0056744018
17	0xbb2523df	-0.0025198383
18	0xbb9028da	-0.004399401
19	0xbbd6bcd1	-0.0065532704
20	0xbb8d6145	-0.004314574
21	0xbba6ec4a	-0.005094086
22	0xbc0d05a9	-0.0086073065
23	0xbc1b7b8b	-0.009489904
24	0xbbf71705	-0.007540586
25	0xbbf3f719	-0.007445228
26	0xbb6ec9ae	-0.0036436128
27	0x3a37f16b	0.000701687
28	0xbb6850d7	-0.0035448575
29	0xbb0f8bf9	-0.0021903499
30	0xbb90c853	-0.0044184118
31	0xbb834684	-0.004006209
32	0xbb84d278	-0.00405341
33	0xbc2657ac	-0.010152739
34	0xbc382320	-0.011238843
35	0xbc06cd27	-0.008227623
36	0xbb32e425	-0.002729663
37	0xbaaee28e	-0.0013342665
38	0xb9968be5	-0.0002871446
39	0xbb8817f3	-0.0041532456
40	0xbbd53748	-0.006506834
41	0xbb5c2686	-0.0033592298
42	0xbac4754c	-0.001498857
43	0xbbf0f037	-0.0073528546
44	0xbc0913e5	-0.00836656
45	0xbbb031fc	-0.0053770524
46	0xbb144c99	-0.0022628664
47	0xbb056877	-0.0020356455
48	0xbbb29699	-0.0054500815
49	0x3bad38bf	0.0052863057
50	0xbbbba446	-0.00572637
51	0xbbb853f5	-0.005625243
52	0x3b9beed0	0.0047586933
53	0xbba2a5e0	-0.0049636215
54	0x3bcdca75	0.0062802383
55	0xbad9698c	-0.0016587242
56	0xbb3edcb2	-0.0029123244
57	0xbb7aa769	-0.0038246757
58	0xbb49f8ae	-0.003081839
59	0xbbf73012	-0.007543572
60	0x39591873	0.0002070384
61	0xbb5fc62f	-0.0034145226
62	0x3c1fbbee	0.009749396
63	0xbc26e248	-0.010185786
64	0xbc2a0b74	-0.010378707
65	0xb9f5344f	-0.00046769014
66	0x3b25bdc1	0.0025290104
67	0xb9d0318a	-0.0003970976
68	0xba8a3774	-0.0010545091
69	0x3b7db4e2	0.003871255
70	0xbb828993	-0.0039836853
71	0xbc01a351	-0.007912473
72	0xbb00b9e9	-0.001964206
73	0xba9168bc	-0.0011093835
74	0xbbcc781d	-0.0062399046
75	0xbc238653	-0.009980756
76	0xbba83487	-0.005133215
77	0xbbc1dbcf	-0.005916096
78	0x3bf2cab7	0.0074094194
79	0xbc071e4e	-0.008246971
80	0xbb12fd90	-0.0022428967
81	0x3b173e2f	0.0023077836
82	0xbc1fe874	-0.009760011
83	0xbbb994a7	-0.0056634727
84	0xbba9b8c2	-0.0051794956
85	0xbb106ec2	-0.0022038673
86	0xbb5f8d1e	-0.0034111212
87	0xbb61742b	-0.0034401517
88	0x3b885ac5	0.004161211
89	0xbb755a6a	-0.0037437924
90	0xba541d33	-0.0008091509
91	0x3bbb4ecd	0.005716181
92	0xbb32379a	-0.0027193786
93	0xbb6b453d	-0.0035899424
94	0xbb3f3c70	-0.002918031
95	0xbba6f5a0	-0.0050951988
96	0x3b981b81	0.0046419506
97	0xbb480087	-0.0030517892
98	0xbb9ea4df	-0.0048414315
99	0x3aa6256b	0.0012675946
100	0xbb278cce	-0.0025566104
101	0xbbc34979	-0.0059596864
102	0x39ee3f52	0.00045442075
103	0xbbc4f615	-0.0060107806
104	0xb93d9aac	-0.00018082064
105	0xbc7d836c	-0.015473228
106	0xbb22d221	-0.0024844485
107	0xbba524a2	-0.0050397674
108	0xbb5ae56c	-0.0033400906
109	0xb990c669	-0.00027613647
110	0xbbdeed53	-0.0068031936
111	0xb9abeab3	-0.00032790526
112	0x3b0da838	0.0021615159
113	0xbbba461f	-0.0056846286
114	0xbaba453b	-0.0014211306
115	0xba6b1efd	-0.0008969156
116	0xbbbb1088	-0.005708758
117	0xbba552cd	-0.005045271
118	0xbbd60e70	-0.006532483
119	0x3adfb01c	0.0017066034
120	0xbbf2d25f	-0.007410332
121	0x3bbe91c1	0.005815715
122	0x3aa7882b	0.001278167
123	0xbb86dbbf	-0.0041155512
124	0xbb59e830	-0.0033249967
125	0x3bcfe75a	0.006344718
126	0xbc03c3ce	-0.008042289
127	0xbc2104df	-0.0098278215

network_body._body_endoder.seq_layers.2.weight f4 [128, 128]
0	0x3bdaffbd	0.0066833184
1	0x3ddf465b	0.10902091
2	0xbbbb1e8c	-0.0057104286
3	0xbcdd5751	-0.027019175
4	0xb9dd5148	-0.00042212964
5	0xbdf3ceb4	-0.1190466
6	0xbd73398e	-0.05938106
7	0x3d28be97	0.041197386
8	0x3ce8218e	0.028336313
9	0x3cf1b2a0	0.02950412
10	0xbde6bdf2	-0.11266698
11	0x3cdbf409	0.026849763
12	0xbe0c464c	-0.13698691
13	0xbc31ce20	-0.010852367
14	0xbdd7f6da	-0.1054513
15	0x3c016299	0.007897043
16	0xbe04c1c5	-0.12964542
17	0xbd41096c	-0.047128126
18	0xbd2748d3	-0.040840935
19	0xbcf26d92	-0.029593263
20	0xbde1a37f	-0.110175125
21	0xbcd1d5f9	-0.025614725
22	0x3bc0b3f7	0.0058808285
23	0x3d575ffa	0.052581765
24	0x3d38c516	0.04510983
25	0xbd84e66e	-0.064892635
26	0x3cf3379d	0.029689604
27	0xbd449a3f	-0.047998663
28	0x3e5bb4cd	0.21455689
29	0x3e0ce137	0.13757788
30	0x3d586f73	0.05284066
31	0xbda90d4c	-0.08254489
32	0xbccca2da	-0.024979997
33	0xbcbd7c5b	-0.023130586
34	0xbc4f3be7	-0.012648559
35	0xbd4c07d3	-0.04981215
36	0x3d919bbb	0.07109781
37	0xbd06a473	-0.032871675
38	0x3d65d26b	0.056108873
39	0x3d898164	0.067141324
40	0x3dc192f6	0.09451859
41	0xbd35b232	-0.044359393
42	0x3d73df51	0.059539143
43	0x3dd81c03	0.10552218
44	0x3dd77577	0.105204515
45	0xbe1242f1	-0.14283349
46	0xbe17ec39	-0.14836206
47	0x3cbc1d0c	0.02296307
48	0x3da42177	0.080141954
49	0x3d01737c	0.031604275
50	0x3de39cf2	0.11113919
51	0x3d3abb81	0.045588974
52	0x3d9503ab	0.0727609
53	0x3cb8091a	0.022465277
54	0xbc3c78b8	-0.011503391
55	0xbe56839e	-0.20948645
56	0x3dba93b4	0.091102034
57	0xbcb96e0b	-0.02263548
58	0xbd18720e	-0.037218146
59	0x3de249ff	0.1104927
60	0x3e4b1fbc	0.19836324
61	0x3cbacac2	0.02280176
62	0x3c8e3a13	0.017361676
63	0x3d5a9cea	0.0533723
64	0xbe168823	-0.1470037
65	0x3d3ac801	0.045600895
66	0xbdce04ca	-0.10059507
67	0x3ded4090	0.1158458
68	0x3e0cfd2b	0.13768451
69	0xbd856864	-0.065140516
70	0x3cd86606	0.026415836
71	0x3e010b04	0.12601858
72	0xbd30a2f7	-0.043124165
73	0x3c99d5d7	0.018778725
74	0xbdd45074	-0.10366908
75	0xbd3a6f2b	-0.045516174
76	0xbdb552c5	-0.08853678
77	0xbdb5ae47	-0.088711314
78	0x3ce9e5f0	0.028552026
79	0xbc5fb570	-0.013654098
80	0xbd99bd77	-0.07506841
81	0xbd5d1bf2	-0.05398173
82	0x3d95a46f	0.07306754
83	0xbc3df505	-0.011594062
84	0xbc3acc49	-0.011401244
85	0xbe256615	-0.16152222
86	0x3cfa38aa	0.030544598
87	0x3c12d2cf	0.0089613935
88	0x3d5ff373	0.05467553
89	0xbcc23d4d	-0.023710871
90	0x3ce86c55	0.02837197
91	0xbd51f0c5	-0.051255006
92	0x3b9d3733	0.00479784
93	0x3d730102	0.059327133
94	0xbd8a54da	-0.067544654
95	0xbca93df6	-0.020659428
96	0xbd3099ff	-0.043115612
97	0xbe0dd101	-0.1384926
98	0xbd56d3ec	-0.0524482
99	0xbe2790d0	-0.16363835
100	0x3e2681fc	0.16260523
101	0xbd09eaf5	-0.033671338
102	0xbdbc6e57	-0.09200733
103	0x3d96026a	0.07324679
104	0x3b3966be	0.002829
105	0xbdc9837e	-0.09839533
106	0x3d761e0e	0.060087256
107	0x3bcc6e09	0.006238703
108	0xbd846e06	-0.06466298
109	0x3bc4417a	0.0059892507
110	0xbe807675	-0.25090376
111	0x3b05efe1	0.0020437168
112	0xbc15784b	-0.009122918
113	0xbd4949d9	-0.049142692
114	0xbd7ca832	-0.06168384
115	0x3d17672f	0.036963638
116	0x3dd04fd7	0.10171478
117	0xbc642779	-0.013925427
118	0x3c503572	0.012708055
119	0xbd81cdaf	-0.06338059
120	0x3df39ee1	0.11895538
121	0x3e0560be	0.13025185
122	0x3d98dbe4	0.07463816
123	0x3caa25cb	0.020769974
124	0xbba575ef	-0.005049459
125	0x3da8bca3	0.082391046
126	0x3db92c18	0.09041613
127	0xbdab8aea	-0.08376105
128	0x3d8c480b	0.068496786
129	0xbddaadc4	-0.106776744
130	0x3cce8bea	0.0252132
131	0xbde8ee63	-0.11373594
132	0xbd7f6307	-0.0623503
133	0x3d50168f	0.050802764
134	0x3e53003d	0.2060556
135	0x3ce30ebc	0.027716987
136	0xbd3a0ba2	-0.04542125
137	0x3da357fe	0.079757676
138	0xbb1deaf1	-0.0024096335
139	0xbd4b0dcf	-0.049573716
140	0x3e0cec98	0.13762128
141	0x3d291a3f	0.041284796
142	0xbd199f45	-0.037505407
143	0x3dd47d78	0.10375494
144	0xbcbe76fb	-0.023250094
145	0xbd2adec3	-0.04171635
146	0x3cb15ed9	0.021651672
147	0xbda7dc33	-0.081962965
148	0x3d9358cd	0.07194672
149	0x3e009300	0.12556076
150	0x3e0868a9	0.13321175
151	0x3cb08c15	0.021551171
152	0xbc79a631	-0.015237377
153	0xbd6f951e	-0.05849182
154	0x3c83d9ad	0.016095007
155	0x3ad9c102	0.0016613307
156	0xbdd7a22d	-0.105289795
157	0x3e2f8ef7	0.1714438
158	0x3e2205c0	0.15822506
159	0x3ae7ae34	0.0017675818
160	0xbe413248	-0.18866837
161	0xbd7913bb	-0.060809832
162	0xbdf4f5cd	-0.11960945
163	0x3dee58f0	0.11638057
164	0x3db6d4fd	0.08927343
165	0x3e2aff71	0.16699006
166	0x3d7bcd12	0.061474867
167	0xbd5adc9a	-0.05343304
168	0x3d84eff7	0.06491082
169	0x3cee651b	0.029100945
170	0xbd94f5ae	-0.07273422
171	0x3d446868	0.047951132
172	0x3d150881	0.036385063
173	0xbd5f9244	-0.05458285
174	0xbd83cfd6	-0.06436126
175	0x3d88b6d4	0.06675497
176	0xbde537ab	-0.111922584
177	0x3d2cb0e3	0.04216088
178	0x3d89cabd	0.067281224
179	0x3d76ee60	0.060285926
180	0x3dca8fee	0.09890734
181	0x3d7b3724	0.061331883
182	0xbd03d366	-0.032184027
183	0x3dae78bd	0.08519123
184	0xbd0d3316	-0.034472547
185	0xbd24f925	-0.040276665
186	0xbdcc61b7	-0.09979575
187	0xbd63a12f	-0.05557364
188	0x3d547e0f	0.05187803
189	0x3d9a448e	0.07532607
190	0xbcffb658	-0.031214878
191	0xbcb80b48	-0.022466317
192	0xbd2201e7	-0.039552595
193	0xbdbba7fe	-0.09162901
194	0xbe0154a7	-0.12629949
195	0xbcd219c2	-0.025647048
196	0xbc446b33	-0.011988449
197	0x3daf08c6	0.08546595
198	0x3ce62e3f	0.028098224
199	0xbbe89561	-0.0070978855
200	0x3df114b9	0.11771531
201	0xbd1df0d1	-0.03855974
202	0xbc9d647a	-0.01921295
203	0x3d47205f	0.048614856
204	0x3e06e824	0.13174492
205	0x3e608e28	0.21929228
206	0x3d9d3f83	0.076781295
207	0x3d910a99	0.070820995
208	0x3beb6a4b	0.007184302
209	0x3c9aa244	0.018876202
210	0x3ce69f8a	0.028152246
211	0xbc0ea461	-0.008706183
212	0xbc16de00	-0.009208202
213	0xbd98750e	-0.074442014
214	0xbddb0c49	-0.106957026
215	0x3c0f96a2	0.008763941
216	0x3bb27544	0.005446108
217	0xbd84b4be	-0.06479786
218	0xbda4b31d	-0.08041976
219	0xbb4a1852	-0.003083725
220	0xbc8d5635	-0.01725302
221	0x3e255ba3	0.16148238
222	0xbdd1da80	-0.10246754
223	0xbc93e5a7	-0.018053843
224	0xbc6f755d	-0.014615384
225	0x3d168e34	0.03675671
226	0x3e307154	0.17230731
227	0xbd98d099	-0.07461662
228	0x3e29f351	0.16596724
229	0x3d8f219d	0.06988833
230	0x3e3682f0	0.17823386
231	0xbc9c528c	-0.01908233
232	0xbd6b0ffc	-0.05738829
233	0xba0a8c20	-0.00052851625
234	0x3d426618	0.047460645
235	0xbcc6a72f	-0.024249641
236	0xbd854973	-0.0650815
237	0x3c69377c	0.01423442
238	0xbd7f43bf	-0.062320467
239	0x3dd7590f	0.105150335
240	0x3d96b534	0.073587805
241	0xbde6620f	-0.11249172
242	0xbd6451ff	-0.05574226
243	0x3d0ea810	0.034828246
244	0x3d553824	0.052055493
245	0x3dc1d553	0.094645165
246	0xbe1b3eb3	-0.15160637
247	0xbe528f1f	-0.20562409
248	0xbe07775e	-0.13229129
249	0x3c8b992c	0.017040811
250	0x3deebd71	0.11657227
251	0xbd969c99	-0.073540874
252	0xbe2df10c	-0.16986483
253	0xbe45e065	-0.19323881
254	0x3d5b53e8	0.053546816
255	0x3e0706a4	0.13186127
