FYPprototype/results/SpawnLocationTest1/AIBalancing/AIBalancing-2213.pt (torch, 242151 bytes, 16 tensors)

discrete_act_size_vector f4 [1, 3]
00000000: 0000 0040 0000 9841 0000 7041
2.0 19.0 15.0

network_body._body_endoder.seq_layers.0.weight f4 [128, 78]
00000000: 32c6 313d 055b 893e 8118 293e 0e1b 733e
00000010: bd8c bfbc e3ff 20be 2970 e2bd df7e 87be
00000020: 7913 34be ecf4 aa3d 492f 83bc e443 0bbd
00000030: 8849 dbbc ffb3 87be dffb 1a3e d3d2 b83d
00000040: b12c 03be de40 edbd 7052 68bd 1cda 703d
00000050: 3ef8 433e d715 393e 7049 f4bd 7b0c f0bd
00000060: 5d08 573d 088e 82bd d054 583d 1c0a d0bd
00000070: 2573 e6bd 19f0 28bc 6556 42be 8d7e 09be
00000080: 9ec5 a93d ca5b cc3c 254c 5bbe 5a8e b1bd
00000090: e968 aebd 84ff adbc 8942 b6bc 918b 1bbe
000000a0: b186 8fbc f0e2 a93d 050c 163d c4e4 3cbe
000000b0: 1d3a 333e 9d94 5b3d 068e 533e 9761 353d
000000c0: 2f0a 733e 17ae 8b3d 8e82 aa3c b6a9 4bbe
000000d0: 6879 77bd af86 72bb 42b0 b8bc 8eab 2ebe
000000e0: 1dce dc3d f3a4 a63d 47a8 623c b01a 053e
000000f0: fb39 65be 17db 343e 2070 fcbc e689 9fbc
00000100: 16eb a3bd 05ea 073e 20ce c03d 903c b93d
00000110: 5aa0 bbbd 1b95 3f3e d8a5 6cbc b1ea 0b3e
00000120: d383 083d 57da 8ebd c7ed 0c3e cbf1 dcbd
00000130: 395d f5bd b01a babd 2a0b e0bc f09e f3bc
00000140: 70ba 153d 0a05 07be 9f2c dbbd f306 34bd
00000150: 4352 adbe 3d6e 6e3c e589 c23d 9353 c4bd
00000160: e910 a3bc 9d92 e3bd 0c39 b53d 6630 57be
00000170: 9c4f 213e fc87 43bd 283e a4bc 9a40 2a3c
00000180: 8b2c 15bd b7af 1ebd 81a4 8cbd 0d7c 19bd
00000190: 4abd afbb 89d9 9b3c 49e8 7abd bc27 61bd
000001a0: dc29 2a3e cfe3 1a3e 4a85 903d 1f85 0dbe
000001b0: 0353 d2bd 25f8 32be 42f7 08be 9e8b 86be
000001c0: 0de6 88bc e42a 10bd 70ef ff3d 6f46 053e
000001d0: 6010 2a3e 2299 7bbc 4e7d 143e 0a14 21bd
000001e0: a9a0 ba3d c7a9 88bc 5b59 293e 24f6 c63b
000001f0: de39 06bb a63c a2bc 327b 6e3d 0ae6 133e
00000200: 8a17 cabc 7aaf ff3d f5bb 82bd 3ddf 3cbe
00000210: 6a2a db3d 9557 48be dd6d ecbd fade 393e
00000220: 827d e23d fccb 773c 84bd c63d 340c ee3b
00000230: f160 583d 2a46 88bd 7f25 80bb 964a 44bd
00000240: 704f 6abe e4d3 b5bd 8a01 01be 19d0 d93d
00000250: 7c3f df3d c87e 2fbe d5f1 8d3d f251 93bd
00000260: f768 163e 1870 30be 64f6 823e 703e 71bd
00000270: e598 22bd 0c00 c0bd c187 6abe 1458 d2be
00000280: faa3 203d 6c11 0f3d edeb 2ebd 31cb 31ba
00000290: a32e 19be d9c9 debc db5b 4e3c 78f2 653d
000002a0: f670 27be 0fd4 71be 7c8f 803d 06a4 06bd
000002b0: e25f 83bd 12df a7bd 910a a3bd 4995 763e
000002c0: 3d0e dabd bf77 80be d501 ba3a 89d1 56bd
000002d0: 8291 f5bd 8e25 36bd 2293 3c3d 2a66 573b
000002e0: fd30 913d b2c3 ee3d a740 2bbd a1d6 c93c
000002f0: f53d 863d e44a b3bd aa48 b2bd 9d45 8f3d
00000300: 704a b83d e939 48bd 4726 093e fe92 953d
00000310: ba6e 52bd c195 403d 4fcc 6bbe 063c 66be
00000320: 0792 00bc ad8b b2bd 49aa ee3c 806a f43c
00000330: 825c 8ebd ac6a 093e 46d8 0cbc 4e9b 4bbe
00000340: cfb5 643c f102 09bd 3cfa f3bd 3eab 3dbd
00000350: a63f 4b3d a093 f13d ce32 c43b f247 13bd
00000360: 3584 0cbe 73e7 423e 89c0 de3d 9094 a3bd
00000370: eab8 fa3d 0f08 353e 6ef3 973c 5c3b 363e
00000380: 133f 883d 1d1a c83c f1ed 493e 9014 043e
00000390: db52 b63b a59a e53d 7579 2bbe dd25 d13a
000003a0: a8a4 08be eef2 02be 6ea8 2c3c ab41 17bd
000003b0: a321 463d f5da 18bd 4f22 7dbd 1592 0f3e
000003c0: a5e2 3e3e de39 3f3d 3f3f 94bd 7b86 053e
000003d0: 3b6a 99bd dcf2 21be 1fbc 0bbe 3183 f53d
000003e0: 89ee 9cbd 7847 e03d 1778 0a3e 1f88 2f3b
000003f0: 4548 8ebb 7fad 223e 69af a9bd c443 4abe
0.043401904 0.26827255 0.16513254 0.2374079 -0.023382539 -0.15722613 -0.11056549 -0.26463982
-0.17585553 0.083474964 -0.016013758 -0.034000292 -0.02676846 -0.26504514 0.15135144 0.090245865
-0.12810017 -0.11584638 -0.056719244 0.058801755 0.19137666 0.18074737 -0.119280696 -0.117211305
0.05249821 -0.063747466 0.05281526 -0.10158178 -0.11252431 -0.01031115 -0.1897827 -0.13427182
0.082896456 0.024946112 -0.21415766 -0.086697295 -0.08516104 -0.021240003 -0.022248523 -0.15189959
-0.01752028 0.08295238 0.036632556 -0.18446642 0.17502637 0.053608526 0.20659646 0.044282522
0.23734353 0.068203144 0.020814206 -0.19888958 -0.060418516 -0.0037006547 -0.022544984 -0.1705763
0.107815005 0.0813693 0.013834066 0.12998462 -0.22385399 0.17661701 -0.030815184 -0.019474935
-0.080038235 0.13272865 0.09414315 0.090447545 -0.09161444 0.18709223 -0.014443837 0.13663746
0.033328842 -0.06975239 0.1376258 -0.10788306 -0.119806714 -0.090871215 -0.027349073 -0.029738873
0.036554754 -0.13185516 -0.1070187 -0.04395194 -0.33851823 0.01455265 0.094989575 -0.09586253
-0.019905524 -0.11111949 0.088487715 -0.21014556 0.15753025 -0.047737107 -0.02004917 0.010391379
-0.036419433 -0.038741793 -0.06867314 -0.03747182 -0.005363141 0.019024627 -0.06125668 -0.054969534
0.1661753 0.15125965 0.07056673 -0.13820313 -0.102697395 -0.17477472 -0.13375571 -0.26278394
-0.01671126 -0.035197154 0.12496841 0.1301515 0.16607809 -0.015356334 0.14500925 -0.03932575
0.09112675 -0.016682519 0.16537993 0.0060718227 -0.002048127 -0.01980431 0.058222957 0.14443222
-0.024669427 0.124846414 -0.06383506 -0.18444534 0.10701449 -0.1956466 -0.11544392 0.18151465
0.11059095 0.015124317 0.09704116 0.0072646383 0.052826826 -0.06654008 -0.00391072 -0.047922693
-0.22881866 -0.088783056 -0.12598243 0.106353946 0.109007806 -0.17138207 0.069308914 -0.07193364
0.14688478 -0.1723026 0.25578606 -0.058897436 -0.039696593 -0.09375009 -0.22903349 -0.41082823
0.03921888 0.034928724 -0.042705465 -0.0006782292 -0.14959197 -0.027195858 0.012595142 0.05613944
-0.16351685 -0.2361605 0.062773675 -0.03287127 -0.064147726 -0.08196844 -0.07961 0.24080385
-0.10647247 -0.2509136 0.001419122 -0.052445922 -0.11990644 -0.04446941 0.046038754 0.003286729
0.07089422 0.1165842 -0.041809704 0.024638476 0.06554786 -0.08754519 -0.08705266 0.069956996
0.08998573 -0.048883352 0.13393508 0.07303427 -0.05137513 0.047017816 -0.23027156 -0.22483835
-0.007847316 -0.08718047 0.029133933 0.02983594 -0.06951238 0.13419598 -0.0085964855 -0.19883463
0.013959362 -0.03345007 -0.11912963 -0.046305887 0.049621247 0.11795735 0.0059875017 -0.035957284
-0.13722308 0.19033603 0.10876567 -0.079873204 0.12242301 0.17678855 0.018548694 0.17796081
0.066526555 0.024426514 0.19719674 0.12898469 0.0055640764 0.11211137 -0.16745551 0.0015956719
-0.13344061 -0.12787983 0.010538204 -0.03692786 0.048371922 -0.03731819 -0.061800297 0.1402057
0.18641146 0.046686046 -0.07238626 0.13039581 -0.07490965 -0.158153 -0.13645981 0.119879134
-0.076626845 0.109511316 0.13522373 0.0026784015 -0.0043421113 0.15886496 -0.0828541 -0.19752413

network_body._body_endoder.seq_layers.0.bias f4 [128]
00000000: 0000 0000 0000 0000 0000 0000 0000 0000
00000010: 0000 0000 0000 0000 0000 0000 0000 0000
00000020: 0000 0000 0000 0000 0000 0000 0000 0000
00000030: 0000 0000 0000 0000 0000 0000 0000 0000
00000040: 0000 0000 0000 0000 0000 0000 0000 0000
00000050: 0000 0000 0000 0000 0000 0000 0000 0000
00000060: 0000 0000 0000 0000 0000 0000 0000 0000
00000070: 0000 0000 0000 0000 0000 0000 0000 0000
00000080: 0000 0000 0000 0000 0000 0000 0000 0000
00000090: 0000 0000 0000 0000 0000 0000 0000 0000
000000a0: 0000 0000 0000 0000 0000 0000 0000 0000
000000b0: 0000 0000 0000 0000 0000 0000 0000 0000
000000c0: 0000 0000 0000 0000 0000 0000 0000 0000
000000d0: 0000 0000 0000 0000 0000 0000 0000 0000
000000e0: 0000 0000 0000 0000 0000 0000 0000 0000
000000f0: 0000 0000 0000 0000 0000 0000 0000 0000
00000100: 0000 0000 0000 0000 0000 0000 0000 0000
00000110: 0000 0000 0000 0000 0000 0000 0000 0000
00000120: 0000 0000 0000 0000 0000 0000 0000 0000
00000130: 0000 0000 0000 0000 0000 0000 0000 0000
00000140: 0000 0000 0000 0000 0000 0000 0000 0000
00000150: 0000 0000 0000 0000 0000 0000 0000 0000
00000160: 0000 0000 0000 0000 0000 0000 0000 0000
00000170: 0000 0000 0000 0000 0000 0000 0000 0000
00000180: 0000 0000 0000 0000 0000 0000 0000 0000
00000190: 0000 0000 0000 0000 0000 0000 0000 0000
000001a0: 0000 0000 0000 0000 0000 0000 0000 0000
000001b0: 0000 0000 0000 0000 0000 0000 0000 0000
000001c0: 0000 0000 0000 0000 0000 0000 0000 0000
000001d0: 0000 0000 0000 0000 0000 0000 0000 0000
000001e0: 0000 0000 0000 0000 0000 0000 0000 0000
000001f0: 0000 0000 0000 0000 0000 0000 0000 0000
0.0 0.0 0.0 0.0 0.0 0.0 0.0 0.0
0.0 0.0 0.0 0.0 0.0 0.0 0.0 0.0
0.0 0.0 0.0 0.0 0.0 0.0 0.0 0.0
0.0 0.0 0.0 0.0 0.0 0.0 0.0 0.0
0.0 0.0 0.0 0.0 0.0 0.0 0.0 0.0
0.0 0.0 0.0 0.0 0.0 0.0 0.0 0.0
0.0 0.0 0.0 0.0 0.0 0.0 0.0 0.0
0.0 0.0 0.0 0.0 0.0 0.0 0.0 0.0
0.0 0.0 0.0 0.0 0.0 0.0 0.0 0.0
0.0 0.0 0.0 0.0 0.0 0.0 0.0 0.0
0.0 0.0 0.0 0.0 0.0 0.0 0.0 0.0
0.0 0.0 0.0 0.0 0.0 0.0 0.0 0.0
0.0 0.0 0.0 0.0 0.0 0.0 0.0 0.0
0.0 0.0 0.0 0.0 0.0 0.0 0.0 0.0
0.0 0.0 0.0 0.0 0.0 0.0 0.0 0.0
0.0 0.0 0.0 0.0 0.0 0.0 0.0 0.0

network_body._body_endoder.seq_layers.2.weight f4 [128, 128]
00000000: c608 e4bc ff3e 1a3c 98b9 2bbe afcc b53d
00000010: e430 81bd 2684 dabd 6a7b 9c3d 819f cbbc
00000020: 6115 6dbd 4550 253e 59a4 2b3d 12e6 d2bd
00000030: fe83 363c ee4d 9cbd e717 a0bd 111d bd3c
00000040: 07bc 17be 80a4 8d3b ddd2 d23d fec7 0a3d
00000050: 4d1b 943d b84a 45be 0382 8c3c 3a7b a4bd
00000060: 0bb1 223e a50b 05be 8111 95bd b785 babd
00000070: 53fb 34be 738a 003e 8cd7 41bd c981 05be
00000080: 4757 ec3c 6c61 183e 8cc9 cabc 756f 80bd
00000090: 8f45 bebd 1549 b93d 0603 d8bc b065 943d
000000a0: 690b f93d e0ea 6e3b 4543 a2bc 9af5 583e
000000b0: ad39 6cbc 5d6c 2d3d 39d5 033d 1a0e 983c
000000c0: b855 d43c c2ef d9bd fba4 53bc fdbb 13bc
000000d0: b17b fa3c d5c8 f83d b955 bc3c d4e0 353d
000000e0: 1f9f 4fbd 6289 07be 491e 03be c9b7 9c3a
000000f0: 762b 4fbd e9fe 0dbe 54a1 9fbd 39b2 943c
00000100: 6f09 0b3d c9fd 96bc a2a7 69bd 6334 fbbc
00000110: 1360 3bbd 246c 50bd 3089 c8bd 6a04 78bd
00000120: e6a4 58bc e62b 30bd bf76 7b3d f6d8 d43d
00000130: 5e4a b53d 8b2c 163d 2927 173d f262 b63d
00000140: 9e29 bdbd 0235 893c a7d5 1ebd b5ba 973d
00000150: 25bb 283e 7489 f3bc b09e 3d3d 13ef 60bc
00000160: 060c d43d b72b 9abd 9a4b 503d 54ef 8cbd
00000170: e18d ec3b 5350 ca3d dfa2 b53d e791 0e3e
00000180: 1f6a 8c3c 7575 c8bd 1b83 213d a26f 5cbd
00000190: 0a48 b33d 1350 503d 3a7f 863d bae0 d9bc
000001a0: c02f 5ebc c316 a2bd 3a86 d53d 9af7 adbd
000001b0: 6bb8 1ebd 46ad 043d 4ffb 2bbe 823d 9cbd
000001c0: f0fa e53d d4b4 3a3d 7300 513d e526 1e3e
000001d0: 9b2a bdbc 8845 06bd d8d5 c93d b187 5e3d
000001e0: 7e50 4a3d 2497 403d 7b0d 943c d7ff 623d
000001f0: 1342 d93d 105a e4bd dea7 07bd dcae 79bd
00000200: 6eaa a9bd c6a4 4c3c 458c 3b3a 67a7 e1bd
00000210: 10d7 253e 2dc1 e5bc 5da3 b5bc 8a78 c7bd
00000220: 5815 c73d 7b06 bbbc dc01 bcbd fe4a 64be
00000230: 8027 60bd fb9e f8bd 56a5 f13d 40c7 8cbd
00000240: 7129 6abd c5ad 13be 0d61 b8bc d948 06be
00000250: c79f 2e3e 2324 083e f118 84bd f731 20bd
00000260: c43a c2bd 10dd 25bd ecae 1f3d 784c 693d
00000270: 0bf4 56be 0c17 a7bd e681 663d eac9 c0bd
00000280: e91b 4bbe 4d54 a8bd e6d6 73bd 5e20 74bd
00000290: ca8d 48be 98a6 68bd 4cc6 f13d 0b6e b03d
000002a0: bf18 28be 0768 b23d 922e 493d bd13 31bd
000002b0: de04 1a3d 1a2d 90bd ce9b 223d 9302 fabd
000002c0: aa70 b03d 2423 4bbd b697 f2bd 26b4 7e3d
000002d0: d9dc 92bd 94dd 123d 930c 293e 0b88 88bd
000002e0: a300 cd3d 7e75 08be 7f1d 65be 14e4 dabd
000002f0: 5df9 a93d 8507 7d3c 02a1 78bc ceed 90bd
00000300: 72a4 913c 2a80 2c3b 8a8a d7bd 58e1 42be
00000310: d593 66bd 7fa1 f03d 2273 aabd 1ede 323d
00000320: a5c8 58be 6c75 ad3d c2a2 91bd f5a0 3a3e
00000330: 7359 283e 21aa 19be 4993 92bc fca4 a1bd
00000340: 2c29 bb3a 4cf8 2abe 51ab 673d 4840 4ebe
00000350: 7d43 403d eda7 743e de3f e03d d71f 82bd
00000360: fd5c 9cbd 2022 b33d f92f 22be 18cc 4aba
00000370: c19d 473c 66c7 2abe 0516 ddbc 4445 cdbc
00000380: 50de 783c 73de bebd 3e7e d0bd 0331 15bd
00000390: eea0 9dbd f49f e7bc a4f4 363c 8e67 e1bb
000003a0: 91b1 a63d 0779 9fbc 50e8 73bd 1276 343e
000003b0: 8bd0 18be 7524 25be b29c 903d a4ff 8b3d
000003c0: bd64 803d 19fa bcbc a0d0 04bc bc8b 133e
000003d0: 93bf 673d 7a20 a43d 95e4 56be 553f 0bbd
000003e0: 64c4 8abc 1ea0 003e 4976 1d3d ef11 d93b
000003f0: 8910 383d 41c1 d33d 6a03 debc 7e9a 8d3d
-0.027836215 0.0094144335 -0.16770017 0.08876931 -0.06308153 -0.106697366 0.07640727 -0.02485633
-0.057881717 0.16143902 0.04190478 -0.10297789 0.011139868 -0.076320514 -0.07817059 0.023085149
-0.1481782 0.0043225884 0.10294125 0.033882134 0.0723177 -0.19266784 0.017151838 -0.08031316
0.15887849 -0.12992723 -0.07278729 -0.09107535 -0.17673998 0.12552814 -0.047324702 -0.1303779
0.02885021 0.14880913 -0.024754308 -0.06271259 -0.09290611 0.090471424 -0.02636863 0.07245958
0.121603794 0.0036455914 -0.019807467 0.2118744 -0.014418048 0.04233967 0.032185767 0.018561412
0.02591978 -0.10641433 -0.012917752 -0.009016988 0.030576559 0.12147681 0.022990094 0.044403866
-0.05068886 -0.13236001 -0.12804522 0.0011956628 -0.050578557 -0.13866772 -0.07794443 0.01815139
0.033944543 -0.018431561 -0.057044633 -0.030664628 -0.04574592 -0.05088438 -0.097917914 -0.060551085
-0.013222909 -0.043010615 0.061392542 0.103929445 0.08852075 0.036663573 0.03690258 0.08905591
-0.092364535 0.016748909 -0.038777974 0.074086584 0.1647764 -0.029728629 0.046293914 -0.013728875
0.10353856 -0.07527869 0.05085335 -0.06881586 0.0072190617 0.09878602 0.08868956 0.13922845
0.017140446 -0.09788028 0.039431673 -0.0538174 0.08753975 0.050857615 0.06567235 -0.026596416
-0.013561189 -0.07914498 0.10425992 -0.08494492 -0.038750093 0.03239181 -0.16795085 -0.07628919
0.11229503 0.045582607 0.05102582 0.15444525 -0.023091605 -0.032781154 0.098552406 0.054328624
0.04939317 0.04701914 0.018072834 0.05541977 0.10608306 -0.111499906 -0.033119075 -0.060957775
-0.0828446 0.012490457 0.00071543857 -0.110182576 0.16195321 -0.028046215 -0.022172624 -0.09739788
0.09720868 -0.022830239 -0.09180042 -0.22294232 -0.05472517 -0.12139698 0.117991135 -0.068739414
-0.057168428 -0.14421757 -0.022507215 -0.13113727 0.17053138 0.13295035 -0.0645007 -0.03911015
-0.09483865 -0.040494025 0.038985178 0.056957692 -0.20991533 -0.08158693 0.056276225 -0.09413512
-0.19834866 -0.08219204 -0.059531115 -0.05960118 -0.19585338 -0.0567995 0.118054 0.08614739
-0.1641569 0.08711248 0.04911668 -0.043231715 0.037602298 -0.070398524 0.03969937 -0.12207522
0.08615239 -0.04959406 -0.11845343 0.06218352 -0.071710296 0.035855845 0.16508703 -0.06666573
0.10009887 -0.1332607 -0.22374533 -0.10688034 0.082995154 0.015443687 -0.015175106 -0.07076608
0.017778609 0.002632151 -0.10524471 -0.19031274 -0.056293327 0.11749553 -0.08322741 0.04366886
-0.2117029 0.08469662 -0.07111122 0.18225463 0.16440372 -0.15006305 -0.017892497 -0.078927964
0.0014279238 -0.1669628 0.056559864 -0.20141709 0.04693936 0.23892184 0.10949682 -0.06353729
-0.076349236 0.08746743 -0.15838613 -0.0007736101 0.012183608 -0.16677627 -0.026988039 -0.025057442
0.015189722 -0.093197726 -0.10180329 -0.036423694 -0.076967105 -0.028274514 0.011166725 -0.0068787998
0.08139337 -0.01946689 -0.059547722 0.17623165 -0.14923303 -0.16127189 0.07061137 0.06835869
0.06269214 -0.023068475 -0.008106381 0.14408773 0.056579184 0.08014007 -0.20985635 -0.033995945
-0.01693935 0.1256108 0.038442884 0.0066244523 0.044937644 0.10339595 -0.027101237 0.06914233

network_body._body_endoder.seq_layers.2.bias f4 [128]
00000000: 0000 0000 0000 0000 0000 0000 0000 0000
00000010: 0000 0000 0000 0000 0000 0000 0000 0000
00000020: 0000 0000 0000 0000 0000 0000 0000 0000
00000030: 0000 0000 0000 0000 0000 0000 0000 0000
00000040: 0000 0000 0000 0000 0000 0000 0000 0000
00000050: 0000 0000 0000 0000 0000 0000 0000 0000
00000060: 0000 0000 0000 0000 0000 0000 0000 0000
00000070: 0000 0000 0000 0000 0000 0000 0000 0000
00000080: 0000 0000 0000 0000 0000 0000 0000 0000
00000090: 0000 0000 0000 0000 0000 0000 0000 0000
000000a0: 0000 0000 0000 0000 0000 0000 0000 0000
000000b0: 0000 0000 0000 0000 0000 0000 0000 0000
000000c0: 0000 0000 0000 0000 0000 0000 0000 0000
000000d0: 0000 0000 0000 0000 0000 0000 0000 0000
000000e0: 0000 0000 0000 0000 0000 0000 0000 0000
000000f0: 0000 0000 0000 0000 0000 0000 0000 0000
00000100: 0000 0000 0000 0000 0000 0000 0000 0000
00000110: 0000 0000 0000 0000 0000 0000 0000 0000
00000120: 0000 0000 0000 0000 0000 0000 0000 0000
00000130: 0000 0000 0000 0000 0000 0000 0000 0000
00000140: 0000 0000 0000 0000 0000 0000 0000 0000
00000150: 0000 0000 0000 0000 0000 0000 0000 0000
00000160: 0000 0000 0000 0000 0000 0000 0000 0000
00000170: 0000 0000 0000 0000 0000 0000 0000 0000
00000180: 0000 0000 0000 0000 0000 0000 0000 0000
00000190: 0000 0000 0000 0000 0000 0000 0000 0000
000001a0: 0000 0000 0000 0000 0000 0000 0000 0000
000001b0: 0000 0000 0000 0000 0000 0000 0000 0000
000001c0: 0000 0000 0000 0000 0000 0000 0000 0000
000001d0: 0000 0000 0000 0000 0000 0000 0000 0000
000001e0: 0000 0000 0000 0000 0000 0000 0000 0000
000001f0: 0000 0000 0000 0000 0000 0000 0000 0000
0.0 0.0 0.0 0.0 0.0 0.0 0.0 0.0
0.0 0.0 0.0 0.0 0.0 0.0 0.0 0.0
0.0 0.0 0.0 0.0 0.0 0.0 0.0 0.0
0.0 0.0 0.0 0.0 0.0 0.0 0.0 0.0
0.0 0.0 0.0 0.0 0.0 0.0 0.0 0.0
0.0 0.0 0.0 0.0 0.0 0.0 0.0 0.0
0.0 0.0 0.0 0.0 0.0 0.0 0.0 0.0
0.0 0.0 0.0 0.0 0.0 0.0 0.0 0.0
0.0 0.0 0.0 0.0 0.0 0.0 0.0 0.0
0.0 0.0 0.0 0.0 0.0 0.0 0.0 0.0
0.0 0.0 0.0 0.0 0.0 0.0 0.0 0.0
0.0 0.0 0.0 0.0 0.0 0.0 0.0 0.0
0.0 0.0 0.0 0.0 0.0 0.0 0.0 0.0
0.0 0.0 0.0 0.0 0.0 0.0 0.0 0.0
0.0 0.0 0.0 0.0 0.0 0.0 0.0 0.0
0.0 0.0 0.0 0.0 0.0 0.0 0.0 0.0

action_model._discrete_distribution.branches.0.weight f4 [2, 128]
00000000: bb55 47bc 78d6 66bc f873 003c 8a62 26bc
00000010: c50b de3b 3365 1dbc 6289 e13b d542 e63b
00000020: 5b2e fb3b e975 c93b a191 99bc efae b23b
00000030: 0fce 923b 58a4 e3bb 0bd1 4fbb 0b86 01bc
00000040: 7d0d 523c 8640 473c b4f3 1bbc 2d72 a6bb
00000050: 478c ca3b 1fd9 07bb 12cb d53b 385c 58ba
00000060: a7e6 543a 0766 9b3b f89e 593c 9fea 29bc
00000070: 3f49 563c f379 573c 0be9 833b fd76 20ba
00000080: d56f b73b fb69 e4ba 6ad2 b3bb 5046 533c
00000090: c713 ef3b 23c2 173b 57be 24bc a7ac 143c
000000a0: b837 9cbb 70dc 023c 57ad 9db9 ebee 4abc
000000b0: 726c 5dbb 111f 293b 8b55 e1bb 658b 76bb
000000c0: fbe9 ee3b af3c f23a 18ff 6cba f993 0d3c
000000d0: b5fd 09bc 23a5 74bb d75b 983b c585 e7bb
000000e0: 7c4e 2bbc b3b4 333c 135e 3abb 7aa3 90bc
000000f0: 5481 163c f5f0 3f3c 1c86 8cbb 7c94 0a3a
00000100: 6383 a139 eb38 283b 7026 17bb 128b 2d3c
00000110: 8803 ff3a c7f4 513b 98ff 17bc 949d 193c
00000120: a28f d6ba 4fbd 4ebc 15f1 96bb 5897 51ba
00000130: afab abba 32f8 cd3b b5c3 bcbc 2b2e d83b
00000140: 2f20 f3bb 9408 09bb eeaa a1bb fee1 bf3a
00000150: 909a 683c edaf b3ba f5c8 0d3c 1f7e 28bc
00000160: ab10 35bc 3bf9 3cba 7bc3 33bb 23e2 113b
00000170: cf58 283c 12c6 683c 56d2 49bc 57e0 99ba
00000180: 2382 1abb 9180 10bc 3fbd 173c 65b1 ee3a
00000190: 996c 383c 9744 8abc dab8 6fbc 4005 873b
000001a0: e985 87bc e778 153b fbe5 903a 7b1c 763b
000001b0: 240a 96ba 72c3 4e3c 9360 d4ba a41b 913a
000001c0: 6ee5 3d3c e7bc ca3a 3085 57ba 820f 3dbc
000001d0: b03b 04bc 0a5d 763b 3454 893a 638b 84bc
000001e0: bde7 dc3b 192b bc3b e77f d43b 8836 e739
000001f0: f822 b7bb c7d6 a0bb 07eb a4bb b7cd 003c
00000200: afbc a73b 9882 59bc 4836 33bc ad83 743b
00000210: db61 28bc 7d2d 48bc 739c a9bb 4226 55bc
00000220: 0861 dfbb ed6f 6fba 7483 0e3b f346 393b
00000230: 48bc dc3b 065d ab3b 61ed 2ebc 908a 7f3c
00000240: af08 9b3b e0f9 04bc c655 8abb 6682 993b
00000250: 9db4 073b ccb4 1bbc 73d8 c5bb ff79 02bc
00000260: 76e0 973c 3f80 753a cc9b 41ba 28cb db3b
00000270: d05c 72bb ceac c6ba 1dfc 593a 3d7a 593b
00000280: 9bdc e23b 6f9d bcbb 0f35 503c ed6b 903c
00000290: d515 2c38 dfb3 34bc b7e1 a2bc 2f18 823c
000002a0: a326 a1bb 4d68 7fba 1d7b dd3b 6ed4 853c
000002b0: d313 d23b 737f 58ba 3fb8 27bc 5f10 8abb
000002c0: 9569 833b bf25 433c 26ac 1ebc 976b 203c
000002d0: 1df4 873b d6c3 1ebc 7bb1 183c 8abe 5dbb
000002e0: 3a7d ed3a a96a 173b 0577 4dbc dfdb 9ebb
000002f0: 2304 8fbc 8fb1 ce3a ff0e a13b 25c2 d03b
00000300: 3fa9 f33b ddbb 82bb 53f5 eebb a3e2 68bc
00000310: c8b8 7ebc 19be 2b3c c8f2 24bb 0741 6abc
00000320: 3afb 82bc 4885 9a3c 70ab 563c 55d1 c9bb
00000330: c273 08bc dcb4 b13b 4d30 3b3c 12b5 38bc
00000340: abf1 cf3a 88cf 313b 45e4 edbb cc34 8b3c
00000350: 9b33 8e3c 7bca 0e3a c865 bbbb 9f77 dc3b
00000360: dbfa 38bc 223b 343c 7f56 9ebb 40a2 69bb
00000370: b123 4bbb 6b71 1bbc 036d dc3b de9e 8f3a
00000380: 296c b13b fdb6 983a b88c d8bb 6d83 8d3b
00000390: 332c 653b 5085 8f3b 6f02 65bc 4cc7 3f3c
000003a0: feef 313b cf39 25bc 2b96 cc3b f4b3 9f3b
000003b0: 33bf 4abc 5f46 e4bb 6470 8eba bb33 eb39
000003c0: 1d6d 6b3c e029 083c e7f4 2ebc f76c 5f3c
000003d0: f7bd 93bb d774 03bb d726 72bb 0f18 683c
000003e0: 335b ad3a 5714 ba3c 8d4f 6eba e336 e7bb
000003f0: baa3 2b3c 4241 acbc f787 a6bc 748d 38bb
-0.012166436 -0.014089219 0.007840149 -0.0101553295 0.0067763054 -0.009606647 0.0068828324 0.00702701
0.007665438 0.006148089 -0.0187462 0.0054529826 0.0044801305 -0.0069470815 -0.0031710293 -0.0079054935
0.012820599 0.01216138 -0.009518553 -0.005079529 0.006181273 -0.002072878 0.006524452 -0.0008253488
0.0008121528 0.004742387 0.01328253 -0.010370879 0.013078987 0.013151634 0.0040255836 -0.0006121246
0.005598048 -0.0017426604 -0.00548773 0.012895182 0.007296059 0.0023156486 -0.010055146 0.009074367
-0.0047673844 0.007987127 -0.00030074522 -0.012386064 -0.0033786562 0.002580587 -0.0068766526 -0.0037619707
0.0072910762 0.001848122 -0.00090406975 0.008641236 -0.008422305 -0.0037329874 0.00464962 -0.007065507
-0.010455724 0.010968375 -0.002843742 -0.017656077 0.009186108 0.0117151635 -0.004288448 0.0005286408
0.00030806204 0.0025668691 -0.0023063682 0.010592239 0.0019456008 0.0032036768 -0.009277247 0.009375948
-0.001636971 -0.012618377 -0.004606376 -0.0007995269 -0.001309743 0.0062856907 -0.02304254 0.0065973005
-0.007419608 -0.0020909654 -0.0049337065 0.0014639494 0.014197007 -0.0013709046 0.008653869 -0.010283976
-0.011051337 -0.0007208769 -0.0027429748 0.0022260032 0.01027508 0.01420738 -0.012318214 -0.0011739832
-0.0023576103 -0.008819715 0.009261428 0.0018210827 0.01125636 -0.01687841 -0.014631474 0.004120499
-0.016543346 0.002280766 0.0011054868 0.0037553597 -0.0011447114 0.01261984 -0.0016203098 0.001107086
0.011590345 0.0015467674 -0.00082214456 -0.011539342 -0.008070871 0.0037592077 0.0010477365 -0.016179746
0.0067414925 0.0057424423 0.0064849737 0.00044100382 -0.0055888854 -0.004908416 -0.0050329003 0.007861546
0.0051189284 -0.013275765 -0.010938235 0.003730993 -0.010277237 -0.0122178765 -0.005176121 -0.01300961
-0.006816987 -0.00091338047 0.0021745833 0.0028271049 0.006736312 0.005229595 -0.010676713 0.015597001
0.00473126 -0.0081162155 -0.004221651 0.004684734 0.002070702 -0.009503555 -0.0060377656 -0.007963656
0.018539649 0.00093651185 -0.0007385581 0.0067075677 -0.003698159 -0.0015157701 0.0008315461 0.0033184432
0.006923271 -0.0057560722 0.012707963 0.017629588 4.102833e-05 -0.011029213 -0.01988302 0.015880672
-0.004917936 -0.000974302 0.006759061 0.016336646 0.0064110546 -0.00082587375 -0.010236799 -0.0042133774
0.004010389 0.011910855 -0.009684598 0.009791276 0.0041489736 -0.009690246 0.009319658 -0.0033835494
0.0018118985 0.0023104346 -0.0125405835 -0.004847988 -0.017458027 0.0015769469 0.0049151178 0.0063708
0.007435947 -0.00398968 -0.0072924285 -0.014214191 -0.015546985 0.0104823345 -0.0025169123 -0.01429773
-0.015988935 0.018862382 0.013102397 -0.0061589875 -0.00832838 0.0054231714 0.01142509 -0.011273639
0.0015864869 0.0027131755 -0.007259878 0.016992949 0.017358592 0.0005447042 -0.0057189204 0.006728127
-0.011290277 0.0110004265 -0.0048320885 -0.0035649687 -0.0030996616 -0.00948749 0.0067268624 0.001095738
0.005414505 0.0011651214 -0.006608572 0.0043186457 0.0034968972 0.0043799058 -0.013977631 0.011705231
0.0027151103 -0.010084583 0.0062434874 0.004873747 -0.012374687 -0.0069663967 -0.0010867235 0.00044861235
0.014369276 0.008310765 -0.010678506 0.013636819 -0.0045087296 -0.0020058656 -0.003694942 0.014165892
0.0013226032 0.022714777 -0.00090908335 -0.0070561036 0.010476047 -0.021027211 -0.020328505 -0.0028160485

action_model._discrete_distribution.branches.0.bias f4 [2]
00000000: 0000 0000 0000 0000
0.0 0.0

action_model._discrete_distribution.branches.1.weight f4 [19, 128]
00000000: 70a2 973b c541 1c3b 77af 4e3b 2a2c 6c3c
00000010: a1e6 98bc 889c 0abc 1283 8b3b f7d9 663c
00000020: 0176 0ebc 2a3f 2b3b 355a 69bb 0513 a13b
00000030: 44be 1e3c 8b2d 98bb be57 4b3c 9a7d 65bc
00000040: 691f 0dbc 4fe9 bd3b 47ae fc3b f4ce 8b3b
00000050: 6fcd f63b ac2d 19bc 3b07 4aba d2ed 6abb
00000060: ebdb 10bc bd6e 1e3c 5277 babb 1fa8 0ebc
00000070: 659a 8c3b ddd6 1fbc 2f88 733a 4886 423c
00000080: 3fbe 823c a4da 453c 9df6 5dba 73fe 823a
00000090: 9013 733c 07e3 4bbc bbc2 2abc 6d08 513b
000000a0: 8bd7 25bc 5b8c 7b3b 8d85 45bb fd37 5cbc
000000b0: 3865 7c3b b475 8d3c db29 843c dadb 36bc
000000c0: 278b 083c 10c9 9abb ed2d 6e3b 7cc8 413c
000000d0: 7f8b d83b 58c3 df3b 98ab 663c c38d 2f3b
000000e0: 6b1f 36ba 2040 293b 40f6 a8bb 477d 9d3a
000000f0: 0d64 7238 d135 ae3c cd72 783b 8444 27bc
00000100: 7249 073c 37f5 76bc 2cf3 0b3a 742f bebb
00000110: 15be a8bc 4197 cbbb 2f9e dbba a94d 84b9
00000120: d8e5 75bb 0678 41bc d2c1 f9ba 73d3 86bb
00000130: f7ab 58bc 3d62 e2bb 70b0 aaba 0f0b 623c
00000140: 4b51 a6bc 655c e43b 7d4a ff3b 1158 20bc
00000150: 307b 42ba 1848 a1bb 2022 733b c617 19bb
00000160: d9cb 393c 287c 8bbc 6d40 353c b03b 17ba
00000170: f507 193b bcf8 183b 4a0b 19bc 3318 1f3c
00000180: f8a6 adbb e07e edbb 64be a6ba 974b 84bc
00000190: 93a2 ba3a 2772 3c3a cbe7 0b3c 97a6 123b
000001a0: b170 013c 4774 6e3b 87cf 44bc 7b44 09bb
000001b0: 65d9 77b9 dc05 123c b162 a2bb 04c9 3139
000001c0: dd37 87bb 377a 523b 1d80 8dbb bdd9 64bb
000001d0: 0013 8dbb 8562 fcba dbb9 e43b 5a2e 783b
000001e0: 78ad 4cbb adb5 7ebb c7ad 94bb e01c 693c
000001f0: bc9b 0f3c be38 87bc 28f8 06bc bcc6 093b
00000200: 9844 85bc 986e 9d3b eb6e 04bc ebf4 433b
00000210: f9a1 35ba bb16 d93b 1ccc 9f3c 65f4 c6b8
00000220: 334e aabb 73c2 8fbc cb23 863c dd2b 263c
00000230: cf3d 80bc 2c68 043a fb7c 34bb 4fe2 033a
00000240: 9c6c 093c c9be 8a3c a75d 22bc 9d07 4fbb
00000250: fbe9 213a 7a55 ab3b b7a3 483b 8fca c8bb
00000260: a5c1 a53b a6cf bfbb ed2c f0bb be24 ab3b
00000270: a1a8 973c 609d 993b 5249 2e3c 2a95 d53a
00000280: 484c eebb 0ddf 55bb 3d3d 173c d72f 58bb
00000290: bd3b 1d3c 883b 81bb 028f 803b 17c2 21bb
000002a0: e363 aa3a f580 e53b 05f3 04bc 0edb b5bb
000002b0: 8dc8 9cbc fc92 c9bb 5294 b23a f285 8b3a
000002c0: 80a4 afbc 53e5 d539 61cc 8b3c d797 5d3c
000002d0: f73a 1fbc e23f 3f36 64a1 1cbc a738 163b
000002e0: 3d73 af3b 626f 443c 2466 9abc 7f94 783b
000002f0: 67b6 7dbc d263 003c d8cf 633c 81f8 a73b
00000300: bf51 f33a 9d78 e4b8 ef0f ab3b ea73 01bb
00000310: 0721 79bc 37a1 67bb a796 fdbb 6375 043b
00000320: 8dec 3fbc 7f9b 863b b731 683b 28a6 0b3a
00000330: 2731 413c 26ed 943b 4362 35bb 2847 af3a
00000340: d416 293c 4359 8a3b 383f deba c7c7 143b
00000350: 93c0 dbbb 70e9 eebb 3a5a 51ba 609a 7d3b
00000360: ab04 16bb 1bee 493b 9034 c63b 3230 563b
00000370: 49ff 423c b83e 693c 1856 fc3a af99 6b3c
00000380: 69ec b3ba 5762 f1bb 8bde 673c 86a6 88bc
00000390: cfb3 173c 7e77 463a 5ba1 83bc ffe5 3dbc
000003a0: cd58 8abc c855 763b 426f 5b3b e3cb 17bc
000003b0: 0368 8dbb 3784 67bb cb07 37ba 7f7f 6fbc
000003c0: cd7c fb3b bda8 b5bb 1db7 52bc 1b35 9dbb
000003d0: e283 1cbc 53f6 483a ef9f 583b bb20 0b3c
000003e0: d104 bc3b 67fa 90ba 24fc 863b 8693 88bc
000003f0: b2f9 933b 937f d1ba c5e3 e03b c59a daba
0.0046275184 0.0023842913 0.003153769 0.014414826 -0.01866466 -0.0084601715 0.004257568 0.014090053
-0.0086951265 0.0026130178 -0.0035606746 0.0049155974 0.009688918 -0.004644101 0.012411056 -0.0140069965
-0.008613446 0.005795635 0.007711205 0.004266614 0.007531814 -0.009349268 -0.0007706766 -0.0035847318
-0.008841495 0.009669957 -0.0056904936 -0.008707075 0.004290866 -0.009755817 0.00092900073 0.011872835
0.015959857 0.012076054 -0.0008467229 0.0009994045 0.014836207 -0.012444264 -0.010422404 0.0031895891
-0.01012219 0.003838322 -0.0030139417 -0.013441083 0.003851248 0.01726804 0.01613324 -0.011160815
0.008333958 -0.0047236755 0.0036343292 0.011827584 0.006608426 0.0068287067 0.014078997 0.0026787377
-0.00069474307 0.0025825575 -0.0051563084 0.0012015485 5.7790476e-05 0.021265896 0.0037910223 -0.0102092065
0.008257257 -0.015073112 0.00053386646 -0.0058039967 -0.02059845 -0.006213099 -0.0016755516 -0.00025234863
-0.003752103 -0.011808401 -0.0019054955 -0.004114562 -0.013224593 -0.0069086836 -0.0013022553 0.013796582
-0.020302435 0.006969022 0.007790862 -0.009786622 -0.0007418869 -0.0049219243 0.0037099198 -0.0023360117
0.011340105 -0.017026976 0.011062724 -0.0005769087 0.002335069 0.0023341617 -0.00934107 0.009710359
-0.0052994452 -0.0072477907 -0.0012721536 -0.016149325 0.0014239125 0.0007188641 0.0085391505 0.0022377127
0.007900403 0.0036385225 -0.012012369 -0.0020945359 -0.00023636741 0.00891253 -0.0049556126 0.0001695492
-0.0041265325 0.0032116303 -0.004318251 -0.0034919821 -0.0043052435 -0.0019255435 0.0069801635 0.0037869425
-0.0031231325 -0.0038865611 -0.0045373174 0.014228076 0.008765157 -0.016506549 -0.008237876 0.0021022996
-0.01626806 0.0048044436 -0.0080830855 0.002990062 -0.0006928738 0.006625024 0.019506507 -9.486898e-05
-0.0051973104 -0.017548775 0.01637449 0.010142294 -0.015654473 0.0005050923 -0.0027540314 0.0005030976
0.008387711 0.016936677 -0.009910024 -0.0031590231 0.00061765284 0.0052286955 0.003061516 -0.0061276625
0.0050584846 -0.005853611 -0.0073295743 0.005222886 0.018513026 0.00468795 0.010637598 0.0016295065
-0.007272277 -0.003263417 0.009230909 -0.00329875 0.009596762 -0.0039438643 0.003923298 -0.0024682337
0.0012999739 0.0070038983 -0.008114581 -0.005549795 -0.019138599 -0.006151555 0.0013624525 0.0010644777
-0.021440744 0.00040797386 0.017065229 0.013524971 -0.009718648 2.8498403e-06 -0.009559963 0.002292195
0.0053543136 0.011989446 -0.018847533 0.0037930307 -0.015485383 0.007836299 0.013904534 0.0051260595
0.0018563791 -0.00010894353 0.0052204053 -0.0019752928 -0.015205628 -0.0035343894 -0.0077389064 0.002021157
-0.011714113 0.004107892 0.0035430023 0.00053271884 0.011791504 0.004544872 -0.0027676977 0.0013372647
0.010320384 0.0042220666 -0.0016956097 0.0022702084 -0.0067063062 -0.0072910115 -0.0007986162 0.003869675
-0.0022890966 0.0030812088 0.0060487464 0.0032682535 0.011901685 0.014236145 0.0019251732 0.014379903
-0.0013727072 -0.0073664594 0.0141521795 -0.016680967 0.009259178 0.00075709063 -0.016068151 -0.01159048
-0.016888047 0.003758775 0.0033483063 -0.009264919 -0.0043153777 -0.003532661 -0.0006982057 -0.0146178
0.0076747895 -0.005543797 -0.01286104 -0.0047975904 -0.009552928 0.00076660997 0.0033054312 0.00849169
0.005737879 -0.0011060954 0.004119413 -0.016671907 0.00451585 -0.0015983455 0.0068630897 -0.0016678205

action_model._discrete_distribution.branches.1.bias f4 [19]
00000000: 0000 0000 0000 0000 0000 0000 0000 0000
00000010: 0000 0000 0000 0000 0000 0000 0000 0000
00000020: 0000 0000 0000 0000 0000 0000 0000 0000
00000030: 0000 0000 0000 0000 0000 0000 0000 0000
00000040: 0000 0000 0000 0000 0000 0000
0.0 0.0 0.0 0.0 0.0 0.0 0.0 0.0
0.0 0.0 0.0 0.0 0.0 0.0 0.0 0.0
0.0 0.0 0.0

action_model._discrete_distribution.branches.2.weight f4 [15, 128]
00000000: 622c 283c 6393 1036 c428 243c 1ac7 543b
00000010: b049 063a 2b8b ff3b 2d13 ac3b d4e3 0abc
00000020: a7c7 69bc bb24 053c f9a4 2b3b e7ad e3bc
00000030: f13f 9bbb 5862 a8bc c739 0a3b 6741 4a3c
00000040: 5e6b 04bc 677f 33bb 6522 653c 3cbc 03bc
00000050: abed 653c d7e0 713c 6460 bbba d01e c53b
00000060: 37f2 38bc 1fdc 3d3b 5ffe af3b ca1f 64bb
00000070: 794d 49bc c3ae 70bc 73a1 24bc 841b 0cbc
00000080: 23ee a23c 5ae8 503c 4f0f 20b9 3ac1 d0bb
00000090: 30ca 14bc 79b0 aebc 1ccc 11bc b0ab 963b
000000a0: a469 9f3c 755f 6a3c 6a81 e63a 37c8 10bb
000000b0: 2d6f 24bb d573 693a e8d5 e93b c573 62ba
000000c0: 7019 80bb 3464 a83b 93a8 223b c4ca 913c
000000d0: 3995 983b 4cfa a5bc 73f1 cd3c 5a10 f7bb
000000e0: 83a9 26bc 5b62 d5bb f77f 71bc fdc7 193c
000000f0: ffaf 323c 7d4e 643c bd15 53ba c572 863c
00000100: f9e2 3a3a 4ad8 dbbb 46df 41bc 9ac4 183c
00000110: 63cb 0dbc a8c0 d4bb 2bae bdba efe5 19bc
00000120: 80b7 94bc 23f2 3fbc d968 123c 6838 da3b
00000130: 5455 a6bb 00d1 5738 49a1 033c d55e 1f3c
00000140: 9f44 5ebb 7716 0c3b ee43 a93c 4516 7dbc
00000150: 2fc3 ab3b 7a4e 953a aebf 4abc 8c20 a0bb
00000160: 3dbe 683b bbd6 67bb 5d44 84bb 9de7 163b
00000170: 3622 86b8 b59e 763b 168e 2fbb 7388 993b
00000180: 1588 fdbc 4b5d fdbb 6632 87bc 1b66 5d3b
00000190: 1d2b 6a3b d092 033c 73d7 edbb fb8a a13b
000001a0: 3272 19b9 4da5 2f3c 65d9 913a 3cfd 343c
000001b0: 1aa7 5dbc 7b22 bb3c d368 743a ff77 74bc
000001c0: ebfa 213c 01cf 12bb 8d18 673c a60c 853b
000001d0: 07ca 92bb d2f0 763b 28cf dabb 9dda 033c
000001e0: bbdf 8ebb 8204 67bb 308a 713c 3712 593b
000001f0: 353a eabb eb8d 923b 3ef6 353b ed23 7ebc
00000200: df99 85bb 212a 033c 4d5e 003b 3ce6 493c
00000210: 165b 033c 4ed4 8f3c 8249 213b bf96 e43b
00000220: 010f 3cbc e8f5 733c b39b 25bc 7db0 c83b
00000230: 791c 943c f244 f0b9 b852 95bb 3aad 1cbc
00000240: 9be8 b6bb 7f36 0c3b 3704 d3bb ab0e 14bc
00000250: 90ec fbbb 7917 a83b f57d e33b 867c 283c
00000260: b0cd 4ebb 3ba9 683c a2f8 cd3b f5fa c4bb
00000270: 2b59 adbb 6f19 c73a 6deb 053b 6432 943a
00000280: 3669 98bb a8ff ccbb fab0 d9bb 7a5a 293c
00000290: e226 573b 8c0b a63c 5d2c bb3b 7b22 1bba
000002a0: 6f45 79bb 4fb1 143c 176c 2ebb f153 17bc
000002b0: 1b7a 78bc d5ae f0bb ba89 703c d7df 253c
000002c0: 77f8 de3b eab9 6e3a a7ed 6739 8bee 903b
000002d0: d656 18bb cd8f 97ba 2702 0ebc 4ba9 08bb
000002e0: 7d29 283b f565 3fbc 271c 4eba ea39 9e3c
000002f0: 0a00 8b3c 8bd0 0b3c 0549 053c 253a 1e3b
00000300: 14f5 1fba 1790 9f3b d0e4 d63b 8cdd 823a
00000310: 4384 14bc 84fb adba 3c9b 8fbc 8eee 9eba
00000320: a1bf 0b3c 92f4 203b 2c94 90bc 1161 263b
00000330: 53e5 5fbc 3019 28bc b4e2 adbb a0ea 57bc
00000340: ec6c 993c c9b4 2abc 2aad fcbb 007f 7f3c
00000350: f73c 8eba a379 7eb9 d377 263a 972f c9bb
00000360: 2b0f 2c3c e3a7 22bb ed60 9b3c 003c a73b
00000370: 5808 26bc 3277 5e3b 4bf3 443c 91ab 0cbb
00000380: 33fb 473c 88cd bcbb a033 e83a 2440 b9bb
00000390: 2323 9339 c0ef 35bc b8d6 323c 7292 5fbc
000003a0: c2cc 90ba 7f59 e1bb c29d e5ba 78d2 f1bb
000003b0: 94e9 353c 173a bb3b bcad 833c 1b9f 933b
000003c0: 7f89 033c 92a9 a0bc df12 0dbc 3463 be3b
000003d0: 1dd8 d3ba ffa0 5fbc ff8d 57bc fa29 4c3b
000003e0: eda1 55bc 52c8 003c 164e 1d3c 0bec 97bb
000003f0: a5ae 393b 8fd1 ba3a 6a35 713b 304e e03b
0.010264488 2.1543462e-06 0.010019485 0.0032467307 0.00051226746 0.0077985725 0.0052513094 -0.00847717
-0.014268792 0.008126433 0.002619086 -0.027792884 -0.004737847 -0.020554706 0.0021091567 0.012344695
-0.008082239 -0.002738917 0.013985251 -0.008040484 0.014033715 0.014763079 -0.0014295694 0.006015636
-0.011288217 0.0028970314 0.0053708996 -0.0034808987 -0.012286537 -0.014690104 -0.010048258 -0.008551482
0.019888943 0.012750709 -0.00015264492 -0.0063706907 -0.009081408 -0.021324383 -0.008898761 0.0045981035
0.019459553 0.014304985 0.0017586176 -0.0022091994 -0.002509068 0.0008905505 0.0071360953 -0.0008638467
-0.0039092824 0.0051388983 0.0024819716 0.017796881 0.0046564606 -0.020260952 0.025139546 -0.007539791
-0.010172251 -0.006511969 -0.014739982 0.00938606 0.010906219 0.013934729 -0.00080522505 0.016412148
0.00071291585 -0.0067091333 -0.011833018 0.009324217 -0.008654448 -0.006492693 -0.0014471462 -0.009393199
-0.018153906 -0.011715445 0.00893613 0.006659556 -0.00507609 5.145464e-05 0.008034059 0.0097272
-0.0033915413 0.0021375695 0.020662274 -0.015447204 0.0052417736 0.0011391186 -0.012374802 -0.0048866924
0.0035513781 -0.0035375792 -0.00403647 0.0023026236 -6.39599e-05 0.0037631218 -0.002678757 0.0046854555
-0.030948678 -0.0077320687 -0.016503524 0.0033782783 0.0035731264 0.008030608 -0.0072583496 0.004929898
-0.00014633758 0.010720563 0.0011127411 0.011046704 -0.01352861 0.02284359 0.00093234814 -0.014921187
0.009886484 -0.0022401216 0.014104974 0.0040603457 -0.00447965 0.0037680161 -0.006677527 0.008047727
-0.004360167 -0.003525049 0.014742419 0.003312243 -0.007148052 0.0044724843 0.002776518 -0.015511495
-0.0040771808 0.00800565 0.0019587458 0.012322959 0.008017322 0.01755729 0.0024610464 0.006975978
-0.011478187 0.014890172 -0.010107922 0.0061245547 0.018079983 -0.00045827735 -0.00455698 -0.009562785
-0.005581928 0.0021394787 -0.0064397114 -0.0090367 -0.0076881126 0.0051297513 0.0069425055 0.010283595
-0.0031555705 0.014200504 0.006285743 -0.0060113617 -0.0052901707 0.0015190075 0.0020434514 0.0011306521
-0.004651214 -0.0062560625 -0.0066434117 0.010336513 0.0032829572 0.020269178 0.0057120756 -0.0005917919
-0.003803577 0.009075477 -0.002661472 -0.009236322 -0.015165831 -0.0073450604 0.014681274 0.010124168
0.0068045217 0.0009106683 0.00022118409 0.004422968 -0.0023245118 -0.0011563242 -0.008667505 -0.002085286
0.0025659495 -0.011682023 -0.00078624714 0.019314725 0.016967792 0.008533607 0.008135085 0.0024143544
-0.0006101888 0.004869472 0.0065580383 0.0009984239 -0.009064737 -0.001327381 -0.017530076 -0.0012125538
0.008529575 0.0024559838 -0.017648779 0.0025387446 -0.013665515 -0.010259911 -0.005306566 -0.013178498
0.018728696 -0.010419079 -0.0077110725 0.015594244 -0.0010851909 -0.00024268641 0.00063502527 -0.0061397064
0.010501663 -0.0024819307 0.018967116 0.005103588 -0.010133825 0.0033945558 0.012020896 -0.0021464566
0.012205887 -0.005761806 0.0017715581 -0.005653398 0.00028064204 -0.011104524 0.010915451 -0.013645755
-0.0011047351 -0.006877124 -0.0017518329 -0.007379826 0.011103053 0.005713712 0.016074054 0.004505051
0.008028387 -0.019612107 -0.008610456 0.005810166 -0.0016162429 -0.013649224 -0.013156413 0.003115295
-0.013039094 0.00786026 0.009601137 -0.004636293 0.0028332856 0.0014253127 0.003680552 0.006845258

action_model._discrete_distribution.branches.2.bias f4 [15]
00000000: 0000 0000 0000 0000 0000 0000 0000 0000
00000010: 0000 0000 0000 0000 0000 0000 0000 0000
00000020: 0000 0000 0000 0000 0000 0000 0000 0000
00000030: 0000 0000 0000 0000 0000 0000
0.0 0.0 0.0 0.0 0.0 0.0 0.0 0.0
0.0 0.0 0.0 0.0 0.0 0.0 0.0

network_body._body_endoder.seq_layers.0.weight f4 [128, 78]
00000000: 60a3 d4bc b0bc 65bd 026c 52bd a7a9 7f3e
00000010: b85b 1ebe 48d7 b33d cff3 bb3d 467b 63be
00000020: 67c7 9a3d 4ca0 d23d 3323 b23d 5ba6 2f3e
00000030: 548f 2ebc a4df 47be ad46 003e cae3 55bd
00000040: ba5a a6bd b32f 2e3d f9e9 1ebd 9b93 2fbc
00000050: 4fe5 d63b 1525 f33d 5d80 223e e153 99bd
00000060: 2ebf c9bd 0539 123d 0a6c 03be 1e2f 0d3e
00000070: d8c6 ce3c b01b 503d 9876 cfbc c53f 61bb
00000080: a4e2 f53b 4c6c ccbd 0f7c 4b3d 2167 333e
00000090: c871 103c ca22 6a3d af92 46be b142 1bbe
000000a0: b7d2 143e 4c9d 96bc 6e9a 73be 6b05 cfbd
000000b0: e613 3ebd 19fa 903d 2d1e 84bd 6373 03bd
000000c0: 7942 c53b 346a 10be d222 aebd fd01 973c
000000d0: 68fe b5bd 3598 14be e88d 62bd e0d6 29be
000000e0: 66ea de3d f4ba 85bd 7704 1e3c 45be e7bc
000000f0: 6c05 853d d3f7 d6bb a30f 27bd 0e89 123e
00000100: 0f10 e7bd c137 203e da6c 4dbe 49d2 a13c
00000110: 1d1d e9bd 2c86 9d3d fd64 15bd f61a 53be
00000120: 632c c239 7b8c b1bd 2d20 fabd 8c31 253e
00000130: a9a3 d1bd 7b6f d83b 1b36 b8bb f061 d8bd
00000140: 93a2 53bd f85c 1a3d 28b0 31be 1536 233c
00000150: 3d35 0d3d 4e39 b03d c4bb 55bd 1779 1e3e
00000160: f817 ad3d 1702 bcbb 01ad 933d b653 983d
00000170: 69e7 53bd 7333 743e aa98 de3c d55b 103d
00000180: e305 14be 3eb7 29be 7e2e cabd d74a d9bd
00000190: a44a 0b3b d6ed c3bd 007a 86bd 4150 c0bd
000001a0: 12a9 cc3d 26de 123e 29fa 95be 581e 693d
000001b0: 53f6 97bc 358a c4bd 11f7 ec3d 7c9b 1f3d
000001c0: 01ab 99bd 4e74 3b3e 79c1 8dbd 0be3 59bc
000001d0: 0893 3cbe e505 2d3e 20ab 043e 09ce 48be
000001e0: fee9 80bd 3399 fd3d 52f6 55be 6a6f ad3d
000001f0: f798 bb3d a731 b23d 4ed9 2abe ed66 ee3d
00000200: 861f e7bd 4d25 003d 9b41 313d dd5a e23d
00000210: 0c13 983d 2519 d53c 48da 9b3d 5e31 e13c
00000220: 3992 89bd a5cf fcbd e687 dbbd 5b48 213e
00000230: 420e 0d3d eb6e 853c 7242 b13d 5cf8 24be
00000240: 338f 6dbd 0189 3b3e 01bc e3bd 6811 64bd
00000250: 7dd7 1fbe a98a 173e 4d95 a6bd a757 fcbc
00000260: caa9 4d3c 6352 80bc b607 22be cfb3 6ebe
00000270: 0240 d6bd 2786 3abe 04f5 02be 62e8 acbd
00000280: 0839 25be 49c3 e2bd e18b 51bd 5e43 f0bd
00000290: 1c19 dfbd 4583 423d 5026 e13d e648 1d3d
000002a0: 6320 40bc 19d9 673d 2143 bbbd 8779 093e
000002b0: 68e6 273c 5916 e63d 688d 25be ca89 dcbc
000002c0: ba37 3b3e 303e 4a3d fcd2 853c bdee edbc
000002d0: e6b6 8abd ab88 73bd 76b4 42bc 71fa 95bd
000002e0: b945 a53d f06d 223e f1b2 9a3d 215b 4ebe
000002f0: 68ca 91bc c7dd 28be d7c2 17be a819 06bd
00000300: dde6 683d aa00 723e f354 30be 190e b93d
00000310: 4e4b 853e 0fe3 df3c c52e 863d 7657 d6bd
00000320: a0ae 8e3e 7e27 ffbd 377b 44bc 13bf 003d
00000330: c98a 32bb b2d1 8abd d97a 6bbd 6f8b ff3d
00000340: 7dae 55bd a04b c1bc c15d 503e 8b3e 4cbe
00000350: 4542 6c3e cbbf 0d3e ea4a afbd fe92 763d
00000360: 6504 3f3d 1c59 3f3e ea37 f33d eed0 1dbe
00000370: 019d e9b8 2ddf 3a39 d4a2 b6bd ed09 863d
00000380: 1dbe 2b3e 22b7 67bd 649a efbd c8b8 433c
00000390: 565b 3d3e ca72 f63c 4fbe 0b3e 05dd 87bc
000003a0: d23e a93c a893 88bd a9ed 52bd 70aa b33c
000003b0: cdea 92bd a168 143e 0e7f 293d c602 c9bc
000003c0: 7755 6fbd 34a6 e7bd b450 893c 34d1 04bd
000003d0: d44c 49bd e4bb e6bd b791 813e 0334 2ebe
000003e0: b458 10be fb74 28bd b7ea 07be 333e d1bd
000003f0: eacf 4ebe 589f 1bbe 6ad3 0a3d 3154 c13d
-0.02595681 -0.05608815 -0.051372536 0.24967061 -0.15464675 0.08781296 0.09177362 -0.22214994
0.07557564 0.102844805 0.0869812 0.17153303 -0.010654289 -0.19518906 0.1252696 -0.05221919
-0.081227735 0.04252596 -0.038797352 -0.010716344 0.0065580974 0.11872307 0.15869279 -0.07486702
-0.09850918 0.03569891 -0.12834182 0.13787505 0.0252413 0.050807655 -0.025325105 -0.0034370285
0.0075038243 -0.099815935 0.04967886 0.1751981 0.00881619 0.057162084 -0.19391893 -0.1516216
0.14533506 -0.018385552 -0.23789379 -0.10108455 -0.046405695 0.07078952 -0.06451068 -0.032092463
0.006019887 -0.14103013 -0.08502735 0.018433565 -0.08886415 -0.14511187 -0.055311114 -0.16585875
0.10884552 -0.06529799 0.009644619 -0.02828897 0.06495175 -0.0065603047 -0.040786397 0.14310095
-0.1128236 0.15646268 -0.20061055 0.019753592 -0.11382506 0.07691607 -0.036473263 -0.20615754
0.00037035634 -0.08669373 -0.12213168 0.16132182 -0.10236294 0.0066050864 -0.0056216842 -0.10565555
-0.051668715 0.03768632 -0.17352355 0.009961625 0.0344746 0.0860468 -0.05218102 0.1547588
0.08451837 -0.005737554 0.07210732 0.074378416 -0.05173436 0.23847751 0.027172405 0.035243828
-0.1445537 -0.16573808 -0.09872149 -0.10609978 0.0021254206 -0.09566848 -0.065662384 -0.09390307
0.09993185 0.14342555 -0.2929242 0.056913704 -0.018550074 -0.095966734 0.11570562 0.03896664
-0.075033195 0.18306085 -0.069216676 -0.01329876 -0.18415463 0.1689678 0.12955904 -0.19609846
-0.062946305 0.12382736 -0.20894745 0.08468516 0.09160035 0.08700877 -0.16684458 0.11640725
-0.112853095 0.031285573 0.043275457 0.11052487 0.07425508 0.026012966 0.07609993 0.02748936
-0.06717343 -0.123442926 -0.1071928 0.15750258 0.034437425 0.016288241 0.086552516 -0.16110367
-0.057997894 0.18313982 -0.11119843 -0.055680662 -0.15609546 0.14798988 -0.081339456 -0.030803515
0.012552688 -0.015664285 -0.15823254 -0.23310779 -0.10461427 -0.18215238 -0.12788779 -0.08442761
-0.16135037 -0.11072404 -0.05115879 -0.11731599 -0.10893461 0.04748847 0.10993636 0.0383996
-0.011726472 0.056603525 -0.09143663 0.13425265 0.010247804 0.11234731 -0.16167223 -0.026921172
0.18282977 0.049375713 0.016335957 -0.029044503 -0.06773166 -0.05945651 -0.011883846 -0.073231585
0.08069939 0.1586225 0.075536616 -0.2015195 -0.01779671 -0.16490851 -0.14820419 -0.03273931
0.056860793 0.23633066 -0.17219906 0.09035892 0.26034015 0.02732995 0.06551889 -0.104659006
0.27867603 -0.124587044 -0.011992267 0.031432223 -0.0027243367 -0.067782775 -0.057490204 0.12477767
-0.052168358 -0.023595631 0.20348264 -0.19945733 0.23072155 0.13842694 -0.085592106 0.060198776
0.04663505 0.18686336 0.11875899 -0.15411732 -0.0001113955 0.00017821482 -0.08917776 0.06544862
0.16771741 -0.056571133 -0.116993695 0.011945911 0.18491873 0.030084033 0.13646816 -0.016584883
0.020659838 -0.06668788 -0.05149618 0.021931857 -0.07173691 0.14493038 0.041380934 -0.024537455
-0.058431115 -0.113109976 0.016762115 -0.032426074 -0.049145535 -0.11266306 0.25306484 -0.17012028
-0.14096338 -0.041127186 -0.1327313 -0.10216942 -0.201965 -0.15197504 0.033893026 0.09439886

network_body._body_endoder.seq_layers.0.bias f4 [128]
00000000: 0000 0000 0000 0000 0000 0000 0000 0000
00000010: 0000 0000 0000 0000 0000 0000 0000 0000
00000020: 0000 0000 0000 0000 0000 0000 0000 0000
00000030: 0000 0000 0000 0000 0000 0000 0000 0000
00000040: 0000 0000 0000 0000 0000 0000 0000 0000
00000050: 0000 0000 0000 0000 0000 0000 0000 0000
00000060: 0000 0000 0000 0000 0000 0000 0000 0000
00000070: 0000 0000 0000 0000 0000 0000 0000 0000
00000080: 0000 0000 0000 0000 0000 0000 0000 0000
00000090: 0000 0000 0000 0000 0000 0000 0000 0000
000000a0: 0000 0000 0000 0000 0000 0000 0000 0000
000000b0: 0000 0000 0000 0000 0000 0000 0000 0000
000000c0: 0000 0000 0000 0000 0000 0000 0000 0000
000000d0: 0000 0000 0000 0000 0000 0000 0000 0000
000000e0: 0000 0000 0000 0000 0000 0000 0000 0000
000000f0: 0000 0000 0000 0000 0000 0000 0000 0000
00000100: 0000 0000 0000 0000 0000 0000 0000 0000
00000110: 0000 0000 0000 0000 0000 0000 0000 0000
00000120: 0000 0000 0000 0000 0000 0000 0000 0000
00000130: 0000 0000 0000 0000 0000 0000 0000 0000
00000140: 0000 0000 0000 0000 0000 0000 0000 0000
00000150: 0000 0000 0000 0000 0000 0000 0000 0000
00000160: 0000 0000 0000 0000 0000 0000 0000 0000
00000170: 0000 0000 0000 0000 0000 0000 0000 0000
00000180: 0000 0000 0000 0000 0000 0000 0000 0000
00000190: 0000 0000 0000 0000 0000 0000 0000 0000
000001a0: 0000 0000 0000 0000 0000 0000 0000 0000
000001b0: 0000 0000 0000 0000 0000 0000 0000 0000
000001c0: 0000 0000 0000 0000 0000 0000 0000 0000
000001d0: 0000 0000 0000 0000 0000 0000 0000 0000
000001e0: 0000 0000 0000 0000 0000 0000 0000 0000
000001f0: 0000 0000 0000 0000 0000 0000 0000 0000
0.0 0.0 0.0 0.0 0.0 0.0 0.0 0.0
0.0 0.0 0.0 0.0 0.0 0.0 0.0 0.0
0.0 0.0 0.0 0.0 0.0 0.0 0.0 0.0
0.0 0.0 0.0 0.0 0.0 0.0 0.0 0.0
0.0 0.0 0.0 0.0 0.0 0.0 0.0 0.0
0.0 0.0 0.0 0.0 0.0 0.0 0.0 0.0
0.0 0.0 0.0 0.0 0.0 0.0 0.0 0.0
0.0 0.0 0.0 0.0 0.0 0.0 0.0 0.0
0.0 0.0 0.0 0.0 0.0 0.0 0.0 0.0
0.0 0.0 0.0 0.0 0.0 0.0 0.0 0.0
0.0 0.0 0.0 0.0 0.0 0.0 0.0 0.0
0.0 0.0 0.0 0.0 0.0 0.0 0.0 0.0
0.0 0.0 0.0 0.0 0.0 0.0 0.0 0.0
0.0 0.0 0.0 0.0 0.0 0.0 0.0 0.0
0.0 0.0 0.0 0.0 0.0 0.0 0.0 0.0
0.0 0.0 0.0 0.0 0.0 0.0 0.0 0.0
