FYPprototype/results/SpawnLocationTest1/AIBalancing/AIBalancing-224956.onnx (onnx, 128981 bytes, 11 tensors)

action_model._discrete_distribution.branches.0.bias f4 [2]
0.0080470415 -0.008047043
00000000: bdd7 033c bfd7 03bc

action_model._discrete_distribution.branches.0.weight f4 [2, 128]
-0.020740014 -0.005911441 -0.00224975 -0.010784159 -0.015043423 -0.011324263 -0.009450385 -0.011562512
-0.010887385 0.0070065926 -0.0066180704 -0.003584225 -0.0015153751 0.014488505 0.008497098 0.013806173
-0.0074062357 -0.0053070425 0.0011037054 -0.010313698 -0.0028153919 0.013493196 0.0016316681 5.995942e-05
-0.01280696 0.0053087617 0.002530704 -0.013347665 0.0020144484 0.015341935 -0.0044820374 0.016762316
0.0015339664 -0.00315914 0.0015923121 0.0011152483 0.00043755962 -0.0049411035 0.004605454 0.005987575
-0.007277934 0.0051720217 -0.0043856967 -0.01897394 0.010451181 0.0008015812 -0.014285122 -0.016989538
0.016044185 -0.0022477792 0.012892333 -0.01865705 -0.0142672295 -0.011094976 -0.010647666 -0.007800142
-0.00029993258 0.007556426 0.0077900626 -0.00042167582 -0.014617539 0.0056778984 -0.012001985 -0.003135304
0.0115944445 -0.009091443 -0.00293743 -0.02120958 -0.02308018 0.018591508 -0.014893607 -0.01982748
-0.0061824485 -0.0109258 0.014296253 -0.016795037 -0.025886238 -0.0094373245 0.0037885082 0.01514082
-0.017549593 -0.015348685 0.0022548235 -0.008829166 -0.002622777 0.0016896961 0.026360454 -0.0056472514
-0.013978156 -0.0055611082 -3.25738e-05 -0.013112542 0.0073479917 0.0021199037 0.01946808 -0.019622818
-0.007458079 -0.0059611406 -0.009660556 -0.009934977 0.0008728992 -0.00204501 0.008436516 -0.011527963
0.015211917 -0.0013051738 0.0068170177 0.0054276516 -0.012933457 0.0062790313 0.004313875 -0.011326329
-0.025546642 -0.012194465 0.0129790595 -0.015370161 0.012459697 0.0032217763 -0.0015622206 -0.0041204467
0.011546447 0.012887763 -0.0007746041 0.016955158 -0.0055764345 -0.006597444 -0.0041959384 0.017607396
0.00045381687 0.008170982 -0.0097849835 -0.001581577 -0.023201555 0.0061314018 -0.009529714 -0.005458746
-0.0016461862 -0.00045471737 -0.008914481 0.01071288 -0.0041384194 -0.0039030504 -0.019918576 -0.01298738
-0.016651385 -0.015863804 0.004193995 -0.009021573 -0.0053214803 0.003369505 0.0068265423 0.016277418
0.002335889 -0.01588817 -0.009769776 0.012102714 -0.009717298 -0.016694484 -0.0035747727 0.008931673
0.00978412 0.0052110986 0.012364881 -0.019967869 0.01597114 -0.003684285 -0.010981109 -0.010838585
0.0029568865 -0.020529885 0.0007610104 0.006356079 0.014459272 -0.008016141 0.0015254648 0.006635476
-0.0152648315 -0.0076964833 0.004303376 0.0068055824 0.013974064 0.00022477067 -0.013009382 0.02393031
0.005959975 -0.011015413 0.025700107 0.0005554849 0.015815327 0.012043245 0.0035780068 -0.011902827
0.016078902 0.01219147 0.010794826 0.013774415 0.008646958 -0.0019069456 0.00092387793 0.011248498
0.0071101105 0.013017549 0.0018219275 0.0067158546 0.023405403 0.007950756 -0.012466165 -0.004681073
0.0037477536 -0.006271201 0.0007856484 0.009466792 -0.0014977336 0.020367594 -0.006738793 0.020380687
0.01629839 -0.0053316494 0.0010845753 0.0004160275 0.007918581 -0.0065959003 -0.0030126257 0.003744662
0.008958365 0.015533936 -0.007065179 0.009921775 0.008037403 0.012396877 -0.0020956416 -0.006305945
0.0042626094 -0.015058415 0.005148567 -0.008456395 0.021588946 -0.0061412957 -0.011230232 -0.010630964
0.010771892 0.0018557723 -0.016535584 0.0023505895 0.00083102385 0.00031984408 -0.005586859 -0.0019735685
0.008593976 0.0014973562 -0.0035753688 -0.015195688 -0.019246163 0.0010678713 0.010220405 0.011927208
00000000: f6e6 a9bc c3b4 c1bb 8b70 13bb 0bb0 30bc
00000010: b078 76bc 6789 39bc cad5 1abc b170 3dbc
00000020: 0161 32bc 8f97 e53b 66dc d8bb 51e5 6abb
00000030: 8d9f c6ba 3261 6d3c 6a37 0b3c 4933 623c
00000040: 02b0 f2bb b3e6 adbb 35aa 903a c9fa 28bc
00000050: 7082 38bb 9112 5d3c b2dd d53a f07c 7b38
00000060: 49d4 51bc 1ff5 ad3b 2bda 253b 2ab0 5abc
00000070: d604 043b bd5c 7b3c 0ede 92bb 2051 893c
00000080: 5f0f c93a 9309 4fbb 21b5 d03a 862d 923a
00000090: 4268 e539 fbe8 a1bb 59e9 963b 6b33 c43b
000000a0: bc7b eebb 107a a93b e4b5 8fbb 3c6f 9bbc
000000b0: 6e3b 2b3c 3421 523a 250c 6abc a52d 8bbc
000000c0: 186f 833c 7a4f 13bb 5d3a 533c abd6 98bc
000000d0: 19c1 69bc b4c7 35bc 8c73 2ebc 5598 ffbb
000000e0: 4540 9db9 e59b f73b c843 ff3b 5f14 ddb9
000000f0: 677e 6fbc aa0d ba3b f9a3 44bc ac79 4dbb
00000100: a0f6 3d3c 47f4 14bc e681 40bb b7bf adbc
00000110: a512 bdbc 384d 983c 5104 74bc 3d6d a2bc
00000120: 2396 cabb 2002 33bc d53a 6a3c bf95 89bc
00000130: 600f d4bc 029f 1abc 9f48 783b 3411 783c
00000140: 2ac4 8fbc 0d79 7bbc a9c5 133b 35a8 10bc
00000150: e5e2 2bbb cb78 dd3a e1f1 d73c 940c b9bb
00000160: a304 65bc f539 b6bb da9f 08b8 fdd5 56bc
00000170: 6cc7 f03b 15ee 0a3b 867b 9f3c 08c0 a0bc
00000180: e762 f4bb ac55 c3bb 4f47 1ebc 50c6 22bc
00000190: 46d3 643a 9305 06bb 5039 0a3c c8df 3cbc
000001a0: 683b 793c 5e12 abba 4a61 df3b 71da b13b
000001b0: dae6 53bc 55c0 cd3b 685b 8d3b 1192 39bc
000001c0: 3147 d1bc 4bcb 47bc 1fa6 543c 21d3 7bbc
000001d0: c223 4c3c 7024 533b 6dc3 ccba d004 87bb
000001e0: 4f2d 3d3c 3227 533c cd0e 4bba 8be5 8a3c
000001f0: 86ba b6bb 5f2f d8bb 157e 89bb 633d 903c
00000200: 45ee ed39 95df 053c 3251 20bc eb4c cfba
00000210: 3011 bebc ede9 c83b 8422 1cbc 48df b2bb
00000220: d8c4 d7ba 2267 eeb9 0b0e 12bc 1385 2f3c
00000230: 949b 87bb 52ca 7fbb 482c a3bc 05c9 54bc
00000240: 7c68 88bc cff4 81bc c86d 893b 38cf 13bc
00000250: d05f aebb ead2 5c3b 30b1 df3b 3858 853c
00000260: b715 193b e827 82bc 6911 20bc 764a 463c
00000270: 4d35 1fbc dfc2 88bc bc46 6abb 2756 123c
00000280: 934d 203c ddc1 aa3b 1296 4a3c a893 a3bc
00000290: e8d5 823c 0c74 71bb 1cea 33bc 5294 31bc
000002a0: 53c8 413b 4a2e a8bc 8b7e 473a a846 d03b
000002b0: 95e6 6c3c 2256 03bc 1bf2 c73a 686e d93b
000002c0: 5819 7abc c832 fcbb 5603 8d3b 5d01 df3b
000002d0: 79f3 643c 6bb0 6b39 4e25 55bc 7f09 c43c
000002e0: e54b c33b fe79 34bc 0889 d23c f69d 113a
000002f0: 258f 813c 0851 453c fe7c 6a3b 1304 43bc
00000300: e7b7 833c bbbe 473c c8dc 303c 15ae 613c
00000310: f8ab 0d3c 7af2 f9ba 6630 723a 9f4b 383c
00000320: eefb e83b 8f47 553c becd ee3a ac10 dc3b
00000330: b0bc bf3c e343 023c e33e 4cbc b063 99bb
00000340: df9c 753b a67e cdbb f9f3 4d3a 9b1a 1b3c
00000350: 9a4f c4ba f1d9 a63c 18d1 dcbb 66f5 a63c
00000360: 3484 853c 1eb5 aebb 4f28 8e3a 441e da39
00000370: f0bc 013c 6c22 d8bb 796f 45bb 0169 753b
00000380: 1bc6 123c 0d82 7e3c 0483 e7bb f18e 223c
00000390: 50af 033c 451c 4b3c 0857 09bb 1aa2 cebb
000003a0: 5cad 8b3b 92b7 76bc 4fb5 a83b b18c 0abc
000003b0: 4ddb b03c ec3c c9bb 02ff 37bc 7f2d 2ebc
000003c0: 977c 303c 633d f33a a275 87bc 590c 1a3b
000003d0: 11d9 593a bfb0 a739 f811 b7bb fc56 01bb
000003e0: bfcd 0c3c f042 c43a bc50 6abb 56f7 78bc
000003f0: 21aa 9dbc d1f7 8b3a 7c73 273c 566a 433c

action_model._discrete_distribution.branches.1.bias f4 [19]
-0.0067780367 -0.0006614183 -0.0015828552 -0.00079122273 0.0062522567 0.0024516475 -0.0008439357 -0.0071700923
-0.0045458516 -0.0021567342 -0.0024121865 0.0035909486 -0.0021116212 -0.004797985 -0.002745636 0.0032631592
0.0066483794 0.0040019895 0.0067386576
00000000: 4b1a debb 0863 2dba cf77 cfba 0f6a 4fba
00000010: bbdf cc3b d2ab 203b 913b 5dba 18f3 eabb
00000020: 5ef5 94bb ff57 0dbb c615 1ebb 1f56 6b3b
00000030: 2063 0abb 6a38 9dbb 21f0 33bb bada 553b
00000040: a6da d93b 1f23 833b f5cf dc3b

action_model._discrete_distribution.branches.1.weight f4 [19, 128]
-0.00015584697 -0.0048505417 -0.00966103 0.009245225 -0.018618213 0.025726538 -0.0089842165 0.0017828426
0.017006641 0.0052136825 -0.0068853805 0.0120661445 -0.004448221 -0.0045044157 -0.0018222557 -0.006151379
-0.00469851 0.0064211125 -0.0036268355 -0.019091278 -0.002404218 -0.00686428 0.011628104 0.018183915
0.014502832 0.0010747425 0.013433632 0.014127086 -0.013852278 -0.00020282746 -0.018992161 -0.0140387565
0.0067670355 0.000321254 -0.0073067 0.013757955 0.0032415977 0.006744601 0.004670966 -0.0027730048
0.0053577293 0.003767493 -0.017278768 0.019165622 -0.0067640557 0.0035962353 -0.0049961605 0.017576594
-0.015187682 0.0013586407 -0.00903941 0.015239215 0.015845425 -0.011382383 0.0028204944 -0.007576739
0.0012617531 0.0066931266 0.012839554 -0.007446064 0.004473369 0.0061433464 0.025177697 0.008534517
0.0034253318 0.016359704 0.0067358217 0.009273228 0.007498268 -0.024581404 0.012036899 -0.011662031
-0.0027174253 0.010203372 -0.0060056527 -0.0020274583 0.0078408 -0.008983786 -0.015449702 -0.014030758
-0.0105389515 0.0075649493 -0.0083612455 0.009689102 -0.010042384 0.007008744 -0.00376372 0.0037237513
0.020823568 -0.0015537982 -0.010247294 0.004583511 -0.011883298 -0.0037941423 -0.014196187 -0.0077661206
0.011202909 -0.00060887483 0.018676898 -0.00044237403 0.019903064 0.006552663 -0.0035154603 0.0023977973
0.011040864 0.009469785 0.014653903 -0.010135753 0.0041039595 -0.017967796 -0.0044727027 0.0017770294
0.0040601254 0.016063938 -0.012530404 0.0022678794 0.005119475 -0.0017377773 -0.008412115 -0.00698523
-0.011297809 -0.015513575 -0.010524481 -0.0075259823 -0.016316162 -0.01918097 -0.004128855 0.0017909359
-0.0099696135 -0.0057512405 0.0029871836 -0.00580876 0.01995799 -0.01091942 0.00018674615 -0.012660212
-0.00082317594 0.016318196 -0.010037306 -0.005213673 -0.002913417 -0.0023987582 0.007483623 -0.003411129
0.0034134872 0.00022926234 -0.01324698 -0.0025926358 0.009392114 -0.006392415 -0.0009590436 0.003865443
-0.0121692745 -0.008867709 0.00013378634 0.0005543845 -0.0138858175 0.0018979062 -0.010293894 0.0018600374
-0.005036568 0.0027568694 0.010492893 -0.00069329573 0.007572207 0.0032726894 0.0052182446 0.0010223576
-0.0023427883 0.006017724 0.009868166 0.007760772 0.0032138745 0.013762601 -0.0120261805 -0.0026276116
-0.008374372 0.003307551 0.011662558 -0.010204638 0.0066323145 0.011266364 -0.003096143 0.008966957
-0.006767685 -0.007966406 0.0088011315 -0.006567831 -0.0013808779 0.0018528819 -0.012040299 -0.0037140972
-0.010896163 -0.0063787717 0.018406892 -0.0060520996 0.008993184 0.0029976987 0.004968098 -0.0117823295
0.008775777 0.0042072353 -0.0028438375 -8.27665e-05 0.0069374307 -0.014928611 0.002542061 0.008189815
0.013233868 -0.009157032 0.0051813438 0.0018562423 -0.0053915633 -0.00070469634 0.0008250996 0.003936147
-0.0030098914 0.010514006 0.0031466559 -0.010718182 0.00054944685 -0.0015138966 -0.006306676 0.014587081
-0.0026085046 0.00073054887 0.0054737343 -0.0064076255 0.005444322 0.010100344 0.001781412 -0.009032174
0.01421204 -0.0047551836 0.0058621434 0.019646473 -0.018628584 0.016470717 -0.01240997 -0.012951499
-0.005530137 0.009877653 0.0027704213 -0.013536974 0.0063361158 -0.012689336 -0.002588673 -0.00084433437
0.014074971 -0.012174223 -0.0055871047 0.0018085983 0.0033421807 0.008949214 0.011503193 -0.003993962
00000000: da6a 23b9 4bf1 9ebb 4c49 1ebc 4979 173c
00000010: 3985 98bc 76c0 d23c 8932 13bc 45ae e93a
00000020: 8351 8b3c 8ad7 aa3b c29e e1bb 14b1 453c
00000030: 62c2 91bb c799 93bb c1d8 eeba 8291 c9bb
00000040: f5f5 99bb 3268 d23b 34b0 6dbb 5065 9cbc
00000050: 1690 1dbb c1ed e0bb ce83 3e3c 6ff6 943c
00000060: 499d 6d3c 60de 8c3a bd18 5c3c 4b75 673c
00000070: aaf4 62bc 15ae 54b9 7395 9bbc d002 66bc
00000080: 02be dd3b fb6d a839 0b6d efbb 0c69 613c
00000090: fc70 543b d001 dd3b e70e 993b 4dbb 35bb
000000a0: e48f af3b 0be8 763b 348c 8dbc 3901 9d3c
000000b0: 03a5 ddbb d1ae 6b3b d5b6 a3bb cafc 8f3c
000000c0: c1d5 78bc 6b14 b23a 091a 14bc e7ad 793c
000000d0: 44ce 813c 2d7d 3abc 0bd8 383b 4b46 f8bb
000000e0: 6961 a53a 0452 db3b fe5c 523c 1dfe f3bb
000000f0: 5795 923b 204e c93b 7541 ce3c 5cd4 0b3c
00000100: 887b 603b c904 863c 2bb8 dc3b bdee 173c
00000110: 08b4 f53b f15e c9bc 6a36 453c 1a12 3fbc
00000120: d516 32bb 0b2c 273c 11cb c4bb 1bdf 04bb
00000130: b376 003c bb30 13bc bf20 7dbc 44e1 65bc
00000140: 91ab 2cbc 65e3 f73b 9bfd 08bc 0abf 1e3c
00000150: d088 24bc 9ba9 e53b bea8 76bb 2e0a 743b
00000160: 3096 aa3c d1a8 cbba 44e4 27bc 4731 963b
00000170: 2ab2 42bc 25a7 78bb 2097 68bc f17a febb
00000180: 688c 373c e69c 1fba 4b00 993c 70ee e7b9
00000190: c00b a33c b9b7 d63b a363 66bb 5d24 1d3b
000001a0: bde4 343c 2827 1b3c ed16 703c 6e10 26bc
000001b0: 827a 863b 3331 93bc c08f 92bb 36eb e83a
000001c0: cd0a 853b 8598 833c 534c 4dbc b4a0 143b
000001d0: 45c1 a73b 21c6 e3ba f8d2 09bc 5be4 e4bb
000001e0: 721a 39bc a62c 7ebc df6e 2cbc 849c f6bb
000001f0: 79a9 85bc 6921 9dbc 594b 87bb d6bd ea3a
00000200: 9757 23bc e774 bcbb a0c4 433b 6957 bebb
00000210: f07e a33c 5ee7 32bc 4ad1 4339 c76c 4fbc
00000220: 67ca 57ba bdad 853c 8373 24bc 76d7 aabb
00000230: 07ef 3ebb 7c34 1dbb 2e39 f53b 3f8d 5fbb
00000240: d0b4 5f3b 2466 7039 dc09 59bc 36e9 29bb
00000250: 62e1 193c 7777 d1bb 5468 7bba 5f53 7d3b
00000260: a361 47bc de49 11bc ff48 0c39 1d54 113a
00000270: 5781 63bc 2ac3 f83a b9a7 28bc 80cc f33a
00000280: cb09 a5bb 98ac 343b 62ea 2b3c 4abe 35ba
00000290: 4720 f83b 9e7a 563b cffd aa3b a100 863a
000002a0: 7789 19bb 5430 c53b 17ae 213c 134e fe3b
000002b0: de9f 523b 887c 613c 7509 45bc 0234 2cbb
000002c0: a934 09bc 7fc3 583b 5014 3f3c 5b31 27bc
000002d0: e353 d93b 8e96 383c a9e8 4abb 25ea 123c
000002e0: 75c3 ddbb 8785 02bc 9f32 103c f636 d7bb
000002f0: 93fe b4ba 66dc f23a ad44 45bc 3668 73bb
00000300: d285 32bc 0405 d1bb 0dca 963c b150 c6bb
00000310: 2658 133c 0a75 443b 6dcb a23b ac0a 41bc
00000320: 47c8 0f3c d9dc 893b ad5f 3abb ed92 adb8
00000330: 6353 e33b 2297 74bc b598 263b 932e 063c
00000340: ded2 583c 6007 16bc 43c8 a93b 284d f33a
00000350: b6ab b0bb 5fbb 38ba 7f4b 583a cbfa 803b
00000360: 9941 45bb f042 2c3c 2038 4e3b 509b 2fbc
00000370: c108 103a f16d c6ba 3ca8 cebb a7fe 6e3c
00000380: 72f3 2abb 4e82 3f3a 035d b33b 0ff7 d1bb
00000390: 4866 b23b ea7b 253c 457e e93a affb 13bc
000003a0: 9ed9 683c 5fd1 9bbb 3917 c03b a4f1 a03c
000003b0: f99a 98bc 99ed 863c 3053 4bbc 8632 54bc
000003c0: 2736 b5bb e1d5 213c f58f 353b 2fca 5dbc
000003d0: 319f cf3b efe6 4fbc baa6 29bb 5256 5dba
000003e0: b59a 663c 6476 47bc 0814 b7bb 7d0e ed3a
000003f0: 7d08 5b3b b99f 123c e377 3c3c c8df 82bb

action_model._discrete_distribution.branches.2.bias f4 [15]
0.005852397 0.00594201 0.0012417542 -0.0016285955 -0.0022934878 -0.0028101492 -0.0022079377 -0.00090482616
-0.0023561423 -0.0067999987 -0.0034817695 0.0016149855 0.004233105 0.0019083526 0.0051229605
00000000: 77c5 bf3b 31b5 c23b 5bc2 a23a 9976 d5ba
00000010: 574e 16bb 7b2a 38bb 0cb3 10bb db31 6dba
00000020: 8269 1abb 86d2 debb 662e 64bb ecad d33a
00000030: dcb5 8a3b b021 fa3a 82de a73b

action_model._discrete_distribution.branches.2.weight f4 [15, 128]
-0.004333234 0.021159898 0.027491413 0.0007494389 0.005979684 0.01040649 -0.007548451 -0.0067809806
-0.0035026446 0.0059896535 0.010960747 0.009973568 -0.00043586735 0.017828388 -0.0026406148 -0.001376657
-0.011355597 -0.0061391927 0.0071980045 0.020315997 -0.0035131064 0.010896001 -0.001681441 -0.007925757
0.0031718723 0.0021827377 -0.009329977 0.006660683 -0.013813226 0.012852334 -0.0024171383 0.011138422
0.00044091663 0.00013458222 0.0060681687 0.0034225348 -0.014802829 0.010373313 0.016911918 0.006969697
0.0036020468 0.011885366 0.006393076 5.0026338e-05 -0.0011414869 -0.004994507 0.011254881 -0.00501776
-0.0060477424 0.012048974 -0.009667081 0.0005876998 -0.0018042357 -0.020444324 -0.0005940507 -0.010602581
-0.014844082 -0.006667841 -0.018046193 0.009314982 0.024352305 0.0012958472 -0.029026957 0.01718264
0.01073711 -0.0023874077 -0.0044148606 -0.007084222 0.0030768411 0.0122867655 -0.014476941 -0.018925853
0.0057373894 -0.0046675415 0.006229484 -0.011831831 -0.0014387337 0.0024973878 0.0037010566 0.0017358364
-0.00946905 -0.004557461 0.013584195 -0.007990757 -0.003962074 -0.0023676786 0.0106653785 -0.019795163
-0.007954684 0.005322328 0.013714505 -0.004253075 0.0238055 0.0045759967 0.03138476 -0.009698278
-0.007658335 0.0039566983 -0.025431726 -0.009867238 -0.014710534 -0.0026925516 0.004755631 0.0011229101
-0.012398638 0.0029087565 -0.008931937 0.006358008 -0.0124798985 0.0054355785 -0.0020616502 -0.011852415
-0.0051540504 -0.010993625 -0.0138277095 -0.00041210762 0.006511782 -0.00050355314 -0.008183345 -0.004328005
-0.0032781975 -0.002907096 0.0102371 0.019708127 0.022189189 0.006862784 -0.0031284185 0.01087086
-0.020842357 0.018783411 0.004061427 -0.012035533 0.00929998 -0.01096693 0.008930059 0.008276984
-0.009423456 -0.011800185 -0.0064566247 0.0007955157 -0.011417717 0.0016808133 0.008565727 0.016941985
0.0048103128 0.0070548537 -0.0003721892 0.0026332694 0.0025985816 0.0052033328 -0.0073258146 0.007575689
-0.0015917512 0.0071543953 0.0005449781 -0.017467555 -0.010197734 0.020137085 0.0049443766 0.01193586
0.0026852037 0.0043059164 0.00035907933 0.008161556 -0.007334287 0.0056564165 -0.008635572 -0.0037683805
0.00982119 0.017782046 0.010538572 -0.0015420117 -0.01703101 -0.009935785 0.016185775 -0.018771522
0.0059100003 0.0043199677 -0.007408089 -0.01305222 -0.004031121 -0.018724192 -0.015156424 -0.00012809964
-0.0029080582 -0.0058773784 0.0028939787 -0.0009037844 0.009156993 -0.0048576314 -0.0017706905 -0.0062050214
0.013870365 -0.013602692 -0.004037936 -0.00332125 -0.018417435 0.004003466 -0.0054645985 -0.007976663
-0.011747498 -0.013868036 0.019484524 -0.010504506 -0.008344781 0.0018904138 0.0042545125 -0.004379311
-0.007022801 -0.0018995462 0.003304906 0.010914579 -0.010955824 0.0062318584 0.011347804 -0.022770192
-0.009637813 -0.0037449058 -0.009275112 0.01262747 0.011826002 0.011201947 0.008544046 -0.016523441
-0.0045026843 -0.013146813 -0.02266614 -0.010435371 -0.019926347 0.00068031065 -0.0019044984 -0.015423579
-0.013495326 0.0025678084 -0.005907055 0.002205812 -0.00781455 -0.011973018 -0.0018882436 -0.005252785
0.0006972489 0.0017103549 -0.001501567 -0.0030281802 0.0060863183 0.01025674 0.0017534913 -0.01479827
0.0011786841 0.0056243897 0.0049469513 0.0011397469 0.012595552 0.014972133 -0.004832877 -0.0024189956
00000000: cdfd 8dbb 8657 ad3c ac35 e13c fe75 443a
00000010: 3af1 c33b fc7f 2a3c ff58 f7bb fd32 debb
00000020: a08c 65bb db44 c43b b494 333c 2d68 233c
00000030: 2085 e4b9 d70c 923c 2a0e 2dbb f270 b4ba
00000040: d30c 3abc 482b c9bb 3ddd eb3b bc6d a63c
00000050: 253c 66bb 2485 323c cc63 dcba 09db 01bc
00000060: 30df 4f3b 430c 0f3b c3dc 18bc dc41 da3b
00000070: de50 62bc 9992 523c da68 1ebb ee7d 363c
00000080: d42a e739 a41e 0d39 7dd7 c63b 9b4c 603b
00000090: 9187 72bc d4f4 293c dd8a 8a3c 0e62 e43b
000000a0: 5110 6c3b d7ba 423c 027d d13b 5fd3 5138
000000b0: f29d 95ba f6a8 a3bb 6466 383c 066c a4bb
000000c0: 242c c6bb 0f69 453c ad62 1ebc de0f 1a3a
000000d0: 1b7c ecba db7a a7bc 11ba 1bba 73b6 2dbc
000000e0: 9834 73bc e87d dabb 9cd5 93bc de9d 183c
000000f0: 7c7e c73c 6bd9 a93a f1c9 edbc 9cc2 8c3c
00000100: b4ea 2f3c 0e76 1cbb 89aa 90bb c322 e8bb
00000110: d4a4 493b 6e4e 493c b130 6dbc 640a 9bbc
00000120: b600 bc3b 2df2 98bb b320 cc3b 4cda 41bc
00000130: e493 bcba 37ab 233b 6d8d 723b 0185 e33a
00000140: 1324 1bbc c156 95bb 3e90 5e3c aaeb 02bc
00000150: 49d4 81bb 0e2b 1bbb d7bd 2e3c 7729 a2bc
00000160: 5d54 02bc ec66 ae3b ceb2 603c 615d 8bbb
00000170: c003 c33c 3ef2 953b 4e8d 003d 87e5 1ebc
00000180: c5f2 fabb 31a7 813b 3256 d0bc 32aa 21bc
00000190: 7404 71bc 8575 30bb 20d5 9b3b 9c2e 933a
000001a0: a823 4bbc d6a0 3e3b 4257 12bc d656 d03b
000001b0: 7d78 4cbc f01c b23b c01c 07bb a230 42bc
000001c0: 4fe3 a8bb 9b1e 34bc 9e8d 62bc 2610 d8b9
000001d0: c960 d53b e100 04ba 7013 06bc f0d1 8dbb
000001e0: 07d7 56bb fa84 3ebb 82b9 273c f072 a13c
000001f0: 1ac6 b53c 34e1 e03b 2706 4dbb b11b 323c
00000200: 97bd aabc abdf 993c b815 853b af30 45bc
00000210: f15e 183c a3ae 33bc 624f 123c 309c 073c
00000220: d764 1abc 9055 41bc 1892 d3bb 288a 503a
00000230: 6011 3bbc bc4e dc3a 4357 0c3c ebc9 8a3c
00000240: d49f 9d3b 672c e73b 6422 c3b9 ee92 2c3b
00000250: f74c 2a3b b880 aa3b 630d f0bb 7c3d f83b
00000260: 4fa2 d0ba 6b6f ea3b dcdc 0e3a 1e18 8fbc
00000270: 6614 27bc 87f6 a43c 7004 a23b a08e 433c
00000280: 3efa 2f3b a518 8d3b d042 bc39 0cb8 053c
00000290: 7554 f0bb 7659 b93b 377c 0dbc eff6 76bb
000002a0: 0ee9 203c a7ab 913c faa9 2c3c 541d caba
000002b0: 9e84 8bbc b4c9 22bc 0898 843c bcc6 99bc
000002c0: ada8 c13b 848e 8d3b 8ebf f2bb fbd8 55bc
000002d0: 7e17 84bb 7a63 99bc a652 78bc 7c52 06b9
000002e0: 1f95 3ebb 0697 c0bb e8a8 3d3b f2eb 6cba
000002f0: 3607 163c c42c 9fbb 8416 e8ba 7e53 cbbb
00000300: 8740 633c d3dd 5ebc aa50 84bb 54a9 59bb
00000310: 29e0 96bc 822f 833b 6010 b3bb 8db0 02bc
00000320: 9478 40bc c236 63bc 029e 9f3c 171b 2cbc
00000330: 8cb8 08bc c3c7 f73a 7069 8b3b 5380 8fbb
00000340: 861f e6bb 32fa f8ba 1f97 583b 10d3 323c
00000350: 0e80 33bc 9e34 cc3b 24ec 393c 8e88 babc
00000360: ebe7 1dbc 186d 75bb a4f6 17bc 73e3 4e3c
00000370: d9c1 413c 5f88 373c 54fc 0b3c 2b5c 87bc
00000380: 418b 93bb bb65 57bc 57ae b9bc 1ef9 2abc
00000390: 943c a3bc e056 323a 5da0 f9ba 2eb3 7cbc
000003a0: 801b 5dbc ad48 283b f88f c1bb 628f 103b
000003b0: 9908 00bc 7a2a 44bc f17e f7ba 8e1f acbb
000003c0: 95c7 363a fd2d e03a 3ad0 c4ba 6f74 46bb
000003d0: bd6f c73b e30b 283c 68d5 e53a 7174 72bc
000003e0: 137e 9a3a cd4c b83b 091a a23b 8f63 953a
000003f0: 935d 4e3c ad4d 753c 1c5d 9ebb 0388 1ebb

discrete_action_output_shape f4 [1, 3]
2.0 19.0 15.0
00000000: 0000 0040 0000 9841 0000 7041

network_body._body_endoder.seq_layers.0.bias f4 [128]
-0.00494385 -0.008300442 -0.0052963486 -0.0010582634 -0.0045609744 -0.00012995294 -0.0048666997 0.0020244136
0.0004255827 0.00039528246 -0.0010660561 -0.0043574246 -0.0049650264 0.0024599524 -0.0027089089 -0.0029324554
-0.005188638 -0.007475194 -0.0025053925 -0.0062323175 -0.0034350215 -0.0006344008 0.00037360974 -0.00048085506
-0.0011596425 0.0011872397 -3.92018e-05 -0.004578464 -0.00045873027 -0.0025762455 -0.0048397523 -0.0024072647
-0.0049595213 -0.00093328784 -0.0031285037 -0.005298287 -0.008525764 -0.0055925744 -0.0007433851 0.0026225105
-0.0073061027 0.00047959475 -0.0034392145 -0.00044548587 -0.0017852756 -0.0067082997 -0.0056717275 0.00037786076
0.0036970172 -0.001803727 -0.0030484106 0.0012458853 -0.0052127065 -0.001689883 -0.003101932 0.002713756
-0.0046603642 0.0010454233 0.0032335147 0.002145955 -0.006047594 -0.005654834 0.0027984844 0.0023033638
-0.00050710887 -0.0042417063 -0.003234256 0.001608793 -0.0062624034 -0.001463226 -0.0010905899 -0.00094314216
-0.0012647293 -0.00034997854 -0.0052764174 3.288985e-05 -0.0060472274 -0.0034424316 -0.004501125 -0.0011752865
-0.004067641 -0.0048477943 -0.003664741 -0.0027633475 -0.0068745385 -0.0034416912 -0.002680244 -0.005454882
-0.00028522577 0.0002685835 0.00045039563 -0.0041288715 9.3353425e-05 -0.0040484504 -0.0028043936 -0.003068511
-0.0034343456 -0.0034408888 -0.0045924983 -0.00058312964 -0.00039833033 -0.0021169623 -0.0061536795 0.0016804894
-0.006097063 -0.0011506374 0.0012063901 0.0021550262 -0.00016451711 0.0021525603 -0.00012569707 -0.0027021125
0.0007644865 -0.0036296705 0.005646104 -0.004112739 -0.00030783308 -0.0016210788 -0.0016233218 0.0036178487
-0.002950183 0.00077814725 -0.005180474 0.0028847174 0.006404617 -0.0058472953 -0.005778612 -0.0008069353
00000000: 0500 a2bb 94fe 07bc fe8c adbb 6db5 8aba
00000010: 3a74 95bb fa43 08b9 d678 9fbb 06ac 043b
00000020: be20 df39 ea3d cf39 e8ba 8bba bac8 8ebb
00000030: a9b1 a2bb 2737 213b f387 31bb 702e 40bb
00000040: 7305 aabb 79f2 f4bb 8331 24bb 7838 ccbb
00000050: 191e 61bb eb4d 26ba 0de1 c339 461b fcb9
00000060: 25ff 97ba 279d 9b3a 9d6c 24b8 f106 96bb
00000070: bc81 f0b9 3ad6 28bb c996 9ebb 33c3 1dbb
00000080: 7b83 a2bb e3a7 74ba 9507 4dbb 419d adbb
00000090: a5af 0bbc ea41 b7bb bbdf 42ba 6dde 2b3b
000000a0: 0868 efbb 1e72 fb39 7264 61bb 1a90 e9b9
000000b0: e9ff e9ba 4cd1 dbbb e6d9 b9bb 9d1b c639
000000c0: a849 723b 096b ecba d8c7 47bb f94c a33a
000000d0: 5acf aabb 107f ddba c849 4bbb 45d9 313b
000000e0: f8b5 98bb 9606 893a 60e9 533b 27a3 0c3b
000000f0: e52a c6bb 304c b9bb c766 373b 08f4 163b
00000100: 80ef 04ba 03fe 8abb d0f5 53bb 23de d23a
00000110: d934 cdbb b8c9 bfba 20f2 8eba 333d 77ba
00000120: 46c5 a5ba 537d b7b9 cce5 acbb 35f3 0938
00000130: d227 c6bb 6b9a 61bb 2c7e 93bb 120c 9aba
00000140: d949 85bb 3fda 9ebb 272c 70bb 4719 35bb
00000150: cf43 e1bb ff8d 61bb 08a7 2fbb debe b2bb
00000160: 5b8a 95b9 abd0 8c39 1423 ec39 7c4b 87bb
00000170: bdc6 c338 dda8 84bb ebc9 37bb 1219 49bb
00000180: c212 61bb 8980 61bb ab7c 96bb 2bdd 18ba
00000190: fed6 d0b9 bcbc 0abb cea4 c9bb de43 dc3a
000001a0: dfc9 c7bb fcd0 96ba bc1f 9e3a 573b 0d3b
000001b0: 3a82 2cb9 f811 0d3b 8dcd 03b9 ed15 31bb
000001c0: d267 483a c4df 6dbb f402 b93b 28c4 86bb
000001d0: a864 a1b9 617a d4ba a4c5 d4ba 6e19 6d3b
000001e0: dc57 41bb 94fc 4b3a f7c0 a9bb 870d 3d3b
000001f0: d2dd d13b ab9a bfbb 835a bdbb 8388 53ba

network_body._body_endoder.seq_layers.0.weight f4 [128, 78]
-0.09179864 0.08074115 0.13551502 0.084959395 0.26029634 -0.09470541 0.050830137 0.042027157
-0.013438783 0.005277476 0.057726238 0.0692788 0.0452873 0.042102896 -0.12038057 -0.05979451
0.26682132 0.15238094 -0.13266085 -0.0419886 -0.15090185 -0.029173484 0.10244618 0.09924513
-0.02633577 0.045540866 -0.09422497 0.16062836 -0.21843074 -0.08597817 0.009754771 -0.109836586
0.12264843 -0.12371732 0.062409125 0.08411192 0.0911587 -0.032920692 0.050544582 0.03926351
0.08919864 0.11058957 0.07255073 -0.12464314 0.035185862 -0.033852633 -0.1232089 -0.08639002
-0.13623989 -0.046304207 0.05460114 0.20750661 0.051064022 -0.015662272 0.0028201137 0.10763059
-0.13312331 0.08036861 -0.16424999 -0.16024259 0.078608036 -0.065765716 -0.11416482 0.012515737
0.19067726 -0.1488078 -0.069032274 0.1409401 -0.11323199 -0.12582174 0.030266609 0.07898896
-0.051052112 0.00038427513 -0.17106783 -0.15240557 -0.18716235 -0.16048054 0.07026552 0.061752908
-0.109592356 -0.21635982 -0.26785028 -0.07494288 -0.0014727985 0.09978095 0.14818607 0.05225007
-0.1161851 -0.018127719 0.10124642 -0.053211708 0.10871417 0.07789938 0.19994813 0.19775078
-0.09803742 -0.18569896 0.082084596 -0.12573238 -0.028692517 0.11591603 0.033433992 0.0046265405
-0.036336888 -0.026096212 0.051372454 -0.16227716 -0.060869824 0.054684598 -0.080873884 0.10350942
-0.2256167 0.26535127 -0.12228899 0.0671685 -0.025600713 -0.15371133 0.123061396 -0.037793912
-0.07112895 0.05830563 -0.04014144 -0.16256998 -0.08150224 -0.15424141 0.05433872 -0.038707033
-0.071987286 0.07044632 -0.2556549 0.22158943 0.08916548 0.10459495 -0.060808294 0.08878482
-0.1340694 -0.045284655 0.011721179 0.31975424 0.18478718 -0.0041656336 0.0106753 0.078232236
-0.13356529 -0.062879406 -0.12692232 -0.07539294 -0.1738525 0.030719196 0.04342677 -0.0103036165
0.081545845 -0.20139773 -0.1793365 0.032854408 0.16556333 0.0575283 0.08250895 -0.07616865
0.08701623 -0.040235635 0.086510144 0.051270038 -0.026605261 0.107632756 -0.077908196 -0.014351199
-0.31926993 0.00053343613 -0.17564093 -0.0031800554 -0.0588455 0.08857632 -0.06647142 -0.09445968
-0.07920846 0.21259883 -0.0020616036 -0.14295629 -0.17623101 0.16079423 -0.08602198 -0.13485542
0.019757163 0.10955309 -0.020179812 -0.016710764 -0.20178978 0.06670808 -0.0922657 0.061612852
-0.10366132 -0.03340503 -0.31120417 0.10370949 -0.1867568 0.047973014 -0.11681653 -0.116530314
0.03837118 0.0024368572 -0.05765118 -0.14030182 0.02155195 -0.09673579 0.030857392 0.009503146
-0.01901395 -0.07297201 0.160172 0.14686814 -0.014889872 -0.2458889 -0.05099761 0.19051006
0.11129278 0.16664839 0.07380662 -0.028394578 0.17856139 0.09285798 -0.11818343 0.07607747
0.07136971 0.021867925 0.085475646 -0.06694431 -0.0733192 0.10635705 0.09004052 -0.01829895
-0.090803355 -0.13540809 -0.29657555 0.0047960067 0.07502571 -0.055136282 -0.12501545 -0.16545016
0.0023194319 0.11186705 -0.070214644 -0.10492741 -0.07752627 0.18221007 -0.04714623 -0.019357672
0.015999073 -0.22556753 -0.03638625 0.07811596 -0.1739365 0.13054976 0.1925569 -0.1713633
00000000: ed00 bcbd 9e5b a53d 73c4 0a3e 31ff ad3d
00000010: 9045 853e e9f4 c1bd 4333 503d ab24 2c3d
00000020: 572e 5cbc adee ac3b 5972 6c3d 0be2 8d3d
00000030: 2d7f 393d 1674 2c3d 178a f6bd 17eb 74bd
00000040: ce9c 883e c009 1c3e 3fd8 07be 3dfc 2bbd
00000050: 0486 1abe 3bfd eebc 4ecf d13d 0841 cb3d
00000060: 1dbe d7bc 0f89 3a3d 05f9 c0bd c37b 243e
00000070: 4fac 5fbe 5315 b0bd 7ad2 1f3c 01f2 e0bd
00000080: 1a2f fb3d 825f fdbd b6a0 7f3d df42 ac3d
00000090: 6ab1 ba3d d9d7 06bd d607 4f3d c6d2 203d
000000a0: c7ad b63d c97c e23d 7a95 943d e744 ffbd
000000b0: 0d1f 103d 0fa9 0abd f354 fcbd 40ed b0bd
000000c0: 7882 0bbe 7ba9 3dbd 72a5 5f3d 9d7c 543e
000000d0: 8228 513d 2a4e 80bc a8d1 383b 6d6d dc3d
000000e0: 7a51 08be 4c98 a43d 2631 28be a216 24be
000000f0: 40fd a03d 2db0 86bd 3fcf e9bd ce0e 4d3c
00000100: e640 433e 1261 18be cb60 8dbd 9a52 103e
00000110: 2ce6 e7bd 6ad7 00be aef1 f73c f7c4 a13d
00000120: 051c 51bd 8978 c939 682c 2fbe 3510 1cbe
00000130: 7da7 3fbe 0355 24be 5ee7 8f3d 9ef0 7c3d
00000140: f571 e0bd 6e8d 5dbe ac23 89be a77b 99bd
00000150: eb0a c1ba f459 cc3d 17be 173e 2b04 563d
00000160: 74f2 edbd 9580 94bc 485a cf3d 85f4 59bd
00000170: 89a5 de3d b689 9f3d 34bf 4c3e 2e7f 4a3e
00000180: d8c7 c8bd de27 3ebe f81b a83d fdbf 00be
00000190: 920c ebbc 6265 ed3d 15f2 083d 3c9a 973b
000001a0: fdd5 14bd b9c7 d5bc ec6b 523d fc2b 26be
000001b0: a352 79bd f5fc 5f3d 35a1 a5bd bffc d33d
000001c0: 1008 67be 1fdc 873e a672 fabd a38f 893d
000001d0: 96b8 d1bc 8166 1dbe 9d07 fc3d cacd 1abd
000001e0: 0eac 91bd e2d1 6e3d 5a6b 24bd bf78 26be
000001f0: a5ea a6bd 76f1 1dbe 4792 5e3d 448b 1ebd
00000200: 126e 93bd 2946 903d 33e5 82be 57e8 623e
00000210: 649c b63d e135 d63d 1e12 79bd d1d4 b53d
00000220: 7d49 09be 677c 39bd 300a 403c d4b6 a33e
00000230: da38 3d3e de7f 88bb 74e7 2e3c 3938 a03d
00000240: 57c5 08be ebc6 80bd edf7 01be 9d67 9abd
00000250: 6406 32be d3a6 fb3c 45e0 313d 80d0 28bc
00000260: 8201 a73d 353b 4ebe fda3 37be 5892 063d
00000270: 6f89 293e cba2 6b3d 74fa a83d 4ffe 9bbd
00000280: 9135 b23d 1fce 24bd 3b2c b13d 8800 523d
00000290: 47f3 d9bc 906e dc3d 558e 9fbd 4b21 6bbc
000002a0: 5977 a3be 4bd6 0b3a 37db 33be 7a68 50bb
000002b0: fb07 71bd 8067 b53d 2b22 88bd 1474 c1bd
000002c0: 0c38 a2bd 82b3 593e f81b 07bb 2263 12be
000002d0: e775 34be 3ea7 243e 4b2c b0bd 8a17 0abe
000002e0: c6d9 a13c 5f5d e03d 2250 a5bc 03e5 88bc
000002f0: fba1 4ebe 3f9e 883d cdf5 bcbd c25d 7c3d
00000300: 634c d4bd b6d3 08bd 2756 9fbe a465 d43d
00000310: 2d3d 3fbe 5a7f 443d 813d efbd 72a7 eebd
00000320: 192b 1d3d aeb3 1f3b a523 6cbd 48ab 0fbe
00000330: b78d b03c 6a1d c6bd a4c8 fc3c 15b3 1b3c
00000340: 25c3 9bbc 5972 95bd 2104 243e 9a64 163e
00000350: a6f4 73bc 4dca 7bbe dfe2 50bd 1215 433e
00000360: 78ed e33d e0a5 2a3e ed27 973d bf9b e8bc
00000370: ccd8 363e 532c be3d 270a f2bd 81ce 9b3d
00000380: 482a 923d 5d24 b33c db0d af3d 191a 89bd
00000390: 6028 96bd bad1 d93d 2a67 b83d aee7 95bc
000003a0: 1cf7 b9bd 6ba8 0abe c0d8 97be d227 9d3b
000003b0: 14a7 993d 95d6 61bd 0d04 00be c46b 29be
000003c0: 9c01 183b 8d1a e53d b2cc 8fbd 2fe4 d6bd
000003d0: 18c6 9ebd 4795 3a3e 681c 41bd fb93 9ebc
000003e0: 7d10 833c 2dfb 66be c009 15bd 43fb 9f3d
000003f0: 691c 32be d6ae 053e a32d 453e dc79 2fbe

network_body._body_endoder.seq_layers.2.bias f4 [128]
5.581853e-05 -0.006225345 -0.00414574 -4.5935703e-06 0.0018187679 -1.016145e-05 -0.003520165 -0.0017864187
-0.0028309545 -0.015589451 -0.0016147576 -0.00028992313 -0.0038984304 -0.0028612032 0.008101562 -0.00032656794
-0.0013829675 0.0012052277 -0.0068746456 -0.001894919 -0.005103318 -0.00092605106 -0.0012677154 0.0011643961
-0.007938993 -0.0039754715 -0.0090595735 -0.0056919563 -0.008088505 0.0053932737 -0.0023501392 0.0020966723
-0.0052022026 -0.006810061 -0.0012415276 -0.0030117617 -0.0016685298 -0.0031517146 0.0014533534 -0.002253725
-0.0010720257 0.0007773861 -0.0053359275 4.361972e-05 0.0021961934 0.0063921283 -0.004803167 0.006039487
0.0017897892 -0.0012436439 -0.00435151 0.00042272822 -0.0011831281 0.0019916894 -0.0037091326 -0.0018051692
-0.0026273401 -0.00501019 -0.0011645111 -0.003263056 -0.004174074 -0.008350158 0.0023171785 -0.0007183349
-0.0065580816 0.0029368368 -0.0014423528 -0.0034994495 0.00011554965 0.0020447234 -0.005980607 -0.0010515591
-0.005619575 0.0022791948 -0.0002842509 -0.0025900672 0.0023242247 -0.002261405 -0.0030896857 -0.0013871874
-0.0010810122 -0.0032877568 -0.004064793 0.0016739202 -0.0046185874 -0.00085613015 0.0004884236 0.005596134
-0.0018093023 -0.0028480247 -0.007150998 -0.00065173226 0.0013808126 -0.005363711 0.0057696565 -0.0029625436
-0.0018140776 -0.0044075963 0.00058775133 -0.0015882499 -0.0070695416 -0.0044417023 -0.0029593618 -0.0014220033
-0.0029932822 -0.0054900143 -0.0054796357 -0.00037096368 -0.00045889604 -0.0015459118 -0.0027914145 -0.0057738964
-0.00049956545 -6.2700104e-07 -0.0010671504 -0.0036850262 -0.0008968692 -0.0035803071 -0.0037039688 -0.0053415596
-0.0015144628 -0.0042951033 -0.003324782 0.0020201053 0.004458195 -0.0045814384 -0.006826266 -0.0023595195
00000000: b11e 6a38 fbfd cbbb fdd8 87bb 7822 9ab6
00000010: b963 ee3a 187b 2ab7 92b2 66bb 4426 eaba
00000020: 8987 39bb e66a 7fbc 46a6 d3ba d300 98b9
00000030: cf7c 7fbb 0683 3bbb 6abc 043c 3537 abb9
00000040: b044 b5ba bbf8 9d3a b544 e1bb ee5e f8ba
00000050: bc39 a7bb 3cc2 72ba 7829 a6ba a69e 983a
00000060: 8d12 02bc ac44 82bb 9b6e 14bc 9783 babb
00000070: a685 04bc 0fba b03b cb04 1abb 5368 093b
00000080: 3d77 aabb ef26 dfbb c1ba a2ba fa60 45bb
00000090: 92b2 daba ff8c 4ebb 737e be3a 3bb3 13bb
000000a0: 3783 8cba 80c9 4b3a 01d9 aebb 51f4 3638
000000b0: 03ee 0f3b 0f75 d13b e363 9dbb e4e6 c53b
000000c0: 5c97 ea3a c401 a3ba 1d97 8ebb 9fa1 dd39
000000d0: 3113 9bba 0187 023b eb14 73bb 6d9b ecba
000000e0: 742f 2cbb 852c a4bb 82a2 98ba ffd8 55bb
000000f0: acc6 88bb 1acf 08bc cedb 173b a44e 3cba
00000100: 2de5 d6bb f277 403b 540d bdba 0557 65bb
00000110: 3f53 f238 c400 063b f8f8 c3bb 78d4 89ba
00000120: 6924 b8bb 8b5e 153b 8307 95b9 1ebe 29bb
00000130: 0552 183b 1534 14bb 537c 4abb 49d2 b5ba
00000140: c0b0 8dba 6877 57bb f531 85bb 7167 db3a
00000150: 8557 97bb ec6d 60ba 8e09 003a c65f b73b
00000160: 1c26 edba eda5 3abb eb52 eabb 03d9 2aba
00000170: 62fc b43a 12c2 afbb 630f bd3b 3c27 42bb
00000180: 58c6 edba 996d 90bb 5313 1a3a d32c d0ba
00000190: 9da7 e7bb b38b 91bb daf1 41bb 8362 baba
000001a0: f12a 44bb 94e5 b3bb 848e b3bb e77d c2b9
000001b0: fc97 f0b9 31a0 caba 2af0 36bb f432 bdbb
000001c0: 45f5 02ba 2f4f 28b5 a0df 8bba 7b80 71bb
000001d0: e01b 6bba 96a3 6abb 49be 72bb 4008 afbb
000001e0: f080 c6ba f0bd 8cbb 96e4 59bb be63 043b
000001f0: 0d16 923b e41f 96bb dfae dfbb 2ba2 1abb

network_body._body_endoder.seq_layers.2.weight f4 [128, 128]
-0.0022852488 -0.037741195 0.15334731 -0.011215931 -0.1435632 0.07112404 0.056818802 -0.14465353
0.011153919 0.029833782 0.061985552 0.059262924 -0.00936073 0.13258135 0.026026398 0.0450482
0.06979933 0.15981346 -0.0008091209 -0.056430493 -0.102230296 0.08636169 0.004875963 -0.082191885
0.10046586 0.04968925 -0.015980726 0.044878863 -0.16896793 0.14002316 -0.049502026 0.023793733
-0.08708531 0.023509564 -0.020765336 0.016836662 -0.085107714 -0.14545567 0.03507912 0.04825625
0.030461807 -0.15117496 0.09203954 -0.09934128 0.08460998 0.040949088 0.05372857 -0.009167747
-0.112386554 -0.066831 -0.22366269 -0.03835176 0.17656171 -0.061768673 -0.14979914 0.10970259
-0.032712735 0.054589957 -0.2144915 0.07367558 0.04929836 0.056239557 -0.09293277 0.028261252
0.18246394 0.02436368 0.0026813715 0.006284984 -0.09550901 0.027496312 0.06853122 0.013657229
0.035363723 0.09689514 -0.054576587 -0.04770508 -0.100163095 -0.09885662 0.007632059 0.093147315
0.10270832 0.018388186 -0.019471904 0.03320718 -0.03948346 -0.018327914 -0.05787599 0.08970512
0.09045618 0.0990355 -0.096089706 0.023433937 -0.17427717 -0.13621044 -0.12862903 0.062424336
0.12964045 -0.07043786 0.10437406 0.2008699 0.05451311 -0.2305308 0.04525482 -0.130219
-0.09116821 -0.16523167 -0.09112968 0.15381981 -0.03296439 -0.042123836 -0.087899074 -0.030296814
-0.06814135 -0.027038524 0.058859013 0.03757517 0.041527703 0.06375568 0.12799466 -0.03231768
-0.042922657 0.14501332 -0.081126556 -0.09118652 -0.0410463 0.038750477 -0.012858152 0.015426872
-0.119093165 0.06297147 0.03735689 -0.056185227 -0.017905822 0.031944197 0.009588011 -0.03649143
-0.024968812 -0.062353846 0.05528858 0.032048617 -0.07169987 -0.043085147 -0.009176125 0.06706769
0.18118252 -0.070740275 -0.04971209 -0.030968115 0.09065811 0.0076640537 -0.19007845 0.09522186
0.029731916 0.06654042 -0.0007261461 -0.026809536 -0.04248469 -0.079502426 -0.04324386 0.042439386
-0.05140351 -0.22282088 0.045209512 -0.0693068 0.09875386 -0.12553777 -0.06732651 -0.06955225
0.034275874 -0.07418647 -0.14111166 0.021224076 -0.014373309 -0.06675218 -0.09408097 -0.012253154
-0.05040718 -0.08085418 0.08336856 0.014331557 0.010012957 0.1676117 0.07792222 0.24330698
-0.008989569 0.15512651 -0.08521112 -0.063676246 -0.027028669 0.11285052 0.09347274 -0.045978606
0.086263984 0.031830594 -0.09512722 0.063287504 -0.03092639 -0.07759953 -0.054118086 0.021312995
0.05260513 0.11083467 0.0048553594 -0.06478961 -0.0073628463 -0.032503664 -0.06410208 0.010086756
-0.11702361 -0.08353202 0.18135178 -0.050494935 0.16734213 0.0021190003 0.06879486 -0.07400701
0.031765033 0.05578028 -0.075656705 0.019512815 -0.13647069 -0.05965373 -0.111007564 -0.15748867
0.17755206 -0.043053314 0.036209784 0.097189344 -0.07955575 0.09920683 0.053230397 0.11250231
0.029317973 0.03310982 -0.10762152 0.039358046 0.1494155 0.105970636 -0.016825983 0.1063719
0.06410013 0.05814148 -0.15777662 0.00142397 0.080799244 -0.08719225 0.02193268 0.13521439
0.003757786 0.055535793 0.09025839 0.007828555 -0.118628055 -0.04517496 0.138615 -0.03911985
00000000: 1dc4 15bb 8396 1abd 1407 1d3e 06c3 37bc
00000010: 3b02 13be 7ba9 913d d5ba 683d 0e20 14be
00000020: edbe 363c fa65 f43c 90e4 7d3d aebd 723d
00000030: bf5d 19bc 68c3 073e 5035 d53c 7684 383d
00000040: f3f2 8e3d 24a6 233e 2f1b 54ba a923 67bd
00000050: 1e5e d1bd 66de b03d 8bc6 9f3b 3854 a8bd
00000060: 0bc1 cd3d f486 4b3d 03ea 82bc e6d2 373d
00000070: ee05 2dbe 3b62 0f3e a3c2 4abd 13eb c23c
00000080: c859 b2bd 2197 c03c 111c aabc 0aed 893c
00000090: f44c aebd 55f2 14be 20af 0f3d 58a8 453d
000000a0: 0a8b f93c 9ccd 1abe 3a7f bc3d 7173 cbbd
000000b0: ff47 ad3d 3bba 273d 7d12 5c3d 5134 16bc
000000c0: ec2a e6bd b1de 88bd d507 65be bc16 1dbd
000000d0: 98cc 343e 2601 7dbd f264 19be c0ab e03d
000000e0: cafd 05bd b899 5f3d a9a3 5bbe 39e3 963d
000000f0: 14ed 493d 735b 663d 8953 bebd 2484 e73c
00000100: d4d7 3a3e 5796 c73c f3b9 2f3b 44f2 cd3b
00000110: 3a9a c3bd f23f e13c 195a 8c3d 92c2 5f3c
00000120: 8dd9 103d f670 c63d b38b 5fbd 6766 43bd
00000130: 4f22 cdbd 5775 cabd 5a16 fa3b 05c4 be3d
00000140: bd58 d23d d2a2 963c 8b83 9fbc 4104 083d
00000150: 69b9 21bd 6c24 96bc 600f 6dbd 51b7 b73d
00000160: 1741 b93d 20d3 ca3d aeca c4bd 87f8 bf3c
00000170: b775 32be c07a 0bbe 54b7 03be a9b0 7f3d
00000180: 77c0 043e ba41 90bd 11c2 d53d d7b0 4d3e
00000190: 2449 5f3d 4410 6cbe 1e5d 393d 2158 05be
000001a0: 66b6 babd 7e32 29be 33a2 babd f182 1d3e
000001b0: ab05 07bd 0b8a 2cbd 6e04 b4bd 0631 f8bc
000001c0: b18d 8bbd e57f ddbc 2616 713d 6ce8 193d
000001d0: f418 2a3d 5792 823d 0811 033e 8b5f 04bd
000001e0: abcf 2fbd 5f7e 143e ae25 a6bd 00c0 babd
000001f0: 2a20 28bd d2b8 1e3d 00ab 52bc fec0 7c3c
00000200: 1ee7 f3bd 30f7 803d 8a03 193d 7b22 66bd
00000210: 3baf 92bc ebd7 023d 0817 1d3c 0a78 15bd
00000220: 658b ccbc bf66 7fbd 4776 623d 6945 033d
00000230: 62d7 92bd 0d7a 30bd 7557 16bc c95a 893d
00000240: e987 393e 47e0 90bd e89e 4bbd d8b0 fdbc
00000250: f6aa b93d be22 fb3b eda3 42be ae03 c33d
00000260: 5990 f33c 5846 883d d75a 3eba ac9f dbbc
00000270: 6d04 2ebd 2bd2 a2bd 7920 31bd ecd4 2d3d
00000280: 7d8c 52bd 282b 64be 9c2d 393d b9f0 8dbd
00000290: 773f ca3d f98c 00be 7be2 89bd 6971 8ebd
000002a0: dc64 0c3d 13ef 97bd 937f 10be 1dde ad3c
000002b0: 077e 6bbc 5eb5 88bd 86ad c0bd 74c1 48bc
000002c0: c277 4ebd e096 a5bd 23bd aa3d e8ce 6a3c
000002d0: 630d 243c 67a2 2b3e af95 9f3d 7725 793e
000002e0: fc48 13bc 7cd9 1e3e 2b83 aebd b168 82bd
000002f0: 3a6b ddbc 2c1e e73d a36e bf3d 1054 3cbd
00000300: 2cab b03d cc60 023d 0fd2 c2bd e19c 813d
00000310: 5759 fdbc 81ec 9ebd edaa 5dbd 9798 ae3c
00000320: 7a78 573d 4afd e23d b519 9f3b 6ab0 84bd
00000330: 0844 f1bb 9022 05bd f447 83bd ec42 253c
00000340: 13aa efbd d612 abbd 48b4 393e c7d3 4ebd
00000350: bc5b 2b3e edde 0a3b 52e4 8c3d fd90 97bd
00000360: 0d1c 023d dd79 643d e7f1 9abd 57d9 9f3c
00000370: f9be 0bbe 7857 74bd ef57 e3bd b644 21be
00000380: 35d0 353e ac58 30bd b650 143d 350b c73d
00000390: 20ee a2bd f32c cb3d 1e08 5a3d 9c67 e63d
000003a0: 3f2c f03c 2a9e 073d ac68 dcbd e735 213d
000003b0: 6000 193e 2207 d93d a5d6 89bc 83d9 d93d
000003c0: ee46 833d c325 6e3d 3290 21be 81a4 ba3a
000003d0: 137a a53d da91 b2bd 2aac b33c a475 0a3e
000003e0: 3045 763b 8079 633d 64d9 b83d 5743 003c
000003f0: 44f3 f2bd 6109 39bd 17f1 0d3e 233c 20bd
