FYPprototype/results/SpawnLocationTest1/AIBalancing/AIBalancing-1.onnx (onnx, 128981 bytes, 11 tensors)

action_model._discrete_distribution.branches.0.bias f4 [2]
0.0 0.0
00000000: 0000 0000 0000 0000

action_model._discrete_distribution.branches.0.weight f4 [2, 128]
-0.0055138376 0.01573751 -0.011456379 0.013071388 0.0084688915 0.005706827 -0.0067916936 -0.011170476
-0.003141531 -0.014740941 0.0021307957 0.0043301084 0.0046353075 -0.00035572363 0.0011237364 0.009459495
-0.012668905 0.010469704 0.0022658794 -0.012613365 -0.0029257026 0.007246671 0.006508828 -0.0020214317
-0.01627513 -0.0023463317 0.00860074 0.011091411 0.0023484284 -0.0012894077 -0.00060721784 -0.010767194
0.01033085 0.011048331 0.008234573 0.0029596498 -0.0060792007 -0.012133182 -0.009774396 -0.0009527133
0.00073893013 -0.0076025054 -0.00083070406 -0.0025935026 0.0018395793 -0.0011983205 0.0010373072 0.00092751434
0.008299226 -0.001135358 0.014291562 0.003061515 0.0067314133 -0.0070871874 0.0015403096 -0.0035358567
-0.00916879 0.011963512 0.022036301 -0.006335667 0.006137116 -0.00082247145 0.003757501 -0.0063838474
-0.010639379 0.0036319622 -0.0073760897 -0.001980132 -0.006283411 0.01068714 -0.008836743 -0.0077656307
0.014336242 -0.0049366523 -0.0033232495 0.0028448475 -0.005213713 -0.015051253 0.007761147 0.00054137316
-0.011232639 0.0051929615 0.007093243 -0.00697162 -0.0073688226 0.0066973986 -0.00055217167 0.002564701
-0.01903429 -0.016084617 0.013078043 0.0068211816 -0.003683462 -0.008722044 -0.0032974363 0.0014927041
-0.0011447378 -0.0017477336 -0.0053572995 0.008720396 0.011369912 0.0087738065 0.006420575 -0.006201302
0.00369603 0.008230208 0.0031957452 -0.0063760052 -0.0032862113 0.01765104 -0.0010088048 -0.00043736017
0.007988982 0.013755846 -0.0051527545 -0.00039359924 -0.009311813 0.0058361837 -0.004386393 -0.0065653734
-0.0054569254 0.002260424 0.0021592197 -0.0152385235 0.009094778 -0.0021571803 0.015783975 -0.009401989
0.00027015907 0.015638499 0.003976972 -0.008052275 0.0018752149 -0.0012674835 0.0008434023 -0.0005496759
-0.0051158783 0.0077912994 -0.0031257619 0.01987428 -0.005121919 0.02645721 -0.0006977343 0.002360097
0.00973493 -0.0025312572 0.0012966378 -0.0138379065 -0.008049613 -0.00017169691 -0.01325797 0.0097215725
0.009448011 0.001634382 0.008878141 0.0024517346 0.018122574 0.012363246 -0.007742571 -0.01565405
-0.0054889387 -0.018281167 -0.0032844476 -0.002173633 -0.014676424 4.455738e-05 0.0076553146 0.0044530737
0.0025804194 0.002337375 0.004908164 -0.007893506 -0.0016521612 0.004650592 -0.00085876556 -0.0013594137
-0.011436558 -0.010304454 -0.002848373 0.0062352917 -0.012515794 0.0109711895 -0.016372174 0.015985431
-0.010664137 0.008940286 0.00082616863 -0.0015422697 -0.016489996 0.01617688 0.012983493 -0.0147157805
0.0015373434 -0.0055616237 -0.002668297 -0.013212047 -0.004682976 -0.0106863035 -0.011694358 -0.0030482335
0.0020079417 0.017937016 -0.006988893 0.011978794 -0.01688513 0.0024093173 0.011256403 0.013712806
-0.014122191 0.010339467 -0.004375848 0.01654382 0.012656092 0.0149823725 0.00439038 -0.0073064626
0.013212874 -0.002354426 0.0077734548 0.0023984527 -0.0057494766 -0.013433697 0.014244676 0.0059150974
-0.0004875171 -0.008939261 -0.015791921 0.0030753722 0.007186497 0.0019412183 -0.0020703864 -0.0026983183
0.012029794 -0.0126197785 -0.0072231474 0.030358884 -0.0028650989 0.0008826554 0.009768269 -0.011009917
-0.0075281854 -0.0045267544 -0.0035510627 0.0017196959 0.008708861 0.005705107 -0.008239152 -0.01156357
0.0076242364 0.0017176953 0.010119677 -0.005518913 -0.01236335 0.006434669 -0.0027282676 -0.0037747559
00000000: 6cad b4bb f3eb 803c 89b3 3bbc 6029 563c
00000010: 1bc1 0a3c 5600 bb3b db8c debb 5f04 37bc
00000020: 25e2 4dbb fd83 71bc d2a4 0b3b 95e3 8d3b
00000030: c7e3 973b 6b80 bab9 564a 933a fffb 1a3c
00000040: 3d91 4fbc 1f89 2b3c 267f 143b 4aa8 4ebc
00000050: 25bd 3fbb 7b75 ed3b 0248 d53b ff79 04bb
00000060: 6c53 85bc eac4 19bb 1eea 0c3c c0b8 353c
00000070: 17e8 193b 5801 a9ba b32d 1fba e368 30bc
00000080: ba42 293c 0f04 353c 4dea 063c aff6 413b
00000090: 0834 c7bb 41ca 46bc ca24 20bc 82bf 79ba
000000a0: c3b4 413a 701e f9bb 9bc3 59ba c1f7 29bb
000000b0: 0a1e f13a f710 9dba 41f6 873a 6f24 733a
000000c0: 7af9 073c 4bd0 94ba 2827 6a3c b3a3 483b
000000d0: 3093 dc3b a33b e8bb 37e4 c93a d5b9 67bb
000000e0: b138 16bc 9b02 443c 7985 b43c 6d9b cfbb
000000f0: dc19 c93b 209b 57ba 6840 763b 982f d1bb
00000100: ca50 2ebc 3706 6e3b 20b3 f1bb 1ac5 01bb
00000110: 12e5 cdbb 1d19 2f3c fdc7 10bc d576 febb
00000120: 8fe2 6a3c a4c3 a1bb e0ca 59bb 9f70 3a3b
00000130: cbd7 aabb 8899 76bc 3851 fe3b f0ea 0d3a
00000140: 1a09 38bc b829 aa3b 6f6e e83b 3072 e4bb
00000150: 2a76 f1bb da75 db3b 9dbf 10ba 8b14 283b
00000160: cded 9bbc e3c3 83bc 4a45 563c 3884 df3b
00000170: 3d66 71bb e7e6 0ebc cd19 58bb d7a6 c33a
00000180: 070b 96ba 3514 e5ba 498c afbb fedf 0e3c
00000190: de48 3a3c 03c0 0f3c b063 d23b 4b34 cbbb
000001a0: 1839 723b ffd7 063c b56f 513b cfed d0bb
000001b0: 7a5d 57bb ea98 903c df39 84ba 7d4d e5b9
000001c0: 38e4 023c 3360 613c 70d8 a8bb ff5b ceb9
000001d0: 9390 18bc 753d bf3b bbbb 8fbb 5822 d7bb
000001e0: 02d0 b2bb 9f23 143b b281 0d3b 00ab 79bc
000001f0: 4402 153c 7b5f 0dbb 654d 813c cd0a 1abc
00000200: 23a4 8d39 4f1c 803c 4251 823b b0ed 03bc
00000210: c5c9 f53a b021 a6ba c517 5d3a 2018 10ba
00000220: 19a3 a7bb 284e ff3b 95d9 4cbb 63cf a23c
00000230: c5d5 a7bb cabc d83c 28e8 36ba dbab 1a3b
00000240: 417f 1f3c 73e3 25bb f2f3 a93a 63b8 62bc
00000250: 86e2 03bc 8a09 34b9 f537 59bc 3b47 1f3c
00000260: d5cb 1a3c c238 d63a 9f75 113c 48ad 203b
00000270: cb75 943c 368f 4a3c 65b5 fdbb ec3c 80bc
00000280: 8edc b3bb 63c2 95bc e33f 57bb 8373 0ebb
00000290: 6275 70bc 1fe3 3a38 6fd9 fa3b 17eb 913b
000002a0: 411c 293b a52e 193b aad4 a03b c453 01bc
000002b0: 558d d8ba fe63 983b c81e 61ba 5b2e b2ba
000002c0: 6760 3bbc 03d4 28bc c5ab 3abb 6b51 cc3b
000002d0: 0b0f 4dbc 81c0 333c f01e 86bc e1f3 823c
000002e0: a2b8 2ebc 477a 123c 3d93 583a fc25 caba
000002f0: 0716 87bc 6085 843c b7b8 543c 751a 71bc
00000300: af80 c93a 483e b6bb 98de 2ebb 5777 58bc
00000310: a673 99bb 9b15 2fbc b199 3fbc dfc4 47bb
00000320: ac97 033b a6f0 923c 1503 e5bb b442 443c
00000330: af52 8abc a3e5 1d3b c76c 383c adab 603c
00000340: c360 67bc de66 293c 4663 8fbb e886 873c
00000350: 7f5b 4f3c a078 753c 2ddd 8f3b 0d6b efbb
00000360: cf7a 583c b74c 1abb 77b8 fe3b 5c2f 1d3b
00000370: 1b66 bcbb 0219 5cbc 8062 693c 6fd3 c13b
00000380: 7099 ffb9 fa75 12bc 0f5e 81bc 2f8c 493b
00000390: b57c eb3b 7a70 fe3a 52af 07bb 45d6 30bb
000003a0: 9d18 453c 30c3 4ebc 27b0 ecbb 32b3 f83c
000003b0: 62c4 3bbb 0062 673a 170b 203c f062 34bc
000003c0: ffae f6bb 2b55 94bb f2b8 68bb 6b67 e13a
000003d0: 9caf 0e3c e8f1 ba3b 82fd 06bc 2175 3dbc
000003e0: bbd4 f93b 4a24 e13a 00cd 253c ffd7 b4bb
000003f0: a68f 4abc ead9 d23b bccc 32bb e561 77bb

action_model._discrete_distribution.branches.1.bias f4 [19]
0.0 0.0 0.0 0.0 0.0 0.0 0.0 0.0
0.0 0.0 0.0 0.0 0.0 0.0 0.0 0.0
0.0 0.0 0.0
00000000: 0000 0000 0000 0000 0000 0000 0000 0000
00000010: 0000 0000 0000 0000 0000 0000 0000 0000
00000020: 0000 0000 0000 0000 0000 0000 0000 0000
00000030: 0000 0000 0000 0000 0000 0000 0000 0000
00000040: 0000 0000 0000 0000 0000 0000

action_model._discrete_distribution.branches.1.weight f4 [19, 128]
-0.011075084 0.007980757 -0.006104871 -0.008294792 0.015731744 -0.0028387608 0.0029280207 -0.004026011
-0.012383328 -0.0056119296 -0.019791164 0.0014404369 0.008121903 -0.007776296 -0.012931064 0.006954871
-0.00850328 0.0066601187 0.007497719 0.0027186468 0.016388815 -0.010501002 0.004837701 -0.009624193
0.0018606872 0.0087933745 -0.016151568 -0.009218045 0.0046907812 -0.0076314136 -0.006370506 0.011756572
0.0098017175 0.0042936993 -0.0020704102 0.009809027 0.007338288 0.003354465 0.009054728 0.0035537076
0.0021343932 0.004073571 0.0048631607 -0.010745268 -0.010454356 0.00076836813 -0.0020855328 -1.3690757e-05
-0.009833148 -0.012619709 -0.009036268 0.0004575615 0.008907121 0.010046094 7.4011354e-05 0.0104651395
-0.024402564 0.0061016874 -0.0056175794 0.010246023 -0.0046934253 0.0155286295 0.00097161107 0.00204214
-0.014640405 0.0010575961 0.002289953 -0.0032855365 0.017033627 -0.012572129 -0.0015714495 0.011367983
-8.213547e-06 -0.010880285 0.0055957115 0.006560867 0.005284239 0.0067138644 0.011551825 0.004968902
0.018188313 0.007061229 -0.0063693672 -0.00057096855 -0.009721256 0.004585111 -0.008689372 0.002650527
-0.017637467 0.008873752 -0.0033596938 0.003933446 -0.0017842619 -0.019622166 -0.0010990269 -0.0035621875
-0.0017308755 0.0024858236 0.0068975254 0.005645414 0.00977097 -0.014006408 -0.010071969 0.00014204951
0.0067788246 -0.007687647 0.002156178 -0.020818254 -0.004949975 -0.012486567 6.275819e-07 -0.007970213
-0.012919592 -0.006443739 0.014492126 -0.00035575518 -0.0065591345 0.010794092 0.007122421 0.004790681
0.0054595685 8.04679e-05 -0.0014638534 -0.015674679 -0.0005854727 -0.006122689 -0.01302024 0.022388784
0.009258745 -0.00046697303 0.0010603124 0.014385626 -0.008324462 -0.0013101327 -0.0064976253 -0.0059754625
0.0055912705 -0.0061126454 0.0030983046 0.0041497606 -0.005762992 0.008612131 0.012346441 -0.0032394293
0.010400958 0.0006491326 -0.0152389435 -0.017824018 -0.000384626 -1.9269233e-05 -0.0046460563 -0.0063044014
0.001046053 0.006007364 0.002775492 -0.0072232047 0.007060849 -0.0102524655 -0.015531641 -0.008402351
0.0045506195 -0.025980124 -0.008338413 0.011553834 -0.011357438 0.00038962797 0.0016498549 -0.0004145254
-0.00766292 -0.0041852333 0.01593971 -0.0007942389 0.009868208 -0.013626635 0.005130074 0.009062316
0.00865715 0.0011717764 0.004352185 -0.0049044653 -0.008198458 -0.0028491935 0.0042184084 0.004290436
-0.010490406 -0.003711871 0.025269926 0.0014130737 0.00636042 -0.009764339 -0.0049917214 0.00815726
-0.0058436813 0.005601715 -0.006852802 0.0024695161 0.005779878 -0.012238932 -0.0024593452 0.0030589662
-0.014822227 -0.00068357855 0.012548392 0.0107301865 0.0035360497 -0.0036042163 0.0028742407 0.0032952544
0.0011993153 -0.0043485714 0.014860268 0.002758037 0.0037393903 0.008249024 -0.00050325994 -0.004919606
-0.004877454 -0.00035326413 0.004746978 0.01719535 0.010841553 0.005501581 -0.0003649775 0.008727016
0.005069149 -0.00066033675 0.0137173375 -0.006794742 0.00519287 0.010301247 0.0024313945 0.009377043
-0.016554441 0.0026409475 0.00117474 -0.014801255 -0.0046786354 -0.005891686 0.0033033036 -0.0020343666
-0.007075596 0.00019189632 0.01508538 0.0063856277 0.0046461513 -0.008588446 0.008860307 0.004257041
0.022642491 0.0082911085 -0.0061829607 -0.005818087 -0.0045379004 -0.008672586 0.006173804 -0.0014566121
00000000: 4574 35bc b9c1 023c 5f0b c8bb e1e6 07bc
00000010: dcdf 803c 810a 3abb 09e4 3f3b a1ec 83bb
00000020: 71e3 4abc 47e4 b7bb 1421 a2bc 0bcd bc3a
00000030: bb11 053c 4dd0 febb d0dc 53bc b0e5 e33b
00000040: 5751 0bbc 203d da3b 6daf f53b 532b 323b
00000050: d641 863c 650c 2cbc 9485 9e3b cbae 1dbc
00000060: 4de2 f33a 1612 103c 4b50 84bc 4807 17bc
00000070: 20b5 993b f010 fabb adbf d0bb a39e 403c
00000080: 6297 203c 29b2 8c3b b8af 07bb 0bb6 203c
00000090: 0576 f03b 95d6 5b3b 485a 143c 52e5 683b
000000a0: 2de1 0b3b 977b 853b 265b 9f3b ec0c 30bc
000000b0: bf48 2bbc 506c 493a 6fad 08bb 5bb1 65b7
000000c0: 361b 21bc e5c2 4ebc db0c 14bc dde4 ef39
000000d0: 2cef 113c 5f98 243c 8b36 9b38 fa75 2b3c
000000e0: e3e7 c7bc aaf0 c73b ac13 b8bb efde 273c
000000f0: 4ecb 99bb cb6b 7e3c b7b3 7e3a 6dd5 053b
00000100: 4fde 6fbc 099f 8a3a 0913 163b 2852 57bb
00000110: 1b8a 8b3c 55fb 4dbc 18f9 cdba c740 3a3c
00000120: eacc 09b7 3943 32bc 3b5c b73b 8bfc d63b
00000130: 6927 ad3b faff db3b de43 3d3c 2cd2 a23b
00000140: a8ff 943c e261 e73b 20b6 d0bb 0dad 15ba
00000150: e745 1fbc b33e 963b de5d 0ebc 77b4 2d3b
00000160: 737c 90bc 3763 113c 4f2e 5cbb 23e4 803b
00000170: e5dd e9ba aabe a0bc 390d 90ba 9773 69bb
00000180: 8bde e2ba 33e9 223b a304 e23b 2afd b83b
00000190: 6b16 203c 227b 65bc e604 25bc 20f3 1439
000001a0: e720 de3b a8e8 fbbb aa4e 0d3b 0b8b aabc
000001b0: 6633 a2bb 7594 4cbc 1a77 2835 7f95 02bc
000001c0: b2ac 53bc 0026 d3bb 6270 6d3c a784 bab9
000001d0: 02ee d6bb b4d9 303c 3363 e93b 25fb 9c3b
000001e0: 2ee6 b23b e0c0 a838 c5de bfba 2f68 80bc
000001f0: 687a 19ba d7a0 c8bb d852 55bc af68 b73c
00000200: feb1 173c 0fd4 f4b9 2efa 8a3a b0b1 6b3c
00000210: 5363 08bc c2b8 abba 08ea d4bb d0cd c3bb
00000220: fa36 b73b 964c c8bb ed0c 4b3b b7fa 873b
00000230: 7bd7 bcbb e519 0d3c ba48 4a3c 9b4c 54bb
00000240: c868 2a3c 8d2a 2a3a c3ac 79bc ad03 92bc
00000250: a1a7 c9b9 5da4 a1b7 f23d 98bb 2795 cebb
00000260: b71b 893a 6cd9 c43b 07e5 353b a2b0 ecbb
00000270: b25e e73b f5f9 27bc 6d78 7ebc 04aa 09bc
00000280: 5d1d 953b 45d4 d4bc d79d 08bc 4b4c 3d3c
00000290: 8c14 3abc fb46 cc39 f23f d83a a854 d9b9
000002a0: 3b19 fbbb 4824 89bb ff93 823c 7834 50ba
000002b0: 44ae 213c 4042 5fbc 2e1a a83b 1c7a 143c
000002c0: b8d6 0d3c 4b96 993a c69c 8e3b a3b5 a0bb
000002d0: d352 06bc 89b9 3abb 933a 8a3b c996 8c3b
000002e0: f4df 2bbc dd42 73bb e002 cf3c e336 b93a
000002f0: 126b d03b 9bfa 1fbc 9891 a3bb 07a6 053c
00000300: 5a7c bfbb 978e b73b 788d e0bb 9bd7 213b
00000310: 2165 bd3b cd85 48bc f72c 21bb f078 483b
00000320: edd8 72bc 2e32 33ba c597 4d3c aacd 2f3c
00000330: 12bd 673b b734 6cbb c25d 3c3b 32f5 573b
00000340: 5832 9d3a 767e 8ebb 7b78 733c 2fc0 343b
00000350: 8f10 753b ea26 073c 34ed 03ba a534 a1bb
00000360: 0dd3 9fbb 4f36 b9b9 8a8c 9b3b 43dd 8c3c
00000370: c5a0 313c 9b46 b43b 735a bfb9 c2fb 0e3c
00000380: 1b1b a63b 731a 2dba afbe 603c 6da6 debb
00000390: f328 aa3b 90c6 283c 0858 1f3b 2ba2 193c
000003a0: 2e9d 87bc bf13 2d3b bcf9 993a f780 72bc
000003b0: 3d4f 99bb 0b0f c1bb 3d7c 583b 0253 05bb
000003c0: 67da e7bb c737 4939 ab28 773c 873e d13b
000003d0: be3e 983b 8eb6 0cbc d22a 113c a67e 8b3b
000003e0: bf7c b93c 6ed7 073c 6f9a cabb a7a5 bebb
000003f0: abb2 94bb 7617 0ebc 9f4d ca3b cbeb beba

action_model._discrete_distribution.branches.2.bias f4 [15]
0.0 0.0 0.0 0.0 0.0 0.0 0.0 0.0
0.0 0.0 0.0 0.0 0.0 0.0 0.0
00000000: 0000 0000 0000 0000 0000 0000 0000 0000
00000010: 0000 0000 0000 0000 0000 0000 0000 0000
00000020: 0000 0000 0000 0000 0000 0000 0000 0000
00000030: 0000 0000 0000 0000 0000 0000

action_model._discrete_distribution.branches.2.weight f4 [15, 128]
-0.019406406 -0.022626074 0.0017425719 -0.0022389784 -0.0028077296 0.0020669843 0.001544294 -0.0033188448
0.0038163667 0.0013691217 0.015665166 0.007669823 -0.000633094 -0.0046990714 0.0034039833 0.0022894319
-0.016728375 -0.0052459217 0.0078120157 0.009402107 -0.001108879 -0.0008519345 0.004999644 -0.0049446765
-0.0028910786 0.012293834 -0.003585667 0.002448728 -0.0072714696 0.005009551 -0.00037994847 0.0077826926
0.011248055 0.007357299 -0.009565997 0.0019625926 -0.006995046 -0.0050064647 -0.00084259466 0.006626726
0.015022129 -0.00086139824 -0.012920125 -0.0039073844 -0.007429946 -0.00046884207 0.005501985 0.0011600966
-0.002416791 -0.00053735636 -0.00034220802 -0.0002508814 0.012374376 0.0024432065 -0.004272942 -0.00072183943
-0.0017041158 -0.010035905 -0.0012015355 0.0002448169 0.0074969674 0.019625807 -0.0038466514 0.007211437
-0.003936076 -0.018994628 -0.003157476 0.00046034536 0.006864439 -0.008494939 0.011905093 -0.0059921774
-0.0057936506 0.010404295 -0.008303943 0.0061560106 -0.0029867925 0.013087592 -0.0015168292 0.014670538
0.005024709 0.002298978 0.0006487276 7.019196e-05 0.0008553775 0.006365081 -0.0099891 0.0142784
0.0031090165 -0.009353756 0.0032448028 0.023470907 -0.011934189 0.00041154493 -0.0013284497 -0.0008006342
-0.0053684893 0.0073279664 -0.0029080326 -0.0014773252 -0.0046828343 -0.0020935286 0.006812919 0.0119326785
-0.012551868 0.0017102124 0.0077421265 -0.0007666197 -0.003673028 0.009952175 0.0014192257 0.0040718536
0.008537075 -0.0035773744 0.004253769 -0.011121533 0.005095448 -0.009273978 -0.001701011 0.0069034346
0.001455034 -0.0040278686 4.458238e-05 0.00686532 0.0059745344 0.002613573 0.022077609 0.0068576345
0.002207794 0.005831548 -0.005743811 0.006899219 0.00097077986 0.003919983 0.0010487277 -0.003022218
-0.0031244962 0.0024745576 -0.0040782257 0.0032597233 0.004615572 -0.0026910973 -0.0060479655 -0.0050507234
-0.0011297952 0.0059026643 -0.003066396 -0.0051836763 0.0035106854 -0.0037605015 -0.013780241 0.010582107
-0.007861481 -0.016147586 0.0014847739 -0.00975983 -0.0071078986 0.0031708032 -0.004927896 0.0021968628
0.0075101643 0.021705223 0.0025926742 -0.001625287 -0.004025906 -0.007087259 -0.0015256027 -0.0049372553
0.0024495518 0.0073771994 -0.0034838289 -0.006355767 -0.0072041242 0.0042344625 0.007195424 0.006687984
-0.01328175 0.0010597266 -0.006896683 -0.003850126 0.0074544335 -0.0016545817 -0.009826531 -0.0008629793
0.0032241915 0.0067777536 -0.005077332 -0.006476277 0.0051757246 0.014449276 0.011298022 -0.003007752
0.021328533 -0.0074906535 -0.0015647177 0.011642068 0.008084848 0.0031161173 -1.7113116e-05 -0.0002791933
-0.0006313614 0.0022859217 0.005044362 -0.0074771917 0.010385122 0.006506551 -0.0012320112 9.0372385e-05
-0.004133808 -0.0051291264 0.010287735 0.015010761 0.0015757211 -0.0022201627 0.009011465 -0.008555995
0.013829703 -0.00034571273 0.003429858 -0.017834423 0.004584358 0.0018620888 -0.0047157155 0.0154219465
0.004194691 0.00020877554 -0.0059628524 0.006820624 -0.0036646414 -0.0058611613 0.013922902 -0.012700602
0.002678853 0.008731789 0.010359938 0.006273559 0.0048364117 -0.019199276 0.011512669 -0.0037841164
0.007371335 -0.006469883 -0.0009688886 0.0058035045 -0.0034496177 0.0018560454 0.01597213 0.01370497
0.005707778 -0.005889654 -0.0008879712 -0.001428661 0.00647443 0.004551524 -0.013974467 0.016442364
00000000: 2ffa 9ebc 515a b9bc 0367 e43a d3bb 12bb
00000010: e301 38bb 3e76 073b e869 ca3a fa80 59bb
00000020: 021c 7a3b 1a74 b33a 3c54 803c 2353 fb3b
00000030: 38f6 25ba abfa 99bb 5d15 5f3b 4b0a 163b
00000040: f209 89bc fbe5 abbb f0fb ff3b 4c0b 1a3c
00000050: ce57 91ba 5b54 5fba 0ed4 a33b f406 a2bb
00000060: 4078 3dbb 146c 493c 82fd 6abb d77a 203b
00000070: 8245 eebb 2927 a43b d233 c7b9 f505 ff3b
00000080: c349 383c 7f15 f13b b3ba 1cbc d79e 003b
00000090: b336 e5bb 450d a4bb 92e1 5cba 0225 d93b
000000a0: 601f 763c 75cf 61ba efae 53bc 8409 80bb
000000b0: e876 f3bb ebce f5b9 ff49 b43b 620e 983a
000000c0: 0663 1ebb 60dd 0cba 626a b3b9 bb88 83b9
000000d0: e5bd 4a3c 341e 203b 0904 8cbb d339 3dba
000000e0: a35c dfba a36d 24bc d77c 9dba c55a 8039
000000f0: 1fa9 f53b 4dc6 a03c 1a18 7cbb eb4d ec3b
00000100: 33fa 80bb 9f9a 9bbc a8ed 4ebb 825a f139
00000110: 17ef e03b 5b2e 0bbc 940d 433c 075a c4bb
00000120: aad8 bdbb c776 2a3c 430d 08bc 5cb8 c93b
00000130: 10be 43bb 576d 563c 58d0 c6ba b25c 703c
00000140: 50a6 a43b 73aa 163b 5f0f 2a3a 0634 9338
00000150: 6a3b 603a 2b92 d03b 52a9 23bc f3ef 693c
00000160: a4c0 4b3b 7f40 19bc c2a6 543b 0f46 c03c
00000170: 9e87 43bc a0c4 d739 601f aeba a7e1 51ba
00000180: 27ea afbb 701f f03b b194 3ebb cfa2 c1ba
00000190: 7672 99bb 9533 09bb e83e df3b 4881 433c
000001a0: 5aa6 4dbc 3529 e03a aab1 fd3b faf6 48ba
000001b0: 2fb7 70bb 730e 233c 5005 ba3a 2f6d 853b
000001c0: 16df 0b3c 6272 6abb 3363 8b3b 1737 36bc
000001d0: b7f7 a63b e2f1 17bc 75f4 deba 3536 e23b
000001e0: d7b6 be3a 36fc 83bb f7fd 3a38 7af6 e03b
000001f0: 07c6 c33b 7b48 2b3b 1adc b43c 02b6 e03b
00000200: a3b0 103b 9216 bf3b 9436 bcbb d812 e23b
00000210: ef7b 7e3a 3373 803b 7675 893a 6710 46bb
00000220: 59c4 4cbb 302c 223b a3a2 85bb 15a1 553b
00000230: 393e 973b 1f5d 30bb 032e c6bb 8a80 a5bb
00000240: a315 94ba 236b c13b 97f5 48bb d4db a9bb
00000250: 8713 663b bf72 76bb 85c6 61bc 9360 2d3c
00000260: 71cd 00bc f147 84bc bf9c c23a b2e7 1fbc
00000270: 60e9 e8bb 40cd 4f3b 307a a1bb 3ef9 0f3b
00000280: d317 f63b 27cf b13c dbe9 293b 9507 d5ba
00000290: bfeb 83bb 3d3c e8bb bbf6 c7ba b3c8 a1bb
000002a0: a988 203b 6fbc f13b f350 64bb 0a44 d0bb
000002b0: 9310 ecbb 3fc1 8a3b 97c7 eb3b e026 db3b
000002c0: b29b 59bc 86e6 8a3a 92fd e1bb 6552 7cbb
000002d0: 5244 f43b 8dde d8ba 75ff 20bc 8f39 62ba
000002e0: f54c 533b eb17 de3b bf5f a6bb f336 d4bb
000002f0: 2099 a93b a8bc 6c3c 571b 393c b41d 45bb
00000300: 2db9 ae3c 2874 f5bb 3717 cdba 5fbe 3e3c
00000310: 4f76 043c c637 4c3b 238e 8fb7 b160 92b9
00000320: f281 25ba 67cf 153b 2d4b a53b 3b03 f5bb
00000330: 5c26 2a3c e834 d53b 707b a1ba 4e86 bd38
00000340: e574 87bb 3b12 a8bb e38d 283c b2ef 753c
00000350: 6d88 ce3a 2680 11bb d3a4 133c 722e 0cbc
00000360: fb95 623c c740 b5b9 78c7 603b 7f19 92bc
00000370: 6238 963b 5511 f43a 4a86 9abb 55ac 7c3c
00000380: 9e73 893b c2ea 5a39 0864 c3bb 8b7f df3b
00000390: 7b2a 70bb fc0e c0bb e21c 643c 3016 50bc
000003a0: b28f 2f3b c70f 0f3c bbbc 293c 6d92 cd3b
000003b0: c37a 9e3b cd47 9dbc a29f 3c3c f0fe 77bb
000003c0: 3d8b f13b 5001 d4bb 03fd 7dba 532b be3b
000003d0: fb12 62bb 8d46 f33a fcd7 823c cf8a 603c
000003e0: 5008 bb3b 00fe c0bb bdc6 68ba e941 bbba
000003f0: 7527 d43b f324 953b 2af5 64bc 23b2 863c

discrete_action_output_shape f4 [1, 3]
2.0 19.0 15.0
00000000: 0000 0040 0000 9841 0000 7041

network_body._body_endoder.seq_layers.0.bias f4 [128]
0.0 0.0 0.0 0.0 0.0 0.0 0.0 0.0
0.0 0.0 0.0 0.0 0.0 0.0 0.0 0.0
0.0 0.0 0.0 0.0 0.0 0.0 0.0 0.0
0.0 0.0 0.0 0.0 0.0 0.0 0.0 0.0
0.0 0.0 0.0 0.0 0.0 0.0 0.0 0.0
0.0 0.0 0.0 0.0 0.0 0.0 0.0 0.0
0.0 0.0 0.0 0.0 0.0 0.0 0.0 0.0
0.0 0.0 0.0 0.0 0.0 0.0 0.0 0.0
0.0 0.0 0.0 0.0 0.0 0.0 0.0 0.0
0.0 0.0 0.0 0.0 0.0 0.0 0.0 0.0
0.0 0.0 0.0 0.0 0.0 0.0 0.0 0.0
0.0 0.0 0.0 0.0 0.0 0.0 0.0 0.0
0.0 0.0 0.0 0.0 0.0 0.0 0.0 0.0
0.0 0.0 0.0 0.0 0.0 0.0 0.0 0.0
0.0 0.0 0.0 0.0 0.0 0.0 0.0 0.0
0.0 0.0 0.0 0.0 0.0 0.0 0.0 0.0
00000000: 0000 0000 0000 0000 0000 0000 0000 0000
00000010: 0000 0000 0000 0000 0000 0000 0000 0000
00000020: 0000 0000 0000 0000 0000 0000 0000 0000
00000030: 0000 0000 0000 0000 0000 0000 0000 0000
00000040: 0000 0000 0000 0000 0000 0000 0000 0000
00000050: 0000 0000 0000 0000 0000 0000 0000 0000
00000060: 0000 0000 0000 0000 0000 0000 0000 0000
00000070: 0000 0000 0000 0000 0000 0000 0000 0000
00000080: 0000 0000 0000 0000 0000 0000 0000 0000
00000090: 0000 0000 0000 0000 0000 0000 0000 0000
000000a0: 0000 0000 0000 0000 0000 0000 0000 0000
000000b0: 0000 0000 0000 0000 0000 0000 0000 0000
000000c0: 0000 0000 0000 0000 0000 0000 0000 0000
000000d0: 0000 0000 0000 0000 0000 0000 0000 0000
000000e0: 0000 0000 0000 0000 0000 0000 0000 0000
000000f0: 0000 0000 0000 0000 0000 0000 0000 0000
00000100: 0000 0000 0000 0000 0000 0000 0000 0000
00000110: 0000 0000 0000 0000 0000 0000 0000 0000
00000120: 0000 0000 0000 0000 0000 0000 0000 0000
00000130: 0000 0000 0000 0000 0000 0000 0000 0000
00000140: 0000 0000 0000 0000 0000 0000 0000 0000
00000150: 0000 0000 0000 0000 0000 0000 0000 0000
00000160: 0000 0000 0000 0000 0000 0000 0000 0000
00000170: 0000 0000 0000 0000 0000 0000 0000 0000
00000180: 0000 0000 0000 0000 0000 0000 0000 0000
00000190: 0000 0000 0000 0000 0000 0000 0000 0000
000001a0: 0000 0000 0000 0000 0000 0000 0000 0000
000001b0: 0000 0000 0000 0000 0000 0000 0000 0000
000001c0: 0000 0000 0000 0000 0000 0000 0000 0000
000001d0: 0000 0000 0000 0000 0000 0000 0000 0000
000001e0: 0000 0000 0000 0000 0000 0000 0000 0000
000001f0: 0000 0000 0000 0000 0000 0000 0000 0000

network_body._body_endoder.seq_layers.0.weight f4 [128, 78]
-0.079189025 0.054436978 0.084912695 -0.13158616 -0.055362087 0.067001455 0.098969735 0.23019105
0.018979318 0.13707194 -0.05286311 0.06380924 0.13449761 -0.0346707 0.094288714 0.045862142
-0.09933332 0.035772417 0.080819316 -0.07408183 -0.212766 -0.051620714 0.10662412 -0.08660135
0.004476678 -0.052327383 -0.20834202 -0.020383054 0.028239524 -0.06938706 0.003679341 0.12658918
-0.21520194 0.10601485 0.1527296 -0.11732412 -0.01984926 0.1001912 0.30035913 0.021159649
0.11168608 0.21172 0.23439024 0.024340672 -0.11798241 -0.05072517 0.06776761 -0.035498068
0.04952195 0.20884147 0.048519574 0.27455163 -0.11672778 -0.16060394 0.12795669 -0.047217786
0.18422212 -0.08278723 0.31134444 0.06880074 0.058063857 -0.12861983 0.14330177 0.056742903
0.14659654 -0.0123697445 -0.02176005 -0.085855685 -0.029864972 -0.14453383 -0.067283474 0.006177748
-0.108211055 0.100744404 0.050431043 0.005184985 0.2000783 -0.037193876 -0.036499783 0.022818252
-0.0053605107 0.019574884 -0.05575557 0.020368464 0.15590145 0.04241595 0.009527333 0.010581196
-0.042240173 -0.026414853 -0.031425975 -0.076543696 -0.109612785 -0.25359583 0.047716662 -0.14157425
0.00024243412 -0.04624283 -0.018331736 0.0025663867 -0.13420081 0.07656075 -0.022655057 0.06739245
-0.028934458 -0.027300242 -0.105206706 0.042295936 -0.26563877 0.16807593 -0.00805658 0.0075107883
0.26946163 -0.0615039 -0.086334296 -0.012589832 -0.08556044 0.17353667 0.1485695 0.17913598
-0.009375136 -0.02763477 0.033363793 0.12936075 -0.026048688 0.052439027 0.045572374 0.08549689
-0.040714335 -0.053786136 0.18852732 0.24324933 -0.22168282 0.047124926 0.033702947 0.26304364
-0.01595723 -0.06846911 0.10838531 -0.044944063 -0.14561282 0.13740462 -0.07318356 0.17091733
-0.106851764 -0.15069203 0.09089667 -0.14908972 -0.14323221 -0.10062038 0.17954253 0.11568214
-0.11277981 -0.15612535 0.2496445 0.13013086 0.0066885157 -0.17365313 -0.045194622 -0.07372024
-0.11140615 0.16027516 -0.07281431 0.048314255 0.09420495 0.047209337 -0.038187265 0.19418114
0.25250536 0.043561324 -0.14257994 -0.002995528 -0.14088258 -0.062653735 0.11887888 -0.005061468
0.051100146 -0.1521438 0.093880765 -0.11482039 0.04061613 0.17656617 -0.09336437 -0.019980244
-0.1186243 -0.09925447 0.40100467 -0.027409043 0.03193715 -0.07016118 0.13656117 -0.24581662
0.09880345 -0.03703454 0.111022234 -0.01162607 -0.14475617 0.040231347 -0.09800717 -0.03047933
0.11890795 0.0020637761 -0.096555814 -0.13117978 -0.071495354 -0.11361773 -0.104584426 -0.0060806815
-0.15195939 -0.08152953 0.07931518 -0.20634031 -0.16613148 0.1738752 0.06329606 0.14729892
-0.12530093 -0.016778199 0.17268322 -0.11206676 0.052936222 0.06164902 -0.0150047755 0.030097729
0.16011919 -0.11794318 0.13321018 -0.06305659 0.26218462 -0.07061811 0.1387957 0.113352574
-0.0016416145 0.045500156 -0.008346257 0.13209076 0.10665332 -0.085644 -0.13094983 -0.07982217
-0.059856225 -0.0020329058 0.04337579 0.08113738 0.14645766 0.035884183 0.06554032 0.03803975
-0.066088594 0.1799798 0.12975521 -0.012542563 0.13124388 0.08107145 0.2360011 0.09534018
00000000: db2d a2bd 4ff9 5e3d b5e6 ad3d 86be 06be
00000010: 5bc3 62bd 0f38 893d a5b0 ca3d 34b7 6b3e
00000020: 847a 9b3c 965c 0c3e fd86 58bd 6bae 823d
00000030: beb9 093e dd02 0ebd 711a c13d f1d9 3b3d
00000040: 456f cbbd 1986 123d 9984 a53d 37b8 97bd
00000050: 55df 59be 3e70 53bd bf5d da3d 0c5c b1bd
00000060: 19b1 923b 3d55 56bd 9c57 55be 5dfa a6bc
00000070: 9356 e73c ce1a 8ebd 1921 713b 98a0 013e
00000080: e65d 5cbe 501e d93d 2665 1c3e a147 f0bd
00000090: ea9a a2bc 0b31 cd3d acc8 993e 0057 ad3c
000000a0: acbb e43d 21cd 583e ff03 703e 1766 c73c
000000b0: c3a0 f1bd 32c5 4fbd bfc9 8a3d 6c66 11bd
000000c0: 87d7 4a3d 8ada 553e 76bc 463d 0892 8c3e
000000d0: f90e efbd 5c75 24be 1407 033e 7067 41bd
000000e0: b9a4 3c3e 5a8c a9bd 8a68 9f3e 67e7 8c3d
000000f0: 5ed4 6d3d ebb4 03be b3bd 123e 3f6b 683d
00000100: 671d 163e 78aa 4abc 2242 b2bc 1bd5 afbd
00000110: 63a7 f4bc ad00 14be ebcb 89bd b56e ca3b
00000120: c29d ddbd 1553 ce3d c890 4e3d cfe6 a93b
00000130: 53e1 4c3e 9b58 18bd cc80 15bd 58ed ba3c
00000140: 39a7 afbb 825b a03c f45f 64bd c4db a63c
00000150: a1a4 1f3e 59bc 2d3d 8818 1c3c c15c 2d3c
00000160: 0804 2dbd f663 d8bc 86b8 00bd f1c2 9cbd
00000170: ab7c e0bd 50d7 81be 8c72 433d d7f8 10be
00000180: ea35 7e39 1f69 3dbd 702c 96bc d330 283b
00000190: f06b 09be e2cb 9c3d 1997 b9bc 0e05 8a3d
000001a0: f507 edbc c2a4 dfbc 9d76 d7bd 813e 2d3d
000001b0: ce01 88be 191c 2c3e bfff 03bc 0f1d f63b
000001c0: e0f6 893e 83eb 7bbd 09d0 b0bd 9545 4ebc
000001d0: 503a afbd 99b3 313e 9a22 183e 6c6f 373e
000001e0: 2c9a 19bc 5062 e2bc 79a8 083d 2577 043e
000001f0: 0f64 d5bc 4eca 563d 19aa 3a3d fe18 af3d
00000200: 13c4 26bd da4e 5cbd 4e0d 413e 5a16 793e
00000210: d200 63be 1106 413d 1a0c 0a3d a8ad 863e
00000220: bdb8 82bc 8839 8cbd 1ef9 dd3d 4417 38bd
00000230: 871b 15be ccb3 0c3e 43e1 95bd f404 2f3e
00000240: 19d5 dabd 034f 1abe 0928 ba3d faaa 18be
00000250: 77ab 12be 0f12 cebd ffd9 373e c2ea ec3d
00000260: 1af9 e6bd 53df 1fbe cfa2 7f3e 0641 053e
00000270: 562b db3b 20d2 31be ff1d 39bd a3fa 96bd
00000280: e828 e4bd 2c1f 243e ab1f 95bd 2be5 453d
00000290: 86ee c03d 945e 413d 406a 1cbd 6cd7 463e
000002a0: 6248 813e 5c6d 323d 7a00 12be 9f50 44bb
000002b0: 8643 10be 9a50 80bd c576 f33d acda a5bb
000002c0: 634e 513d 96cb 1bbe 8f44 c03d f426 ebbd
000002d0: 195d 263d c3cd 343e d235 bfbd 9cad a3bc
000002e0: 4cf1 f2bd ed45 cbbd 7c50 cd3e ee88 e0bc
000002f0: 87d0 023d aab0 8fbd b1d6 0b3e 5ab7 7bbe
00000300: 7759 ca3d 88b1 17bd a05f e33d 467b 3ebc
00000310: f63a 14be a0c9 243d fcb7 c8bd caaf f9bc
00000320: 0386 f33d 6b40 073b 0ebf c5bd fe53 06be
00000330: 286c 92bd 6ab0 e8bd 5c30 d6bd 7440 c7bb
00000340: 3e9b 1bbe f4f8 a6bd ff6f a23d e04a 53be
00000350: 5f1e 2abe 570c 323e 5da1 813d 87d5 163e
00000360: e34e 00be 6f72 89bc dfd3 303e 4283 e5bd
00000370: a7d3 583d af83 7c3d 97d6 75bc 838f f63c
00000380: 49f6 233e 328c f1bd 4068 083e d023 81bd
00000390: 103d 863e 3aa0 90bd 7620 0e3e 6525 e83d
000003a0: 712b d7ba 5f5e 3a3d bdbe 08bc cd42 073e
000003b0: 0e6d da3d 1f66 afbd b617 06be ce79 a3bd
000003c0: cd2b 75bd 803a 05bb d0aa 313d 5b2b a63d
000003d0: fff8 153e 4bfb 123d 013a 863d 92cf 1b3d
000003e0: 7559 87bd a04c 383e 8dde 043e 527f 4dbc
000003f0: cc64 063e ca08 a63d 46aa 713e b641 c33d

network_body._body_endoder.seq_layers.2.bias f4 [128]
0.0 0.0 0.0 0.0 0.0 0.0 0.0 0.0
0.0 0.0 0.0 0.0 0.0 0.0 0.0 0.0
0.0 0.0 0.0 0.0 0.0 0.0 0.0 0.0
0.0 0.0 0.0 0.0 0.0 0.0 0.0 0.0
0.0 0.0 0.0 0.0 0.0 0.0 0.0 0.0
0.0 0.0 0.0 0.0 0.0 0.0 0.0 0.0
0.0 0.0 0.0 0.0 0.0 0.0 0.0 0.0
0.0 0.0 0.0 0.0 0.0 0.0 0.0 0.0
0.0 0.0 0.0 0.0 0.0 0.0 0.0 0.0
0.0 0.0 0.0 0.0 0.0 0.0 0.0 0.0
0.0 0.0 0.0 0.0 0.0 0.0 0.0 0.0
0.0 0.0 0.0 0.0 0.0 0.0 0.0 0.0
0.0 0.0 0.0 0.0 0.0 0.0 0.0 0.0
0.0 0.0 0.0 0.0 0.0 0.0 0.0 0.0
0.0 0.0 0.0 0.0 0.0 0.0 0.0 0.0
0.0 0.0 0.0 0.0 0.0 0.0 0.0 0.0
00000000: 0000 0000 0000 0000 0000 0000 0000 0000
00000010: 0000 0000 0000 0000 0000 0000 0000 0000
00000020: 0000 0000 0000 0000 0000 0000 0000 0000
00000030: 0000 0000 0000 0000 0000 0000 0000 0000
00000040: 0000 0000 0000 0000 0000 0000 0000 0000
00000050: 0000 0000 0000 0000 0000 0000 0000 0000
00000060: 0000 0000 0000 0000 0000 0000 0000 0000
00000070: 0000 0000 0000 0000 0000 0000 0000 0000
00000080: 0000 0000 0000 0000 0000 0000 0000 0000
00000090: 0000 0000 0000 0000 0000 0000 0000 0000
000000a0: 0000 0000 0000 0000 0000 0000 0000 0000
000000b0: 0000 0000 0000 0000 0000 0000 0000 0000
000000c0: 0000 0000 0000 0000 0000 0000 0000 0000
000000d0: 0000 0000 0000 0000 0000 0000 0000 0000
000000e0: 0000 0000 0000 0000 0000 0000 0000 0000
000000f0: 0000 0000 0000 0000 0000 0000 0000 0000
00000100: 0000 0000 0000 0000 0000 0000 0000 0000
00000110: 0000 0000 0000 0000 0000 0000 0000 0000
00000120: 0000 0000 0000 0000 0000 0000 0000 0000
00000130: 0000 0000 0000 0000 0000 0000 0000 0000
00000140: 0000 0000 0000 0000 0000 0000 0000 0000
00000150: 0000 0000 0000 0000 0000 0000 0000 0000
00000160: 0000 0000 0000 0000 0000 0000 0000 0000
00000170: 0000 0000 0000 0000 0000 0000 0000 0000
00000180: 0000 0000 0000 0000 0000 0000 0000 0000
00000190: 0000 0000 0000 0000 0000 0000 0000 0000
000001a0: 0000 0000 0000 0000 0000 0000 0000 0000
000001b0: 0000 0000 0000 0000 0000 0000 0000 0000
000001c0: 0000 0000 0000 0000 0000 0000 0000 0000
000001d0: 0000 0000 0000 0000 0000 0000 0000 0000
000001e0: 0000 0000 0000 0000 0000 0000 0000 0000
000001f0: 0000 0000 0000 0000 0000 0000 0000 0000

network_body._body_endoder.seq_layers.2.weight f4 [128, 128]
-0.08707586 0.05289136 0.01738225 0.20487171 0.01953453 -0.017102351 0.22749244 -0.22112894
0.08068916 0.055104397 0.08193077 -0.14218555 -0.049395178 -0.056575783 0.08612668 -0.08636486
0.025867706 0.13140155 0.0035769418 0.1414334 0.11665049 0.051536206 0.026272193 -0.14327033
-0.17991492 0.0790155 -0.14629374 -0.0155490115 -0.03234834 0.02274984 -0.096160755 -0.080740035
0.02891242 0.22632162 -0.050454672 0.01985764 -0.15739958 0.02771588 -0.0852221 -0.032549314
0.022487672 -0.019423775 0.015076148 0.23308036 -0.19657338 -0.05460559 -0.01071546 0.03138236
0.013427528 -0.04944617 -0.008774636 -0.034237325 -0.06307381 0.03365475 0.042421263 -0.059064746
-0.12913607 0.070771754 0.14806539 0.11248647 0.027973028 -0.03985899 0.033854485 -0.12172451
0.10026979 0.009973646 0.02877095 0.05805863 0.018111354 0.007655964 -0.05929492 0.07480929
0.10611776 0.04977322 0.028032126 0.049299516 -0.08825226 0.08629646 0.05708736 0.043175314
-0.117752895 -0.105443776 -0.05122515 -0.01826053 -0.0018001156 -0.09765933 0.15294911 -0.050523486
0.053528816 -0.097389415 0.04460175 0.11616586 -0.16480723 0.018577892 -0.028605735 0.012180091
-0.06720724 0.028868323 0.026548821 -0.052235126 -0.16133589 0.019822888 0.030104203 0.060075942
0.025409192 0.029060805 0.08588458 -0.056890156 0.057631582 -0.01217007 -0.09252882 -0.093069024
-0.1033096 -0.0073763602 0.13148217 -0.0015586709 -0.06767899 -0.0439945 0.057260934 -0.058418985
0.110748544 -0.0010829894 0.010429061 0.028594708 -0.13854699 -0.18148601 0.16554898 0.11352274
-0.06858359 0.0025743644 0.110217586 -0.028876768 -0.0149139045 0.06425473 -0.027209729 -0.026542738
-0.09438802 0.0017832272 -0.07187678 0.013268453 -0.08010963 0.07911312 -0.16326934 -0.04632026
-0.0015506975 0.12958622 -0.03608833 0.12494153 -0.032716855 -0.08339023 0.08111941 -0.10425588
-0.044160917 0.28360954 -0.15021987 -0.09256644 0.048914272 -0.08913634 0.15715322 0.058292042
0.070335165 -0.037896667 -0.014941969 -0.13927123 0.05871774 -0.058266953 0.0556371 -0.05973197
-0.08993118 -0.029017897 -0.054002155 0.117141865 0.046026804 -0.0137863485 -0.020058068 -0.05706622
-0.06016085 -0.008179065 0.05052012 0.096353635 -0.011584762 -0.030736156 -0.0054544387 0.12902412
0.02779425 0.045707304 -0.012837888 -0.047490332 -0.06320507 -0.10557364 -0.033066586 -0.21583776
-0.013406726 0.15564112 -0.0012113408 -0.042133734 -0.065366216 0.00033510855 -0.09173996 -0.05161879
-0.08422274 -0.13590994 -0.12592767 0.176624 -0.04395959 0.014640555 0.12550436 0.03310494
-0.018841863 -0.021081166 -0.013310082 -0.024022466 -0.10770208 -0.032548755 -0.14335053 0.09438988
-0.09930216 0.090639174 0.06376527 -0.14926113 0.060209207 0.08379151 -0.03707019 -0.103965245
-0.12393625 0.02284626 -0.061731007 0.07985274 0.0339056 -0.16415039 -0.0065503293 0.09378105
0.039525144 0.020832501 -0.1622863 0.09043042 0.029174183 -0.052510273 -0.05434822 -0.039748203
-0.04452086 -0.008504532 -0.037746646 -0.0742492 -0.1497619 -0.14527772 0.06866727 0.114202276
-0.026739506 0.049451306 -0.040682968 -0.036552355 -0.0019764868 0.08770821 -0.13267913 0.024169764
00000000: d454 b2bd 9ca4 583d 3865 8e3c e4c9 513e
00000010: e106 a03c 3b1a 8cbc c7f3 683e a06f 62be
00000020: 5c40 a53d 26b5 613d 52cb a73d 1799 11be
00000030: 9952 4abd 02bc 67bd 2f63 b03d 0fe0 b0bd
00000040: 83e8 d33c 218e 063e 206b 6a3b ebd3 103e
00000050: 74e6 ee3d a117 533d c838 d73c 75b5 12be
00000060: 9e3b 38be e1d2 a13d 07ce 15be 48c1 7ebc
00000070: b17f 04bd df5d ba3c eeef c4bd 085b a5bd
00000080: bdd9 ec3c dbc0 673e 8fa9 4ebd 7dac a23c
00000090: 5b2d 21be 6a0c e33c ed88 aebd 6e52 05bd
000000a0: 1138 b83c 9c1e 9fbc f301 773c 9eac 6e3e
000000b0: 884a 49be 1caa 5fbd e68f 2fbc ca8a 003d
000000c0: 22ff 5b3c 1188 4abd 7ec3 0fbc 703c 0cbd
000000d0: d72c 81bd 90d9 093d ebc1 2d3d e0ed 71bd
000000e0: 3f3c 04be c8f0 903d 749e 173e 4e5f e63d
000000f0: b127 e53c 2e43 23bd 00ab 0a3d b34a f9bd
00000100: 3f5a cd3d 8168 233c 0eb1 eb3c e3ce 6d3d
00000110: 435e 943c e1de fa3b 3bdf 72bd 9d35 993d
00000120: 4554 d93d 01df 4b3d a1a3 e53c 4aee 493d
00000130: 9abd b4bd 33bc b03d 70d4 693d 99d8 303d
00000140: 6e28 f1bd e8f2 d7bd 76d1 51bd 1b97 95bc
00000150: dbf1 ebba 9d01 c8bd b19e 1c3e b7f1 4ebd
00000160: 0841 5b3d 1a74 c7bd 53b0 363d 5ee8 ed3d
00000170: 3ac3 28be aa30 983c 9356 eabc 018f 473c
00000180: f3a3 89bd 437d ec3c ea7c d93c 80f4 55bd
00000190: 3c35 25be 9c63 a23c 179d f63c 3112 763d
000001a0: f026 d03c ed10 ee3c 41e4 af3d a705 69bd
000001b0: 180f 6c3d f964 47bc c07f bdbd f99a bebd
000001c0: fc93 d3bd 65b5 f1bb 43a3 063e 514c ccba
000001d0: 489b 8abd 9433 34bd 718a 6a3d bf48 6fbd
000001e0: 22d0 e23d 18f3 8dba a7de 2a3c 733f ea3c
000001f0: 43df 0dbe 78d7 39be ac85 293e 9c7e e83d
00000200: 8e75 8cbd abb6 283b c2b9 e13d f98e ecbc
00000210: 7359 74bc fc97 833d f0e6 debc 2870 d9bc
00000220: 824e c1bd 2dbb e93a 2234 93bd ed63 593c
00000230: 8510 a4bd 0f06 a23d 1430 27be 50ba 3dbd
00000240: c640 cbba 40b2 043e 5bd1 13bd 58e1 ff3d
00000250: 1c02 06bd 7fc8 aabd ef21 a63d 1b84 d5bd
00000260: 14e2 34bd 4535 913e 3dd3 19be 7993 bdbd
00000270: 555a 483d 1d8d b6bd c6ec 203e a3c3 6e3d
00000280: e20b 903d 8939 1bbd 29cf 74bc 1e9d 0ebe
00000290: 0382 703d 54a9 6ebd bae3 633d 83a9 74bd
000002a0: d72d b8bd f1b6 edbc 5d31 5dbd 13e8 ef3d
000002b0: 9a86 3c3d 23e0 61bc d150 a4bc 45be 69bd
000002c0: 396b 76bd 7c01 06bc 2fee 4e3d 0e55 c53d
000002d0: 03ce 3dbc 64ca fbbc 26bb b2bb e61e 043e
000002e0: c4b0 e33c 9537 3b3d 0156 52bc 3985 42bd
000002f0: a971 81bd fe36 d8bd d470 07bd 9304 5dbe
00000300: e2a7 5bbc 6360 1f3e dac5 9eba 6c94 2cbd
00000310: b9de 85bd 82b1 af39 29e2 bbbd 396e 53bd
00000320: f97c acbd fa2b 0bbe 2ff3 00be ecdc 343e
00000330: f90e 34bd f0de 6f3c 3784 003e 0c99 073d
00000340: 405a 9abc 69b2 acbc 8812 5abc c3ca c4bc
00000350: e892 dcbd d851 05bd 7bca 12be 7b4f c13d
00000360: ee5e cbbd 08a1 b93d 5e97 823d e9d7 18be
00000370: ee9d 763d e29a ab3d e9d6 17bd bbeb d4bd
00000380: 4ad2 fdbd 1428 bb3c a7d9 7cbd d589 a33d
00000390: 99e0 0a3d 0a17 28be 25a4 d6bb 4710 c03d
000003a0: 1ee5 213d eca8 aa3c 612e 26be 9633 b93d
000003b0: b2fe ee3c 0315 57bd 3d9c 5ebd 03cf 22bd
000003c0: 815b 36bd 9856 0bbc 3a9c 1abd f70f 98bd
000003d0: 2f5b 19be afc3 14be 6da1 8c3d e2e2 e93d
000003e0: cf0c dbbc 748d 4a3d 2fa3 26bd ecb7 15bd
000003f0: f287 01bb 5da0 b33d 0add 07be abff c53c
