FYPprototype/results/SpawnLocationTest1/AIBalancing/AIBalancing-499985.pt (torch, 716199 bytes, 46 tensors)

discrete_act_size_vector f4 [1, 3]
00000000: 0000 0040 0000 9841 0000 7041
2.0 19.0 15.0

network_body._body_endoder.seq_layers.0.weight f4 [128, 78]
00000000: 0e62 0e3e 9945 7d3d 6d15 a03e 3c89 5cbe
00000010: 618b aebd 4f8e 3d3e 4a06 0abd ec86 b3bd
00000020: 0fc4 143d 7734 993d 574f 66bd 8d5e ab3d
00000030: 11d6 7f3b aee4 02be aeb8 333d d026 36bd
00000040: b21b efbd 8372 243e 45d5 d33d 1dd5 77bd
00000050: a070 8bbc d1db 923c 88f4 9fbc 408d b3bd
00000060: 9eb4 e2bd f061 b83d 804b 84bd 7b81 533e
00000070: f706 acbd 0db5 b93d 180a 5ebe 8892 ea3d
00000080: c5f1 aa3d ad7b eb3d 597d c03c d595 123e
00000090: 1141 cfbd 8f16 cd3d 2e14 23be f229 a1bd
000000a0: c8d6 823d e925 5c3e 38a2 e6bd 1490 5ebd
000000b0: 2146 cbbd 8c25 103e a640 16be eaf9 363c
000000c0: 4abc ad3d 54a1 953d a70f 1e3e fb0d d73d
000000d0: 160f ca3d 29ea 46bc 7e0d 583e 9e89 24be
000000e0: 0a96 513e a796 6cbe f871 783c de4a 62bd
000000f0: df54 f5bd f848 1e3d 39f3 273c 85a0 7b3d
00000100: 862d 6dbe 7230 743d 6b97 283d cc6b b9bd
00000110: fb48 e53d 3734 61bd b906 853e 4f6c b13d
00000120: 26c8 26bd 2186 56be e645 22be eb47 50bc
00000130: 631b 633d af1c 193d 4495 8fbd 8f98 303d
00000140: 7837 103d 9f73 343e e051 953d b90c 6cbe
00000150: a8e0 813d 124e 1e3d 40e6 53ba bd19 65be
00000160: a24e 0ebd e640 3cbb 4aad f3bc 2b94 37bc
00000170: 5201 c33d 09c0 78bd a29a bf3d a3c9 023e
00000180: cda0 e43d 3788 d1bc 417f e3bc b8bb 393d
00000190: dfa2 3ebe f6e5 3bbe c2a7 3abd 4162 8dbd
000001a0: 401d a23d 2ef4 f23c 61c1 2d3d 62a9 18be
000001b0: 3bc7 ec3d 7daa 11bd 6681 133d d085 adbc
000001c0: acce 223e 0fef efbd 4e65 6ebc d5c8 adbc
000001d0: 48e8 8b3c 4979 1abd bef6 8c3c fde5 213e
000001e0: 18e0 873c 487d fabd 2cbc a23e d1dd 323b
000001f0: aa27 a7bd ab2a bf3d 091d 9ebd fe3b 2b3d
00000200: ffbe 99bc 7af1 183e 586e 47bc d707 1d3e
00000210: d571 263e 5bf1 543c 79e6 b33b cdb7 57be
00000220: 4ddb 263e f2d2 95bd a6f2 0a3e 799a 7abd
00000230: 6816 4b3e ff0f 2bbd e3d6 8abd d6d7 41bd
00000240: 8d2e 35be 6a72 ecbc 1785 00bd b904 f6bd
00000250: 6be7 363d 8837 fd3a b1a8 683e fafc 233d
00000260: 415d a0bc 5024 1bbd 2d1a ba3d fadb fb3d
00000270: 00cd 64bd cab4 9fbc e22c b9bd 61da 84bd
00000280: 1424 493e b595 a53c 348b be3c 619a cd3d
00000290: 074f 823c 091f fb3d 34ad 373d da72 943d
000002a0: 301b 703d 723e 53bd 6389 eb3c 557e 30bc
000002b0: addf 3dbc e8b6 35bc e1d7 7f3d b198 213d
000002c0: 0523 88bd c721 90bc 8c1d 033e 5e08 613d
000002d0: 4815 81bd fcd7 e83c 4d83 4d3c afaf 043d
000002e0: da8d 0dbe a968 3c3d 0afe 633e ee52 c43d
000002f0: c7e8 aa3d 73c3 78bc b31a 76bd 2284 683d
00000300: 05ea 053d 895c cbbd 7cd6 113e 3386 15be
00000310: b604 4abd 2320 323d 00b7 d5bc da7e 7cbd
00000320: 1fed 4abd 79cb 6d3d f098 07be 713e a3bd
00000330: af97 98bd ddae 823c 9637 dbbd 4ab5 8e3c
00000340: b1cf 6cbd 6641 9f3c 7951 efbd 6a71 e83d
00000350: 6257 21be 34ba 153d 0d8e 92bd 7201 323d
00000360: 27d5 973e da0e 0a3e c147 ee3d 26a7 e5bd
00000370: 0630 69bd ebe3 003c 0579 a0bd 944a 283d
00000380: 7f97 16be 7fb5 fa3d 5970 703d f1bc dd3c
00000390: 1782 783d 666e c73d 0327 45be 064d 7c3e
000003a0: db7f 083e 4646 a1bd d81c e83c 2795 36bd
000003b0: a7a9 cf3d 2933 a83c 2f50 213e aac9 d5bc
000003c0: 6235 d4bd 93ed 113d 63e2 21be b0ab ba3d
000003d0: f10e 9cbd 1659 15be 6ff0 2abd 1eb9 90bc
000003e0: 0a0a 0bbe f618 2b3e 1281 26bd 5adc 04bd
000003f0: 402c b1bc e1a1 bdbd 3e6f c3bd 3765 2c3e
0.13904592 0.06183395 0.31266347 -0.21536726 -0.08522678 0.18511318 -0.033697404 -0.08765969
0.03631979 0.0748071 -0.056228008 0.083676435 0.0039037506 -0.12782547 0.043877296 -0.04447061
-0.11675204 0.16059308 0.10343412 -0.060505975 -0.017021477 0.017927082 -0.019525781 -0.08767176
-0.11069606 0.09003055 -0.06459713 0.20654862 -0.08399766 0.09067736 -0.21683538 0.1145373
0.08346895 0.11498199 0.02349727 0.14314969 -0.10119832 0.10014068 -0.15925667 -0.078693286
0.063886225 0.21498837 -0.112614095 -0.054336622 -0.099254854 0.14076823 -0.14673099 0.011167983
0.08483179 0.073061615 0.15435658 0.105007134 0.09866159 -0.012140789 0.21098897 -0.16068122
0.20467392 -0.23104344 0.015163891 -0.05524718 -0.119790785 0.038643807 0.01025086 0.06143238
-0.23161897 0.059616514 0.04116003 -0.09053764 0.111955605 -0.054981437 0.2598169 0.08663236
-0.04071822 -0.20949604 -0.15846977 -0.012712459 0.05544604 0.03738087 -0.07010892 0.04311424
0.03520915 0.17622231 0.07291007 -0.23051728 0.06341678 0.038648672 -0.0008083321 -0.223731
-0.03474296 -0.0028725206 -0.029745717 -0.01120476 0.09521736 -0.060730014 0.09355666 0.12772231
0.11163483 -0.025577648 -0.02777064 0.04534504 -0.18616818 -0.18349442 -0.045570143 -0.06903506
0.07915735 0.02965745 0.04242075 -0.14908364 0.11561438 -0.03556298 0.036012076 -0.02118197
0.15899152 -0.11715519 -0.01455052 -0.021213928 0.017078534 -0.037713323 0.0172075 0.1581039
0.016586348 -0.12230927 0.3178419 0.0027292857 -0.08161862 0.0933431 -0.07720382 0.04180526
-0.018767832 0.14935866 -0.012172304 0.15335022 0.16254361 0.012996997 0.005490121 -0.21066208
0.16294594 -0.07315625 0.13569126 -0.061182473 0.19832766 -0.041763302 -0.06779268 -0.047324978
-0.17693539 -0.02886315 -0.031376924 -0.120126195 0.04465429 0.0019318918 0.227206 0.04003618
-0.019575717 -0.037876427 0.09087024 0.122978166 -0.055859566 -0.019495387 -0.09041764 -0.06486965
0.19642669 0.020212987 0.023259737 0.10039211 0.015906824 0.12261779 0.044842914 0.07248469
0.058619678 -0.051573224 0.028752035 -0.010772307 -0.011588973 -0.0110909715 0.062461738 0.03945226
-0.066473044 -0.017594231 0.1280424 0.05493962 -0.06302887 0.028423302 0.012543512 0.032394107
-0.13823643 0.04599825 0.22264877 0.0958613 0.0834518 -0.0151833175 -0.060084056 0.056766637
0.03269388 -0.09929759 0.14241976 -0.14601974 -0.0493209 0.04348768 -0.026088238 -0.061644413
-0.049542543 0.058055375 -0.13241935 -0.07970894 -0.07450806 0.015952522 -0.107039616 0.01742043
-0.057815257 0.019440364 -0.116854616 0.11349757 -0.1575599 0.03655453 -0.07156 0.04345841
0.2965481 0.13482228 0.1163478 -0.11213522 -0.056930564 0.00786684 -0.07835583 0.04108675
-0.14706229 0.12241649 0.058700893 0.027067633 0.06067094 0.09737854 -0.19253163 0.24638757
0.13330023 -0.07874732 0.028334066 -0.044575837 0.101397805 0.020532208 0.15753244 -0.026097137
-0.103617445 0.03562696 -0.15809016 0.09114778 -0.07620037 -0.14584765 -0.0417332 -0.017666396
-0.13578048 0.1670874 -0.040650435 -0.032436706 -0.021627545 -0.092593916 -0.09542702 0.16835485

network_body._body_endoder.seq_layers.0.bias f4 [128]
00000000: e659 76bb beb5 0cbb 42ed ee3b 1209 d6bb
00000010: 0daa 06ba 8569 f6bb aefe 1fb8 7e10 72bb
00000020: a625 61bb f8cb 49b6 7bc9 193b 4308 9cba
00000030: 14ab 953b c1da 54bb b5ee 18bb 356d 343b
00000040: 9e5c 09bb 72b2 843b 1eb2 08bb 5f3f 8e3b
00000050: e749 8dbb 8e24 0dba 4e9e 013b 64bc 463a
00000060: 9a96 9ab9 564c 553b 9d52 453a 3b4d d2bb
00000070: adbd 1fbb 3fda dc3a 2744 48bb a36a 81bb
00000080: 1dbd af39 7d40 bc3b 13cb c7bb 6e61 2ebb
00000090: c7b5 693b 6947 db38 2f75 3dbb f12a b9bb
000000a0: 016b 1dbb df82 fcba ea2d 8fb8 f7de c43b
000000b0: 6088 ec3a fa4f e63a 9337 a7bb 90c8 67bb
000000c0: e731 7fbb 4fb3 b1bb b21d d13a ee71 82bb
000000d0: 6634 793a 0a87 b23a c814 88ba 4d19 cbbb
000000e0: a7fb 66ba 2abb f1bb 516e a1bb 9ffe 903a
000000f0: 917f 90bb e6e8 353a f1fd 00bc c6fb 4f3b
00000100: 1299 a5b9 6d9c c6bb 8280 913b 9015 023b
00000110: 71ed fcbb 6921 f13b 85ad cfbb c87f eabb
00000120: bdd9 a63b 1132 353b f56a c6bb e5b2 65bb
00000130: cc7b 093b eb0c e9bb 1837 02ba cc0d 6039
00000140: 59d6 20bb 027c 70bb d791 87bb 5be0 aebb
00000150: 5b8b af3b 883f 95bb d4a6 c5b9 0039 2f3b
00000160: 7237 dfbb 1ca7 d638 ab49 99bb 3347 39bb
00000170: 4392 0dba ee4c 13bb 9c1e fa3a 8482 063c
00000180: f6d4 d3bb 979e e739 429c 8dbb d4ec 7239
00000190: 2793 5dbb 4107 23bb 1e59 173b 0b61 a7ba
000001a0: 044d 103b 0c8b 36bb 2403 9dbb 3c1b 73bb
000001b0: 90a7 94bb b44a 44bb df27 b5b9 544e 8bbb
000001c0: 82f6 80b9 c97f 4d3b 162a cebb f1da 5e3b
000001d0: 90e0 ab3b 48c0 21bb bfab 8fbb 8f95 6ebb
000001e0: cce3 8439 75f9 55b9 845d c3b9 3e03 893b
000001f0: 2cb6 79bb f2e7 a4bb a95a 9cb8 4d59 203b
-0.0037590205 -0.0021470631 0.007291467 -0.006531843 -0.0005137034 -0.007519903 -3.8145743e-05 -0.00369361
-0.0034354716 -3.007006e-06 0.002346604 -0.0011904318 0.0045675132 -0.003247902 -0.002333564 0.0027530913
-0.0020959745 0.0040495927 -0.002085812 0.0043410505 -0.0043117884 -0.000538417 0.0019778195 0.0007581173
-0.00029485376 0.003254672 0.0007527264 -0.006417898 -0.002437453 0.001684971 -0.00305582 -0.0039494797
0.000335195 0.0057449923 -0.0060972064 -0.0026608366 0.0035661326 0.00010456035 -0.0028908958 -0.005650871
-0.0024020078 -0.0019265077 -6.8273235e-05 0.006008025 0.0018046014 0.0017571442 -0.0051030605 -0.0035367347
-0.0038939656 -0.0054229866 0.0015954284 -0.0039808666 0.0009506404 0.0013620567 -0.001038217 -0.0061980844
-0.0008811303 -0.007377048 -0.004926481 0.0011062211 -0.0044097384 0.00069393066 -0.007873044 0.0031735762
-0.000315853 -0.006061128 0.004440368 0.0019849278 -0.007718735 0.007358719 -0.006337824 -0.007156346
0.0050918744 0.002764825 -0.0060552307 -0.0035049256 0.002097833 -0.0071121356 -0.0004967316 0.00021367444
-0.0024541824 -0.0036695008 -0.0041372585 -0.005336804 0.0053571886 -0.0045546927 -0.00037699065 0.0026736856
-0.0068120295 0.00010235442 -0.0046779714 -0.0028271198 -0.0005400518 -0.0022476274 0.0019082609 0.008209828
-0.006464596 0.00044177912 -0.004321606 0.00023167144 -0.0033809633 -0.002487615 0.002309389 -0.001277001
0.002201856 -0.0027853874 -0.004791634 -0.003709509 -0.0045365766 -0.0029951753 -0.00034552717 -0.004251281
-0.00024597725 0.0031356683 -0.006291638 0.003400501 0.005245276 -0.002468126 -0.0043844874 -0.0036405062
0.00025346724 -0.00020406193 -0.00037262973 0.0041812947 -0.0038102968 -0.005032533 -7.4555464e-05 0.002446729

network_body._body_endoder.seq_layers.2.weight f4 [128, 128]
00000000: d7ed eebd ed6f 29be 64e4 42bd 0abf 1bbd
00000010: 6ad5 eaba 68f5 ea3c 24c0 06be 56cf 81bd
00000020: d19f 673d ecf4 883b a9c3 23be f458 1c3d
00000030: 37b1 1bbd eb35 abbc 68fb 4b3d b575 aabd
00000040: 882d ddbc aeba 4f3d 05ae 45bb dc33 9ebd
00000050: 8222 fdbc 0f74 293d 0d6e 813c 6a0c db3c
00000060: 27f1 9cbd f7c5 6b3e 38bd 19be a901 1c3e
00000070: 9489 5cbe ba61 3a3e fc4f 8fbd 7c5a c5bd
00000080: e70f dd3c 93e9 9ebd 1620 16bd 5e2f 03be
00000090: b718 b33c 95db 433c 98e0 e23c 3fbf 843b
000000a0: 6f19 ddbd b8f9 85bc 89f1 9f3d ed44 153e
000000b0: 1079 d1bd 018d e63c cf2e 173c 69da 0bbe
000000c0: a915 4dbd 571c 883d fadf 9a3c 4520 3fbe
000000d0: 46b7 56bd e03f 273c 9a03 fcbd c51b 3fbd
000000e0: 1a65 a3bb e8ac 5bbd c0c6 4a3b edce d43c
000000f0: 8b7f 8b3c 4677 cb3d 711b e0bc a786 b8bb
00000100: 68a0 ecbd 04b6 16bd 1213 8fbe d9fc d4bc
00000110: 99b3 1c3e d669 9abd d11a 2c3c e342 c5bd
00000120: e514 963d 6cc7 ba3d de4b 663d 7c88 d1bd
00000130: 4fa7 a53d ef43 1b3c 9667 b7bd 78be fe3b
00000140: 390e 313c 778b 9c3a 51ef bb3d 42f1 c9bc
00000150: 2b58 b53d 7b7a 133e 6b8b 833d d4d6 133e
00000160: cfd5 79bd 83de ee3c 5351 943d 9c1f a33d
00000170: c1ab 193d 0beb 013e 3eb7 26bc ee46 993c
00000180: 690d b93d 61b5 f33b 58f5 98bd a445 c33d
00000190: 92f6 013e aa95 52bd c183 103d 7564 20bc
000001a0: 16d4 48be cfb6 813d 4066 8ebd 640f 8abd
000001b0: a4e8 55bd 9065 533d 6633 d7bd c5a7 9e3c
000001c0: bd75 233c 952f f0bd f7b3 c5bd 36fe fbbd
000001d0: d779 533e cb2e 163e 7e18 89bd 9b25 993d
000001e0: b45e 0b3e 4661 c2bd aaee 593d 68ef 56bc
000001f0: 12f5 943d 928e 58be ddfb 3c3a c280 d83c
00000200: a48a d5bd f2c5 a33c 8c73 933d f730 6fbd
00000210: 8b1a 6a3d ac30 613c 1b0c 0cbe 8daf a2bd
00000220: 96da a13d 45e5 50bd 22c8 f83d e8bc 103e
00000230: 2a73 31be e68f 213d 260c 00be d149 a03d
00000240: 2303 c43c 8cf6 b9bd 99c9 ebbb c113 ebbd
00000250: 76c7 1d3c decb 0f3d eea4 7abd b8a8 2e38
00000260: 65d3 aebd b7f1 083d 3d79 8ebd 0565 50bd
00000270: c282 193c d3b4 ba3d a7c3 9ebc 72e4 ccbc
00000280: f55b e23d e3df 87bd d463 a1bd 1127 84bd
00000290: a7d8 8abc 96b7 a33d c08c 813c 93d7 7d3d
000002a0: a7c8 823b 38bb 0f3c df1b 1f3d c7e4 cb3d
000002b0: df68 7c3d 0825 39bd 7e35 043e fc28 5ebe
000002c0: ddc3 173d fd46 943d 5b3a 053e a1e5 89bc
000002d0: df68 36be f373 41bc ae44 2bbe c772 90bd
000002e0: cf74 ce3d 31b4 d9bd dfe0 413d e498 433d
000002f0: 8b0d 3e3d 068f 143e ba41 653d e4b2 8bbd
00000300: 77a4 6f3e b9ef 153e 2a65 89bd 74b8 7d3c
00000310: c9f1 98bc 0fa3 133e 857c 693d 5a15 b83c
00000320: c8d7 8cbc c681 b4bd c79f aabd 4757 6c3d
00000330: 1009 013e 3891 13bd 02c5 e13d 43f5 0d3d
00000340: 819b ec3c 6c03 d9bb aeea 423d a524 5bbd
00000350: 7028 883c 50b8 01bc fe1c babd c0b2 593e
00000360: cf92 bf3d 122c e53d 45bd fbbd 8b41 613d
00000370: 9034 f83d b3cb 573d caab d53d 648c ce3d
00000380: 9a58 233d 01fc 47be bcba 04bd ca5d 883d
00000390: b31b 40be becc 463d 173e 04bd 988e 7cbd
000003a0: 95c8 143d ed63 98bd e828 053d ea29 55be
000003b0: e1e7 163e 277c d2ba 0a16 36bd bc78 18be
000003c0: 3a44 5eba f014 dd3d ffae 08be 7bb1 03be
000003d0: 014b cfbc 8fd6 463c 4a4e b63c 7503 38be
000003e0: ca6b 8f3e d6f5 003d ba4a b9bd 927a b0bd
000003f0: 7c14 503d 008c 71bd 2dcd f0bc 893d f83c
-0.11666458 -0.16546603 -0.04758109 -0.038023986 -0.0017916386 0.028681472 -0.13159233 -0.06338374
0.056548897 0.0041795876 -0.15992607 0.03817077 -0.038010802 -0.020899734 0.049800307 -0.08323232
-0.02699925 0.05071514 -0.0030163538 -0.07724735 -0.030900244 0.041370448 0.015799547 0.026739318
-0.07663184 0.23024736 -0.15013587 0.15235008 -0.21536857 0.18201342 -0.06997678 -0.09636399
0.026985122 -0.077593945 -0.036651693 -0.12811038 0.02186237 0.011954208 0.027694985 0.0040511186
-0.10795867 -0.016354427 0.07809741 0.14577074 -0.10228169 0.028143408 0.009227469 -0.13657536
-0.050069485 0.066460304 0.018905628 -0.18664654 -0.052420877 0.0102081 -0.123053744 -0.046657342
-0.0049864175 -0.053631693 0.0030941218 0.025977576 0.01702859 0.09934859 -0.027356835 -0.005631286
-0.115540326 -0.036794677 -0.27944237 -0.025999473 0.15302886 -0.07539718 0.01050444 -0.09631898
0.07328204 0.09120068 0.056224696 -0.102311105 0.08088552 0.009476646 -0.08955304 0.0077741705
0.010806614 0.0011943419 0.09176505 -0.024651174 0.08854707 0.14402191 0.06423076 0.14437419
-0.06099492 0.029158836 0.07242074 0.079650134 0.037517313 0.12687318 -0.010175524 0.01871058
0.09035761 0.0074373935 -0.074686706 0.09534767 0.12691715 -0.051412262 0.0352819 -0.009789576
-0.19612154 0.06333696 -0.069530964 -0.06741217 -0.052223817 0.05161053 -0.1050785 0.019367108
0.009976801 -0.117278256 -0.09653466 -0.12304346 0.20651947 0.14666288 -0.06694125 0.07477876
0.13610345 -0.0949121 0.053206123 -0.013118602 0.07273306 -0.21148136 0.00072091614 0.026428584
-0.10426834 0.019991849 0.07199773 -0.058396306 0.05715422 0.013744514 -0.13676493 -0.0794364
0.0790302 -0.0509999 0.12147547 0.14134562 -0.17329088 0.039443873 -0.12504634 0.07826579
0.023927277 -0.09080228 -0.007195663 -0.11478377 0.009630075 0.035106532 -0.061192445 4.1641964e-05
-0.08536414 0.033433642 -0.06956718 -0.05087759 0.009369554 0.09116521 -0.019380404 -0.025011275
0.11052696 -0.066345 -0.07880369 -0.06452764 -0.016949011 0.079940006 0.015814185 0.061973166
0.003991205 0.008772664 0.03884494 0.09955745 0.06162345 -0.04520133 0.1291103 -0.21695322
0.037052024 0.072401024 0.13010542 -0.016833128 -0.17813443 -0.01180743 -0.16725418 -0.07053142
0.10080873 -0.10630072 0.047333594 0.04775323 0.046399634 0.14507684 0.055970885 -0.0682123
0.23402582 0.14642228 -0.06708749 0.015485872 -0.01866998 0.1441767 0.057003517 0.022471119
-0.017192736 -0.08813815 -0.08331256 0.05770042 0.12601113 -0.036027163 0.110239044 0.034657728
0.028882744 -0.0066227224 0.04758709 -0.053501744 0.016620845 -0.007917479 -0.09087561 0.21259594
0.093541734 0.11190046 -0.1229196 0.054994147 0.121194005 0.052684497 0.10433157 0.10085371
0.03987942 -0.19529726 -0.032404646 0.06658514 -0.18760566 0.0485351 -0.032285776 -0.061659425
0.036324102 -0.07440934 0.032509714 -0.2081677 0.14736892 -0.0016058729 -0.04445461 -0.14889807
-0.00084787945 0.10795009 -0.13348006 -0.12860672 -0.02530432 0.012136116 0.022254128 -0.17970069
0.28011924 0.031484447 -0.09047456 -0.086171284 0.050800785 -0.058971405 -0.02939471 0.03030278

network_body._body_endoder.seq_layers.2.bias f4 [128]
00000000: 2f1c 033c 3c72 993b 1bb7 02bc 924b c23a
00000010: 5610 0bbb b8db 0f3b 3b80 52bb 597a 5fbb
00000020: eff6 a1bb 2987 0fbc 2fde 6eba 8fe7 91bb
00000030: 23f4 2e3a c30e c4bb 2de3 0fbb f055 1bba
00000040: 351e f4ba f21e f0bb 8a9e c1bb b855 92bb
00000050: 8214 72bb cf8d e038 d0b7 d4bb ac6c 4cb9
00000060: c507 a9bb 3b2b 8bbb 9d91 b0bb 7324 7739
00000070: 8b9c 45bb 115b f43b d2f4 93bb dba1 36ba
00000080: cf55 763b 0038 02bc eea8 babb dc5a d9bb
00000090: 3e57 a3bb c420 a6ba 57ee 5e3a 8550 d93a
000000a0: 47e6 a739 b321 4abb abe6 a1ba 96c6 823b
000000b0: 1d42 52ba b464 9abb 478e 733a c672 c3bb
000000c0: f8b1 e2bb 715c 99bb 946b 423b e964 ccba
000000d0: 9bf6 93ba c0fc ad3a d703 b93b 8d16 0ebb
000000e0: 91f8 9abb a088 78bb fbcd 26ba 8560 653b
000000f0: d82f 18bb 6ec3 4cba d295 d3bb 9ce2 c43b
00000100: 929b 16bc 0498 e3bb 73ff 19bc 55e8 36b9
00000110: b70e d23b d142 eabb d2e2 c6bb fe3c 8b38
00000120: 94af 23bb 4042 bb3a e50a b3b7 b4fa 4c3b
00000130: 357a 74bb f158 a6bb f299 51bb 06ee 8b3b
00000140: f04a d3bb 3d72 2c3b 5208 e9ba 49d3 f33a
00000150: bbd1 6a3a 8ba0 133b 5db6 97bb 1310 56ba
00000160: 9d88 9a3a 94d4 823b 1798 23bb 12bd debb
00000170: 5971 88bb d4c1 36bb 85ae f739 db6c a9bb
00000180: 10d8 ebbb d8db 6e3b 2327 a63a f815 a23b
00000190: 515e 8fbb 3a9a 08bc 5e8f cebb 3d86 a5bb
000001a0: 3202 27bc d2f0 593b 0ee3 89bb 5ab5 093a
000001b0: 3d50 7dbb aa7c daba 0c41 d136 418b 5d3a
000001c0: 9e3b 473b daec b33b 4373 0fbc c4c1 1f3c
000001d0: e696 773b c8e4 e93b 00ed fbbb 6919 67bb
000001e0: f941 07bc fca9 a53a b6c7 29bc 6664 5abb
000001f0: 2f9d 8039 5c80 87bb 9840 c7ba 8e76 7bbb
0.008002325 0.0046828073 -0.007978226 0.0014823547 -0.0021219454 0.002195103 -0.0032119888 -0.0034100024
-0.004942767 -0.008760252 -0.00091120874 -0.0044526528 0.00066739524 -0.005983205 -0.0021955476 -0.00059255864
-0.0018624725 -0.0073279077 -0.005908792 -0.004465785 -0.0036938493 0.00010707566 -0.0064916387 -0.0001949544
-0.005158397 -0.004247097 -0.005388452 0.00023569334 -0.0030153121 0.007457145 -0.004515269 -0.00069668674
0.0037587767 -0.007947922 -0.0056964075 -0.0066331457 -0.0049847653 -0.001267456 0.00085041433 0.0016579783
0.00032024292 -0.003084284 -0.001235207 0.0039909584 -0.0008020716 -0.004711712 0.00092909153 -0.00596461
-0.006918188 -0.0046802093 0.0029666172 -0.0015594038 -0.0011288704 0.0013274178 0.0056462097 -0.0021680922
-0.0047293385 -0.0037923232 -0.0006363091 0.0035000157 -0.0023221876 -0.0007811104 -0.006457069 0.0060084593
-0.009192364 -0.006945612 -0.009399283 -0.00017443423 0.0064104456 -0.0071490784 -0.0060695196 6.639397e-05
-0.002497648 0.0014286712 -2.1343536e-05 0.003127736 -0.0037304286 -0.0050765206 -0.0031982628 0.004270318
-0.006448142 0.0026313209 -0.0017778969 0.0018602397 0.0008957644 0.002252611 -0.0046298937 -0.00081658474
0.0011789982 0.0039926264 -0.0024962479 -0.0067974413 -0.0041639027 -0.0027886527 0.00047241538 -0.0051704473
-0.0071973875 0.0036446955 0.0012676459 0.0049464665 -0.004375257 -0.008337552 -0.006303712 -0.005051403
-0.0101933945 0.0033255112 -0.004207975 0.0005253159 -0.0038652562 -0.0016669233 6.236258e-06 0.00084512314
0.0030400525 0.0054908814 -0.008755508 0.009750787 0.0037779151 0.0071378686 -0.0076881647 -0.0035262948
-0.008255475 0.001263916 -0.010362556 -0.0033324002 0.00024531173 -0.0041351747 -0.0015201746 -0.0038370225

action_model._discrete_distribution.branches.0.weight f4 [2, 128]
00000000: 3f68 89bc d876 5b3c 476f 98bb 517a 3d3c
00000010: 2a68 60bc 5b17 e73c 191a 30ba b6d0 9fbb
00000020: 6398 92bb 3ef8 f23b cacb ca3c 1a67 9ebc
00000030: 5a66 3a3a 94af b1bb 36c0 61bc 5657 b0bc
00000040: 3c76 c5bb 1ba2 bf3a ffc6 2ebc 4366 c8bb
00000050: d2fb 30bc 93c1 543c c316 cbbc 6e76 06bc
00000060: 2b4b ffbb 5661 2dbc 15e2 8dba 3f72 50bc
00000070: b8fa c03c 550f 153c 2b61 4abc 39bc 9fbc
00000080: cd6d 6f3a a351 2fbc 0f1e 03bb a7b2 05bc
00000090: 4d76 24bc 6f64 29ba ff0c 86bb 1fdb b53b
000000a0: 584c 07bc 870f 19bc 3703 85bb be4a 95bc
000000b0: 3c9d 5dbc 5d7e 213a d3e8 31bc 0d9e 09bb
000000c0: 37e7 fd3b 42bb 41bc 91e6 6e3c 5986 4d3b
000000d0: cfd7 cf38 59e7 163c eabb 463c bbd6 783b
000000e0: 54ec babb 2a60 74bc 885d 6cbb ae45 2cbc
000000f0: 34b4 1abc c4dd 21bc f0d5 fabb 9d55 b0bc
00000100: 8426 b0bb 8127 74bc 6426 023b 464a f73b
00000110: dbc6 973c 8fc4 8a3b 8568 af3b a7df 9bbc
00000120: bdf2 cdbb e7ff 4fbc ba25 4b3c a55f 423c
00000130: 7bf2 a83b c4d8 5fbb 23c2 cf3b 96e1 33bc
00000140: 7ae4 5aba 9a4b 8c3c bb48 f7bb 5ec8 ae3b
00000150: 8654 7d3c b355 58bc 3f7a c13a d3ed 893a
00000160: 4105 32bc abba 8f3c 8d10 cc3b 1b5e f5bb
00000170: 14a1 58bc f29c 9e3b 90b7 4dbc 4fa6 23bc
00000180: 9cce 453b 8128 ddbc 341e d53a 1c27 373c
00000190: 1874 c3ba 7bd6 0bbc 4db6 94bc 40f3 10bc
000001a0: 00c1 ab3b ab5d 4fbc 0597 a1bc 4355 49bc
000001b0: f167 0c3c f7ec 313c 9018 4a3c fd2e c63b
000001c0: 0a75 a63c c60b 3e3c eff2 9ebc 7a53 fa3c
000001d0: 9b9a 2d3b 45f3 aa3c 1995 1abc c075 bbbc
000001e0: c1f6 093c 6839 143c a1e7 663b 5796 e23b
000001f0: 6e3d 93bc f319 29bc 7cca b2bc 945d 073b
00000200: 768f 4f3c bb8f 313c db66 d33b 2d7b a9bc
00000210: 2866 273c 107e 5ebc 0252 883b 4641 14bc
00000220: 4c23 b23b 97da 123c 5537 39bc d433 4e3c
00000230: 66a0 e6bc 1422 053c 2966 2d3b e0ab 27bb
00000240: 2556 89bc 92c0 9239 5856 943b adba 98bb
00000250: f073 62bb b336 b5ba bd28 653c 1e1c 68bc
00000260: 39dc 27bc 215c 6f3c 1126 9e3c 1b92 583c
00000270: 736a d63b 77cc 20bd 23eb dbb9 50ac fa3b
00000280: ca23 80bc b57e 3bba 4900 64bb 3efe debb
00000290: 6872 333c 06f1 7a3c 811b 8b3b 7429 fdbc
000002a0: 5fa6 303b 9783 59bc 7599 9e3c 8336 7e3c
000002b0: 1f86 d53b 02f6 1b3c 5ea1 b13b df0f 01b9
000002c0: 2d9a ee3b 13c5 813c 643a 2dbc 1bac a83b
000002d0: 4f62 1bbb 5a7c 3ebc 7b7d 11bc 7fcf 60bc
000002e0: 2443 643c 12b9 c93b d3f2 bdb9 62b9 a03c
000002f0: 348d 053c f7c3 04bc dda8 163c 6c7a 613c
00000300: 23ba 8d3c 009e 183c 94b2 663c b63b 2cbc
00000310: 2050 c2bc 9157 a9bb 32aa 533c e168 2abc
00000320: c4bb f33b e3c5 8a3b b66c b13b c47a a4bb
00000330: d031 f73c b9a0 083c a667 91bb 7007 b03b
00000340: 8ae8 f73b 74bb 83bc f3f0 923c 0b5e 76ba
00000350: d61d 15bc 4a33 b83c 3685 26bc 2b83 d8ba
00000360: d289 1c3c 32b0 2cbc 8f74 0bbc 2867 18bc
00000370: fd6d 363c 8b93 b93a e6bb ea3c 4316 1b3c
00000380: ce7b f1bb cb9a 073b 04c9 d83c e18e c5bc
00000390: 6dd2 1bbc 81ac 913c 4b64 c53c 6ae7 723c
000003a0: 8a39 3f3c 9048 7c3c 09ed 12bb e3fa 6f3c
000003b0: 9c0c 443c fd97 54bc b94d 4bbc 3869 a03b
000003c0: 8116 2cbc 2be7 51bc cfe3 8dba 540f 12bc
000003d0: 40c1 82bc 5679 b2bc 7a1d 89bb 04e8 f0ba
000003e0: 683d f1bb 313e 5e3b c824 063c 0523 a83b
000003f0: ddff 7e3c ebbb f03c 5667 ea3b 0284 6e3b
-0.016773341 0.013395034 -0.004651937 0.011564807 -0.01369671 0.028209379 -0.0006717756 -0.004877175
-0.0044737323 0.0074148467 0.024755377 -0.019336272 0.00071105885 -0.005422542 -0.013778737 -0.02152602
-0.0060260575 0.0014620455 -0.010667562 -0.006115706 -0.010802226 0.012985605 -0.024791127 -0.008206947
-0.007790943 -0.010582289 -0.0010824824 -0.012722551 0.023557052 0.009097894 -0.012352268 -0.019498931
0.0009133488 -0.010700616 -0.002000693 -0.00816027 -0.010037971 -0.0006461804 -0.0040909047 0.005549803
-0.008257948 -0.009342081 -0.004059221 -0.018224116 -0.013526257 0.0006160492 -0.010858732 -0.0020998747
0.00774851 -0.011824431 0.0145813385 0.0031360595 9.910727e-05 0.009210431 0.012129763 0.0037969786
-0.005704442 -0.014915505 -0.003606649 -0.01051466 -0.009442378 -0.009879533 -0.007654898 -0.021525199
-0.005375685 -0.014901997 0.0019859308 0.007546696 0.018527439 0.0042348574 0.005353036 -0.019027544
-0.00628504 -0.012695289 0.012399131 0.011863624 0.005155859 -0.0034156302 0.0063402816 -0.010979077
-0.00083500857 0.017125893 -0.007546512 0.005333944 0.0154620465 -0.013204026 0.0014761164 0.0010523148
-0.01086551 0.017545065 0.006227559 -0.007488025 -0.013221998 0.0048404867 -0.012555972 -0.0099883815
0.0030182963 -0.026996853 0.0016259612 0.011178758 -0.0014911918 -0.008535023 -0.018153334 -0.008847058
0.0052415133 -0.0126566095 -0.019725332 -0.012288394 0.008569703 0.0108597195 0.012334958 0.006048082
0.02031948 0.011599487 -0.01940295 0.030557383 0.0026489857 0.020867953 -0.009434962 -0.022883296
0.008420647 0.00904689 0.0035233276 0.0069148946 -0.017973628 -0.010321128 -0.021825068 0.0020655142
0.012668481 0.010837491 0.0064514703 -0.020688618 0.010217227 -0.01357986 0.0041601667 -0.0090487655
0.0054363366 0.008963249 -0.011304696 0.012585599 -0.028152656 0.008125801 0.0026458597 -0.0025584623
-0.01676471 0.00027990766 0.0045268945 -0.0046609254 -0.0034553967 -0.0013825506 0.013986764 -0.01416686
-0.010245376 0.014609368 0.01930526 0.013218428 0.0065434515 -0.039257493 -0.00041946126 0.007649936
-0.015642066 -0.00071523647 -0.003479021 -0.0068052104 0.01095257 0.0153162535 0.004245222 -0.030903555
0.0026954634 -0.013276002 0.019360283 0.015515926 0.0065162326 0.009519102 0.005420848 -0.00012308311
0.007281563 0.015841043 -0.010573003 0.0051474697 -0.002370972 -0.011626327 -0.0088800145 -0.013721346
0.013932023 0.0061560953 -0.00036229807 0.019619647 0.008151341 -0.008103362 0.009195534 0.013762098
0.017300671 0.009315014 0.014080662 -0.010512283 -0.023719847 -0.0051679094 0.012918996 -0.010400982
0.007438155 0.0042350157 0.0054145707 -0.0050195176 0.03017512 0.0083391005 -0.0044374047 0.0053719804
0.0075655626 -0.016080596 0.01793716 -0.0009398169 -0.009101352 0.022485394 -0.010163596 -0.0016518583
0.009554343 -0.010540055 -0.008511676 -0.009301938 0.011134622 0.0014158351 0.02865405 0.009465757
-0.007369495 0.002069163 0.02646304 -0.024115982 -0.009510619 0.017782452 0.024095675 0.014825681
0.011671433 0.01539816 -0.0022419116 0.014647218 0.011965897 -0.01297569 -0.012408667 0.0048953556
-0.010503412 -0.012811462 -0.0010825339 -0.008914787 -0.01596129 -0.021786373 -0.004184422 -0.0018379693
-0.0073620565 0.003391158 0.00818748 0.005131128 0.015563932 0.029386481 0.007153432 0.00363946

action_model._discrete_distribution.branches.0.bias f4 [2]
00000000: 8dd2 133c 91d2 13bc
0.009022367 -0.009022371

action_model._discrete_distribution.branches.1.weight f4 [19, 128]
00000000: 6794 c73b 2503 973a 5244 87bb 5d2a 633c
00000010: c9d3 8a3a 1a94 27bb 9c81 1f3c 5e9e dfbb
00000020: bae0 15bc ab72 003a a18a 853c 720b 60bc
00000030: 6aab ea3b 3a05 58bc 7e30 b5bb 53b3 db3a
00000040: ce01 53bb eea9 393b 3f70 babb 0579 08bb
00000050: 283f b93b 1d48 21ba eabc 343c de63 603a
00000060: 4913 e1bb 3209 523c bcae 423c 79a7 da3b
00000070: 8725 9d3c bee3 b9ba 3ae4 9a3b b138 50bc
00000080: 335a a8bc 3ac4 ab3a 4363 2a3b cdad 813b
00000090: ee69 a73b bb03 f1ba 4b7b 963b 45b2 5abb
000000a0: f7e7 19bb 4b84 aa3b d401 c1bb 9ed9 bd3b
000000b0: 3606 c23b 28cc 893b 1f7f 0abc ed32 173c
000000c0: 86de bfbb 67f9 84bb 5385 72bb 45e6 e8bb
000000d0: a2ff f2bb f659 ae3c 5110 20bc 6ba7 643c
000000e0: 0567 3dbc cd87 11bc 028a 9f3c 0d2b 10bc
000000f0: 47d9 76bc 2b10 b03b 9215 9cbc 0c16 19ba
00000100: 878e 783b 21f6 5eb9 8ecd 2e3a e94d 4637
00000110: dbd6 bdba 408e 83bc 5292 b6bb 9c06 0cbc
00000120: 47ae 09bc 981f 78bc fd39 c0bb ab1d fbba
00000130: d684 1f3b d8be a73b 5d9e 5a3c 72a1 efba
00000140: 9da1 3d3c 677b 63bb 5de9 aeba b516 11bc
00000150: ba0b 733b 6433 24bc 9a9a 83bc 5a04 283c
00000160: 1ae2 1cbb ca0a 903c a60e 293b 89f1 e9bb
00000170: 580d 75ba 9bf7 aa3b 73ef 7ebc 1604 5fba
00000180: 0187 9cba 1e18 0dbc 588d 7f3b 5b2b af3a
00000190: 7cec c3bb 211d 163b 8fcb bbbb b157 fcba
000001a0: 94ca 98bb b486 8cbb 5271 7e38 a6b2 41bc
000001b0: 3641 0bbc 95e4 87bc 6bec e9bb 0237 94bb
000001c0: 7909 fe3b 2aab 76bc 9246 de3b 36f0 513c
000001d0: 144d 443b ae3b 86bb 8c4e 643b 7265 233c
000001e0: fd67 8a3b 2300 013b 74a7 3ebc 4f92 dfba
000001f0: f13d d8bc 44db 663b 5a11 bcbb 0f53 d5bb
00000200: 65ea d93b d948 b1bb cf81 71bb 221b e7ba
00000210: 25a6 693b 11f7 a039 a390 dfbb 412a dbbc
00000220: a7b2 143c 92e2 813c 8ef2 93bc 44d5 49bb
00000230: 04b3 333c fe2a 583b 8d96 0abc 9267 573b
00000240: da0a dabb 6cc6 163c f7b1 613b e8c8 393c
00000250: a45d b6bb beb0 393c 2e55 65bb 2e83 b3bb
00000260: 0b24 6f3b 3c93 043b 30d3 433c 5533 5ebc
00000270: f234 833c 4b4b cebb 19e6 7e3c 2ba9 f1bb
00000280: 4d58 923b 2cea 59b9 c878 40bc 0fde 65bc
00000290: dfc0 2cbb dd25 6a3c f289 d8ba 6d36 4cbc
000002a0: 9bda 18bb bc32 fe3a ff8d ca3b c57b 73bc
000002b0: 5ba0 003c 1a68 243c c6ab d53a d1e7 e73b
000002c0: 0139 8cbb 42dc 12ba 3a64 08bb 3cac 1cbc
000002d0: e685 b0b9 6cd7 223b f988 70bc 14fa 1abc
000002e0: c645 443c e797 2c3b 4868 d6bb 3692 153c
000002f0: 197f 2cba 4d6b abbb e6f0 70bc 7b0a c43b
00000300: 0d04 1e3c 3989 a438 86e7 86bb ccd8 503b
00000310: dbd9 d4bb 65de a93c 6012 f2bb e380 b13b
00000320: bfb6 cabb cbe1 3bbc 6eab 8b3b c6aa ffbb
00000330: 4da1 e23b 2f2c 2fbc eb72 bdbb 9875 373c
00000340: 1813 4d3c db9c e4bb c769 efba 7467 b23b
00000350: 30e8 41bc a6c8 a0bb 1e2b c33b 9d44 c0b8
00000360: c304 e63b f238 95bb e3f7 133c aae1 f339
00000370: eda2 f43b d3c7 0ebc a34e f13a 93ac 05bb
00000380: 4aad 56bc 80e8 523a f04e 233c ec0c 5fbc
00000390: 890b bc3a 00ea b63a 3a22 ffbb 067a 603a
000003a0: 3855 e0bb 98db 7fbb c6bb 17bb 9663 2e3c
000003b0: 6012 04bb 6125 2bbc e254 8fbc 35d8 e33a
000003c0: bfe0 383b 8143 6f3b fad1 bf3b 293d 2f3c
000003d0: f72f 643c 6d3c b6ba e124 49bb 24d0 e0bb
000003e0: 15c1 20bc b928 b13a bb58 863a c9f3 cabb
000003f0: 5b27 88b8 bcd1 4c3c 327c 6c3c d98f b63b
0.006090689 0.0011521323 -0.0041280175 0.013865081 0.0010591681 -0.0025570453 0.009735491 -0.0068242988
-0.009147817 0.00048998994 0.016301455 -0.013674604 0.0071615474 -0.01318484 -0.0055294624 0.0016761817
-0.003219712 0.0028330046 -0.0056896503 -0.0020824086 0.0056532808 -0.00061524083 0.011031369 0.0008559803
-0.006868754 0.012819575 0.01188248 0.0066727963 0.019182933 -0.0014182252 0.0047269138 -0.012708829
-0.020550823 0.0013104745 0.0025999106 0.0039574862 0.0051090633 -0.0018387953 0.0045923344 -0.0033370417
-0.002348421 0.005203759 -0.0058901105 0.0057937643 0.0059211506 0.0042052455 -0.00845316 0.00922845
-0.0058553843 -0.0040580514 -0.0037005737 -0.0071075284 -0.0074157277 0.021283131 -0.009769515 0.013955931
-0.011560206 -0.008882475 0.019474987 -0.008799327 -0.015066451 0.005373021 -0.019053254 -0.0005839772
0.003792675 -0.0002126326 0.0006668203 1.18198595e-05 -0.0014483588 -0.016059041 -0.005571642 -0.008546498
-0.008403367 -0.015144251 -0.0058662877 -0.0019158622 0.002434065 0.005119186 0.013343421 -0.0018282367
0.011574176 -0.0034711005 -0.0013344694 -0.008855511 0.0037085847 -0.010022018 -0.01606493 0.010254944
-0.0023938478 0.01758327 0.0025796085 -0.007139389 -0.00093479967 0.005217505 -0.015560019 -0.0008507384
-0.001194209 -0.008611707 0.003899416 0.0013364361 -0.005979119 0.0022905546 -0.005731053 -0.0019252208
-0.004662821 -0.004288519 6.0663857e-05 -0.011822378 -0.008499434 -0.016588489 -0.007138779 -0.004523159
0.007752594 -0.015055457 0.006783315 0.012813618 0.0029953169 -0.00409647 0.0034836857 0.009972917
0.004223822 0.001968392 -0.011636604 -0.0017057153 -0.026396723 0.0035225907 -0.005739373 -0.0065101455
0.0066502565 -0.0054102954 -0.0036851054 -0.0017631988 0.0035652008 0.00030701657 -0.006822662 -0.026753547
0.009075797 0.015855107 -0.018059995 -0.0030797282 0.010967974 0.003298461 -0.008458746 0.003286813
-0.0066541256 0.009202581 0.003443835 0.011339404 -0.005565362 0.0113336425 -0.0034993398 -0.0054782843
0.003648999 0.002022936 0.0119522065 -0.013562043 0.016016457 -0.0062955967 0.015557789 -0.0073749027
0.0044660927 -0.00020781968 -0.0117475465 -0.014029994 -0.0026360077 0.014291254 -0.0016520603 -0.012464148
-0.0023323658 0.0019393782 0.006181478 -0.014861052 0.007850732 0.010034585 0.0016301803 0.007077195
-0.0042792563 -0.0005602279 -0.0020811693 -0.009562548 -0.00033669098 0.002484764 -0.014681094 -0.009459037
0.011979526 0.0026335658 -0.006543193 0.009129098 -0.00065802183 -0.005231297 -0.014705872 0.0059826947
0.0096445205 7.845689e-05 -0.004116955 0.0031867502 -0.006495697 0.020735929 -0.0073874444 0.005416976
-0.006186336 -0.011467407 0.0042623794 -0.00780234 0.006916201 -0.0106916865 -0.0057815216 0.01119747
0.012516759 -0.0069767064 -0.0018265777 0.0054444615 -0.011835143 -0.0049067317 0.0059560677 -9.168054e-05
0.0070196106 -0.0045539076 0.009031269 0.00046516705 0.0074657113 -0.008714634 0.0018410276 -0.0020397052
-0.013102839 0.00080455095 0.009967551 -0.013613921 0.00143467 0.0013955235 -0.0077860625 0.0008563105
-0.0068460964 -0.00390408 -0.0023152693 0.01064386 -0.0020152554 -0.010445924 -0.01749653 0.001738316
0.002821013 0.0036508741 0.0058538886 0.010695734 0.013927451 -0.0013903506 -0.0030692148 -0.00686075
-0.009811659 0.0013516165 0.0010249832 -0.0061936122 -6.492316e-05 0.012501176 0.014433907 0.005571347

action_model._discrete_distribution.branches.1.bias f4 [19]
00000000: de96 e83a fa7b 16bb fb1d 063a 8e27 6d3b
00000010: 049d 1bbb 1e3d 95bb 35a8 0ebc 3aaa 203b
00000020: 07a3 163b 5654 03bb bd01 10bc 336c 81bb
00000030: 67aa c53b 77a2 04bc 90d9 f0b8 6056 113c
00000040: 3316 ca3b a92f ed3b ffd5 913b
0.0017745157 -0.002296208 0.0005116162 0.0036186907 -0.0023744712 -0.004554405 -0.008707096 0.0024515525
0.0022985355 -0.0020039282 -0.008789477 -0.003949666 0.0060322764 -0.008095375 -0.00011484616 0.008870691
0.006167197 0.0072383475 0.004450559

action_model._discrete_distribution.branches.2.weight f4 [15, 128]
00000000: b672 6fbc 6823 2bbb 922f e6bb a8d9 273c
00000010: 4e4c f1bb 6700 18bc 9ae9 75ba 524b 05bc
00000020: 6ffa 08bc 08e0 6bbb 5536 3d3c 39c6 b9bb
00000030: 0d99 c63b 04ac e53a fdb8 99bb 710f 683c
00000040: c0a6 c43b cc4c ecba c464 8cbb f732 9ebb
00000050: 93e9 0dbb bb00 563c edc1 f8bc e9a7 90bc
00000060: 1b6f d93b 1c0e 04bc d4b4 90bc ae4c b33b
00000070: 54ff ba3a a23f 693c 30b5 54bc a54f 84bb
00000080: 06a1 6c3a e2a2 7dbc 9861 e03b c8e8 37bc
00000090: ca6a 663a f3b0 213c f29f 89bc aab1 df3b
000000a0: 3bed d0bb ae6d 5b3c 9402 95bb e943 273b
000000b0: d3aa bdbc 60a1 b2bb e3c1 233c a4d1 d0bb
000000c0: 35f1 f83b 820b d339 8015 e73b c234 4f3c
000000d0: 7e21 0a3c 1e03 633b e7a1 5b3b 3341 7abb
000000e0: 5274 f43a bf06 83bc e105 4abb 17a8 d3bb
000000f0: d908 7e3b 0e2d abbc 742b eabb 275a 0cbc
00000100: 2550 14bc 1e50 0abc e95e 6bbc e146 5dbc
00000110: 650d 5c3b d712 02bc 80fb 37ba 001a 8c3b
00000120: f4a3 e4bb 1ebd 903a f707 983a cc15 793c
00000130: caeb 3c3c 0ab8 393c f555 bfbc fa3d 7bbc
00000140: b23e fabb edd2 203c 41a7 04bc 3aa9 c43b
00000150: 9c50 c43b 990d 0f3b d57e 323c 84da 13bc
00000160: 6c6b 15bb 3243 2c3c 411e 643c 1804 21b9
00000170: 4b34 95bc f5e4 53bc b128 943b 1650 3e3a
00000180: 8fd7 283b 1180 b7bb fad5 e13b 7850 95ba
00000190: cd47 5fbb ecc2 03bc e9d9 2fbc 6fb6 9eba
000001a0: 846f c2bb 78bc 93bb 7722 87bc f25c 263b
000001b0: 22a0 ad3c 899b 2abc 13ac 0d3c 1318 a3bc
000001c0: b8ba a739 4c87 3b3c c8fd 8e3c 0d7c 153c
000001d0: 3fa0 ac3c ab9e 7a3c 361f 87b9 edf3 77bb
000001e0: de84 43bc e4c7 08bc f91d c7bb ccef 7dbb
000001f0: 32db 0cbc 1faa 07ba 2c41 2c3b fce6 86bc
00000200: 01ef 62ba c6ab 903b 7c8a aa3b 5017 143c
00000210: eb91 293a b029 e1ba b30b 96bc 5674 9436
00000220: dd51 30bc ce04 043c 7fee 5ebc 3a3f 0cbb
00000230: d8be 98bb bc52 2e3c 6bf1 a7ba eef9 093b
00000240: cd41 afbb cacf bfbb 59b5 ca39 a572 633c
00000250: 301e 213c 4d52 b9bb 0a08 12bc a3c8 453a
00000260: 1ad2 1abc e9cc 22bb da86 cfb8 29d7 aebc
00000270: ed93 02bc 27de 4a3c bfdb 99bc a04f 05bc
00000280: 28c3 52bc 2e33 16b9 e84d c2bc 987a 77bb
00000290: 83e8 72bc 8419 d43a 09a3 55bc 3fc3 573b
000002a0: d42e 3b3c e86d 943b 6666 5c3b 69f1 a23b
000002b0: 3fa4 52bc b8d5 693b 7986 dbbb c64f c23b
000002c0: e327 f1ba df8b 413c 23ba 4e3c a1ec 80bb
000002d0: 0363 5fbc 0b7d 32bc 9bc8 ac3b 16bc 4fba
000002e0: f65f ad3b 8f70 febb 8351 193b 8687 7bbb
000002f0: 9091 5e3c 66e5 a53b fa7c 57bb 9cf4 3ebb
00000300: 16cd 023c 1b68 fb3b f5fa 2ebc 7944 0f39
00000310: a968 c33b 022b ebbb 28f5 263b 55f0 213c
00000320: 0272 97ba 9ee6 f9bb 6682 433c e8b2 fd3b
00000330: e761 893a 1fa4 28bc aa16 873c 7816 68bb
00000340: 050e 993b 0547 2d3c cddb 19bc c37c dabb
00000350: c09d 583b d3c7 84bc 1c9f f13a cf0c 633c
00000360: 32bc d93a cd23 65bb 0ffb 653b 3264 813c
00000370: 13eb 9cb9 4874 a2bb ee8d e9bb 7f65 b03a
00000380: aead 073c 976f cfbb 6f19 823c 49ef 41bc
00000390: cacb 803a 4b7d 233c 9b2f 83bc 61a8 5ebc
000003a0: 99a8 a5bb 3929 26bb fda8 02bc 7608 17bc
000003b0: 1bb3 4d3c 911d 8e3c 4dfd c4bb d31a 103c
000003c0: c94f c63b 4d08 f239 d772 063b 24f6 633c
000003d0: e335 153b 4734 3c3b a387 0fbc f67e 0e3c
000003e0: 65d4 85ba 9445 23bc 28c0 2fbb 57ca 2bbb
000003f0: 48de ca3b 1d1c 1db7 1d40 6239 989e 85ba
-0.014614752 -0.0026113633 -0.007024714 0.010244764 -0.0073638326 -0.00927744 -0.00093808176 -0.008135634
-0.008360489 -0.0035991687 0.011548598 -0.005669382 0.0060607255 0.0017522578 -0.004691242 0.014163838
0.0060013235 -0.0018028258 -0.004284473 -0.004827853 -0.0021654114 0.013061698 -0.030365909 -0.01765819
0.0066355593 -0.008060005 -0.01766435 0.0054717874 0.0014266768 0.014236363 -0.012982652 -0.0040378147
0.000902668 -0.015480729 0.0068475716 -0.011224933 0.00087897165 0.009868848 -0.0167999 0.006826599
-0.0063759363 0.013392849 -0.0045474265 0.0025522655 -0.023152744 -0.0054513663 0.009994957 -0.0063726474
0.0075971135 0.0004025363 0.0070521235 0.012646856 0.008430837 0.003463931 0.003351325 -0.0038185834
0.0018650389 -0.015994428 -0.0030826258 -0.006459247 0.0038762598 -0.020895507 -0.0071462933 -0.008566416
-0.009052311 -0.008441953 -0.01436589 -0.013505668 0.003357732 -0.007939062 -0.00070183724 0.0042755604
-0.0069775525 0.001104269 0.0011599053 0.015202951 0.011530826 0.011335382 -0.023356417 -0.015334601
-0.0076368684 0.009815914 -0.008096517 0.0060016187 0.0059910547 0.0021828173 0.010894497 -0.009024266
-0.0022799624 0.0105140675 0.013923229 -0.00015355682 -0.018213412 -0.012933006 0.0045214524 0.00072598585
0.0025763249 -0.0055999835 0.006891963 -0.0011391779 -0.0034069896 -0.008042078 -0.010733106 -0.0012108813
-0.005933704 -0.004508551 -0.016495926 0.002538499 0.021194521 -0.010413059 0.008646983 -0.01990894
0.00031991838 0.0114458315 0.017454997 0.009123814 0.021072505 0.015296618 -0.0002577246 -0.00378346
-0.0119335335 -0.008348439 -0.006076571 -0.0038747666 -0.008597182 -0.00051751913 0.0026283963 -0.016467564
-0.000865683 0.0044150082 0.005204497 0.009038761 0.0006468582 -0.0017178562 -0.018316125 4.424287e-06
-0.010761705 0.008057786 -0.013606667 -0.002139999 -0.004661422 0.010639843 -0.0012813037 0.002105351
-0.0053484202 -0.005853628 0.00038663557 0.013882314 0.009833857 -0.005655563 -0.0089130495 0.0007544851
-0.009449506 -0.0024841374 -9.895647e-05 -0.02134283 -0.007969839 0.012382067 -0.01878154 -0.00813666
-0.012863912 -0.0001432418 -0.02371879 -0.003776228 -0.014825943 0.0016181921 -0.013039359 0.0032922772
0.011424739 0.0045297034 0.003363037 0.004972626 -0.012856542 0.0035680365 -0.00669938 0.00592992
-0.0018398728 0.011813133 0.012617621 -0.0039344584 -0.013634446 -0.01089407 0.0052729375 -0.00079244503
0.0052909805 -0.007764883 0.0023394532 -0.0038380339 0.0135845095 0.005062747 -0.0032880888 -0.0029137498
0.007983467 0.0076723224 -0.01067995 0.00013663051 0.005963404 -0.007176758 0.0025475714 0.00988396
-0.0011554363 -0.0076263687 0.011932945 0.0077422746 0.0010481448 -0.010293036 0.0164903 -0.0035413783
0.0046708607 0.010576014 -0.0093907835 -0.006667705 0.003305301 -0.016208565 0.0018434259 0.013858034
0.0016611873 -0.0034963966 0.003509227 0.015794847 -0.00029929783 -0.0049577095 -0.007127515 0.0013457983
0.008281155 -0.006330441 0.015881268 -0.011836835 0.0009826359 0.009978603 -0.016013911 -0.013589949
-0.005055499 -0.002535416 -0.00797486 -0.009218326 0.012554909 0.017348083 -0.006011641 0.008795458
0.0060519916 0.00046164021 0.0020515227 0.013913665 0.0022767715 0.0028717683 -0.008760366 0.008697262
-0.0010210393 -0.009965319 -0.0026817415 -0.0026213133 0.006191049 -9.364475e-06 0.00021576924 -0.0010194359

action_model._discrete_distribution.branches.2.bias f4 [15]
00000000: 9603 8c3b 5e35 383a 9105 823b a7e0 b3b9
00000010: 152c 823a 4326 30bb 1e4b 73bb 756e 983a
00000020: f8fe 7cbb 14ac 5ab9 2a03 66bb 94eb a43a
00000030: a676 0ebc 112a f5ba f2f8 703c
0.0042728884 0.00070269953 0.0039679487 -0.0003430892 0.000993135 -0.0026878275 -0.003712363 0.0011629598
-0.0038604122 -0.00020854204 -0.00350971 0.0012582415 -0.00869528 -0.0018704553 0.014707791

exp_avg f4 [128, 78]
00000000: 0d55 f034 1c14 00b5 a23b c7b4 1c14 00b5
00000010: 7dc5 aab4 1c14 00b5 364f 8eb4 1c14 00b5
00000020: e4b1 6334 e4b1 e3b4 e4b1 6334 e4b1 e3b4
00000030: 364f 8e34 a23b c7b4 e4b1 e3b3 a23b c7b4
00000040: e4b1 63b3 a23b c7b4 0000 0000 a23b c7b4
00000050: e4b1 6333 7dc5 aab4 a23b c7b4 7dc5 aab4
00000060: e4b1 e3b3 364f 8eb4 a23b c7b4 364f 8eb4
00000070: 7dc5 aab4 e4b1 63b4 e4b1 6334 7dc5 2ab4
00000080: e4b1 63b4 7dc5 2ab4 7dc5 2ab4 7dc5 2ab4
00000090: 7dc5 2a34 7dc5 2ab4 e4b1 6334 e4b1 e3b3
000000a0: e4b1 63b4 e4b1 e3b3 7dc5 2ab4 e4b1 e3b3
000000b0: 7dc5 2a34 e4b1 6333 364f 8eb4 e4b1 6333
000000c0: e4b1 63b4 e4b1 e333 364f 8eb4 e4b1 e333
000000d0: e4b1 e333 7dc5 2a34 364f 8eb4 7dc5 2a34
000000e0: e4b1 e333 e4b1 6334 e4b1 6333 e4b1 6334
000000f0: e4b1 e333 e4b1 6334 364f 8e34 364f 8e34
00000100: a23b c7b4 364f 8e34 7dc5 aab4 364f 8e34
00000110: 364f 8e34 7dc5 aa34 7dc5 2ab4 a23b c734
00000120: 7dc5 2ab4 a23b c734 e4b1 e3b3 a23b c734
00000130: e4b1 63b3 d34d ddb2 a95f 4b38 6b2e 58b8
00000140: 1e24 28b8 6b2e 58b8 f71e 10b8 6b2e 58b8
00000150: a533 f0b7 6b2e 58b8 3e29 c037 3e29 40b8
00000160: 3e29 c037 3e29 40b8 a533 f037 1e24 28b8
00000170: 3e29 40b7 1e24 28b8 3e29 c0b6 1e24 28b8
00000180: 0000 0000 1e24 28b8 3e29 c036 f71e 10b8
00000190: 1e24 28b8 f71e 10b8 3e29 40b7 a533 f0b7
000001a0: 1e24 28b8 a533 f0b7 f71e 10b8 3e29 c0b7
000001b0: 3e29 c037 f71e 90b7 3e29 c0b7 f71e 90b7
000001c0: f71e 90b7 f71e 90b7 f71e 9037 f71e 90b7
000001d0: 3e29 c037 3e29 40b7 3e29 c0b7 3e29 40b7
000001e0: f71e 90b7 3e29 40b7 f71e 9037 3e29 c036
000001f0: a533 f0b7 3e29 c036 3e29 c0b7 3e29 4037
00000200: a533 f0b7 3e29 4037 3e29 4037 f71e 9037
00000210: a533 f0b7 f71e 9037 3e29 4037 3e29 c037
00000220: 3e29 c036 3e29 c037 3e29 4037 3e29 c037
00000230: a533 f037 a533 f037 1e24 28b8 a533 f037
00000240: f71e 10b8 a533 f037 a533 f037 f71e 1038
00000250: f71e 90b7 1e24 2838 f71e 90b7 1e24 2838
00000260: 3e29 40b7 1e24 2838 3e29 c0b6 81e4 34b6
00000270: 8f0e 1239 9a5b 33b9 1c80 0bb9 9a5b 33b9
00000280: c424 efb8 9a5b 33b9 5049 c7b8 9a5b 33b9
00000290: d66d 9f38 d66d 1fb9 d66d 9f38 d66d 1fb9
000002a0: 5049 c738 1c80 0bb9 d66d 1fb8 1c80 0bb9
000002b0: d66d 9fb7 1c80 0bb9 0000 0000 1c80 0bb9
000002c0: d66d 9f37 c424 efb8 1c80 0bb9 c424 efb8
000002d0: d66d 1fb8 5049 c7b8 1c80 0bb9 5049 c7b8
000002e0: c424 efb8 d66d 9fb8 d66d 9f38 c424 6fb8
000002f0: d66d 9fb8 c424 6fb8 c424 6fb8 c424 6fb8
00000300: c424 6f38 c424 6fb8 d66d 9f38 d66d 1fb8
00000310: d66d 9fb8 d66d 1fb8 c424 6fb8 d66d 1fb8
00000320: c424 6f38 d66d 9f37 5049 c7b8 d66d 9f37
00000330: d66d 9fb8 d66d 1f38 5049 c7b8 d66d 1f38
00000340: d66d 1f38 c424 6f38 5049 c7b8 c424 6f38
00000350: d66d 1f38 d66d 9f38 d66d 9f37 d66d 9f38
00000360: d66d 1f38 d66d 9f38 5049 c738 5049 c738
00000370: 1c80 0bb9 5049 c738 c424 efb8 5049 c738
00000380: 5049 c738 c424 ef38 c424 6fb8 1c80 0b39
00000390: c424 6fb8 1c80 0b39 d66d 1fb8 1c80 0b39
000003a0: d66d 9fb7 9481 2cb7 64b4 8bb5 b4ec 2b36
000003b0: 09b8 0536 b4ec 2b36 6e3b e535 b4ec 2b36
000003c0: fd06 bf35 b4ec 2b36 62d2 98b5 62d2 1836
000003d0: 62d2 98b5 62d2 1836 fd06 bfb5 09b8 0536
000003e0: 62d2 1835 09b8 0536 62d2 9834 09b8 0536
000003f0: 0000 0000 09b8 0536 62d2 98b4 6e3b e535
4.4765366e-07 -4.771298e-07 -3.7110027e-07 -4.771298e-07 -3.180866e-07 -4.771298e-07 -2.6507195e-07 -4.771298e-07
2.1205739e-07 -4.2411477e-07 2.1205739e-07 -4.2411477e-07 2.6507195e-07 -3.7110027e-07 -1.0602869e-07 -3.7110027e-07
-5.3014347e-08 -3.7110027e-07 0.0 -3.7110027e-07 5.3014347e-08 -3.180866e-07 -3.7110027e-07 -3.180866e-07
-1.0602869e-07 -2.6507195e-07 -3.7110027e-07 -2.6507195e-07 -3.180866e-07 -2.1205739e-07 2.1205739e-07 -1.590433e-07
-2.1205739e-07 -1.590433e-07 -1.590433e-07 -1.590433e-07 1.590433e-07 -1.590433e-07 2.1205739e-07 -1.0602869e-07
-2.1205739e-07 -1.0602869e-07 -1.590433e-07 -1.0602869e-07 1.590433e-07 5.3014347e-08 -2.6507195e-07 5.3014347e-08
-2.1205739e-07 1.0602869e-07 -2.6507195e-07 1.0602869e-07 1.0602869e-07 1.590433e-07 -2.6507195e-07 1.590433e-07
1.0602869e-07 2.1205739e-07 5.3014347e-08 2.1205739e-07 1.0602869e-07 2.1205739e-07 2.6507195e-07 2.6507195e-07
-3.7110027e-07 2.6507195e-07 -3.180866e-07 2.6507195e-07 2.6507195e-07 3.180866e-07 -1.590433e-07 3.7110027e-07
-1.590433e-07 3.7110027e-07 -1.0602869e-07 3.7110027e-07 -5.3014347e-08 -2.5763176e-08 4.8488062e-05 -5.1541643e-05
-4.0087958e-05 -5.1541643e-05 -3.4361114e-05 -5.1541643e-05 -2.8634278e-05 -5.1541643e-05 2.2907388e-05 -4.5814777e-05
2.2907388e-05 -4.5814777e-05 2.8634278e-05 -4.0087958e-05 -1.1453694e-05 -4.0087958e-05 -5.726847e-06 -4.0087958e-05
0.0 -4.0087958e-05 5.726847e-06 -3.4361114e-05 -4.0087958e-05 -3.4361114e-05 -1.1453694e-05 -2.8634278e-05
-4.0087958e-05 -2.8634278e-05 -3.4361114e-05 -2.2907388e-05 2.2907388e-05 -1.7180557e-05 -2.2907388e-05 -1.7180557e-05
-1.7180557e-05 -1.7180557e-05 1.7180557e-05 -1.7180557e-05 2.2907388e-05 -1.1453694e-05 -2.2907388e-05 -1.1453694e-05
-1.7180557e-05 -1.1453694e-05 1.7180557e-05 5.726847e-06 -2.8634278e-05 5.726847e-06 -2.2907388e-05 1.1453694e-05
-2.8634278e-05 1.1453694e-05 1.1453694e-05 1.7180557e-05 -2.8634278e-05 1.7180557e-05 1.1453694e-05 2.2907388e-05
5.726847e-06 2.2907388e-05 1.1453694e-05 2.2907388e-05 2.8634278e-05 2.8634278e-05 -4.0087958e-05 2.8634278e-05
-3.4361114e-05 2.8634278e-05 2.8634278e-05 3.4361114e-05 -1.7180557e-05 4.0087958e-05 -1.7180557e-05 4.0087958e-05
-1.1453694e-05 4.0087958e-05 -5.726847e-06 -2.6955097e-06 0.00013929069 -0.00017104895 -0.00013303797 -0.00017104895
-0.00011403256 -0.00017104895 -9.502715e-05 -0.00017104895 7.602169e-05 -0.00015204339 7.602169e-05 -0.00015204339
9.502715e-05 -0.00013303797 -3.8010847e-05 -0.00013303797 -1.9005423e-05 -0.00013303797 0.0 -0.00013303797
1.9005423e-05 -0.00011403256 -0.00013303797 -0.00011403256 -3.8010847e-05 -9.502715e-05 -0.00013303797 -9.502715e-05
-0.00011403256 -7.602169e-05 7.602169e-05 -5.701628e-05 -7.602169e-05 -5.701628e-05 -5.701628e-05 -5.701628e-05
5.701628e-05 -5.701628e-05 7.602169e-05 -3.8010847e-05 -7.602169e-05 -3.8010847e-05 -5.701628e-05 -3.8010847e-05
5.701628e-05 1.9005423e-05 -9.502715e-05 1.9005423e-05 -7.602169e-05 3.8010847e-05 -9.502715e-05 3.8010847e-05
3.8010847e-05 5.701628e-05 -9.502715e-05 5.701628e-05 3.8010847e-05 7.602169e-05 1.9005423e-05 7.602169e-05
3.8010847e-05 7.602169e-05 9.502715e-05 9.502715e-05 -0.00013303797 9.502715e-05 -0.00011403256 9.502715e-05
9.502715e-05 0.00011403256 -5.701628e-05 0.00013303797 -5.701628e-05 0.00013303797 -3.8010847e-05 0.00013303797
-1.9005423e-05 -1.0282169e-05 -1.0408808e-06 2.5618765e-06 1.9925667e-06 2.5618765e-06 1.7079126e-06 2.5618765e-06
1.4232643e-06 2.5618765e-06 -1.1386112e-06 2.2772224e-06 -1.1386112e-06 2.2772224e-06 -1.4232643e-06 1.9925667e-06
5.693056e-07 1.9925667e-06 2.846528e-07 1.9925667e-06 0.0 1.9925667e-06 -2.846528e-07 1.7079126e-06
