FYPprototype/results/SpawnLocationTest1/AIBalancing/AIBalancing-211.pt (torch, 239591 bytes, 16 tensors)

discrete_act_size_vector f4 [1, 3]
2.0 19.0 14.0
00000000: 0000 0040 0000 9841 0000 6041

network_body._body_endoder.seq_layers.0.weight f4 [128, 76]
-0.04367148 -0.08431719 0.07702856 -0.10600152 0.047324568 -0.04096211 -0.013240047 -0.040250663
-0.20692833 -0.1324706 0.20183107 -0.03224385 0.109138355 -0.2762503 -0.12177969 -0.022093333
-0.14373752 -0.040259194 -0.05213928 -0.037809253 0.050861742 -0.028087288 0.11052435 0.04765946
-0.30399093 0.11612271 -0.052275002 -0.096344665 -0.13177681 0.18708245 -0.09449274 0.1875205
-0.17399023 0.08193058 -0.07137183 0.09943619 0.13065319 0.13930118 0.0067508747 0.0005682264
0.0034828552 0.051485848 0.004834968 -0.072222196 0.1840942 -0.13082793 0.16532643 -0.026533622
-0.026315993 -0.11984022 -0.03859727 -0.16821057 0.081082344 -0.026822206 0.058195207 0.009673364
-0.06314385 -0.18266083 0.018488718 0.06303268 -0.23941892 0.08544636 -0.10722905 0.08443571
-0.088094465 -0.029141018 0.015214932 -0.042150117 -0.36301693 -0.2716331 -0.02835988 0.10703319
0.00067965593 -0.22958952 0.07463476 0.030618843 0.091553666 0.051141355 0.11167368 -0.017654903
0.029315293 -0.06906923 -0.026756557 0.22397009 0.043379378 -0.101949036 -0.07804363 -0.17637716
0.2712731 -0.08299654 -0.061726134 0.124115385 -0.110190615 0.021299724 -0.08416599 -0.02604763
-0.09160884 -0.05182681 0.033788048 0.13406178 0.117013864 0.041657586 -0.24051237 0.15141761
-0.04280483 0.018299999 0.0331357 0.04858479 0.012902427 0.03687791 -0.12169356 0.11852228
0.12831257 -0.09943877 0.06504015 0.105184354 -0.037573554 -0.12930012 0.099784724 -0.20297782
0.00023393043 -0.15222353 -0.026849532 0.0042450307 0.2176235 0.085562505 0.09947562 -0.18136808
0.057975736 -0.090289645 -0.14360787 0.2315427 -0.0016714283 -0.11822873 -0.059501227 0.021168653
-0.10031692 0.03042741 0.06521333 -0.07428887 0.0021536336 0.29484317 0.14846537 0.013292432
0.048662793 0.06940813 0.021041818 -0.22004369 0.123059176 0.14852166 -0.23752432 0.017424062
-0.0051128925 -0.076432146 -0.009620062 -0.009596852 0.11862972 0.13766477 -0.09680667 0.059570014
0.011065951 0.053159032 0.037877057 0.056835607 0.23514868 0.11273724 -0.15088539 0.18509644
-0.0054935925 0.00710322 0.10128891 0.2792586 0.089170545 0.07838074 0.057529572 0.20471404
0.064406104 0.03217373 -0.17041382 0.059501745 -0.039708965 0.053903267 0.00065461505 -0.016120415
-0.2474092 0.00968853 0.09488961 -0.042918727 0.13152036 -0.12822248 0.15767796 0.036340196
-0.33224428 0.10772964 0.19278188 0.120182306 0.061558627 -0.111819066 0.049623426 0.055496912
-0.07441743 0.028340947 -0.22043297 -0.048830498 0.19181941 0.03521209 0.013782272 0.022048071
0.06480917 0.11344803 0.25597876 -0.33780855 -0.106593765 0.09126248 0.042139716 -0.033202074
0.13496067 0.014946356 0.20533124 -0.106274344 -0.21524048 -0.00929968 0.13486095 0.11596434
-0.07646499 0.014559086 -0.15952851 -0.09596736 -0.038842697 0.07975225 0.13615534 -0.16700327
0.015265798 -0.05527135 0.06323398 -0.058005195 -0.054144934 0.07288315 0.032811128 -0.030617239
-0.15565741 -0.1324228 -0.035960168 0.2506281 0.008481278 -0.12026594 -0.015732834 -0.048330568
0.15878735 0.067696504 -0.080862686 0.14692442 -0.0014900344 0.06347671 0.0067966282 0.090891205
00000000: dee0 32bd 7eae acbd 26c1 9d3d 5317 d9bd
00000010: 68d7 413d e3c7 27bd c8ec 58bc e1dd 24bd
00000020: 05e5 53be 5fa6 07be ceac 4e3e 2112 04bd
00000030: ee83 df3d ae70 8dbe a167 f9bd 14fd b4bc
00000040: ee2f 13be d3e6 24bd ff8f 55bd e0dd 1abd
00000050: 6754 503d 5017 e6bc 975a e23d 9136 433d
00000060: b3a4 9bbe bed1 ed3d 501e 56bd 5a50 c5bd
00000070: 80f0 06be 8b92 3f3e 6985 c1bd 6005 403e
00000080: 7f2a 32be 38cb a73d 652b 92bd 34a5 cb3d
00000090: f3c9 053e f8a4 0e3e 7136 dd3b 07f5 143a
000000a0: 9d40 643b d3e2 523d a76e 9e3b 3be9 93bd
000000b0: 3183 3c3e c2f7 05be 554b 293e 0a5d d9bc
000000c0: a394 d7bc ca6e f5bd 2c18 1ebd 643f 2cbe
000000d0: 800e a63d 3eba dbbc 195e 6e3d 087d 1e3c
000000e0: 9051 81bd 710b 3bbe a775 973c 4717 813d
000000f0: 3c2a 75be 80fe ae3d e79a dbbd a1ec ac3d
00000100: df6a b4bd 25b9 eebc 0d48 793c 9aa5 2cbd
00000110: 5bdd b9be 7e13 8bbe fb52 e8bc 3834 db3d
00000120: f02a 323a 8419 6bbe 1cda 983d 5ed4 fa3c
00000130: 7d80 bb3d 9979 513d 2cb5 e43d 04a1 90bc
00000140: a026 f03c 2b74 8dbd 9130 dbbc 6a58 653e
00000150: 93ae 313d a8ca d0bd 57d5 9fbd 379c 34be
00000160: 4fe4 8a3e 17fa a9bd 8bd4 7cbd 3530 fe3d
00000170: 9eab e1bd c27c ae3c 385f acbd d761 d5bc
00000180: 6a9d bbbd 5948 54bd 5665 0a3d 7e47 093e
00000190: f7a4 ef3d 25a1 2a3d e048 76be 380d 1b3e
000001a0: 1e54 2fbd e1e9 953c 4db9 073d d800 473d
000001b0: b464 533c 4b0d 173d 793a f9bd cfbb f23d
000001c0: 5f64 033e 8ea6 cbbd c533 853d e56a d73d
000001d0: bae6 19bd 4067 04be ef5b cc3d 6bd9 4fbe
000001e0: 394b 7539 7ce0 1bbe 8df3 dbbc e619 8b3b
000001f0: b2d8 5e3e 653b af3d e0b9 cb3d 8eb8 39be
00000200: f777 6d3d c7e9 b8bd f10d 13be 8819 6d3e
00000210: d413 dbba e821 f2bd 8fb7 73bd e269 ad3c
00000220: f572 cdbd e742 f93c 918e 853d c324 98bd
00000230: fa23 0d3b aff5 963e 4e07 183e 80c8 593c
00000240: a352 473d da25 8e3d e45f ac3c 2253 61be
00000250: 7306 fc3d 1016 183e 9339 73be e8bc 8e3c
00000260: 0d8a a7bb 7588 9cbd 779d 1dbc 1d3c 1dbc
00000270: 23f4 f23d fef7 0c3e 9342 c6bd b0ff 733d
00000280: f64d 353c 49bd 593d f924 1b3d 74cc 683d
00000290: d1ca 703e c8e2 e63d b381 1abe ec89 3d3e
000002a0: 9803 b4bb 21c2 e83b 8f70 cf3d fcfa 8e3e
000002b0: 0c9f b63d 1586 a03d 21a4 6b3d 8fa0 513e
000002c0: 59e7 833d 9ac8 033d f680 2ebe 1ab8 733d
000002d0: dea5 22bd acc9 5c3d 799a 2b3a f60e 84bc
000002e0: d658 7dbe a4bc 1e3c 7c55 c23d 8ccb 2fbd
000002f0: 46ad 063e c14c 03be 5576 213e 75d9 143d
00000300: ec1b aabe 5ca1 dc3d 9d68 453e 2422 f63d
00000310: e624 7c3d 6501 e5bd ef41 4b3d bb50 633d
00000320: 2a68 98bd 462b e83c 2eb9 61be 7d02 48bd
00000330: 4f6c 443e 8d3a 103d 0acf 613c 289e b43c
00000340: acba 843d 7157 e83d a60f 833e 3ef5 acbe
00000350: d54d dabd d3e7 ba3d b29a 2c3d e6fe 07bd
00000360: 2133 0a3e 90e1 743c 5a42 523e 5da6 d9bd
00000370: 0068 5cbe af5d 18bc fd18 0a3e b67e ed3d
00000380: ad99 9cbd 3c89 6e3c 715b 23be 898a c4bd
00000390: 8519 1fbd 2655 a33d 4e6c 0b3e e802 2bbe
000003a0: 661d 7a3c 3664 62bd d180 813d db96 6dbd
000003b0: 14c7 5dbd c343 953d f664 063d 01d1 fabc
000003c0: a864 1fbe d899 07be f84a 13bd 5452 803e
000003d0: 0ff5 0a3c fd4d f6bd 25e2 80bc 46f6 45bd
000003e0: 2799 223e 77a4 8a3d 569b a5bd 5b73 163e
000003f0: 424d c3ba 1400 823d 40b6 de3b 2b25 ba3d

network_body._body_endoder.seq_layers.0.bias f4 [128]
0.0 0.0 0.0 0.0 0.0 0.0 0.0 0.0
0.0 0.0 0.0 0.0 0.0 0.0 0.0 0.0
0.0 0.0 0.0 0.0 0.0 0.0 0.0 0.0
0.0 0.0 0.0 0.0 0.0 0.0 0.0 0.0
0.0 0.0 0.0 0.0 0.0 0.0 0.0 0.0
0.0 0.0 0.0 0.0 0.0 0.0 0.0 0.0
0.0 0.0 0.0 0.0 0.0 0.0 0.0 0.0
0.0 0.0 0.0 0.0 0.0 0.0 0.0 0.0
0.0 0.0 0.0 0.0 0.0 0.0 0.0 0.0
0.0 0.0 0.0 0.0 0.0 0.0 0.0 0.0
0.0 0.0 0.0 0.0 0.0 0.0 0.0 0.0
0.0 0.0 0.0 0.0 0.0 0.0 0.0 0.0
0.0 0.0 0.0 0.0 0.0 0.0 0.0 0.0
0.0 0.0 0.0 0.0 0.0 0.0 0.0 0.0
0.0 0.0 0.0 0.0 0.0 0.0 0.0 0.0
0.0 0.0 0.0 0.0 0.0 0.0 0.0 0.0
00000000: 0000 0000 0000 0000 0000 0000 0000 0000
00000010: 0000 0000 0000 0000 0000 0000 0000 0000
00000020: 0000 0000 0000 0000 0000 0000 0000 0000
00000030: 0000 0000 0000 0000 0000 0000 0000 0000
00000040: 0000 0000 0000 0000 0000 0000 0000 0000
00000050: 0000 0000 0000 0000 0000 0000 0000 0000
00000060: 0000 0000 0000 0000 0000 0000 0000 0000
00000070: 0000 0000 0000 0000 0000 0000 0000 0000
00000080: 0000 0000 0000 0000 0000 0000 0000 0000
00000090: 0000 0000 0000 0000 0000 0000 0000 0000
000000a0: 0000 0000 0000 0000 0000 0000 0000 0000
000000b0: 0000 0000 0000 0000 0000 0000 0000 0000
000000c0: 0000 0000 0000 0000 0000 0000 0000 0000
000000d0: 0000 0000 0000 0000 0000 0000 0000 0000
000000e0: 0000 0000 0000 0000 0000 0000 0000 0000
000000f0: 0000 0000 0000 0000 0000 0000 0000 0000
00000100: 0000 0000 0000 0000 0000 0000 0000 0000
00000110: 0000 0000 0000 0000 0000 0000 0000 0000
00000120: 0000 0000 0000 0000 0000 0000 0000 0000
00000130: 0000 0000 0000 0000 0000 0000 0000 0000
00000140: 0000 0000 0000 0000 0000 0000 0000 0000
00000150: 0000 0000 0000 0000 0000 0000 0000 0000
00000160: 0000 0000 0000 0000 0000 0000 0000 0000
00000170: 0000 0000 0000 0000 0000 0000 0000 0000
00000180: 0000 0000 0000 0000 0000 0000 0000 0000
00000190: 0000 0000 0000 0000 0000 0000 0000 0000
000001a0: 0000 0000 0000 0000 0000 0000 0000 0000
000001b0: 0000 0000 0000 0000 0000 0000 0000 0000
000001c0: 0000 0000 0000 0000 0000 0000 0000 0000
000001d0: 0000 0000 0000 0000 0000 0000 0000 0000
000001e0: 0000 0000 0000 0000 0000 0000 0000 0000
000001f0: 0000 0000 0000 0000 0000 0000 0000 0000

network_body._body_endoder.seq_layers.2.weight f4 [128, 128]
0.03201699 0.21119541 -0.13934213 0.12287925 -0.06366291 -0.09860758 -0.061997756 -0.09654976
-0.021238495 -0.10854686 -0.074354425 0.031811647 0.038740486 0.024658376 -0.016674306 -0.004463581
0.03694342 -0.1090228 -0.0437543 0.18678492 0.032193612 0.09632445 -0.19783366 -0.02190755
-0.0585195 0.08881855 0.13908173 0.075895876 0.016357979 -0.12295008 -0.12134755 -0.0017562025
0.020084132 -0.11790086 -0.10925618 0.009057037 0.06066434 -0.08478446 0.23706068 0.037807554
0.002517632 -0.15088727 0.037358023 0.05016976 0.009149976 -0.059714027 0.05610234 -0.07272813
-0.15292238 0.02545751 0.06060669 -0.044172365 0.0016391551 0.015002871 0.13381086 -0.09903893
-0.11003382 -0.056952808 0.06555694 0.10512827 0.012308073 -0.13612182 -0.11858488 -0.06180899
0.027339967 -0.07615482 0.077789284 -0.005908748 0.042134646 -0.017990766 -0.10985016 0.0740397
-0.03163252 -0.11560383 -0.11343665 -0.07463649 -0.2244952 -0.044974554 -0.03612998 -0.116054274
0.11035415 -0.036475345 0.045522396 -0.19889492 0.0045618284 0.00015264322 -0.09502162 -0.018350597
-0.092120685 -0.05748615 -0.0028551884 0.12621625 0.08074889 -0.053321045 -0.100201614 -0.1495884
0.07945501 0.07285805 -0.024034066 0.09547753 -0.100822456 0.07105072 0.008881247 0.045973334
-0.012800091 0.19061469 0.059915096 -0.17264763 0.006355098 -0.04844532 -0.028595561 0.01647412
-0.06540321 -0.08623089 -0.024893502 0.1195906 -0.08108994 0.025534537 0.2367186 0.014274664
0.02444747 -0.05181915 0.11663759 -0.016670318 -0.1279505 0.0362512 0.006681919 0.097575635
-0.028697897 -0.028362365 0.060860474 -0.08022901 -0.011889805 -0.10307795 -0.0050248997 0.06461083
-0.006546944 0.030310307 0.0033947774 0.045160536 0.013880224 -0.07915216 -0.11717027 -0.096974105
0.058453754 -0.013556397 -0.11450768 0.023204207 -0.08441734 0.08263068 0.16413139 -0.04118447
0.004160332 -0.109174 -0.04034897 -0.13729349 0.15221478 -0.14374767 -0.13007389 -0.023178197
-0.116630085 -0.16661032 -0.056541502 -0.1223127 0.042677823 0.045916304 -0.035910055 0.11995812
-0.05530284 -0.07296593 -0.004022366 0.11823483 -0.05383749 0.011813626 0.12249397 -0.014939973
0.08973999 -0.23707141 0.03276964 -0.014501338 -0.024880389 0.037605774 -0.11600802 0.17440994
0.19296545 -0.004888137 -0.0027493618 -0.019441912 0.07490599 -0.027572762 0.051968284 0.029767903
-0.09563124 -0.08945131 0.07013614 -0.10005486 0.17755498 0.0046917633 -0.020315384 -0.05552879
0.032838784 -0.06423723 -0.00861434 0.027200524 0.051780615 0.08906886 -0.040604416 0.020761067
0.084605925 -0.057301216 -0.024803726 0.033599906 -0.0369962 -0.06154989 0.08087926 0.04527681
-0.05284582 0.10435136 -0.190941 -0.017920772 -0.0058602975 0.07034394 -0.07123491 0.0906584
-0.20178483 -0.103457116 -0.14337559 -0.08784172 -0.009091617 -0.00204837 -0.030234115 -0.061198905
0.06520005 0.0111265555 -0.022348173 -0.01321901 -0.14965223 0.03899816 0.033859756 0.13039395
0.14233533 0.0038517192 -0.16815732 -0.040177852 -0.06915206 -0.047302805 -0.00262332 0.04684591
0.13350505 -0.029215895 -0.02987999 -0.041486 -0.005069576 0.06030661 0.2383999 -0.023358926
00000000: 3f24 033d 9c43 583e b4af 0ebe 1ea8 fb3d
00000010: b361 82bd c5f2 c9bd 5cf1 7dbd e1bb c5bd
00000020: 5afc adbc d14d debd 2247 98bd ee4c 023d
00000030: 58ae 1e3d 5d00 ca3c 8e98 88bc 3b43 92bb
00000040: fc51 173d 5947 dfbd b537 33bd 8c44 3f3e
00000050: 73dd 033d c145 c53d e894 4abe 7677 b3bc
00000060: 25b2 6fbd 80e6 b53d 716b 0e3e 4c6f 9b3d
00000070: 2b01 863c 40cd fbbd 1085 f8bd 6130 e6ba
00000080: 7a87 a43c 0276 f1bd b4c1 dfbd f763 143c
00000090: 2c7b 783d 7aa3 adbd 09c0 723e 18dc 1a3d
000000a0: dbfe 243b 3182 1abe ba04 193d ce7e 4d3d
000000b0: c8e9 153c b296 74bd 91cb 653d 7cf2 94bd
000000c0: af97 1cbe 458c d03c b83e 783d 15ee 34bd
000000d0: ebd8 d63a 9ace 753c b705 093e ecd4 cabd
000000e0: 6959 e1bd 5947 69bd b842 863d 7e4d d73d
000000f0: cda7 493c 8563 0bbe a1dc f2bd 6c2b 7dbd
00000100: 11f8 df3c 0ff7 9bbd fd4f 9f3d 2c9e c1bb
00000110: 6195 2c3d 5f61 93bc 1ff9 e0bd 20a2 973d
00000120: 1a91 01bd b3c1 ecbd 7951 e8bd 04db 98bd
00000130: 12e2 65be 3d37 38bd 08fd 13bd ddad edbd
00000140: 5b01 e23d 2c67 15bd b175 3a3d 1cab 4bbe
00000150: 647b 953b da0e 2039 b29a c2bd fe53 96bc
00000160: c5a9 bcbd 9976 6bbd 1d1e 3bbb d53e 013e
00000170: ad5f a53d 2b67 5abd 8136 cdbd b42d 19be
00000180: 4fb9 a23d 9a36 953d 17e3 c4bc b989 c33d
00000190: 017c cebd 0a83 913d a682 113c 894e 3c3d
000001a0: 79b7 51bc 7f30 433e 8869 753d 8aca 30be
000001b0: 6d3e d03b 9a6e 46bd 3d41 eabc bcf4 863c
000001c0: 1ef2 85bd d299 b0bd 75ed cbbc ebeb f43d
000001d0: 7c12 a6bd ce2d d13c 5c66 723e 48e0 693c
000001e0: 1046 c83c 5140 54bd b0df ee3d 3190 88bc
000001f0: 7505 03be 237c 143d 00f4 da3b bcd5 c73d
00000200: da17 ebbc 3158 e8bc d548 793d 1b4f a4bd
00000210: 75cd 42bc 881a d3bd eaa7 a4bb af52 843d
00000220: bf87 d6bb 524d f83c ea7a 5e3b 41fa 383d
00000230: e169 633c 871a a2bd f7f6 efbd 5c9a c6bd
00000240: 346d 6f3d a61b 5ebc 0183 eabd c016 be3c
00000250: 00e3 acbd 463a a93d 0f12 283e 0cb1 28bd
00000260: 6553 883b 9e96 dfbd f644 25bd aa96 0cbe
00000270: 31de 1b3e 9732 13be 1732 05be 34e0 bdbc
00000280: c1db eebd e59b 2abe 1098 67bd 157f fabd
00000290: f1ce 2e3d bc12 3c3d 6c16 13bd 9aac f53d
000002a0: 3b85 62bd 296f 95bd 0dce 83bb 1a25 f23d
000002b0: b384 5cbd f08d 413c 1ede fa3d cac6 74bc
000002c0: 9ac9 b73d d9c2 72be 7539 063d 0597 6dbc
000002d0: f5d1 cbbc 8308 1a3d 9d95 edbd 8598 323e
000002e0: bc98 453e aa2c a0bb a32e 34bb a544 9fbc
000002f0: 5068 993d 46e0 e1bc b2dc 543d d1db f33c
00000300: 50da c3bd 4032 b7bd 89a3 8f3d 90e9 ccbd
00000310: f9d0 353e 5dbd 993b 736c a6bc 2872 63bd
00000320: f681 063d cf8e 83bd 2923 0dbc a2d3 de3c
00000330: e917 543d bc69 b63d d150 26bd 1d13 aa3c
00000340: df45 ad3d aeb4 6abd 2f31 cbbc 0ea0 093d
00000350: 5489 17bd bd1b 7cbd 07a4 a53d 2d74 393d
00000360: dc74 58bd 2ab6 d53d 0a86 43be 95ce 92bc
00000370: bd07 c0bb 7c10 903d 9ce3 91bd 1cab b93d
00000380: afa0 4ebe 53e1 d3bd 0dd1 12be 5ce6 b3bd
00000390: 01f5 14bc f23d 06bb 89ad f7bc b4ab 7abd
000003a0: 9b87 853d 284c 363c 8413 b7bc 8c94 58bc
000003b0: 6f3e 19be 89bc 1f3d 87b0 0a3d fe85 053e
000003c0: 5ac0 113e 206d 7c3b 6f31 2cbe 8891 24bd
000003d0: 989f 8dbd 96c0 41bd 02ec 2bbb 7fe1 3f3d
000003e0: 8cb5 083e 2c56 efbc e1c6 f4bc 39ed 29bd
000003f0: b01e a6bb 1004 773d 1a1f 743e 385b bfbc

network_body._body_endoder.seq_layers.2.bias f4 [128]
0.0 0.0 0.0 0.0 0.0 0.0 0.0 0.0
0.0 0.0 0.0 0.0 0.0 0.0 0.0 0.0
0.0 0.0 0.0 0.0 0.0 0.0 0.0 0.0
0.0 0.0 0.0 0.0 0.0 0.0 0.0 0.0
0.0 0.0 0.0 0.0 0.0 0.0 0.0 0.0
0.0 0.0 0.0 0.0 0.0 0.0 0.0 0.0
0.0 0.0 0.0 0.0 0.0 0.0 0.0 0.0
0.0 0.0 0.0 0.0 0.0 0.0 0.0 0.0
0.0 0.0 0.0 0.0 0.0 0.0 0.0 0.0
0.0 0.0 0.0 0.0 0.0 0.0 0.0 0.0
0.0 0.0 0.0 0.0 0.0 0.0 0.0 0.0
0.0 0.0 0.0 0.0 0.0 0.0 0.0 0.0
0.0 0.0 0.0 0.0 0.0 0.0 0.0 0.0
0.0 0.0 0.0 0.0 0.0 0.0 0.0 0.0
0.0 0.0 0.0 0.0 0.0 0.0 0.0 0.0
0.0 0.0 0.0 0.0 0.0 0.0 0.0 0.0
00000000: 0000 0000 0000 0000 0000 0000 0000 0000
00000010: 0000 0000 0000 0000 0000 0000 0000 0000
00000020: 0000 0000 0000 0000 0000 0000 0000 0000
00000030: 0000 0000 0000 0000 0000 0000 0000 0000
00000040: 0000 0000 0000 0000 0000 0000 0000 0000
00000050: 0000 0000 0000 0000 0000 0000 0000 0000
00000060: 0000 0000 0000 0000 0000 0000 0000 0000
00000070: 0000 0000 0000 0000 0000 0000 0000 0000
00000080: 0000 0000 0000 0000 0000 0000 0000 0000
00000090: 0000 0000 0000 0000 0000 0000 0000 0000
000000a0: 0000 0000 0000 0000 0000 0000 0000 0000
000000b0: 0000 0000 0000 0000 0000 0000 0000 0000
000000c0: 0000 0000 0000 0000 0000 0000 0000 0000
000000d0: 0000 0000 0000 0000 0000 0000 0000 0000
000000e0: 0000 0000 0000 0000 0000 0000 0000 0000
000000f0: 0000 0000 0000 0000 0000 0000 0000 0000
00000100: 0000 0000 0000 0000 0000 0000 0000 0000
00000110: 0000 0000 0000 0000 0000 0000 0000 0000
00000120: 0000 0000 0000 0000 0000 0000 0000 0000
00000130: 0000 0000 0000 0000 0000 0000 0000 0000
00000140: 0000 0000 0000 0000 0000 0000 0000 0000
00000150: 0000 0000 0000 0000 0000 0000 0000 0000
00000160: 0000 0000 0000 0000 0000 0000 0000 0000
00000170: 0000 0000 0000 0000 0000 0000 0000 0000
00000180: 0000 0000 0000 0000 0000 0000 0000 0000
00000190: 0000 0000 0000 0000 0000 0000 0000 0000
000001a0: 0000 0000 0000 0000 0000 0000 0000 0000
000001b0: 0000 0000 0000 0000 0000 0000 0000 0000
000001c0: 0000 0000 0000 0000 0000 0000 0000 0000
000001d0: 0000 0000 0000 0000 0000 0000 0000 0000
000001e0: 0000 0000 0000 0000 0000 0000 0000 0000
000001f0: 0000 0000 0000 0000 0000 0000 0000 0000

action_model._discrete_distribution.branches.0.weight f4 [2, 128]
0.02539008 0.0051819407 -0.01129039 -0.0066087143 0.0046676453 0.00034377724 0.011635144 -0.0012557611
0.02394545 -0.0013210978 0.010141618 -0.017426653 0.0146044 0.0066722035 -0.014155674 5.4387947e-05
0.00036891733 0.0011107705 0.0004728746 0.00090921094 -0.01099612 0.0028151337 0.010836837 0.0058907336
-0.010916939 -0.012608667 0.0016226209 -0.0057106935 -0.0042671827 0.021280775 0.0010739643 -0.009274828
-0.0041041947 0.015419388 -0.0005000426 -0.005576651 0.0057525155 0.008363829 -0.004377046 0.0009689463
0.006438173 0.0163503 0.009453554 0.0049516005 0.0003971927 -1.6167975e-05 -0.0044126976 -0.0049829707
-0.0070489147 0.021880133 0.005583835 -0.017000828 -0.0013093897 0.010408051 -0.003019891 0.0052060294
-0.008344348 -0.0064974264 0.009975919 0.0012322492 -0.007456962 0.0052664164 0.0037026366 0.006650541
0.017619368 0.00035429493 -0.00839096 -0.0025242143 0.0017264461 0.0024243898 0.0007299161 0.0004079477
0.0030462686 -0.014173589 -0.01007558 -0.00047526622 0.0042223698 0.014063095 -0.00038441367 -0.01032241
-0.00037734775 0.0007413698 0.009649168 0.0019088713 -0.0103705535 -0.020515924 -0.00045074505 -0.010333082
-0.013878971 0.0043466077 0.001681643 -0.0046625556 -0.0074412213 -0.0010964699 -0.00655553 -0.002449394
-0.0060728476 0.0106522115 -0.013143863 0.014539182 0.006180109 0.00277547 -0.003162152 0.0042690057
0.0031376407 0.010807744 0.018199116 0.0049439566 -0.001458501 -0.0006191821 0.011408157 0.021530438
-0.0019792968 -0.0037832453 -0.0068601347 0.011207505 -0.017666264 -0.005165054 0.0026035605 -0.0029286027
-0.003986129 -0.0072067836 -0.0058177444 0.009670875 -0.0035807216 -0.0037768532 0.008842798 -0.022456953
0.0137870135 -0.0018635963 -0.005687681 -0.012161515 0.01598415 0.009003281 0.0023912475 0.0113938125
-0.0013663707 0.00036555898 -0.0038036534 0.004259033 0.005796758 0.017400883 -0.01831957 0.011925577
0.011191288 0.011599187 -0.0031336097 0.0014613104 -0.0087122945 -0.0030748004 -0.005094254 0.006236995
-0.0023230573 -0.004603329 -0.0023467483 0.005649079 0.0054618064 0.0063413563 -0.0027293866 -0.002534801
-0.004084498 -0.01117863 0.008886704 0.0013220272 0.0097947335 -0.01049047 -0.00024427095 0.0014862207
0.00023585952 0.0062458194 0.013339366 -0.008548269 -0.0024060847 -0.0023775408 -0.0064396756 -0.0031638932
0.003634588 0.016253386 0.004586886 -0.021843135 -0.0071206638 -0.014637761 0.0009028989 -0.002976113
-0.0053674937 -0.016318368 -0.002102858 0.016855245 0.0027935368 -0.0147075495 0.013543965 0.0016856006
-0.000455178 -0.010345243 -0.0071937046 -0.009177645 0.0020351869 0.00694016 0.0071949693 0.00540919
0.017271165 -0.013443504 -0.026664762 -0.0069584283 0.00016976472 0.0070623294 -0.0068081887 -0.02171993
0.0018002474 -0.0018750506 0.009808722 0.000302139 0.003025799 -0.005264297 0.0068358677 -0.019568514
-0.005282066 -0.0004938056 -0.014842669 -0.0125202015 -0.0025784872 -0.02107138 -0.0020561998 0.00018330266
0.0056742323 0.0048516984 0.005392374 -0.015574894 0.020129038 -0.003686521 -0.014901905 -0.011995885
0.013257854 -0.0063286982 0.007973911 0.0063706674 0.015731342 -0.0050153737 0.0008901047 0.016169973
0.0033045586 -0.0018007121 0.01311098 0.0075708926 0.00048241098 -0.016148744 -0.006217906 0.0037998222
-0.002749062 -0.01688092 0.0034361712 -0.0022735242 0.014221355 -0.001371648 0.00057389657 0.003337824
00000000: dbfe cf3c 45cd a93b 54fb 38bc ea8d d8bb
00000010: 0cf3 983b 003d b439 55a1 3e3c 5a98 a4ba
00000020: 4029 c43c b028 adba 0729 263c 57c2 8ebc
00000030: 4b47 6f3c 80a2 da3b 33ed 67bc 9d1e 6438
00000040: 3f6b c139 4697 913a 28ec f739 1d58 6e3a
00000050: 1229 34bc 1b7e 383b fd8c 313c 0e07 c13b
00000060: f6dc 32bc 9594 4ebc 1fae d43a c520 bbbb
00000070: b9d3 8bbb 0555 ae3c 43c4 8c3a 73f5 17bc
00000080: 7b7c 86bb 9aa1 7c3c 4a15 03ba 57bc b6bb
00000090: 997f bc3b 7108 093c 536d 8fbb e300 7e3a
000000a0: 4ff7 d23b 10f1 853c 14e3 1a3c 0941 a23b
000000b0: 4d3e d039 76a0 87b7 6498 90bb 3048 a3bb
000000c0: 95fa e6bb f73d b33c 9af8 b63b 5245 8bbc
000000d0: d49f abba 8886 2a3c 5de9 45bb 5797 aa3b
000000e0: bbb6 08bc 5de8 d4bb 0972 233c 6c83 a13a
000000f0: 8859 f4bb e791 ac3b efa7 723b c8ec d93b
00000100: 7e56 903c a9c0 b939 3d7a 09bc 4a6d 25bb
00000110: eb49 e23a 83e2 1e3b d757 3f3a d0e1 d539
00000120: e8a3 473b 5738 68bc 0c14 25bc 272d f9b9
00000130: ce5b 8a3b e568 663c 218b c9b9 531f 29bc
00000140: c2d6 c5b9 7c58 423a 8b17 1e3c 1833 fa3a
00000150: 41e9 29bc 0311 a8bc fa51 ecb9 164c 29bc
00000160: a064 63bc fd6d 8e3b 936a dc3a 5ac8 98bb
00000170: 7dd5 f3bb 6db7 8fba c5cf d6bb 0386 20bb
00000180: bdfe c6bb 9d86 2e3c 5b59 57bc c035 6e3c
00000190: 8382 ca3b a9e4 353b 1b3c 4fbb 04e3 8b3b
000001a0: e0a0 4d3b f712 313c 5016 953c ea00 a23b
000001b0: 2c2b bfba 9b50 22ba 47e9 3a3c 9a60 b03c
000001c0: 17b7 01bb 53f0 77bb fbca e0bb af9f 373c
000001d0: d7b8 90bc 9d3f a9bb 7fa0 2a3b cded 3fbb
000001e0: 139e 82bb e226 ecbb c7a2 bebb 9772 1e3c
000001f0: 8aaa 6abb 1585 77bb 62e1 103c a5f7 b7bc
00000200: ede2 613c ea43 f4ba ba5f babb 1741 47bc
00000210: 31f1 823c 7f82 133c 7ab6 1c3b 1dad 3a3c
00000220: cb17 b3ba 7fa8 bf39 b746 79bb 5c8f 8b3b
00000230: bbf2 bd3b 4c8c 8e3c ec12 96bc 7f63 433c
00000240: aa5b 373c 840a 3e3c 3f5d 4dbb 7189 bf3a
00000250: 03be 0ebc 9782 49bb b3ed a6bb b55f cc3b
00000260: 6f3e 18bb 86d7 96bb e7cb 19bb e91b b93b
00000270: f4f8 b23b 27cb cf3b 82df 32bb e71e 26bb
00000280: 41d7 85bb 9326 37bc 8a99 113c df47 ad3a
00000290: 177a 203c 38e0 2bbc 7e11 80b9 4bcd c23a
000002a0: 0f51 7739 bba9 cc3b 5b8d 5a3c 0a0e 0cbc
000002b0: 67af 1dbb 84d0 1bbb ea03 d3bb 5259 4fbb
000002c0: 4532 6e3b d225 853c 974d 963b 60f0 b2bc
000002d0: 7554 e9bb 38d3 6fbc 85b0 6c3a e40a 43bb
000002e0: cde1 afbb 19ae 85bc 1ad0 09bb 0314 8a3c
000002f0: c513 373b eff7 70bc 82e7 5d3c 5fef dc3a
00000300: f5a4 eeb9 187f 29bc 2bb9 ebbb d55d 16bc
00000310: c560 053b 486a e33b c7c3 eb3b 933f b13b
00000320: 427c 8d3c 2542 5cbc 0f70 dabc 8703 e4bb
00000330: df02 3239 1d6b e73b 3a17 dfbb ffed b1bc
00000340: 47f6 eb3a 42c4 f5ba c3b4 203c 6968 9e39
00000350: 7c4c 463b 2080 acbb 6aff df3b 264e a0bc
00000360: 2e15 adbb bc72 01ba aa2e 73bc 8821 4dbc
00000370: d6fb 28bb e39d acbc 4fc1 06bb ef34 4039
00000380: e9ee b93b fffa 9e3b 83b2 b03b d72d 7fbc
00000390: a7e5 a43c 8f99 71bb 1f27 74bc 638a 44bc
000003a0: 7837 593c f860 cfbb 02a5 023c 08c1 d03b
000003b0: 04df 803c 0158 a4bb ea55 693a e476 843c
000003c0: 4b91 583b df05 ecba 70cf 563c 4015 f83b
000003d0: 1bec fc39 5f4a 84bc 93bf cbbb 7006 793b
000003e0: 9b29 34bb db49 8abc 6331 613b 68ff 14bb
000003f0: b000 693c dfc8 b3ba 8c71 163a 65bf 5a3b

action_model._discrete_distribution.branches.0.bias f4 [2]
0.0 0.0
00000000: 0000 0000 0000 0000

action_model._discrete_distribution.branches.1.weight f4 [19, 128]
-0.010544745 0.0014196595 -0.014291884 -0.010871231 0.013147566 -0.005680042 -0.013626764 -0.0005128455
-0.0023282492 -0.003227393 0.0018791156 0.0035679382 -0.01757942 0.0032524678 -0.004063916 -0.008241467
0.00079617446 -0.010261685 0.009385276 0.0030820477 -0.011390996 0.009942864 0.0034995116 -0.0008829158
-0.0037603758 -0.022966718 -0.022687366 -0.0030868715 -0.004515997 -0.0073312903 0.002790112 0.016008504
0.018209917 -0.0029779573 0.00681393 -0.001604941 -0.005563542 0.013082692 0.0035081718 0.0068165385
0.0023014592 0.015731737 -0.022241248 -0.0016806833 0.009184876 -0.018257588 -0.004954727 0.0007324782
0.009388145 0.0005909768 0.018015979 0.001405682 0.0015779656 0.008149747 -0.0006865094 -0.015765287
-0.003007546 0.0005916282 -0.0021777982 -0.007674001 -0.0072831633 0.007745143 -0.0112661775 -0.010418639
0.0033312656 0.0048976 0.0001260162 0.008012798 -0.021555038 -0.00031697398 -0.009601596 -0.00455319
-0.0023757082 0.0065383553 0.00014215743 -0.0060735033 -0.01003763 0.003783023 0.006597401 -0.005606838
0.005833583 -0.0004998572 0.013127968 -0.0032243107 -0.008332931 -0.0050224615 0.004639776 0.00090340676
0.012218361 0.011951106 -0.010189972 -0.0056777666 0.0027678001 0.0075600343 -0.006808702 -0.003889763
0.005886355 0.012715021 0.005716899 -0.012323186 0.006073284 0.0104935095 0.014026229 -0.0029144955
-0.014801982 0.0161705 0.024705548 -0.022535367 -0.0024823784 -0.005177316 0.002690479 0.031682994
0.000567337 -0.010839357 -0.0042390493 0.0069252076 -0.019908383 -0.016093902 0.011635917 0.00013780683
0.0070570647 0.00079474936 0.01096912 0.0023925996 0.0060954094 0.0032751185 -0.002752479 -0.006479834
0.006176455 -0.0096676685 -0.000868451 0.006954044 0.0073428885 0.0016570013 -0.0044292486 0.006916252
-0.0011687537 -0.015476857 0.0072410884 -0.0018178814 0.005302394 0.013630389 0.0018137082 0.0039004337
0.003696146 -0.011017347 0.009944602 0.0007729905 0.0007840423 -0.008237094 0.017073922 0.007415795
0.016068526 0.013088937 -0.00046424303 -0.0040360815 -0.014318029 -0.002450047 -0.0041635 0.016559055
0.018584799 0.005701046 0.018061126 0.0044879 0.005013309 0.017261758 0.011128534 -0.00240256
-0.0037202225 0.0075359265 0.009490256 0.0034391247 0.007049363 -0.00650853 -0.0023177317 -0.010925869
0.006920442 0.005326686 0.004126278 -0.0034048713 -0.009250865 0.0058718896 0.0044610887 0.0035037
-0.010020743 -0.00089023885 0.0031179655 -0.004042109 0.0058924276 -0.002732944 -0.0017076283 -0.013266913
-0.0008328701 0.0035921545 -0.0065900073 -0.01403904 0.003454821 -0.010560421 0.006578039 0.009893545
-0.016825264 0.008769907 0.008397991 -0.0139125455 -0.013973345 -0.0005821804 -0.0018713264 0.012138301
0.0034293726 -0.0007642049 0.008928285 -0.00043085433 0.002482196 0.007970092 0.001093307 0.010917438
-0.0034566324 -0.0021233668 0.009986977 0.0048740613 0.0017334133 -0.01130639 -8.163233e-06 0.006642785
-0.009451632 -0.0124314595 -0.0023778833 -0.0075059533 -0.0033966273 0.011581744 -0.018941851 -0.012137356
-0.020348689 0.0033810716 0.0013383458 -0.00032170274 0.0020519854 -0.004160549 -0.0056317714 0.01448751
0.0042134076 0.0005928507 -0.005140181 0.004174699 0.002322233 -0.0068165623 0.013955413 -0.016630638
-0.0052261236 0.013934798 -0.0021217687 0.005171511 0.009781504 -0.011136674 0.0094663715 0.0013146264
00000000: dec3 2cbc de13 ba3a 8228 6abc 3f1d 32bc
00000010: e368 573c a51f babb ca42 5fbc 7b70 06ba
00000020: 8a95 18bb ab82 53bb a84c f63a 12d4 693b
00000030: b702 90bc 5b27 553b 992a 85bb 3807 07bc
00000040: 5db6 503a a020 28bc b3c4 193c 2efc 493b
00000050: 4da1 3abc 65e7 223c 1058 653b 7a73 67ba
00000060: a370 76bb b324 bcbc dbda b9bc 1c4d 4abb
00000070: eefa 93bb 523b f0bb 50da 363b 4424 833c
00000080: f72c 953c d529 43bb 6347 df3b e25c d2ba
00000090: 5f4e b6bb ca58 563c 5be9 653b 455d df3b
000000a0: 14d4 163b d8df 803c 4733 b6bc 604a dcba
000000b0: 2a7c 163c f090 95bc 435b a2bb c803 403a
000000c0: bcd0 193c c8eb 1a3a 3f96 933c dc3e b83a
000000d0: bdd3 ce3a 8486 053c def6 33ba 3426 81bc
000000e0: 401a 45bb 7f17 1b3a 64b9 0ebb 3076 fbbb
000000f0: 9aa7 eebb f8ca fd3b c695 38bc f0b2 2abc
00000100: 5d51 5a3b 0c7c a03b 3723 0439 1c48 033c
00000110: 3194 b0bc 872f a6b9 0350 1dbc ed32 95bb
00000120: c5b1 1bbb b33f d63b 1810 1539 3d04 c7bb
00000130: df74 24bc 98ec 773b 032f d83b 91b9 b7bb
00000140: a427 bf3b d908 03ba b016 573c f54e 53bb
00000150: d986 08bc 7693 a4bb 4309 983b 9ad2 6c3a
00000160: 852f 483c 92ce 433c d7f3 26bc 8f0c babb
00000170: fb63 353b 2aba f73b 881b dfbb 65eb 7ebb
00000180: 53e2 c03b aa52 503c d354 bb3b 30e7 49bc
00000190: 6602 c73b f8ec 2b3c 45ce 653c 1f01 3fbb
000001a0: 0384 72bc ff77 843c 4a63 ca3c 179c b8bc
000001b0: 66af 22bb 79a6 a9bb bf52 303b 07c6 013d
000001c0: 57b9 143a 8f97 31bc b9e7 8abb daec e23b
000001d0: e816 a3bc 5cd7 83bc 93a4 3e3c 3d80 1039
000001e0: f33e e73b ba56 503a d3b7 333c 29cd 1c3b
000001f0: 00bc c73b 5fa3 563b ef62 34bb ca54 d4bb
00000200: dc63 ca3b 2465 1ebc c3a8 63ba c0de e33b
00000210: 9d9c f03b bd2f d93a 3b23 91bb baa1 e23b
00000220: de30 99ba a592 7dbc a746 ed3b fa45 eeba
00000230: b4bf ad3b ff51 5f3c f3b9 ed3a 6b9e 7f3b
00000240: 0a3b 723b 1a82 34bc afee 223c 84a2 4a3a
00000250: 3088 4d3a e0f4 06bc 9cde 8b3c 3200 f33b
00000260: 24a2 833c fb72 563c a565 f3b9 1b41 84bb
00000270: 2b96 6abc f890 20bb f86d 88bb dba6 873c
00000280: 263f 983c d7cf ba3b edf4 933c 3c0f 933b
00000290: af46 a43b 8868 8d3c 7454 363c 4574 1dbb
000002a0: face 73bb efef f63b 057d 1b3c f062 613b
000002b0: 58fe e63b 8245 d5bb 16e5 17bb 6b02 33bc
000002c0: e0c4 e23b 7b8b ae3b bb35 873b 4324 5fbb
000002d0: f190 17bc fb68 c03b 532e 923b 559e 653b
000002e0: 0b2e 24bc eb5e 69ba c856 4c3b ab73 84bb
000002f0: 4415 c13b 311b 33bb 7fd2 dfba 775d 59bc
00000300: f754 5aba 5a6a 6b3b fdf0 d7bb 0004 66bc
00000310: 476a 623b 9e05 2dbc 978c d73b 8918 223c
00000320: 23d5 89bc a8af 0f3c ba97 093c 72f1 63bc
00000330: 75f0 64bc 779d 18ba 4b47 f5ba b9df 463c
00000340: 53bf 603b ec54 48ba f147 123c 4ae4 e1b9
00000350: 57ac 223b fd94 023c 4c4d 8f3a 0edf 323c
00000360: ab88 62bb 2f28 0bbb 6ba0 233c 97b6 9f3b
00000370: b333 e33a 703e 39bc d2f4 08b7 b8ab d93b
00000380: 05db 1abc 52ad 4bbc 43d6 1bbb 80f4 f5bb
00000390: f399 5ebb 5bc1 3d3c f12b 9bbc c3db 46bc
000003a0: 4bb2 a6bc f894 5d3b 6f6b af3a 36aa a8b9
000003b0: 9a7a 063b 3755 88bb b98a b8bb 055d 6d3c
000003c0: a010 8a3b 8969 1b3a f76e a8bb eacb 883b
000003d0: 9b30 183b 785d dfbb 3fa5 643c fa3c 88bc
000003e0: e73f abbb c74e 643c 5f0d 0bbb c775 a93b
000003f0: 9a42 203c 9976 36bc d718 1b3c 8b4f ac3a

action_model._discrete_distribution.branches.1.bias f4 [19]
0.0 0.0 0.0 0.0 0.0 0.0 0.0 0.0
0.0 0.0 0.0 0.0 0.0 0.0 0.0 0.0
0.0 0.0 0.0
00000000: 0000 0000 0000 0000 0000 0000 0000 0000
00000010: 0000 0000 0000 0000 0000 0000 0000 0000
00000020: 0000 0000 0000 0000 0000 0000 0000 0000
00000030: 0000 0000 0000 0000 0000 0000 0000 0000
00000040: 0000 0000 0000 0000 0000 0000

action_model._discrete_distribution.branches.2.weight f4 [14, 128]
-0.016480412 -0.0053318134 0.010591379 0.010988741 0.014805614 0.0082058115 0.004798089 0.024248663
-0.014039978 -7.1251243e-06 -0.012276991 -0.01110796 -0.013306633 0.0007626644 0.0005042916 -0.00022951404
-0.0062338463 0.009394241 0.007705796 9.4795665e-05 -0.011870838 0.016634611 -0.0014749443 0.014820776
-0.012399914 -0.0011489042 0.010768297 -0.00013853944 0.006681049 0.00966252 0.002975356 0.010457764
1.999798e-05 -0.014749393 -0.008926089 -0.006898171 0.00086318323 -6.6372064e-05 0.014594356 -0.0038663365
0.0004982667 -0.0061503737 -0.0077746282 0.004430255 -0.0039107455 -0.002883527 0.0035409618 -0.009890809
0.00086529006 -0.009991882 0.0075689405 0.010766293 0.0020086435 -0.0026423743 -0.00078919186 -0.0022873997
0.005071517 0.0015021312 0.003907479 -0.009636614 0.008373358 0.0018586091 -0.0036466196 -0.015708739
0.022069877 -0.018507255 -0.0014971796 0.0052599064 0.009501585 -0.016694924 0.0016233812 0.0002544514
0.006491349 0.01837019 0.0023918692 0.005731227 0.00451895 -0.0060738195 0.0025501188 -0.011383767
0.006516505 0.010119077 -0.004986953 0.008805441 -0.0077189407 0.008472221 -0.016666625 0.0032709204
-0.003864718 0.0042140065 0.015550422 0.013775374 -0.002520675 -0.005272877 -0.007658399 0.0010688532
0.011129375 0.009917921 -0.000974006 0.001669627 0.008166866 -0.00032924223 -0.0019151652 -0.010692233
0.0097913025 -0.0019555928 0.011946489 0.020933917 -0.010314781 0.0030917497 0.0056970613 0.008865853
0.0066040023 -0.018235562 -0.013363334 -0.0060907137 0.0036933925 -0.0011903674 -0.006519603 0.0068940646
0.0032161416 0.012226282 -0.0039465004 -0.0002935875 0.007276319 0.013860958 0.0040176804 0.015287119
-0.003093257 0.0073686303 -0.00036194126 -0.00019556023 -0.002175431 0.007486783 0.005198098 0.001634431
-0.010996244 -0.0025012956 0.00094053795 0.013518046 0.0034287758 -0.0063929805 -0.020220513 -0.0015790844
0.0038887993 0.0036452923 -0.0042902115 -0.0068946364 0.0062231533 0.001867271 0.0023315481 0.0010355007
0.008308305 0.013637232 0.0036250118 0.005779114 -0.011511928 -0.0048879385 -0.0026366187 0.007992528
0.0049717366 0.007528604 0.0054441853 0.006989321 0.017266428 0.012790941 -0.013993518 -0.0040241424
0.00713007 -0.011518198 -0.0044386354 -0.0052989083 0.0026955686 0.0010541275 -0.0014888261 -0.0068369308
-0.007338647 0.0015152489 0.008057626 0.007087566 -0.004867728 0.0030295148 0.0060742325 -0.0027208
-0.0037678722 -0.014322693 0.008638531 -0.009601086 -0.0017459448 0.023708133 -0.00095415814 0.0038548098
0.009139473 -0.0039016306 -0.0021558262 0.004395891 0.00043206717 -0.0037682068 0.0063295164 0.011235706
0.009977854 -0.0024741485 0.012334685 0.0028018465 -0.007421849 0.008545327 -0.0057619913 0.00071321655
-0.011960204 -0.012386052 0.0013720618 0.011260099 -0.009055707 -1.5348034e-05 0.0076350397 0.008408086
-0.004036507 0.002024009 -0.010207196 -0.003715774 0.009203028 0.016235773 0.005760569 0.0021255228
-0.0046198145 -0.011111924 -0.0019225134 0.009248227 0.016417565 0.009710728 -0.005352254 0.022451727
0.004627725 -0.016681178 0.007984425 0.007228168 -0.005157626 1.2723932e-05 -0.0041763387 0.0033757635
0.01364315 0.003239595 0.008378113 -0.006705127 0.011848105 0.0052265795 0.005681061 -0.013629267
-0.0013909513 0.0026974862 0.0041196374 0.010740728 -0.0051059094 0.002051759 0.00428132 0.0051454273
00000000: ee01 87bc 7eb6 aebb 7787 2d3c 1f0a 343c
00000010: 3f93 723c ab71 063c 4a39 9d3b 22a5 c63c
00000020: f007 66bc 5a14 efb6 6f25 49bc 29fe 35bc
00000030: 1004 5abc 8bed 473a 7032 043a b5a9 70b9
00000040: 4b45 ccbb 4dea 193c e780 fc3b 09cd c638
00000050: e77d 42bc 4f45 883c eb52 c1ba d7d2 723c
00000060: 0229 4bbc d496 96ba 836d 303c e644 11b9
00000070: b3ec da3b 8c4f 1e3c 31fe 423b 0b57 2b3c
00000080: 56c1 a737 70a7 71bc bb3e 12bc 0d0a e2bb
00000090: 3f47 623a 3b31 8bb8 2a1d 6f3c 5d62 7dbb
000000a0: 1d9e 023a 1389 c9bb 4fc2 febb ac2b 913b
000000b0: b625 80bb 8ef9 3cbb 7b0f 683b 0f0d 22bc
000000c0: a2d4 623a feb4 23bc e004 f83b 1b65 303c
000000d0: 72a3 033b af2b 2dbb c5e1 4eba 33e8 15bb
000000e0: f82e a63b 29e3 c43a 4f0a 803b e3e2 1dbc
000000f0: 6930 093c 939c f33a 20fc 6ebb 9daf 80bc
00000100: e3cb b43c 879c 97bc 033d c4ba 4b5b ac3b
00000110: 89ac 1b3c cbc3 88bc a2c7 d43a e467 8539
00000120: 62b5 d43b 157d 963c e8c0 1c3b 04cd bb3b
00000130: b313 943b e406 c7bb e51f 273b fb82 3abc
00000140: 6888 d53b 7cca 253c 9869 a3bb b244 103c
00000150: 2bef fcbb 12cf 0a3c 7288 88bc f05c 563b
00000160: 3547 7dbb a615 8a3b 32c7 7e3c 1bb2 613c
00000170: e931 25bb 19c8 acbb 4ff3 fabb c318 8c3a
00000180: fb57 363c c77e 223c 7054 7fba 63d7 da3a
00000190: 52ce 053c 259e acb9 4806 fbba 7a2e 2fbc
000001a0: b36b 203c 6729 00bb 35bb 433c 9b7d ab3c
000001b0: 54ff 28bc f49e 4a3b 6aae ba3b 1542 113c
000001c0: 6366 d83b bf62 95bc e3f1 5abc 9c94 c7bb
000001d0: d80c 723b 1a06 9cba 65a2 d5bb 9be7 e13b
000001e0: e7c5 523b be50 483c a551 81bb a6ec 99b9
000001f0: 306e ee3b 1219 633c bfa6 833b d376 7a3c
00000200: 3eb8 4abb 8d74 f13b efc2 bdb9 4d0f 4db9
00000210: ad91 0ebb b053 f53b ce54 aa3b 673a d63a
00000220: 9729 34bc c7ec 23bb 6f8e 763a cb7a 5d3c
00000230: 50b5 603b 357c d1bb 7da5 a5bc 48f9 ceba
00000240: 3adb 7e3b dbe5 6e3b e794 8cbb 67ec e1bb
00000250: 98eb cb3b 38bf f43a e3cc 183b a3b9 873a
00000260: 8f1f 083c b26e 5f3c 9b91 6d3b b95e bd3b
00000270: 879c 3cbc 002b a0bb 1fcb 2cbb 18f3 023c
00000280: f3e9 a23b 82b2 f63b 2365 b23b ad06 e53b
00000290: 5372 8d3c 1891 513c 1245 65bc f4dc 83bb
000002a0: 5da3 e93b d3b6 3cbc f971 91bb 77a2 adbb
000002b0: 23a8 303b a62a 8a3a b724 c3ba 5508 e0bb
000002c0: 0879 f0bb 519b c63a 2204 043c d03e e83b
000002d0: 7681 9fbb d38a 463b 5b0a c73b 734f 32bb
000002e0: 68ee 76bb bba9 6abc a088 0d3c e04d 1dbc
000002f0: 30d8 e4ba 8f37 c23c 7820 7aba faa0 7c3b
00000300: babd 153c 80b2 7fbb c348 0dbb 680b 903b
00000310: 1387 e239 05f4 76bb d567 cf3b f715 383c
00000320: 277a 233c 5325 22bb 6b17 4a3c 2f9f 373b
00000330: fb32 f3bb b301 0c3c 16cf bcbb 27f7 3a3a
00000340: bbf4 43bc deee 4abc c1d6 b33a 477c 383c
00000350: 635e 14bc a7bf 80b7 5b2f fa3b 12c2 093c
00000360: ad44 84bb 3ca5 043b 153c 27bc 5884 73bb
00000370: 4cc8 163c e200 853c 28c3 bc3b 5b4c 0b3b
00000380: d061 97bb ca0e 36bc d8fc fbba e085 173c
00000390: 217e 863c bf19 1f3c f661 afbb afec b73c
000003a0: 2ca4 973b f7a6 88bc 1bd1 023c 45da ec3b
000003b0: 4d01 a9bb df78 5537 abd9 88bb ea3b 5d3b
000003c0: 8587 5f3c 634f 543b 5a44 093c afb6 dbbb
000003d0: 8e1e 423c ba43 ab3b 3228 ba3b 4a4d 5fbc
000003e0: 9550 b6ba 4fc8 303b 06fe 863b e1f9 2f3c
000003f0: 794f a7bb ce76 063b 514a 8c3b f99a a83b

action_model._discrete_distribution.branches.2.bias f4 [14]
0.0 0.0 0.0 0.0 0.0 0.0 0.0 0.0
0.0 0.0 0.0 0.0 0.0 0.0
00000000: 0000 0000 0000 0000 0000 0000 0000 0000
00000010: 0000 0000 0000 0000 0000 0000 0000 0000
00000020: 0000 0000 0000 0000 0000 0000 0000 0000
00000030: 0000 0000 0000 0000

network_body._body_endoder.seq_layers.0.weight f4 [128, 76]
-0.1751673 0.17815056 0.0025879305 0.053349026 0.09299569 -0.021288948 -0.052906938 -0.2547849
-0.061143722 -0.001729369 -0.089673966 0.09248893 0.01987194 0.0415194 0.079150364 -0.06488712
-0.10481011 0.020531299 0.14354098 0.14805384 -0.144083 -0.08488805 -0.12687986 0.11263347
0.031249454 0.1337189 0.024163969 0.033705086 0.022043373 -0.059802707 0.110780634 -0.07416158
-0.098099515 0.08840614 -0.040994704 -0.18007451 -0.055856735 0.13293178 0.023248835 -0.013794233
-0.0017442119 0.13078572 -0.17177635 0.029900985 -0.0867005 -0.12234965 0.09782427 0.0019849662
0.16456912 0.050231434 0.06247803 0.11781166 0.009707222 -0.099379174 0.03809472 0.007145849
0.004493801 -0.1404896 -0.12937115 -0.027903691 -0.049723625 0.04352536 -0.120752275 0.049495164
0.121321715 -0.0010445841 -0.004856779 -0.1755724 0.0069191167 -0.22123641 -0.14871036 0.08706443
0.22425276 -0.0791211 0.007187389 0.09741699 -0.116005644 -0.18232246 -0.032339387 -0.03301631
-0.10789412 0.08476361 -0.07697779 -0.08512142 -0.007574813 0.035623018 -0.04678423 -0.122707956
-0.05547834 -0.15728137 -0.11634764 -0.10343305 -0.13400087 0.12850621 -0.12983842 0.120201424
-0.083273835 -0.064938754 0.0050190846 -0.071005225 0.056135297 0.07700738 0.18440297 0.081057355
-0.011673591 -0.01855048 0.021198895 -0.015825754 0.13556816 0.0810993 -0.08933523 0.016138205
0.010798956 -0.22378084 -0.043651585 0.14468756 0.16317593 -0.10360043 0.07342365 0.16486847
-0.04584288 0.080227 0.041983597 0.056789707 -0.14002189 0.18521151 0.028908385 0.07204454
-0.09954942 -0.042227652 -0.20820288 0.10259778 0.0250695 -0.01708973 0.024829865 -0.041669443
-0.0018396369 0.14480041 -0.037169736 -0.016327772 0.06631833 0.052284002 0.073934935 -0.048299037
-0.050757885 0.06079078 -0.19798751 0.18298538 -0.0068468847 -0.024484651 0.0039468072 0.025612235
-0.020388467 0.09376721 -0.04869144 0.15564963 0.20427968 -0.19921842 0.14432056 -0.16077618
-0.0023837162 -0.06092218 -0.04782861 0.09319299 -0.12226048 -0.06811355 0.059528466 -0.06125845
-0.18288088 -0.013764013 -0.031028416 0.21137455 -0.11909616 -0.31267232 0.053020198 0.03928888
0.20987624 -0.07835066 -0.076859355 0.15426672 0.18798561 -0.13440302 0.11905998 -0.06460973
-0.1691181 -0.0040578074 0.06650524 0.08266876 -0.06477229 0.002460441 -0.0628494 -0.021289645
0.123597644 0.13202459 0.25302812 -0.2732258 0.12715909 -0.19616666 0.045718417 -0.12982306
-0.019472148 0.19739799 0.07795374 -0.19921216 -0.21689819 -0.11089385 0.10369183 0.21553783
-0.09961334 -0.16141596 0.02073041 -0.019190893 0.16551223 0.20009565 -0.0656583 0.18529204
-0.067478895 -0.045495927 0.010898983 -0.12298672 0.049562663 0.026170198 -0.18480581 -0.0067577385
-0.11195229 0.22037877 0.061561033 -0.08560244 0.19057053 -0.03683268 0.10725931 -0.28465378
0.06475564 0.16280062 -0.042663414 -0.13281368 0.0028763034 -0.08942853 -0.07068215 -0.17810072
-0.0051807077 -0.123946086 0.17263171 0.05012472 0.21349637 0.05032985 0.06632315 -0.11435102
-0.042456213 0.008634985 0.10641337 -0.13714921 -0.08201123 -0.19923018 -0.14106041 -0.0832782
00000000: 0f5f 33be 1a6d 363e 459a 293b 8284 5a3d
00000010: 8674 be3d 2966 aebc f2b4 58bd 2b73 82be
00000020: d771 7abd ffab e2ba fca6 b7bd d66a bd3d
00000030: 7bca a23c 3f10 2a3d 9619 a23d 8ae3 84bd
00000040: afa6 d6bd 4131 a83c 68fc 123e 6d9b 173e
00000050: 7e8a 13be c9d9 adbd cbec 01be 60ac e63d
00000060: dbfe ff3c 9bed 083e 84f3 c53c 580e 0a3d
00000070: 4e94 b43c aff3 74bd f5e0 e23d 07e2 97bd
00000080: 66e8 c8bd 470e b53d 10ea 27bd 7465 38be
00000090: 08ca 64bd 451f 083e 5774 be3c 3501 62bc
000000a0: 0a9e e4ba b1ec 053e 24e6 2fbe e9f2 f43c
000000b0: 0890 b1bd 7492 fabd 1758 c83d 3516 023b
000000c0: cf84 283e 7abf 4d3d f6e8 7f3d 3d47 f13d
000000d0: 0a0b 1f3c 4f87 cbbd 3609 1c3d ba27 ea3b
000000e0: bc40 933b 81dc 0fbe df79 04be 4896 e4bc
000000f0: 00ab 4bbd a647 323d f84c f7bd 71bb 4a3d
00000100: 8577 f83d 6dea 88ba 9d25 9fbb 40c9 33be
00000110: c2b9 e23b cc8b 62be 8747 18be d64e b23d
00000120: 84a2 653e 3e0a a2bd 3084 eb3b 8f82 c73d
00000130: 5e94 edbd bdb2 3abe 4e76 04bd 1c3c 07bd
00000140: 98f7 dcbd 8b98 ad3d 88a6 9dbd 2454 aebd
00000150: 2336 f8bb 71e9 113d d2a0 3fbd 4f4e fbbd
00000160: 413d 63bd 5e0e 21be ac47 eebd b5d4 d3bd
00000170: 8637 09be 2297 033e 5df4 04be 2a2c f63d
00000180: 798b aabd 9cfe 84bd 2277 a43b 306b 91bd
00000190: 20ee 653d 0cb6 9d3d 22d4 3c3e 6601 a63d
000001a0: 9742 3fbc 2df7 97bc 4ea9 ad3c 03a5 81bc
000001b0: 61d2 0a3e 6417 a63d 64f5 b6bd 4534 843c
000001c0: 1bee 303c ce26 65be 01cc 32bd fa28 143e
000001d0: 9717 273e 762c d4bd 235f 963d 48d3 283e
000001e0: bec5 3bbd 0e4e a43d fef6 2b3d 539c 683d
000001f0: e661 0fbe 16a8 3d3e 47d1 ec3c 168c 933d
00000200: 91e0 cbbd e7f6 2cbd 2333 55be c91e d23d
00000210: 8d5e cd3c c3ff 8bbc 0068 cb3c 94ad 2abd
00000220: f91f f1ba 8f46 143e 4b3f 18bd d2c1 85bc
00000230: e8d1 873d c027 563d 336b 973d 36d5 45bd
00000240: 80e7 4fbd c1ff 783d 3dbd 4abe 8560 3b3e
00000250: d55b e0bb 0994 c8bc 3854 813b c0d0 d13c
00000260: b705 a7bc 0609 c03d ad70 47bd 9e62 1f3e
00000270: b12e 513e eaff 4bbe c5c8 133e 83a2 24be
00000280: 1f38 1cbb 8989 79bd efe7 43bd f7db be3d
00000290: b463 fabd 1e7f 8bbd 1fd4 733d 24ea 7abd
000002a0: 2045 3bbe 7482 61bc 4e2f febc 9272 583e
000002b0: b0e8 f3bd 9616 a0be b52b 593d 60ed 203d
000002c0: cce9 563e 5076 a0bd 7068 9dbd 18f8 1d3e
000002d0: 4d7f 403e f2a0 09be b8d5 f33d 1b52 84bd
000002e0: 4c2d 2dbe 5bf7 84bb e633 883d 3d4e a93d
000002f0: 56a7 84bd 5a3f 213b 30b7 80bd 9f67 aebc
00000300: c320 fd3d 7431 073e e78c 813e 41e4 8bbe
00000310: fe35 023e eadf 48be 3c43 3b3d 56f0 04be
00000320: 0e84 9fbc b322 4a3e 36a6 9f3d 46fe 4bbe
00000330: 8f1a 5ebe 511c e3bd 625c d43d f3b5 5c3e
00000340: 1402 ccbd 3a4a 25be d2d2 a93c 3836 9dbc
00000350: 0a7c 293e e0e5 4c3e dc77 86bd 32bd 3d3e
00000360: 6032 8abd f059 3abd a691 323c 76e0 fbbd
00000370: 3802 4b3d e262 d63c bc3d 3dbe 0570 ddbb
00000380: 3e47 e5bd f9aa 613e 6c27 7c3d 5550 afbd
00000390: ec24 433e dddd 16bd c5aa db3d 24be 91be
000003a0: 9b9e 843d 35b5 263e d5bf 2ebd 4f00 08be
000003b0: 5d80 3c3b 4e26 b7bd cec1 90bd 0960 36be
000003c0: edc2 a9bb 72d7 fdbd 5ec6 303e 944f 4d3d
000003d0: cb9e 5a3e ac26 4e3d 6fd4 873d de30 eabd
000003e0: 91e6 2dbd c179 0d3c 41ef d93d d870 0cbe
000003f0: 81f5 a7bd ff02 4cbe 2472 10be c38d aabd

network_body._body_endoder.seq_layers.0.bias f4 [128]
0.0 0.0 0.0 0.0 0.0 0.0 0.0 0.0
0.0 0.0 0.0 0.0 0.0 0.0 0.0 0.0
0.0 0.0 0.0 0.0 0.0 0.0 0.0 0.0
0.0 0.0 0.0 0.0 0.0 0.0 0.0 0.0
0.0 0.0 0.0 0.0 0.0 0.0 0.0 0.0
0.0 0.0 0.0 0.0 0.0 0.0 0.0 0.0
0.0 0.0 0.0 0.0 0.0 0.0 0.0 0.0
0.0 0.0 0.0 0.0 0.0 0.0 0.0 0.0
0.0 0.0 0.0 0.0 0.0 0.0 0.0 0.0
0.0 0.0 0.0 0.0 0.0 0.0 0.0 0.0
0.0 0.0 0.0 0.0 0.0 0.0 0.0 0.0
0.0 0.0 0.0 0.0 0.0 0.0 0.0 0.0
0.0 0.0 0.0 0.0 0.0 0.0 0.0 0.0
0.0 0.0 0.0 0.0 0.0 0.0 0.0 0.0
0.0 0.0 0.0 0.0 0.0 0.0 0.0 0.0
0.0 0.0 0.0 0.0 0.0 0.0 0.0 0.0
00000000: 0000 0000 0000 0000 0000 0000 0000 0000
00000010: 0000 0000 0000 0000 0000 0000 0000 0000
00000020: 0000 0000 0000 0000 0000 0000 0000 0000
00000030: 0000 0000 0000 0000 0000 0000 0000 0000
00000040: 0000 0000 0000 0000 0000 0000 0000 0000
00000050: 0000 0000 0000 0000 0000 0000 0000 0000
00000060: 0000 0000 0000 0000 0000 0000 0000 0000
00000070: 0000 0000 0000 0000 0000 0000 0000 0000
00000080: 0000 0000 0000 0000 0000 0000 0000 0000
00000090: 0000 0000 0000 0000 0000 0000 0000 0000
000000a0: 0000 0000 0000 0000 0000 0000 0000 0000
000000b0: 0000 0000 0000 0000 0000 0000 0000 0000
000000c0: 0000 0000 0000 0000 0000 0000 0000 0000
000000d0: 0000 0000 0000 0000 0000 0000 0000 0000
000000e0: 0000 0000 0000 0000 0000 0000 0000 0000
000000f0: 0000 0000 0000 0000 0000 0000 0000 0000
00000100: 0000 0000 0000 0000 0000 0000 0000 0000
00000110: 0000 0000 0000 0000 0000 0000 0000 0000
00000120: 0000 0000 0000 0000 0000 0000 0000 0000
00000130: 0000 0000 0000 0000 0000 0000 0000 0000
00000140: 0000 0000 0000 0000 0000 0000 0000 0000
00000150: 0000 0000 0000 0000 0000 0000 0000 0000
00000160: 0000 0000 0000 0000 0000 0000 0000 0000
00000170: 0000 0000 0000 0000 0000 0000 0000 0000
00000180: 0000 0000 0000 0000 0000 0000 0000 0000
00000190: 0000 0000 0000 0000 0000 0000 0000 0000
000001a0: 0000 0000 0000 0000 0000 0000 0000 0000
000001b0: 0000 0000 0000 0000 0000 0000 0000 0000
000001c0: 0000 0000 0000 0000 0000 0000 0000 0000
000001d0: 0000 0000 0000 0000 0000 0000 0000 0000
000001e0: 0000 0000 0000 0000 0000 0000 0000 0000
000001f0: 0000 0000 0000 0000 0000 0000 0000 0000
