FYPprototype/results/Test2/AIBalancing.onnx (onnx, 128981 bytes, 11 tensors)

action_model._discrete_distribution.branches.0.bias f4 [2]
0.0 0.0
00000000: 0000 0000 0000 0000

action_model._discrete_distribution.branches.0.weight f4 [2, 128]
0.007525477 0.0033826006 0.0044715405 0.0072986 -0.030503845 0.0015232895 0.007702949 -0.0018305747
-8.876698e-05 0.0032405157 0.005081541 0.011377613 0.0047825365 0.0026226656 -0.010993069 -0.007535512
0.0062345657 0.0023035347 0.010700188 0.004328031 -0.0006372226 -0.010690386 -0.0028374156 0.0068373093
0.002338377 0.0032888178 0.0098287705 0.0064419913 -0.0017663979 0.0009485118 -0.010031893 0.0058167735
0.0049430425 -0.012728723 -0.0077635394 -0.01208976 0.0062149786 -0.006125297 0.0061342726 -0.008784722
0.00083029934 -0.0042582043 0.007304399 0.012095494 0.0047563533 -0.0051068263 0.012692295 0.00557318
0.004936342 0.0065286825 0.0071376315 -0.015877528 -0.007202474 0.0066404045 -0.01424729 0.005372676
-0.004313152 0.012361526 -0.0012584449 -0.007503585 -0.0048097395 0.013118115 -0.0059126928 0.0018785036
0.0108439345 0.008515603 0.002352162 -0.0029388834 0.0057400293 -0.016104074 -0.011742835 -0.01375287
-0.009012347 0.013011617 0.0056902934 -0.007390783 0.0062101074 -0.012618666 0.0018391431 -0.023625467
-0.0010128163 0.0047816066 -0.006967805 0.0028169514 -0.0045761224 -0.00022974155 0.0035460244 -0.006101648
0.004683679 0.0009621205 0.011597639 -0.0050146873 -0.007662326 0.00116534 0.008896251 -0.015091591
0.0054581785 -0.008372526 0.009176273 0.006023251 -0.009402416 0.0048345304 0.0028152943 0.0008429698
-0.014265572 0.005906203 -0.009915981 -0.004249186 0.0051515615 -0.0031153054 0.010919643 0.0063464167
0.012078549 0.0015169397 0.012225967 -0.0057922676 0.020610249 -0.01217388 -6.671427e-05 0.007543911
0.00029955318 0.0024542958 0.0041284235 0.01171584 -0.011301077 -0.0004454251 -0.0042829444 0.0005624402
0.014461922 -0.0127593195 -0.010748122 0.0012744 -0.016093863 -0.0025868227 -0.016387407 0.006529671
0.00043647454 0.018659119 -0.012758712 -0.008469637 -0.0035776251 0.012756596 0.014363639 0.0025105572
0.0031362951 0.015616036 -0.0056204936 -0.003958696 0.0066102818 0.0020821332 0.004504184 -0.002335764
-0.0010691172 -0.0051521845 -0.008236076 0.011159832 -0.0034691438 -0.00018705965 -0.0009459445 0.003745449
-0.004071283 0.0015213187 -0.0009011185 0.0067727487 0.00036548972 -0.0050604176 0.008392989 0.0051779686
0.010123602 -0.0009058117 0.004381755 0.0013894873 -0.0010221922 -0.0027426137 0.0012140003 0.012756462
-0.01642857 -0.0026550319 7.7949764e-05 0.00948629 -0.0017230578 -0.0068718134 -0.0021277068 -0.0026808886
0.00477629 0.0008795652 -0.005971209 -0.00516317 0.0033201668 0.016344294 0.0016190322 -0.010867454
0.0023305183 0.012018134 0.008989783 0.01165895 -0.0013854025 -0.0060961107 -0.0039785667 0.008649054
0.0025422561 0.0034796938 -0.00077503844 0.0077711195 0.00021480325 0.004136128 -0.0076597347 -0.001050165
-0.0054932106 0.0015514964 0.0005818337 -0.0013990797 0.0061320537 -0.0075429427 0.0048988187 -0.009459336
-0.011581131 -0.013875792 -0.0056582014 0.008031837 -0.01771166 -0.004363159 -0.012284509 0.00333638
0.011323689 0.0046271053 0.006485945 -0.01561092 -0.008645332 -0.008851056 -0.00710674 -0.007251028
-0.013726591 -0.008583265 -0.013237163 -0.0013117972 0.009355976 0.0057135313 0.00065230526 0.021598319
0.0056057754 0.0006425027 -0.012659176 -0.008278208 0.011010197 0.005372952 0.004446524 -0.0021109316
-0.007792064 -0.0061845626 -0.0117437225 0.0033655923 0.013403915 -0.009384146 0.008605676 0.010882143
00000000: 4798 f63b 9fae 5d3b 0086 923b 1829 ef3b
00000010: 33e3 f9bc 1da9 c73a 0569 fc3b e5ef efba
00000020: 6928 bab8 d55e 543b 0e83 a63b 2b69 3a3c
00000030: d3b6 9c3b 07e1 2b3b 461c 34bc 75ec f6bb
00000040: 544b cc3b e6f6 163b d74f 2f3c 28d2 8d3b
00000050: 490b 27ba bb26 2fbc eff3 39bb 820b e03b
00000060: 753f 193b 3589 573b da08 213c 5717 d33b
00000070: 7a86 e7ba 8da5 783a cf5c 24bc a29a be3b
00000080: 3ff9 a13b 228c 50bc 4a65 febb 2114 46bc
00000090: 05a7 cb3b b7b6 c8bb 0202 c93b cbed 0fbc
000000a0: 72a8 593a 6888 8bbb bd59 ef3b 2e2c 463c
000000b0: 2fdb 9b3b 2a57 a7bb 58f3 4f3c 399f b63b
000000c0: 0ac1 a13b 8fee d53b cbe2 e93b 9711 82bc
000000d0: bb02 ecbb c097 d93b 776d 69bc 460d b03b
000000e0: 5755 8dbb ff87 4a3c 67f2 a4ba a2e0 f5bb
000000f0: 059b 9dbb 5ded 563c 43bf c1bb 1f38 f63a
00000100: c2aa 313c 0785 0b3c bb26 1a3b 489a 40bb
00000110: db16 bc3b b1ec 83bc 0565 40bc b853 61bc
00000120: 86a8 13bc ad2e 553c a475 ba3b 622e f2bb
00000130: 287e cb3b 85be 4ebc 670f f13a 328a c1bc
00000140: 7ac0 84ba 06af 9c3b 2f52 e4bb 9a9c 383b
00000150: 4cf3 95bb c7e6 70b9 6b64 683b 55f0 c7bb
00000160: 8c79 993b d036 7c3a 0604 3e3c 3f52 a4bb
00000170: 4014 fbbb 52be 983a 95c1 113c b842 77bc
00000180: 85da b23b eb2c 09bc 1458 163c b15e c53b
00000190: 970c 1abc fb6a 9e3b cd80 383b bffa 5c3a
000001a0: 25ba 69bc d288 c13b a476 22bc c13c 8bbb
000001b0: 6ece a83b 272a 4cbb 4de8 323c 9af5 cf3b
000001c0: 1be5 453c 0dd4 c63a 6c4f 483c 10cd bdbb
000001d0: d3d6 a83c f474 47bc f3e8 8bb8 ea32 f73b
000001e0: 590d 9d39 40d8 203b ba47 873b cbf3 3f3c
000001f0: 2728 39bc f287 e9b9 f157 8cbb b970 133a
00000200: b3f1 6c3c 770c 51bc e418 30bc c509 a73a
00000210: 47d7 83bc af87 29bb e23e 86bc daf6 d53b
00000220: 9fd6 e439 02db 983c eb09 51bc 3bc4 0abc
00000230: 9776 6abb 0b01 513c 7855 6b3c 2988 243b
00000240: 4d8a 4d3b 67da 7f3c 1e2c b8bb f3b7 81bb
00000250: 109b d83b 6674 083b d597 933b 9e13 19bb
00000260: 9f21 8cba a8d3 a8bb 9bf0 06bc bad7 363c
00000270: 935a 63bb 7125 44b9 43f9 77ba 3576 753b
00000280: 6668 85bb fc66 c73a 0a39 6cba efed dd3b
00000290: 339f bf39 dcd1 a5bb bf82 093c f3ab a93b
000002a0: 77dd 253c ff73 6dba d394 8f3b 751f b63a
000002b0: 14fb 85ba 6cbd 33bb 171f 9f3a 7b00 513c
000002c0: 3595 86bc 0b00 2ebb f678 a338 626c 1b3c
000002d0: 3ad8 e1ba f32c e1bb ff70 0bbb d9b1 2fbb
000002e0: 6d82 9c3b 9f92 663a 22aa c3bb cf2f a9bb
000002f0: 2897 593b 78e4 853c b535 d43a 680d 32bc
00000300: 9cbb 183b b5e7 443c e249 133c 2e05 3f3c
00000310: 6596 b5ba e2c1 c7bb a35e 82bb c3b4 0d3c
00000320: fb9b 263b 930b 643b f32b 4bba e0a4 fe3b
00000330: cf3c 6139 5b88 873b 83fe fabb b1a5 89ba
00000340: 6400 b4bb 955b cb3a 3386 183a 5361 b7ba
00000350: 65ef c83b ca2a f7bb 4586 a03b 55fb 1abc
00000360: c9be 3dbc 4a57 63bc 6f68 b9bb f797 033c
00000370: 0b18 91bc d5f8 8ebb f744 49bc 2ba7 5a3b
00000380: fe86 393c f99e 973b 0d88 d43b f2c4 7fbc
00000390: 27a5 0dbc 0504 11bc a8df e8bb 089a edbb
000003a0: 7fe5 60bc d3a0 0cbc b0e0 58bc 9cf0 abba
000003b0: cf49 193c 9338 bb3b 77ff 2a3a f5ee b03c
000003c0: a7b0 b73b a06d 283a 6f68 4fbc 52a1 07bc
000003d0: 1d64 343c 970f b03b 26b4 913b 8e57 0abb
000003e0: 9254 ffbb dfa7 cabb be68 40bc 4591 5c3b
000003f0: 189c 5b3c f6bf 19bc d2fe 0c3c 044b 323c

action_model._discrete_distribution.branches.1.bias f4 [19]
0.0 0.0 0.0 0.0 0.0 0.0 0.0 0.0
0.0 0.0 0.0 0.0 0.0 0.0 0.0 0.0
0.0 0.0 0.0
00000000: 0000 0000 0000 0000 0000 0000 0000 0000
00000010: 0000 0000 0000 0000 0000 0000 0000 0000
00000020: 0000 0000 0000 0000 0000 0000 0000 0000
00000030: 0000 0000 0000 0000 0000 0000 0000 0000
00000040: 0000 0000 0000 0000 0000 0000

action_model._discrete_distribution.branches.1.weight f4 [19, 128]
-0.0012198508 -0.0023104784 -0.003509974 0.0042455005 -0.004208684 -0.005214914 -0.0072638937 -0.0034763631
-0.014190167 0.016022472 -0.0016782103 -0.017329117 0.0010711045 -0.014226812 -0.0037101884 0.0072705667
0.0021534169 -0.002553364 0.01741348 0.007463141 -0.00839156 -0.009305864 -0.0075896243 -0.0019992755
0.005128016 0.0015025536 -0.0093608955 -0.01281534 0.0067628436 -0.0030438998 -0.0001479745 -0.0064023123
0.007723295 -0.002708794 0.0034025514 -0.015375331 -0.016010111 -0.0045944354 -0.008618295 -0.008190109
-0.0043218494 -0.0071482062 0.0029269105 -0.025849655 -0.002326366 -0.018175581 0.0008824432 0.005366946
0.0012824805 -0.0043207803 0.0020492412 -0.0010088865 0.004065086 -0.0050290846 -0.010827872 -0.01264061
-0.0022624505 0.0004929736 0.0012623683 -0.0027038234 0.009642294 0.0050809765 0.0018453604 0.0040964787
-0.0074508497 0.0045669074 0.0055643483 -0.005000799 -0.003735043 -0.005764363 -0.006237607 0.00028968533
-0.0029841268 0.004008818 0.00245846 0.0035906516 0.00495641 0.008164683 0.00023857076 -0.0061038784
0.0019364393 -0.0060994527 0.014826401 0.0056181503 0.018287247 -0.009917414 0.0007367734 0.008038954
0.012293762 -0.0031379834 -0.0064319405 -0.015613106 -0.0012135624 0.0093161 -0.005439944 0.004223307
0.0006041988 0.0164225 0.014926368 -0.0047992263 -0.00064788817 -0.004765203 -0.0025824893 0.0077093774
0.0067008394 0.0071098167 -0.007773876 0.011022883 0.0019484133 -0.024529278 0.0028212594 -0.0020988097
0.0134020895 0.0005529854 0.0015857756 -0.0012111762 0.017082913 0.0006432293 0.0038922157 0.011933523
0.006732624 0.006319774 -0.013491087 -0.015992468 -0.00045282356 0.009101662 -0.012725349 0.01332615
0.0077667334 -0.003634937 -0.0044843797 -0.0022998522 0.0056114527 0.01565599 -0.0069583277 0.00916579
0.008522748 -0.0032124363 -0.0088606095 -0.014503374 0.0033938033 0.014304823 -0.010436013 -0.020444222
7.11623e-05 0.01588005 -0.005803141 0.0040517705 0.0010971742 0.010168804 -0.0051996275 -0.013997403
0.004388156 -0.005525082 -0.0071270517 -0.0088414345 -0.005578913 -0.006545279 -0.0037003462 0.00089799304
0.0067202784 -0.0044002603 -0.0010336174 0.000886559 -0.0070232907 -0.0023249239 -0.006607659 0.003359417
-0.003091922 0.007864126 -0.0072208093 0.007227374 -0.012389778 0.0020612315 0.0032302912 0.009114649
-0.0044964673 0.0014562862 -0.0018200161 0.0060124933 0.0011585293 0.008509055 0.0045745424 0.008680335
0.0028008774 -0.01022306 -0.0020151283 0.012144853 0.006809398 -0.009656662 0.0021016842 0.0036953618
-0.006692777 0.01189363 -0.0090605235 -0.002848862 -0.003770121 0.001893702 0.0036860814 0.01645672
0.017708058 0.011516064 0.00028445324 -0.0065819346 0.004435156 0.0011293981 -0.004915537 -0.0053082043
0.004215861 0.0050002723 -0.0017163762 0.009608477 -0.0073017552 0.008269406 -0.00254661 0.012544415
-0.002231488 0.0048741093 -0.0036011834 -0.01753779 0.0048136534 0.0006550715 -0.00228638 0.006735415
0.011521391 -0.0017666159 -0.014398676 -0.0074751005 -0.012945338 0.002340376 0.002904238 -0.0050640567
-0.00794141 0.001056244 -0.004575972 0.0019934478 0.0034741964 -0.0061533726 0.0011817256 0.00047344723
-0.002406109 0.015819741 -0.009353984 -0.024695985 0.014931731 -0.00053027406 0.009993727 -0.00037543106
0.008574019 0.0053551923 0.0046557784 -0.003101527 0.007751704 -0.0026546959 -0.016490048 0.0054000067
00000000: 67e3 9fba 656b 17bb 9807 66bb d71d 8b3b
00000010: 00e9 89bb dfe1 aabb f505 eebb b2d3 63bb
00000020: e07d 68bc 8f41 833c 65f7 dbba cbf5 8dbc
00000030: 4e64 8c3a 9317 69bc a226 73bb ef3d ee3b
00000040: 5720 0d3b 5756 27bb b7a6 8e3c 5d8d f43b
00000050: c17c 09bc 9f77 18bc 62b2 f8bb 4706 03bb
00000060: eb08 a83b 55f1 c43a 715e 19bc 6ff7 51bc
00000070: d89a dd3b 2a7c 47bb 9a29 1bb9 7dca d1bb
00000080: b213 fd3b 0686 31bb 57fd 5e3b d0e8 7bbc
00000090: a327 83bc eb8c 96bb c033 0dbc cf2f 06bc
000000a0: 4d9e 8dbb 803b eabb 69d1 3f3b a8c2 d3bc
000000b0: f275 18bb f5e4 94bc c353 673a 35dd af3b
000000c0: e818 a83a 5595 8dbb 904c 063b 9d3c 84ba
000000d0: 6a34 853b 05cb a4bb 6367 31bc 901a 4fbc
000000e0: 9f45 14bb e63a 013a 0d76 a53a a132 31bb
000000f0: b6fa 1d3c 527e a63b 05e0 f13a c13b 863b
00000100: 4226 f4bb ffa5 953b 2355 b63b bedd a3bb
00000110: a0c7 74bb fbe2 bcbb d764 ccbb e8e0 9739
00000120: 5791 43bb 675c 833b 1d1e 213b 2351 6b3b
00000130: 6169 a23b 2ac5 053c da28 7a39 0b03 c8bb
00000140: 1fd0 fd3a ebdd c7bb 6fea 723c 7618 b83b
00000150: 23cf 953c a67c 22bc 0724 413a d1b5 033c
00000160: c66b 493c a0a6 4dbb 07c3 d2bb 1dce 7fbc
00000170: 6610 9fba 8ea2 183c 8f41 b2bb ab63 8a3b
00000180: 1863 1e3a 7b88 863c ba8d 743c d442 9dbb
00000190: 0ad7 29ba 6c25 9cbb fb3e 29bb f29e fc3b
000001a0: b792 db3b 77f9 e83b 00bc febb 5299 343c
000001b0: e761 ff3a a0f1 c8bc e1e4 383b 2f8c 09bb
000001c0: 7094 5b3c 39f6 103a cdd9 cf3a 54c0 9eba
000001d0: 77f1 8b3c 639e 283a 8b14 7f3b d384 433c
000001e0: 589d dc3b 1b16 cf3b b809 5dbc a302 83bc
000001f0: f368 edb9 231f 153c fb7d 50bc ed55 5a3c
00000200: 1580 fe3b 2038 6ebb b4f1 92bb 1eb9 16bb
00000210: 47e0 b73b fe40 803c af02 e4bb 1c2c 163c
00000220: ffa2 0b3c bd87 52bb 172c 11bc 8f9f 6dbc
00000230: 926a 5e3b c75e 6a3c d0fb 2abc a47a a7bc
00000240: f83c 9538 e116 823c 4628 bebb b7c4 843b
00000250: 0fcf 8f3a 0e9b 263c a361 aabb 5d55 65bc
00000260: 85ca 8f3b bf0b b5bb 0b8a e9bb aadb 10bc
00000270: 50cf b6bb c879 d6bb 8281 72bb 4b67 6b3a
00000280: c835 dc3b 0f30 90bb 727a 87ba f867 683a
00000290: a223 e6bb c05d 18bb 1085 d8bb aa29 5c3b
000002a0: d8a1 4abb 89d8 003c 8a9c ecbb 9bd3 ec3b
000002b0: 7ffe 4abc ba15 073b 4bb3 533b 9c55 153c
000002c0: 1a57 93bb dbe0 be3a 9b8d eeba 7304 c53b
000002d0: cbd9 973a 9069 0b3c 0be6 953b f737 0e3c
000002e0: ed8e 373b 9f7e 27bc 3e10 04bb 35fb 463c
000002f0: 5f21 df3b fa36 1ebc 69bc 093b e22d 723b
00000300: 154f dbbb 80dd 423c 9772 14bc f9b3 3abb
00000310: 2214 77bb 1836 f83a 2f92 713b 3ed0 863c
00000320: 7d10 913c e0ad 3c3c ab22 9539 45ad d7bb
00000330: c954 913b 5008 943a 8312 a1bb 72f0 adbb
00000340: 3525 8a3b 53d9 a33b 07f8 e0ba e06c 1d3c
00000350: 9043 efbb 677c 073c 07e5 26bb 1787 4d3c
00000360: 283e 12bb feb6 9f3b d501 6cbb 69ab 8fbc
00000370: dabb 9d3b 1bb9 2b3a 17d7 15bb c2b4 dc3b
00000380: 37c4 3c3c cb8d e7ba 6de8 6bbc b0f1 f4bb
00000390: af18 54bc fe60 193b 0755 3e3b 63f0 a5bb
000003a0: b01c 02bc ab71 8a3a 09f2 95bb 81a4 023b
000003b0: 58af 633b 3ba2 c9bb 22e4 9a3a 0339 f839
000003c0: cfaf 1dbb 6798 813c 7441 19bc 3c4f cabc
000003d0: 38a4 743c 1702 0bba bbbc 233c 81d5 c4b9
000003e0: 0b7a 0c3c 9c7a af3b 808f 983b fd42 4bbb
000003f0: 0202 fe3b 68fa 2dbb 2316 87bc 8af2 b03b

action_model._discrete_distribution.branches.2.bias f4 [15]
0.0 0.0 0.0 0.0 0.0 0.0 0.0 0.0
0.0 0.0 0.0 0.0 0.0 0.0 0.0
00000000: 0000 0000 0000 0000 0000 0000 0000 0000
00000010: 0000 0000 0000 0000 0000 0000 0000 0000
00000020: 0000 0000 0000 0000 0000 0000 0000 0000
00000030: 0000 0000 0000 0000 0000 0000

action_model._discrete_distribution.branches.2.weight f4 [15, 128]
0.009531848 0.020764763 0.0025128766 -0.022512808 -0.012531227 0.0026614186 0.002910434 -0.0004999992
0.0060124705 0.0022180504 -0.0044659977 0.0023603695 -0.0110154115 -0.0065054074 0.0036750236 -0.008559602
-0.0039839773 -0.0040787677 0.0098714 0.0012339585 0.0056161014 -0.010387335 0.005394534 -0.010459401
-0.008270207 -0.013335893 -0.0067631723 -0.00033067036 -0.012370459 0.0047463174 -0.001277587 0.00462217
-0.007054069 0.0057256483 0.0030700203 0.013785279 -0.009303356 0.00382474 0.011991984 0.0067009376
0.0031091385 0.0054095536 -0.0019017799 0.008191183 0.0072017596 0.009173439 0.002145104 0.0030492109
-0.0054356507 -0.011467523 -0.009349223 -0.009739782 -0.0047293147 -0.00271977 0.016130207 -0.0049152956
0.0006606676 -0.0064255255 -0.0020046632 -0.0013892205 0.0108241355 -0.011298295 -0.00021474242 -0.0029900605
0.0064814077 0.019124674 -0.0074349344 -0.008475161 -0.0021500567 -0.009330909 -0.0045037996 0.0041195787
-0.026080122 0.006015208 0.012150393 0.0012897488 0.00047461534 -0.0046501094 -0.0048366473 0.013895023
-0.00675958 0.0042512952 0.003965538 0.0007936293 -0.016918223 0.012124233 -0.0011571309 -0.00413207
-0.004405698 -0.0031630497 -0.005482579 -0.007833414 0.010697824 0.019072032 -0.00887912 0.00384752
-0.00920081 0.009320702 0.0060447673 -0.005960818 0.009795421 -0.0091740405 0.0018749833 0.00017280283
0.009335107 0.006456092 -0.008911589 0.020615805 0.0059788036 -0.0018355392 -0.0056092828 0.010054509
-0.0030707743 0.0017564677 -0.006142024 -0.018803315 -0.010131539 0.006275063 -0.0023093775 0.021804783
-0.016655188 0.0029975704 -0.013806653 0.005999492 0.010077934 -0.017788304 -0.017667316 0.0055940277
0.009136015 -0.010630162 -0.004185877 -0.0016110329 0.0004896248 -0.0050859875 0.007797349 -0.0013876446
0.0064825327 -0.011655557 0.0068101697 -0.010021462 0.0011595413 -0.005779227 -0.0012094914 -0.0035233018
0.010628656 0.0031521101 -0.023335509 0.011097873 0.0036497412 -0.00626015 -0.0044699754 -0.002160331
0.004439816 0.00045419266 0.0006924782 0.0055572623 -0.0060275625 0.0051979814 -0.0026191727 0.011314751
-0.011055163 -0.011179412 -0.0037463387 0.006369367 -0.0060624457 0.0076588066 0.00962217 -0.013371072
-0.00201209 -0.005381761 0.00077346916 0.033371326 -0.01825235 -0.012382292 0.004533925 0.010755614
-0.009656358 0.006156962 0.0037368198 -0.0025334884 -0.009536091 0.0055255084 -0.0056632953 -0.004211817
0.004987399 -0.008728572 0.007849796 -0.010549093 -0.0031120977 0.01270234 0.010309729 -0.01232834
0.00074689114 0.0010479102 0.0044769985 -0.0022325944 -0.01706847 0.02175372 0.009542682 -0.0020321703
0.00145654 -0.009668655 0.009043007 -0.0033023122 0.012962003 -0.014324452 0.0009537278 -0.0020875752
-0.01026432 -0.0051221945 -0.012760832 0.0100948755 -0.010218986 0.012358282 -0.008129805 0.009682096
0.00048981514 -0.005768299 -0.00650595 0.00769123 0.005509427 -0.00073670805 0.002745841 -0.016192444
-0.0073689907 -0.014799902 0.00415286 0.019018084 -0.0033996762 -0.002845025 -0.00011487169 0.005120418
0.004890328 -0.008416348 0.012602274 0.010306623 0.006725953 0.0050861845 -0.0175222 0.001005117
0.00746096 -0.014696277 -0.009809994 0.0009989718 -0.010889524 0.017119883 -0.005630666 -0.0072447727
-0.008277195 -0.008500046 -0.005851208 -0.011843651 0.004802549 -0.0044808965 -0.00619295 0.0022091123
00000000: 782b 1c3c dd1a aa3c 13af 243b c86c b8bc
00000010: c74f 4dbc 326b 2e3b fbbc 3e3b 6112 03ba
00000020: 4204 c53b b65c 113b 8157 92bb 6eb0 1a3b
00000030: fc79 34bc 502b d5bb aad8 703b 933d 0cbc
00000040: 068c 82bb 2fa7 85bb a7bb 213c c7bc a13a
00000050: 4607 b83b a42f 2abc a2c4 b03b e85d 2bbc
00000060: c37f 07bc ca7e 5abc 9a9d ddbb d35d adb9
00000070: 77ad 4abc ff86 9b3b b574 a7ba 9275 973b
00000080: d225 e7bb 389e bb3b 6532 493b a7db 613c
00000090: 1a6d 18bc 7da8 7a3b 077a 443c 8a93 db3b
000000a0: b0c2 4b3b a042 b13b 2545 f9ba 5034 063c
000000b0: bdfc eb3b 314c 163c e094 0c3b 45d5 473b
000000c0: 8b1d b2bb 47e2 3bbc 7c2d 19bc 9b93 1fbc
000000d0: 5ef8 9abb 2b3e 32bb 7f23 843c 7d10 a1bb
000000e0: a730 2d3a 378d d2bb ab60 03bb 8116 b6ba
000000f0: b757 313c 7c1c 39bc 7b2c 61b9 e4f4 43bb
00000100: fd61 d43b 59ab 9c3c c0a0 f3bb 67db 0abc
00000110: f7e7 0cbb abe0 18bc 9c94 93bb 88fd 863b
00000120: fba5 d5bc 391b c53b 7112 473c ca0c a93a
00000130: cbd5 f839 f25f 98bb bd7c 9ebb f3a7 633c
00000140: 787f ddbb 734e 8b3b 58f1 813b 900b 503a
00000150: 1698 8abc b8a4 463c dfaa 97ba 5166 87bb
00000160: ac5d 90bb 2b4b 4fbb 35a7 b3bb b857 00bc
00000170: ed45 2f3c f33c 9c3c bb79 11bc ad26 7c3b
00000180: ffbe 16bc dcb5 183c 2f13 c63b f752 c3bb
00000190: f97c 203c b74e 16bc 00c2 f53a 6832 3539
000001a0: 47f2 183c a08d d33b ea01 12bc 7ae2 a83c
000001b0: d7e9 c33b 7a96 f0ba 13ce b7bb abbb 243c
000001c0: 0b3f 49bb 4739 e63a 0843 c9bb 6909 9abc
000001d0: c1fe 25bc 0b9f cd3b ed58 17bb f29f b23c
000001e0: 7670 88bc e372 443b 4d35 62bc 6397 c43b
000001f0: eb1d 253c c7b8 91bc 0cbb 90bc 1b4e b73b
00000200: 39af 153c 222a 2ebc ae29 89bb 4b29 d3ba
00000210: 2a5a 003a 5ba8 a6bb e780 ff3b a0e1 b5ba
00000220: 6d6b d43b f3f6 3ebc d827 df3b 0f31 24bc
00000230: c0fb 973a ab5f bdbb cc87 9eba 32e7 66bb
00000240: d023 2e3c a293 4e3b 1c2a bfbc dad3 353c
00000250: 7f30 6f3b f221 cdbb df78 92bb 5794 0dbb
00000260: e07b 913b b520 ee39 6d87 353a b219 b63b
00000270: dc82 c5bb d453 aa3b 6da6 2bbb 8161 393c
00000280: b720 35bc da29 37bc 2285 75bb 1fb6 d03b
00000290: 7ba7 c6bb baf6 fa3b 4ea6 1d3c 5712 5bbc
000002a0: 45dd 03bb 7c59 b0bb a3c2 4a3a 5fb0 083d
000002b0: f485 95bc 19df 4abc 5291 943b 5138 303c
000002c0: b335 1ebc 57c0 c93b 6fe5 743b e208 26bb
000002d0: 443d 1cbc 530f b53b 2a93 b9bb 4803 8abb
000002e0: 566d a33b 4902 0fbc 6e9c 003c 1ad6 2cbc
000002f0: 56f4 4bbb 7a1d 503c 23ea 283c cefc 49bc
00000300: 04cb 433a 085a 893a c9b3 923b b850 12bb
00000310: 2dd3 8bbc db34 b23c e958 1c3c 292e 05bb
00000320: 5fe9 be3a 4769 1ebc 1f29 143c 9b6b 58bb
00000330: 955e 543c 1bb1 6abc 9703 7a3a b3cf 08bb
00000340: ae2b 28bc 15d8 a7bb cf12 51bc fa64 253c
00000350: 896d 27bc 647a 4a3c e032 05bc a7a1 1e3c
00000360: f066 003a 0004 bdbb dd2f d5bb b706 fc3b
00000370: 6c88 b43b a41f 41ba 91f3 333b 04a6 84bc
00000380: 9377 f1bb 4a7b 72bc b714 883b d0cb 9b3c
00000390: 1acd 5ebb 9973 3abb 45e7 f0b8 2ec9 a73b
000003a0: 0b3f a03b b9e4 09bc c579 4e3c 1cdd 283c
000003b0: 6265 dc3b 02aa a63b b78a 8fbc 21be 833a
000003c0: 127b f43b a7c8 70bc 19ba 20bc eeef 823a
000003d0: f969 32bc ff3e 8c3c 7381 b8bb 8f65 edbb
000003e0: 129d 07bc c743 0bbc 7ebb bfbb df0b 42bc
000003f0: b35e 9d3b 7cd4 92bb 3bee cabb c1c6 103b

discrete_action_output_shape f4 [1, 3]
2.0 19.0 15.0
00000000: 0000 0040 0000 9841 0000 7041

network_body._body_endoder.seq_layers.0.bias f4 [128]
0.0 0.0 0.0 0.0 0.0 0.0 0.0 0.0
0.0 0.0 0.0 0.0 0.0 0.0 0.0 0.0
0.0 0.0 0.0 0.0 0.0 0.0 0.0 0.0
0.0 0.0 0.0 0.0 0.0 0.0 0.0 0.0
0.0 0.0 0.0 0.0 0.0 0.0 0.0 0.0
0.0 0.0 0.0 0.0 0.0 0.0 0.0 0.0
0.0 0.0 0.0 0.0 0.0 0.0 0.0 0.0
0.0 0.0 0.0 0.0 0.0 0.0 0.0 0.0
0.0 0.0 0.0 0.0 0.0 0.0 0.0 0.0
0.0 0.0 0.0 0.0 0.0 0.0 0.0 0.0
0.0 0.0 0.0 0.0 0.0 0.0 0.0 0.0
0.0 0.0 0.0 0.0 0.0 0.0 0.0 0.0
0.0 0.0 0.0 0.0 0.0 0.0 0.0 0.0
0.0 0.0 0.0 0.0 0.0 0.0 0.0 0.0
0.0 0.0 0.0 0.0 0.0 0.0 0.0 0.0
0.0 0.0 0.0 0.0 0.0 0.0 0.0 0.0
00000000: 0000 0000 0000 0000 0000 0000 0000 0000
00000010: 0000 0000 0000 0000 0000 0000 0000 0000
00000020: 0000 0000 0000 0000 0000 0000 0000 0000
00000030: 0000 0000 0000 0000 0000 0000 0000 0000
00000040: 0000 0000 0000 0000 0000 0000 0000 0000
00000050: 0000 0000 0000 0000 0000 0000 0000 0000
00000060: 0000 0000 0000 0000 0000 0000 0000 0000
00000070: 0000 0000 0000 0000 0000 0000 0000 0000
00000080: 0000 0000 0000 0000 0000 0000 0000 0000
00000090: 0000 0000 0000 0000 0000 0000 0000 0000
000000a0: 0000 0000 0000 0000 0000 0000 0000 0000
000000b0: 0000 0000 0000 0000 0000 0000 0000 0000
000000c0: 0000 0000 0000 0000 0000 0000 0000 0000
000000d0: 0000 0000 0000 0000 0000 0000 0000 0000
000000e0: 0000 0000 0000 0000 0000 0000 0000 0000
000000f0: 0000 0000 0000 0000 0000 0000 0000 0000
00000100: 0000 0000 0000 0000 0000 0000 0000 0000
00000110: 0000 0000 0000 0000 0000 0000 0000 0000
00000120: 0000 0000 0000 0000 0000 0000 0000 0000
00000130: 0000 0000 0000 0000 0000 0000 0000 0000
00000140: 0000 0000 0000 0000 0000 0000 0000 0000
00000150: 0000 0000 0000 0000 0000 0000 0000 0000
00000160: 0000 0000 0000 0000 0000 0000 0000 0000
00000170: 0000 0000 0000 0000 0000 0000 0000 0000
00000180: 0000 0000 0000 0000 0000 0000 0000 0000
00000190: 0000 0000 0000 0000 0000 0000 0000 0000
000001a0: 0000 0000 0000 0000 0000 0000 0000 0000
000001b0: 0000 0000 0000 0000 0000 0000 0000 0000
000001c0: 0000 0000 0000 0000 0000 0000 0000 0000
000001d0: 0000 0000 0000 0000 0000 0000 0000 0000
000001e0: 0000 0000 0000 0000 0000 0000 0000 0000
000001f0: 0000 0000 0000 0000 0000 0000 0000 0000

network_body._body_endoder.seq_layers.0.weight f4 [128, 78]
0.01699152 -0.021650905 0.041935533 0.10292252 -0.12680933 -0.07757799 -0.06647076 0.029279448
-0.10086924 -0.17538537 0.19250274 -0.0018217658 -0.11132802 -0.11417456 -0.056952782 -0.11314772
0.08025663 -0.025375703 0.0032656637 -0.02519495 -0.27509 0.02129185 0.16487378 0.06612832
-0.011588918 0.061218254 0.0018070618 -0.07844245 -0.0053742346 0.0034332706 0.16129507 0.0038517215
-0.07553779 -0.0451638 -0.08458244 0.014676234 0.05794254 0.19569637 -0.10130688 0.124346554
0.120432444 -0.057671573 -0.078250274 -0.05465907 -0.123162 -0.14862302 0.025133511 0.0014025107
-0.110573776 -0.047650475 0.024022555 0.07547627 -0.13574208 -0.1781599 -0.044260725 -0.12790552
-0.016735168 0.03154587 -0.16643359 -0.103727736 0.123325415 -0.038888842 -0.10771043 0.019279018
-0.07639539 -0.03636332 0.023968646 -0.0075675063 -0.14239335 0.07656321 -0.07037601 0.0421728
-0.023993034 -0.14914875 -0.093996346 -0.09994114 -0.11222656 -0.11607158 0.23330127 0.06559177
-0.001031996 -0.03317671 0.054178234 -0.1274985 -0.16609503 0.039592996 -0.03307719 -0.00921544
0.022962833 0.036652483 0.0027034972 -0.0932575 0.21451434 0.12854272 -0.026625022 0.111327074
0.14691925 0.004489233 0.00489559 0.0216609 0.1555618 -0.030595658 0.04454642 0.09554739
-0.019043176 0.0667264 0.055753194 -0.16987438 0.10744639 0.1199876 -0.02143031 -0.046852764
-0.09815385 -0.1280436 -0.018175263 -0.17376019 -0.20140077 -0.075907364 0.17212464 -0.093114845
-0.09746999 -0.026216516 -0.007791383 0.06307851 -0.1222687 -0.13134615 0.03742333 -0.015867071
0.016345149 0.07744772 -0.010571476 0.06292047 -0.030264737 0.1077028 0.10262278 0.14235781
-0.09186252 -0.122213 0.019740399 0.07390703 -0.05042155 0.1663082 0.038719162 0.1861854
-0.08530104 0.083101295 -0.09313169 -0.20130005 0.08697868 -0.1706033 0.10311695 -0.07784346
-0.052413385 0.11347837 -0.028988473 -0.08698904 0.078520924 -0.016958527 -0.24474557 0.13397981
0.11566779 0.023150474 0.018189864 0.02665756 -0.06629182 0.1068043 0.056665696 0.12781489
-0.18504572 -0.06449306 -0.11109992 -0.13816857 -0.12002083 0.035280414 0.08218811 -0.06833875
0.107896 -0.113928884 -0.017514892 -0.016473293 -0.037864365 -0.0053287153 0.19569549 -0.10253943
-0.023886202 0.13398334 -0.123504475 0.15932783 -0.25712353 -0.15126565 -0.0072914553 -0.14694457
-0.100725554 -0.007454058 -0.2388352 -0.13881357 -0.016609935 0.083235495 -0.25402027 -0.12359984
0.13840775 -0.14885095 -0.02635871 -0.16953032 -0.058029164 0.13055456 -0.035300933 0.1648487
0.07636487 0.032136712 0.10010058 -0.00085943163 0.02714694 0.0680448 -0.15147358 0.103262275
-0.14855297 -0.07053569 0.0021068193 -0.11902329 -0.00028777315 -0.20728298 0.116149195 0.070928775
-0.19429073 -0.08551601 -0.16854644 0.05205803 -0.2118374 0.0888387 -0.12965046 0.034717266
-0.14256078 0.06962186 0.13586979 -0.050392564 -0.10303942 -0.15150104 0.10565878 -0.028447654
-0.0122551285 0.011146554 -0.20355302 -0.058265198 -0.2952738 0.03481245 -0.11800496 -0.098184876
0.041593306 0.17473073 0.04394028 -0.18705396 -0.065815926 0.014730377 -0.1983344 -0.03359569
00000000: cd31 8b3c 3d5d b1bc 98c4 2b3d 0bc9 d23d
00000010: 4eda 01be 36e1 9ebd d221 88bd 74db ef3c
00000020: 8894 cebd 3998 33be 701f 453e 51c8 eeba
00000030: f2ff e3bd 5ad4 e9bd 5247 69bd feb9 e7bd
00000040: 975d a43d b5e0 cfbc bf04 563b a465 cebc
00000050: 99d8 8cbe 3f6c ae3c acd4 283e 496e 873d
00000060: 72df 3dbc febf 7a3d efda ec3a 6fa6 a0bd
00000070: 591a b0bb b900 613b 892a 253e 2a6d 7c3b
00000080: 8fb3 9abd adfd 38bd 8f39 adbd 9674 703c
00000090: 2855 6d3d a164 483e fb79 cfbd 68a9 fe3d
000000a0: 49a5 f63d 0739 6cbd ae41 a0bd 30e2 5fbd
000000b0: 5c3c fcbd a230 18be cbe4 cd3c 73d4 b73a
000000c0: 8174 e2bd 252d 43bd f3ca c43c 4d93 9a3d
000000d0: f9ff 0abe 8c6f 36be bc4a 35bd aaf9 02be
000000e0: 3118 89bc 3e36 013d 916d 2abe 356f d4bd
000000f0: 0992 fc3d e849 1fbd 4997 dcbd 08ef 9d3c
00000100: 3075 9cbd b4f1 14bd e559 c43c d8f8 f7bb
00000110: 90cf 11be 2ccd 9c3d 4c21 90bd 63bd 2c3d
00000120: 0a8d c4bc 73ba 18be 2881 c0bd f1ad ccbd
00000130: 0ad7 e5bd f0b6 edbd 87e6 6e3e fa54 863d
00000140: 0a44 87ba 4de4 07bd ffe9 5d3d f78e 02be
00000150: d114 2abe 442c 223d f37b 07bd 5bfc 16bc
00000160: 8d1c bc3c ea20 163d 282d 313b cafd bebd
00000170: a6a9 5b3e b4a0 033e b81c dabc 73ff e33d
00000180: 0072 163e 6a1a 933b 2f6b a03b 3372 b13c
00000190: 984b 1f3e bfa3 fabc 4f76 363d 5aae c33d
000001a0: 6f00 9cbc daa7 883d 765d 643d 8df3 2dbe
000001b0: da0c dc3d 0fbc f53d 9e8e afbc afe8 3fbd
000001c0: e304 c9bd dd1d 03be 4ae4 94bc 31ee 31be
000001d0: 013c 4ebe 5275 9bbd 7141 303e ffb2 bebd
000001e0: 599e c7bd 05c4 d6bc dc4e ffbb 4e2f 813d
000001f0: 0368 fabd 9b7f 06be 3549 193d a9fb 81bc
00000200: 43e6 853c e99c 9e3d fc33 2dbc 73dc 803d
00000210: c1ed f7bc 4993 dc3d e42b d23d 3fc6 113e
00000220: 6b22 bcbd cf4a fabd 9eb6 a13c 925c 973d
00000230: d486 4ebd b24c 2a3e fc97 1e3d 63a7 3e3e
00000240: 50b2 aebd 0331 aa3d d4bb bebd 9a21 4ebe
00000250: e121 b23d a2b2 2ebe fb2e d33d 646c 9fbd
00000260: 6baf 56bd 5967 e83d 3c79 edbc 4f27 b2bd
00000270: 94cf a03d 9cec 8abc 959e 7abe 0132 093e
00000280: 3ce3 ec3d 10a6 bd3c e902 953c f560 da3c
00000290: 01c4 87bd 36bc da3d 4a1a 683d e8e1 023e
000002a0: a07c 3dbe f014 84bd 5b88 e3bd 107c 0dbe
000002b0: 7bcd f5bd 3282 103d 3d52 a83d 30f5 8bbd
000002c0: 94f8 dc3d 8c53 e9bd 647b 8fbc 00f3 86bc
000002d0: aa17 1bbd 819c aebb 6664 483e 3100 d2bd
000002e0: ffac c3bc ee32 093e eaef fcbd d626 233e
000002f0: b2a5 83be 62e5 1abe 29ed eebb a378 16be
00000300: 3349 cebd 2c41 f4bb 3791 74be 2525 0ebe
00000310: 8f11 88bc 5f77 aa3d f20e 82be ea21 fdbd
00000320: c3ba 0d3e 626c 18be 39ee d7bc 5b99 2dbe
00000330: fdaf 6dbd 18b0 053e b697 10bd 19ce 283e
00000340: 2f65 9c3d c9a1 033d 8801 cd3d 7b4b 61ba
00000350: 4263 de3c 125b 8b3d e41b 1bbe 2c7b d33d
00000360: 451e 18be 0475 90bd 9012 0a3b 7cc2 f3bd
00000370: 42e0 96b9 fd41 54be a1df ed3d 1b43 913d
00000380: 26f4 46be 0523 afbd 7097 2cbe cd3a 553d
00000390: e7eb 58be 10f1 b53d 17c3 04be b133 0e3d
000003a0: 74fb 11be e895 8e3d 7321 0b3e 6f68 4ebd
000003b0: 5506 d3bd 1723 1bbe a163 d83d 0e0b e9bc
000003c0: bcc9 48bc 09a0 363c 3470 50be 7da7 6ebd
000003d0: 212e 97be 8097 0e3d 96ac f1bd 2715 c9bd
000003e0: be5d 2a3d 9dec 323e b9fa 333d 138b 3fbe
000003f0: 80ca 86bd ae57 713c 2c18 4bbe a29b 09bd

network_body._body_endoder.seq_layers.2.bias f4 [128]
0.0 0.0 0.0 0.0 0.0 0.0 0.0 0.0
0.0 0.0 0.0 0.0 0.0 0.0 0.0 0.0
0.0 0.0 0.0 0.0 0.0 0.0 0.0 0.0
0.0 0.0 0.0 0.0 0.0 0.0 0.0 0.0
0.0 0.0 0.0 0.0 0.0 0.0 0.0 0.0
0.0 0.0 0.0 0.0 0.0 0.0 0.0 0.0
0.0 0.0 0.0 0.0 0.0 0.0 0.0 0.0
0.0 0.0 0.0 0.0 0.0 0.0 0.0 0.0
0.0 0.0 0.0 0.0 0.0 0.0 0.0 0.0
0.0 0.0 0.0 0.0 0.0 0.0 0.0 0.0
0.0 0.0 0.0 0.0 0.0 0.0 0.0 0.0
0.0 0.0 0.0 0.0 0.0 0.0 0.0 0.0
0.0 0.0 0.0 0.0 0.0 0.0 0.0 0.0
0.0 0.0 0.0 0.0 0.0 0.0 0.0 0.0
0.0 0.0 0.0 0.0 0.0 0.0 0.0 0.0
0.0 0.0 0.0 0.0 0.0 0.0 0.0 0.0
00000000: 0000 0000 0000 0000 0000 0000 0000 0000
00000010: 0000 0000 0000 0000 0000 0000 0000 0000
00000020: 0000 0000 0000 0000 0000 0000 0000 0000
00000030: 0000 0000 0000 0000 0000 0000 0000 0000
00000040: 0000 0000 0000 0000 0000 0000 0000 0000
00000050: 0000 0000 0000 0000 0000 0000 0000 0000
00000060: 0000 0000 0000 0000 0000 0000 0000 0000
00000070: 0000 0000 0000 0000 0000 0000 0000 0000
00000080: 0000 0000 0000 0000 0000 0000 0000 0000
00000090: 0000 0000 0000 0000 0000 0000 0000 0000
000000a0: 0000 0000 0000 0000 0000 0000 0000 0000
000000b0: 0000 0000 0000 0000 0000 0000 0000 0000
000000c0: 0000 0000 0000 0000 0000 0000 0000 0000
000000d0: 0000 0000 0000 0000 0000 0000 0000 0000
000000e0: 0000 0000 0000 0000 0000 0000 0000 0000
000000f0: 0000 0000 0000 0000 0000 0000 0000 0000
00000100: 0000 0000 0000 0000 0000 0000 0000 0000
00000110: 0000 0000 0000 0000 0000 0000 0000 0000
00000120: 0000 0000 0000 0000 0000 0000 0000 0000
00000130: 0000 0000 0000 0000 0000 0000 0000 0000
00000140: 0000 0000 0000 0000 0000 0000 0000 0000
00000150: 0000 0000 0000 0000 0000 0000 0000 0000
00000160: 0000 0000 0000 0000 0000 0000 0000 0000
00000170: 0000 0000 0000 0000 0000 0000 0000 0000
00000180: 0000 0000 0000 0000 0000 0000 0000 0000
00000190: 0000 0000 0000 0000 0000 0000 0000 0000
000001a0: 0000 0000 0000 0000 0000 0000 0000 0000
000001b0: 0000 0000 0000 0000 0000 0000 0000 0000
000001c0: 0000 0000 0000 0000 0000 0000 0000 0000
000001d0: 0000 0000 0000 0000 0000 0000 0000 0000
000001e0: 0000 0000 0000 0000 0000 0000 0000 0000
000001f0: 0000 0000 0000 0000 0000 0000 0000 0000

network_body._body_endoder.seq_layers.2.weight f4 [128, 128]
-0.046058163 -0.15652765 -0.0018857804 -0.08725703 0.026172169 0.0023658723 -0.0038788603 0.22680044
0.17062044 -0.05554835 -0.03259946 0.0046607666 0.07408247 0.13459526 0.121770106 -0.10568819
-0.017707514 0.23679335 -0.13949956 0.045323078 -0.032679148 0.078529015 0.032670133 -0.022436837
-0.2128771 -0.20310184 -0.1922066 -0.07528076 -0.02890558 0.17591728 0.20050076 0.0523351
0.08496183 -0.00405133 0.031325936 0.112689815 -0.14943993 0.094703116 0.055292346 0.014984096
-0.030750122 0.16674182 -0.065837264 -0.1288304 0.04795633 0.046029285 -0.014930132 0.045847747
-0.0036386834 -0.06729256 0.034234274 -0.03762549 0.10440678 -0.14965065 0.09658655 -0.08905044
-0.0934908 -0.006948238 -0.08402588 -0.10384761 -0.06266845 0.06277482 -0.08194669 0.10325805
0.008533017 -0.043867234 -0.1011255 -0.04296304 -0.15047243 0.045902655 0.0071350737 -0.017851368
-0.03237177 -0.022589412 0.049887232 0.047892824 0.034980834 -0.035875306 -0.12602855 -0.06177838
-0.16029075 -0.0040837093 0.08414043 -0.016313883 0.10615217 0.066402435 0.13799152 0.063320115
-0.025912615 -0.09361064 0.05379217 -0.05778086 0.1847137 0.00699471 -0.028584527 -0.06478938
0.07607931 -0.05963906 -0.053241264 -0.056285415 -0.10306687 -0.058723703 0.09778451 0.036027137
0.023269238 0.19058041 -0.03880524 -0.030959502 0.022523973 -0.30030873 -0.06872541 -0.119072765
0.11038379 0.042082503 0.07844177 0.13924436 0.11570708 0.06655024 -0.0004056041 -0.07633822
-0.04400211 0.0027256834 -0.17355745 -0.010179232 -0.08839463 -0.052591607 0.061286718 -0.015268142
-0.012674182 -0.040283464 0.1507619 0.007244465 0.029337598 -0.0040252507 0.06778158 -0.17055257
0.064042896 -0.05317349 0.10975972 -0.029327324 -0.041283444 -0.17865044 -0.16361032 0.036861204
0.062356282 0.07160533 0.027444508 0.029986044 0.006363802 -0.10228039 0.063128345 0.030287692
0.07559241 -0.0010226598 -0.11560825 0.051964022 -0.061721426 -0.12676768 0.069828734 0.023389984
0.032655448 0.037162274 -0.0447528 -0.042760026 -0.0126300035 -0.001961928 0.008010403 -0.096241124
0.1288093 -0.15919265 -0.016635869 0.034806523 -0.022462752 0.0082334615 -0.1162436 0.06784543
0.07699793 -0.20635083 -0.004707115 -0.029190036 -0.004924047 0.085332476 -0.03134308 -0.024762856
-0.18156551 0.0062124333 -0.007848334 -0.0073968214 -0.008002586 -0.059345253 -0.04548727 0.019437598
0.12618816 -0.026903613 0.04364097 -0.07453574 0.03862697 -0.15690379 -0.06042916 0.0347372
-0.0032974211 -0.034121532 -0.19002187 -0.031675376 0.00086161704 0.099106714 -0.08482445 0.10364328
0.024134088 0.026051963 0.03962017 0.16327482 0.007596489 -5.4749104e-05 0.06510719 0.023295704
-0.026552886 0.19315207 0.040714793 0.027487498 0.0717988 -0.055846307 -0.14753467 -0.20609532
-0.095956005 0.0497316 -0.08725449 -0.08484914 0.094870076 0.019780155 0.13140142 0.1563452
-0.2410584 0.129773 -0.018286549 0.008797041 -0.06874496 -0.08216098 -0.031697325 0.036363985
0.03878423 -0.0012723461 0.16112673 -0.16486494 -0.025691051 0.012082316 0.01054416 0.12696108
0.08913103 -0.12070104 0.09444849 -0.051371902 -0.07870164 0.06677039 -0.032173656 0.15382457
00000000: 7ca7 3cbd c948 20be 4a2c f7ba d0b3 b2bd
00000010: 0467 d63c c00c 1b3b 7a34 7ebb 603e 683e
00000020: 20b7 2e3e ab86 63bd 0387 05bd 58b9 983b
00000030: 8db8 973d 57d3 093e 9b62 f93d 0d73 d8bd
00000040: 590f 91bc f579 723e f9d8 0ebe b1a4 393d
00000050: 92da 05bd d2d3 a03d 1ed1 053d 75cd b7bc
00000060: 74fc 59be eef9 4fbe cfd1 44be cd2c 9abd
00000070: 65cb ecbc a923 343e 1250 4d3e 545d 563d
00000080: 7800 ae3d 05c1 84bb a04f 003d ebc9 e63d
00000090: c806 19be b5f3 c13d 3a7a 623d db7f 753c
000000a0: aee7 fbbc 5ebe 2a3e b0d5 86bd 1eec 03be
000000b0: db6d 443d 3489 3c3d 839d 74bc d9ca 3b3d
000000c0: fa76 6ebb afd0 89bd 3d39 0c3d 301d 1abd
000000d0: 39d3 d53d 053e 19be 2bcf c53d 1460 b6bd
000000e0: 1b78 bfbd 0bae e3bb c315 acbd 0eae d4bd
000000f0: 5158 80bd 1690 803d abd3 a7bd f578 d33d
00000100: 11ce 0b3c 21ae 33bd e31a cfbd 03fa 2fbd
00000110: 7215 1abe 6c04 3c3d 56cd e93b 083d 92bc
00000120: 4398 04bd 6e0d b9bc 8e56 4c3d 442b 443d
00000130: 1048 0f3d fcf1 12bd a10d 01be 540b 7dbd
00000140: 4223 24be a3d0 85bb d151 ac3d b1a4 85bc
00000150: 4f66 d93d 00fe 873d a64d 0d3e faad 813d
00000160: b146 d4bc efb6 bfbd 2e55 5c3d a0ab 6cbd
00000170: 9725 3d3e e133 e53b 192a eabc 4bb0 84bd
00000180: 78cf 9b3d 1648 74bd 8313 5abd 898b 66bd
00000190: b914 d3bd 4488 70bd 3f43 c83d 3191 133d
000001a0: 219f be3c 8327 433e 3ef2 1ebd c89e fdbc
000001b0: 3284 b83c 11c2 99be e8bf 8cbd 6cdc f3bd
000001c0: e610 e23d b45e 2c3d 14a6 a03d 1396 0e3e
000001d0: d5f7 ec3d 7e4b 883d 43a7 d4b9 3657 9cbd
000001e0: 8e3b 34bd 61a1 323b 0bb9 31be cbc6 26bc
000001f0: 3e08 b5bd 4c6a 57bd c807 7b3d 3b27 7abc
00000200: 5fa7 4fbc 4600 25bd 5461 1a3e fa62 ed3b
00000210: 6755 f03c 40e6 83bb 12d1 8a3d 55a5 2ebe
00000220: ec28 833d 72cc 59bd b4c9 e03d db3f f0bc
00000230: d418 29bd 24f0 36be 7789 27be c6fb 163d
00000240: 4d69 7f3d d1a5 923d 4ed3 e03c 4ba5 f53c
00000250: 7187 d03b 6278 d1bd 6f49 813d e51d f83c
00000260: 32d0 9a3d c50a 86ba 05c4 ecbd 3ad8 543d
00000270: 9bcf 7cbd 63cf 01be 5e02 8f3d 5a9c bf3c
00000280: b8c1 053d 7837 183d b64e 37bd 2325 2fbd
00000290: 13ee 4ebc b193 00bb 113e 033c 111a c5bd
000002a0: 96e6 033e 6603 23be f247 88bc 4991 0e3d
000002b0: ce03 b8bc a4e5 063c 2011 eebd 8bf2 8a3d
000002c0: 17b1 9d3d a24d 53be 243e 9abb f11f efbc
000002d0: e659 a1bb cbc2 ae3d 9a61 00bd 79db cabc
000002e0: 4fec 39be ab91 cb3b 4c96 00bc 0961 f2bb
000002f0: 471d 03bc 0214 73bd dc50 3abd 993b 9f3c
00000300: 7837 013e f764 dcbc e0c0 323d 32a6 98bd
00000310: 5037 1e3d 63ab 20be 9184 77bd 9848 0e3d
00000320: 8c19 58bb 05c3 0bbd 1895 42be 0abe 01bd
00000330: 24de 613a 76f8 ca3d 71b8 adbd ee42 d43d
00000340: dab4 c53c ed6a d53c c248 223d 8431 273e
00000350: f8eb f83b 67a2 65b8 eb56 853d a2d6 be3c
00000360: 7085 d9bc a8c9 453e 8ec4 263d 762d e13c
00000370: 400b 933d 19bf 64bd 5413 17be a70a 53be
00000380: 9584 c4bd 5db3 4b3d 7bb2 b2bd 63c5 adbd
00000390: 3e4b c23d fe09 a23c 188e 063e f518 203e
000003a0: 03d8 76be 37e3 043e accd 95bc 7721 103c
000003b0: 28ca 8cbd 0444 a8bd 0ed5 01bd 67f2 143d
000003c0: 36dc 1e3d dac4 a6ba 68fe 243e 5bd2 28be
000003d0: 0a76 d2bc e8f4 453c 6ac1 2c3c 1602 023e
000003e0: 548a b63d 1b32 f7bd 366e c13d 586b 52bd
000003f0: 532e a1bd eabe 883d 86c8 03bd 3084 1d3e
