FYPprototype/results/Test2.1/AIBalancing/AIBalancing-1157.pt (torch, 242151 bytes, 16 tensors)

discrete_act_size_vector f4 [1, 3]
2.0 19.0 15.0
00000000: 0000 0040 0000 9841 0000 7041

network_body._body_endoder.seq_layers.0.weight f4 [128, 78]
-0.08258107 -0.13410561 0.068003215 0.1647688 0.19499518 -0.09429157 0.22311139 0.17746758
-0.12146099 -0.021568876 0.15628874 0.046757482 -0.1265057 0.18842238 -0.073764406 0.104009345
-0.04279062 0.033242 0.056300417 -0.14673829 -0.043400057 0.19903342 0.024215825 0.30385858
-0.0068426416 -0.078680314 -0.22412686 -0.001911439 -0.20170529 -0.049495835 0.17092064 0.17219372
0.11533194 -0.23345752 -0.044372868 0.0063470523 -0.15628955 0.052145027 -0.08684388 0.11301614
-0.015742442 0.0775251 -0.13422029 -0.13832498 -0.051765192 0.076582104 -0.0072496026 -0.026384164
-0.08802638 0.1983852 0.08913488 0.10806673 -0.13121232 0.08915902 0.0029211373 -0.10336174
-0.065794624 0.055946484 -0.03206939 -0.17697084 0.24319501 0.13734013 0.16642463 0.07848673
-0.06892567 -0.06439199 -0.07099415 0.0012027816 -0.03471841 -0.108592734 0.03584163 0.083716206
-0.1372834 0.004912796 0.09180006 0.01979653 0.105166085 -0.030054195 0.04641093 -0.00017047144
0.021147879 0.0720555 0.009512984 -0.09309196 0.15578611 0.198857 -0.10021628 -0.13981485
-0.056843266 0.15171507 -0.08149665 -0.109474376 0.00054414145 0.0723808 0.008477633 0.17857699
0.15999259 0.07593167 0.0197122 -0.056036647 -0.017653864 0.0034766477 -0.26913497 0.123016156
0.044365514 0.0448564 0.066713735 -0.022159044 -0.0070037697 -0.116352715 -0.23392324 -0.06337421
0.033096552 0.081847645 -0.110467605 0.15270245 -0.02858389 -0.16573668 -0.08654615 -0.066543475
-0.035841737 0.09413504 -0.14711869 0.06326726 0.017409945 0.0043388857 -0.13823587 -0.16673443
-0.028197184 0.021161595 0.1521186 -0.042646393 -0.09768202 0.08042936 -0.22162578 0.0070722084
0.059987523 0.012450911 -0.024438227 -0.004902944 -0.024354268 -0.011684381 -0.10970959 0.08810939
0.07332056 -0.015546005 -0.13345799 -0.084788 -0.0043653217 0.03520698 0.009312808 0.10262722
0.009367872 0.20755066 0.114452966 -0.4451527 -0.035998702 0.010269346 -0.28907743 -0.06906769
-0.13283165 0.15502462 -0.010386102 -0.02765645 0.089457996 -0.06652186 0.0084255785 -0.0057499264
0.22434124 -0.11602261 0.14585303 0.10463428 -0.16430746 0.09881365 -0.12758724 0.15353164
-0.07775718 0.13332337 -0.08265586 0.15080896 0.12027879 0.25658497 -0.018147184 0.29326448
-0.01627061 -0.21592407 -0.18284693 0.07398651 0.019080741 0.06063502 0.13980041 0.15492587
0.042570464 0.063824035 0.21790017 0.1221694 0.018663432 0.008498881 0.116034 -0.113211416
-0.08843781 0.04407201 -0.14899626 0.054224975 -0.12215892 0.19100386 0.09520312 -0.042211827
-0.0160928 0.07051834 0.07225195 0.028533496 0.08369365 0.26999682 0.06714328 0.012573218
0.048994947 -0.13313948 -0.17215636 0.15055878 -0.000611252 0.03786029 -0.11084434 -0.09055553
-0.011596978 -0.09358775 -0.34694394 -0.11636883 -0.16762686 -0.006814227 -0.040832173 -0.08269081
0.010508667 -0.14939272 -0.026003387 -0.011017466 -0.027572317 0.044055816 -0.15993452 0.034304697
-0.056415085 -0.016938323 0.035980307 -0.12667084 0.024475362 0.15763788 0.189244 0.01436266
-0.08497805 -0.0712634 -0.11841438 0.12436723 -0.22152092 -0.08709358 -0.13483241 0.21606101
00000000: 4420 a9bd fb52 09be 4545 8b3d 27b9 283e
00000010: d1ac 473e f01b c1bd 5077 643e 10ba 353e
00000020: 8ac0 f8bd 36b1 b0bc 280a 203e c684 3f3d
00000030: b68a 01be ccf1 403e cb11 97bd da02 d53d
00000040: 3845 2fbd c328 083d 449b 663d 9042 16be
00000050: 42c4 31bd 6bcf 4b3e 4460 c63c 5a93 9b3e
00000060: 3d38 e0bb 2523 a1bd 8381 65be 4089 faba
00000070: d58b 4ebe 25bc 4abd d205 2f3e 8d53 303e
00000080: 2733 ec3d 7d0f 6fbe 53c0 35bd effa cf3b
00000090: 5e0a 20be 0696 553d 34db b1bd 0275 e73d
000000a0: 4bf6 80bc 7bc5 9e3d 0b71 09be 10a5 0dbe
000000b0: bd07 54bd 14d7 9c3d 138e edbb 9a23 d8bc
000000c0: 2d47 b4bd 7d25 4b3e 598c b63d 1752 dd3d
000000d0: 865c 06be 0199 b63d 8d70 3f3b 52af d3bd
000000e0: 55bf 86bd 2428 653d 315b 03bd d837 35be
000000f0: 1d08 793e e4a2 0c3e 386b 2a3e a7bd a03d
00000100: e728 8dbd f3df 83bd 6265 91bd a7a6 9d3a
00000110: e434 0ebd de65 debd acce 123d 6773 ab3d
00000120: 0594 0cbe 85fb a03b ab01 bc3d 552c a23c
00000130: 5161 d73d 3734 f6bc 6319 3e3d 94c0 32b9
00000140: 513e ad3c d591 933d 59dc 1b3c ffa6 bebd
00000150: 6586 1f3e 2ba1 4b3e 313e cdbd a02b 0fbe
00000160: 7cd4 68bd 325b 1b3e b7e7 a6bd 1a34 e0bd
00000170: b7a4 0e3a 633c 943d c5e5 0a3c e3dc 363e
00000180: 19d5 233e 1082 9b3d 7b7b a13c af86 65bd
00000190: d69e 90bc 78d8 633b 0fcc 89be e5ef fb3d
000001a0: 9db8 353d 58bb 373d 36a1 883d e286 b5bc
000001b0: e17f e5bb 554a eebd 9389 6fbe 56ca 81bd
000001c0: 4090 073d bd9f a73d d73c e2bd 085e 1c3e
000001d0: c328 eabc e0b6 29be 1c3f b1bd f247 88bd
000001e0: c9ce 12bd dfc9 c03d 48a6 16be 4492 813d
000001f0: 4d9f 8e3c 362d 8e3b b48d 0dbe 6ebc 2abe
00000200: c8fd e6bc 155b ad3c fac4 1b3e fcad 2ebd
00000210: 830d c8bd 26b8 a43d def1 62be fcbd e73b
00000220: 7ab5 753d e8fe 4b3c ad32 c8bc e0a8 a0bb
00000230: 9a82 c7bc d96f 3fbc 6caf e0bd b272 b43d
00000240: 1729 963d acb4 7ebc 36a9 08be 55a5 adbd
00000250: f90a 8fbb 3235 103d bf94 183c 382e d23d
00000260: b47b 193c 2988 543e 5166 ea3d 0eeb e3be
00000270: 6073 13bd c240 283c f501 94be 5c73 8dbd
00000280: 0505 08be c6be 1e3e 782a 2abc c88f e2bc
00000290: c135 b73d 9d3c 88bd 700b 0a3c e169 bcbb
000002a0: b6b9 653e 439d edbd 7f5a 153e 7f4a d63d
000002b0: 3740 28be d05e ca3d 3ba6 02be 6637 1d3e
000002c0: 283f 9fbd ec85 083e 7a47 a9bd aa6d 1a3e
000002d0: ba54 f63d 1b5f 833e 67a9 94bc c326 963e
000002e0: f149 85bc 331b 5dbe 3a3c 3bbe 3d86 973d
000002f0: 374f 9c3c 6d5c 783d d727 0f3e e3a4 1e3e
00000300: 5e5e 2e3d 2db6 823d 3921 5f3e f333 fa3d
00000310: 0ee4 983c e43e 0b3c 3ca3 ed3d 63db e7bd
00000320: e21e b5bd da84 343d 7a92 18be 021b 5e3d
00000330: 752e fabd 8496 433e daf9 c23d 4fe6 2cbd
00000340: 0cd5 83bc eb6b 903d d5f8 933d 14bf e93c
00000350: 9467 ab3d 063d 8a3e 6a82 893d e6ff 4d3c
00000360: edae 483d b755 08be c249 30be 152c 1a3e
00000370: 6d3c 20ba 6413 1b3d 5b02 e3bd 2d75 b9bd
00000380: 4001 3ebc efaa bfbd a3a2 b1be c852 eebd
00000390: 60a6 2bbe e149 dfbb a33f 27bd cd59 a9bd
000003a0: 8b2c 2c3c 68fa 18be 0e05 d5bc 9a82 34bc
000003b0: 57df e1bc df73 343d e0c5 23be 1583 0c3d
000003c0: 8113 67bd 3dc2 8abc 1660 133d 00b6 01be
000003d0: 8e80 c83c d36b 213e 2ec9 413e 5d51 6b3c
000003e0: f908 aebd 8cf2 91bd 3d83 f2bd 3fb4 fe3d
000003f0: 61d6 62be 1e5e b2bd 8211 0abe 193f 5d3e

network_body._body_endoder.seq_layers.0.bias f4 [128]
0.0 0.0 0.0 0.0 0.0 0.0 0.0 0.0
0.0 0.0 0.0 0.0 0.0 0.0 0.0 0.0
0.0 0.0 0.0 0.0 0.0 0.0 0.0 0.0
0.0 0.0 0.0 0.0 0.0 0.0 0.0 0.0
0.0 0.0 0.0 0.0 0.0 0.0 0.0 0.0
0.0 0.0 0.0 0.0 0.0 0.0 0.0 0.0
0.0 0.0 0.0 0.0 0.0 0.0 0.0 0.0
0.0 0.0 0.0 0.0 0.0 0.0 0.0 0.0
0.0 0.0 0.0 0.0 0.0 0.0 0.0 0.0
0.0 0.0 0.0 0.0 0.0 0.0 0.0 0.0
0.0 0.0 0.0 0.0 0.0 0.0 0.0 0.0
0.0 0.0 0.0 0.0 0.0 0.0 0.0 0.0
0.0 0.0 0.0 0.0 0.0 0.0 0.0 0.0
0.0 0.0 0.0 0.0 0.0 0.0 0.0 0.0
0.0 0.0 0.0 0.0 0.0 0.0 0.0 0.0
0.0 0.0 0.0 0.0 0.0 0.0 0.0 0.0
00000000: 0000 0000 0000 0000 0000 0000 0000 0000
00000010: 0000 0000 0000 0000 0000 0000 0000 0000
00000020: 0000 0000 0000 0000 0000 0000 0000 0000
00000030: 0000 0000 0000 0000 0000 0000 0000 0000
00000040: 0000 0000 0000 0000 0000 0000 0000 0000
00000050: 0000 0000 0000 0000 0000 0000 0000 0000
00000060: 0000 0000 0000 0000 0000 0000 0000 0000
00000070: 0000 0000 0000 0000 0000 0000 0000 0000
00000080: 0000 0000 0000 0000 0000 0000 0000 0000
00000090: 0000 0000 0000 0000 0000 0000 0000 0000
000000a0: 0000 0000 0000 0000 0000 0000 0000 0000
000000b0: 0000 0000 0000 0000 0000 0000 0000 0000
000000c0: 0000 0000 0000 0000 0000 0000 0000 0000
000000d0: 0000 0000 0000 0000 0000 0000 0000 0000
000000e0: 0000 0000 0000 0000 0000 0000 0000 0000
000000f0: 0000 0000 0000 0000 0000 0000 0000 0000
00000100: 0000 0000 0000 0000 0000 0000 0000 0000
00000110: 0000 0000 0000 0000 0000 0000 0000 0000
00000120: 0000 0000 0000 0000 0000 0000 0000 0000
00000130: 0000 0000 0000 0000 0000 0000 0000 0000
00000140: 0000 0000 0000 0000 0000 0000 0000 0000
00000150: 0000 0000 0000 0000 0000 0000 0000 0000
00000160: 0000 0000 0000 0000 0000 0000 0000 0000
00000170: 0000 0000 0000 0000 0000 0000 0000 0000
00000180: 0000 0000 0000 0000 0000 0000 0000 0000
00000190: 0000 0000 0000 0000 0000 0000 0000 0000
000001a0: 0000 0000 0000 0000 0000 0000 0000 0000
000001b0: 0000 0000 0000 0000 0000 0000 0000 0000
000001c0: 0000 0000 0000 0000 0000 0000 0000 0000
000001d0: 0000 0000 0000 0000 0000 0000 0000 0000
000001e0: 0000 0000 0000 0000 0000 0000 0000 0000
000001f0: 0000 0000 0000 0000 0000 0000 0000 0000

network_body._body_endoder.seq_layers.2.weight f4 [128, 128]
-0.019104704 -0.12579148 -0.043469805 0.16488619 -0.018633509 -0.107042745 -0.06166567 0.0018989277
-0.02836844 0.13598865 0.14860731 -0.18634896 -0.054674733 0.030779496 -0.11435098 0.063572995
0.20287976 -0.12688172 0.012330308 -0.059602972 0.00063413964 0.18237701 0.13896468 0.013541378
0.008531144 0.011675691 0.03114748 0.046451572 0.1753704 -0.056571648 0.04933051 -0.016213976
-0.07132595 -0.049490258 0.028823046 0.12822887 0.061163325 -0.09617519 0.0700993 0.06011551
0.014952882 -0.004835592 -0.045867503 -0.0591399 0.029648652 -0.06400331 0.11072866 -0.05168781
0.07041224 -0.028919984 -0.049002018 0.03083308 0.062218145 0.2545015 -0.03656081 0.022342427
-0.037352595 -0.030534199 -0.10470948 0.26469913 0.19484495 -0.035214275 0.11451562 0.025989309
0.11595117 -0.11592886 -0.1394076 -0.093721926 -0.07955023 0.12871516 -0.12178908 0.032411765
-0.07728684 -0.11390836 -0.10046518 -0.20161612 -0.122604504 1.9987376e-06 -0.16280007 -0.10880494
-0.092772305 0.11178757 0.018628443 -0.1342153 0.12839794 -0.06784822 0.03666388 -0.06771824
0.002235117 0.02045668 0.038805384 0.047406036 0.01131023 0.21179347 0.021131253 -0.08158853
0.02110874 -0.07224879 0.026775913 -0.028800245 0.035530988 -0.056658283 0.13449553 -0.01730169
-0.09707159 -0.016341008 -0.027903784 0.11613115 0.11702834 0.0241798 -0.15197738 0.014204909
0.02549554 0.012843793 0.021145368 -0.015329156 -0.03714307 0.034849484 -0.06794267 0.1508561
0.07782519 -0.12560366 -0.0020406137 -0.0057332995 -0.02413879 0.06258453 0.080725454 -0.23948132
0.03915328 -0.086784385 -0.08643453 -0.051176395 -0.12047021 -0.040746935 -0.03722143 0.11135307
0.010953297 0.0038547355 0.17672227 -0.05082173 -0.030235952 -0.14546542 0.040520582 -0.107701674
0.053907502 0.02076071 0.04924114 0.036101893 -0.04183763 -0.031448636 0.01121045 0.12345174
-0.17822497 0.12793772 -0.071416594 -0.07298057 -0.020453906 -0.12526254 0.03543183 -0.08730268
-0.164955 0.08793139 -0.0019508885 0.059892926 0.042720485 -0.16380908 -0.011785751 0.021394528
-0.12462445 0.018342191 0.02701092 -0.13512474 -0.011288782 -0.015120676 -0.23804772 -0.0028993213
0.027516093 0.006614006 0.1532668 -0.015392673 0.033428695 0.10462326 -0.04329382 -0.00795344
0.04769204 0.00090210955 -0.035972703 0.13299863 0.074585594 0.007940141 -0.029626297 0.20338923
-0.05998323 0.0017546051 -0.019898152 -0.008932936 -0.057370394 0.057033002 0.0673547 -0.04291346
-0.05494315 -0.066666186 0.11254436 -0.087450236 -0.09582007 0.20253417 0.023789877 0.089373484
0.029003322 -0.063141234 -0.10506819 0.038233943 -0.0538699 -0.012458116 -0.037534427 -0.04967818
-0.124798946 0.02293622 0.016588803 0.074260674 -0.11715446 -0.09852765 -0.18258274 -0.12585287
0.18111156 0.06271356 0.060847417 -0.07754334 -0.07022704 0.0057216706 0.053192098 -0.0034123936
-0.09816488 -0.07465088 -0.050081998 -0.11706863 0.11778209 0.043893903 -0.051446006 -0.16221175
-0.10732976 -0.011744106 0.018041043 0.036917064 -0.026363567 -0.08155842 0.05804647 0.077856325
0.019148126 0.027532663 -0.013883492 -0.08015707 0.02109862 0.111291155 -0.081813514 -0.07981509
00000000: 7881 9cbc 7bcf 00be 650d 32bd edd7 283e
00000010: 4da5 98bc 3a39 dbbd 2495 7cbd 71e5 f83a
00000020: ee64 e8bc 9c40 0b3e 842c 183e 43d2 3ebe
00000030: 9df2 5fbd 4825 fc3c d930 eabd 8f32 823d
00000040: b6bf 4f3e 48ed 01be 0f05 4a3c 3f22 74bd
00000050: 643c 263a 0ac1 3a3e c24c 0e3e a8dc 5d3c
00000060: 36c6 0b3c 664b 3f3c 0029 ff3c 0144 3e3d
00000070: 4c94 333e acb7 67bd ca0e 4a3d 2cd3 84bc
00000080: 5713 92bd 4cb6 4abd 4f1e ec3c 6e4e 033e
00000090: 6586 7a3d 7ff7 c4bd 3990 8f3d ae3b 763d
000000a0: effc 743c e373 9ebb 90df 3bbd ae3c 72bd
000000b0: bbe1 f23c 2b14 83bd b5c5 e23d 99b6 53bd
000000c0: 4b34 903d 9ae9 ecbc 57b6 48bd a895 fc3c
000000d0: 74d8 7e3d 054e 823e cac0 15bd 7707 b73c
000000e0: 09ff 18bd db22 fabc ed71 d6bd a586 873e
000000f0: 6f85 473e d83c 10bd 2a87 ea3d 88e7 d43c
00000100: cf77 ed3d 1c6c edbd dec0 0ebe 48f1 bfbd
00000110: 3beb a2bd e8cd 033e 8e6c f9bd 33c2 043d
00000120: 9048 9ebd c948 e9bd b0c0 cdbd 7574 4ebe
00000130: 1218 fbbd 0d22 0636 10b5 26be 20d5 debd
00000140: 68ff bdbd e2f0 e43d ad9a 983c bc6f 09be
00000150: c07a 033e 02f4 8abd dd2c 163d dcaf 8abd
00000160: 0a7b 123b c494 a73c 65f2 1e3d d52c 423d
00000170: 8b4e 393c 63e0 583e 731b ad3c e317 a7bd
00000180: 3cec ac3c 2cf7 93bd 2959 db3c 7eee ebbc
00000190: f188 113d 8412 68bd 32b9 093e 46bc 8dbc
000001a0: 78cd c6bd 94dd 85bc 7a96 e4bc 2bd6 ed3d
000001b0: 8eac ef3d b714 c63c f59f 1bbe b5bb 683c
000001c0: 06dc d03c c66e 523c 0d39 ad3c 2427 7bbc
000001d0: 5523 18bd 55be 0e3d 8725 8bbd 057a 1a3e
000001e0: d062 9f3d 3f9e 00be d1bb 05bb 67de bbbb
000001f0: b6be c5bc 512c 803d 6353 a53d 973a 75be
00000200: 315f 203d 03bc b1bd 9604 b1bd 579e 51bd
00000210: 16b9 f6bd 42e6 26bd 8075 18bd 140d e43d
00000220: 7575 333c bb9f 7c3b aff6 343e 722a 50bd
00000230: 63b1 f7bc e3f4 14be e9f8 253d b292 dcbd
00000240: 1dce 5c3d 5d12 aa3c 14b1 493d 94df 133d
00000250: ef5d 2bbd 49d0 00bd 09ac 373c 44d4 fc3d
00000260: 9b80 36be 1b02 033e dd42 92bd d676 95bd
00000270: f38e a7bc d344 00be f720 113d bfcb b2bd
00000280: f7e9 28be 5f15 b43d f5b4 ffba 4952 753d
00000290: adfb 2e3d 91bd 27be 0619 41bc 9443 af3c
000002a0: 1b3b ffbd 5d42 963c 0146 dd3c 245e 0abe
000002b0: 95f4 38bc b6bc 77bc c8c2 73be 8a02 3ebb
000002c0: 6e69 e13c 4eba d83b f9f1 1c3e 8d31 7cbc
000002d0: 87ec 083d b844 d63d dc54 31bd 254f 02bc
000002e0: bb58 433d 8c7b 6c3a 1d58 13bd cb30 083e
000002f0: 55c0 983d 5d17 023c d9b2 f2bc 4445 503e
00000300: fab0 75bd c7fa e53a 7301 a3bc 735b 12bc
00000310: 38fd 6abd 709b 693d 43f1 893d 06c6 2fbd
00000320: 120c 61bd 4888 88bd a87d e63d 1c19 b3bd
00000330: 503d c4bd 1e65 4f3e fde2 c23c 7209 b73d
00000340: 6098 ed3c 3150 81bd fe2d d7bd 329b 1c3d
00000350: afa6 5cbd 201d 4cbc b3bd 19bd 597b 4bbd
00000360: 9796 ffbd bde4 bb3c 3ee5 873c fb15 983d
00000370: adee efbd ddc8 c9bd f8f6 3abe 93df 00be
00000380: 4f75 393e f86f 803d 243b 793d 0bcf 9ebd
00000390: 32d3 8fbd da7c bb3b f5df 593d 77a2 5fbb
000003a0: ab0a c9bd 90e2 98bd c822 4dbd aec1 efbd
000003b0: bd37 f13d 18ca 333d 0cb9 52bd d61a 26be
000003c0: b5cf dbbd 5a6a 40bc cfca 933c 5936 173d
000003d0: 68f8 d7bc 1a08 a7bd 23c2 6d3d 2373 9f3d
000003e0: 88dc 9c3c 2e8c e13c 9677 63bc 6429 a4bd
000003f0: 03d7 ac3c 9eec e33d d88d a7bd 1876 a3bd

network_body._body_endoder.seq_layers.2.bias f4 [128]
0.0 0.0 0.0 0.0 0.0 0.0 0.0 0.0
0.0 0.0 0.0 0.0 0.0 0.0 0.0 0.0
0.0 0.0 0.0 0.0 0.0 0.0 0.0 0.0
0.0 0.0 0.0 0.0 0.0 0.0 0.0 0.0
0.0 0.0 0.0 0.0 0.0 0.0 0.0 0.0
0.0 0.0 0.0 0.0 0.0 0.0 0.0 0.0
0.0 0.0 0.0 0.0 0.0 0.0 0.0 0.0
0.0 0.0 0.0 0.0 0.0 0.0 0.0 0.0
0.0 0.0 0.0 0.0 0.0 0.0 0.0 0.0
0.0 0.0 0.0 0.0 0.0 0.0 0.0 0.0
0.0 0.0 0.0 0.0 0.0 0.0 0.0 0.0
0.0 0.0 0.0 0.0 0.0 0.0 0.0 0.0
0.0 0.0 0.0 0.0 0.0 0.0 0.0 0.0
0.0 0.0 0.0 0.0 0.0 0.0 0.0 0.0
0.0 0.0 0.0 0.0 0.0 0.0 0.0 0.0
0.0 0.0 0.0 0.0 0.0 0.0 0.0 0.0
00000000: 0000 0000 0000 0000 0000 0000 0000 0000
00000010: 0000 0000 0000 0000 0000 0000 0000 0000
00000020: 0000 0000 0000 0000 0000 0000 0000 0000
00000030: 0000 0000 0000 0000 0000 0000 0000 0000
00000040: 0000 0000 0000 0000 0000 0000 0000 0000
00000050: 0000 0000 0000 0000 0000 0000 0000 0000
00000060: 0000 0000 0000 0000 0000 0000 0000 0000
00000070: 0000 0000 0000 0000 0000 0000 0000 0000
00000080: 0000 0000 0000 0000 0000 0000 0000 0000
00000090: 0000 0000 0000 0000 0000 0000 0000 0000
000000a0: 0000 0000 0000 0000 0000 0000 0000 0000
000000b0: 0000 0000 0000 0000 0000 0000 0000 0000
000000c0: 0000 0000 0000 0000 0000 0000 0000 0000
000000d0: 0000 0000 0000 0000 0000 0000 0000 0000
000000e0: 0000 0000 0000 0000 0000 0000 0000 0000
000000f0: 0000 0000 0000 0000 0000 0000 0000 0000
00000100: 0000 0000 0000 0000 0000 0000 0000 0000
00000110: 0000 0000 0000 0000 0000 0000 0000 0000
00000120: 0000 0000 0000 0000 0000 0000 0000 0000
00000130: 0000 0000 0000 0000 0000 0000 0000 0000
00000140: 0000 0000 0000 0000 0000 0000 0000 0000
00000150: 0000 0000 0000 0000 0000 0000 0000 0000
00000160: 0000 0000 0000 0000 0000 0000 0000 0000
00000170: 0000 0000 0000 0000 0000 0000 0000 0000
00000180: 0000 0000 0000 0000 0000 0000 0000 0000
00000190: 0000 0000 0000 0000 0000 0000 0000 0000
000001a0: 0000 0000 0000 0000 0000 0000 0000 0000
000001b0: 0000 0000 0000 0000 0000 0000 0000 0000
000001c0: 0000 0000 0000 0000 0000 0000 0000 0000
000001d0: 0000 0000 0000 0000 0000 0000 0000 0000
000001e0: 0000 0000 0000 0000 0000 0000 0000 0000
000001f0: 0000 0000 0000 0000 0000 0000 0000 0000

action_model._discrete_distribution.branches.0.weight f4 [2, 128]
0.02128628 -0.00714897 -0.007113938 -0.012012075 0.0043969634 0.0037363418 0.0042357813 -0.0027630448
0.009664434 -0.003097154 -0.007230751 -0.008666056 0.011180763 0.009859921 0.0007720093 -0.004445674
0.0027608324 -0.0025144608 0.0033597134 -0.013705457 -0.0025771556 -0.0027379915 0.0015622255 0.0046140864
-0.00083556183 -0.012300654 -0.005704638 0.0090837665 0.0066440403 0.0053872233 0.005056066 0.0044292617
0.007224738 0.0076919966 -0.00037139418 -0.0037531897 -0.0063912794 0.0017588228 0.0037154115 -0.011813379
0.002811791 0.011125275 -0.004614884 0.011940034 0.0046159863 0.002021816 -0.004420024 0.0014013428
-0.008715306 -0.009674019 0.0054266555 -0.013788441 -0.014550285 0.013143969 0.006528524 -0.004049452
-0.01448344 0.0063645034 -0.024677522 -0.0028379261 -0.007014972 -0.0035250538 -0.014969717 0.0011335177
0.00011259692 0.014157089 -0.0033759687 0.0014801905 -0.0038450945 0.0042473935 -0.0025214886 -0.0023957118
0.005233868 0.013910077 0.017129911 0.012398539 0.0032669192 -0.00398224 0.014013559 0.008554733
-0.009851845 -0.01650845 -0.01132118 -0.00589952 0.0048960666 0.0012160754 -0.0048783296 0.0027637095
0.022682311 0.0074483934 -0.0111382 -0.002574318 0.0018177498 -0.016261758 0.013709714 -0.008308308
-0.008448526 -0.01427406 -0.005082467 -0.003869528 0.011286034 0.010619186 -0.009579008 -0.010756013
-0.009035184 -0.0076753423 0.007028186 -0.00522417 -0.020288218 -0.006317762 -0.0030254193 0.010846496
-0.0067367055 -0.004192488 -0.001246606 -0.0044115535 0.012480921 0.008803434 0.015444288 -0.018247204
0.0061814873 0.0023521825 -3.3077344e-05 -0.00010112969 -0.013364828 0.019339876 -0.004014817 -0.0027072055
-0.0010486763 -0.0042494326 0.010537306 0.002324837 -0.0035424933 0.009977798 0.009592115 -0.0021654502
0.0055342745 -0.0051809805 0.008787814 -0.0022509708 -0.0009286458 0.0057136645 -0.01407887 -0.014275919
0.0014656538 0.013086775 -0.0031808328 -0.008322778 -0.010656501 0.0024439006 0.010864328 0.008153491
0.0030580633 -0.0068680826 -0.016815295 0.007938414 0.0103010675 -0.008504334 -0.00041866032 -0.014723839
0.0011418009 -0.0148046985 -0.005361957 -0.016148932 -0.0070089223 0.002550512 -0.004869755 0.0028923897
0.0061745993 0.0038399328 -0.013319427 0.0073917597 0.004764073 0.005441912 0.00068532256 -0.016755065
0.0034354615 0.0053406223 -0.0061275414 -0.0026020918 -0.0040580533 0.0070157284 -0.00624662 0.0060482244
-0.003919472 0.0021437316 -0.003232313 0.008516002 -0.0010659791 0.0010465732 0.013339638 -0.009723905
0.013635269 0.011015907 0.0049755783 -0.004458995 0.0033146476 -0.00488368 -0.0035037105 -0.004694541
0.010046865 0.010189789 -0.0004371631 -0.00038429836 0.00032377805 -0.021397304 -0.012279447 -0.005118023
0.012734103 0.0063750125 0.007609181 0.000107565254 0.016605807 0.019252516 0.0040203906 -0.0126511995
0.014157253 -0.005335811 -0.008488018 0.009710154 0.0060353167 -0.002230497 0.021865075 -0.002421135
-0.010129167 -0.0027605451 0.017472282 -0.0018212477 -0.0062728496 0.011013605 -0.0014627265 -0.008021574
0.0022685372 0.0099503985 0.013102846 -0.0033470497 0.016779473 0.008693646 0.004854939 0.026279077
-0.004062252 -0.007509841 -0.008507653 -0.017914684 -0.0044413614 -0.00092074135 -0.0014038895 0.0012353797
-0.0016262645 0.0010802612 -0.013730622 -0.0049666967 -0.0047692596 -0.008668307 0.0064949035 0.0073164017
00000000: 9160 ae3c e841 eabb 0a1c e9bb 4bce 44bc
00000010: 6714 903b 6add 743b 4fcc 8a3b 3314 35bb
00000020: 9357 1e3c 9ff9 4abb f0ef ecbb 13fc 0dbc
00000030: 852f 373c 828b 213c ab60 4a3a 04ad 91bb
00000040: 15ef 343b a7c9 24bb a32e 5c3b da8c 60bc
00000050: 7fe5 28bb e06f 33bb 97c3 cc3a c331 973b
00000060: 9b09 5bba af88 49bc f9ed babb 14d4 143c
00000070: 40b6 d93b 4e87 b03b 5bad a53b 5723 913b
00000080: 7fbd ec3b 250d fc3b afb7 c2b9 13f8 75bb
00000090: f06d d1bb 4d88 e63a 437e 733b e78c 41bc
000000a0: 0646 383b c946 363c 7438 97bb 22a0 433c
000000b0: b341 973b 7280 043b d9d5 90bb 43ad b73a
000000c0: a5ca 0ebc c77f 1ebc 16d2 b13b eae8 61bc
000000d0: 5264 6ebc cd59 573c 3bed d53b 44b1 84bb
000000e0: f34b 6dbc 538d d03b 8428 cabc 80fc 39bb
000000f0: dadd e5bb 9704 67bb 8b43 75bc 8b92 943a
00000100: 0322 ec38 23f3 673c 5b3f 5dbb f402 c23a
00000110: fbfd 7bbb b82d 8b3b 8f3f 25bb 6001 1dbb
00000120: de80 ab3b 17e7 633c 0754 8c3c 3e23 4b3c
00000130: cf19 563b 737d 82bb 2099 653c 2729 0c3c
00000140: a269 21bc bb3c 87bc 787c 39bc c350 c1bb
00000150: 2f6f a03b b864 9f3a 65da 9fbb 5a1f 353b
00000160: 41d0 b93c a711 f43b ff7c 36bc e4b5 28bb
00000170: 9041 ee3a 6137 85bc b59e 603c 921f 08bc
00000180: b06b 0abc bfdd 69bc d38a a6bb e897 7dbb
00000190: 0fe9 383c 18fc 2d3c 46f1 1cbc fd39 30bc
000001a0: 4f08 14bc 7081 fbbb b34c e63b 842f abbb
000001b0: 7a33 a6bc 3b05 cfbb 1d46 46bb 80b5 313c
000001c0: 95bf dcbb 2361 89bb 2865 a3ba cb8e 90bb
000001d0: c77c 4c3c 473c 103c 0a0a 7d3c 297b 95bc
000001e0: 138e ca3b 1327 1a3b 87bc 0ab8 9715 d4b8
000001f0: 27f8 5abc a96e 9e3c ba8e 83bb 5f6b 31bb
00000200: bd73 89ba d33e 8bbb aaa4 2c3c 4b5c 183b
00000210: 2d29 68bb eb79 233c 3f28 1d3c 3aea 0dbb
00000220: dc58 b53b 37c5 a9bb c3fa 0f3c 0685 13bb
00000230: 5d70 73ba b139 bb3b 10ab 66bc 8be5 69bc
00000240: 2e1b c03a ea69 563c 8575 50bb 435c 08bc
00000250: 9b98 2ebc d929 203b 4b00 323c 3896 053c
00000260: ca69 483b a70d e1bb 3bc0 89bc 1f10 023c
00000270: cfc5 283c c355 0bbc a37f dbb9 423c 71bc
00000280: 7ba8 953a 688f 72bc 5bb3 afbb c44a 84bc
00000290: 1aab e5bb 7e26 273b 7792 9fbb 3f8e 3d3b
000002a0: 4b54 ca3b 62a7 7b3b ba39 5abc 9336 f23b
000002b0: f11b 9c3b 1152 b23b 38a7 333a eb41 89bc
000002c0: 7b25 613b 6300 af3b 8bc9 c8bb db87 2abb
000002d0: 6bf9 84bb 32e4 e53b 72b0 ccbb 2f30 c63b
000002e0: ea6e 80bb d97d 0c3b 37d5 53bb b486 0b3c
000002f0: 53b8 8bba 2b2d 893a 7f8e 5a3c 0351 1fbc
00000300: 7766 5f3c 107c 343c 2d0a a33b c31c 92bb
00000310: 8f3a 593b 4707 a0bb 829e 65bb aad4 99bb
00000320: 9b9b 243c 13f3 263c 0a33 e5b9 a77b c9b9
00000330: c1c0 a939 6649 afbc bc2f 49bc 17b5 a7bb
00000340: b3a2 503c 7be5 d03b 7056 f93b a894 e138
00000350: e708 883c 74b7 9d3c 7bbd 833b fa46 4fbc
00000360: d3f3 673c 07d8 aebb 5411 0bbc 5617 1f3c
00000370: e8c3 c53b 882d 12bb 631e b33c e8ab 1ebb
00000380: cef4 25bc 43ea 34bb 0822 8f3c efb6 eeba
00000390: 7a8c cdbb 6872 343c f5b8 bfba eb6c 03bc
000003a0: bdab 143b ff06 233c 52ad 563c 2d5a 5bbb
000003b0: 1b75 893c cb6f 0e3c 2e16 9f3b 3847 d73c
000003c0: a41c 85bb 1d15 f6bb af63 0bbc d1c1 92bc
000003d0: d788 91bb e85d 71ba b702 b8ba 77ec a13a
000003e0: 6228 d5ba 8d97 8d3a 67f6 60bc acbf a2bb
000003f0: 7347 9cbb 8405 0ebc 33d3 d43b 6dbe ef3b

action_model._discrete_distribution.branches.0.bias f4 [2]
0.0 0.0
00000000: 0000 0000 0000 0000

action_model._discrete_distribution.branches.1.weight f4 [19, 128]
0.011898286 -0.008208767 -0.010281256 0.005172727 -0.010889408 -0.0056587327 -0.011355949 0.006202844
0.005522089 -0.0016258819 -0.014866794 0.006474161 0.00035610705 0.014389411 0.004969929 -0.0025783617
0.008706285 -0.0055586104 -0.0023138137 0.004022105 -0.012775073 -0.0009860242 0.009349683 -0.009683981
-0.0013504283 0.006201646 0.010518826 0.0034628317 0.003471493 0.025080044 0.00011976016 0.008204024
-0.0025986042 -0.0015107227 -0.007406221 -0.0053665494 -0.0051553887 0.0037425102 -0.0017041536 -0.024116036
0.0026953572 -0.0027292666 0.0011717436 0.009501468 -0.0007468885 0.0065422216 -0.0011125449 -0.0017707598
0.008787765 0.02335987 0.018637089 -0.008618153 -0.0062988787 -0.0029423835 -0.013267504 0.013052049
0.0022778618 0.0024849013 -0.006410374 0.007014548 -0.007908657 -0.00070374965 0.002032287 0.013178575
-0.001361622 -0.0034441259 -0.01107197 -0.012378861 -0.012273413 0.0057264674 0.0039276183 -0.008711313
-0.0020786137 0.005307606 -0.0073672007 -0.0013813198 0.0025702652 -0.0059988773 -0.0034268645 -0.0039542303
-0.0007131665 0.00766271 0.00081899064 0.0018755248 -0.0013455013 0.003940288 -0.002632937 -0.0046061254
0.0012486575 -0.0046443767 -0.0011703912 0.018907584 0.007894515 -0.0012131964 -0.030256128 -0.00096848374
0.019935971 -0.00433363 -0.0003486024 0.002968799 0.022373023 0.00035349713 -0.006881777 0.0009812487
-0.003834185 0.005433498 0.0044082724 0.0031602457 0.0046075243 -0.010003029 0.0044873934 0.016791223
-0.0053034383 0.003118171 0.0077354214 -0.009417296 0.010192043 -0.0009513451 0.01214355 0.008359489
0.0055641984 0.0010302344 -0.0141685875 -0.010154657 0.016641868 0.013871774 0.0276034 -0.015662232
0.014553639 0.008548816 0.011595973 -0.0072751516 -0.0047501177 -0.005773791 -0.00278498 -0.012427105
0.011661101 -0.00036790248 0.005867002 -0.0010677355 -0.0014542994 0.004245711 -0.0028378018 0.004401216
6.776271e-06 0.010846507 -0.00057241245 -0.01431261 0.0014339922 -0.0041556205 0.013903766 0.013124644
-0.016853515 -0.0013885642 0.0021871673 0.004499234 0.005989554 0.0059262007 0.007483981 -0.0037074897
-0.0059594437 0.0114223175 -0.005081691 -0.00042565912 0.0027096614 -0.007149271 -0.0016971842 -0.00017428728
-0.000543072 0.009894036 -0.014298813 -0.0063699656 -0.005750764 -0.0018518361 -0.009256631 -0.009794752
-0.006716452 -0.014480268 -0.0018070247 -0.009523362 -0.0063928585 -0.01386221 -0.004984382 -0.017150665
-0.020025672 -0.004436672 -0.014214865 -0.005913665 0.00020714922 -0.0033847757 0.014578561 -0.0057262834
-0.0037369474 0.0056626364 -0.009501695 -0.00977373 -0.0064962097 0.0024852466 9.226289e-05 0.0060283705
0.012346449 -0.002685935 0.007973656 0.0014404919 -0.007436458 -5.5829423e-05 0.0053479425 -0.0007971568
0.009526513 0.005253845 0.012183856 0.005894124 0.0018235466 0.002155821 0.013415381 -0.0055808215
0.006476536 -0.007081788 0.0034427387 -0.009552288 -0.008741976 -0.008503202 0.0041697747 0.003927158
0.010048657 -0.016724525 -0.0024905908 -0.0051663346 -0.007834938 0.00020089115 -0.005124749 -0.0049460805
-0.015771573 0.0071940324 0.0040203165 0.0135937575 0.0013831104 -0.007239493 -0.006582664 0.00045142137
0.0053112893 -0.002465395 0.014274892 -0.01487239 0.009426828 -0.010422428 -0.0051837293 0.0071505173
0.0044627716 0.0034321074 0.005519492 -0.010861113 0.019697886 -0.008730468 -0.0036254548 0.0074334475
00000000: 07f1 423c 107e 06bc b772 28bc fb7f a93b
00000010: 7d69 32bc e46c b9bb 4d0e 3abc 3a41 cb3b
00000020: a4f2 b43b 8b1b d5ba db93 73bc 3325 d43b
00000030: e1b3 ba39 90c1 6b3c c9da a23b bbf9 28bb
00000040: cea4 0e3c 0125 b6bb 5aa3 17bb ddcb 833b
00000050: 8a4e 51bc 7b3d 81ba 6a2f 193c 8fa9 1ebc
00000060: db00 b1ba 2d37 cb3b 2757 2c3c adf0 623b
00000070: fd81 633b aa74 cd3c bf27 fb38 2c6a 063c
00000080: 584d 2abb 7103 c6ba e2af f2bb e1d9 afbb
00000090: 89ee a8bb e744 753b e85d dfba fe8e c5bc
000000a0: 97a4 303b 7fdd 32bb 3195 993a 0cac 1b3c
000000b0: d7ca 43ba 2260 d63b d0d2 91ba d718 e8ba
000000c0: 8ffa 0f3c 335d bf3c cfac 983c 2733 0dbc
000000d0: d366 cebb 01d5 40bb f25f 59bc 43d8 553c
000000e0: 2e48 153b bad9 223b 1d0e d2bb 4bda e53b
000000f0: 5093 01bc d77b 38ba 1e30 053b f3ea 573c
00000100: 7478 b2ba d8b6 61bb 3567 35bc b5d0 4abc
00000110: 6d16 49bc 17a5 bb3b 40b3 803b e5b9 0ebc
00000120: 5a39 08bb 6deb ad3b 8f68 f1bb 670d b5ba
00000130: e571 283b 3b92 c4bb 3f95 60bb 7d92 81bb
00000140: cbf3 3aba 7817 fb3b 88b1 563a 2bd4 f53a
00000150: 885b b0ba 881d 813b 5a8d 2cbb fbee 96bb
00000160: fea9 a33a db2f 98bb d067 99ba 14e4 9a3c
00000170: ff57 013c 1e04 9fba b3db f7bc d8e1 7dba
00000180: c350 a33c 2001 8ebb 9fc4 b6b9 2f90 423b
00000190: a147 b73c 9555 b939 8880 e1bb 3e9d 803a
000001a0: f346 7bbb 7c0b b23b 4573 903b 201c 4f3b
000001b0: b7fa 963b bfe3 23bc fc0a 933b bf8d 893c
000001c0: 77c8 adbb 3a5a 4c3b 6b79 fd3b 014b 1abc
000001d0: 87fc 263c b063 79ba bef5 463c 3df6 083c
000001e0: e153 b63b ee08 873a 5d23 68bc b85f 26bc
000001f0: 8754 883c 7046 633c 8720 e23c 154e 80bc
00000200: 6372 6e3c 5510 0c3c 09fd 3d3c 6564 eebb
00000210: e0a6 9bbb 1232 bdbb 3684 36bb 0e9b 4bbc
00000220: 340e 3f3c 09e3 c0b9 fb3f c03b 42f3 8bba
00000230: 319e beba 9b1f 8b3b 6afa 39bb 1338 903b
00000240: ba5f e336 8cb5 313c f30d 16ba 707f 6abc
00000250: cbf4 bb3a df2b 88bb 9fcc 633c bf08 573c
00000260: 6210 8abc 7c00 b6ba 9456 0f3b 4f6e 933b
00000270: 0544 c43b 9330 c23b 2f3c f53b 5bf9 72bb
00000280: 7047 c3bb ac24 3b3c 5084 a6bb 002b dfb9
00000290: 9394 313b 6f44 eabb 0d74 deba e3c0 36b9
000002a0: f25c 0eba 981a 223c 9245 6abc 25bb d0bb
000002b0: e870 bcbb 4fb9 f2ba 20a9 17bc 2b7a 20bc
000002c0: af15 dcbb a53e 6dbc b0d9 ecba e007 1cbc
000002d0: 2f7b d1bb 531e 63bc 0754 a3bb 8d7f 8cbc
000002e0: e10c a4bc 8161 91bb 77e5 68bc 6bc7 c1bb
000002f0: 3236 5939 1dd3 5dbb ebda 6e3c 8ca3 bbbb
00000300: 93e7 74bb a38d b93b ffac 1bbc ff21 20bc
00000310: 28de d4bb 85df 223b 437d c138 a389 c53b
00000320: c348 4a3c 8306 30bb f0a3 023c e3ce bc3a
00000330: 88ad f3bb 632a 6ab8 cb3d af3b 4af8 50ba
00000340: 1715 1c3c 7228 ac3b cc9e 473c 7f23 c13b
00000350: 1204 ef3a ad48 0d3b 30cc 5b3c 53df b6bb
00000360: 1f39 d43b 580e e8bb 929f 613b 3381 1cbc
00000370: 813a 0fbc 0451 0bbc 9ba2 883b 64af 803b
00000380: 1fa3 243c df01 89bc 2e39 23bb 5b4a a9bb
00000390: 1d5e 00bc 4fa6 5239 83ed a7bb bb12 a2bb
000003a0: 6333 81bc ebbb eb3b dcbc 833b 5ab8 5e3c
000003b0: 7c49 b53a 4539 edbb 63b3 d7bb c0ac ec39
000003c0: 530a ae3b 7792 21bb 3de1 693c 53ab 73bc
000003d0: fb72 1a3c d5c2 2abc 46dc a9bb e34e ea3b
000003e0: 713c 923b 35ed 603b dbdc b43b cff2 31bc
000003f0: 765d a13c 3d0a 0fbc 0a99 6dbb 4794 f33b

action_model._discrete_distribution.branches.1.bias f4 [19]
0.0 0.0 0.0 0.0 0.0 0.0 0.0 0.0
0.0 0.0 0.0 0.0 0.0 0.0 0.0 0.0
0.0 0.0 0.0
00000000: 0000 0000 0000 0000 0000 0000 0000 0000
00000010: 0000 0000 0000 0000 0000 0000 0000 0000
00000020: 0000 0000 0000 0000 0000 0000 0000 0000
00000030: 0000 0000 0000 0000 0000 0000 0000 0000
00000040: 0000 0000 0000 0000 0000 0000

action_model._discrete_distribution.branches.2.weight f4 [15, 128]
-0.01002147 -0.009513604 -0.0037942422 -0.00064431777 0.0018419931 -0.008545208 -0.016386475 0.0005902175
-0.017250163 0.0041340026 0.010841361 -0.0042083426 0.008776641 -0.004879148 -0.0056955386 -0.0014688538
0.0062565277 0.008578914 -0.012828434 -0.018707793 -0.0026130767 0.007156697 0.010019489 0.0047914884
-0.0039031457 -0.00079851825 -0.0077996547 -0.0024170233 -0.0007600255 0.0027687154 0.016986957 0.0048251036
-0.019710772 0.010696142 0.0063689784 0.0029262172 0.0030442446 0.018197266 -0.00091473723 0.017678188
-0.014046768 -0.00497831 0.00049639726 -0.0022831734 0.011574215 -0.0072154026 0.005804246 -0.0019067907
0.015046038 -0.013277436 0.013461381 -0.0044701314 0.017373268 0.0072565502 -0.0070749945 0.009778156
-0.017535415 0.010739224 -0.0025778506 -0.001051084 0.013720189 -0.0076503465 0.0026498463 -0.0049453024
-0.015101346 0.0029968445 0.00052468287 -0.015666781 -0.0034395398 -0.0061048763 0.003823422 0.0036424764
-0.0034201113 -0.0079529835 0.012172919 -0.012325813 0.010366844 0.0036517363 0.00010758277 -0.0019084208
0.0051116063 0.0058671925 -0.004084786 -0.0017825098 0.00017638458 -0.0024875 -0.009249001 -0.004894842
-0.02711762 -0.0027071533 -0.00029420282 -0.0028381525 -0.0030552687 -0.008882063 0.005812163 -0.0031955272
0.0085980445 0.0015300602 0.0011212501 0.010005117 0.0021226087 -0.0077310028 0.017810822 -0.0024255256
-0.00034991538 0.009265034 -0.0019374192 -0.002629897 0.0014817242 0.006543891 -0.0036331024 0.0096042
0.00094054185 -0.0014731515 0.009964921 0.014693393 -0.0064172517 -0.00922577 -0.0033909522 -0.022599293
0.018720962 0.006365308 -0.0024149169 -0.004440745 0.018717993 0.0005367014 -0.0030531904 -0.016662383
-0.0051606717 -0.0051218793 0.003420482 -0.018186152 -0.00120283 -0.014889354 0.0030476823 -0.0060319975
-0.008415164 0.015765697 0.013776454 -0.0049559153 0.007932627 -0.0011004781 -0.012898904 0.0061621103
0.0071381712 -0.0014749939 0.0045799003 -0.0016802492 -0.01279701 0.010492498 0.010584914 -0.011802857
0.0058493824 -0.014742106 -0.002726832 -0.0023405661 0.009823876 0.0028150235 0.011445048 -0.0009409291
-0.0012434991 -0.0023012424 -0.0025250628 -0.008068244 0.005861385 0.0058885436 0.0041262466 0.0056513078
-0.026378978 -0.0062881964 -0.007886497 -0.0080074975 0.02069533 -0.0120348735 -0.004195498 -0.008212586
0.0028426375 -0.012237734 0.0009839967 -0.0054858676 0.021753117 -0.0051879245 0.0064716185 -0.005884376
-0.006241554 0.012098844 0.0033236195 -0.0066929646 0.005657493 -0.008573028 -0.0013689897 -0.011689512
0.0011142379 -0.002999507 -0.0028212524 -0.0061263624 -0.012594076 -0.010869629 0.003096275 -0.0024252757
-0.010897645 0.017075052 -2.397657e-06 0.004741156 0.00959439 -0.005134836 0.008439264 -0.003430532
0.010151834 -0.0026235227 0.0034748935 0.02364323 -0.010921102 0.00324606 -0.0057975804 -0.0042764293
-0.0036932442 0.0021487921 0.014255579 0.0003915146 -0.0017226905 -0.0033991605 -0.0030018738 -0.006822949
-0.0054548522 -0.004883166 -0.0040439176 0.0012048366 -0.017277908 -0.0001458894 -0.0033445314 0.0058668857
0.008282315 0.005662573 0.012411048 -0.0011913666 -0.015829494 0.003446228 0.012558802 -0.0077415667
-0.005310628 -0.006111438 -0.014794148 0.011433337 -0.002730759 0.016189955 -0.016188934 0.014929137
-0.010568703 -0.015865916 0.012324549 0.009787115 -0.009107812 -0.0011328058 0.0071448544 -0.0038937212
00000000: 1731 24bc f3de 1bbc d2a8 78bb 6fe7 28ba
00000010: 086f f13a 3301 0cbc ee3c 86bc d3b8 1a3a
00000020: 3750 8dbc 8776 873b f79f 313c 23e6 89bb
00000030: e7cb 0f3c 43e1 9fbb a4a1 babb 8e86 c0ba
00000040: 8f03 cd3b 938e 0c3c 5a2e 52bc 1641 99bc
00000050: 2740 2bbb ba82 ea3b c828 243c eb01 9d3b
00000060: ebcb 7fbb a753 51ba 3f94 ffbb ec66 1ebb
00000070: 733c 47ba 5673 353b 3b28 8b3c e71b 9e3b
00000080: 7c78 a1bc df3e 2f3c ddb2 d03b c7c5 3f3b
00000090: f381 473b 6f12 953c faca 6fba d9d1 903c
000000a0: 6a24 66bc 1721 a3bb a820 023a 4ba1 15bb
000000b0: c7a1 3d3c 2f6f ecbb 8b31 be3b 47ed f9ba
000000c0: a883 763c 9a89 59bc 208d 5c3c 2e7a 92bb
000000d0: 6252 8e3c 5bc8 ed3b 5bd5 e7bb 8f34 203c
000000e0: 6ea6 8fbc 92f3 2f3c 28f1 28bb 87c4 89ba
000000f0: a5ca 603c c2af fabb 0ba9 2d3b 340c a2bb
00000100: a36b 77bc b566 443b df8a 093a 9f57 80bc
00000110: e769 61bb 6a0b c8bb 6092 7a3b 9db6 6e3b
00000120: f223 60bb 3b4d 02bc ec70 473c 35f2 49bc
00000130: b2d9 293c f851 6f3b 0f9e e138 fa23 faba
00000140: 437f a73b 9441 c03b abd9 85bb 1ba3 e9ba
00000150: e0f3 3839 5305 23bb 1f89 17bc e964 a0bb
00000160: c525 debc 7f6a 31bb 3c3f 9ab9 4c00 3abb
00000170: e73a 48bb 1386 11bc f573 be3b 0d6c 51bb
00000180: d0de 0c3c 4d8c c83a e9f6 923a 81ec 233c
00000190: 771b 0b3b 5a54 fdbb 00e8 913c 91f5 1ebb
000001a0: d974 b7b9 5fcc 173c 00f1 fdba 5a5a 2cbb
000001b0: 6a36 c23a 236e d63b 5819 6ebb ef5a 1d3c
000001c0: b28e 763a c316 c1ba e843 233c 8fbc 703c
000001d0: cf47 d2bb af27 17bc bd3a 5ebb 2722 b9bc
000001e0: b45c 993c 1394 d03b 9543 1ebb ab83 91bb
000001f0: 7a56 993c 6cb1 0c3a 0918 48bb 8d7f 88bc
00000200: da1a a9bb 70d5 a7bb 2a2a 603b 20fb 94bc
00000210: 47a8 9dba 7af2 73bc a0bb 473b 10a8 c5bb
00000220: c2df 09bc 1027 813c a3b6 613c 3b65 a2bb
00000230: d9f7 013c eb3d 90ba ed55 53bc 87eb c93b
00000240: 52e7 e93b 9554 c1ba fd12 963b cf3b dcba
00000250: 8daa 51bc bae8 2b3c 596c 2d3c c560 41bc
00000260: 2dac bf3b e088 71bc a6b4 32bb 2f64 19bb
00000270: 53f4 203c 427c 383b 0384 3b3c afa8 76ba
00000280: e8fc a2ba 71d0 16bb 867b 25bb ab30 04bc
00000290: dc10 c03b aff4 c03b 7735 873b 9b2e b93b
000002a0: ba18 d8bc 370d cebb 5e36 01bc e131 03bc
000002b0: 4189 a93c eb2d 45bc 637a 89bb 158e 06bc
000002c0: 8b4b 3a3b c780 48bc 73f9 803a cbc2 b3bb
000002d0: 9833 b23c 77ff a9bb df0f d43b b9d1 c0bb
000002e0: f385 ccbb 3b3a 463c 15d1 593b a850 dbbb
000002f0: 7e62 b93b e375 0cbc ac6f b3ba 5e85 3fbc
00000300: 9f0b 923a 6093 44bb c3e4 38bb a7bf c8bb
00000310: 6257 4ebc 8716 32bc e0ea 4a3b 60f1 1ebb
00000320: 098c 32bc fbe0 8b3c 6fe7 20b6 b35b 9b3b
00000330: ca31 1d3c 2042 a8bb d744 0a3c c7d2 60bb
00000340: e153 263c 68ef 2bbb 0abb 633b 72af c13c
00000350: 6cee 32bc dabb 543b a1f9 bdbb 4a21 8cbb
00000360: 5b0a 72bb c0d2 0c3b 3b90 693c 3344 cd39
00000370: e7cb e1ba 73c4 5ebb 16bb 44bb 0b93 dfbb
00000380: 9ebe b2bb f702 a0bb d782 84bb 9ceb 9d3a
00000390: 668a 8dbc e3f9 18b9 ed2f 5bbb 013f c03b
000003a0: 8cb2 073c 1b8d b93b b557 4b3c a127 9cba
000003b0: dbac 81bc 1dda 613b 6fc3 4d3c f8ac fdbb
000003c0: c704 aebb 7542 c8bb 2763 72bc e452 3b3c
000003d0: 89f6 32bb cca0 843c a89e 84bc 5799 743c
000003e0: 5a28 2dbc 3df9 81bc e8ec 493c 235a 203c
000003f0: ef38 15bc a87a 94ba 621f ea3b cd2d 7fbb

action_model._discrete_distribution.branches.2.bias f4 [15]
0.0 0.0 0.0 0.0 0.0 0.0 0.0 0.0
0.0 0.0 0.0 0.0 0.0 0.0 0.0
00000000: 0000 0000 0000 0000 0000 0000 0000 0000
00000010: 0000 0000 0000 0000 0000 0000 0000 0000
00000020: 0000 0000 0000 0000 0000 0000 0000 0000
00000030: 0000 0000 0000 0000 0000 0000

network_body._body_endoder.seq_layers.0.weight f4 [128, 78]
-0.007703609 0.052746035 0.11130103 0.13956685 0.23628046 -0.1256171 -0.33905587 0.19039837
0.18433112 0.16622974 -0.02885932 -0.067813955 0.10830214 0.06120007 -0.099110045 -0.054299973
-0.011977476 -0.10378667 -0.118366756 -0.10670236 0.0014835167 -0.046108212 -0.022919789 0.048751634
-0.0019726679 0.091047935 0.030081568 -0.056677256 -0.16157034 -0.10763851 -0.14565878 0.10065271
-0.050344776 -0.10789806 0.15495272 0.055939283 -0.061985217 0.0005113976 -0.25456277 0.08486464
0.21643643 0.033271372 -0.001503152 -0.13028438 -0.020978538 -0.07134769 -0.0013739635 -0.055496603
0.09409825 0.0583864 0.00041476492 -0.22354737 0.082961306 -0.034572866 0.14997411 -0.14206156
0.04430993 -0.09953757 0.080754295 -0.03753261 0.15944843 0.12236641 -0.13294226 0.09878413
-0.044726346 -0.1278207 0.009326393 -8.925798e-05 -0.08260157 0.13219562 -0.043811917 0.105062485
0.031507626 -0.093937285 0.08975651 0.023685804 -0.15807012 -0.06413644 -0.027752444 -0.14175896
0.09317597 -0.039148327 -0.032248694 0.16981573 0.03146075 -0.10264266 -0.095852144 0.010741795
-0.006319684 0.065430395 0.22817305 0.0017138388 -0.12511744 0.17677861 -0.105054386 0.033627693
-0.026624123 -0.024157371 -0.08060626 0.15399714 -0.13355339 -0.07615586 0.06339045 0.11497211
0.001583479 -0.031703863 0.21235827 -0.08454943 -0.005090942 -0.11761969 0.18662351 -0.06615722
-0.041962974 0.0015247987 -0.03167179 0.08665942 -0.08052265 0.054087467 -0.13685074 -0.070645966
0.021268286 0.024925694 -0.09809118 0.3074462 -0.08350187 -0.09839549 0.030336227 -0.030842803
0.04879618 -0.17689605 0.04965032 0.04151034 0.15040019 0.009232643 -0.17140588 0.017865332
0.20660767 -0.090594135 0.02699281 -0.079501756 -0.08107965 0.05084858 0.028794678 0.06476903
0.008348468 -0.025833515 -0.066779315 0.18045275 -0.15926911 -0.08486658 0.06208253 0.0145989945
-0.16497038 0.20682614 0.022297794 0.10478092 -0.02841104 0.12386441 -0.07310127 -0.0068988297
0.018845059 -0.100763135 0.09878558 -0.19217186 -0.0048323013 -0.23865695 0.07513884 -0.11934198
0.11570378 0.110351816 0.057150066 -0.043505337 -0.18010244 0.05967127 -0.030480785 -0.12121356
-0.15130645 -0.100663826 -0.21347839 0.10713922 0.08781289 0.08642164 0.046382267 0.102271624
0.01308821 0.08349403 0.012397558 -0.1678248 0.27589732 -0.15695433 0.038400203 -0.027101807
-0.030264188 0.07250513 0.050762765 -0.2281428 0.009083293 0.15281212 0.093323864 -0.061418217
0.10636832 -0.08938338 -0.07801058 0.020372305 -0.16736652 0.20575196 -0.0685357 0.22174293
0.096855775 0.18614972 0.09168334 -0.22315578 0.0690084 -0.023880526 -0.021086011 -0.06166347
0.07224092 -0.13417555 -0.094862886 -0.23901561 -0.108369656 0.014762077 -0.10884976 0.090650864
-0.2407486 0.09157224 -0.053501584 0.076815404 -0.041535668 -0.04195958 -0.031536933 -0.077670634
0.02685225 0.22782753 0.02078241 -0.03636558 0.052610386 -0.0439779 -0.012819442 -0.2664727
-0.041172966 0.047289975 -0.0040923953 -0.031047372 -0.04270093 0.11923199 0.059379738 -0.17022872
-0.101404145 -0.028540064 0.122155026 0.05631667 -0.10593586 -0.04450075 0.08973805 -0.03556033
00000000: 8e6e fcbb 3a0c 583d cbf1 e33d 9dea 0e3e
00000010: 81f3 713e c5a1 00be bb98 adbe caf7 423e
00000020: 4cc1 3c3e 2138 2a3e 616a ecbc 0be2 8abd
00000030: 83cd dd3d edac 7a3d 35fa cabd a669 5ebd
00000040: 2d3d 44bc 1b8e d4bd 456a f2bd c486 dabd
00000050: 8f72 c23a f7db 3cbd 48c2 bbbc cbaf 473d
00000060: e047 01bb 5777 ba3d 9f6d f63c 6926 68bd
00000070: b272 25be 9471 dcbd 9327 15be 0223 ce3d
00000080: 5336 4ebd a8f9 dcbd edab 1e3e 9720 653d
00000090: 36e4 7dbd 500f 063a 0d56 82be 83cd ad3d
000000a0: 83a1 5d3e 9047 083d 6905 c5ba 4569 05be
000000b0: 2fdb abbc bd1e 92bd 9116 b4ba 6850 63bd
000000c0: 95b6 c03d 9426 6f3d ce74 d939 9ae9 64be
000000d0: 9ee7 a93d 479c 0dbd d092 193e 9678 11be
000000e0: 547e 353d 5ada cbbd 8262 a53d cbbb 19bd
000000f0: 7346 233e 3e9b fa3d 0422 08be 554f ca3d
00000100: f932 37bd 6ee3 02be bacd 183c 0330 bbb8
00000110: 032b a9bd 4a5e 073e 2074 33bd 002b d73d
00000120: 240e 013d 3162 c0bd 43d2 b73d bb08 c23c
00000130: 22dd 21be f759 83bd 1859 e3bc 4329 11be
00000140: 0bd3 be3d ff59 20bd 3517 04bd 2de4 2d3e
00000150: fddc 003d 5136 d2bd 214e c4bd 5bfe 2f3c
00000160: 5a15 cfbb 5f00 863d 32a6 693e e3a2 e03a
00000170: c91e 00be 7405 353e c126 d7bd 31bd 093d
00000180: d51a dabc aee5 c5bc e514 a5bd 6db1 1d3e
00000190: 38c2 08be 9bf7 9bbd dad2 813d 7f76 eb3d
000001a0: bd8c cf3a e9db 01bd 7274 593e 4028 adbd
000001b0: ebd1 a6bb 98e2 f0bd 3c1a 3f3e 707d 87bd
000001c0: 5ee1 2bbd c1db c73a 47ba 01bd 7e7a b13d
000001d0: 0fe9 a4bd d28a 5d3d 9a22 0cbe d5ae 90bd
000001e0: d43a ae3c f830 cc3c 07e4 c8bd 9769 9d3e
000001f0: 0703 abbd 9383 c9bd ae83 f83c 0caa fcbc
00000200: 81de 473d 3d24 35be 225e 4b3d bf06 2a3d
00000210: 8202 1a3e 8344 173c 0685 2fbe 515a 923c
00000220: f690 533e 6b89 b9bd 0720 dd3c d1d1 a2bd
00000230: 160d a6bd 9a46 503d d1e2 eb3c a0a5 843d
00000240: 03c8 083c cfa0 d3bc 98c3 88bd 9bc8 383e
00000250: 7117 23be 88ce adbd 404a 7e3d 9f30 6f3c
00000260: ffed 28be 3bca 533e dda9 b63c 6197 d63d
00000270: 45be e8bc a0ac fd3d 1eb6 95bd 940f e2bb
00000280: f460 9a3c e75c cebd 1850 ca3d b3c8 44be
00000290: 4858 9ebb 7d62 74be 64e2 993d 9169 f4bd
000002a0: 1af6 ec3d 2200 e23d 3016 6a3d a732 32bd
000002b0: c66c 38be dd69 743d d7b2 f9bc d13e f8bd
000002c0: 14f0 1abe d628 cebd 149a 5abe cf6b db3d
000002d0: 3fd7 b33d d4fd b03d 55fb 3d3d c973 d13d
000002e0: ee6f 563c ebfe aa3d 211f 4b3c 44da 2bbe
000002f0: 6a42 8d3e a3b8 20be 8849 1d3d 9c04 debc
00000300: 9aec f7bc 927d 943d 9eec 4f3d 449e 69be
00000310: 18d2 143c c87a 1c3e 9520 bf3d ab91 7bbd
00000320: a2d7 d93d a20e b7bd 03c4 9fbd d2e3 a63c
00000330: 2162 2bbe a4b0 523e 725c 8cbd 9410 633e
00000340: 525c c63d 089e 3e3e 7ac4 bb3d f382 64be
00000350: 4754 8d3d 18a1 c3bc 92bc acbc d692 7cbd
00000360: 0cf3 933d 5165 09be 7947 c2bd 82c0 74be
00000370: e9f0 ddbd a3dc 713c 9fec debd 29a7 b93d
00000380: cd86 76be 3a8a bb3d 7a24 5bbd 6551 9d3d
00000390: 4e21 2abd cfdd 2bbd df2c 01bd c811 9fbd
000003a0: 40f9 db3c 9f4b 693e df3f aa3c 13f4 14bd
000003b0: fd7d 573d 2c22 34bd a308 52bc 1c6f 88be
000003c0: fca4 28bd 22b3 413d 8019 86bb 0f57 febc
000003d0: 2ce7 2ebd e72f f43d 2b38 733d 7050 2ebe
000003e0: faac cfbd dacc e9bc 6a2c fa3d 4fac 663d
000003f0: e6f4 d8bd 6b46 36bd 95c8 b73d b5a7 11bd

network_body._body_endoder.seq_layers.0.bias f4 [128]
0.0 0.0 0.0 0.0 0.0 0.0 0.0 0.0
0.0 0.0 0.0 0.0 0.0 0.0 0.0 0.0
0.0 0.0 0.0 0.0 0.0 0.0 0.0 0.0
0.0 0.0 0.0 0.0 0.0 0.0 0.0 0.0
0.0 0.0 0.0 0.0 0.0 0.0 0.0 0.0
0.0 0.0 0.0 0.0 0.0 0.0 0.0 0.0
0.0 0.0 0.0 0.0 0.0 0.0 0.0 0.0
0.0 0.0 0.0 0.0 0.0 0.0 0.0 0.0
0.0 0.0 0.0 0.0 0.0 0.0 0.0 0.0
0.0 0.0 0.0 0.0 0.0 0.0 0.0 0.0
0.0 0.0 0.0 0.0 0.0 0.0 0.0 0.0
0.0 0.0 0.0 0.0 0.0 0.0 0.0 0.0
0.0 0.0 0.0 0.0 0.0 0.0 0.0 0.0
0.0 0.0 0.0 0.0 0.0 0.0 0.0 0.0
0.0 0.0 0.0 0.0 0.0 0.0 0.0 0.0
0.0 0.0 0.0 0.0 0.0 0.0 0.0 0.0
00000000: 0000 0000 0000 0000 0000 0000 0000 0000
00000010: 0000 0000 0000 0000 0000 0000 0000 0000
00000020: 0000 0000 0000 0000 0000 0000 0000 0000
00000030: 0000 0000 0000 0000 0000 0000 0000 0000
00000040: 0000 0000 0000 0000 0000 0000 0000 0000
00000050: 0000 0000 0000 0000 0000 0000 0000 0000
00000060: 0000 0000 0000 0000 0000 0000 0000 0000
00000070: 0000 0000 0000 0000 0000 0000 0000 0000
00000080: 0000 0000 0000 0000 0000 0000 0000 0000
00000090: 0000 0000 0000 0000 0000 0000 0000 0000
000000a0: 0000 0000 0000 0000 0000 0000 0000 0000
000000b0: 0000 0000 0000 0000 0000 0000 0000 0000
000000c0: 0000 0000 0000 0000 0000 0000 0000 0000
000000d0: 0000 0000 0000 0000 0000 0000 0000 0000
000000e0: 0000 0000 0000 0000 0000 0000 0000 0000
000000f0: 0000 0000 0000 0000 0000 0000 0000 0000
00000100: 0000 0000 0000 0000 0000 0000 0000 0000
00000110: 0000 0000 0000 0000 0000 0000 0000 0000
00000120: 0000 0000 0000 0000 0000 0000 0000 0000
00000130: 0000 0000 0000 0000 0000 0000 0000 0000
00000140: 0000 0000 0000 0000 0000 0000 0000 0000
00000150: 0000 0000 0000 0000 0000 0000 0000 0000
00000160: 0000 0000 0000 0000 0000 0000 0000 0000
00000170: 0000 0000 0000 0000 0000 0000 0000 0000
00000180: 0000 0000 0000 0000 0000 0000 0000 0000
00000190: 0000 0000 0000 0000 0000 0000 0000 0000
000001a0: 0000 0000 0000 0000 0000 0000 0000 0000
000001b0: 0000 0000 0000 0000 0000 0000 0000 0000
000001c0: 0000 0000 0000 0000 0000 0000 0000 0000
000001d0: 0000 0000 0000 0000 0000 0000 0000 0000
000001e0: 0000 0000 0000 0000 0000 0000 0000 0000
000001f0: 0000 0000 0000 0000 0000 0000 0000 0000
