FYPprototype/results/Test2.1/AIBalancing/AIBalancing-375.pt (torch, 242151 bytes, 16 tensors)

discrete_act_size_vector f4 [1, 3]
2.0 19.0 15.0
00000000: 0000 0040 0000 9841 0000 7041

network_body._body_endoder.seq_layers.0.weight f4 [128, 78]
0.1590228 0.020730797 -0.06671209 0.040842436 -0.0100344205 -0.047964662 -0.14770241 0.24668182
0.16691697 -0.07943061 -0.12385666 -0.117352225 0.13019884 0.0071720867 -0.13910675 0.07090622
-0.055246893 -0.0058784615 -0.12551127 0.13311002 -0.043768577 -0.10429361 0.018447163 0.12755609
0.06811072 0.06332999 0.06666913 -0.018649997 -0.069440395 -0.110902205 -0.093958415 0.105756804
0.0440689 -0.023475792 0.18420452 0.018491425 -0.13417019 -0.083188325 -0.012775927 -0.021570506
0.26827016 -0.015385162 0.034567367 0.06322598 -0.18231739 0.033688165 0.0054398132 -0.028045192
-0.018362949 0.060259618 -0.036259077 0.031308893 -0.00797872 -0.15632926 -0.09818123 0.039489035
-0.093128145 -0.0348051 0.13028924 0.05909797 -0.12208447 0.030090898 -0.094400465 0.14765643
-0.059861466 -0.16984813 0.0011702524 0.024894757 -0.004583339 0.12641908 -0.024127971 0.1143463
-0.10643818 0.088023774 -0.13277754 0.14256701 -0.09817574 0.076377995 0.07626978 -0.030894794
-0.044594277 0.15568502 0.10248786 -0.013080264 0.012850632 -0.1330039 -0.09321664 -0.17377594
-0.023570184 0.26124617 -0.020255655 -0.094882265 -0.1754612 -0.03056653 0.09575157 0.04181916
0.07672817 0.09834771 0.054308034 0.1466418 0.07289166 0.099991135 0.068041734 -0.0753032
-0.065296136 -0.039780337 0.011461637 -0.109474026 0.087549694 0.06994442 -0.19841635 -0.019186415
0.07182836 0.023147095 0.08529257 0.07682001 -0.15047053 0.2850607 0.16133454 0.052963402
-0.05404368 0.036226578 -0.12659392 -0.18454467 -0.13828565 -0.061324958 0.075782984 -0.1013053
0.0018182279 -0.16972221 -0.06416245 0.086030796 0.010264743 -0.09266632 -0.10759092 -0.039399654
0.021999298 0.06080724 0.072152875 0.106726095 -0.15937284 0.0057892064 0.15719704 -0.027312899
0.15839519 -0.25619495 0.02364259 0.016532857 -0.13252804 -0.056880526 0.1411876 -0.007997958
0.12655678 -0.12947464 -0.12135813 0.17237547 0.11640673 0.09308454 0.04243349 0.029003693
-0.006474817 -0.11142417 -0.15450923 0.11168216 0.107160755 -0.12167214 0.2841628 -0.09869945
-0.2229168 0.07313437 -0.12666178 0.043884877 0.16133632 -0.034869555 0.089026116 0.14990287
-0.26218745 0.005038517 0.20498441 -0.009642382 -0.020140141 0.021272905 0.17194448 -0.18191072
-0.29146507 -0.080319494 0.15477328 0.03259212 0.031770326 0.09058397 0.15929487 0.14878532
-0.035355873 -0.033076104 -0.14347547 0.12883118 -0.15079989 0.15696602 0.026949216 -0.019714588
0.009329948 0.16638917 0.061877463 -0.0636156 0.1652392 -0.1569245 -0.063168466 -0.0096944785
0.19628413 0.037774175 -0.08592394 0.080314964 0.21820575 -0.004805671 0.12189969 0.21775769
0.05192472 -0.13596572 -0.03955448 -0.0088130515 -0.12164744 0.06249583 0.015880572 0.07326053
-0.013648976 -0.08647294 0.026818989 0.08778181 -0.0015609603 0.18493019 0.01066847 -0.08419395
-0.090528846 0.023402268 -0.15624005 -0.016338212 -0.13653077 -0.049621247 -0.21509905 -0.27944
0.0145339165 0.14571096 0.11098237 -0.078574814 0.06315566 -0.045656282 -0.009385562 0.047020927
0.05985171 -0.0015921752 -0.09341583 0.1034461 0.06466933 0.104468994 -0.011652548 -0.0055683516
00000000: dfd6 223e a2d3 a93c 59a0 88bd 664a 273d
00000010: 6967 24bc 9876 44bd 4d3f 17be 299a 7c3e
00000020: 48ec 2a3e 84ac a2bd 90a8 fdbd 5d56 f0bd
00000030: d852 053e d303 eb3b 0072 0ebe 4837 913d
00000040: 914a 62bd 1ca0 c0bb 0786 00be fe4d 083e
00000050: ae46 33bd e397 d5bd 811e 973c 109e 023e
00000060: a27d 8b3d 27b3 813d d389 883d e1c7 98bc
00000070: c436 8ebd b220 e3bd 456d c0bd 0697 d83d
00000080: 9781 343d 4e50 c0bc 1ca0 3c3e 547b 973c
00000090: e963 09be a45e aabd 1f52 51bc a1b4 b0bc
000000a0: b55a 893e 0c12 7cbc 8396 0d3d 9f7c 813d
000000b0: 69b1 3abe 9afc 093d 7640 b23b 08bf e5bc
000000c0: e56d 96bc cad2 763d 6684 14bd c13d 003d
000000d0: 2db9 02bc c714 20be 3e13 c9bd 41bf 213d
000000e0: f8b9 bebd cb8f 0ebd 8b6a 053e b710 723d
000000f0: 6c07 fabd 3081 f63c 0855 c1bd 3f33 173e
00000100: 4c31 75bd abec 2dbe 2863 993a 17f0 cb3c
00000110: d62f 96bb 0174 013e 06a8 c5bc 652e ea3d
00000120: 43fc d9bd cf45 b43d d6f6 07be 16fd 113e
00000130: 5d10 c9bd 116c 9c3d 5533 9c3d 1417 fdbc
00000140: 7da8 36bd e56b 1f3e 28e5 d13d 9b4e 56bc
00000150: 758b 523c 2d32 08be 5ee8 bebd 52f2 31be
00000160: 4216 c1bc 0fc2 853e 30ef a5bc a251 c2bd
00000170: 1aac 33be a966 fabc 6619 c43d 914a 2b3d
00000180: a923 9d3d 866a c93d 1a72 5e3d 4529 163e
00000190: 3948 953d 27c8 cc3d 7759 8b3d 9038 9abd
000001a0: fbb9 85bd b5f0 22bd 97c9 3b3c eb33 e0bd
000001b0: 414d b33d 053f 8f3d a82d 4bbe d42c 9dbc
000001c0: bf1a 933d fa9e bd3c dfad ae3d cf53 9d3d
000001d0: f214 1abe 7af3 913e e234 253e 27f0 583d
000001e0: e85c 5dbd 5262 143d d6a1 01be 47f9 3cbe
000001f0: c19a 0dbe e12f 7bbd 1c34 9b3d 2779 cfbd
00000200: 9b51 ee3a a9cb 2dbe 9a67 83bd ea30 b03d
00000210: 742d 283c d7c7 bdbd a158 dcbd 8861 21bd
00000220: df37 b43c 0311 793d e3c4 933d 3693 da3d
00000230: a232 23be 62b3 bd3b 43f8 203e 4dbf dfbc
00000240: 5932 223e fc2b 83be 1bae c13c ea6f 873c
00000250: 6eb5 07be 8efb 68bd 7b93 103e de09 03bc
00000260: 1a98 013e 0095 04be 9c8a f8bd 3283 303e
00000270: a766 ee3d 1ba3 be3d bdce 2d3d 2799 ed3c
00000280: b42a d4bb 5b32 e4bd ab37 1ebe 9eb9 e43d
00000290: 1977 db3d 3e2f f9bd c97d 913e f022 cabd
000002a0: 4d44 64be 79c7 953d a0b3 01be a1c0 333d
000002b0: 5935 253e 61d3 0ebd 5353 b63d 2380 193e
000002c0: 6f3d 86be 251a a53b 6fe7 513e 15fb 1dbc
000002d0: f0fc a4bc 8444 ae3c 3712 303e ce46 3abe
000002e0: e93a 95be 8c7e a4bd e37c 1e3e 517f 053d
000002f0: 9a21 023d 1784 b93d 321e 233e 2e5b 183e
00000300: 52d1 10bd cf7a 07bd 3ceb 12be 52ec 033e
00000310: 496b 1abe b3bb 203e 9ac4 dc3c 7d80 a1bc
00000320: a3dc 183c ec61 2a3e 3973 7d3d e548 82bd
00000330: 7734 293e d1b0 20be 785e 81bd 97d5 1ebc
00000340: b5fe 483e 18b9 1a3d e4f8 afbd 2c7c a43d
00000350: 5471 5f3e e478 9dbb 8ba6 f93d dffb 5e3e
00000360: 04af 543d 993a 0bbe e103 22bd 9e64 10bc
00000370: 4b22 f9bd a1fb 7f3d f917 823c 9e09 963d
00000380: f49f 5fbc ba18 b1bd 7fb3 db3c f3c6 b33d
00000390: 2399 ccba 575e 3d3e ceca 2e3c e16d acbd
000003a0: 3067 b9bd 1db6 bf3c 64fd 1fbe b7d7 85bc
000003b0: b9ce 0bbe a63f 4bbd ed42 5cbe c212 8fbe
000003c0: aa1f 6e3c 4135 153e ba4a e33d d5eb a0bd
000003d0: c157 813d 1502 3bbd e6c5 19bc 0499 403d
000003e0: 1127 753d 89b0 d0ba cc50 bfbd 8ddb d33d
000003f0: 5b71 843d d7f3 d53d 54ea 3ebc b876 b6bb

network_body._body_endoder.seq_layers.0.bias f4 [128]
0.0 0.0 0.0 0.0 0.0 0.0 0.0 0.0
0.0 0.0 0.0 0.0 0.0 0.0 0.0 0.0
0.0 0.0 0.0 0.0 0.0 0.0 0.0 0.0
0.0 0.0 0.0 0.0 0.0 0.0 0.0 0.0
0.0 0.0 0.0 0.0 0.0 0.0 0.0 0.0
0.0 0.0 0.0 0.0 0.0 0.0 0.0 0.0
0.0 0.0 0.0 0.0 0.0 0.0 0.0 0.0
0.0 0.0 0.0 0.0 0.0 0.0 0.0 0.0
0.0 0.0 0.0 0.0 0.0 0.0 0.0 0.0
0.0 0.0 0.0 0.0 0.0 0.0 0.0 0.0
0.0 0.0 0.0 0.0 0.0 0.0 0.0 0.0
0.0 0.0 0.0 0.0 0.0 0.0 0.0 0.0
0.0 0.0 0.0 0.0 0.0 0.0 0.0 0.0
0.0 0.0 0.0 0.0 0.0 0.0 0.0 0.0
0.0 0.0 0.0 0.0 0.0 0.0 0.0 0.0
0.0 0.0 0.0 0.0 0.0 0.0 0.0 0.0
00000000: 0000 0000 0000 0000 0000 0000 0000 0000
00000010: 0000 0000 0000 0000 0000 0000 0000 0000
00000020: 0000 0000 0000 0000 0000 0000 0000 0000
00000030: 0000 0000 0000 0000 0000 0000 0000 0000
00000040: 0000 0000 0000 0000 0000 0000 0000 0000
00000050: 0000 0000 0000 0000 0000 0000 0000 0000
00000060: 0000 0000 0000 0000 0000 0000 0000 0000
00000070: 0000 0000 0000 0000 0000 0000 0000 0000
00000080: 0000 0000 0000 0000 0000 0000 0000 0000
00000090: 0000 0000 0000 0000 0000 0000 0000 0000
000000a0: 0000 0000 0000 0000 0000 0000 0000 0000
000000b0: 0000 0000 0000 0000 0000 0000 0000 0000
000000c0: 0000 0000 0000 0000 0000 0000 0000 0000
000000d0: 0000 0000 0000 0000 0000 0000 0000 0000
000000e0: 0000 0000 0000 0000 0000 0000 0000 0000
000000f0: 0000 0000 0000 0000 0000 0000 0000 0000
00000100: 0000 0000 0000 0000 0000 0000 0000 0000
00000110: 0000 0000 0000 0000 0000 0000 0000 0000
00000120: 0000 0000 0000 0000 0000 0000 0000 0000
00000130: 0000 0000 0000 0000 0000 0000 0000 0000
00000140: 0000 0000 0000 0000 0000 0000 0000 0000
00000150: 0000 0000 0000 0000 0000 0000 0000 0000
00000160: 0000 0000 0000 0000 0000 0000 0000 0000
00000170: 0000 0000 0000 0000 0000 0000 0000 0000
00000180: 0000 0000 0000 0000 0000 0000 0000 0000
00000190: 0000 0000 0000 0000 0000 0000 0000 0000
000001a0: 0000 0000 0000 0000 0000 0000 0000 0000
000001b0: 0000 0000 0000 0000 0000 0000 0000 0000
000001c0: 0000 0000 0000 0000 0000 0000 0000 0000
000001d0: 0000 0000 0000 0000 0000 0000 0000 0000
000001e0: 0000 0000 0000 0000 0000 0000 0000 0000
000001f0: 0000 0000 0000 0000 0000 0000 0000 0000

network_body._body_endoder.seq_layers.2.weight f4 [128, 128]
0.08019894 0.007527867 -0.008679256 -0.019906197 0.07618144 0.050369345 -0.11114183 0.026406383
0.08248331 0.09901122 -0.013252532 -0.05074089 0.020603219 0.014615198 -0.120314665 -0.17639199
-0.011900499 0.043910477 0.04734868 0.013935688 0.027791927 -0.047202326 0.14219426 0.0054126037
0.08316151 0.046633996 0.06960395 0.036803916 -0.043071736 0.019800419 -0.06885092 -0.07045993
0.0355133 0.020830788 0.080170184 -0.03216722 -0.042163502 -0.024972882 0.113932915 0.12556201
-0.050555855 -0.101307295 -0.06516014 -0.123009466 -0.053699367 -0.05551262 -0.07219897 -0.19518389
-0.007827511 0.10697023 0.02095914 0.076394446 0.20727818 -0.031156825 -0.09132181 0.12883133
0.062297393 0.033335365 -0.06496133 -0.0009037204 0.15917602 0.06803958 0.09770969 0.09620709
-0.08142772 -0.22589158 0.104033835 -0.119126625 -0.012683056 -0.064251654 -0.013031273 -0.06187268
0.1184476 -0.06871918 0.008887528 -0.05031958 -0.13545084 -0.09775236 0.071221694 0.0019872643
0.11384614 0.017262056 -0.11549795 0.011012828 -0.06770803 0.0016592612 -0.07740596 0.15953796
0.09408171 0.12067496 0.05125851 0.029641725 -0.13676728 0.08419984 0.12577073 0.028861867
0.14692858 0.058003895 0.042078227 -0.05203004 0.13398944 -0.06278427 -0.056471717 0.045253128
0.040532533 -0.16680337 0.07199948 -0.00040014143 0.10279004 -0.023609113 -0.22579831 -0.13044977
-0.14428845 -0.027402608 0.14271526 -0.08812653 -0.060988143 -0.075822145 0.07746226 -0.11520875
-0.11810883 0.19809665 0.07883731 -0.108748846 -0.030247424 -0.21706867 0.018644575 -0.057775833
-0.024466258 -0.03748508 0.062390305 -0.16571747 0.001430297 -0.120936304 -0.0052031674 -0.14553401
0.07251734 -0.20088214 0.070068434 -0.09045451 0.034789994 0.05112602 0.019371895 -0.013168294
-0.17752986 0.06479222 0.057224292 -0.04170926 0.0071254238 0.036346745 -0.08516932 0.0007119895
-0.12152874 0.014569117 0.082095936 0.013169031 -0.17666139 0.04641275 -0.049306143 0.095434085
-0.032490745 0.018663885 -0.14830059 0.15790267 0.0267593 0.16660166 0.0014329257 0.019251486
-0.06851695 -0.08153312 0.046102382 -0.04666995 -0.10639701 0.06433439 -0.056211695 0.022152541
0.06101016 -0.14903012 0.1592249 0.039343704 0.07736559 0.099643074 0.028537143 0.12776919
-0.05706387 0.01965681 -0.1905534 0.016731104 -0.1459429 -0.034559637 -0.15847749 0.07539573
0.052173153 -0.18627366 0.08267879 0.022841373 -0.045272533 0.0415115 -0.0850055 0.06471327
-0.06861028 0.15988836 0.26006633 -0.056059986 -0.07253252 -0.035287574 -0.087294616 0.18736917
-0.032061197 0.18969485 0.027997091 0.048739664 -0.11094805 0.04522582 0.039928492 0.19159256
0.080389336 0.03444338 0.042609826 -0.015700733 -0.024683597 -0.205925 -0.096202 0.110256195
-0.09908175 0.07325344 -0.088246934 0.08896177 0.08952356 -0.011465191 -0.06422652 0.17479305
-0.14494632 0.07000899 0.007679057 0.016489137 0.0379946 -0.050822087 0.052126758 0.061907873
-0.17841175 0.08869322 -0.030300682 -0.011131401 0.062523626 -0.10834841 0.084374815 -0.114587426
-0.06381229 -0.09307615 -0.04977813 0.08545839 0.012643199 0.0323746 -0.06424427 0.08323116
00000000: 583f a43d 53ac f63b 7033 0ebc 5212 a3bc
00000010: 0405 9c3d 1650 4e3d 549e e3bd 3352 d83c
00000020: 02ed a83d 65c6 ca3d 2621 59bc aed5 4fbd
00000030: 15c8 a83c 9574 6f3c 8967 f6bd 1aa0 34be
00000040: 50fa 42bc 79db 333d b1f0 413d 8352 643c
00000050: e5ab e33c 3a57 41bd 5f9b 113e 365c b13b
00000060: 9550 aa3d 4a03 3f3d 848c 8e3d b4bf 163d
00000070: fd6b 30bd 7d34 a23c b601 8dbd 4c4d 90bd
00000080: 6576 113d 54a5 aa3c 4430 a43d c6c1 03bd
00000090: a3b3 2cbd ee93 ccbc a955 e93d 5493 003e
000000a0: a813 4fbd 337a cfbd ae72 85bd 63ec fbbd
000000b0: def3 5bbd 3361 63bd 0edd 93bd 49de 47be
000000c0: f63e 00bc 3513 db3d 81b2 ab3c b174 9c3d
000000d0: bb40 543e 993c ffbc ee06 bbbd 5cec 033e
000000e0: 8d2b 7f3d aa8a 083d 720a 85bd a6e7 6cba
000000f0: 0aff 223e 5658 8b3d 051c c83d 3908 c53d
00000100: 94c3 a6bd 1f50 67be b10f d53d a9f8 f3bd
00000110: 98cc 4fbc 5f96 83bd 1f81 55bc 356e 7dbd
00000120: a894 f23d a4bc 8cbd ff9c 113c e71b 4ebd
00000130: a0b3 0abe 6432 c8bd aedc 913d c33c 023b
00000140: 2a28 e93d 2869 8d3c 308a ecbd 266f 343c
00000150: 82aa 8abd 917b d93a 0487 9ebd eb5d 233e
00000160: e9ad c03d 6f24 f73d 72f4 513d 34d3 f23c
00000170: b90c 0cbe f770 ac3d 0bca 003e b96f ec3c
00000180: 7274 163e 7e95 6d3d 385a 2c3d 741d 55bd
00000190: 8734 093e 0a95 80bd e34e 67bd 585b 393d
000001a0: 7105 263d 81ce 2abe 7774 933d 13ca d1b9
000001b0: 9683 d23d e667 c1bc ac37 67be a094 05be
000001c0: 5ac0 13be 6f7b e0bc f323 123e af7b b4bd
000001d0: b4ce 79bd a448 9bbd 89a4 9e3d 91f2 ebbd
000001e0: 0be3 f1bd d9d9 4a3e 7575 a13d b7b7 debd
000001f0: 72c9 f7bc 4047 5ebe 82bc 983c 5aa6 6cbd
00000200: 766d c8bc f589 19bd fa8c 7f3d d7b1 29be
00000210: ce78 bb3a 74ad f7bd 557f aabb de06 15be
00000220: f983 943d 0cb4 4dbe 0a80 8f3d 3740 b9bd
00000230: f47f 0e3d 8469 513d cfb1 9e3c d4bf 57bc
00000240: 63ca 35be c9b1 843d 0564 6a3d 54d7 2abd
00000250: 637c e93b 53e0 143d 416d aebd cea4 3a3a
00000260: 0fe4 f8bd 4eb3 6e3c ea21 a83d ebc2 573c
00000270: b9e6 34be 4c1b 3e3d 3df5 49bd f272 c33d
00000280: 0415 05bd 01e5 983c 1cdc 17be 3db1 213e
00000290: 5236 db3c a099 2a3e 02d1 bb3a 4bb5 9d3c
000002a0: 9d52 8cbd d6fa a6bd dad5 3c3d fd28 3fbd
000002b0: ade6 d9bd c0c1 833d 3c3e 66bd 3f79 b53c
000002c0: cae5 793d 5a9b 18be da0b 233e dd26 213d
000002d0: da71 9e3d ab11 cc3d bac6 e93c edd5 023e
000002e0: cebb 69bd 5207 a13c 6e20 43be ab0f 893c
000002f0: 0e72 15be 688e 0dbd ec47 22be 1469 9a3d
00000300: 84b3 553d 86be 3ebe 7f53 a93d d51d bb3c
00000310: b16f 39bd f607 2a3d 5d17 aebd 6488 843d
00000320: 8c83 8cbd c6b9 233e 6a27 853e 289f 65bd
00000330: ee8b 94bd b489 10bd 85c7 b2bd b4dd 3f3e
00000340: 9a52 03bd 5e3f 423e 285a e53c 3ea3 473d
00000350: bb38 e3bd b63e 393d 0f8c 233d d730 443e
00000360: 2aa3 a43d 8014 0d3d a487 2e3d d39e 80bc
00000370: 4135 cabc 01de 52be 8e05 c5bd 00ce e13d
00000380: 5feb cabd e605 963d cfba b4bd 9731 b63d
00000390: 2158 b73d 7fd8 3bbc 3289 83bd f3fc 323e
000003a0: cf6c 14be e060 8f3d 99a0 fb3b 3a14 873c
000003b0: 3aa0 1b3d d22a 50bd de82 553d 1c93 7d3d
000003c0: 92b1 36be caa4 b53d 2339 f8bc 7b60 36bc
000003d0: 630c 803d c5e5 ddbd b4cc ac3d d0ac eabd
000003e0: 05b0 82bd b59e bebd 27e4 4bbd cf04 af3d
000003f0: 6c25 4f3c 3b9b 043d 8092 83bd 1975 aa3d

network_body._body_endoder.seq_layers.2.bias f4 [128]
0.0 0.0 0.0 0.0 0.0 0.0 0.0 0.0
0.0 0.0 0.0 0.0 0.0 0.0 0.0 0.0
0.0 0.0 0.0 0.0 0.0 0.0 0.0 0.0
0.0 0.0 0.0 0.0 0.0 0.0 0.0 0.0
0.0 0.0 0.0 0.0 0.0 0.0 0.0 0.0
0.0 0.0 0.0 0.0 0.0 0.0 0.0 0.0
0.0 0.0 0.0 0.0 0.0 0.0 0.0 0.0
0.0 0.0 0.0 0.0 0.0 0.0 0.0 0.0
0.0 0.0 0.0 0.0 0.0 0.0 0.0 0.0
0.0 0.0 0.0 0.0 0.0 0.0 0.0 0.0
0.0 0.0 0.0 0.0 0.0 0.0 0.0 0.0
0.0 0.0 0.0 0.0 0.0 0.0 0.0 0.0
0.0 0.0 0.0 0.0 0.0 0.0 0.0 0.0
0.0 0.0 0.0 0.0 0.0 0.0 0.0 0.0
0.0 0.0 0.0 0.0 0.0 0.0 0.0 0.0
0.0 0.0 0.0 0.0 0.0 0.0 0.0 0.0
00000000: 0000 0000 0000 0000 0000 0000 0000 0000
00000010: 0000 0000 0000 0000 0000 0000 0000 0000
00000020: 0000 0000 0000 0000 0000 0000 0000 0000
00000030: 0000 0000 0000 0000 0000 0000 0000 0000
00000040: 0000 0000 0000 0000 0000 0000 0000 0000
00000050: 0000 0000 0000 0000 0000 0000 0000 0000
00000060: 0000 0000 0000 0000 0000 0000 0000 0000
00000070: 0000 0000 0000 0000 0000 0000 0000 0000
00000080: 0000 0000 0000 0000 0000 0000 0000 0000
00000090: 0000 0000 0000 0000 0000 0000 0000 0000
000000a0: 0000 0000 0000 0000 0000 0000 0000 0000
000000b0: 0000 0000 0000 0000 0000 0000 0000 0000
000000c0: 0000 0000 0000 0000 0000 0000 0000 0000
000000d0: 0000 0000 0000 0000 0000 0000 0000 0000
000000e0: 0000 0000 0000 0000 0000 0000 0000 0000
000000f0: 0000 0000 0000 0000 0000 0000 0000 0000
00000100: 0000 0000 0000 0000 0000 0000 0000 0000
00000110: 0000 0000 0000 0000 0000 0000 0000 0000
00000120: 0000 0000 0000 0000 0000 0000 0000 0000
00000130: 0000 0000 0000 0000 0000 0000 0000 0000
00000140: 0000 0000 0000 0000 0000 0000 0000 0000
00000150: 0000 0000 0000 0000 0000 0000 0000 0000
00000160: 0000 0000 0000 0000 0000 0000 0000 0000
00000170: 0000 0000 0000 0000 0000 0000 0000 0000
00000180: 0000 0000 0000 0000 0000 0000 0000 0000
00000190: 0000 0000 0000 0000 0000 0000 0000 0000
000001a0: 0000 0000 0000 0000 0000 0000 0000 0000
000001b0: 0000 0000 0000 0000 0000 0000 0000 0000
000001c0: 0000 0000 0000 0000 0000 0000 0000 0000
000001d0: 0000 0000 0000 0000 0000 0000 0000 0000
000001e0: 0000 0000 0000 0000 0000 0000 0000 0000
000001f0: 0000 0000 0000 0000 0000 0000 0000 0000

action_model._discrete_distribution.branches.0.weight f4 [2, 128]
0.010463017 0.014337286 -0.010491571 0.0034959249 0.0028492108 -0.017255073 -0.0002909132 0.013607313
-0.012926667 -0.017355908 0.00027429877 -0.007346675 -0.0027880229 -0.004592841 -0.0028965275 -0.00060860644
-0.0013917462 -0.0012005733 -0.016298445 -0.0016465066 -0.0067440406 -0.01027236 -0.003150855 -0.008284124
0.0015343566 0.006709543 -0.010053845 0.011981058 0.004144117 0.002160975 -0.0053351666 0.0015867612
-0.007836716 -0.0074447053 0.012039172 0.007139776 0.006978252 -0.015227893 0.0038559523 0.005827827
-0.0053953957 -0.008886259 0.0058040163 0.006125286 0.012658919 -0.009026979 -0.0006683681 -0.0004502097
-0.0075824894 0.00805858 -0.014821327 -0.0041079554 0.0024220354 -0.0063782404 0.0059407526 0.016658304
0.017625082 -0.0018481879 -0.00409924 0.009140466 -0.0037057034 -0.018697334 -0.009627004 0.0066061877
-0.005582961 0.00873056 -0.008668205 -0.011641825 0.022236489 0.0022595671 0.016653445 -0.007666868
0.00942401 0.007916337 -0.00039307223 0.0014510651 -0.0024576979 0.011109143 0.0075814575 0.0045557516
0.009838304 -0.013051015 -0.0060684714 0.0011435308 0.005328564 0.0061663524 0.0012557016 0.0045137373
0.0055007907 -0.01586553 -0.0096255215 -0.008749638 -0.001257323 0.0017874631 0.003392923 -0.0057427264
0.003856532 -0.003989717 -0.0045742122 0.010176238 0.01357195 -0.0035817667 0.017245663 0.0089219045
-0.005115251 -0.011279888 -0.004025303 0.0023155047 0.0016946096 0.010799324 0.004886422 -0.004337128
0.00080389914 0.01232635 0.0021340111 -0.016775763 -0.0065400167 -0.017242828 0.015701642 -0.010237991
-0.011730236 -0.00026330943 0.0070426124 -0.0004537967 0.00081760035 0.0032441434 0.00049370195 0.014289573
-0.018158128 -0.0058240844 0.0061962823 0.010238106 -0.0026756476 -0.0061849854 -0.0012512947 0.010515599
0.010737828 0.0048976177 0.01168155 -0.018601203 -0.004784099 0.008395028 0.009356721 -0.0099316565
0.010579477 0.015379727 -0.0001364605 0.008004177 0.0035108295 -0.015634296 -0.0040165754 0.017313235
0.0061914953 -0.016148357 0.009082942 -0.015712162 -0.008870146 -0.007638504 0.022489484 0.0069426843
0.0016611576 -0.007207442 -0.0058011 -0.0031989906 0.003613509 -0.00039817012 -0.0008944065 -0.004172195
-0.004430584 -0.016996449 0.0017888186 0.0028617082 0.0087388735 0.008139674 0.00051174377 -0.0071272277
0.0034776449 0.007179547 0.008147338 0.016619809 0.0074048005 0.00901515 -0.018286714 -0.0011152986
0.004112382 0.0050459444 -0.0120761935 0.00564324 -0.0032858034 -0.007575314 0.0065980814 0.00022119873
-0.0060891244 -0.0009556966 0.004267076 -0.00400536 5.760136e-05 -0.004784105 0.0076004164 0.017407585
0.002398567 0.004099108 -0.010150406 -0.0058107837 -0.0042164996 0.0009731894 -0.020078033 0.001980336
0.005776066 -0.008178464 0.0069867903 0.0038853686 0.0075548724 -0.007058212 -0.004588742 0.005981069
0.0029189896 -0.009040371 -0.0031371699 0.0033143726 0.0009093196 0.0024483006 -0.0029754944 -0.005984049
-0.0024113073 0.0030585646 -0.013636435 -0.00078364037 -0.00040764976 0.0013629148 -0.0055277003 0.003771722
-0.005016628 0.0053329333 -0.0063288 -0.0011793285 -0.00029886243 0.0066499407 -0.0029763358 -0.0056548803
0.0017752197 0.008253863 -0.004735497 0.0017174274 -0.0041516717 0.005090274 7.2372124e-05 0.010827885
-0.0010707119 2.1734815e-05 0.001573652 0.0020095103 0.012940808 -0.0044403425 -0.0019996634 -0.00045661567
00000000: 136d 2b3c f0e6 6a3c d7e4 2bbc e31b 653b
00000010: d3b9 3a3b 835a 8dbc b585 98b9 35f1 5e3c
00000020: 5fca 53bc fa2d 8ebc c2cf 8f39 60bc f0bb
00000030: 43b7 36bb 8b7f 96bb abd3 3dbb e38a 1fba
00000040: 416b b6ba 8e5c 9dba 5184 85bc 98cf d7ba
00000050: 1dfd dcbb 674d 28bc 937e 4ebb 22ba 07bc
00000060: 771c c93a badb db3b e2b8 24bc 334c 443c
00000070: 5fcb 873b 259f 0d3b 9fd2 aebb dffa cf3a
00000080: 9265 00bc b7f2 f3bb f33f 453c c8f4 e93b
00000090: d2a9 e43b 6a7e 79bc 25b4 7c3b 5bf7 be3b
000000a0: dccb b0bb ac97 11bc 9e2f be3b a0b6 c83b
000000b0: 5b67 4f3c e5e5 13bc 6d35 2fba 200a ecb9
000000c0: 8876 f8bb 2208 043c 27d5 72bc 079c 86bb
000000d0: 03bb 1e3b 8f00 d1bb a5aa c23b ff76 883c
000000e0: 7a62 903c e53e f2ba eb52 86bb e5c1 153c
000000f0: 63db 72bb 272b 99bc 95ba 1dbc b878 d83b
00000100: 45f1 b6bb 9f0a 0f3c 1605 0ebc 5abd 3ebc
00000110: 4c29 b63c 3f15 143b ce6c 883c 5a3a fbbb
00000120: 2a67 1a3c 86b3 013c 4315 ceb9 aa31 be3a
00000130: 5411 21bb 1f03 363c e06d f83b 6a48 953b
00000140: d630 213c edd3 55bc 07da c6bb 87e2 953a
00000150: 3c9b ae3b 1d0f ca3b 5b96 a43a f9e7 933b
00000160: fa3f b43b 6ef8 81bc 5db4 1dbc a45a 0fbc
00000170: c2cc a4ba 4f49 ea3a cd5b 5e3b 7b2d bcbb
00000180: dfbd 7c3b 2cbc 82bb 46e3 95bb 3cba 263c
00000190: e25c 5e3c 13bc 6abb c746 8d3c 2e2d 123c
000001a0: d69d a7bb 48cf 38bc b0e6 83bb b9bf 173b
000001b0: aa1d de3a a6ef 303c 471e a03b 771e 8ebb
000001c0: c2bc 523a 76f4 493c c4da 0b3b 536d 89bc
000001d0: a34d d6bb d540 8dbc bba0 803c 3fbd 27bc
000001e0: 2d30 40bc cb0c 8ab9 b7c5 e63b 90eb edb9
000001f0: 3b54 563a b29b 543b c76b 013a d01e 6a3c
00000200: 5bc0 94bc f6d7 bebb 2f0a cb3b bbbd 273c
00000210: eb59 2fbb 6bab cabb 7c02 a4ba 9e49 2c3c
00000220: b7ed 2f3c 327c a03b f963 3f3c 8d61 98bc
00000230: eec3 9cbb 4d8b 093c ef4c 193c 63b8 22bc
00000240: 8b55 2d3c 40fb 7b3c d616 0fb9 f423 033c
00000250: f215 663b 7f13 80bc 7a9d 83bb 7cd4 8d3c
00000260: 07e2 ca3b 8f49 84bc 9fd0 143c cbb6 80bc
00000270: 1754 11bc 6a4c fabb de3b b83c 757f e33b
00000280: 33bb d93a 682c ecbb 2717 bebb 28a6 51bb
00000290: 9fd0 6c3b 7dc1 d0b9 9b76 6aba e9b6 88bb
000002a0: 6f2e 91bb 233c 8bbc cb76 ea3a 7f8b 3b3b
000002b0: 7e2d 0f3c 445c 053c 8b26 063a 858b e9bb
000002c0: 33e9 633b 6842 eb3b 6a7c 053c 4426 883c
000002d0: f8a3 f23b 48b4 133c 05ce 95bc 362f 92ba
000002e0: 29c1 863b 7358 a53b 3adb 45bc eeea b83b
000002f0: a256 57bb 573a f8bb b834 d83b 95f1 6739
00000300: 4787 c7bb b787 7aba d4d2 8b3b 653f 83bb
00000310: fd98 7138 fbc3 9cbb ea0c f93b 5a9a 8e3c
00000320: 4731 1d3b cf51 863b e34d 26bc 6368 bebb
00000330: 902a 8abb a31d 7f3a b07a a4bc 86c8 013b
00000340: 2745 bd3b f7fe 05bc 72f1 e43b aba1 7e3b
00000350: dd8e f73b 9348 e7bb 285d 96bb d8fc c33b
00000360: 854c 3f3b 101e 14bc fa98 4dbb f235 593b
00000370: 685f 6e3a ab73 203b 8300 43bb d715 c4bb
00000380: 0607 1ebb 3372 483b 5b6b 5fbc 376d 4dba
00000390: d3b9 d5b9 d5a3 b23a b621 b5bb ff2e 773b
000003a0: 8762 a4bb e3bf ae3b d361 cfbb b393 9aba
000003b0: a3b0 9cb9 bfe7 d93b a10e 43bb 934c b9bb
000003c0: 7dae e83a 363b 073c 3a2c 9bbb 4d1b e13a
000003d0: bf0a 88bb 50cc a63b 7dc6 9738 7167 313c
000003e0: 2157 8cba 2953 b637 0043 ce3a fdb1 033b
000003f0: af05 543c 4b80 91bb c90c 03bb eb65 efb9

action_model._discrete_distribution.branches.0.bias f4 [2]
0.0 0.0
00000000: 0000 0000 0000 0000

action_model._discrete_distribution.branches.1.weight f4 [19, 128]
-0.0028866334 0.002430933 -0.012027736 -0.014871848 0.015543202 -0.005051897 0.013982794 -0.0087071275
-0.0025307196 0.0028337836 -0.009596533 0.01768247 0.0011125732 -0.0011843643 0.015110284 0.0071341963
0.0082287565 0.0068165096 0.0022585292 0.00048027444 -0.0063606254 0.001190334 0.00264052 -0.010631424
2.5175821e-05 -0.00899288 0.00739481 0.0062583233 -0.0061621955 0.011810786 0.0015709981 -0.0033061157
-0.0062684575 0.00535691 -0.010878919 -0.0035633098 -0.0014143669 -0.009258146 0.0033150376 0.020149497
-0.009438406 -0.011900247 -0.0042965566 0.009879755 0.0024909256 0.0127591835 -0.0015995139 0.006893923
0.0003034024 0.005809749 -0.013928301 0.00042869346 -0.0046575707 0.011354516 -0.0024106025 0.016920457
-0.014581563 0.0039934395 0.003128156 -0.012869186 -0.0018653823 -0.01047783 0.0016110906 0.0055785617
-0.00172433 0.0064101215 0.0132539 0.004175484 0.0049518477 0.0023089934 0.0050795376 0.010532099
0.0034321917 0.0019391275 -0.002571499 0.0032070042 -0.0030245092 0.0057057864 0.0058344346 -0.00906873
-0.008379101 0.006631713 -0.010707603 -0.017589469 0.007016849 0.0021880006 0.0057001994 0.002229811
0.016925504 -0.002310694 -0.0010518327 -0.008258837 0.012448869 -0.010248834 0.0065402067 0.0026718737
-0.0016684318 -0.0004981102 -0.00032650036 0.01181241 0.0074982904 -0.017035514 0.0054471972 0.0010845225
-0.0004577567 -0.008177314 -0.017265638 -0.010150234 0.008496901 -0.009558171 0.0035853756 0.0073626577
-0.00022194283 -0.00501812 -0.009192606 0.002377369 -0.012000249 0.011991074 -0.001056209 -0.007774811
0.013222895 -0.0064611705 -0.011150013 0.0062410976 -0.0049596997 -0.00092222355 0.009329376 0.0040910854
0.0037447351 0.007231263 0.012888609 -0.0016492934 0.0017336803 -0.014166092 -0.010694672 -0.0025788636
-0.0087417085 -0.0030783871 0.00930603 0.013084657 0.0046986444 -0.0035334842 0.010188661 0.0026367793
-0.011928833 0.0012392568 -0.0037585055 -0.016643377 0.0034733233 0.0057686195 -0.010673484 -0.023088658
0.024096562 -0.007053231 0.0037285702 0.0040645553 -0.00069101556 0.004528019 -0.0073724957 0.005833719
-0.018186193 0.0041991253 -0.0054384 0.00028968623 -0.02029839 0.011843181 -0.008271645 -0.0072932662
0.014019394 0.005006418 -0.011974726 0.017885905 -0.025832145 0.006228235 -0.00078361353 -0.008282052
0.0019126263 0.00031274286 -0.004826849 -0.0033691102 0.007330512 -0.008200959 -0.014897156 -0.011182998
-0.0055775577 0.007689575 -0.008183958 0.006788747 0.010415781 0.0029735323 -0.0036902044 -0.017015062
-0.0023135424 -0.0043153353 -0.007412884 -0.012443312 0.002168542 -0.013246149 0.016342785 -0.013851768
0.004790986 -0.016191537 -0.025036229 0.014603876 0.016951604 -0.011484667 -0.0013636447 0.008639759
0.0016066125 -0.002647883 0.007592515 -0.019928638 0.006014732 0.008788062 0.0119539015 0.016091632
0.0016372622 0.021549745 0.00058880146 -0.008991742 -0.012934809 -0.0071563306 -0.001596367 -0.004698144
-0.004457095 -0.014847907 0.0026419547 -0.013912885 0.019933471 -0.002291033 -0.010119354 -0.00081862806
-0.005047142 -0.000115240364 0.003999313 0.011963507 -0.0046603726 -0.0038330052 -0.0016078408 0.014232752
-0.0033607036 -0.0034793906 -0.00677123 0.005935292 -0.006443966 0.0038708567 0.004992371 -0.004211508
-0.011953059 0.012025234 0.0041594985 -0.004042601 -0.0053818747 0.0037457973 -0.006940649 0.009026961
00000000: ac2d 3dbb 4a50 1f3b fb0f 45bc 0da9 73bc
00000010: eaa8 7e3c 628a a5bb 1718 653c 57a8 0ebc
00000020: 6eda 25bb 00b7 393b c73a 1dbc d4da 903c
00000030: c3d3 913a ac3c 9bba 2091 773c fac5 e93b
00000040: e8d1 063c 075d df3b d503 143b 58cd fb39
00000050: cb6c d0bb fb04 9c3a 930c 2d3b 6d2f 2ebc
00000060: aa30 d337 df56 13bc 2a50 f23b 9f12 cd3b
00000070: 3eec c9bb 0782 413c f3e9 cd3a 6bab 58bb
00000080: a267 cdbb 0589 af3b 7e3d 32bc 6b86 69bb
00000090: 4762 b9ba 7baf 17bc 1a41 593b 8f10 a53c
000000a0: 8ba3 1abc 41f9 42bc 21ca 8cbb b2de 213c
000000b0: cc3e 233b e50b 513c c8a6 d1ba 6be6 e13b
000000c0: fb11 9f39 b55f be3b 8733 64bc 43c2 e039
000000d0: 899e 98bb 4b08 3a3c 33fb 1dbb c59c 8a3c
000000e0: 82e7 6ebc 66db 823b c001 4d3b 47d9 52bc
000000f0: d87f f4ba 34ab 2bbc 3b2b d33a 5ecc b63b
00000100: ea02 e2ba ff0b d23b e326 593c 80d2 883b
00000110: 1c43 a23b 7b52 173b 4072 a63b d38e 2c3c
00000120: 9fee 603b 522a fe3a 9886 28bb 9a2c 523b
00000130: d836 46bb 9bf7 ba3b c92e bf3b 0395 14bc
00000140: 7f48 09bc d74e d93b f16e 2fbc ca17 90bc
00000150: 98ed e53b 8f64 0f3b bdc8 ba3b 0522 123b
00000160: 5ba7 8a3c 036f 17bb a6dd 89ba 1350 07bc
00000170: 57f6 4b3c baea 27bc 3b4f d63b 9a1a 2f3b
00000180: 48af daba 9c93 02ba 232e abb9 d788 413c
00000190: 38b4 f53b 108e 8bbc 677e b23b 8926 8e3a
000001a0: 10ff efb9 24fa 05bc ab70 8dbc 2b4d 26bc
000001b0: 9636 0b3c e099 1cbc 9ff8 6a3b 7342 f13b
000001c0: 53b9 68b9 0b6f a4bb 969c 16bc a2cd 1b3b
000001d0: b19c 44bc 3676 443c 7e70 8aba d7c3 febb
000001e0: d7a4 583c 3ab8 d3bb 8bae 36bc 1f82 cc3b
000001f0: fa84 a2bb 60c1 71ba 3dda 183c 830e 863b
00000200: 3b6a 753b 3bf4 ec3b bf2a 533c 1a2d d8ba
00000210: a83c e33a e518 68bc b538 2fbc 2702 29bb
00000220: 6239 0fbc c4be 49bb 5278 183c 0761 563c
00000230: 16f7 993b 0792 67bb 57ee 263c d1cd 2c3b
00000240: 2771 43bc 8f6e a23a 4251 76bb b157 88bc
00000250: b2a0 633b b006 bd3b d6df 2ebc 6d24 bdbc
00000260: 2766 c53c ca1e e7bb 075b 743b f62f 853b
00000270: 4525 35ba c75f 943b fa94 f1bb c828 bf3b
00000280: 36fb 94bc d198 893b 9b34 b2bb 07e1 9739
00000290: cf48 a6bc e709 423c cb85 07bc 5afc eebb
000002a0: 9ab1 653c e10c a43b a431 44bc 7685 923c
000002b0: ef9d d3bc 3916 cc3b 6a6b 4dba 72b1 07bc
000002c0: 17b1 fa3a a3f7 a339 8b2a 9ebb 4acc 5cbb
000002d0: cb34 f03b 515d 06bc 3313 74bc e538 37bc
000002e0: f2c3 b6bb d5f8 fb3b 0216 06bc 2374 de3b
000002f0: f4a6 2a3c 98df 423b 5bd7 71bb 2c63 8bbc
00000300: cd9e 17bb a867 8dbb c7e7 f2bb 09df 4bbc
00000310: 191e 0e3b 6006 59bc 4ee1 853c 87f2 62bc
00000320: b4fd 9c3b 1da4 84bc c718 cdbc 1845 6f3c
00000330: 17de 8a3c 2f2a 3cbc 53bc b2ba c78d 0d3c
00000340: f894 d23a 1b88 2dbb a2ca f83b 6241 a3bc
00000350: 3b17 c53b cefb 0f3c 4cda 433c 99d2 833c
00000360: 6799 d63a 1789 b03c cc59 1a3a 1952 13bc
00000370: 85ec 53bc a77f eabb 303d d1ba e3f2 99bb
00000380: d30c 92bb a344 73bc a524 2d3b dff2 63bc
00000390: 854b a33c 2825 16bb a6cb 25bc 3399 56ba
000003a0: 7f62 a5bb 33ad f1b8 ab0c 833b 9602 443c
000003b0: 0ab6 98bb 2833 7bbb 2fbe d2ba 7d30 693c
000003c0: 403f 5cbb 7d06 64bb 32e1 ddbb d77c c23b
000003d0: e827 d3bb 33ae 7d3b 0b97 a33b b100 8abb
000003e0: c3d6 43bc 7d05 453c 674c 883b cc77 84bb
000003f0: 705a b0bb 0d7c 753b 626e e3bb d2e5 133c

action_model._discrete_distribution.branches.1.bias f4 [19]
0.0 0.0 0.0 0.0 0.0 0.0 0.0 0.0
0.0 0.0 0.0 0.0 0.0 0.0 0.0 0.0
0.0 0.0 0.0
00000000: 0000 0000 0000 0000 0000 0000 0000 0000
00000010: 0000 0000 0000 0000 0000 0000 0000 0000
00000020: 0000 0000 0000 0000 0000 0000 0000 0000
00000030: 0000 0000 0000 0000 0000 0000 0000 0000
00000040: 0000 0000 0000 0000 0000 0000

action_model._discrete_distribution.branches.2.weight f4 [15, 128]
-0.0019801932 0.001990912 0.013977731 0.01493862 0.0067688944 -0.0050020874 -0.0064268555 0.011946506
-0.0033330761 -0.012504034 0.010173403 -0.0021597815 -0.011151285 -0.0013537351 -0.0070603676 0.015758751
-0.01962926 0.005656931 -0.0022058438 -0.008709062 -0.0020073222 0.00012535033 0.010862443 -0.0010853469
0.00067527517 0.0025687222 -0.0035527505 -0.009313736 0.0050769597 0.0030214668 -0.0072823996 -0.0008566283
0.01067578 0.0015671758 -0.00028467423 -0.0032461514 -0.0056198793 -0.00508365 -0.007655074 -0.0018405796
-0.008077971 -0.010372036 -0.010707854 -0.011639585 -0.0030795257 -0.00827298 -0.008118914 0.01983815
-0.0039146757 -0.0033003276 -0.010758869 -0.010502761 0.01103229 0.014658406 -0.012495423 0.004041707
0.005051754 0.01301299 -0.006289627 -0.0020565763 -0.013028114 0.018204285 0.011139752 0.004227671
-0.0017814658 -0.0064139436 0.0008765116 -0.00039540042 -0.0062644864 -0.002471726 0.001308047 0.004634486
-0.0032267757 -0.003298118 -0.003269409 -0.01153354 -0.0062388703 -0.0017756381 0.00021155247 0.0024329426
0.0030893392 -0.00024231468 0.0045213746 -0.0017457249 1.9719888e-05 0.0070159817 0.0029662687 0.016602425
-0.005993668 -0.0072945515 0.0025556432 0.0063899755 -0.0067435317 0.0062859855 0.005110174 0.004586594
0.005918046 0.0061669894 -0.0068565696 0.00854655 -1.6047728e-05 0.00066296075 -0.0026714092 -0.0035792447
-0.011719269 -0.011627935 0.019877313 -0.0051125637 -0.005525848 0.015096505 -0.0055617867 0.011944755
-0.0097769685 0.014192166 0.0029105188 0.0043953625 -5.681639e-05 0.015004816 0.0075890743 -0.0020747664
0.007469798 -0.012073091 0.0075512193 0.012812725 0.0034774502 0.0076723765 0.0036387749 0.004243459
-0.004261073 -0.0046628932 -0.003138459 -0.0107677 0.0031905614 -0.0070283213 -0.0036428664 0.0011395491
0.009080856 -0.0001380959 -0.00400949 -0.019587947 -0.0007289026 -0.007908595 -0.023349298 -0.009727448
-0.008790022 -0.003688134 0.0060815956 0.0024630846 0.011221905 -0.02463506 -0.009806813 -0.0015829474
0.00563435 -0.0042514154 0.0077368277 0.005078101 -0.0016584194 -0.003081983 -0.01737251 0.0050740433
-0.0016325858 -0.0056646387 0.0035730328 0.023577621 -0.0057286536 -0.010741154 0.00067176024 0.006775632
-0.013325109 -0.0051536257 0.0009737291 0.00021820083 -0.00076230586 0.0021913017 0.008855705 0.011712251
0.0038335826 -0.010361746 0.00093236065 -0.0021314067 0.0074532065 -0.002104965 -0.0012535509 0.00524226
-0.009097101 0.0007694528 0.0019099936 0.00281196 0.010766425 -0.001245672 -0.0005143729 -0.012648547
-0.008007723 0.011364588 -0.0003733846 0.0073672007 0.009593792 -0.0058789407 -0.011292493 -0.003049056
0.0022838702 -0.0036452052 0.0017440055 0.007574299 0.0051751067 0.0014546731 0.009230014 -0.00057020335
0.0046585095 -0.012282286 -0.011549798 0.01619914 0.005067567 -0.0016184537 3.5797595e-05 0.002166758
0.011424923 -0.004311836 0.0161445 -0.0061776405 -0.017165782 -0.0005958934 0.0052247844 -0.0077408813
0.0052024126 0.011802103 0.009179129 -0.0012981449 0.011929223 0.0007020469 0.001792795 0.007380319
-0.008645832 0.008448421 0.010159552 -0.0060600727 0.0068103545 0.0021171565 -0.0076132077 0.010874784
-9.5809344e-05 0.0018303453 0.013516121 0.007634908 0.00699027 -0.002936823 -0.004340208 0.005677922
-0.0026126066 0.0062993965 -0.00032865623 -0.016054088 -0.009583007 -0.008134673 -0.005164748 0.0066048275
00000000: 21c6 01bb f679 023b da02 653c 1dc1 743c
00000010: 9acd dd3b 8de8 a3bb 5f98 d2bb 47bb 433c
00000020: bd6f 5abb b8dd 4cbc 58ae 263c 1f8b 0dbb
00000030: e1b3 36bc d06f b1ba a85a e7bb 7f18 813c
00000040: 8bcd a0bc c75d b93b eb8f 10bb 74b0 0ebc
00000050: 478d 03bb 7970 0339 63f8 313c 3342 8eba
00000060: f304 313a 0258 283b 43d5 68bb a498 18bc
00000070: a05c a63b cd03 463b 32a1 eebb 5a8f 60ba
00000080: 77e9 2e3c b269 cd3a 5440 95b9 62bd 54bb
00000090: f726 b8bb bf94 a6bb 6ad7 fabb 9a3f f1ba
000000a0: 7759 04bc 79ef 29bc ff6f 2fbc f5b3 3ebc
000000b0: ded1 49bb 658b 07bc 3205 05bc 9e83 a23c
000000c0: ae46 80bb 4f4a 58bb f845 30bc c613 2cbc
000000d0: c7c0 343c d029 703c 9ab9 4cbc 4c70 843b
000000e0: 2f89 a53b 7034 553c 3719 cebb a0c7 06bb
000000f0: df73 55bc 2721 953c 8283 363c 4688 8a3b
00000100: 1380 e9ba 0f2c d2bb b3c5 653a bf4d cfb9
00000110: 5246 cdbb aefc 21bb c672 ab3a e3dc 973b
00000120: 5078 53bb 3d25 58bb 9543 56bb 2cf7 3cbc
00000130: 706f ccbb 87bc e8ba 2fd4 5d39 0172 1f3b
00000140: 8376 4a3b da15 7eb9 0a28 943b cfd0 e4ba
00000150: 236c a537 52e6 e53b bb65 423b cf01 883c
00000160: 8866 c4bb 2207 efbb 947c 273b 0063 d13b
00000170: d8f8 dcbb abfa cd3b 3f73 a73b 244b 963b
00000180: 2bec c13b 7514 ca3b 13ad e0bb d406 0c3c
00000190: 3c9e 86b7 8bca 2d3a cf12 2fbb c391 6abb
000001a0: 2d02 40bc 1883 3ebc bfd5 a23c 4b87 a7bb
000001b0: 2c12 b5bb 5557 773c a63f b6bb efb3 433c
000001c0: 942f 20bc 4286 683c 67be 3e3b f906 903b
000001d0: 224e 6eb8 c3d6 753c c5ad f83b cef8 07bb
000001e0: 35c5 f43b 37ce 45bc 3870 f73b 77ec 513c
000001f0: efe5 633b 8f68 fb3b 8378 6e3b b70c 8b3b
00000200: 79a0 8bbb 2fcb 98bb 9bae 4dbb 026b 30bc
00000210: bd18 513b d54d e6bb 28bd 6ebb ec5c 953a
00000220: dfc7 143c d6cd 10b9 0a62 83bb e776 a0bc
00000230: d313 3fba 0d93 01bc 0747 bfbc e05f 1fbc
00000240: 0604 10bc 9fb4 71bb 1f48 c73b b46b 213b
00000250: 15dc 373c 77cf c9bc c1ac 20bc e77a cfba
00000260: 5aa0 b83b 754f 8bbb 3785 fd3b 3366 a63b
00000270: 525f d9ba 18fb 49bb cb50 8ebc 2944 a63b
00000280: 7dfc d5ba 6f9e b9bb 8b29 6a3b db25 c13c
00000290: 6eb7 bbbb aafb 2fbc 1119 303a 1f06 de3b
000002a0: 8f51 5abc bfdf a8bb db41 7f3a d7cc 6439
000002b0: 7bd5 47ba f19b 0f3b 8517 113c bee4 3f3c
000002c0: d83c 7b3b 50c4 29bc aa69 743a 12af 0bbb
000002d0: 073a f43b 74f3 09bb 304e a4ba 44c7 ab3b
000002e0: 020c 15bc 1ab5 493a c058 fa3a dc48 383b
000002f0: a965 303c d145 a3ba fbd6 06ba da3b 4fbc
00000300: d332 03bc 8932 3a3c d5c2 c3b9 8f68 f13b
00000310: 482f 1d3c 21a4 c0bb 2604 39bc acd2 47bb
00000320: fcac 153b 65e4 6ebb 1d97 e43a d331 f83b
00000330: f193 a93b bbaa be3a 7c39 173c b379 15ba
00000340: 69a6 983b a43b 49bc 5d3b 3dbc 0fb4 843c
00000350: d50d a63b 4b22 d4ba 6025 1638 2b00 0e3b
00000360: 9a2f 3b3c 4d4a 8dbb 7841 843c ce6d cabb
00000370: 419f 8cbc bb35 1cba ab34 ab3b 38a7 fdbb
00000380: 0079 aa3b 9c5d 413c 0f64 163c 8426 aaba
00000390: ca72 433c 9209 383a 38fc ea3a 9ad6 f13b
000003a0: 3fa7 0dbc 3f6b 0a3c 4074 263c 9393 c6bb
000003b0: 6529 df3b febf 0a3b 3778 f9bb 262c 323c
000003c0: 40ed c8b8 32e8 ef3a b872 5d3c 402e fa3b
000003d0: a30e e53b b777 40bb 4e38 8ebb dd0d ba3b
000003e0: 4438 2bbb 2b6b ce3b 7e4f acb9 dd83 83bc
000003f0: 0b02 1dbc 4b47 05bc 0c3d a9bb 4f6d d83b

action_model._discrete_distribution.branches.2.bias f4 [15]
0.0 0.0 0.0 0.0 0.0 0.0 0.0 0.0
0.0 0.0 0.0 0.0 0.0 0.0 0.0
00000000: 0000 0000 0000 0000 0000 0000 0000 0000
00000010: 0000 0000 0000 0000 0000 0000 0000 0000
00000020: 0000 0000 0000 0000 0000 0000 0000 0000
00000030: 0000 0000 0000 0000 0000 0000

network_body._body_endoder.seq_layers.0.weight f4 [128, 78]
-0.14021498 0.17023921 0.059583623 -0.036082275 0.08811364 -0.03960574 0.12582389 0.053002685
0.03406041 -0.11010994 0.0011237495 -0.034537785 -0.083342664 -0.11300423 0.011425209 0.11143678
-0.23116805 0.053241305 -0.038530834 0.18583257 0.05804163 -0.017510466 -0.18580148 0.052001197
0.07559785 0.0807659 -0.062100254 -0.13575235 -0.06891412 0.18506062 -0.1350616 -0.1775542
-0.35008657 -0.0042123566 -0.1617353 -0.070816316 0.20274904 -0.06374914 -0.0061049326 -0.014826878
-0.02178509 0.034177314 -0.048376974 0.15625663 0.070247866 0.09629789 0.01716469 -0.12659091
0.016931769 -0.0011697991 -0.24225207 0.066370845 0.017321534 0.29291788 -0.12640554 0.046893798
0.03987664 -0.0982126 -0.030014096 -0.022653839 0.040323406 0.09470857 -0.13148539 -0.18540116
0.013269158 -0.20968986 -0.01107972 -0.19618577 -0.018578932 0.15170218 0.12095492 -0.052444212
-0.16356409 -0.19086261 0.060358077 0.014716613 -0.10184593 -0.20320757 0.040442344 -0.020304754
-0.038419683 0.11469668 0.10124473 -0.036927287 -0.03215943 0.040492382 -0.23841366 0.113876015
0.056244858 -0.019913847 0.058167934 -0.1480007 -0.013657935 0.18498538 0.15396968 0.028997095
0.1132461 -0.13003546 0.16046064 -0.15150337 0.21232988 0.010909488 0.1191955 -0.08695682
-0.018631268 0.025107639 -0.06303873 -0.1419989 0.12025702 -0.16951396 0.04373359 0.08691067
-0.23920622 -0.13478082 0.14963761 -0.033671897 -0.10882065 0.005600433 -0.13327171 0.12757601
-0.04121402 0.008829449 -0.006923696 0.057722937 0.040951453 -0.13975203 -0.06436507 0.062038485
0.034430936 -0.061746895 0.061939374 0.0024904583 0.081949666 -0.034439344 0.0476673 -0.21205556
-0.14246017 -0.078051515 -0.010044578 0.115614906 -0.04846077 -0.027597189 -0.03831289 0.13048449
0.028338777 -0.029235229 0.09075909 -0.00648679 0.09375669 0.016009882 -0.022444941 -0.07372635
0.07596054 -0.1018753 -0.017448813 0.0921496 -0.06733081 -0.05447999 -0.1300786 0.0633716
-0.14282925 -0.21023814 0.087541625 -0.00087225664 -0.039808355 -0.09349545 -0.12161831 -0.11808813
0.15972841 0.3343106 0.10465403 -0.041359592 -0.097818404 -0.1782756 -0.006349504 -0.11016287
-0.15121327 -0.006729574 -0.065723404 0.21018462 -0.015522135 0.06502541 0.23366304 -0.2406076
-0.24921946 -0.09672605 0.08343584 0.00053503766 0.01566518 0.16302732 0.013470994 -0.06160159
0.14823765 0.07138858 -0.17176783 0.06304742 0.046622116 -0.102859266 0.024301717 -0.009908255
-0.036289565 0.01923604 -0.028464135 0.07064598 -0.076649345 0.13136914 -0.10801529 -0.17808726
0.104070134 -0.21383755 -0.027058281 -0.10442502 -0.059077565 -0.11837051 -0.15848432 0.02049373
0.12871803 -0.29490936 -0.0029010235 -0.07044437 -0.06891166 -0.015139379 -0.20623437 -0.0599978
-0.004481202 0.096363194 0.15907106 -0.18055144 -0.17758538 -0.01864432 -0.01219696 -0.005310586
0.08326062 -0.12340196 0.1382746 0.16330302 -0.034017112 -0.2273968 0.17235178 -0.041913375
0.14825578 -0.005102121 -0.20254852 -0.043536454 -0.048969395 -0.062409684 -0.20296437 -0.055990018
-0.043899972 -0.2332087 -0.19918017 0.12304854 0.048324417 0.092355385 0.07865132 0.12942544
00000000: 8494 0fbe 3053 2e3e f50d 743d 02cb 13bd
00000010: ed74 b43d a139 22bd fad7 003e 5819 593d
00000020: ee82 0b3d 5281 e1bd c74a 933a 7e77 0dbd
00000030: 8faf aabd c36e e7bd cd30 3b3c f738 e43d
00000040: 51b7 6cbe 8e13 5a3d 82d2 1dbd e54a 3e3e
00000050: 0fbd 6d3d 1c72 8fbc be42 3ebe 35ff 543d
00000060: 0cd3 9a3d 9868 a53d d65c 7ebd aa02 0bbe
00000070: d922 8dbd 8880 3d3e 974d 0abe c5d0 35be
00000080: 8c3e b3be cf07 8abb f09d 25be 2508 91bd
00000090: 729d 4f3e e98e 82bd e30b c8bb 6fec 72bc
000000a0: a576 b2bc 83fd 0b3d ef26 46bd bd01 203e
000000b0: 1dde 8f3d d437 c53d f79c 8c3c 0ca1 01be
000000c0: 7eb4 8a3c f253 99ba ed10 78be 70ed 873d
000000d0: e4e5 8d3c 55f9 953e 7470 01be b613 403d
000000e0: b055 233d b023 c9bd 1fe0 f5bc 8b94 b9bc
000000f0: 282a 253d 91f6 c13d 1ba4 06be cdd9 3dbe
00000100: e266 593c f0b8 56be b787 35bc ece4 48be
00000110: d832 98bc d157 1b3e 37b7 f73d becf 56bd
00000120: 587d 27be 7d71 43be 083a 773d f31d 713c
00000130: 9994 d0bd a515 50be dfa6 253d 2856 a6bc
00000140: f55d 1dbd 18e6 ea3d 6659 cf3d 1141 17bd
00000150: 9bb9 03bd 57db 253d b622 74be d437 e93d
00000160: 0261 663d 5d22 a3bc 8041 6e3d 7f8d 17be
00000170: 88c5 5fbc cf6c 3d3e 3aaa 1d3e 518b ed3c
00000180: 92ed e73d 0428 05be cb4f 243e b323 1bbe
00000190: 016d 593e b6bd 323c c51c f43d 6b16 b2bd
000001a0: 9aa0 98bc 89ae cd3c 731a 81bd 2968 11be
000001b0: 5049 f63d 1195 2dbe fe21 333d 39fe b13d
000001c0: 7af2 74be fc03 0abe 9a3a 193e 8beb 09bd
000001d0: 5cdd debd d683 b73b 6178 08be 49a3 023e
000001e0: 08d0 28bd 65a9 103c 2ce0 e2bb e36e 6c3d
000001f0: b6bc 273d 281b 0fbe d5d1 83bd 111c 7e3d
00000200: 7407 0d3d 50ea 7cbd 24b4 7d3d f536 233b
00000210: 3ad5 a73d 4510 0dbd c93e 433d 1825 59be
00000220: 14e1 11be 79d9 9fbd 0492 24bc 82c7 ec3d
00000230: cd7e 46bd 8013 e2bc faed 1cbd ba9d 053e
00000240: b926 e83c b87e efbc e7df b93d 238f d4bb
00000250: 8203 c03d 2827 833c 74de b7bc d7fd 96bd
00000260: 3391 9b3d ffa3 d0bd d0f0 8ebc eeb8 bc3d
00000270: bce4 89bd 6926 5fbd 5333 05be f8c8 813d
00000280: d541 12be ab48 57be 0649 b33d 27a8 64ba
00000290: 160e 23bd 8b7a bfbd 0513 f9bd 31d8 f1bd
000002a0: d88f 233e c22a ab3e da54 d63d ad68 29bd
000002b0: 0455 c8bd e18d 36be 800f d0bb 129d e1bd
000002c0: a7d7 1abe c283 dcbb fe99 86bd a33a 573e
000002d0: 8e50 7ebc 0b2c 853d 5d45 6f3e d761 76be
000002e0: 6333 7fbe 4f18 c6bd 69e0 aa3d c541 0c3a
000002f0: 4354 803c a2f0 263e 72b5 5c3c f351 7cbd
00000300: 9ccb 173e 2d34 923d e8e3 2fbe 011f 813d
00000310: d5f6 3e3d e1a7 d2bd 6514 c73c 3c56 22bc
00000320: 5ea4 14bd e694 9d3c 9e2d e9bc d7ae 903d
00000330: 55fa 9cbd a285 063e 1f37 ddbd 825c 36be
00000340: b922 d53d 3bf8 5abe 54a9 ddbc c9dc d5bd
00000350: 51fb 71bd 3d6c f2bd b749 22be 78e2 a73c
00000360: a9ce 033e 5cfe 96be 191f 3ebb 2345 90bd
00000370: 8e21 8dbd 280b 78bc 1a2f 53be 41c0 75bd
00000380: 0cd7 92bb 115a c53d 86e3 223e 7ae2 38be
00000390: f1d8 35be f9bb 98bc c2d5 47bc 6d04 aebb
000003a0: 8b84 aa3d 2bba fcbd db97 0d3e e838 273e
000003b0: 8755 0bbd b5da 68be fc7c 303e 5cad 2bbd
000003c0: 5dd0 173e b12f a7bb e168 4fbe 4853 32bd
000003d0: 2294 48bd 4ca1 7fbd e4d5 4fbe ca55 65bd
000003e0: 75d0 33bd 43ce 6ebe e3f5 4bbe df00 fc3d
000003f0: d3ef 453d d224 bd3d f113 a13d 1a88 043e

network_body._body_endoder.seq_layers.0.bias f4 [128]
0.0 0.0 0.0 0.0 0.0 0.0 0.0 0.0
0.0 0.0 0.0 0.0 0.0 0.0 0.0 0.0
0.0 0.0 0.0 0.0 0.0 0.0 0.0 0.0
0.0 0.0 0.0 0.0 0.0 0.0 0.0 0.0
0.0 0.0 0.0 0.0 0.0 0.0 0.0 0.0
0.0 0.0 0.0 0.0 0.0 0.0 0.0 0.0
0.0 0.0 0.0 0.0 0.0 0.0 0.0 0.0
0.0 0.0 0.0 0.0 0.0 0.0 0.0 0.0
0.0 0.0 0.0 0.0 0.0 0.0 0.0 0.0
0.0 0.0 0.0 0.0 0.0 0.0 0.0 0.0
0.0 0.0 0.0 0.0 0.0 0.0 0.0 0.0
0.0 0.0 0.0 0.0 0.0 0.0 0.0 0.0
0.0 0.0 0.0 0.0 0.0 0.0 0.0 0.0
0.0 0.0 0.0 0.0 0.0 0.0 0.0 0.0
0.0 0.0 0.0 0.0 0.0 0.0 0.0 0.0
0.0 0.0 0.0 0.0 0.0 0.0 0.0 0.0
00000000: 0000 0000 0000 0000 0000 0000 0000 0000
00000010: 0000 0000 0000 0000 0000 0000 0000 0000
00000020: 0000 0000 0000 0000 0000 0000 0000 0000
00000030: 0000 0000 0000 0000 0000 0000 0000 0000
00000040: 0000 0000 0000 0000 0000 0000 0000 0000
00000050: 0000 0000 0000 0000 0000 0000 0000 0000
00000060: 0000 0000 0000 0000 0000 0000 0000 0000
00000070: 0000 0000 0000 0000 0000 0000 0000 0000
00000080: 0000 0000 0000 0000 0000 0000 0000 0000
00000090: 0000 0000 0000 0000 0000 0000 0000 0000
000000a0: 0000 0000 0000 0000 0000 0000 0000 0000
000000b0: 0000 0000 0000 0000 0000 0000 0000 0000
000000c0: 0000 0000 0000 0000 0000 0000 0000 0000
000000d0: 0000 0000 0000 0000 0000 0000 0000 0000
000000e0: 0000 0000 0000 0000 0000 0000 0000 0000
000000f0: 0000 0000 0000 0000 0000 0000 0000 0000
00000100: 0000 0000 0000 0000 0000 0000 0000 0000
00000110: 0000 0000 0000 0000 0000 0000 0000 0000
00000120: 0000 0000 0000 0000 0000 0000 0000 0000
00000130: 0000 0000 0000 0000 0000 0000 0000 0000
00000140: 0000 0000 0000 0000 0000 0000 0000 0000
00000150: 0000 0000 0000 0000 0000 0000 0000 0000
00000160: 0000 0000 0000 0000 0000 0000 0000 0000
00000170: 0000 0000 0000 0000 0000 0000 0000 0000
00000180: 0000 0000 0000 0000 0000 0000 0000 0000
00000190: 0000 0000 0000 0000 0000 0000 0000 0000
000001a0: 0000 0000 0000 0000 0000 0000 0000 0000
000001b0: 0000 0000 0000 0000 0000 0000 0000 0000
000001c0: 0000 0000 0000 0000 0000 0000 0000 0000
000001d0: 0000 0000 0000 0000 0000 0000 0000 0000
000001e0: 0000 0000 0000 0000 0000 0000 0000 0000
000001f0: 0000 0000 0000 0000 0000 0000 0000 0000
