FYPprototype/results/Test2.1/AIBalancing/AIBalancing-132.onnx (onnx, 128981 bytes, 11 tensors)

action_model._discrete_distribution.branches.0.bias f4 [2]
0.0 0.0
00000000: 0000 0000 0000 0000

action_model._discrete_distribution.branches.0.weight f4 [2, 128]
0.0064381245 -0.0017769691 -0.0073716873 -0.0051884106 0.008824381 0.015384254 0.014476768 -0.016054636
-0.0067090862 -0.0003529587 0.0017284881 -0.0049394853 -0.007211055 0.003205219 -0.01879606 0.01215562
-0.0066636214 0.0035840836 0.015701681 -0.0010982103 0.0019472772 0.009509822 0.017768806 0.005464344
-0.003603672 0.0061766007 0.0047554923 0.008182382 -0.00091977016 -0.010311074 0.0083136065 0.00993289
-0.009474936 -0.013662154 -0.0027751352 0.0054552704 -0.021419333 -0.0011880914 -0.0037104406 -0.0027619782
-0.016937753 0.008591798 0.01156407 0.009283417 -0.022562915 -0.00080326636 0.0019490038 -0.0080447635
-0.0069017718 -0.0015893973 -0.00700735 0.009619298 -0.0039835544 -0.0031136086 -0.01078631 0.016548267
-0.0068702446 -0.0048233303 0.019396616 -0.01046701 0.0047841235 0.0107936775 -0.004673749 -0.009387607
-0.019389639 -0.0049871407 -0.012713595 0.0028469213 0.014638695 0.011816568 0.000755086 -0.008910392
-0.0010028897 0.0003772691 -0.0015521365 0.0063342587 0.0024770796 -0.0014785641 -0.007492557 -0.0075113745
0.004031598 0.008462427 -0.003290601 0.014459423 -0.0053156423 -0.004863535 -0.010860151 0.013426905
0.010346608 -0.011699968 -0.012159477 0.0029386512 -0.0048346976 -0.0074700685 -0.0025485253 0.005564095
-0.0007100048 -0.009182843 0.016815966 0.00075323635 0.0051345383 0.0005020479 -0.0013961038 0.010822206
0.0074241343 0.0061830673 -3.0669613e-05 -0.012793523 0.016250966 -0.0091904225 0.0030141878 0.0029488502
-0.0021995655 0.009588589 0.0021489752 -0.011970173 -0.0058447663 -0.0026147177 -0.013728338 0.0061487905
-0.012448128 0.014933898 0.017276807 -0.006602976 -0.009200823 -0.004555035 -0.0006621917 -0.007223078
-0.0030976671 -0.0151770385 -0.0012071789 0.009416862 0.007081605 0.0017392555 -0.00011235012 -0.0019506915
-0.008205156 -0.01640068 0.004234723 0.0021240963 -0.003503851 0.007983533 0.01116554 -0.0036836863
-0.0087103695 -0.01384431 0.008479906 -0.0049200286 0.008709731 0.008476603 -0.0049746945 -0.010519198
0.0014363823 0.00559752 0.0009223126 0.009133709 0.004890335 0.010160315 -0.0036140338 0.007686446
0.009598583 0.0031069764 0.00018387414 -0.0006182754 0.0047059353 0.0008015617 -0.0020403143 0.0011290549
0.011886224 0.01188092 0.0050053177 0.023470836 0.010381601 0.024464542 0.013100064 0.011968886
0.00458404 0.004979554 0.0078079994 0.0056494023 0.021562364 0.0032116321 -0.013768404 -0.003042056
0.0008950188 -0.0022637749 0.014142223 0.0031385382 0.011969352 -0.016175373 -0.01130568 0.0007444758
-0.000610321 -0.010761801 -9.895341e-05 0.003816713 -0.005611126 0.009313564 -0.001813859 0.00030334663
-0.005009665 -0.0028735357 -0.006131343 0.0039158124 -0.017081726 0.0038405545 0.0006938132 -0.004654706
-0.00087226613 0.0033125416 0.017199377 -0.0017810414 -0.008757611 -0.0026661067 0.018333923 0.0016574784
-0.0058617867 -0.0040735123 0.017624397 -0.002543694 0.00949891 -0.006089621 0.00020291861 -0.0037959702
-0.00076498254 0.0073439316 -0.0041881236 0.0010409505 0.00010352411 -0.006461526 -0.015122548 0.005459797
-0.015620141 0.013040105 0.00887812 -0.0058425637 0.0128476415 -0.0027993706 -0.0128940195 0.0024666572
-0.0005012578 0.0050678025 0.006476649 0.006669678 0.0086746495 -0.0032105378 0.0013161775 0.0033468367
0.0019746963 -0.0032105793 -0.0046755425 -0.000601586 0.0035359394 -0.009994455 -0.01024496 -0.005535363
00000000: e7f6 d23b 30e9 e8ba 328e f1bb 8b03 aabb
00000010: 2394 103c 3d0e 7c3c f72f 6d3c 0385 83bc
00000020: e5d7 dbbb 510d b9b9 708e e23a 68db a1bb
00000030: b74a ecbb a70e 523b 32fa 99bc 5e28 473c
00000040: 825a dabb f2e2 6a3b d0a0 803c d3f1 8fba
00000050: c83b ff3a 16cf 1b3c e38f 913c 3d0e b33b
00000060: 952b 6cbb 1565 ca3b f6d3 9b3b 660f 063c
00000070: bb1c 71ba c7ef 28bc cb35 083c 8fbd 223c
00000080: c33c 1bbc 3ad7 5fbc 0bdf 35bb 20c2 b23b
00000090: 9977 afbc bbb9 9bba dd2a 73bb 4e02 35bb
000000a0: 0bc1 8abc 9dc4 0c3c 3a77 3d3c 7919 183c
000000b0: ddd5 b8bc 4b92 52ba b775 ff3a 2fce 03bc
000000c0: 4228 e2bb 5353 d0ba ea9d e5bb 439a 1d3c
000000d0: 7a88 82bb af0d 4cbb 10b9 30bc 3b90 873c
000000e0: ca1f e1bb 070d 9ebb a7e5 9e3c d27d 2bbc
000000f0: 23c4 9c3b f7d7 303c 4026 99bb 7ace 19bc
00000100: 05d7 9ebc 2b6b a3bb af4c 50bc 6a93 3a3b
00000110: 23d7 6f3c 479a 413c f7f0 453a e5fc 11bc
00000120: 6573 83ba 34cc c539 0f71 cbba 9d8f cf3b
00000130: 8056 223b 61cc c1ba 2084 f5bb fa21 f6bb
00000140: 7f1b 843b fea5 0a3c 20a7 57bb 37e7 6c3c
00000150: d72e aebb 4a5e 9fbb c6ee 31bc 85fc 5b3c
00000160: d284 293c 39b1 3fbc 8b38 47bc 6396 403b
00000170: 626c 9ebb 7ac7 f4bb 2905 27bb 0353 b63b
00000180: 9e1f 3aba a373 16bc a3c1 893c d674 453a
00000190: a13f a83b dd9b 033a 78fd b6ba 9f4f 313c
000001a0: 2746 f33b 549b ca3b 3fa3 00b8 ed9b 51bc
000001b0: bf20 853c 6d93 16bc ae89 453b 7f41 413b
000001c0: 9626 10bb 7519 1d3c d2d5 0c3b 8b1e 44bc
000001d0: 7485 bfbb af5b 2bbb d3ec 60bc cb7b c93b
000001e0: 3cf3 4bbc 4fad 743c 1788 8d3c c75d d8bb
000001f0: 0cbf 16bc 6742 95bb ef96 2dba 92af ecbb
00000200: 3b02 4bbb 1da9 78bc 343a 9eba 2f49 1a3c
00000210: cf0c e83b bbf7 e33a 839d ebb8 58ae ffba
00000220: eb6e 06bc b85a 86bc 6ec3 8a3b 6c34 0b3b
00000230: dda0 65bb 5dcd 023c abef 363c 006a 71bb
00000240: f0b5 0ebc 3fd3 62bc 4eef 0a3c 3138 a1bb
00000250: 42b3 0e3c 73e1 0a3c c302 a3bb b758 2cbc
00000260: fe44 bc3a 676b b73b 5ac7 713a 8da5 153c
00000270: 1a3f a03b 7377 263c 6dd9 6cbb 95de fb3b
00000280: 6043 1d3c 6a9e 4b3b 57ce 4039 c213 22ba
00000290: 3f34 9a3b e51f 523a cbb6 05bb ccfc 933a
000002a0: 70be 423c 31a8 423c a603 a43b e945 c03c
000002b0: 9717 2a3c dd69 c83c a7a1 563c 2519 443c
000002c0: b735 963b 872b a33b 3fda ff3b 9f1e b93b
000002d0: 8ea3 b03c 3f7a 523b df94 61bc 3b5d 47bb
000002e0: b29f 6a3a d75b 14bb c8b4 673c efaf 4d3b
000002f0: 1a1b 443c 3782 84bc 753b 39bc ed28 433a
00000300: f3fd 1fba 4452 30bc 3585 cfb8 d221 7a3b
00000310: 89dd b7bb eb97 183c 02bf edba 7f0a 9f39
00000320: 1e28 a4bb ee51 3cbb 6fe9 c8bb 3750 803b
00000330: faee 8bbc d0b1 7b3b 04e1 353a 8186 98bb
00000340: caa8 64ba 3a17 593b b5e5 8c3c d571 e9ba
00000350: 157c 0fbc d9b9 2ebb 0631 963c bf3f d93a
00000360: 3b14 c0bb 197b 85bb 0a61 903c 1bb4 26bb
00000370: 51a1 1b3c 728b c7bb 8dc6 5439 d0c5 78bb
00000380: 1c89 48ba 5da5 f03b 873c 89bb 8170 883a
00000390: 151b d938 35bb d3bb 90c4 77bc 19e8 b23b
000003a0: 9feb 7fbc 2aa6 553c 8975 113c fa72 bfbb
000003b0: ea7e 523c a575 37bb 7041 53bc a4a7 213b
000003c0: d766 03ba cf0f a63b 123a d43b 508d da3b
000003d0: 1e20 0e3c e367 52bb 9783 ac3a 9a56 5b3b
000003e0: e869 013b 9568 52bb 4b35 99bb c1b3 1dba
000003f0: 38bb 673b c8bf 23bc 7ada 27bc fe61 b5bb

action_model._discrete_distribution.branches.1.bias f4 [19]
0.0 0.0 0.0 0.0 0.0 0.0 0.0 0.0
0.0 0.0 0.0 0.0 0.0 0.0 0.0 0.0
0.0 0.0 0.0
00000000: 0000 0000 0000 0000 0000 0000 0000 0000
00000010: 0000 0000 0000 0000 0000 0000 0000 0000
00000020: 0000 0000 0000 0000 0000 0000 0000 0000
00000030: 0000 0000 0000 0000 0000 0000 0000 0000
00000040: 0000 0000 0000 0000 0000 0000

action_model._discrete_distribution.branches.1.weight f4 [19, 128]
0.00822965 0.0025023643 0.010403718 0.019656848 0.0011209283 0.0025104815 -0.002991344 0.0070773596
-0.0036918842 0.0156032145 0.00049091066 -0.0030281215 -0.0066551105 -0.007271532 0.014942703 -0.0055693216
-0.0019635821 -0.003942289 0.0040217745 -0.0012830842 -0.012121597 -0.0037983295 0.010555553 0.0092474185
-0.00021457415 -0.0031666066 0.014192708 -0.0033328948 0.02234803 0.004683137 -0.0008439535 -0.008385342
0.00474561 -0.00035598138 0.0045817792 0.002840136 -0.0063483627 -0.0057286206 -0.00540157 -0.0064610625
0.017991139 -0.011908037 0.0032080864 -0.0049197627 -0.018125476 0.0018001285 0.00769902 0.009315294
-0.0032811426 0.005922449 0.00022229714 0.0035433036 0.001002774 -0.0028928262 -0.011353219 0.008147868
-0.007983253 -0.0046451185 -0.010177765 -0.0009865429 0.018802539 -0.0034161124 0.001048346 -0.003730192
0.013239947 -0.001271945 0.009105452 -0.017729234 -0.007604137 -0.0029113272 0.006684277 0.008477112
0.0056792684 -0.005741203 -0.013437375 -0.00033996132 -0.006437329 0.0015990887 -0.010014049 0.010648299
0.0003011159 -0.0070419568 -0.018625377 0.013965038 0.009862769 0.023588816 -0.005844143 -0.00633325
0.017063744 0.01385213 0.0012109221 -0.002516578 -0.011033539 0.001115214 0.0053189523 6.906373e-05
-0.002713997 -0.00030850133 -0.0048397235 -0.018827833 -0.007854542 -0.014672458 -0.019814268 0.002809446
0.0003716971 -0.010092848 -0.0047911294 -0.00662435 -0.011287871 0.007023543 0.010861286 0.0063369484
0.0011191467 -0.0034793552 -0.007930583 0.004081004 -0.017490817 -0.0013610681 0.004199481 0.019935668
-0.0007186053 -0.005160147 0.0045089643 -0.0013806857 -0.01577281 0.005977566 -0.0045251003 0.0040087956
0.0062014814 0.008151096 -0.014602576 0.0021268316 0.007842644 -0.0017114694 0.0049189655 0.0051531005
-0.015663853 0.014108151 0.008083395 -0.008355407 0.008004214 0.007892537 -0.0026632082 0.0031213507
0.0033307453 -0.004390941 -0.012798736 0.007885221 0.0029937464 -0.0101673 0.008834484 0.005776923
-0.0065963194 0.009296876 -0.004030153 0.0070147277 0.01072125 0.004076999 0.009750291 0.002633991
0.0003400795 0.008476234 0.0012986971 -0.0027261556 -0.0022832023 -0.018114435 -0.009457426 0.007488873
0.0017465698 0.00075061887 0.0016400683 -0.012631779 -0.0045771324 -0.008815048 -0.008192987 -0.014638521
-0.0041644457 -0.0027331873 0.0027955447 -0.013684775 -0.010607741 0.0033590663 -0.005369449 -0.0057154507
-0.005514362 0.001978793 -0.0021648877 -0.004725378 -0.00073545217 -3.48538e-05 -0.013198464 -0.017049903
-0.0045987624 0.0033517592 -0.0046715476 0.008251968 -0.005396186 -0.030841907 0.006176331 0.0010688344
0.009655627 -0.0026311455 -0.006985176 -0.0015382257 0.0040181573 -0.003926958 -0.010437634 0.009671533
0.0050494 -0.0028700584 -0.005704233 0.0066049434 0.002727284 0.00061023666 -0.0049494025 0.009604434
-0.0027211881 0.0038778484 0.008494039 0.0067679333 -0.003321236 0.0035191912 -0.0024583244 0.0013410758
-0.00019318241 -0.0015428008 -0.002334437 0.0007602453 -0.001364949 0.003092665 -0.008564348 -0.013870201
0.015227576 -0.010321098 0.0025049234 0.006564297 -0.0077796923 0.004201676 -0.016872412 -0.009952177
-0.0057857977 -0.0069562593 -0.003967362 0.006509129 6.635025e-05 0.0052203047 -0.020423621 -0.0018890211
0.009591719 0.0056765135 -0.0070895227 -0.00049905636 -0.0035337422 -0.024061812 -0.011977401 -0.0025675585
00000000: a7d5 063c b5fe 233b 5b74 2a3c 6607 a13c
00000010: 1dec 923a e486 243b 6d0a 44bb 32e9 e73b
00000020: 8af3 71bb a0a4 7f3c 75b0 003a 7373 46bb
00000030: 1d13 dabb 0846 eebb 3dd2 743c db7e b6bb
00000040: 71af 00bb 512e 81bb 17c9 833b 292d a8ba
00000050: aa99 46bc 65ed 78bb 33f1 2c3c 7c82 173c
00000060: 4fff 60b9 d886 4fbb 8888 683c b26c 5abb
00000070: 3713 b73c 0075 993b c33c 5dba ac62 09bc
00000080: 1081 9b3b 03a3 bab9 c022 963b 9321 3a3b
00000090: ed05 d0bb 27b7 bbbb a7ff b0bb 52b7 d3bb
000000a0: 2762 933c ed19 43bc c23e 523b f635 a1bb
000000b0: e17b 94bc 4af2 eb3a 1048 fc3b 2d9f 183c
000000c0: 7008 57bb 1a11 c23b 6f18 6939 c536 683b
000000d0: 836f 833a 9295 3dbb da02 3abc a37e 053c
000000e0: 31cc 02bc 1436 98bb a4c0 26bc e34e 81ba
000000f0: c807 9a3c dbe0 5fbb a868 893a 3d76 74bb
00000100: 5dec 583c 64b7 a6ba 092f 153c e63c 91bc
00000110: 202c f9bb f7cb 3ebb c807 db3b 96e3 0a3c
00000120: 2819 ba3b b420 bcbb 7028 5cbc d63c b2b9
00000130: 3bf0 d2bb 8398 d13a f711 24bc 3476 2e3c
00000140: 18df 9d39 37c0 e6bb 3f94 98bc 9dcd 643c
00000150: 7497 213c 553d c13c 3a80 bfbb 2787 cfbb
00000160: 44c9 8b3c 0bf4 623c ceb7 9e3a 2ced 24bb
00000170: 04c6 34bc 5f2c 923a 9b4a ae3b 4fd6 9038
00000180: 50dd 31bb 59be a1b9 8b96 9ebb d43c 9abc
00000190: 56b0 00bc c064 70bc 8851 a2bc af1e 383b
000001a0: 57e0 c239 795c 25bc e8fe 9cbb 1311 d9bb
000001b0: c3f0 38bc c025 e63b 89f3 313c 2da6 cf3b
000001c0: 55b0 923a e505 64bb 47ef 01bc f1b9 853b
000001d0: e748 8fbc de65 b2ba cd9b 893b 2050 a33c
000001e0: c960 3cba 7316 a9bb efbf 933b 20f8 b4ba
000001f0: fb35 81bc 75df c33b 4b47 94bb 375c 833b
00000200: cc35 cb3b 2d8c 053c a53f 6fbc 5062 0b3b
00000210: 6f7e 003c 6253 e0ba 462f a13b 57db a83b
00000220: 7b51 80bc e025 673c 3770 043c 1ee5 08bc
00000230: 1b24 033c b34f 013c 3889 2ebb 938f 4c3b
00000240: a248 5a3b e2e1 8fbb cab1 51bc 0431 013c
00000250: bb32 443b bf94 26bc 83be 103c 584c bd3b
00000260: f025 d8bb ed51 183c 600f 84bb cddb e53b
00000270: 2fa8 2f3c 5998 853b afbf 1f3c 099f 2c3b
00000280: b34c b239 e7df 0a3c 0b39 aa3a 4da9 32bb
00000290: c7a1 15bb b964 94bc 52f3 1abc 3865 f53b
000002a0: 28ed e43a 2ec5 443a 8ff7 d63a 85f5 4ebc
000002b0: c5fb 95bb fe6c 10bc e13b 06bc 68d6 6fbc
000002c0: e775 88bb 461f 33bb 7535 373b 1b36 60bc
000002d0: 17cc 2dbc c823 5c3b 34f2 afbb ad48 bbbb
000002e0: d2b1 b4bb a3ae 013b cae0 0dbb 58d7 9abb
000002f0: 5ccb 40ba fc2f 12b8 5f3e 58bc 3dac 8bbc
00000300: 37b1 96bb 30a9 5b3b c813 99bb 4333 073c
00000310: 7dd2 b0bb 2ba8 fcbc d262 ca3b 2218 8c3a
00000320: a332 1e3c 4c6f 2cbb e7e3 e4bb 4a9e c9ba
00000330: bfaa 833b b6ad 80bb 9c02 2bbc 5975 1e3c
00000340: 7075 a53b 9717 3cbb 93ea babb 486e d83b
00000350: 3cbc 323b 4af8 1f3a 992e a2bb ea5b 1d3c
00000360: f655 32bb 8023 7e3b 952a 0b3c 8ac5 dd3b
00000370: 18a9 59bb 3ba2 663b d71b 21bb 09c7 af3a
00000380: 0291 4ab9 ce37 caba 5bfd 18bb 334b 473a
00000390: 17e8 b2ba 4fae 4a3b 7b51 0cbc d73f 63bc
000003a0: 157d 793c d319 29bc a429 243b 5019 d73b
000003b0: caec febb 37ae 893b 0338 8abc 750e 23bc
000003c0: ca96 bdbb 55f1 e3bb a500 82bb 884a d53b
000003d0: 8525 8b38 170f ab3b 704f a7bc 0899 f7ba
000003e0: 9626 1d3c 0c02 ba3b 3a4f e8bb 1bd3 02ba
000003f0: 5b96 67bb 471d c5bc dc3c 44bc 7c44 28bb

action_model._discrete_distribution.branches.2.bias f4 [15]
0.0 0.0 0.0 0.0 0.0 0.0 0.0 0.0
0.0 0.0 0.0 0.0 0.0 0.0 0.0
00000000: 0000 0000 0000 0000 0000 0000 0000 0000
00000010: 0000 0000 0000 0000 0000 0000 0000 0000
00000020: 0000 0000 0000 0000 0000 0000 0000 0000
00000030: 0000 0000 0000 0000 0000 0000

action_model._discrete_distribution.branches.2.weight f4 [15, 128]
-0.00020478247 0.0030507427 -0.009685295 -0.012505329 -0.0042310567 0.009809173 -0.004184097 0.014981344
-0.008559545 -0.0039889044 0.008613613 -0.001067708 0.017339712 0.0038852503 -0.006913042 0.0074786367
0.0005532009 0.003945849 -0.009100114 0.0043998803 0.014474444 0.0023088139 0.012172913 -0.019126343
-0.0039405962 0.006763284 0.008546545 0.017422846 -0.0040406655 0.015270593 -0.0023356096 -0.0041857655
-0.024441905 0.0040555145 -0.0013238749 -0.012056784 -0.0064810673 0.0007106856 -0.006211452 -0.0023577267
0.0029125214 -0.017477585 -0.0014417479 -0.0038434756 0.012213342 0.01055966 0.0074907565 -0.0016348812
0.0043822965 -0.0020953245 0.008551658 0.008348755 -0.0073014246 -0.0060438565 0.021396508 -0.0008013548
0.0017454958 -0.018097496 -0.007085141 0.0017213601 0.0045282175 -0.007305433 -0.019039633 -0.008018593
-0.0067160027 0.005589387 -0.00075163913 -0.0091417385 0.0052204523 0.009773164 -0.012911791 0.0019912687
-0.0021544127 -0.005410796 -0.00215256 -0.008424833 -0.00044877533 -0.010255893 0.00042468216 0.0030683551
0.0071090735 -0.0005384131 -0.0211798 0.0039184596 -0.003245911 0.011572833 0.011745363 -0.012019846
0.0074417912 -0.0016025946 0.011377033 -0.017213713 0.013939068 0.013729303 0.0027527593 0.00976686
0.0077682137 -0.0051044947 -0.006635652 -0.004921271 0.018846065 -0.007670667 -0.0107188 -0.0126682045
-0.006795455 -0.002646663 -0.009134269 -0.016501209 0.005916758 0.0067259124 0.0047103544 0.003522234
0.008300683 0.006083323 -0.017977266 -0.0054644723 -0.00038956502 -0.0014416998 -0.00329072 -0.0037568964
-0.011712852 0.0010816539 -0.013773538 0.0025408862 0.008097832 -0.0017110802 -0.000120610806 -0.0017933389
0.0055145486 -0.009107799 -0.012473064 -0.000587498 0.006307702 0.0072699115 -0.0016314117 0.00560186
-0.0154660335 1.9784535e-05 0.0016241039 0.0128797535 0.003217132 -0.0026095589 0.009973502 0.028844548
0.0028244867 -0.009202503 -0.0013690107 -0.0011885733 -0.007225979 -0.008650315 0.0010797275 0.0028350817
-0.009586912 0.007113084 -0.005512236 8.6241664e-05 -0.005884774 -0.008033692 0.00454512 0.0036243373
-0.011138094 0.0038532491 -0.011163636 -0.017842619 -0.013320992 0.006640305 0.012096183 0.0041698613
-0.0063815536 0.0069040866 -0.004031887 0.0016946694 0.0031783872 -0.008331975 0.005739712 0.015641084
-0.006152425 -0.0047104065 0.013790614 0.010481208 -0.005063606 0.010086199 0.010405917 0.004946269
-0.014069388 -0.0021287545 -0.0009938556 -0.0030530626 -0.0024641068 0.002043476 0.011957444 -0.007545861
0.01397426 0.005633145 -0.01008233 -0.00012562417 -0.0011986004 -0.0019963423 0.0035943792 0.012195548
-0.00023227576 -0.005519439 0.0026694073 0.0065463497 -0.020439904 0.00800395 0.018888162 0.010587742
0.0074068927 -0.0011899753 0.012548846 -0.013842587 -0.01586851 -0.0018051101 -3.383968e-05 0.004504011
-0.0026492618 -0.009641718 -0.003309505 0.00083873625 -0.016870575 -0.018049076 0.001971498 0.004042418
-0.00028217235 -0.0006234212 -0.013874714 -0.015057938 -0.006333729 -0.00808962 -0.011396507 -0.0029165763
0.0042538694 -0.015412169 -0.020861946 0.0018316945 -0.00075966143 0.011914813 0.0023041654 -0.0041028536
-0.008904622 0.004977509 0.0072126347 0.0036000614 0.0035753974 -0.0074523943 -0.0011229069 0.010166916
-0.004205172 -0.0084419185 -0.014756384 -0.0022882929 0.013536234 0.007872857 -0.0042831656 -0.008118142
00000000: e0ba 56b9 f8ee 473b 12af 1ebc 27e3 4cbc
00000010: ada4 8abb a7b6 203c c01a 89bb 5074 753c
00000020: 553d 0cbc 5bb5 82bb 1d20 0d3c 56f2 8bba
00000030: 030c 8e3c af9f 7e3b cd86 e2bb 5a0f f53b
00000040: af04 113a 2e4c 813b a518 15bc df2c 903b
00000050: 3826 6d3c 784f 173b e670 473c d9ae 9cbc
00000060: 1e20 81bb 8a9e dd3b cf06 0c3c 5bba 8e3c
00000070: 8f67 84bb 8231 7a3c 0711 19bb bf28 89bb
00000080: 643a c8bc 1fe4 843b df85 adba d189 45bc
00000090: 225f d4bb 4e4d 3a3a 7089 cbbb 1784 1abb
000000a0: 00e0 3e3b 272d 8fbc 08f9 bcba d2e2 7bbb
000000b0: 781a 483c 6d02 2d3c 0575 f53b 8349 d6ba
000000c0: 5e99 8f3b b651 09bb 411c 0c3c 37c9 083c
000000d0: ca40 efbb 8b0b c6bb bb47 af3c 0312 52ba
000000e0: 1fc9 e43a 3341 94bc 782a e8bb 439f e13a
000000f0: 7161 943b 6a62 efbb 01f9 9bbc 6b60 03bc
00000100: ea11 dcbb 2d27 b73b a609 45ba 3bc7 15bc
00000110: 5410 ab3b 9f1f 203c fa8b 53bc f27f 023b
00000120: 0c31 0dbb 0c4d b1bb f711 0dbb 5008 0abc
00000130: 9b49 ebb9 5508 28bc e0a7 de39 7516 493b
00000140: 3bf3 e83b 4b24 0dba 4381 adbc 6c66 803b
00000150: 5ab9 54bb fb9b 3d3c 9f6f 403c e3ee 44bc
00000160: 45da f33b 270e d2ba bc66 3a3c c603 8dbc
00000170: b060 643c dff0 603c a367 343b 2e05 203c
00000180: 808c fe3b 9b43 a7bb e26f d9bb 9d42 a1bb
00000190: 1063 9a3c 385a fbbb e89d 2fbc 4d8e 4fbc
000001a0: 68ac debb a373 2dbb e7a7 15bc 8b2d 87bc
000001b0: 5de1 c13b 0b65 dc3b 5159 9a3b 48d5 663b
000001c0: 97ff 073c 9d56 c73b 0f45 93bc 510f b3bb
000001d0: 883e ccb9 6bf7 bcba 1fa9 57bb 4336 76bb
000001e0: 43e7 3fbc 48c6 8d3a 68aa 61bc ff84 263b
000001f0: c5ac 043c 5346 e0ba 6ff0 fcb8 780e ebba
00000200: 63b3 b43b e138 15bc d25b 4cbc 5302 1aba
00000210: d7b0 ce3b 7038 ee3b 18d5 d5ba cf8f b73b
00000220: 3f65 7dbc f7f6 a537 e2df d43a 9a05 533c
00000230: 85d6 523b 2205 2bbb e667 233c 674b ec3c
00000240: 061b 393b 18c6 16bc 6070 b3ba e7c9 9bba
00000250: e8c7 ecbb 0dba 0dbc a585 8d3a c7cc 393b
00000260: 6c12 1dbc e014 e93b fd9f b4bb a4dc b438
00000270: 10d5 c0bb bf9f 03bc 3bef 943b 4a86 6d3b
00000280: 8d7c 36bc cb86 7c3b afe7 36bc af2a 92bc
00000290: 4a40 5abc ea96 d93b 122f 463c 55a3 883b
000002a0: 5a1c d1bb ad3b e23b eb1d 84bb ab1f de3a
000002b0: 7d4c 503b d682 08bc 3214 bc3b bb21 803c
000002c0: 489a c9bb c159 9abb 07f2 613c 5fb9 2b3c
000002d0: 9bec a5bb 9640 253c 947d 2a3c 5014 a23b
000002e0: 4a83 66bc 9382 0bbb 4344 82ba e415 48bb
000002f0: da7c 21bb d7eb 053b 28e9 433c 4543 f7bb
00000300: 4bf4 643c 3f96 b83b 5b30 25bc fbb9 03b9
00000310: 5b1a 9dba 11d5 02bb ad8f 6b3b d6cf 473c
00000320: 0d8f 73b9 69dc b4bb 39f1 2e3b c382 d63b
00000330: 9671 a7bc 0023 033c 59bb 9a3c 3578 2d3c
00000340: 85b5 f23b f2f8 9bba ad99 4d3c 05cc 62bc
00000350: adfe 81bc 7299 ecba 14ef 0db8 6296 933b
00000360: 3d9f 2dbb 4cf8 1dbc 48e4 58bb a3de 5b3a
00000370: 2934 8abc a8db 93bc 3f34 013b 4376 843b
00000380: 88f0 93b9 176d 23ba c552 63bc 92b5 76bc
00000390: 2b8b cfbb 538a 04bc 6ab8 3abc 0824 3fbb
000003a0: 0b64 8b3b 5283 7cbc ace6 aabc 7815 f03a
000003b0: 0424 47ba 5936 433c 7b01 173b 3b71 86bb
000003c0: b1e4 11bc 5f1a a33b f757 ec3b 02ef 6b3b
000003d0: 3751 6a3b 3733 f4bb 812e 93ba 2393 263c
000003e0: 8acb 89bb f94f 0abc c3c4 71bc 2ff7 15bb
000003f0: 15c7 5d3c 28fd 003c cc59 8cbb f501 05bc

discrete_action_output_shape f4 [1, 3]
2.0 19.0 15.0
00000000: 0000 0040 0000 9841 0000 7041

network_body._body_endoder.seq_layers.0.bias f4 [128]
0.0 0.0 0.0 0.0 0.0 0.0 0.0 0.0
0.0 0.0 0.0 0.0 0.0 0.0 0.0 0.0
0.0 0.0 0.0 0.0 0.0 0.0 0.0 0.0
0.0 0.0 0.0 0.0 0.0 0.0 0.0 0.0
0.0 0.0 0.0 0.0 0.0 0.0 0.0 0.0
0.0 0.0 0.0 0.0 0.0 0.0 0.0 0.0
0.0 0.0 0.0 0.0 0.0 0.0 0.0 0.0
0.0 0.0 0.0 0.0 0.0 0.0 0.0 0.0
0.0 0.0 0.0 0.0 0.0 0.0 0.0 0.0
0.0 0.0 0.0 0.0 0.0 0.0 0.0 0.0
0.0 0.0 0.0 0.0 0.0 0.0 0.0 0.0
0.0 0.0 0.0 0.0 0.0 0.0 0.0 0.0
0.0 0.0 0.0 0.0 0.0 0.0 0.0 0.0
0.0 0.0 0.0 0.0 0.0 0.0 0.0 0.0
0.0 0.0 0.0 0.0 0.0 0.0 0.0 0.0
0.0 0.0 0.0 0.0 0.0 0.0 0.0 0.0
00000000: 0000 0000 0000 0000 0000 0000 0000 0000
00000010: 0000 0000 0000 0000 0000 0000 0000 0000
00000020: 0000 0000 0000 0000 0000 0000 0000 0000
00000030: 0000 0000 0000 0000 0000 0000 0000 0000
00000040: 0000 0000 0000 0000 0000 0000 0000 0000
00000050: 0000 0000 0000 0000 0000 0000 0000 0000
00000060: 0000 0000 0000 0000 0000 0000 0000 0000
00000070: 0000 0000 0000 0000 0000 0000 0000 0000
00000080: 0000 0000 0000 0000 0000 0000 0000 0000
00000090: 0000 0000 0000 0000 0000 0000 0000 0000
000000a0: 0000 0000 0000 0000 0000 0000 0000 0000
000000b0: 0000 0000 0000 0000 0000 0000 0000 0000
000000c0: 0000 0000 0000 0000 0000 0000 0000 0000
000000d0: 0000 0000 0000 0000 0000 0000 0000 0000
000000e0: 0000 0000 0000 0000 0000 0000 0000 0000
000000f0: 0000 0000 0000 0000 0000 0000 0000 0000
00000100: 0000 0000 0000 0000 0000 0000 0000 0000
00000110: 0000 0000 0000 0000 0000 0000 0000 0000
00000120: 0000 0000 0000 0000 0000 0000 0000 0000
00000130: 0000 0000 0000 0000 0000 0000 0000 0000
00000140: 0000 0000 0000 0000 0000 0000 0000 0000
00000150: 0000 0000 0000 0000 0000 0000 0000 0000
00000160: 0000 0000 0000 0000 0000 0000 0000 0000
00000170: 0000 0000 0000 0000 0000 0000 0000 0000
00000180: 0000 0000 0000 0000 0000 0000 0000 0000
00000190: 0000 0000 0000 0000 0000 0000 0000 0000
000001a0: 0000 0000 0000 0000 0000 0000 0000 0000
000001b0: 0000 0000 0000 0000 0000 0000 0000 0000
000001c0: 0000 0000 0000 0000 0000 0000 0000 0000
000001d0: 0000 0000 0000 0000 0000 0000 0000 0000
000001e0: 0000 0000 0000 0000 0000 0000 0000 0000
000001f0: 0000 0000 0000 0000 0000 0000 0000 0000

network_body._body_endoder.seq_layers.0.weight f4 [128, 78]
-0.02369641 -0.11253254 -0.046526726 -0.06307542 -0.06417391 -0.18463841 0.06601888 0.19845046
-0.1999748 -0.2184385 -0.14738682 0.08362256 -0.007543824 -0.096214145 -0.102740906 0.20058116
-0.11043999 -0.064237215 -0.11280035 -0.108755805 0.069376096 -0.13155986 0.078681566 -0.0065854266
0.06381183 -0.020886898 -0.028500335 0.07830853 0.14549795 -0.02649876 0.14920814 0.046111394
0.06849128 0.16538204 0.04028755 -0.031757608 0.09609151 0.061744336 0.13030042 0.027401766
-0.0031484081 0.3054684 0.019782512 -0.10886253 0.025101794 -0.10233872 -0.07876578 0.028693955
0.16741632 0.09372285 0.11444876 0.32710943 0.23940937 0.0635964 -0.17657976 -0.20526211
-0.056454625 -0.06554027 0.05402072 0.16649237 -0.1568542 0.23686229 -0.061104972 0.011324729
0.15339147 0.04536639 -0.16151631 0.055771418 -0.08049904 -0.17217119 -0.13483573 -0.1264077
-0.26743227 0.17540422 -0.031082606 0.21368289 -0.036669888 -0.01040005 0.21955803 -0.048956685
0.11612735 -0.12865137 -0.017761873 0.04943847 -0.14192511 -0.058039524 0.05856169 0.053136908
-0.083710715 -0.11113795 0.21836726 -0.18417595 -0.09285961 -0.0066438066 0.18629013 -0.14524251
0.07339498 -0.037125573 0.021314848 0.08314744 -0.08890489 -0.20801999 0.024507368 -0.060223095
0.20793521 -0.113341205 -0.0888375 -0.00029959698 -0.079220235 0.031897057 0.074309915 0.101220235
-0.038510066 0.19422078 -0.1155718 -0.15225545 0.0052115982 -0.17668448 0.04653133 -0.0874477
-0.217632 -0.044831824 0.07592599 0.11254278 0.14135122 0.20708582 -0.09519939 -0.16076797
0.12152331 0.049209144 -0.28562889 -0.17424479 0.012074396 -0.024927288 -0.13611163 -0.1791642
0.073427334 0.014759563 -0.24225228 0.017046584 0.061368205 -0.11324252 -0.27147746 0.07919842
0.04743547 -0.03273056 -0.113649875 0.044578824 0.041650824 -0.10916955 -0.0062302467 0.008977647
0.088608935 0.05631747 -0.13519077 -0.002525893 -0.059830092 -0.15207484 0.08013449 -0.12058258
-0.06616021 -0.045744415 0.10134458 0.084281884 -0.030401587 0.060903378 -0.323601 -0.009002225
0.039268624 0.09648274 0.007023351 -0.01933192 0.14245842 -0.14127645 0.06178695 0.06722592
0.00010774526 -0.039070435 -0.09146961 0.01263689 -0.008372495 -0.06367699 -0.02916845 -0.10552286
0.07948812 0.03780306 0.00034428135 0.12546192 0.0049765715 -0.072281875 -0.03642637 0.059648655
0.084136076 0.058947287 -0.012047724 -0.16684999 -0.14355741 -0.118147716 0.14138763 -0.10134353
-0.04980461 -0.01848902 0.06718009 -0.152557 -0.08668754 0.038377248 0.13829555 -0.042841382
-0.1661193 0.14376894 0.09195377 -0.019012477 -0.079942055 0.041787215 0.010761079 -0.0997473
0.071455374 0.14529648 0.110980004 -0.06898386 0.009920546 -0.18887568 -0.1257523 0.2383113
0.0496529 0.13981107 0.10502573 0.0029654969 -0.052019954 0.0023534198 -0.09054693 -0.2375006
0.18727596 0.0765972 -0.0036654377 0.049673077 0.030980593 0.018578295 0.08770045 0.12250144
0.086173445 0.0800542 -0.2038905 -0.122337714 0.026237812 0.016892802 -0.1651514 0.09482819
-0.0801348 -0.18643485 0.16726606 -0.011992903 0.048907436 -0.007242373 -0.11232697 -0.12917735
00000000: f91e c2bc 7677 e6bd cf92 3ebd b02d 81bd
00000010: 9c6d 83bd da11 3dbe e834 873d 9936 4b3e
00000020: 32c6 4cbe 58ae 5fbe 92ec 16be 4e42 ab3d
00000030: 2f32 f7bb ec0b c5bd d369 d2bd 2665 4d3e
00000040: 5d2e e2bd cd8e 83bd df03 e7bd 5dbb debd
00000050: 0e15 8e3d a1b7 06be cd23 a13d 90ca d7bb
00000060: c7af 823d 001b abbc 8979 e9bc 3960 a03d
00000070: 6afd 143e ed13 d9bc 05ca 183e 4ddf 3c3d
00000080: 2845 8c3d e959 293e 8f04 253d 4414 02bd
00000090: a0cb c43d a1e7 7c3d 796d 053e ab79 e03c
000000a0: 8655 4ebb 5b66 9c3e ef0e a23c 51f3 debd
000000b0: 47a2 cd3c f696 d1bd f44f a1bd 960f eb3c
000000c0: 2f6f 2b3e c4f1 bf3d 1d64 ea3d e37a a73e
000000d0: bb27 753e d43e 823d 53d1 34be 3b30 52be
000000e0: f73c 67bd fa39 86bd d544 5d3d fa7c 2a3e
000000f0: 639e 20be 078c 723e 3549 7abd 5b8b 393c
00000100: a712 1d3e 1cd2 393d 8864 25be 9270 643d
00000110: aedc a4bd a54d 30be 6112 0abe 0571 01be
00000120: e2ec 88be 2a9d 333e f3a0 febc b0cf 5a3e
00000130: 2a33 16bd f964 2abc d2d3 603e ce86 48bd
00000140: 2dd4 ed3d 2fbd 03be 5981 91bc fe7f 4a3d
00000150: d154 11be daba 6dbd 62de 6f3d 16a6 593d
00000160: 8670 abbd 4b9c e3bd ab9b 5f3e 9f98 3cbe
00000170: 2e2d bebd 4ab4 d9bb d7c2 3e3e 74ba 14be
00000180: 1b50 963d fc10 18bd 7a9c ae3c 3449 aa3d
00000190: c413 b6bd 3103 55be adc3 c83c 7eac 76bd
000001a0: f8ec 543e 6f1f e8bd 6ff0 b5bd 3a13 9db9
000001b0: 383e a2bd 7da6 023d cc2f 983d 8e4c cf3d
000001c0: bbbc 1dbd d0e1 463e e8b0 ecbd dae8 1bbe
000001d0: 0ec6 aa3b c7ec 34be a397 3e3d c817 b3bd
000001e0: ecda 5ebe 93a1 37bd 167f 9b3d d47c e63d
000001f0: 60be 103e 4e0e 543e e6f7 c2bd 5ca0 24be
00000200: 37e1 f83d 878f 493d f33d 92be 3a6d 32be
00000210: b0d3 453c 5034 ccbc d960 0bbe d276 37be
00000220: 1261 963d 18d2 713c fb10 78be 47a5 8b3c
00000230: 3a5d 7b3d b2eb e7bd 18ff 8abe c832 a23d
00000240: b24b 423d 7b10 06bd 44c1 e8bd 4998 363d
00000250: 0e9a 2a3d 4994 dfbd 1927 ccbb fb16 133c
00000260: 9a78 b53d 26ad 663d 736f 0abe 7489 25bb
00000270: 6610 75bd 82b9 1bbe 8d1d a43d 00f4 f6bd
00000280: 017f 87bd 7f5e 3bbd bf8d cf3d fb9b ac3d
00000290: c00c f9bc d275 793d 08af a5be 117e 13bc
000002a0: 23d8 203d be98 c53d 2324 e63b fa5d 9ebc
000002b0: 9fe0 113e c6aa 10be 5014 7d3d bead 893d
000002c0: 4cf5 e138 5208 20bd 6b54 bbbd f50a 4f3c
000002d0: ca2c 09bc 1569 82bd acf2 eebc 5f1c d8bd
000002e0: abca a23d 62d7 1a3d a980 b439 1779 003e
000002f0: 8212 a33b 8508 94bd d133 15bd 2652 743d
00000300: 894f ac3d b672 713d d163 45bc b9da 2abe
00000310: b700 13be 6ef7 f1bd ebc7 103e 328d cfbd
00000320: ebff 4bbd 4976 97bc b795 893d e737 1cbe
00000330: 3d89 b1bd 7631 1d3d 599d 0d3e 727a 2fbd
00000340: 2e1b 2abe 2a38 133e 4252 bc3d 0ec0 9bbc
00000350: a9b8 a3bd 1229 2b3d 3d4f 303c 5048 ccbd
00000360: 3257 923d 9ac8 143e 7c49 e33d 6947 8dbd
00000370: c989 223c a068 41be 36c5 00be e107 743e
00000380: d760 4b3d a22a 0f3e bb17 d73d c858 423b
00000390: e012 55bd d53b 1a3b ab70 b9bd 5b33 73be
000003a0: 45c5 3f3e fede 9c3d d737 70bb ff75 4b3d
000003b0: 03cb fd3c 8231 983c 4b9c b33d 09e2 fa3d
000003c0: b47b b03d 75f3 a33d acc8 50be 328c fabd
000003d0: aef0 d63c c662 8a3c 731d 29be 4835 c23d
000003e0: b71d a4bd c7e8 3ebe cb47 2b3e e27d 44bc
000003f0: 2a53 483d 6e51 edbb af0b e6bd 1147 04be

network_body._body_endoder.seq_layers.2.bias f4 [128]
0.0 0.0 0.0 0.0 0.0 0.0 0.0 0.0
0.0 0.0 0.0 0.0 0.0 0.0 0.0 0.0
0.0 0.0 0.0 0.0 0.0 0.0 0.0 0.0
0.0 0.0 0.0 0.0 0.0 0.0 0.0 0.0
0.0 0.0 0.0 0.0 0.0 0.0 0.0 0.0
0.0 0.0 0.0 0.0 0.0 0.0 0.0 0.0
0.0 0.0 0.0 0.0 0.0 0.0 0.0 0.0
0.0 0.0 0.0 0.0 0.0 0.0 0.0 0.0
0.0 0.0 0.0 0.0 0.0 0.0 0.0 0.0
0.0 0.0 0.0 0.0 0.0 0.0 0.0 0.0
0.0 0.0 0.0 0.0 0.0 0.0 0.0 0.0
0.0 0.0 0.0 0.0 0.0 0.0 0.0 0.0
0.0 0.0 0.0 0.0 0.0 0.0 0.0 0.0
0.0 0.0 0.0 0.0 0.0 0.0 0.0 0.0
0.0 0.0 0.0 0.0 0.0 0.0 0.0 0.0
0.0 0.0 0.0 0.0 0.0 0.0 0.0 0.0
00000000: 0000 0000 0000 0000 0000 0000 0000 0000
00000010: 0000 0000 0000 0000 0000 0000 0000 0000
00000020: 0000 0000 0000 0000 0000 0000 0000 0000
00000030: 0000 0000 0000 0000 0000 0000 0000 0000
00000040: 0000 0000 0000 0000 0000 0000 0000 0000
00000050: 0000 0000 0000 0000 0000 0000 0000 0000
00000060: 0000 0000 0000 0000 0000 0000 0000 0000
00000070: 0000 0000 0000 0000 0000 0000 0000 0000
00000080: 0000 0000 0000 0000 0000 0000 0000 0000
00000090: 0000 0000 0000 0000 0000 0000 0000 0000
000000a0: 0000 0000 0000 0000 0000 0000 0000 0000
000000b0: 0000 0000 0000 0000 0000 0000 0000 0000
000000c0: 0000 0000 0000 0000 0000 0000 0000 0000
000000d0: 0000 0000 0000 0000 0000 0000 0000 0000
000000e0: 0000 0000 0000 0000 0000 0000 0000 0000
000000f0: 0000 0000 0000 0000 0000 0000 0000 0000
00000100: 0000 0000 0000 0000 0000 0000 0000 0000
00000110: 0000 0000 0000 0000 0000 0000 0000 0000
00000120: 0000 0000 0000 0000 0000 0000 0000 0000
00000130: 0000 0000 0000 0000 0000 0000 0000 0000
00000140: 0000 0000 0000 0000 0000 0000 0000 0000
00000150: 0000 0000 0000 0000 0000 0000 0000 0000
00000160: 0000 0000 0000 0000 0000 0000 0000 0000
00000170: 0000 0000 0000 0000 0000 0000 0000 0000
00000180: 0000 0000 0000 0000 0000 0000 0000 0000
00000190: 0000 0000 0000 0000 0000 0000 0000 0000
000001a0: 0000 0000 0000 0000 0000 0000 0000 0000
000001b0: 0000 0000 0000 0000 0000 0000 0000 0000
000001c0: 0000 0000 0000 0000 0000 0000 0000 0000
000001d0: 0000 0000 0000 0000 0000 0000 0000 0000
000001e0: 0000 0000 0000 0000 0000 0000 0000 0000
000001f0: 0000 0000 0000 0000 0000 0000 0000 0000

network_body._body_endoder.seq_layers.2.weight f4 [128, 128]
0.060580663 -0.07226552 -0.077751435 0.0177812 0.021863583 0.054551 -0.07304583 -0.014073978
0.029876553 0.08972246 0.10291808 -0.0148101775 0.32227972 -0.11049732 -0.13581835 0.06354128
0.092619784 -0.04852029 -0.07632341 0.057665966 -0.005196602 -0.029021028 -0.06519855 -0.07908233
0.13207412 0.07021002 0.0031208296 -0.015637986 0.11896882 -0.043197576 -0.015295784 0.029746661
0.031297605 -0.015164521 -0.0039434466 -0.04575644 0.09256436 -0.14892693 0.016230425 -0.014393385
-0.052177243 -0.06777493 -0.015585137 0.01296669 0.022086784 0.106024675 -0.05049294 -0.1286855
-0.106228106 -0.10247846 -0.016836237 0.13073696 0.046529386 -0.18946032 0.09135473 -0.05570069
-0.15924428 0.17889245 0.078267425 0.06641266 -0.046200115 -0.113683216 0.087832786 -0.022493785
-0.05498713 0.032837506 -0.056268934 0.0288383 -0.007137314 0.021063577 0.0731422 -0.067063935
-0.0096079735 -0.026048556 0.026172502 -0.08249561 -0.00118924 0.032740265 0.056195214 0.29584184
-0.06812438 0.037652873 -0.016364058 -0.0074801687 0.004009079 0.047497965 0.020352513 0.1070802
0.088982835 0.119013235 0.055198394 -0.068956666 0.07521403 0.024833484 -0.093699135 -0.009388991
-0.027929131 0.121381976 0.05931442 -0.10439847 -0.050137326 0.018087583 0.0055521657 0.114680424
0.0062640463 -0.122314185 0.124744736 0.032948565 0.05573059 0.07400498 0.003718313 -0.041070458
0.1440175 0.049460154 -0.08539413 -0.03733519 0.012682056 0.065599784 0.14826193 0.018005198
0.015260791 0.021710664 0.011766309 -0.022664407 -0.037613206 -0.079379134 0.13868538 -0.09775506
-0.0864433 -0.04445188 -0.16662554 -0.13104752 0.10807497 -0.08145839 -0.016692465 0.16202539
0.052124314 0.0053476626 0.19932684 0.058819123 0.14179912 -0.01286981 -0.014165148 0.091056265
-0.14131556 0.13979732 0.014484981 -0.06560135 0.10259624 -0.13152258 -0.05038766 -0.10962335
-0.15875748 -0.026127521 -0.057874627 -0.046176493 0.12637664 -0.06688833 0.14958891 -0.026921375
0.14396523 0.104022115 -0.009228663 0.06850082 -0.08796835 -0.15735316 -0.0061382223 -0.032380126
0.108903654 -0.07060053 0.0006127415 0.08588759 0.058875933 0.07858519 0.17317562 0.039090313
-0.11187447 -0.10125554 0.15526572 -0.10313435 0.092184216 0.05269987 0.06555742 -0.0090953605
-0.08268323 0.03849885 -0.005800683 0.15630001 0.14258564 -0.09467868 0.17411548 -0.12774743
-0.07274166 0.0103658745 -0.0028502576 -0.028048396 -0.04317702 -0.045517374 -0.11842968 -0.08448197
0.13710867 -0.037280362 -0.18571417 -0.04677666 -0.012935773 0.058470786 -0.115809835 0.13431565
0.0027729885 -0.13393496 -0.026964149 0.033877883 0.14056388 -0.061983004 -0.019251566 0.037895266
0.0610233 -0.014899978 0.100501075 0.022843426 0.024185661 -0.14644405 0.007991608 -0.014774734
0.12502405 -0.06082987 0.06268496 0.06509906 0.058878124 -0.015665174 -0.03446999 -0.14502525
0.02527139 0.083759405 0.011446926 0.11704684 0.12926702 0.043467283 0.055607367 -0.03142543
-0.046948913 0.12785558 -0.11076282 0.07426182 -0.012045552 -0.07808514 7.007989e-07 -0.017870426
-0.013829501 0.011653385 -0.058194987 -0.030697232 0.019934217 0.037439305 0.060562786 -0.06513643
00000000: 6e23 783d f2ff 93bd 253c 9fbd e1a9 913c
00000010: 421b b33c df70 5f3d 0d99 95bd 8b96 66bc
00000020: acbf f43c 69c0 b73d b7c6 d23d 63a6 72bc
00000030: d901 a53e 6b4c e2bd f713 0bbe ee21 823d
00000040: 71af bd3d 36bd 46bd 734f 9cbd 2633 6c3d
00000050: 4248 aabb 82bd edbc d186 85bd ebf5 a1bd
00000060: 703e 073e 45ca 8f3d d586 4c3b 3c1b 80bc
00000070: eda5 f33d f1ef 30bd 2b9b 7abc 45af f33c
00000080: eb31 003d 9c74 78bc 0738 81bb 1b6b 3bbd
00000090: 6292 bd3d 4d80 18be abf5 843c 3bd2 6bbc
000000a0: ceb7 55bd 95cd 8abd cd58 7fbc 3d72 543c
000000b0: 58ef b43c 7723 d93d afd1 4ebd 22c6 03be
000000c0: 1f8e d9bd 3ae0 d1bd 26ec 89bc e9df 053e
000000d0: 9995 3e3d e301 42be 3018 bb3d 6826 64bd
000000e0: ef10 23be 952f 373e ac4a a03d 5c03 883d
000000f0: 553c 3dbd bfd2 e8bd ade1 b33d e344 b8bc
00000100: 2f3a 61bd 9f80 063d 417a 66bd 4c3e ec3c
00000110: 21e0 e9bb 868d ac3c 94cb 953d d158 89bd
00000120: c36a 1dbc c863 d5bc b767 d63c 75f3 a8bd
00000130: 46e0 9bba a81a 063d f42c 663d 9578 973e
00000140: cc84 8bbd e639 1a3d eb0d 86bc 341c f5bb
00000150: 985e 833b 3a8d 423d 50ba a63c dd4c db3d
00000160: a23c b63d 36bd f33d b617 623d 2739 8dbd
00000170: d009 9a3d 976f cb3c 55e5 bfbd 48d4 19bc
00000180: a2cb e4bc 1d97 f83d adf3 723d ddce d5bd
00000190: cc5c 4dbd 692c 943c f1ee b53b 92dd ea3d
000001a0: a142 cd3b dc7f fabd 2b7a ff3d 13f5 063d
000001b0: c245 643d ec8f 973d f1ae 733b 7f39 28bd
000001c0: 5379 133e bb96 4a3d 1ee3 aebd c9ec 18bd
000001d0: 66c8 4f3c 2e59 863d fad1 173e a37f 933c
000001e0: 6608 7a3c 90da b13c 7ac7 403c b5aa b9bc
000001f0: 4e10 1abd 8791 a2bd 8a03 0e3e ce33 c8bd
00000200: 2f09 b1bd 2d13 36bd e39f 2abe 5231 06be
00000210: 6956 dd3d a8d3 a6bd a3be 88bc fce9 253e
00000220: 4e80 553d 723b af3b 561c 4c3e 52ec 703d
00000230: ca33 113e e5db 52bc f014 68bc b57b ba3d
00000240: 07b5 10be 0727 0f3e 6a52 6d3c 005a 86bd
00000250: fa1d d23d dbad 06be 4a63 4ebd 3582 e0bd
00000260: 5291 22be 6209 d6bc f20d 6dbd 9023 3dbd
00000270: e168 013e c0fc 88bd d62d 193e 378a dcbc
00000280: 9f6b 133e 8c09 d53d d133 17bc 284a 8c3d
00000290: c028 b4bd 3021 21be 2423 c9bb 06a1 04bd
000002a0: e108 df3d 0397 90bd 63a0 203a d5e5 af3d
000002b0: e427 713d 46f1 a03d f354 313e 2a1d 203d
000002c0: 711e e5bd 115f cfbd fafd 1e3e 1a38 d3bd
000002d0: 14cb bc3d d2db 573d f842 863d b504 15bc
000002e0: d355 a9bd f8b0 1d3d a813 bebb 1c0d 203e
000002f0: f801 123e e5e6 c1bd 544b 323e 39d0 02be
00000300: 94f9 94bd a1d5 293c 63cb 3abb c0c5 e5bc
00000310: 63da 30bd 6d70 3abd 438b f2bd e204 adbd
00000320: 3766 0c3e 4bb3 18bd db2b 3ebe e298 3fbd
00000330: 90f0 53bc 107f 6f3d b52d edbd 0b8a 093e
00000340: 07bb 353b 3f26 09be ebe3 dcbc 89c3 0a3d
00000350: faef 0f3e e4e1 7dbd 76b5 9dbc 1138 1b3d
00000360: 91f3 793d 0a1f 74bc 82d3 cd3d 2322 bb3c
00000370: 0221 c63c 6ef5 15be 3cef 023c ba11 72bc
00000380: 4e06 003e be28 79bd f960 803d a852 853d
00000390: 302a 713d 4054 80bc 6730 0dbd 8081 14be
000003a0: f205 cf3c 0d8a ab3d e38b 3b3c 41b6 ef3d
000003b0: 935e 043e c00a 323d 8dc4 633d f4b7 00bd
000003c0: 814d 40bd 93ec 023e 9ed7 e2bd 9516 983d
000003d0: b55a 45bc 1aeb 9fbd 891e 3c35 0065 92bc
000003e0: 2295 62bc d7ed 3e3c de5d 6ebd c378 fbbc
000003f0: 154d a33c f559 193d af10 783d 4066 85bd
