FYPprototype/results/Test2.1/AIBalancing/AIBalancing-322.pt (torch, 242151 bytes, 16 tensors)

discrete_act_size_vector f4 [1, 3]
00000000: 0000 0040 0000 9841 0000 7041
2.0 19.0 15.0

network_body._body_endoder.seq_layers.0.weight f4 [128, 78]
00000000: ad24 e23c 71dd c6bc 9d03 b4bd 47ff 8cbe
00000010: 1fa0 8abc 40ae d5bd 3ab6 2bbd 53f1 febd
00000020: 7ede 703c a4d0 3fba 2f53 a2bd 35e0 c23c
00000030: 85a9 fe3d 29a7 d5bd 3e79 54be 2483 ffbd
00000040: ddad 003e 6658 f5bc 1089 0a3e 84c0 613d
00000050: 71a6 afbd ceef 29be c040 72bc aa78 4c3c
00000060: 8a6f a23b 5004 1cbd 1c27 973d 5f9d 5c3e
00000070: 5719 01bd 5a19 c03c 04a2 113e b313 2e3e
00000080: 0b1f d4bc 515b 113d b1a4 bc3c 5dcd d3bd
00000090: 4e40 943d f6f8 97bd a8a7 733d 4906 b13d
000000a0: d97e 273d 9f96 2ebe d606 453d a429 293e
000000b0: 6e41 93bd 710f 3abc 7426 15bd d749 80bd
000000c0: 075e 09bc 00bc fbbb 4ee9 30bd 7e47 13be
000000d0: 768a 2cbd 891d 893d 2d52 a43d 348c 04bd
000000e0: 840b 843e d828 76be 9657 22bd 5daa d83d
000000f0: 844f 10bb 7ddd 5e3e a44e 7fbc 0084 643e
00000100: c806 8b3e 7620 0fbe 1133 bdbb 631d edbd
00000110: 05c1 59be b8eb 213c 50db 9ebd fdc8 7fbe
00000120: f48a 0f3e f447 fabb 157d e23d 72a1 19bd
00000130: 275b 34bc 36e5 9a3c 8d0c d73c 5f22 af3d
00000140: 0b72 f3bb 9796 8fbc 9bb8 a4bb 573c 17bc
00000150: 515f 583e f8e3 663c c5fe 033e ef78 bebd
00000160: a087 943d 8cac e6bd c078 a93e 6cfb 13be
00000170: ce6a 60bd 15c0 5b3e d3e4 e9bd 6ef0 92bd
00000180: fd28 96bd f7ae 003e 21f5 713b 5663 be3d
00000190: 0c92 b43d e2b4 d43d 9b8e 743e f0ba 833d
000001a0: 9906 6e3e 5590 983e c81b e23c cdf2 7bbe
000001b0: 5ba3 f53c e1a4 8abd a36b cfbd 6f16 80bd
000001c0: c724 3bbd 895b 623c 38aa 52bd e8f5 d0bd
000001d0: 20be 8fbd fad6 073c e0e6 b63c 1171 33be
000001e0: ef2d 33bd 46c4 23bb 0605 21be 1220 d83d
000001f0: 3f4a 8bbc c8be 88bd 086d 003e 45b5 0d3e
00000200: 068f f53d b297 5fbe 831b 95be 6830 bd3d
00000210: b097 c53d 4784 033e 8271 1dbe fe69 26be
00000220: d7f8 af3d 0ef4 003c 393d fd3d 3070 843d
00000230: 687d dcbd b74a 6939 c6e3 1d3e 1093 5ebe
00000240: 6361 003e 6541 82bd 635a 86be bbed 493e
00000250: 085b 2abc 9968 13be 9820 ab3b 04f4 f7bd
00000260: 519b 8fbc 1437 2ebd 3691 c53c fd33 bebd
00000270: 5b91 2b3d 8334 48bd 3042 f23d 48f3 973b
00000280: 85a8 19be 888c edbd 6271 2cbe 7a78 8c3d
00000290: f672 aebd ca67 0a3e f914 9abe 42bb 423d
000002a0: c086 49be 2538 d7bd 69f5 5fbe 17bd 55bd
000002b0: 6f1e 93bd 7b71 5d3e 1db7 b9bd cd1b 4cbd
000002c0: 7d96 1e3c b7ed 83bd e3b8 cb3d f397 823e
000002d0: 6f4e a43c 0bf4 db3a cbba d0bd df5f efbd
000002e0: ce8d 293e d5ce ccbd 2202 33be 4744 5fbe
000002f0: beb2 113d d1c9 8a3e 5c06 943b 3efa 363e
00000300: 3ff0 aebd fa73 04be 3483 06be dc77 03be
00000310: d940 d03d 0e87 0abe e4a5 f8bc 5a58 e9bd
00000320: 2d5b 953d 2a0d cebc ae03 27be 91ae 9c3d
00000330: 4f87 513d 1173 36bd c5ee 1ebc 7784 7e3d
00000340: c353 b6bd 037e eebd 0ee5 1e3e 47ff 2f3d
00000350: 0cd7 1f3d 8815 f9bc 222c f53c e17f 48bc
00000360: a428 a939 9467 b9bc 4f16 b33d 4661 b73d
00000370: f88a 893d 4203 63be da8a e73d 27e9 973d
00000380: a2e0 97bc 8415 35bc ed83 e7bd 435c c63c
00000390: 6aed 5e3d 8b1b 7c3e 8e4a 073d 9c7e 56bd
000003a0: 685d d23d a86e b93b 3bd4 4fbd 9d0b bbbd
000003b0: a740 813d 8918 86bc 5c5a 823e a296 5cbd
000003c0: 471b 1b3d e3c9 80bd 2e30 8bbd 29cf 153d
000003d0: f0c6 ab3c c27d f13b 9411 723d 5cfe 03bf
000003e0: bcab 083d 279c 6f3c e280 30be f828 c0bd
000003f0: 2a5c c3bd 3dd6 bc3d c7d6 04bd 3ff8 b13d
0.027605379 -0.024275513 -0.08789752 -0.2753851 -0.016922055 -0.10433626 -0.04192183 -0.12448373
0.014701484 -0.00073171617 -0.07926022 0.02378855 0.12434677 -0.10432274 -0.20749375 -0.12476185
0.12566324 -0.029949378 0.13528848 0.055115238 -0.08576668 -0.16595384 -0.014785945 0.01247994
0.004957144 -0.03809005 0.073805064 0.21544407 -0.031518307 0.023449589 0.1422196 0.16999702
-0.025893709 0.035487477 0.02302775 -0.10341904 0.07238828 -0.074205324 0.05948606 0.08643777
0.040892456 -0.17049645 0.048102222 0.16519791 -0.07190214 -0.011356221 -0.036413625 -0.06264084
-0.008384234 -0.0076823235 -0.043191247 -0.14382741 -0.042124234 0.066950865 0.08023486 -0.03236027
0.25790036 -0.24039018 -0.03963431 0.10579369 -0.0022020051 0.21764179 -0.015582714 0.22315979
0.2715361 -0.13977227 -0.00577391 -0.11577871 -0.21265037 0.00988286 -0.07756674 -0.24979015
0.1401785 -0.007637972 0.11059014 -0.037507482 -0.011008061 0.018908124 0.026251102 0.08551478
-0.0074293665 -0.017527862 -0.0050268895 -0.009230695 0.2113011 0.014092438 0.12890156 -0.0930041
0.07252431 -0.112633795 0.33099937 -0.14451379 -0.054789357 0.21459992 -0.11420598 -0.071747646
-0.07332037 0.12566744 0.003691979 0.092962906 0.08816919 0.10386063 0.23882525 0.0643214
0.23244704 0.29797617 0.027601138 -0.2460434 0.02998512 -0.067697294 -0.10127952 -0.06254279
-0.04568937 0.013815769 -0.051431865 -0.10203153 -0.07018685 0.0082910005 0.022326887 -0.175236
-0.043744978 -0.0024988814 -0.15724573 0.10552992 -0.017003177 -0.06677014 0.12541592 0.1383868
0.1199017 -0.21835211 -0.29122552 0.092377484 0.09648073 0.12843429 -0.15375331 -0.1625137
0.08592384 0.007870687 0.12365193 0.064667106 -0.10766107 0.00022248445 0.1541892 -0.21735787
0.1253715 -0.06360129 -0.26240835 0.19719593 -0.01039768 -0.1439537 0.0052223913 -0.12107089
-0.017530115 -0.042532995 0.024117094 -0.0928726 0.04188667 -0.048878204 0.118290305 0.0046371557
-0.15005691 -0.1159907 -0.16840127 0.068589166 -0.08518021 0.13516155 -0.30094126 0.047541864
-0.1968031 -0.105087556 -0.2187096 -0.052182283 -0.07183539 0.2162532 -0.09068129 -0.0498312
0.009679434 -0.06441825 0.09947374 0.25506553 0.020056931 0.0016781104 -0.10191878 -0.11688208
0.16558 -0.100003876 -0.17481282 -0.2180339 0.035570852 0.271071 0.0045173597 0.17868897
-0.08541917 -0.12934867 -0.13135988 -0.12838691 0.10168619 -0.13528082 -0.03035254 -0.11393805
0.07292781 -0.025152761 -0.16309997 0.076504834 0.05115443 -0.04454333 -0.009700482 0.062138047
-0.08902695 -0.116451286 0.15517065 0.04296806 0.039023444 -0.030405775 0.02992827 -0.01223752
0.00032264472 -0.022632398 0.087444894 0.089541 0.06715959 -0.22169212 0.11305781 0.07417517
-0.01853973 -0.011052493 -0.1130446 0.024213916 0.054425634 0.24619882 0.033030085 -0.052366838
0.10271722 0.005658943 -0.050739508 -0.091330744 0.063111596 -0.016369121 0.25459564 -0.053854592
0.03786781 -0.06288507 -0.06796299 0.036574516 0.020968884 0.007369728 0.059098795 -0.51559997
0.033366904 0.014624632 -0.17236665 -0.09382814 -0.09539063 0.0922055 -0.03243139 0.08689927

network_body._body_endoder.seq_layers.0.bias f4 [128]
00000000: 0000 0000 0000 0000 0000 0000 0000 0000
00000010: 0000 0000 0000 0000 0000 0000 0000 0000
00000020: 0000 0000 0000 0000 0000 0000 0000 0000
00000030: 0000 0000 0000 0000 0000 0000 0000 0000
00000040: 0000 0000 0000 0000 0000 0000 0000 0000
00000050: 0000 0000 0000 0000 0000 0000 0000 0000
00000060: 0000 0000 0000 0000 0000 0000 0000 0000
00000070: 0000 0000 0000 0000 0000 0000 0000 0000
00000080: 0000 0000 0000 0000 0000 0000 0000 0000
00000090: 0000 0000 0000 0000 0000 0000 0000 0000
000000a0: 0000 0000 0000 0000 0000 0000 0000 0000
000000b0: 0000 0000 0000 0000 0000 0000 0000 0000
000000c0: 0000 0000 0000 0000 0000 0000 0000 0000
000000d0: 0000 0000 0000 0000 0000 0000 0000 0000
000000e0: 0000 0000 0000 0000 0000 0000 0000 0000
000000f0: 0000 0000 0000 0000 0000 0000 0000 0000
00000100: 0000 0000 0000 0000 0000 0000 0000 0000
00000110: 0000 0000 0000 0000 0000 0000 0000 0000
00000120: 0000 0000 0000 0000 0000 0000 0000 0000
00000130: 0000 0000 0000 0000 0000 0000 0000 0000
00000140: 0000 0000 0000 0000 0000 0000 0000 0000
00000150: 0000 0000 0000 0000 0000 0000 0000 0000
00000160: 0000 0000 0000 0000 0000 0000 0000 0000
00000170: 0000 0000 0000 0000 0000 0000 0000 0000
00000180: 0000 0000 0000 0000 0000 0000 0000 0000
00000190: 0000 0000 0000 0000 0000 0000 0000 0000
000001a0: 0000 0000 0000 0000 0000 0000 0000 0000
000001b0: 0000 0000 0000 0000 0000 0000 0000 0000
000001c0: 0000 0000 0000 0000 0000 0000 0000 0000
000001d0: 0000 0000 0000 0000 0000 0000 0000 0000
000001e0: 0000 0000 0000 0000 0000 0000 0000 0000
000001f0: 0000 0000 0000 0000 0000 0000 0000 0000
0.0 0.0 0.0 0.0 0.0 0.0 0.0 0.0
0.0 0.0 0.0 0.0 0.0 0.0 0.0 0.0
0.0 0.0 0.0 0.0 0.0 0.0 0.0 0.0
0.0 0.0 0.0 0.0 0.0 0.0 0.0 0.0
0.0 0.0 0.0 0.0 0.0 0.0 0.0 0.0
0.0 0.0 0.0 0.0 0.0 0.0 0.0 0.0
0.0 0.0 0.0 0.0 0.0 0.0 0.0 0.0
0.0 0.0 0.0 0.0 0.0 0.0 0.0 0.0
0.0 0.0 0.0 0.0 0.0 0.0 0.0 0.0
0.0 0.0 0.0 0.0 0.0 0.0 0.0 0.0
0.0 0.0 0.0 0.0 0.0 0.0 0.0 0.0
0.0 0.0 0.0 0.0 0.0 0.0 0.0 0.0
0.0 0.0 0.0 0.0 0.0 0.0 0.0 0.0
0.0 0.0 0.0 0.0 0.0 0.0 0.0 0.0
0.0 0.0 0.0 0.0 0.0 0.0 0.0 0.0
0.0 0.0 0.0 0.0 0.0 0.0 0.0 0.0

network_body._body_endoder.seq_layers.2.weight f4 [128, 128]
00000000: 8e68 ec3d 646f 053d f022 953d 8dbd 6eba
00000010: 172b 0cbe 914d 7abb bc64 333e a88f 65bd
00000020: 627f db3a adb1 c33d fdfd a23d 4148 af3c
00000030: 276d 833d 7c89 d4bc 31cf 153e 8b69 e2bd
00000040: 62f8 013d cd6b b53b e500 12bd 74f5 98bd
00000050: 1919 e73d f4da 0ebd ecc2 d1bc f846 a83c
00000060: 14f8 343d caa5 e0bd c4ec 963c 1101 38bd
00000070: 7ee2 bbbc 8430 c1bd e4d6 55bd 1a5c 3bbd
00000080: fa4d 2ebd 7545 16be 7c03 043d 7d51 91bc
00000090: cad7 29bd 077e fdbd 2d35 11be 2d19 f7bd
000000a0: da00 36bd 675f 063e abf8 e7bd 8c7a e33a
000000b0: 2fea c23d 35ef 8d3d 2af6 0bbd ba1a cabd
000000c0: 3089 3d3c f277 c23d 0988 c4bc 9ec5 81bb
000000d0: 628c 203d c512 8cbd dc31 7f3c 991f f13d
000000e0: 0cce ea3c fa82 2c3e 83a1 aa3c 3b0a bb3a
000000f0: f845 82bd 94a5 63bc ff79 e8bc f1d1 27bd
00000100: 5aec bd3d 6b15 95bd 8581 32bb c494 92bd
00000110: 7f48 e33c 3069 943d 63aa ae3d 290a 303d
00000120: a740 903d a769 1bbd a04b a13d 0efb f4bd
00000130: f1ca f93d 8cc3 0ebd 98d2 f1bc 618b 833d
00000140: c614 fd3c d539 9ebd 8ea7 17bd 3b7b 763d
00000150: 20f3 41bc 6087 5bbd 1f19 53bc d9a5 dfbd
00000160: 893f 20bc e515 05be 2da5 123d fc9a 4c3e
00000170: 3d7a 793e db49 ccbc 99b7 c43d 565a 05ba
00000180: 57f9 683d 25ac 22bd 8911 ad3d daae 813d
00000190: 0f33 dcbd c557 763d ec8d 6b3d 63a9 74bd
000001a0: 3c1d d0bd 3d02 03be 9f9e 183d 210a 033c
000001b0: b0f8 98bc 782a 013d 7e3a ad3c 3aeb 0fbe
000001c0: 037b 2cbd bb9d 2e3d 3f64 a4bd b9d5 07be
000001d0: fa01 09be e29c c4bd 70f4 bcbd 1487 97bd
000001e0: 0299 cfbd 13b9 88bc 02ba a1bd 310d 11be
000001f0: 0db7 0c3d f1fa b0bd 2839 be3d 7a8a 44bd
00000200: dcbb 653d 1229 c63c e023 dabc aaa3 63bc
00000210: 5159 3a3c 4e8e cb3d 52da debc 6a9c 13bd
00000220: 3358 013e 2c55 b63c 9dcc 253e 066c 61bd
00000230: 98b4 aa3d 6ed9 5e3d a2f2 2abd 1a13 b2bd
00000240: 1732 fdbc e6d2 ae3d 8e4c 2e3e c34c 433d
00000250: af65 ec3d 9231 373d ca09 37bd 4056 cb3d
00000260: 2601 3b3c f03d cd3b d87d 833d ac82 ad3c
00000270: c03a 3a3e 5f1c 19be a1a8 bbbd 50b1 ce3d
00000280: 12de c63d ceaa 393d 70c7 493d b5d4 4abc
00000290: e769 b1bd 7d50 9a3d 8695 47be adab 023d
000002a0: 2239 963d 887c fabb cce3 0bbd 09b1 9abb
000002b0: 20d4 ef3d 1591 97bd 881c b8bd e0e9 0dbe
000002c0: b1d5 0fbd acb2 67bd dc85 21bd 3eb3 1a3d
000002d0: 97b7 023e 9683 203e a66a 12be 48a7 3b3d
000002e0: 7f19 8b3d 4fff 69bc 7625 f1bc 09b4 71bc
000002f0: 7312 8ebc 8658 303c c376 153d 8d1a b9bd
00000300: a340 febd 7c2f 7bbd 5467 02bd acb3 0c3d
00000310: c26b b1bc 0e67 17bd 0420 41be 104f b53d
00000320: e743 d6bd af9f 5ebd 266b dcbd 4df8 cc3d
00000330: fb49 22be fff5 13bb addc 89bd 10da b1bb
00000340: f116 6dbc cb4d 083e dccc 893d bb18 a23d
00000350: 6afd 2b3d d36f 7abb 3789 bbbd c5f0 91bc
00000360: 46be f33d 939b 36be e98b 56bc 40e8 ebbd
00000370: e63d 5cbe 7fa7 813d 2551 44bd ea61 44be
00000380: c18b 193e d880 d33d c3eb ab3d d0c9 1dbe
00000390: f1df 213e e510 a43d 456a c2bc e736 643d
000003a0: 1591 823d dc50 773c 987d 743d b4c3 b33d
000003b0: 97ce 893b 0522 9bbd 3a44 f83c b454 823d
000003c0: 3222 04be f383 53bd 5120 b73d 40b5 09bd
000003d0: 018b e8bd 8538 813c aafe 203d 5d1e a63b
000003e0: ad05 103a f037 debd 8f5c debd 0d0c 4ebe
000003f0: e101 303e aba5 f6ba 7450 2abe a450 febd
0.1154338 0.032576934 0.072820544 -0.0009107225 -0.13688312 -0.0038193206 0.17518896 -0.056045204
0.0016746337 0.09555373 0.07958601 0.021396758 0.064173035 -0.025944464 0.14629818 -0.11055287
0.031731017 0.0055365325 -0.035645384 -0.074686915 0.11284084 -0.03487678 -0.025605641 0.020541653
0.0441819 -0.10969122 0.018423446 -0.044922892 -0.022935148 -0.09433082 -0.05220689 -0.04574213
-0.042554833 -0.14674933 0.032229885 -0.017739052 -0.041465558 -0.123775534 -0.14180441 -0.12065349
-0.044434406 0.1312233 -0.113267265 0.0017355247 0.09517323 0.06930391 -0.034170307 -0.09868379
0.011568353 0.09495534 -0.023990648 -0.0039603254 0.03919638 -0.068395175 0.015575852 0.11773605
0.028662704 0.16846839 0.020828968 0.0014270017 -0.06361002 -0.013894457 -0.028378485 -0.0409717
0.09273596 -0.07279476 -0.0027237844 -0.07157281 0.02774453 0.072466254 0.085285924 0.04297844
0.070435815 -0.037942555 0.078757524 -0.119619474 0.12196911 -0.034854457 -0.029519364 0.06423069
0.030893695 -0.07725874 -0.037025027 0.060176115 -0.011837751 -0.0535959 -0.012884407 -0.10920305
-0.009780773 -0.12996633 0.035802055 0.19980997 0.24363036 -0.02493756 0.09605331 -0.00050870085
0.056878414 -0.03971495 0.0845061 0.063321784 -0.10751926 0.060142297 0.057508394 -0.059731852
-0.10161826 -0.12793823 0.037260648 0.00799802 -0.018673271 0.031534642 0.021146055 -0.14054576
-0.0421095 0.042630892 -0.08026933 -0.13265122 -0.1337966 -0.096002355 -0.0922631 -0.07398811
-0.10136606 -0.016689813 -0.07896806 -0.14165188 0.03435426 -0.08641613 0.092882454 -0.047983624
0.05608736 0.024189506 -0.026628435 -0.013894001 0.011373834 0.09939252 -0.027203713 -0.03603784
0.12631302 0.02225741 0.16191335 -0.05503466 0.08335227 0.054406576 -0.0417353 -0.086950496
-0.030907674 0.085363194 0.17021391 0.047680628 0.11542832 0.04472501 -0.04468707 0.0992856
0.011413848 0.006263487 0.06420487 0.021180473 0.18186474 -0.14952229 -0.09163023 0.100924134
0.09710325 0.045328908 0.049262464 -0.012379815 -0.086627774 0.07534883 -0.19490632 0.031902004
0.07335116 -0.00764424 -0.03415279 -0.0047208113 0.117103815 -0.07400719 -0.08989817 -0.13858747
-0.0351159 -0.05656688 -0.0394343 0.037768595 0.12765346 0.15675196 -0.14298496 0.04581383
0.06791972 -0.014282062 -0.029436808 -0.014752396 -0.017342782 0.010763293 0.036490213 -0.09038267
-0.12414672 -0.06132458 -0.031836823 0.034351036 -0.021657828 -0.036963515 -0.18859869 0.088529706
-0.1046217 -0.054351505 -0.107626244 0.10008297 -0.15848534 -0.0022577045 -0.06731544 -0.0054276064
-0.014470802 0.13310926 0.06728527 0.07914873 0.04198972 -0.0038213625 -0.09157031 -0.017815003
0.11901526 -0.17832784 -0.013094881 -0.115189075 -0.21507987 0.063307755 -0.047928948 -0.19177976
0.14994718 0.10327309 0.08394577 -0.15409017 0.15808083 0.08011035 -0.023732314 0.05571642
0.063753285 0.015094962 0.059690088 0.08777562 0.0042055356 -0.07574848 0.03030597 0.06363812
-0.1290367 -0.05163951 0.08941711 -0.03362012 -0.11354638 0.01577402 0.039305367 0.0050695376
0.000549401 -0.10850513 -0.10857498 -0.20121785 0.17188217 -0.0018817683 -0.16632253 -0.12417725

network_body._body_endoder.seq_layers.2.bias f4 [128]
00000000: 0000 0000 0000 0000 0000 0000 0000 0000
00000010: 0000 0000 0000 0000 0000 0000 0000 0000
00000020: 0000 0000 0000 0000 0000 0000 0000 0000
00000030: 0000 0000 0000 0000 0000 0000 0000 0000
00000040: 0000 0000 0000 0000 0000 0000 0000 0000
00000050: 0000 0000 0000 0000 0000 0000 0000 0000
00000060: 0000 0000 0000 0000 0000 0000 0000 0000
00000070: 0000 0000 0000 0000 0000 0000 0000 0000
00000080: 0000 0000 0000 0000 0000 0000 0000 0000
00000090: 0000 0000 0000 0000 0000 0000 0000 0000
000000a0: 0000 0000 0000 0000 0000 0000 0000 0000
000000b0: 0000 0000 0000 0000 0000 0000 0000 0000
000000c0: 0000 0000 0000 0000 0000 0000 0000 0000
000000d0: 0000 0000 0000 0000 0000 0000 0000 0000
000000e0: 0000 0000 0000 0000 0000 0000 0000 0000
000000f0: 0000 0000 0000 0000 0000 0000 0000 0000
00000100: 0000 0000 0000 0000 0000 0000 0000 0000
00000110: 0000 0000 0000 0000 0000 0000 0000 0000
00000120: 0000 0000 0000 0000 0000 0000 0000 0000
00000130: 0000 0000 0000 0000 0000 0000 0000 0000
00000140: 0000 0000 0000 0000 0000 0000 0000 0000
00000150: 0000 0000 0000 0000 0000 0000 0000 0000
00000160: 0000 0000 0000 0000 0000 0000 0000 0000
00000170: 0000 0000 0000 0000 0000 0000 0000 0000
00000180: 0000 0000 0000 0000 0000 0000 0000 0000
00000190: 0000 0000 0000 0000 0000 0000 0000 0000
000001a0: 0000 0000 0000 0000 0000 0000 0000 0000
000001b0: 0000 0000 0000 0000 0000 0000 0000 0000
000001c0: 0000 0000 0000 0000 0000 0000 0000 0000
000001d0: 0000 0000 0000 0000 0000 0000 0000 0000
000001e0: 0000 0000 0000 0000 0000 0000 0000 0000
000001f0: 0000 0000 0000 0000 0000 0000 0000 0000
0.0 0.0 0.0 0.0 0.0 0.0 0.0 0.0
0.0 0.0 0.0 0.0 0.0 0.0 0.0 0.0
0.0 0.0 0.0 0.0 0.0 0.0 0.0 0.0
0.0 0.0 0.0 0.0 0.0 0.0 0.0 0.0
0.0 0.0 0.0 0.0 0.0 0.0 0.0 0.0
0.0 0.0 0.0 0.0 0.0 0.0 0.0 0.0
0.0 0.0 0.0 0.0 0.0 0.0 0.0 0.0
0.0 0.0 0.0 0.0 0.0 0.0 0.0 0.0
0.0 0.0 0.0 0.0 0.0 0.0 0.0 0.0
0.0 0.0 0.0 0.0 0.0 0.0 0.0 0.0
0.0 0.0 0.0 0.0 0.0 0.0 0.0 0.0
0.0 0.0 0.0 0.0 0.0 0.0 0.0 0.0
0.0 0.0 0.0 0.0 0.0 0.0 0.0 0.0
0.0 0.0 0.0 0.0 0.0 0.0 0.0 0.0
0.0 0.0 0.0 0.0 0.0 0.0 0.0 0.0
0.0 0.0 0.0 0.0 0.0 0.0 0.0 0.0

action_model._discrete_distribution.branches.0.weight f4 [2, 128]
00000000: 75ac f13b 932e 87bc 135e 4c3c b2b7 49b9
00000010: 58ef 09bc 605c b8bb 23c2 423c f28e 3ebb
00000020: 826b 353c d046 a0bb 2343 8a3a d4d8 47bb
00000030: 158c f33b eaea 58bb df47 3bbc cc2c 013c
00000040: f55c c0bb cb54 8cbb 8e06 cc3b e3f3 173b
00000050: 2baa 073b a577 dabb e379 53bb 7562 2e3c
00000060: 4b6e 15bc e3be 203a fc0a 8ebc ce1e 91b9
00000070: 17fd 603c 912d 19bb a4fd 9abb b774 49bb
00000080: 0712 f3bb 3c22 b9b9 b9dc 21bb a228 83bb
00000090: ad58 f23b 79db ca3b 38fc a83b ea59 f138
000000a0: a36a 2cbb 5517 803b 25ea efbb 6f9b 2f3c
000000b0: 9780 62bc 3587 8f3c 8800 95ba 05b1 4d3b
000000c0: 08fd 70ba bb2f cfbb 68cd be3b 2f6b 4c3c
000000d0: 2597 b33a 5a1a 613a bd7c 26bc 18d7 6a3b
000000e0: 4097 c8bb 8841 43bc 9efb 983c 60a1 613a
000000f0: 8f58 c63b 4369 283a 6e7e bdbb bd70 04bb
00000100: 3c5c 06bc ebfb 18bc 9f50 513c fd04 85bb
00000110: a34f 0a3b 9390 183c 63ae 0cbc cf3e 45bc
00000120: bdfc 49b9 83b9 7bbb b0e3 e6bb 3541 ee3a
00000130: 7e17 b43b 815a 8d3c 05ab 02bb fdac 4b3c
00000140: 0b82 883a 514a 1c3b ea4e 08bb 3053 d3bb
00000150: 049e 3bbc 058a 093c 50b3 edba 2d5a 0abb
00000160: 9882 4abc 18d8 c63a cd2e 02bb 000f 89bc
00000170: 84e5 ad3b 3ba9 8f3b 51ac 9dba 2310 9b3a
00000180: 23fe 39bb 509a cbbb 9a5e 20bc 0bda 55bc
00000190: 4aab d93b 87f9 463c b767 183c 2af7 553b
000001a0: 9333 80ba 18f6 3c3b 18bd e63b 3ed6 293b
000001b0: f655 0fbb 7dcf 6cbb 813c 1f3c c35d 3b3c
000001c0: 0cff 09bb 2f93 a8ba dafc b8bb 94e2 943b
000001d0: 2d33 42bc 77fb 6fbb 075a f1ba 0d30 9c3b
000001e0: ec20 293c c3e7 34bc 5a27 66bc 659d 15bb
000001f0: 5b16 46bb ff92 67bc 8bac eb3a 5cf3 4bbb
00000200: f01c f2bb 9a90 babb 0b93 dabb 0b06 4ebb
00000210: 9f55 7ebb 2ffa a83c f330 763b 35d0 a13b
00000220: 1882 903b a3e6 cbba 9f9b b6bb d53e 7cbc
00000230: 3f9a 39bb 5739 873a a25b e63b ffad 56bc
00000240: a2ca 3a3c 644d 16bc 6da4 05bc db57 91bc
00000250: fec5 49bc 60e7 dfbb 7b91 22bc 6b2d aabb
00000260: e4b1 9939 f031 12bc e360 22bc 2d2f 4e3c
00000270: 60b2 6dba 6363 db3b ce40 2f3b 2a2b 0cbb
00000280: b5ff aa3b d4e0 04bc 7fae adbb fb0d 203c
00000290: 4a42 dc3a db04 9a39 f8c3 e7bb b724 3d3c
000002a0: 38b1 a6ba c7cc 49bc 5ab0 a1bb 070f 5fbb
000002b0: 32fd 7e3b cd6b f93b 9f46 2eba 6c70 92bc
000002c0: 88dd 0cbc a7f3 fb3b d253 d8bb 071e a6bb
000002d0: 0939 873c bb70 a83a d694 43bc 0815 14bc
000002e0: ffa1 163c 2a6a c63b 98f4 783c 0a98 e8bb
000002f0: fa47 6fbb cc55 0ebb 1295 51bb 103b 4ebc
00000300: 6337 13ba 2b57 3cbb 2f89 633b 4000 433b
00000310: b62c c23b 0f0f c53a df00 5f3c a37c 493b
00000320: 2db7 47bb deb3 2abb 0f73 fa3b 5308 703c
00000330: be1d 463b 5a64 113c 8185 acbb c51e 553c
00000340: fa7a 14bc ea01 613c 53bb 1ebc 627c 71bb
00000350: 7af0 1f3b 1ea6 263c 4838 1ebc 6245 273b
00000360: e83b 5c3c e5a6 77bb 8cba 463c 82c7 833a
00000370: 08e4 963b 4f03 e33b 9ef1 09ba 7191 1bbc
00000380: b07d c4bb 78bd beb8 ae0c b03a 5bd2 c7bc
00000390: a77a 763b cf3c 9f3b 9bea 063b f6fe adbb
000003a0: 70af 663c 715d 8ebb 5f74 3bbb de39 cb3a
000003b0: b357 93bb c571 e43a 956e fa3a c3ed 863b
000003c0: 173f aeba 99da a5bb 435e efbb b6c5 b03b
000003d0: a789 923c e595 723c 5170 8fbb bba5 94bb
000003e0: 0318 04bb a5cd f83b d7aa 72ba 1d5e f13a
000003f0: d1ae 0dbc 029c adbb edab 10bc 5b21 713c
0.007375295 -0.0165017 0.012473601 -0.00019237286 -0.00841888 -0.0056262463 0.011887106 -0.0029076901
0.011072995 -0.004891254 0.0010548573 -0.003049423 0.0074324706 -0.0033099004 -0.01143071 0.007884216
-0.0058704563 -0.004282569 0.0062263673 0.002318614 0.0020700793 -0.006667095 -0.0032268695 0.010643591
-0.009120534 0.000613196 -0.017339222 -0.00027679506 0.013732216 -0.0023373107 -0.0047299433 -0.0030739733
-0.0074179205 -0.00035311456 -0.0024698211 -0.0040026465 0.007395825 0.006190714 0.00515702 0.00011508523
-0.0026308678 0.0039090314 -0.0073216134 0.010718211 -0.0138246035 0.017520526 -0.0011367956 0.003138603
-0.0009192978 -0.0063228286 0.005822826 0.012476726 0.0013701661 0.00085869955 -0.010161576 0.0035833772
-0.006121546 -0.011917479 0.018674668 0.00086071156 0.0060530375 0.00064243766 -0.005782894 -0.0020208799
-0.008200701 -0.009337406 0.012775569 -0.0040594325 0.0021104596 0.009311813 -0.008586499 -0.0120389005
-0.00019263006 -0.0038410134 -0.0070461854 0.0018177392 0.0054959645 0.01725507 -0.0019938361 0.01243138
0.0010414732 0.0023848007 -0.002079899 -0.0064491257 -0.011451248 0.008394723 -0.0018135104 -0.0021110878
-0.012360238 0.0015170602 -0.0019864321 -0.016730785 0.0053069014 0.0043841875 -0.0012029504 0.0011830371
-0.0028380237 -0.006213464 -0.00978818 -0.013052474 0.0066427337 0.012144453 0.009302071 0.0032648542
-0.0009780995 0.0028833207 0.0070415847 0.0025915052 -0.0021871305 -0.0036134415 0.009719015 0.011435929
-0.002105656 -0.0012861247 -0.0056453766 0.004543612 -0.011853022 -0.003661839 -0.0018413671 0.0047664703
0.010322791 -0.011041584 -0.014047468 -0.002282941 -0.0030225727 -0.014134168 0.0017980499 -0.0031120395
-0.0073887035 -0.0056935074 -0.006670361 -0.0031436707 -0.0038808358 0.02062711 0.0037565797 0.0049381503
0.0044100396 -0.0015556406 -0.0055727507 -0.01539584 -0.0028320698 0.0010316771 0.0070299665 -0.013103007
0.0114008505 -0.009173725 -0.008156878 -0.017742088 -0.012315271 -0.006833002 -0.009922381 -0.0051934025
0.00029314973 -0.008923039 -0.009910795 0.01258449 -0.00090674125 0.0066951974 0.0026741507 -0.0021388032
0.005218471 -0.008110244 -0.0053003426 0.009768958 0.0016804424 0.00029376787 -0.007072922 0.011544398
-0.001271761 -0.012316889 -0.004934353 -0.0034036057 0.003890824 0.007611728 -0.00066480966 -0.017875873
-0.008597739 0.0076889577 -0.006601789 -0.0050694975 0.016506689 0.0012850979 -0.011937341 -0.009038217
0.009193896 0.006055136 0.015195034 -0.0070982026 -0.0036511407 -0.002171862 -0.0031979722 -0.012587324
-0.0005615858 -0.002873848 0.003471922 0.0029754788 0.00592574 0.0015034395 0.0136110475 0.0030744455
-0.0030474172 -0.002604715 0.0076431106 0.014650422 0.003023013 0.008874023 -0.0052649383 0.013007824
-0.009062523 0.0137333665 -0.009688216 -0.003684782 0.002440481 0.010171441 -0.009656973 0.0025523533
0.013442017 -0.0037788686 0.012129437 0.0010053965 0.00460482 0.0069278846 -0.0005262139 -0.009495125
-0.0059964284 -9.095197e-05 0.0013431513 -0.024392297 0.0037609728 0.004859544 0.0020586613 -0.0053099347
0.0140799135 -0.004344635 -0.0028603298 0.0015504917 -0.0044965385 0.0017428925 0.0019106442 0.004117699
-0.0013293949 -0.0050614593 -0.007304938 0.0053946627 0.017887903 0.014806245 -0.004377403 -0.004536358
-0.0020155914 0.007592874 -0.00092570245 0.0018414889 -0.0086476365 -0.0052981386 -0.008830053 0.014717425

action_model._discrete_distribution.branches.0.bias f4 [2]
00000000: 0000 0000 0000 0000
0.0 0.0

action_model._discrete_distribution.branches.1.weight f4 [19, 128]
00000000: 2e13 bbbb a82e e43b 2b45 083c f91b 93bc
00000010: d5e9 90bb 0d2e e93a 8289 673b 835a 84bc
00000020: e5e4 ec3b 2db9 db3a 8cf9 0cbc 020d f03b
00000030: d5d0 503c 00f3 23bb 7007 e73b d875 13bc
00000040: 971d 46bb 19dd 013b a2b1 01bb 09b7 143c
00000050: 2f0a 853b 138d fe3b 38eb 1cbc 336b 91bb
00000060: 53c9 203b e447 c93b 9b72 13bb f3d8 03bb
00000070: f955 393b 75c5 a7bb ebab 1b3c d527 02bc
00000080: 43cf 763c 7b42 62bb 857f d0ba db0b 293a
00000090: 43d7 1bbc 8354 2ebc aa16 e53a 4597 f03b
000000a0: d83e 02bc 0d2c f8bb fbad 463b cfeb d8bc
000000b0: d754 97bb 4026 7d3b bdd7 583c 3f61 1638
000000c0: d8f8 053c 6973 873c 1b5b d7ba 4a39 5238
000000d0: 5955 a4bb a715 cfba 5f68 9b3c 99c9 483c
000000e0: aac6 023a c1e7 9d3b 7bc9 6ebc c3ad aeba
000000f0: 5cd3 3ebc 30d4 173b 531c c73b 51c8 8fbc
00000100: 1da2 6bbb d00e 1cbc d956 8bbc e96f b2bc
00000110: 3aa1 343b f7f4 92bc 7200 01ba fa77 d73b
00000120: 6892 94bb ad9f 81ba d821 d13a 0d7c 61bc
00000130: eb7f cbbb d391 07bb a8d3 603b 21d7 203c
00000140: 52e5 8a3b 6486 003c 12e9 23bc 2bac 3b3c
00000150: 2d85 cfba cad6 523c 9fdc 95ba 1522 42bb
00000160: 229b 32bb 9528 e23b 026a 27bc 744e 833c
00000170: 4fd4 193b 97db bcb9 9946 c4ba a516 e93b
00000180: 2598 713b 0006 6abc 9b22 0eba afa9 8d3b
00000190: 7ca4 96bc 385f d23b e222 e23a 435a 5eba
000001a0: 955e e039 55c5 f43b 209c e5bb 237e 433b
000001b0: b571 03bc 8a3b 02ba 6bdd c7bb 9874 63ba
000001c0: f39e 283a fcd9 443b c14a 90bb bc79 2dba
000001d0: bfd7 e5b9 4ba2 623a 33e4 2fbc 6a02 88bc
000001e0: aa73 e5ba 8b07 94bc a016 623b ed34 5abb
000001f0: 1f26 bbba 1941 123b ca60 1dbc ce0a 8ebb
00000200: 625e 0bbc d363 43bc 2283 d03b ebe9 88bc
00000210: 1178 8fbc 8281 7c3c b293 7eba 9a7f 8b3b
00000220: 7fb3 7e3c cf4c cdbb dcf8 8fbc a89e 4cbb
00000230: e850 a13b 1a08 6fbb 93b4 f63b 6004 153c
00000240: dfb3 55ba 0332 543b f2ec b8bb db9e 4fbc
00000250: cc4d a439 35b6 083c 19ad 19bc 836d 1abc
00000260: 00cd 633b 2af8 22bc d6ce 0e3a f119 183c
00000270: 40cc c0ba 9b5a 89bb 1104 0cbc 93dc 52bc
00000280: 1512 c1bc d7bd 2bbc 932c d73b 889a cd3b
00000290: 3143 283c 0ade 113b e7e4 25bc aa52 e3bb
000002a0: a765 e73b c546 f6ba a37f e63b cba8 693c
000002b0: 8c9b cc3b fdb9 713b ab58 e13b 317c 223c
000002c0: c0cb f23b d70a 9eba 4b22 b5ba fd21 f33b
000002d0: 12fe d5bb 9be5 0139 5c33 b33c 9a3f e5bb
000002e0: 4176 a03b 434d 4c3c 6d64 863c e4cf ae3b
000002f0: 6ecf 033c cb94 18bc 0a5c 1bbb e332 afba
00000300: 2f6a cbba 2bb5 c7bb f732 753c 9481 b5bb
00000310: 6395 b1bb 60bf e63b 569b 80bb 9444 463c
00000320: 97a5 323a 64d0 ad3c 839d ea3a 232f c73b
00000330: 137a 433b ac78 2c3b adbf e63a 755c 70bc
00000340: 2b70 b53b 67d1 fe3a ad12 8abb d259 593b
00000350: 9ba9 c0bb 7579 80bc 95e0 df3b 4337 1cbc
00000360: 6dfa 953b d16e 96ba f801 d2bb 9bbb 493c
00000370: f748 5bbc 9288 a43a 5c94 813c 93b9 cebb
00000380: ce33 0abb 0cb6 013c 19ce 313b 4b56 343c
00000390: 3f5f 72bb b898 b7bc 3783 bfbb b074 753c
000003a0: 6351 143c b26c 6e3b 3d3d cc3b 4b5b 0c3c
000003b0: 2a00 523c d3d4 2abc 375d 6f3c a8d8 ffb9
000003c0: d006 673b f8fa 9cbc f4c8 8abc 304a af3b
000003d0: ebc9 03bc 2bc6 5339 d8cc a93b f3ae 8bbc
000003e0: b283 e33b fba0 88bc d3ca 22bc 9f40 bcbc
000003f0: 8df6 2b3b 9080 f83b 5758 993b a843 f7b9
-0.0057090735 0.0069635697 0.008317272 -0.017957674 -0.004422406 0.0017790213 0.0035329764 -0.01615644
0.007229435 0.0016763561 -0.0086044185 0.0073257694 0.012745102 -0.0025016665 0.007050447 -0.009000264
-0.003023004 0.0019815622 -0.0019789715 0.009076842 0.004060052 0.007768282 -0.009577565 -0.004437828
0.002453406 0.0061426032 -0.002249873 -0.0020118325 0.0028280003 -0.0051199743 0.009501438 -0.007944067
0.0150640635 -0.0034524489 -0.0015907144 0.0006448605 -0.009511772 -0.010640266 0.0017478068 0.0073422515
-0.007949553 -0.0075736106 0.0030316103 -0.02647963 -0.004618268 0.0038627535 0.01323503 3.5853354e-05
0.008177005 0.016534524 -0.001643035 5.0121256e-05 -0.005015057 -0.00157993 0.018970666 0.012255096
0.00049887097 0.004818887 -0.014574404 -0.0013326932 -0.011647072 0.0023167245 0.0060763746 -0.017551573
-0.0035954781 -0.009525016 -0.017009186 -0.021781879 0.0027561919 -0.017939074 -0.0004921026 0.0065755816
-0.0045340545 -0.0009889506 0.0015955521 -0.013762486 -0.0062103174 -0.0020686283 0.0034305844 0.009816916
0.004238763 0.007844541 -0.010004299 0.011454622 -0.0015832536 0.0128685925 -0.0011433548 -0.0029622365
-0.002725311 0.0069018104 -0.010218145 0.01602862 0.0023472493 -0.00036021761 -0.0014974653 0.007113295
0.0036864367 -0.014283657 -0.0005422027 0.0043232064 -0.01838898 0.0064200424 0.0017252828 -0.0008482078
0.00042795078 0.007469813 -0.007007137 0.0029829822 -0.008022715 -0.00049679785 -0.006099393 -0.00086767366
0.00064323767 0.0030037155 -0.0044034426 -0.0006617566 -0.00043839027 0.00086453994 -0.010735559 -0.016602714
-0.0017505784 -0.018070003 0.0034498349 -0.0033295706 -0.0014278329 0.0022316633 -0.009605596 -0.004334784
-0.008506389 -0.011925655 0.0063632885 -0.016713103 -0.017513307 0.015411736 -0.00097113394 0.0042571547
0.015545725 -0.00626526 -0.01757472 -0.0031222496 0.004922975 -0.0036473335 0.0075288503 0.009095281
-0.0008152108 0.0032378442 -0.0056434805 -0.012672151 0.0003133848 0.008344223 -0.009379649 -0.009425524
0.003475964 -0.009946862 0.0005447691 0.009283529 -0.0014709309 -0.004191709 -0.008545891 -0.012869972
-0.023568192 -0.010482273 0.006566593 0.006274525 0.010269926 0.002225759 -0.010125375 -0.0069373446
0.0070616785 -0.0018789402 0.0070342585 0.014261435 0.0062441286 0.003688454 0.006877025 0.009917305
0.007409543 -0.0012057674 -0.0013819424 0.007419823 -0.0065305317 0.00012387933 0.021875076 -0.0069961073
0.0048969095 0.0124695925 0.016405309 0.005334841 0.008045061 -0.009312819 -0.0023705983 -0.0013366606
-0.0015519316 -0.006094595 0.014965764 -0.0055391286 -0.0054194196 0.0070418566 -0.0039247675 0.012101311
0.0006814836 0.021217532 0.0017899725 0.006078617 0.00298274 0.0026317043 0.0017604731 -0.014670481
0.005537053 0.0019441069 -0.004213652 0.003316511 -0.0058795935 -0.015682915 0.006832192 -0.00953466
0.004576972 -0.0011477118 -0.006408926 0.012312795 -0.013384095 0.0012552908 0.015817814 -0.0063087433
-0.0021088007 0.0079169385 0.00271309 0.011006902 -0.003698304 -0.02241169 -0.0058444995 0.014981434
0.009052607 0.0036380705 0.006232886 0.008566688 0.012817422 -0.010426718 0.0146096265 -0.00048798812
0.0035251863 -0.01916264 -0.016941525 0.00534942 -0.008043746 0.00020196351 0.00518189 -0.017051196
0.0069431895 -0.016678324 -0.009936052 -0.022980032 0.0026239485 0.007583685 0.0046797204 -0.0004716192

action_model._discrete_distribution.branches.1.bias f4 [19]
00000000: 0000 0000 0000 0000 0000 0000 0000 0000
00000010: 0000 0000 0000 0000 0000 0000 0000 0000
00000020: 0000 0000 0000 0000 0000 0000 0000 0000
00000030: 0000 0000 0000 0000 0000 0000 0000 0000
00000040: 0000 0000 0000 0000 0000 0000
0.0 0.0 0.0 0.0 0.0 0.0 0.0 0.0
0.0 0.0 0.0 0.0 0.0 0.0 0.0 0.0
0.0 0.0 0.0

action_model._discrete_distribution.branches.2.weight f4 [15, 128]
00000000: e747 d83b 73ff 523b f723 58bb aba6 f13b
00000010: 45ba 24bc 0bf1 dd3b 6e9a 813c f512 3fbc
00000020: e36f c23b c24e 8bbb d75b babb d17e 243b
00000030: d29a 9c3b a0e3 623c 943f 30bc 8d8a 073c
00000040: 0c64 a43b 8c71 bab9 221b f23b 000b e1bb
00000050: 83dd 193c 00ad 2cbb 3713 a93b 1629 833a
00000060: 6c87 173c c236 8d3b 67dc 223c 9136 abbc
00000070: 77b1 e2ba 4c5e 1f3a 8b72 c93b b801 e8bb
00000080: af2c bebb 40fa 563c 3453 c13b d425 8c3c
00000090: b09d 47bc fc08 8f3b 339b b23b 9371 91bc
000000a0: 2f56 ef3b 145e 923a 79d6 1e3b 92e8 d13b
000000b0: d076 84ba 4f02 ec3b b2ed 29bc fb4b 0e3c
000000c0: 1388 47ba bd0e 3d3c 219f b73b 47f6 5e3c
000000d0: fa59 7c3c c75d a4bb e96a 8dbc 7cd8 ba3b
000000e0: af21 61bb d24d c8ba 7519 e03a b27a 93bb
000000f0: 710c 06bc cf24 1fbc 428d 9aba 6748 85bb
00000100: 437f 2e3a 54f0 a43a 1529 37bc b791 c0ba
00000110: 48d4 7d3c 6301 8a3c c8b9 573c bfb3 ddba
00000120: 4be7 8839 c731 f8b9 931f 3cba cd3a 463b
00000130: 655b 63bc 3676 21ba 0245 11bb 7fb7 323c
00000140: ae7a c93c 7921 36bb 4e57 473c 25d6 c73b
00000150: 8cd8 b83a 286d 0a3c 8563 b2ba 75f5 343c
00000160: 7770 723a 6e9a 1bbc 6814 60bc 4a3e 71bb
00000170: ef54 7d3b 7a33 e93b 39c1 293b 3d55 fb3b
00000180: c3e6 413c 57ea 483c 3a4d a63b c91e c1ba
00000190: b763 203a 025b 1e3c d698 0f3b abd8 17bc
000001a0: 9dd6 663b 92f9 e8bb 9bbb 4fbc 1820 0b3c
000001b0: d898 b33b efad 29ba 0b7c 36bb 42d9 e7bb
000001c0: 8ec3 b8bb 6fe6 8d3c 9d4a aebb 6b43 523c
000001d0: 40d2 77bc b094 583b f4b6 9b3c 8760 0e3c
000001e0: a512 723b 4824 8b3b 0373 0fbc 78b6 233b
000001f0: 302d 32bc 7e7b b6bb 3752 233a 0453 bf3b
00000200: ef9d 403c 6c8c 3c3c c8bd f33a 9c7a 43bc
00000210: c182 403c fc66 2b3b fbda 9fbc 5f6e d33a
00000220: aa24 c63b c447 c7bb 1d5e 6d3b d7a9 8b3b
00000230: 23e5 9dbc c4cf 43bb 27f0 e53b a75b 763b
00000240: 0f31 263b 48e9 333a 1734 c13b 671b ee3a
00000250: 7561 dcba e2c0 67bc 0f5d 073b 596f ba3c
00000260: 5f8e b1bb 5f28 e8bb f981 2dbc 86e9 8abb
00000270: 6f6b 89bb 828a d83b ddb6 8cbb 5502 8c3c
00000280: 9d5a babb e65d 293a a8c3 1abb 35b3 363b
00000290: fa35 feba bbbb b1ba 2604 46bc 0373 b5bc
000002a0: 2f65 163c a99d 2fbc e240 693b 6f3e abba
000002b0: ee3e c5bc 7842 cfba b712 09bc db00 a23b
000002c0: 070a 493c 8028 eb3b 99c9 15bc 9c9b 0ebb
000002d0: 2a6f f1bb 7e34 49bc b866 543c 826b 10bc
000002e0: 8010 d4bc 6fc2 1ebb bd65 ef39 1f7f b7bb
000002f0: c8e3 093a 1c53 b239 97a6 e5ba 931c 8f39
00000300: 1af9 7cbb 5ab2 e7bb 05a4 da3b 3408 23bb
00000310: bf3c a93b 1ba1 e7bb 2558 d23b f80e f83b
00000320: 9662 a43b ab71 c2bc e33c 0cba 9d3c 0b3c
00000330: cb6e 24bc b69e 94bc 730d fd37 f666 133c
00000340: 9baa 223c 6358 8f3b 9394 3b3c cba4 15bc
00000350: 5924 afba 8612 c8bb af74 ab3a 652e dc3b
00000360: 163d 0e3b 8742 f3bb 4206 5f3c 5f1c 333c
00000370: 1985 163c 359c 0bbb b17f 033c 5b22 ca3b
00000380: d058 90bc 9c59 3cb9 bfc4 8fbb da98 bbbb
00000390: 83a1 37bc 4b9c 973c 500b 583a 800a e7bb
000003a0: e523 c03b a597 403a 133f 1cbc 4ff0 9bbb
000003b0: 8207 a63b 52b3 ffbb 8709 e5bb 1776 953b
000003c0: 81c2 a3bb 24a8 95bb b54a b2bb 7ba0 f33b
000003d0: d04a 24bc b094 0dbc 9f78 523c 3d62 ad3b
000003e0: bc05 18bc 7cd1 bfba 6c07 263b e400 b1bc
000003f0: ea8a 1d3c d3f2 c5b9 1f2b 273c a9ca bbbc
0.0066003683 0.0032195717 -0.003298042 0.0073746047 -0.010054176 0.0067731193 0.015820708 -0.011662235
0.005933748 -0.004251332 -0.0056872177 0.0025100003 0.004779198 0.013848215 -0.010757346 0.008272779
0.0050168093 -0.00035561284 0.0073884884 -0.0068677664 0.009391191 -0.0026348233 0.0051597613 0.0010006751
0.009248596 0.004309506 0.009940243 -0.020900043 -0.001729532 0.000607942 0.006147688 -0.007080283
-0.0058036665 0.013121188 0.005899811 0.017107882 -0.012183592 0.0043650847 0.00545063 -0.017754352
0.007303975 0.0011166953 0.0024236722 0.0064058984 -0.001010621 0.0072024236 -0.010371612 0.008685107
-0.0007611524 0.011539158 0.0056036864 0.013608522 0.015402311 -0.005016062 -0.017262893 0.0057020765
-0.0034352352 -0.0015281981 0.001709743 -0.0045007104 -0.008181677 -0.009713366 -0.0011791366 -0.004067469
0.0006656537 0.001258383 -0.011179228 -0.0014691864 0.015492506 0.016846364 0.013166852 -0.001691453
0.00026112268 -0.00047339333 -0.0007176336 0.003024745 -0.013876771 -0.00061592774 -0.0022166376 0.010908007
0.024594631 -0.0027790947 0.012166811 0.006098526 0.0014102622 0.008448876 -0.0013609981 0.01104485
0.0009248326 -0.009497268 -0.01367674 -0.0036810809 0.003865536 0.007116732 0.0025902523 0.0076700733
0.011834803 0.012262902 0.005075124 -0.0014733906 0.00061183743 0.009665253 0.0021911166 -0.009267966
0.0035223134 -0.007109829 -0.012679006 0.008491538 0.005480867 -0.00064727565 -0.0027844931 -0.0070754597
-0.0056385463 0.017321793 -0.005318953 0.0128334565 -0.015125811 0.003304761 0.019008137 0.008690006
0.0036937383 0.0042462684 -0.008755448 0.0024980586 -0.010875031 -0.0055689206 0.00062302075 0.0058387537
0.011756404 0.011508089 0.0018595988 -0.011931088 0.011749924 0.0026153913 -0.019513598 0.0016130916
0.006046851 -0.006081553 0.0036219426 0.00426219 -0.0192743 -0.0029878477 0.007017154 0.003759125
0.002535883 0.000686307 0.005896102 0.0018166126 -0.0016813712 -0.014145108 0.0020654832 0.022758173
-0.0054185833 -0.0070848907 -0.01059007 -0.004239264 -0.0041937153 0.0066083083 -0.00429426 0.017090956
-0.0056870715 0.00064608303 -0.0023615155 0.0027877812 -0.0019394748 -0.0013559976 -0.01208595 -0.022149568
0.0091793975 -0.010718741 0.0035591652 -0.0013064871 -0.024077859 -0.0015812656 -0.008366278 0.0049439496
0.012270457 0.007176459 -0.009142303 -0.002176023 -0.007367988 -0.0122805815 0.012963943 -0.008814694
-0.025886774 -0.0024224778 0.00045661433 -0.005599871 0.00052600773 0.00034012727 -0.0017520961 0.00027296375
-0.0038600625 -0.0070708217 0.0066723847 -0.0024876716 0.005164712 -0.007068766 0.006419199 0.007570144
0.005016635 -0.023735842 -0.0005349649 0.008498338 -0.010036181 -0.018142086 3.0166213e-05 0.008996716
0.009928371 0.00437455 0.011448997 -0.009133528 -0.0013362273 -0.006105724 0.0013081039 0.006719398
0.002170389 -0.007423702 0.013612332 0.010932057 0.009187006 -0.0021302823 0.0080260495 0.0061686463
-0.017620474 -0.00017962459 -0.0043874676 -0.0057250084 -0.011207941 0.018507143 0.0008241432 -0.0070508122
0.005863654 0.00073468155 -0.009536522 -0.0047588716 0.005066813 -0.007803359 -0.006989661 0.0045611965
-0.004997552 -0.004567163 -0.0054410347 0.0074349022 -0.010027602 -0.008641407 0.012846141 0.005291252
-0.009278711 -0.0014634575 0.0025334014 -0.02160687 0.009615639 -0.00037755686 0.010203152 -0.022923784

action_model._discrete_distribution.branches.2.bias f4 [15]
00000000: 0000 0000 0000 0000 0000 0000 0000 0000
00000010: 0000 0000 0000 0000 0000 0000 0000 0000
00000020: 0000 0000 0000 0000 0000 0000 0000 0000
00000030: 0000 0000 0000 0000 0000 0000
0.0 0.0 0.0 0.0 0.0 0.0 0.0 0.0
0.0 0.0 0.0 0.0 0.0 0.0 0.0

network_body._body_endoder.seq_layers.0.weight f4 [128, 78]
00000000: fb4b 0939 300a 983c 6382 81bd 1eff 54be
00000010: 6c38 78bd a70f 9f3d 9160 993d 02af a7ba
00000020: 3eb4 e6bb f6f9 ee3d d490 883d 4a76 383e
00000030: c734 c73d 1ec6 34be 9a5c bfbd 97f0 82be
00000040: 07ed fa3d b30e 9e3d 03b3 fabd fe9c 8e3d
00000050: 98fd 423e f3af 153e bed5 513c 3fb6 f0bd
00000060: 8f03 133e c879 783e bbf4 00be 3185 7abd
00000070: e529 7ebd a244 d23d f40e b73d aada 13be
00000080: 3b70 eabd 5f1b d23b d9ec e7bd 8326 15bc
00000090: 4027 b63c 39c0 15be 12af 073e bd01 783d
000000a0: f03a 3bbd 92b5 773d 6e02 34be 5a39 893d
000000b0: 98ed db3c 2b91 d53d 0ebc 1ebe 67d4 e43c
000000c0: da58 553b 2a2e 083e 7fd4 01be e624 de3d
000000d0: 2b02 2d3d 7239 e4bd 5b8c edbd c208 54bd
000000e0: b4e8 0dbe 205a 58be 4cc2 aabd 4a8d c73d
000000f0: 0a22 963d 47f8 7abe 3e7e 2c3e 8919 283d
00000100: b8d4 e4bc 0bd4 10be 9398 743c dc4f 7b3d
00000110: bffb 5dbd bc5d ffbd 8eed 843c ade0 cabc
00000120: 1a18 0c3d e492 cabd 633e 05be e1b5 0d3d
00000130: 5b6a 43bd 3f8d 96be edae 16be 31cf 96bd
00000140: f1ea dfbb fdb8 bfbd 3931 67be 31c1 883d
00000150: d9e3 203e 9aa6 bb3d 7ca0 23bd afe7 87bd
00000160: 24fa ce3d cd3e 26be 1179 2a3e 04d6 ea3d
00000170: 61da 9dbd 1981 523d d4bb 6e3d c4bb 02be
00000180: dda9 46be 3ee2 52be 9007 d73d 3c29 cf3d
00000190: ab4e 173e 2820 f03b 5b30 673d c56f bf3d
000001a0: 1353 1f3e d17e 10be b3f5 fdbd 6b58 7c3d
000001b0: 6e90 5abe 5bd6 bbbd 89c9 9dbc 5dd0 8fbd
000001c0: 9c76 113d 5e85 55be f7cb 24bd 4239 0e3b
000001d0: 702a 8e3c 3315 e3bd 5205 573c 357f 29be
000001e0: d824 dcbc 7cfa a13d 7ca4 463e 873e 893d
000001f0: 7e3f b9be 55b2 373e bb03 28bd 529a c2bd
00000200: b032 143e 5ecf 2f3d d3e5 8cbb d2d4 453d
00000210: fb21 823e cecb 19be 53d5 9fbb 6cc5 5fbe
00000220: 6544 3d3d 1d1a 57bc 6644 b63b 6664 11be
00000230: 32c0 42be 02e0 2f3e 030a 9bbd cfc7 d4bd
00000240: 334e 22be e65d ed3d 36a7 b23c 863f 43be
00000250: 0cb3 dcbd 63a2 b5bd d778 d13d e199 143d
00000260: 49b9 debd ed48 f5bc 3334 853e 6256 debc
00000270: b2a1 46bd 8c4d 5e3c c855 cdbd ce90 a93d
00000280: a53b ecbc 54d0 c8bd dc66 843b 7cf2 60bb
00000290: 481e 2d3e cffc bf3b df76 ab3d cd22 d9bd
000002a0: 4c07 b0bd 782e db3d 658f 4dbe cb44 143e
000002b0: 7408 f03d 241e 48bd 7b89 513d 3959 29bc
000002c0: 7194 913d c154 1fbe a18e 143e 6a59 83bd
000002d0: fcb3 61be d11d 463c 6d9c bf3c cd0b 143e
000002e0: 8c27 2dbe 2239 1d3e a5b5 f23d a95e 13ba
000002f0: b868 efbd 967f 18bd 75b5 a9bd 94d5 393e
00000300: 8c02 e8bd 646b 193d 8683 d6bd 00ac acbd
00000310: d762 153e 1183 e53d 462d b83d 2c21 36bc
00000320: ab8d 0dbc b5ba 32bd 82c4 51be 5367 953d
00000330: 45a0 87bc af01 283d 008a 51bd 676e fabd
00000340: 78bb c03d d36c 28be 7086 b0bc 6eeb 183e
00000350: 2477 0dbe da3b f73d befc efbc 36a0 b43a
00000360: 2e8f 38bd 1d2e 5c3d 819a c3bc d5c0 97bd
00000370: ac40 8cbd 384d 97bd c961 19be 89c7 ccbd
00000380: 6585 303e 18bc 023e a3c5 33be 1f6d 3abd
00000390: a906 67bd dabe 073e f335 02bd 15fe 92bd
000003a0: fac6 3ebd af22 0ebe 9fea d5bd 94c5 893d
000003b0: b7ca 48bd 1f99 39bb 5edb 6bbe df27 b83d
000003c0: fa87 5c3e 3cf9 cebd 3cbd d33d 7f59 213e
000003d0: e05e 39bb 7979 7e3d a63a 8ebe d9b3 123d
000003e0: c6cb 213e 40dc 84bd ed23 5ebd 771f 0d3d
000003f0: 8d9f 0b3e ab6f 42bc c5dc 9f3c 78dd d3bc
0.00013093643 0.018559545 -0.063236974 -0.20800444 -0.060600683 0.07766657 0.07489122 -0.0012793245
-0.0070405295 0.1166877 0.06668249 0.18013874 0.09726863 -0.176537 -0.09343834 -0.2557418
0.12252241 0.077176474 -0.12241175 0.06963538 0.19042051 0.146179 0.012807308 -0.11753511
0.14356826 0.24265206 -0.12593357 -0.061162177 -0.062051672 0.10266997 0.08938399 -0.14438882
-0.114471875 0.0064119543 -0.11324472 -0.00910342 0.022235513 -0.14624108 0.13250378 0.060548533
-0.045710504 0.060475893 -0.17579052 0.06700392 0.026846692 0.10428079 -0.15501425 0.027933313
0.003255418 0.1329886 -0.12678717 0.108468816 0.042238396 -0.11143769 -0.11599036 -0.051766165
-0.138583 -0.2112813 -0.083378404 0.097437456 0.07330711 -0.24508773 0.16845033 0.041039977
-0.027933463 -0.14143388 0.014928955 0.061355457 -0.054195162 -0.1246905 0.016226556 -0.024765337
0.034202673 -0.098912984 -0.1301208 0.03459728 -0.04770885 -0.29404637 -0.14715166 -0.073637374
-0.006833427 -0.093614556 -0.2257737 0.06677473 0.15711917 0.09162636 -0.03994797 -0.06635987
0.10106304 -0.16234894 0.16647746 0.114666015 -0.07707668 0.05139265 0.058284596 -0.1276694
-0.19400735 -0.20594117 0.10499489 0.10115287 0.14776103 0.007328052 0.0564426 0.0934749
0.15559034 -0.14110877 -0.12400379 0.06160776 -0.21344158 -0.091717444 -0.019261139 -0.07022164
0.035513505 -0.20851657 -0.04023358 0.0021701609 0.01735422 -0.11088028 0.013123827 -0.16552432
-0.026873037 0.07909104 0.19398683 0.06701379 -0.36181253 0.17939122 -0.041019183 -0.095020905
0.14472461 0.04292237 -0.004299858 0.048298664 0.2541655 -0.15019152 -0.004877725 -0.21852654
0.046207804 -0.0131287845 0.005562353 -0.14198455 -0.19018629 0.17175296 -0.07570269 -0.10389673
-0.15850143 0.11590175 0.021808248 -0.19067201 -0.10776338 -0.088688634 0.102281265 0.036279563
-0.10875184 -0.029942 0.26016387 -0.0271408 -0.04849405 0.013568293 -0.10026127 0.082795724
-0.028837034 -0.098053604 0.004040582 -0.003432422 0.16906083 0.0058589946 0.08372282 -0.10602341
-0.08595142 0.107022226 -0.20074232 0.14479367 0.11720362 -0.04885687 0.051156502 -0.010336214
0.07108391 -0.15559675 0.14507534 -0.06413539 -0.22041315 0.01209207 0.02339002 0.14457627
-0.16909617 0.15353826 0.11851052 -0.00056217104 -0.116898954 -0.03723105 -0.08286563 0.1814788
-0.11328611 0.03745593 -0.10474305 -0.08431244 0.14588486 0.112066396 0.0899301 -0.011116307
-0.008639733 -0.04363509 -0.20485118 0.07295098 -0.016555915 0.04101723 -0.051156998 -0.12228089
0.09410757 -0.16447763 -0.02154848 0.1493356 -0.1381498 0.12071963 -0.029295322 0.0013780657
-0.04505842 0.053754915 -0.023877384 -0.07409827 -0.06848273 -0.07387775 -0.14978708 -0.09998996
0.17238386 0.12767065 -0.17555861 -0.045514222 -0.056402836 0.13256398 -0.03178973 -0.071773686
-0.046576478 -0.13880418 -0.10445141 0.06727138 -0.04902145 -0.0028320027 -0.230329 0.0899198
0.21536246 -0.101061314 0.10338828 0.15756796 -0.002828531 0.062127564 -0.2777912 0.035816047
0.1580039 -0.06487322 -0.05423348 0.034453835 0.13635083 -0.011867444 0.01951445 -0.02586244

network_body._body_endoder.seq_layers.0.bias f4 [128]
00000000: 0000 0000 0000 0000 0000 0000 0000 0000
00000010: 0000 0000 0000 0000 0000 0000 0000 0000
00000020: 0000 0000 0000 0000 0000 0000 0000 0000
00000030: 0000 0000 0000 0000 0000 0000 0000 0000
00000040: 0000 0000 0000 0000 0000 0000 0000 0000
00000050: 0000 0000 0000 0000 0000 0000 0000 0000
00000060: 0000 0000 0000 0000 0000 0000 0000 0000
00000070: 0000 0000 0000 0000 0000 0000 0000 0000
00000080: 0000 0000 0000 0000 0000 0000 0000 0000
00000090: 0000 0000 0000 0000 0000 0000 0000 0000
000000a0: 0000 0000 0000 0000 0000 0000 0000 0000
000000b0: 0000 0000 0000 0000 0000 0000 0000 0000
000000c0: 0000 0000 0000 0000 0000 0000 0000 0000
000000d0: 0000 0000 0000 0000 0000 0000 0000 0000
000000e0: 0000 0000 0000 0000 0000 0000 0000 0000
000000f0: 0000 0000 0000 0000 0000 0000 0000 0000
00000100: 0000 0000 0000 0000 0000 0000 0000 0000
00000110: 0000 0000 0000 0000 0000 0000 0000 0000
00000120: 0000 0000 0000 0000 0000 0000 0000 0000
00000130: 0000 0000 0000 0000 0000 0000 0000 0000
00000140: 0000 0000 0000 0000 0000 0000 0000 0000
00000150: 0000 0000 0000 0000 0000 0000 0000 0000
00000160: 0000 0000 0000 0000 0000 0000 0000 0000
00000170: 0000 0000 0000 0000 0000 0000 0000 0000
00000180: 0000 0000 0000 0000 0000 0000 0000 0000
00000190: 0000 0000 0000 0000 0000 0000 0000 0000
000001a0: 0000 0000 0000 0000 0000 0000 0000 0000
000001b0: 0000 0000 0000 0000 0000 0000 0000 0000
000001c0: 0000 0000 0000 0000 0000 0000 0000 0000
000001d0: 0000 0000 0000 0000 0000 0000 0000 0000
000001e0: 0000 0000 0000 0000 0000 0000 0000 0000
000001f0: 0000 0000 0000 0000 0000 0000 0000 0000
0.0 0.0 0.0 0.0 0.0 0.0 0.0 0.0
0.0 0.0 0.0 0.0 0.0 0.0 0.0 0.0
0.0 0.0 0.0 0.0 0.0 0.0 0.0 0.0
0.0 0.0 0.0 0.0 0.0 0.0 0.0 0.0
0.0 0.0 0.0 0.0 0.0 0.0 0.0 0.0
0.0 0.0 0.0 0.0 0.0 0.0 0.0 0.0
0.0 0.0 0.0 0.0 0.0 0.0 0.0 0.0
0.0 0.0 0.0 0.0 0.0 0.0 0.0 0.0
0.0 0.0 0.0 0.0 0.0 0.0 0.0 0.0
0.0 0.0 0.0 0.0 0.0 0.0 0.0 0.0
0.0 0.0 0.0 0.0 0.0 0.0 0.0 0.0
0.0 0.0 0.0 0.0 0.0 0.0 0.0 0.0
0.0 0.0 0.0 0.0 0.0 0.0 0.0 0.0
0.0 0.0 0.0 0.0 0.0 0.0 0.0 0.0
0.0 0.0 0.0 0.0 0.0 0.0 0.0 0.0
0.0 0.0 0.0 0.0 0.0 0.0 0.0 0.0
