FYPprototype/results/Test3/AIBalancing.onnx (onnx, 134513 bytes, 13 tensors)

action_model._discrete_distribution.branches.0.bias f4 [2]
000000 e7 48 f3 3c e4 48 f3 bc
       0.029697848 -0.029697843

action_model._discrete_distribution.branches.0.weight f4 [2, 128]
000000 70 67 18 3c 10 82 a9 3c 27 74 c2 bc b0 26 61 bc
       0.009302005 0.020691901 -0.023737026 -0.013742134
000010 49 cb 3a bd ab b8 bf bc a8 84 9b bc 09 9e a3 bc
       -0.045604024 -0.023403486 -0.018984154 -0.019972818
000020 ff 08 90 3b 39 9a 3a bd 5a 50 39 bd 2a 6b ed 38
       0.0043956037 -0.045557234 -0.045242645 0.000113210015
000030 16 5d 0e 3d cd 2b be 3b 2e fb b9 bc ac e5 69 bc
       0.034756742 0.0058035613 -0.02270278 -0.014275949
000040 94 98 be bc 83 72 ec bc 09 b4 43 bd ad 24 c4 bc
       -0.023266114 -0.028863197 -0.047779117 -0.02394327
000050 23 e8 c9 bc 8a dd c7 3b b2 7a 63 bc 67 88 91 bc
       -0.024646824 0.0060994076 -0.013884233 -0.017765237
000060 66 8b ab bc 63 ab 2a bc 4c 64 98 3c 7f 20 a2 3c
       -0.020940494 -0.010416838 0.018602513 0.019790886
000070 08 91 9d bc e5 bb 94 3c fa 7c 92 bc 69 62 12 3c
       -0.019234195 0.018156001 -0.01788186 0.008934596
000080 2f ae d4 bc 16 dc ff bb d5 ec 2a bd 1d 1a 1b bc
       -0.025961963 -0.0078082187 -0.041729767 -0.009466675
000090 4b 2b 1e bc 33 00 e5 bc c1 64 0e bd 09 9d 0a bd
       -0.009653877 -0.027954197 -0.034764055 -0.033841167
0000a0 d6 95 f0 bc 41 78 04 bd 85 21 36 bd 7e 98 0d 3c
       -0.029368322 -0.032341246 -0.04446556 0.008642314
0000b0 1a 20 b8 3c 38 55 72 bc 01 85 0b bd dc 64 5e 3b
       0.022476245 -0.014790826 -0.03406239 0.0033934629
0000c0 ee c5 9f bc bf ed 38 bc 4a 85 f9 3b 3d 40 2c bd
       -0.01950356 -0.011287152 0.0076147662 -0.04205345
0000d0 32 f3 c8 bc 32 ec d8 bc 42 00 03 bd 10 13 84 bc
       -0.024530027 -0.026479814 -0.031982668 -0.016122371
0000e0 97 08 4b bc 32 6a 60 bc 84 9d 01 3d f3 35 f9 bc
       -0.012392185 -0.013697194 0.03164436 -0.030421233
0000f0 7f 97 b1 bc 00 5a a5 bc 8e a5 73 3c 88 2d ac bc
       -0.021678684 -0.020184517 0.014871014 -0.021017805
000100 11 33 a3 bc 49 75 41 bd 78 f0 18 bd f8 63 eb bc
       -0.019921811 -0.047230992 -0.037338704 -0.028734192
000110 41 72 a7 3b 29 37 d4 bc 07 cb 06 bd 02 76 1f bd
       0.0051100557 -0.025905209 -0.032908466 -0.0389309
000120 f9 a2 ea bc bb 2f dc bc e2 a4 ee bc 48 68 e6 bc
       -0.028642165 -0.026878228 -0.029131357 -0.028125897
000130 6f 2d c4 bc 1d ff 78 bc 43 cd 1f bd fa a6 a9 bc
       -0.023947446 -0.0151975425 -0.039014112 -0.020709503
000140 0f 8b 0d bd 50 b0 b5 bc 6a 0f 17 3c a9 c2 9c bc
       -0.034556445 -0.022178799 0.009219984 -0.01913579
000150 16 88 05 bd 44 87 9e bc 7f b3 0f 3d 81 1a ef bc
       -0.032600485 -0.019351609 0.03508329 -0.029187443
000160 15 6b c5 bc c8 ef 87 bc 4f f8 a1 3b 1a bf 0a bd
       -0.024098912 -0.016593829 0.004942931 -0.033873655
000170 09 a3 3a bd e8 81 8c bc 78 4b b0 bc d8 4a b8 bc
       -0.04556564 -0.017151788 -0.021520361 -0.022496626
000180 8e 96 7c bb 17 1c cb bc 14 f8 8e bc c3 11 8a bc
       -0.0038541886 -0.024793668 -0.017452277 -0.016854173
000190 21 33 80 bc d2 df a5 bc 5c 79 19 bd 56 30 74 bb
       -0.01564938 -0.020248327 -0.037469253 -0.0037260256
0001a0 70 c5 1d bd 88 f4 5a bc 70 27 1c bd 06 d8 88 bc
       -0.03851837 -0.013363965 -0.038123548 -0.01670457
0001b0 0b 6c 9c 3c 4d 3c cc bb 56 7e 8a bc a9 75 70 bc
       0.019094488 -0.0062327744 -0.016905945 -0.01467649
0001c0 8c 83 09 bd 11 51 ff bc f9 7e 2e 3d e9 7b f0 bc
       -0.03357272 -0.031166585 0.04260156 -0.02935596
0001d0 de 37 c4 bc 0a 92 0c bd d8 63 0d bd 2f 47 1d 3d
       -0.02395242 -0.03431896 -0.034519047 0.038397964
0001e0 f9 dd 9a bc 46 4f 27 bd ce 21 0b bd 74 ff d5 bc
       -0.018904673 -0.040847085 -0.033967786 -0.026122786
0001f0 52 2d d6 3c 5c b7 36 bd 89 30 de 3c 9a a1 b4 bc
       0.026144657 -0.04460846 0.027122753 -0.022049714
000200 72 b1 d3 bc c6 cf 81 bc 7b 29 19 3d f8 e5 87 3c
       -0.025841448 -0.015846144 0.037393074 0.01658915
000210 a1 4a 20 3d 64 4a e0 3c 1e 27 b4 3c 71 eb b9 3c
       0.03913367 0.027379222 0.021991309 0.022695275
000220 aa 62 68 bb f9 a7 5f 3d 99 1c 2e 3d a0 4e b1 bb
       -0.00354592 0.05460355 0.04250774 -0.005410984
000230 2e c4 b9 bc 68 b3 e7 39 5b 2f a1 3c 13 1c 4f 3c
       -0.022676554 0.00044193421 0.019675901 0.012640971
000240 45 6d db 3c 64 56 0d 3d 34 61 3f 3d 54 75 a1 3c
       0.026785502 0.034506217 0.04672356 0.019709267
000250 e4 b9 c0 3c c7 d6 0c b8 e8 c7 6b 3c 0e a6 cf 3c
       0.02352614 -3.3578628e-05 0.014390923 0.025347736
000260 e9 99 0e 3d 3f ac e5 3c f8 06 0f 3c ca ba 8e bc
       0.03481475 0.028036235 0.008729689 -0.017423052
000270 21 ee 9a 3c df 1d a8 ba 08 cb f3 3c 07 7f 66 bc
       0.018912377 -0.0012826285 0.029759899 -0.014068372
000280 f9 a2 0d 3d f0 d2 b2 bb 14 5e 1e 3d 11 83 84 3c
       0.03457925 -0.0054572746 0.03866394 0.016175779
000290 12 8c 92 38 4f ba fc 3c 18 38 13 3d 95 cb 0d 3d
       6.987913e-05 0.030850558 0.035942167 0.03461798
0002a0 5e cb d9 3c fa 43 aa 3c 32 a0 0d 3d 75 5d da 3b
       0.02658623 0.020784367 0.034576602 0.006663973
0002b0 fb 79 c6 ba 6a 34 01 3d 57 12 22 3d 79 47 0d bc
       -0.0015142554 0.031544127 0.03956827 -0.008622997
0002c0 fd 11 0b 3d 87 b4 0c 3b 7a 81 44 bc 43 ca 3c 3d
       0.0339527 0.0021469907 -0.01199376 0.04609133
0002d0 5f 1c 19 3d eb 3b 1c 3d d0 43 5e 3d 5a 82 f9 3c
       0.037380572 0.03814308 0.05426389 0.030457664
0002e0 b2 25 32 3c d6 ce bd 3c 2a 85 ce bc 61 33 15 3c
       0.010873245 0.023169916 -0.025209982 0.009106488
0002f0 9f 70 2d 3c 2f f2 ac 3c 66 2c 04 bd ce df 08 3d
       0.010585933 0.021111576 -0.032268904 0.03341656
000300 f6 cd 91 bb 21 ad 2d 3d 37 23 24 3d d4 af 0d 3d
       -0.0044496013 0.042401437 0.040072646 0.03459151
000310 8e b3 4a 3a cc 09 16 3d 45 62 f0 3c 16 c1 10 3d
       0.0007732444 0.036630437 0.029343734 0.03534039
000320 ef 10 08 3d 6c 18 00 3d 14 3b 13 3d f9 de 9a 3c
       0.033219274 0.03127329 0.035945013 0.01890515
000330 82 a0 fb 3c 04 c4 43 3c 43 07 1b 3d 7a 67 82 3c
       0.030716185 0.011948589 0.037848722 0.015918482
000340 d9 a3 d9 3c bb b5 42 3c 0d 94 d4 bc 1c e9 c4 3c
       0.026567386 0.011884148 -0.025949502 0.024036936
000350 94 72 18 3d a1 35 f3 3c f4 ee 3a bd da 64 cc 3c
       0.037218645 0.029688658 -0.04563804 0.024950434
000360 8f 3a 07 bb 5b 99 01 3d c8 b9 00 bc a9 27 ac 3c
       -0.002063427 0.03164039 -0.007856794 0.021015005
000370 a7 c1 da 3c ec c5 d6 3c e9 61 c6 3c b2 82 b9 3c
       0.026703669 0.026217423 0.02421661 0.022645328
000380 f1 73 e4 ba 1a 17 ba 3c ee a9 1a 3d ea b1 2a 3d
       -0.0017429573 0.022716094 0.037759714 0.04167358
000390 a1 0c 8d 39 5e fd 2a 3d f0 b3 35 3d 0d 25 de 3c
       0.00026903025 0.041745536 0.044361055 0.027117277
0003a0 88 37 42 3c 83 f4 46 3c 4a d0 4d 3d cd 56 93 3c
       0.01185406 0.012143257 0.050247468 0.017985726
0003b0 0a 99 e4 bb 3b b5 50 39 b0 b6 c9 3c 97 57 8b 3c
       -0.0069762515 0.0001990394 0.024623245 0.01700954
0003c0 09 fd 0d 3d a9 c3 bf 3c 56 6e ec bc 43 3e 23 3d
       0.03466514 0.023408728 -0.028861206 0.0398543
0003d0 91 c9 f3 3c 34 32 fe 3c d5 88 54 3d 1b bf 00 bd
       0.0297592 0.031029798 0.051888306 -0.031432252
0003e0 24 27 cc 3c 82 5f 10 3d c9 ed 3d 3d 9b 17 bf 3c
       0.024921007 0.035247333 0.046369348 0.023326686
0003f0 50 38 21 bd 65 cd 1d 3d bf d2 85 bc df 44 01 3d
       -0.039360344 0.038525958 -0.016335843 0.03155982

action_model._discrete_distribution.branches.1.bias f4 [19]
000000 a9 b6 77 bb de 4f 52 3b b1 74 94 bb 1c a6 b0 ba
       -0.0037798083 0.0032091062 -0.0045305123 -0.0013477239
000010 39 e6 af bb 70 ae 4b bb d7 80 07 3c 6e 74 29 3c
       -0.005368021 -0.0031079315 0.008270464 0.0103427
000020 a8 a7 25 3c f1 d2 47 3c d6 78 0e bc 26 61 5a 3a
       0.010110773 0.012196288 -0.008695802 0.0008330516
000030 dc 56 0f 3c b6 3f 43 bc 27 2d 56 3c 9c b1 8b ba
       0.008748736 -0.011917045 0.013072289 -0.001065779
000040 0d ab 47 ba de f1 b1 bc 5d 20 f5 3b
       -0.0007616736 -0.021721777 0.0074806646

action_model._discrete_distribution.branches.1.weight f4 [19, 128]
000000 08 21 1b 3c 22 f1 a7 3b e3 a9 26 3c 82 30 03 bc
       0.0094683245 0.005125181 0.01017234 -0.008007171
000010 ca 7e a9 ba 83 f0 91 3b 0d fa b4 3c cc 70 c4 ba
       -0.0012931463 0.00445372 0.02209189 -0.0014987229
000020 b6 7b 23 bc 03 08 ad 3c a6 9f 47 3a f7 db 66 bc
       -0.009978225 0.021121984 0.0007615037 -0.01409053
000030 17 54 18 bc 2b b3 24 3a 8e ac 66 3a ce f0 74 3c
       -0.009297392 0.00062828016 0.00087995164 0.01494999
000040 6e e7 e0 bb 18 40 82 3c 71 27 0a 3c 8b 90 50 bc
       -0.006863526 0.015899703 0.008432255 -0.012729774
000050 49 d6 41 3c da 89 b9 3c 58 55 0e 3c 18 1f 27 3c
       0.011830875 0.02264874 0.00868734 0.010200284
000060 18 e1 02 bc 48 e2 2a 3a ed 31 b0 bb 1e 7c d8 3a
       -0.007988237 0.0006518704 -0.0053770454 0.0016516482
000070 da 00 50 3c db 52 67 3c 16 cf 91 3b dd c0 aa bc
       0.0126955155 0.014118875 0.0044497354 -0.020843918
000080 a0 b4 ad 3b f0 fc 3a bc c8 94 b9 bb 4c 8f ef 39
       0.005301073 -0.011412844 -0.005663488 0.00045692397
000090 58 a8 45 3c d8 23 ca 3b 6a b6 38 ba d7 f9 77 3b
       0.012064062 0.0061688237 -0.0007046225 0.0037838125
0000a0 78 97 44 3c 2b db e5 3b a6 86 01 3c cf 4d 82 ba
       0.011999004 0.0070146522 0.007905638 -0.0009941402
0000b0 bf 4c 31 3c 44 ed 64 3c f7 83 29 3c 0e 7e 63 3c
       0.01082152 0.013972584 0.010346404 0.013885034
0000c0 a4 6c ad 3b 85 11 a4 bc c5 40 c4 bc 2e f6 02 3c
       0.005292492 -0.020027885 -0.023956666 0.007993264
0000d0 e3 11 18 bb 76 2b 8f bc 6a 1e db bb 80 ac f4 3b
       -0.002320402 -0.017476778 -0.0066869752 0.0074668527
0000e0 8d 95 8e 3b 88 7c 36 3c c9 65 40 3b 4b 3e 5b 3c
       0.004351324 0.011138089 0.0029357544 0.013381551
0000f0 15 59 0c 3c 72 3a 85 3c 33 f8 89 bb 0f 21 4f 3a
       0.008566161 0.01626322 -0.004210496 0.00079013495
000100 97 f7 ab ba f6 bc 3f bb 05 40 52 3c 23 0f 72 3c
       -0.0013120052 -0.0029256917 0.012832646 0.014774117
000110 0e 95 95 bc c6 af 30 ba 90 8a 6f 3c f6 f6 99 bb
       -0.018259551 -0.00067400595 0.014620438 -0.0046986295
000120 0a 28 5d 3c 7a 5b 47 3c 70 f5 85 3b 77 76 4e 3c
       0.013498316 0.012167806 0.0040880963 0.012601486
000130 58 ce 9d 3c b6 ff dc 3c 3b 0b 13 3b 67 3b da bb
       0.019263431 0.026977401 0.0022437114 -0.0066599133
000140 44 71 f7 bb 20 16 28 3c da 3f 34 bc 3b e4 8e 3c
       -0.007551344 0.010259181 -0.0110015515 0.017442813
000150 34 4b c5 bb af c4 6f 3c ba 20 0c bb 4d cd 14 3b
       -0.006020928 0.014634295 -0.0021381811 0.0022705377
000160 9f 13 97 3b 72 a7 d3 3b cd ff 79 3a 73 f4 6a 3c
       0.0046104933 0.00645917 0.00095367135 0.014340508
000170 70 45 eb 3a d5 5c 87 3c 1e b7 da 3a 07 7b 12 bc
       0.0017949771 0.016523758 0.0016686653 -0.008940465
000180 38 30 a2 3b 75 eb 99 3c fe 3d 05 3c 63 7f ad 3c
       0.004949596 0.018789032 0.008132456 0.021178907
000190 24 b5 f5 39 47 72 17 bb 8b 73 47 3c 04 8a 76 bb
       0.00046865002 -0.0023108886 0.012173544 -0.0037618885
0001a0 3e aa de bb 49 7d 9d 3b 89 b7 16 3c f3 d4 5e 38
       -0.006795197 0.004806195 0.009199032 5.312725e-05
0001b0 6b de 02 3b 7f fb 9f 3c c2 39 2a 3b 27 d3 e5 bb
       0.0019968997 0.019529102 0.0025974368 -0.0070136967
0001c0 3f 57 d7 3b cb 78 0b 3c 6e 95 d3 3b 45 81 22 3a
       0.00657168 0.008512686 0.0064570224 0.0006199072
0001d0 a5 80 93 bb e4 3c 4a 3b 9f 12 ec ba f1 89 5d bc
       -0.0045014196 0.0030859048 -0.0018010921 -0.013521657
0001e0 89 23 68 bc ea 46 27 3c cf 22 ae 37 5a 26 1c 3b
       -0.0141686285 0.010209778 2.0758625e-05 0.002382657
0001f0 aa b9 a0 3c d7 b9 ed ba 42 2a 65 bb 9e a2 1b 3c
       0.019619782 -0.001813705 -0.0034967815 0.00949922
000200 ba 35 39 3c 0e 88 8a 3c 05 a7 25 3c 87 0f f2 bb
       0.011304313 0.016910579 0.010110621 -0.007387105
000210 22 f5 73 bc 38 94 7c bb 48 45 89 3c 11 27 75 b9
       -0.014889987 -0.0038540494 0.016756669 -0.00023379574
000220 a9 59 8b bb 9c 95 0d bc a8 11 c4 b9 36 05 a7 bb
       -0.0042526317 -0.008641627 -0.00037397188 -0.0050970567
000230 e0 99 11 3b 8d 79 1f 3b d8 f2 3f 3b 18 31 21 3b
       0.002221696 0.0024333925 0.0029289033 0.0024595913
000240 0b f9 48 bc 23 07 07 bc cd b8 1d bb 53 30 42 3c
       -0.012266408 -0.008241448 -0.0024066449 0.011852342
000250 05 4a ca 3b 85 bd 17 bc f4 40 9f 3c ec 7f 09 ba
       0.0061733746 -0.009261494 0.019440152 -0.0005245197
000260 4a ca cf 39 54 e8 96 bc 4b 1a 07 3c fc 92 b4 3b
       0.00039632834 -0.01842133 0.008246015 0.005510686
000270 17 77 41 bc 9b dc 4d 3c 2d 1e 35 bb b2 cf 83 3b
       -0.011808178 0.0125648035 -0.0027636394 0.004022562
000280 6e 7c 36 3c ee 20 35 bc 82 03 d6 bb 5e 41 3f bc
       0.011138065 -0.011055214 -0.00653118 -0.0116733
000290 24 64 0c 3b 8f e0 b6 bb 4d f4 9c bc 1e e1 06 bc
       0.0021421993 -0.0055809687 -0.01915946 -0.008232383
0002a0 d9 a1 4b bc 69 66 06 3b a0 48 5b bb 5d ce b2 b9
       -0.012428724 0.0020507819 -0.0033460036 -0.00034104558
0002b0 40 17 fe 3c 2d 64 2d bc 1a d2 aa bb a4 00 82 ba
       0.031016946 -0.010582966 -0.0052130343 -0.0009918404
0002c0 9c 09 3b bc 6b 78 48 bb 6f 31 06 3b 9a c9 12 ba
       -0.011415865 -0.0030589353 0.0020476242 -0.0005599499
0002d0 6b 92 8b bc 06 c3 e4 bc 35 f9 63 3c 8f f3 1d bb
       -0.017037591 -0.027925026 0.013914396 -0.002410147
0002e0 c6 c3 39 bb 32 52 ad 3b da 00 ad bb f6 05 17 3c
       -0.002834545 0.0052893395 -0.0052796425 0.00921773
0002f0 91 55 d4 bb e7 a7 d3 bb 89 f6 fb 3b c0 1a 9b 3a
       -0.006479927 -0.0064592245 0.0076893014 0.0011833534
000300 c4 e5 99 3a 33 46 aa bc 08 50 36 3b 1f 57 1e 3c
       0.0011741449 -0.020785427 0.0027818698 0.009664326
000310 3d fe 26 bc 1c 1a 85 bb a3 a9 de bc 4e 17 0f 3b
       -0.010192451 -0.0040619504 -0.027180498 0.002183396
000320 27 cf 75 3c cf c2 3f bc 84 a0 dc 3a b2 ad 9c 3c
       0.015003002 -0.011704161 0.0016832505 0.019125793
000330 a4 14 4c bb 4d 07 6e bb 61 a6 db ba 43 26 13 bc
       -0.0031140232 -0.003632027 -0.0016757959 -0.00898129
000340 fe 8a 4f 3c 9e 3f 47 bb 53 27 99 bb 05 a2 90 bc
       0.012667416 -0.003040291 -0.0046738773 -0.017655382
000350 54 c0 9b bc 2f 01 06 bc ff 83 11 ba e6 cb 89 3a
       -0.019012608 -0.008178993 -0.000555098 0.0010513037
000360 b1 e4 04 3a 89 9c 25 3c a2 2c 33 3c ca 08 02 3b
       0.0005069478 0.010108122 0.010935934 0.0019841664
000370 44 fd 96 bc 33 45 1c 3b 16 a2 03 bb f7 d6 f2 3a
       -0.018431313 0.0023844957 -0.0020085624 0.0018527199
000380 34 3f 11 3c 80 05 1e 3c 98 a7 91 bc bd d3 6c 3c
       0.008865166 0.009644866 -0.01778011 0.014454779
000390 b2 2f 93 ba 8d ef 83 3b 74 92 b0 3b c0 84 95 3c
       -0.0011229424 0.0040263594 0.0053885523 0.018251777
0003a0 ad 68 57 bc ae 84 41 3c 71 b3 31 bc 98 59 0f 3b
       -0.013147515 0.011811418 -0.010846005 0.002187347
0003b0 b5 a0 8e 3c 23 99 ce b9 0b 36 37 bc 80 ec 10 bc
       0.017410615 -0.00039405478 -0.011182318 -0.0088454485
0003c0 6a d2 2b bc c7 53 26 3c 00 51 a5 bb 58 53 41 3c
       -0.010487178 0.01015181 -0.0050450563 0.011799656
0003d0 33 f5 8b 3b ee 3f c2 3b 6a b7 17 bc b0 1a 9b 3a
       0.0042711734 0.005928031 -0.009260038 0.0011833515
0003e0 9a 49 b3 bb 90 f8 de bb 1a 21 7d 3c 94 81 45 3c
       -0.0054714205 -0.0068045333 0.015449787 0.01205482
0003f0 a2 a9 55 bb bd b4 f2 bb 53 6d ec bb 99 62 89 bc
       -0.003260233 -0.0074067996 -0.007215181 -0.016770648

action_model._discrete_distribution.branches.2.bias f4 [15]
000000 d9 23 e1 3b b8 36 c4 bb e2 d5 7e bb ab dd 88 bc
       0.0068707285 -0.0059879683 -0.0038884808 -0.016707262
000010 68 ba 05 3b f6 06 7e 3b 95 12 bd bb df 76 d0 3b
       0.0020405296 0.0038761473 -0.0057700374 0.006361827
000020 90 56 4a b9 0c 6e a5 3c 00 d9 96 bc 5b 42 b3 3b
       -0.00019296468 0.020194076 -0.01841402 0.0054705567
000030 b1 73 8d 3b b9 e3 a6 bb ca dd 12 3c
       0.00431677 -0.0050930646 0.008964011

action_model._discrete_distribution.branches.2.weight f4 [15, 128]
000000 c7 e6 ac ba 3b a5 5c 3c a2 6a 48 bb bd c4 b3 3b
       -0.0013191336 0.013467128 -0.0030581136 0.0054860995
000010 1f e6 bb bc 42 4b 0d bc 22 64 61 3c 9e 05 12 3c
       -0.022936879 -0.0086239 0.013756784 0.008912472
000020 c3 a7 4d 3c ae df 3a 3b 2f 7d 1c bc fc 69 37 3b
       0.012552205 0.002851467 -0.0095513305 0.0027986756
000030 89 eb 80 ba 0d 0e 71 3c ae 2b 70 bc 1d 00 c0 bc
       -0.000983582 0.014712823 -0.014658852 -0.023437554
000040 c2 c6 2c bc 62 3c ba 3a 38 0f 92 3b e7 41 ce 3b
       -0.010545434 0.0014208669 0.0044573806 0.0062944773
000050 04 0f 81 3b 18 37 b8 3a 4a b2 76 bc 80 fd 18 ba
       0.0039385576 0.0014054505 -0.015057156 -0.0005836114
000060 31 7a 47 bc 04 10 04 bc 2c 6e 45 3c 88 fc f3 3b
       -0.012175129 -0.008060459 0.012050193 0.0074458756
000070 49 af b6 bc ed 0e 62 3c ae d6 d6 b8 35 c7 bc bc
       -0.02230038 0.013797504 -0.000102443024 -0.023044208
000080 f2 64 83 bc e5 cb 32 3c 3b 96 b4 bc de ec 85 3c
       -0.016039345 0.01091287 -0.022044292 0.016348299
000090 a9 26 dd 3b b2 24 53 3b ef d2 41 3c 7d 89 15 3b
       0.0067489934 0.0032217917 0.011830076 0.0022817545
0000a0 2c 31 2f bc d2 60 07 3b e9 7c bf bb af 98 00 3c
       -0.010692876 0.0020657075 -0.005843748 0.007848903
0000b0 47 3f 07 bc a3 74 94 bc 21 c5 bc bb 2f 6b 4c b9
       -0.008254833 -0.018122023 -0.0057608043 -0.00019494885
0000c0 e8 6c 05 bc 87 c6 9e b9 df 89 8b bc a4 7c 08 bb
       -0.008143641 -0.00030284023 -0.017033515 -0.0020826245
0000d0 15 e9 49 3c 65 c0 62 bc 3e 72 91 bb ce 41 13 3c
       0.0123236375 -0.013839816 -0.0044386676 0.008987857
0000e0 40 60 64 bc 8f 47 26 3c 40 e1 41 3c d9 47 52 3a
       -0.013938963 0.010148897 0.011833489 0.00080215704
0000f0 9a 04 91 3c ee 26 d3 bb 78 f7 a8 3b 6d 8a a1 bc
       0.01770239 -0.0064438498 0.0051564537 -0.019719327
000100 d0 bf 01 bc d1 56 f4 bb 51 6a a8 39 bf 94 ed ba
       -0.007919267 -0.0074566384 0.0003212267 -0.0018125995
000110 0e 82 76 bb 7a 84 37 bc 0e 0a 90 bb c5 32 9b bc
       -0.003761414 -0.0112010185 -0.00439573 -0.018945107
000120 8a 67 da 3a 88 b1 52 3c 09 ba f9 ba 3a 65 f8 3b
       0.0016662937 0.01285971 -0.0019052635 0.0075804265
000130 6d 07 a6 bb 90 81 4e 3c 26 95 5e bc 58 f0 4e bc
       -0.005066803 0.012604132 -0.013585364 -0.012630545
000140 83 77 c2 bc 98 07 23 3c 3e 06 a9 bb 54 fc d6 3b
       -0.023738628 0.009950541 -0.005158215 0.0065608416
000150 7b ee c0 bc f1 e6 4a bc 66 ed 26 bb 32 ff a1 bb
       -0.023551216 -0.012384162 -0.002547109 -0.0049437517
000160 05 c5 03 bc 09 b2 97 bb 49 7b 4e bc 25 ac 34 3c
       -0.008042579 -0.0046293777 -0.012602636 0.011027371
000170 39 87 65 ba b6 4c 46 bb 6c 2a 68 bc b2 60 af 3a
       -0.00087558065 -0.0030258126 -0.01417027 0.0013380258
000180 b3 cb 66 3c fd dc 32 3c 9c e1 58 bc 53 24 83 39
       0.014086652 0.0109169455 -0.013237383 0.0002501333
000190 e4 33 43 3b 4b 85 94 b9 6d 3f 88 bc 14 0c d6 3b
       0.0029785568 -0.0002832807 -0.016631806 0.0065322015
0001a0 6d d9 1d bc fb ad 85 3b 8c e0 a7 b9 28 84 e6 3b
       -0.009634358 0.004079578 -0.00032020023 0.007034797
0001b0 06 e1 ae 3c 67 2e e7 3a 9d 88 4a 3c 29 51 e2 bb
       0.021347534 0.001763773 0.012361673 -0.0069066477
0001c0 38 76 c7 bc 8c 9d 14 3c cf 08 c1 3c e5 24 53 bc
       -0.024348363 0.009070765 0.02356377 -0.012887214
0001d0 89 46 8c bc 67 f3 02 bc 5f 25 95 3a ed 8c ac 3b
       -0.017123478 -0.007992602 0.0011378935 0.005265823
0001e0 dc 34 af b9 4b 7a 26 3b ec d2 94 b9 6a b2 94 3c
       -0.00033417984 0.0025402482 -0.0002838591 0.01815148
0001f0 6b c4 12 bc fb e4 7f bc 99 a1 cb 3b 8f 78 7d bc
       -0.0089579625 -0.015618558 0.0062143323 -0.015470638
000200 7c 84 2d bc 7a ec 14 3b 0a f3 45 3c b5 dc c6 b9
       -0.010590669 0.0022723959 0.012081871 -0.00037929942
000210 f3 6f bb 3b 96 75 f9 bb a3 54 cf 3a d2 a2 75 3b
       0.0057201325 -0.0076128943 0.001581807 0.0037481082
000220 df 8a 48 bb 3e 6a 75 3c 0e 0b 9a 3c 2d ff 69 3b
       -0.0030600352 0.014978943 0.0188041 0.0035705075
000230 fa 40 53 bc 8c 1d a1 bb aa 92 f1 bb 50 7e 9d 3b
       -0.01289391 -0.0049168523 -0.00737222 0.0048063174
000240 65 51 b5 3a 5f d1 3a 3c 35 9b a8 3b 88 94 18 3c
       0.0013833462 0.011402457 0.0051454552 0.009312756
000250 a8 54 37 3b b4 57 a9 3c 37 92 0b bc 58 ec f0 3b
       0.0027974043 0.020671703 -0.008518747 0.007352393
000260 dd d7 12 bc a9 7e b6 bb b8 a9 fc 3b 9c d5 09 bc
       -0.008962599 -0.0055692983 0.0077106617 -0.008412745
000270 72 32 80 3c ce 03 25 3c cc 4d 5f 3c 5d 83 40 bc
       0.015649054 0.010071708 0.013629388 -0.011750069
000280 f5 76 7c 3c 0a 08 fc 3b 66 17 0e ba 7e 0b 66 3c
       0.015409221 0.007691388 -0.0005420357 0.014040826
000290 a3 a8 11 3c 49 bb bd 3b 8c 46 99 3b fe ec 26 3a
       0.008890304 0.0057901484 0.0046775993 0.0006367712
0002a0 8b fd 8d bb e0 e0 04 3c 80 ea 7a 3c cb 18 8d ba
       -0.004333203 0.008110255 0.015314698 -0.0010764835
0002b0 16 98 c7 3c 9c 11 1a 3c 90 4f 8e ba 51 65 37 ba
       0.024364512 0.009403612 -0.0010857452 -0.00069959933
0002c0 99 32 bd 3c 2c 58 47 bc ff 6e ca 3a 14 b2 71 3c
       0.023095416 -0.012167018 0.0015444456 0.01475193
0002d0 02 24 3d 3c d2 4d 6a 3c d9 49 68 3b 12 75 56 3c
       0.011544229 0.01430078 0.0035444407 0.013089435
0002e0 13 a5 57 3c 2f 1e d4 3b 1c 4a 26 bc 94 0f 82 3a
       0.013161915 0.0064733247 -0.010149505 0.0009922856
0002f0 26 aa 88 ba f8 d7 5a 3c 61 5f 8f bc 30 37 4d 3c
       -0.0010426685 0.013357155 -0.017501535 0.012525365
000300 ae 4a 2b 3c 3d 4a 08 3d 73 85 e2 3b 14 93 6b 3a
       0.010454817 0.033273924 0.006912881 0.0008986455
000310 29 08 73 3a 98 7e 49 3c aa 69 72 3c 6a ee 97 3c
       0.00092709303 0.012298249 0.0147957 0.018546302
000320 37 51 a9 3c 3c 6b 17 3c 42 b5 36 3b fa b3 9d 3c
       0.020668609 0.009241875 0.0027879034 0.019250859
000330 e7 99 2b bb fa 88 a5 3c d8 13 65 3a 6b af e0 3b
       -0.0026184262 0.020206917 0.00087386137 0.006856849
000340 c2 ba 14 3a f4 5a 95 bb e0 88 c2 ba 25 1b 2c 3c
       0.0005673581 -0.0045579616 -0.0014841817 0.010504519
000350 ca d3 d9 39 0b 09 f0 b9 95 25 62 bc 43 12 1c 3b
       0.0004154726 -0.00045783105 -0.013802906 0.0023814596
000360 78 63 fd 3b e1 4c ea 3c 53 94 3a 3c 87 36 98 3c
       0.007732805 0.028601112 0.011387902 0.018580688
000370 dc 8c 04 3c c9 8b c4 3c 1d 35 12 3c 60 83 42 3c
       0.008090224 0.023992436 0.008923796 0.011872143
000380 d5 7a 20 3c ac 7a 9d 3c 14 d5 2d 3b 93 09 b2 3c
       0.00979491 0.019223534 0.002652471 0.021733081
000390 c1 bf 38 3c 64 7f 05 bb 9e c8 0b 3b 95 3b c1 3c
       0.011276186 -0.002037012 0.0021329294 0.023587981
0003a0 72 70 0e 3c e5 6a 85 3b 1a 82 ef 3c 03 de ad bb
       0.008693801 0.0040715807 0.029236842 -0.005306007
0003b0 78 bf 89 bb 75 17 2f bc 87 50 7b 3c b5 15 43 3c
       -0.004203733 -0.010686745 0.015339023 0.011907031
0003c0 b4 5c 2b 3c 96 52 66 3c 8e 15 4d bc cf 23 c2 3c
       0.010459114 0.014057776 -0.012517346 0.023698715
0003d0 2e fa ab bb 72 a5 a8 3c 9c 07 7c 3c 3c e7 b0 3a
       -0.0052483296 0.020586703 0.015382674 0.0013496648
0003e0 58 f9 54 bb d9 6d 5f 3c cb bf f9 3b 83 d1 50 bb
       -0.0032497253 0.01363703 0.0076217405 -0.003186316
0003f0 33 0b 98 bb 93 10 5c 3c 81 5f 25 3c e2 ba 03 3b
       -0.004640007 0.013431686 0.010093571 0.0020100405

action_model._discrete_distribution.branches.3.bias f4 [9]
000000 4f 1d 31 bb e8 c0 b0 3b a6 30 6a 3c 9e 24 82 ba
       -0.0027025526 0.00539409 0.014293825 -0.0009929126
000010 6d 68 47 bc a9 3f ce b9 f4 a4 4d bb 75 d4 ce ba
       -0.012170893 -0.00039338812 -0.0031378837 -0.001577987
000020 91 2a b7 3b
       0.005589791

action_model._discrete_distribution.branches.3.weight f4 [9, 128]
000000 93 b1 c3 38 7e cf 10 3b a5 03 8d 3c a4 84 1a 3c
       9.3314e-05 0.0022096331 0.017213652 0.009431038
000010 b9 d9 8d 3c a4 90 62 bc b9 f3 64 bb 0a e1 6e bb
       0.017315732 -0.01382843 -0.003493531 -0.0036450052
000020 33 9c 28 3c c6 69 e7 bb 47 11 a9 3b 37 71 c9 bb
       0.010291147 -0.0070621697 0.0051595303 -0.0061475295
000030 e6 1d 52 bb 0a 7d b5 3b 8d b4 ef 3b d5 1d c6 3c
       -0.0032061278 0.0055385875 0.0073152245 0.024184147
000040 ed 7f 23 bc c8 0f 10 3c cb 12 b3 3b b8 e0 5d 3c
       -0.00997923 0.008792825 0.005464887 0.013542347
000050 6a c1 ed 39 03 95 55 3c 81 6c 73 3b d8 3c 0f 3b
       0.00045348267 0.013036015 0.003714353 0.0021856334
000060 57 9d 09 3c 19 4c 75 3c 5a 4f 03 3a 77 85 05 bc
       0.008399329 0.014971756 0.0005009078 -0.008149496
000070 8a d0 e3 bb f8 cd c0 3b 94 49 69 3c aa 2d 0f 3c
       -0.00695235 0.0058839284 0.014238734 0.0087389145
000080 75 9a 2f ba 90 97 ce 3b 3d c8 5b bc d3 4a 0c bc
       -0.0006698736 0.0063046888 -0.01341444 -0.008562761
000090 dd 27 70 3b 8d 80 66 3c 41 40 14 3c 23 4e 85 3b
       0.0036644854 0.014068735 0.009048522 0.0040681525
0000a0 72 89 70 bc 2b df 90 3c d2 e7 c7 3b b4 77 56 3b
       -0.014681207 0.01768454 0.006100633 0.0032725157
0000b0 b0 d0 a1 3c e6 21 bc 3b e8 1e 38 3c dd 58 7f bb
       0.01975283 0.0057413457 0.011237837 -0.0038962879
0000c0 4b ec 38 3b 77 bd 60 3b 6c 69 9c ba 31 d8 8b 3b
       0.0028217013 0.0034292617 -0.0011933274 0.0042677154
0000d0 71 58 02 3c 1d e2 b3 3a b6 b8 a3 bc 20 15 de 3b
       0.007955656 0.0013724003 -0.019985538 0.0067774206
0000e0 f3 ab 3e 3c 59 4d 1a 3c b4 d2 91 3b cf 0e 14 3b
       0.011637676 0.009417855 0.0044501666 0.0022591834
0000f0 af 78 6c 38 b0 0c cd b9 6b 2b 12 bd 6e b4 2a 3c
       5.637918e-05 -0.000391101 -0.035685938 0.010418994
000100 5b f7 11 3b 06 31 0e 3b 98 4b 0d 3a b9 29 bd 3c
       0.002227268 0.00216967 0.00053899875 0.023091184
000110 0e c9 fa bb 09 19 97 3a b3 83 e0 3b 26 a2 e9 3a
       -0.007653362 0.0011527847 0.0068516373 0.0017824813
000120 95 87 e5 bb 91 19 7a ba 76 4c 11 3b 5b 02 c7 3b
       -0.007004688 -0.0009540553 0.0022170818 0.006073279
000130 03 d7 01 3c 24 d2 6d bc e4 6c 02 3a 91 b2 16 bb
       0.007924798 -0.014515433 0.00049753324 -0.0022994617
000140 53 de 2a 3c 61 0d 76 3c b1 3c c4 bc 05 eb db bb
       0.010428983 0.015017838 -0.023954721 -0.006711366
000150 4a 10 db 3c 7f ab 29 ba 20 68 0e 3b 4b 19 15 3b
       0.026741166 -0.0006472393 0.0021729544 0.0022750671
000160 66 f7 ff bb 82 69 86 3a 7a d8 d9 ba 66 a2 2d 3a
       -0.0078114746 0.0010254832 -0.0016620301 0.00066236255
000170 c2 26 91 3b a7 52 8f bb 5d cd 5d 3c 31 25 b0 3b
       0.004429669 -0.0043738666 0.013537732 0.0053755273
000180 c3 a0 66 3c a7 62 40 bb 19 a8 c6 3c 5f 79 0a 3c
       0.0140764145 -0.0029355676 0.024250077 0.008451789
000190 93 a3 42 3c 5f b2 0e 3c 4d b3 17 bb a7 dd 05 3c
       0.011879819 0.008709519 -0.0023147643 0.008170522
0001a0 e0 65 8f 3c 6b 77 c9 3b 1f ee 85 ba 5f d5 41 3a
       0.017504632 0.006148269 -0.001021806 0.00073941605
0001b0 07 ed 83 bc 7e 36 66 3c 0b eb 4f 3c 79 0b 14 3c
       -0.016104234 0.014051078 0.012690316 0.009035938
0001c0 8d 21 05 3c 72 9f 95 bb 0d 63 4a 3b 39 a8 a6 3c
       0.008125675 -0.0045661265 0.0030881793 0.020343887
0001d0 a9 81 1c 3c bc 9d ca 3b 86 95 71 3c 6d 8c 03 3c
       0.009552398 0.006183354 0.014745122 0.008029086
0001e0 b0 e7 4c bc b0 f8 73 3c 86 76 77 3c a1 f9 54 3b
       -0.0125064105 0.014890835 0.015103942 0.0032497423
0001f0 b7 ac f9 ba 07 d1 71 3c 15 7a e8 bb 79 eb 09 3c
       -0.0019048665 0.014759309 -0.0070946314 0.008417957
000200 b7 4d 08 3c 47 cc e3 3b d4 20 3b 3c 28 e7 79 bb
       0.00831931 0.006951842 0.011421401 -0.0038132165
000210 91 70 a5 3a ce e0 0b bc f7 e0 67 3a de 71 dd 39
       0.0012622048 -0.008537484 0.0008845473 0.00042237242
000220 2c 6d 48 bc 84 ca ac bc 31 6a d5 bb 40 a5 8c 3b
       -0.01223306 -0.02109266 -0.006512903 0.0042921603
000230 0e 16 03 bc c0 59 24 3c 97 18 83 bb 56 02 1a b9
       -0.008000864 0.010031164 -0.004000734 -0.00014687455
000240 61 4e 7f 3b 12 ca 02 bc 95 d4 09 3c 64 ee c0 bb
       0.003895663 -0.007982748 0.0084125 -0.0058877934
000250 81 01 7b 3b 91 6a 22 3c a7 52 05 bb b5 18 0d bc
       0.0038300457 0.009913103 -0.0020343454 -0.008611848
000260 e2 84 73 bc 0f 54 c3 bb 64 96 1c 3b bd 64 76 bb
       -0.014863225 -0.0059609483 0.002389335 -0.0037596666
000270 4f 91 8f bb c1 06 36 bb 06 27 e9 39 7b 22 f9 bb
       -0.004381336 -0.0027775022 0.00044470298 -0.0076029873
000280 16 c5 8d 3a 4d 88 8c 3c 75 ed 41 bc 0e 0c fd 3b
       0.0010816182 0.017154837 -0.011836399 0.0077223843
000290 c0 f9 e0 3a 5b 64 dc 3b b2 a3 87 bb e0 8f 8a bb
       0.0017164275 0.0067258305 -0.004139387 -0.004228577
0002a0 1b db 83 bc 49 d0 b8 bb 73 a9 11 3c f1 1f 04 3c
       -0.016095689 -0.005640064 0.0088904975 0.008064256
0002b0 71 a0 9a bb 30 68 62 bc 81 76 5c bc 48 01 15 3b
       -0.004718833 -0.013818786 -0.013455988 0.002273636
0002c0 ed ac 47 bc da f8 51 bc d9 49 c0 bc 11 ce 2f 3c
       -0.012187225 -0.0128156785 -0.023472713 0.010730282
0002d0 57 d5 10 bc 3d 3f 9b bb fe d7 50 3a b7 7d b4 3b
       -0.008839927 -0.004737763 0.00079667557 0.0055081504
0002e0 a9 67 14 bb d9 4f 41 3b 4b a5 f2 3b f6 a4 fa 3b
       -0.0022644794 0.0029497056 0.0074049584 0.0076490594
0002f0 d2 dd 0e 3c dd 13 c5 bc 3c d7 44 ba 86 c1 86 ba
       0.008719878 -0.024057323 -0.0007508879 -0.0010281063
000300 62 ab 2a 3b a0 b6 35 bc b2 3d a6 3b 4b 51 68 b9
       0.0026042094 -0.0110909045 0.0050732726 -0.00022155528
000310 15 28 27 ba 78 9a 87 3b ab e3 0c 3c f9 bf 4c 3a
       -0.0006376517 0.004138287 0.008599202 0.00078105886
000320 8c 16 e7 3a f4 2b a3 ba 75 a8 ff b9 7c b3 c4 bb
       0.0017630621 -0.0012449012 -0.000487629 -0.0060028415
000330 74 ff e6 bb 6a d9 fe 3a de 28 88 ba 02 02 f8 3b
       -0.0070494954 0.0019443457 -0.0010388156 0.0075685987
000340 58 26 6e bb 81 53 3e 3c 68 89 e6 ba 71 06 89 bc
       -0.0036338773 0.011616589 -0.0017588558 -0.016726704
000350 d8 dc d6 bb a4 65 71 3c 9f 32 87 3c 71 07 73 bc
       -0.0065570883 0.014733706 0.01650363 -0.014833317
000360 ea 0d 37 3c 5b 0c 0d 3a 81 07 85 3b d0 cb ad 3b
       0.011172751 0.0005380564 0.0040597324 0.0053038374
000370 f6 29 ce 3b ec 78 b5 3b 5f 4a 31 bc 5f e7 06 3c
       0.006291623 0.0055380967 -0.010820954 0.008233874
000380 22 8d 9f 3b f0 79 4c bb 25 b0 11 3c 8b b9 e3 3b
       0.0048691193 -0.003120061 0.008892094 0.0069496087
000390 f3 f4 95 3b 23 71 93 bc 30 bd 88 bb 7a 53 d3 bb
       0.0045763194 -0.017998284 -0.0041729435 -0.00644916
0003a0 c4 f7 e4 3b 59 3e 88 3c cc 5d 8a bb c4 76 55 bc
       0.006987544 0.016631292 -0.0042226072 -0.013028804
0003b0 9b 14 75 3c 05 77 9e 3c 98 3f 97 bb 2d fe 5c b9
       0.014958526 0.019343862 -0.0046157353 -0.00021075523
0003c0 1a ee 8d 3b 53 ae 3d bb 22 63 c2 3b fc b0 a6 bc
       0.0043313624 -0.0028943017 0.0059322277 -0.020348065
0003d0 3c 63 bd bc 23 e5 b4 bb 62 3d 5c bc 98 cf 1c 3b
       -0.023118608 -0.0055204793 -0.013442369 0.0023927446
0003e0 f6 a0 24 bc 01 1f 1a 3b b6 49 0f bc ec a7 66 3c
       -0.010048142 0.0023517015 -0.008745601 0.014078122
0003f0 95 d8 77 ba 1f 0e 80 bc 45 2e 2d 3c 78 a5 22 3c
       -0.00094545755 -0.015631733 0.010570114 0.009927146

discrete_action_output_shape f4 [1, 4]
000000 00 00 00 40 00 00 98 41 00 00 70 41 00 00 10 41
       2.0 19.0 15.0 9.0

network_body._body_endoder.seq_layers.0.bias f4 [128]
000000 67 e5 06 3b 98 33 2d bb 9c 26 24 bb 82 41 b8 ba
       0.0020583512 -0.0026428457 -0.0025047427 -0.0014057609
000010 c7 d7 19 bc 04 4d 56 bb cb ee 80 bc 37 79 60 3b
       -0.009389824 -0.0032699713 -0.015738865 0.0034251937
000020 9c 46 e6 3b 09 f9 d4 bb ce 6f be bb a8 92 6e bc
       0.0070274603 -0.006499414 -0.005811668 -0.014561333
000030 b6 ae 7f ba 6e c9 11 bc 67 0a 39 3a 41 b2 0a bc
       -0.0009753512 -0.008898122 0.000705874 -0.008465351
000040 00 2e 17 bc 68 ae b2 3a 4e c4 4f 3b 0c 00 98 bc
       -0.009227276 0.0013632299 0.00317027 -0.01855471
000050 78 a5 0c 3a 85 b3 0b bc 52 12 d1 bb 7a 6f 01 3c
       0.0005365233 -0.0085266875 -0.006380358 0.007900113
000060 51 86 73 bc 6e 15 25 3a 34 77 a2 bb 11 b2 06 bc
       -0.0148635665 0.0006297444 -0.004958058 -0.008221165
000070 4b 16 ed ba a8 eb 78 bc f8 27 30 bc 26 b9 09 bc
       -0.0018088309 -0.015192904 -0.010751717 -0.008405959
000080 99 a8 91 bc a6 23 fa ba 62 73 b4 bb 53 68 df bb
       -0.017780589 -0.001908411 -0.0055069188 -0.0068178563
000090 c8 0a 5b bc c5 10 55 39 a8 6c f6 ba 19 69 b5 bb
       -0.01336927 0.0002031951 -0.0018800693 -0.0055362103
0000a0 fa ce a2 3b f1 8d 1c bc 70 44 5f bb cd 3c 45 bb
       0.004968521 -0.009555326 -0.0034067892 -0.0030096055
0000b0 fb 6e 7b bb 5e 48 fd bb f3 92 6e 3a 4b 5c 1e bb
       -0.003836571 -0.007729574 0.00091008766 -0.0024163898
0000c0 b7 72 63 3c 8a e4 73 bc 0e da 9e bb ec be 9b bb
       0.013882331 -0.014886031 -0.0048477715 -0.0047529843
0000d0 9f ca 1e bc 7e c4 2b 3c a7 1a 65 3b d0 2f 1d bc
       -0.009691863 0.010483859 0.0034958513 -0.009593919
0000e0 4b 19 fb ba 01 d7 3d bc 07 6c 4d bb 3c db fe bb
       -0.0019157318 -0.011586905 -0.0031344907 -0.0077775996
0000f0 8a b2 17 bc ad d3 d9 bb 40 ac 40 3c 97 1e 66 36
       -0.009258876 -0.006647548 0.011759818 3.4290476e-06
000100 c9 41 92 bb 43 b9 87 bb 92 88 fb 3a 1a e6 f8 bb
       -0.0044634086 -0.004141958 0.0019190481 -0.0075957896
000110 87 3e 50 bc c6 38 4e bb 01 12 ac 3b 05 72 f0 3b
       -0.01271022 -0.0031466945 0.0052511697 0.007337811
000120 9a 2f 0b bb da 13 55 3b d2 57 87 ba 51 1b 8b bb
       -0.002123809 0.0032513053 -0.0010325855 -0.0042451997
000130 c1 66 cb ba 38 b2 e2 38 a2 79 c7 ba 7d c2 43 bc
       -0.0015518294 0.000108097156 -0.0015218745 -0.011948225
000140 3f 4f bc bb 60 ff 54 bc 18 37 5e 3b 9d db 70 ba
       -0.0057467516 -0.013000339 0.003390735 -0.00091879984
000150 fc b2 be bb 6f 1d df ba 62 8b bb bb 36 8c 73 ba
       -0.0058196764 -0.0017022322 -0.005723403 -0.00092906074
000160 b7 5a 84 3b f4 d0 d9 bb 78 e8 cb bb d5 35 91 bc
       0.0040391344 -0.0066472236 -0.006222781 -0.017725864
000170 48 5c 06 bc 24 ec c1 3a 66 0b 55 bc 9a 22 81 bc
       -0.0082007125 0.0014795107 -0.013003206 -0.01576357
000180 b6 dd 71 bc 35 99 7c bb 66 4c 96 bb 81 41 5c bc
       -0.014762333 -0.0038543467 -0.004586744 -0.013443352
000190 1c bc 69 bb ca 5a 9e ba b7 da 2c bc ae 43 2b bc
       -0.00356651 -0.0012081501 -0.010550193 -0.010453148
0001a0 b3 2e af bb 48 34 e9 3a e7 c3 ff 3b 42 19 31 3b
       -0.005346143 0.001779207 0.007805336 0.0027023111
0001b0 51 3a 91 3a 32 11 9f 39 0f fc 58 bc 5c f8 5f bc
       0.0011080002 0.00030339655 -0.013243689 -0.013670053
0001c0 2a f3 83 ba d0 a9 63 bc e3 ce 14 ba aa 17 36 bb
       -0.0010066975 -0.013895467 -0.00056765805 -0.00277851
0001d0 25 bc 90 3b 2c 60 da bb a5 5e 10 bc 32 96 e4 bb
       0.00441696 -0.0066642966 -0.0088116275 -0.0069759125
0001e0 3d e3 8a bb 82 25 90 bb 58 4f bb ba d5 d7 e6 bb
       -0.0042385147 -0.0043990025 -0.0014290614 -0.007044772
0001f0 ed 1a e1 ba c4 4a 57 bc 58 cb 92 bb b8 cc 76 b9
       -0.0017174162 -0.013140384 -0.004479807 -0.00023536652

network_body._body_endoder.seq_layers.0.weight f4 [128, 78]
000000 97 60 22 3e f8 a8 24 be eb 14 62 3e fd af 65 3d
       0.15857159 -0.16080081 0.22078292 0.05607604
000010 9d da 41 3e 64 25 ee bc 4f c4 5d 3e f2 62 34 3e
       0.1893105 -0.029070564 0.21656917 0.1761587
000020 53 0a e5 3d c9 cd 8b ba 4b dd 65 3e 14 4e c0 bd
       0.1118361 -0.0010666187 0.22447698 -0.09389892
000030 ee cd dd bc a1 29 9c 3d 5f 0e 6f bd 9b 96 dd bc
       -0.027075734 0.076251276 -0.058363315 -0.027049353
000040 a2 16 d3 bd c9 8b 3d be 8a 9c 09 3c fd 65 4c 3d
       -0.10307051 -0.18510355 0.008399138 0.04990195
000050 59 f1 2d be 35 d6 0e 3e 9b bf c7 bd 84 ad 63 be
       -0.16986598 0.13948901 -0.09753343 -0.2223416
000060 ed 8c 47 3d 81 f2 bc 3d 27 b8 2a 3e 31 68 66 be
       0.04871838 0.092259414 0.16671811 -0.22500683
000070 87 97 00 bd 70 2d a0 3d c2 21 52 bd 06 37 5e 3d
       -0.031394508 0.078211665 -0.051301725 0.054251693
000080 0e 4c 30 3c 3a ce d0 3a e6 fb 4d bd 9e 62 25 be
       0.01076032 0.0015930601 -0.050289057 -0.161509
000090 a2 f0 ef 3c 92 69 0e bd 78 ba 78 3d de 80 e6 3d
       0.029289547 -0.03476865 0.060724705 0.11255048
0000a0 13 16 23 3e 5c 41 89 bd 86 db 23 be fe 6b be 3a
       0.1592639 -0.067019194 -0.1600171 0.0014528034
0000b0 c5 94 42 bd 45 45 8d 3e 4e d7 db 3d 55 11 49 3d
       -0.04750516 0.2759191 0.107344255 0.049088795
0000c0 ef 30 da bd 1b 2c f4 bc 75 7b a1 3d 65 95 d5 3d
       -0.106538646 -0.029806187 0.07884876 0.10428885
0000d0 07 79 2b 3e c2 15 c0 b9 f6 e3 dc 3d 55 fe 77 3e
       0.16745387 -0.00036637305 0.107856676 0.24218114
0000e0 b8 32 0b be 3c 85 3c 3e a8 83 b7 bc 5a c0 6d 3d
       -0.13593566 0.184102 -0.022401646 0.05804477
0000f0 4b 03 30 bc c6 de c6 3d 34 ee 7b 3d f2 ba 88 bd
       -0.010742973 0.097104594 0.061506465 -0.06676282
000100 92 d2 0f be 96 20 66 3d 1c c7 f4 3d 54 f9 0b 3e
       -0.1404517 0.05618342 0.119520396 0.1366933
000110 68 86 37 3e e2 8f cc bd 02 4b 82 be 0b a2 1c be
       0.17922366 -0.09988381 -0.2544785 -0.1529619
000120 04 76 bc bd ca 0e 5d be cc 7a 8b 3e 6d ce 23 bd
       -0.09202197 -0.21587673 0.27242124 -0.039991785
000130 03 9b 9e bd 1b df af 3d 81 81 50 bd 43 3f c3 bc
       -0.0774441 0.08587476 -0.050904755 -0.023833876
000140 28 44 04 3e 74 34 64 3e d3 d4 c5 bd c5 fc 87 3d
       0.12916625 0.22285634 -0.096597336 0.06640009
000150 07 50 09 be 16 0d cb bd 51 b5 08 3e 80 18 7f 3d
       -0.13409434 -0.09914605 0.13350417 0.062279224
000160 de 4f d0 bd c3 b3 c1 bc 9c 50 08 be 30 c3 0a bd
       -0.101714835 -0.023645287 -0.13312 -0.03387755
000170 a2 17 8a 3d 11 e5 d5 3d 82 49 56 3d 0d c4 6a 3c
       0.06742789 0.104440816 0.052316196 0.014328969
000180 2c 27 ea 3d 52 fd 46 be 93 75 6b 3c c2 2a 3e 3b
       0.11433253 -0.19432572 0.014371294 0.0029017185
000190 e2 d2 a8 bc 17 38 8b bd 76 18 47 3e 3a 67 94 bd
       -0.02060837 -0.06797808 0.19442925 -0.072462514
0001a0 c7 ef 5c be c5 cc a6 3d fb c9 22 3e aa 58 2c 3d
       -0.21575843 0.081445254 0.15897362 0.042076744
0001b0 e9 82 b2 bd fd 94 d7 bd 15 8f 0e be e4 07 2e 3e
       -0.087163754 -0.10526464 -0.13921769 0.16995198
0001c0 d6 13 82 3e e2 ca b4 3d a1 4b 02 bd 21 4e 19 be
       0.2540576 0.08827759 -0.031810407 -0.1497121
0001d0 3c 4c 19 3e 7a e1 09 3e 40 3c 52 3d 6e 6b 70 bd
       0.14970487 0.13464919 0.05132699 -0.058696203
0001e0 69 d9 07 bc c6 ab 53 3d b8 a2 d8 bd cb 30 28 3e
       -0.008291581 0.051677488 -0.10577911 0.16424863
0001f0 a8 bd 02 be 43 43 2a be da d6 8f 3c d8 fc 59 3c
       -0.1276766 -0.16627221 0.017558504 0.013304912
000200 e4 56 1a bd ff e3 72 3e 0d c8 4b be 31 79 ee bd
       -0.03768052 0.23719786 -0.19900532 -0.11644209
000210 87 18 7e bb 22 43 d6 bd 0c 58 21 be ce 80 0c bd
       -0.0038771944 -0.10462023 -0.15756243 -0.034302525
000220 96 b3 08 be 3c 13 70 3b 00 5f 67 bd 27 67 cc 3d
       -0.13349757 0.0036632558 -0.056487083 0.09980612
000230 9c ca 72 3d 5a 31 7e 3c 39 2d b1 3c dd 44 0e bc
       0.059275255 0.015514696 0.02162801 -0.0086834105
000240 92 45 14 bd 0c 34 6d 3d 16 a4 c7 3d e7 1d ef 3d
       -0.03619916 0.057910964 0.09748094 0.11675625
000250 87 95 67 bc c3 31 c3 bd 99 27 12 3e 14 57 13 3c
       -0.014134771 -0.09530976 0.14272918 0.008992929
000260 d9 c6 31 bd 92 7a d2 3d 97 d5 13 3e 33 58 f8 bc
       -0.043402527 0.10277285 0.14436947 -0.030315494
000270 28 07 d9 3d 8b 31 7b 3d f9 00 91 be 1d f4 38 bc
       0.10597068 0.061326545 -0.28321055 -0.01128867
000280 af 68 99 bd c5 a1 a5 3d 60 de f3 3d b1 ac e6 bd
       -0.0749067 0.08087496 0.11907649 -0.11263407
000290 d5 c3 5e 3e 74 fa 86 3c 04 58 28 3d d6 91 9f 3d
       0.21754391 0.016476847 0.041099563 0.07791488
0002a0 ec 4e 02 3e 5c 9e 0d 3d 97 6a d3 3d 22 bb 79 3d
       0.12725419 0.03457485 0.10323065 0.06096948
0002b0 d8 e2 ec 3d 7c e9 08 bd ed 1a 83 bd 4b fc 8b be
       0.115667045 -0.033425793 -0.0640162 -0.27340922
0002c0 33 08 7c bd f6 05 fa 3d ee 30 f0 bd 78 0b 68 3d
       -0.061531257 0.12208168 -0.117280826 0.056651562
0002d0 2e 7b 6f be 71 a6 8c bd 25 77 7c 3d a2 cc ab bc
       -0.23386833 -0.06867684 0.061637063 -0.0209716
0002e0 44 87 17 be 75 4e b1 3d f0 06 31 bc b8 19 74 bd
       -0.14797693 0.086575426 -0.010804877 -0.05959484
0002f0 f6 b9 6e 3d 41 88 a0 bc ae ea d6 3d 05 07 0b 3d
       0.058282815 -0.01959622 0.1049398 0.03394224
000300 d5 ee 09 bc a6 a8 af 3d 93 29 b5 3c 87 97 90 bc
       -0.008418758 0.08577089 0.02211455 -0.017650379
000310 f3 66 13 be 4e 34 bf 3c 45 0b d1 bd 4c e0 18 be
       -0.14394741 0.02334037 -0.102072276 -0.14929312
000320 ed b5 53 3e ce d8 5d bd 99 5b e9 bd 72 c2 99 bd
       0.20674868 -0.05416184 -0.11394424 -0.075077906
000330 61 b1 2c bd 16 17 66 bb c2 78 0b 3e 61 5b e8 bc
       -0.04216135 -0.0035108975 0.13620284 -0.028363885
000340 35 f2 d2 3b d8 6a e1 3d 22 fb c3 3d 57 c7 9a 3d
       0.0064375647 0.11006707 0.09569384 0.07557552
000350 7e 4d c4 bd 5f 96 36 be a9 0a c9 bb 00 c4 39 3e
       -0.09585093 -0.178308 -0.006135304 0.18141174
000360 b0 c9 51 3e 39 3b b3 bd f7 16 e6 b9 42 b4 31 3d
       0.20487094 -0.0875153 -0.0004388613 0.043384798
000370 96 80 45 3e a2 6b dd bd ec 47 6b 3d 4d 1f 17 3d
       0.19287333 -0.10811545 0.057441637 0.036895085
000380 80 f8 c1 3a 0b fb 03 3e 77 6e fe 3d 60 e6 07 3d
       0.001479879 0.12888734 0.12423413 0.033178687
000390 a8 b4 09 3d 99 aa 9a bd 4b 7e ec 3c e9 b0 b7 3d
       0.033619553 -0.0755207 0.028868815 0.0896929
0003a0 5b ac 97 3d 04 f0 09 3e 4d 10 ec bc 5a 46 0a 3e
       0.07405921 0.13470465 -0.028816367 0.135034
0003b0 2a 17 f9 bc 1e 7f 78 bb 8d c3 c2 3b a5 41 74 be
       -0.030406553 -0.0037917565 0.0059437216 -0.23853166
0003c0 72 d0 85 3d 67 db 6b be 04 f8 d5 bd d4 d2 11 3e
       0.065338984 -0.23032914 -0.10447696 0.14240581
0003d0 f5 8a 4e bc c4 19 43 3d 97 be 6e 3d 44 73 3f be
       -0.012606372 0.047631994 0.05828723 -0.18696314
0003e0 a0 b7 34 3d 42 32 74 bd 6b 07 8a bc 4f 69 5b 3d
       0.04412043 -0.059618242 -0.01684924 0.053567227
0003f0 f8 f5 ff bd 0d 9e 08 bd e2 20 80 bd 21 fc 46 3e
       -0.12498087 -0.033353854 -0.06256272 0.19432117

network_body._body_endoder.seq_layers.2.bias f4 [128]
000000 42 45 0d bc e8 4f c8 bb ab 8c b4 bb bf 1f 80 bc
       -0.008622469 -0.006113041 -0.005509933 -0.015640138
000010 18 d3 a6 3b bd 84 fe 39 a6 a3 1d bc 8b 25 ef bc
       0.0050910823 0.00048545553 -0.009621536 -0.029192707
000020 a3 2d 82 bc aa f6 c8 3b 64 80 3c ba 4e 47 7e bb
       -0.015890902 0.0061329203 -0.00071907626 -0.0038799825
000030 63 c2 f1 ba 10 c4 07 bc 77 96 9e bb d3 71 bb bc
       -0.0018444773 -0.008286491 -0.004839714 -0.022881424
000040 83 1b 27 bc cb 1a c2 bb b1 75 c3 3b 33 69 3b bc
       -0.01019943 -0.005923604 0.0059649576 -0.011438656
000050 24 a0 53 bc 3c ac 66 bc 5a 41 ac bc 3f bf 28 bc
       -0.0129165985 -0.01407915 -0.021027256 -0.010299503
000060 88 71 f1 bb 51 fe 0b bc 55 64 b4 bb f8 1b c0 bb
       -0.0073682703 -0.0085445205 -0.0055051246 -0.005862709
000070 08 a7 b4 bc f5 f8 da bb 06 8b 23 bc 03 e8 43 3b
       -0.022052303 -0.00668251 -0.009981876 0.0029892928
000080 c6 55 4f bb 66 ed b5 bb 07 f9 59 3b 79 d7 1a 3b
       -0.0031636818 -0.0055519817 0.0033260004 0.0023626967
000090 98 21 36 bc 33 c2 bd bb 7e fb 57 bc 95 04 97 bb
       -0.011116408 -0.0057909726 -0.013182519 -0.0046087005
0000a0 a5 a2 e7 bb 3a a9 54 bb 41 42 33 3b 11 90 9b bb
       -0.0070689493 -0.00324495 0.0027352723 -0.0047473987
0000b0 b0 a2 cb 3a 75 52 92 bc 81 7f 09 bc a1 10 af bc
       0.0015536156 -0.017861584 -0.008392216 -0.021370234
0000c0 e6 fe 49 bc a9 90 ca bc 59 3a 6c bb 76 32 8b ba
       -0.012328839 -0.024727182 -0.003604552 -0.0010619897
0000d0 5d 91 42 bc 14 bc 29 ba 55 f7 57 ba 2b 88 17 bc
       -0.011875478 -0.0006474864 -0.00082384545 -0.009248774
0000e0 65 3f 39 bc 54 7c cb bb 18 02 82 bb c0 c0 22 bc
       -0.011306618 -0.0062098894 -0.0039675348 -0.0099336505
0000f0 5f e4 20 bc 83 cf fc bb 41 15 0a 3c b4 5d 67 bc
       -0.009820073 -0.007715167 0.008427919 -0.014121462
000100 45 b9 80 bc 16 c3 59 b8 4b 37 b3 3b 81 31 28 bc
       -0.015713343 -5.191852e-05 0.005469238 -0.010265709
000110 d4 f6 c2 37 62 fa cd bb 62 96 4f bc 53 5f 34 bc
       2.324154e-05 -0.0062859515 -0.012670131 -0.011009055
000120 fb 0c 27 bc 04 5b 78 bc f7 84 65 bc 58 6f ab bc
       -0.010195966 -0.015158419 -0.014008752 -0.020927116
000130 9d 51 bb bb 09 12 0f 3b f9 7c 31 bc 37 4b 49 b9
       -0.005716516 0.0021830818 -0.010833018 -0.00019196873
000140 50 e8 43 bc 69 b0 9b bb 4c 9a b3 bb 40 7c 3b 3b
       -0.011957243 -0.0047512543 -0.00548104 0.0028607994
000150 d3 14 07 bc d5 3a bb bb 54 14 cd 3b f4 8b cb 3b
       -0.008244711 -0.0057138004 0.006258527 0.006211752
000160 da 2d 76 bb bb 69 e7 b9 85 80 89 bb c9 45 78 bb
       -0.003756395 -0.0004413853 -0.004196229 -0.0037883392
000170 5a cb ed bb e7 b9 a7 bc 81 e5 44 bb a5 34 0f bc
       -0.0072569074 -0.020474387 -0.0030044022 -0.008740579
000180 93 d8 5c bc 1f d1 14 bc 26 cf 98 bb 39 6b 5c bb
       -0.01347937 -0.0090830615 -0.004663366 -0.0033633246
000190 31 b4 3f bc 4f 6a 22 bc eb 5e 75 ba ab ab da bb
       -0.011700676 -0.009913041 -0.0009360152 -0.0066732964
0001a0 ce 50 59 bc 30 ea 95 bc be 9f b0 bb 68 55 b2 bc
       -0.013263894 -0.018300146 -0.0053901365 -0.02176924
0001b0 17 a7 85 bb ef f2 d8 bb 66 57 60 bc bb 97 77 bc
       -0.0040787566 -0.006620757 -0.013692712 -0.015111859
0001c0 47 43 d2 bb 76 b5 94 3a f5 43 31 38 6f 78 9c 38
       -0.0064167115 0.0011345583 4.226338e-05 7.461092e-05
0001d0 f8 16 47 bc 4a 40 0b 3c 80 37 82 b9 7f 14 29 3a
       -0.012151472 0.008499214 -0.00024836883 0.00064498925
0001e0 82 a9 b8 bc 8e 14 8d bb f6 23 2a bc ab d9 91 bc
       -0.022541765 -0.004305429 -0.01038455 -0.017803987
0001f0 e3 f6 c2 3a f6 fb 52 bc 05 d9 80 3b 1b a0 24 bb
       0.0014874603 -0.012877455 0.0039321207 -0.0025119844
