FYPprototype/results/Test3/AIBalancing/AIBalancing-234.pt (torch, 248055 bytes, 18 tensors)

discrete_act_size_vector f4 [1, 4]
00000000: 0000 0040 0000 9841 0000 7041 0000 2041
2.0 19.0 15.0 10.0

network_body._body_endoder.seq_layers.0.weight f4 [128, 78]
00000000: 99e8 f03c 5a0d 13be f745 333e 6cd6 483e
00000010: ac96 273d dcfd e6bb 683a 843d 2637 3cbd
00000020: 2e17 eebc 170e 0bbe e61f 23bd 346b a33c
00000030: 7c73 5ebc d9c2 36be 7650 07bb 16d3 d13d
00000040: 1cf2 ea3c bc01 37be 9c55 61bd 7bc0 0dbe
00000050: 46a0 4fbd 6481 a1bc 5d6f 31be d77e 1ebc
00000060: e2eb 8a3c 4b00 b1bd 60c9 73bd 9417 693d
00000070: 5d8a eabc 59ff b8ba cd4f 813e 5a76 cb3d
00000080: aef3 3dbe affc b23d 0570 edbd b78a a7bd
00000090: e590 bd3d 18aa 5a3d 7591 6ebd d9a3 b3bd
000000a0: b5de 96bd 0845 98bd dff6 5abe 78c7 e3bd
000000b0: 8377 543b 0d81 25be f9eb 8b3d fca7 cf3d
000000c0: 4113 e63d e569 c4bd 3758 fe3d 9455 9fbd
000000d0: 3744 2d3e 3f8a 413e 73ad 40bd b68d d239
000000e0: f60e 7dbd 45fa 223e f6ba 753d e9cd 4b3c
000000f0: 1fa7 debd 2446 f8bd bdcf 983d 9c94 94be
00000100: 8882 32bd 2417 a5bd 053c f4bc 309a 483e
00000110: b553 b1bd c413 68bd db08 963d 2cd7 87bc
00000120: d202 9e3b 2f76 33bd 3226 f53d 9571 5c3e
00000130: ca37 203c c8d7 d1bd bd9c c5bc 668f cd3d
00000140: 52fb ee3d 39a5 b2bc c934 60bd fba2 653d
00000150: 9e05 70bd a1c6 a3bd 8d1d 0cbd 7545 d13d
00000160: 1a94 333d 8906 00be 227c b1bd 73a6 33bd
00000170: 4e70 cf3d e142 dcbd 5406 f53d 6fbb 2e3d
00000180: 18e2 883e 8276 85be 4d5c 0bbe ed2b 313d
00000190: 505f 6d3b 62fd 8a3e 4a2b c53d fbd8 d0bd
000001a0: f21f 68be 157a afba 0732 963d 53ab d23d
000001b0: fea8 6a3e de64 883d ead0 24bd 93cc e4bd
000001c0: 3dd0 e33d 8f91 c13d efd6 0b3d 28e3 c43c
000001d0: 4d62 77be 5396 b73d 28bf 96bb 03e9 6c3d
000001e0: 06c7 8d3d 4e74 8fbe f7df 033d d6b4 633c
000001f0: efc0 9d3d 213a ab3d c865 54bd 748f 9dbc
00000200: b1c2 6e3c 2c12 c03d 8341 a9bd ba04 26bc
00000210: 8805 09bd 1d5c 453d 4fc9 083e d150 093d
00000220: 65e7 103e 95a3 e2bd 34b5 85be 4fd9 6bbe
00000230: 20a6 2cbe c738 673d c1d9 43be 2961 ecbd
00000240: f2db fe3c a989 a0bd 1023 d93d d313 a4bd
00000250: fc75 293e 5aa8 e33d a993 853d 7b32 adbd
00000260: e520 7dbd c700 f1bc 2c36 183e 671c 863e
00000270: 723d a8bd 9668 0b3e ccf0 0d3d 8e23 4cbd
00000280: 7888 d43c 7646 b8bd b5d9 45bc f9f7 6f3e
00000290: 6704 553e abe6 38be 863c ebbd e71a 8bbd
000002a0: 9564 013d aa5f fb3d 2949 4cbe 45e8 8fbb
000002b0: 75e3 b2bb 0278 b63d 22b3 fd3d e562 aabd
000002c0: a1ba 3a3e 0623 a93d ca1b bd3d 0340 33be
000002d0: b576 1d3e 12d7 9b3d 72f1 d8bd 8aba 03be
000002e0: b001 ec3c cec9 b53d 85c5 623c 68d0 0c3e
000002f0: d3d3 bd3d 57fe 23be 8bc6 6e3d a81b f33c
00000300: 3c5c 903d a7bf 15be b1f1 7bbd 37fe e2bd
00000310: f872 213e ae79 a53d 5cf3 c23d b30e e73d
00000320: c16d b03d 3a5f 353e 7181 093e e43b 2d3d
00000330: 5ef0 c6bd c515 173d 274b 84bb c763 873e
00000340: e4c8 ed3d 4e05 3dbe c5ff 003e 15e6 b3bd
00000350: 52eb 4cbe 7980 0d3d fae7 eabc 5502 34bd
00000360: 9013 00bd 184a 7e3d 6499 3a3d eef7 32bd
00000370: d0b9 fabd 81fc eab9 4ee2 543d 70c2 d53d
00000380: 7402 e4bd 1ebb 653e 40fe 62be 01f8 ae3d
00000390: 7b90 febc 0fa4 9fbd 97e8 853b 4731 963d
000003a0: 78c6 0dbe b9d4 38be d892 aabd deb2 803d
000003b0: 78b5 36be 35d4 e63b 03b1 a33d d272 fb3d
000003c0: d68f 1f3d f045 4a3e f4a8 4f3c b6ef 21be
000003d0: da22 593e 1d15 483e 26a8 9a3d a3c8 78be
000003e0: 5a36 42bd 57dc 463e e03b 263e a1f8 74bd
000003f0: f854 abbd 0313 ff3c ba50 a3bd 266e e83d
0.029407786 -0.14360562 0.17507158 0.19613045 0.040915176 -0.0070493054 0.064564526 -0.04595103
-0.029063787 -0.13579594 -0.039825343 0.01994858 -0.013577338 -0.17847766 -0.0020647324 0.102453396
0.0286799 -0.17871755 -0.055013284 -0.13842957 -0.050689958 -0.019715019 -0.17327638 -0.009673796
0.01695818 -0.08642634 -0.059518218 0.05690725 -0.02863043 -0.0014114185 0.25256196 0.09934683
-0.18549988 0.08739602 -0.11593632 -0.08180755 0.09256152 0.05338487 -0.058244187 -0.08771486
-0.07366697 -0.07435042 -0.21383236 -0.1112203 0.0032419867 -0.1616251 0.068321176 0.10139462
0.11234141 -0.0959051 0.124191694 -0.077799946 0.16920553 0.18900393 -0.047040414 0.00040159904
-0.061781846 0.15915783 0.059992753 0.0124392295 -0.108717196 -0.12122753 0.07461498 -0.2901963
-0.043581516 -0.08061054 -0.029813776 0.19590068 -0.08658544 -0.056659475 0.07325908 -0.016582094
0.0048221136 -0.04381388 0.11970176 0.21527703 0.009778926 -0.10246235 -0.02412259 0.10037117
0.11669029 -0.0218073 -0.05473784 0.056063633 -0.058599107 -0.0799687 -0.03420787 0.10218326
0.043842413 -0.12502493 -0.086662546 -0.04385991 0.10128842 -0.10754944 0.119640976 0.04265922
0.26734996 -0.26066977 -0.13609429 0.04325478 0.003622014 0.2714644 0.09627397 -0.10197636
-0.22668436 -0.0013387824 0.07333761 0.10286584 0.22916028 0.06659864 -0.0402383 -0.11171832
0.11123703 0.09451591 0.034140524 0.024034098 -0.24158593 0.08964219 -0.0046004243 0.057839405
0.06922726 -0.2801842 0.03219601 0.013898095 0.07702815 0.083606966 -0.05185488 -0.019233443
0.014572785 0.09378466 -0.082644485 -0.010132963 -0.03345254 0.04818355 0.13358043 0.03352434
0.1415077 -0.11066357 -0.2611481 -0.23032115 -0.16860247 0.05645063 -0.19126035 -0.11541969
0.031110737 -0.078387566 0.10602391 -0.08011594 0.16548914 0.11116095 0.065223046 -0.08456894
-0.06179895 -0.029419316 0.14864415 0.26193544 -0.08214845 0.13614115 0.03465347 -0.049838595
0.02594398 -0.08997814 -0.012075831 0.23434438 0.2080246 -0.18056743 -0.11486153 -0.067922406
0.031590063 0.12274106 -0.19949783 -0.0043917024 -0.005459244 0.089096084 0.123876825 -0.08319644
0.18235256 0.08258633 0.09233816 -0.17504887 0.15377314 0.07609381 -0.10592927 -0.12864128
0.028809398 0.08876382 0.013841038 0.13751376 0.09268918 -0.16014992 0.058294814 0.029676273
0.07048842 -0.14623891 -0.06150979 -0.11083644 0.15766513 0.08079849 0.09519073 0.112821005
0.08614684 0.17712107 0.13428284 0.042293444 -0.09713815 0.036885995 -0.004037279 0.26443312
0.116105825 -0.18459055 0.12597568 -0.08784119 -0.20011643 0.03454635 -0.028675068 -0.043947536
-0.031268656 0.06208238 0.04555644 -0.043693475 -0.12242472 -0.00044820088 0.051973633 0.10437477
-0.111332804 0.22434661 -0.22167301 0.08543397 -0.031074753 -0.077949636 0.0040865648 0.07333618
-0.13845241 -0.18049897 -0.083287895 0.06284116 -0.17842662 0.00704434 0.07992747 0.122777596
0.038955532 0.19753242 0.012674559 -0.15814099 0.21204701 0.19539304 0.07551603 -0.24295287
-0.047415115 0.1941999 0.16233778 -0.059807424 -0.08365816 0.031136995 -0.07974382 0.11349134

network_body._body_endoder.seq_layers.0.bias f4 [128]
00000000: 0000 0000 0000 0000 0000 0000 0000 0000
00000010: 0000 0000 0000 0000 0000 0000 0000 0000
00000020: 0000 0000 0000 0000 0000 0000 0000 0000
00000030: 0000 0000 0000 0000 0000 0000 0000 0000
00000040: 0000 0000 0000 0000 0000 0000 0000 0000
00000050: 0000 0000 0000 0000 0000 0000 0000 0000
00000060: 0000 0000 0000 0000 0000 0000 0000 0000
00000070: 0000 0000 0000 0000 0000 0000 0000 0000
00000080: 0000 0000 0000 0000 0000 0000 0000 0000
00000090: 0000 0000 0000 0000 0000 0000 0000 0000
000000a0: 0000 0000 0000 0000 0000 0000 0000 0000
000000b0: 0000 0000 0000 0000 0000 0000 0000 0000
000000c0: 0000 0000 0000 0000 0000 0000 0000 0000
000000d0: 0000 0000 0000 0000 0000 0000 0000 0000
000000e0: 0000 0000 0000 0000 0000 0000 0000 0000
000000f0: 0000 0000 0000 0000 0000 0000 0000 0000
00000100: 0000 0000 0000 0000 0000 0000 0000 0000
00000110: 0000 0000 0000 0000 0000 0000 0000 0000
00000120: 0000 0000 0000 0000 0000 0000 0000 0000
00000130: 0000 0000 0000 0000 0000 0000 0000 0000
00000140: 0000 0000 0000 0000 0000 0000 0000 0000
00000150: 0000 0000 0000 0000 0000 0000 0000 0000
00000160: 0000 0000 0000 0000 0000 0000 0000 0000
00000170: 0000 0000 0000 0000 0000 0000 0000 0000
00000180: 0000 0000 0000 0000 0000 0000 0000 0000
00000190: 0000 0000 0000 0000 0000 0000 0000 0000
000001a0: 0000 0000 0000 0000 0000 0000 0000 0000
000001b0: 0000 0000 0000 0000 0000 0000 0000 0000
000001c0: 0000 0000 0000 0000 0000 0000 0000 0000
000001d0: 0000 0000 0000 0000 0000 0000 0000 0000
000001e0: 0000 0000 0000 0000 0000 0000 0000 0000
000001f0: 0000 0000 0000 0000 0000 0000 0000 0000
0.0 0.0 0.0 0.0 0.0 0.0 0.0 0.0
0.0 0.0 0.0 0.0 0.0 0.0 0.0 0.0
0.0 0.0 0.0 0.0 0.0 0.0 0.0 0.0
0.0 0.0 0.0 0.0 0.0 0.0 0.0 0.0
0.0 0.0 0.0 0.0 0.0 0.0 0.0 0.0
0.0 0.0 0.0 0.0 0.0 0.0 0.0 0.0
0.0 0.0 0.0 0.0 0.0 0.0 0.0 0.0
0.0 0.0 0.0 0.0 0.0 0.0 0.0 0.0
0.0 0.0 0.0 0.0 0.0 0.0 0.0 0.0
0.0 0.0 0.0 0.0 0.0 0.0 0.0 0.0
0.0 0.0 0.0 0.0 0.0 0.0 0.0 0.0
0.0 0.0 0.0 0.0 0.0 0.0 0.0 0.0
0.0 0.0 0.0 0.0 0.0 0.0 0.0 0.0
0.0 0.0 0.0 0.0 0.0 0.0 0.0 0.0
0.0 0.0 0.0 0.0 0.0 0.0 0.0 0.0
0.0 0.0 0.0 0.0 0.0 0.0 0.0 0.0

network_body._body_endoder.seq_layers.2.weight f4 [128, 128]
00000000: 3e68 743c 7cd6 42bd 7574 263d daba 22bd
00000010: d545 73bc 5588 8fbc 653f 223d e356 df3d
00000020: f853 193d a957 0a3e ae3d 263d ceaa 46bd
00000030: 8133 bf3d 0bb9 513d c747 3f3d c9f1 eabc
00000040: 0062 ba3d 3f45 8fbd 3145 043c 5098 d8bd
00000050: 0732 6ebb 7103 623d 1166 15be 0ab9 f2bc
00000060: 7217 b3bc edae bd3d 5dc3 1cbe 7e20 7c3d
00000070: b157 473d ab6e a0bd 1b94 cb3d b4ae 71bd
00000080: 1c73 a0bc 7394 95bc 99ba f03c 4834 ee3d
00000090: c29d 41bd 927e 33bc 11ac 783d f60f 1d3e
000000a0: 3c0e 16be 5c81 893d 915a 6b3d 1800 263e
000000b0: 6c27 e0bd e46a cb3d 8609 c93b 0ea2 2abe
000000c0: fedf 1b3e 4a15 0cbe 642f 953d 3cf0 4d3d
000000d0: 9afa 6dbe 8c10 06be 75ee 033d 263d d33c
000000e0: d2b5 b6bd 4e73 3b3d 0b2e 233c dda8 3bbe
000000f0: a75d b03c 380b c13d a95e 7dbc 7966 efbc
00000100: 9c23 ef3d b2dc 3bbd e377 e93d b8ce dbbd
00000110: cf49 e23d dbf5 aabd 1d83 b53c 82a0 c8ba
00000120: 0e4a e4bd 76fb 173c bc21 423d 317d 3d3d
00000130: 894d d7bb b529 20be dbfc 093e 43d8 bebd
00000140: ac4f 253c 8cef 133d 5d53 d93c a3a5 23bd
00000150: f018 4abd 638c b73d b9ba 03be b659 b93d
00000160: a762 4b3d 730a e3bc e8d4 fe3d 144e 6abd
00000170: 81f3 74bd d612 593d f32d c4bc 60d2 8f3d
00000180: 3fcf 553c fcb0 153b ad36 d6bd 9b17 273e
00000190: 36df 303d 7c37 a8bd afab 1abb 1b4f 1b3e
000001a0: 90a7 e63c 8fab 09be 83e6 3a3d d7bc a8bc
000001b0: 47d2 b83d 0dc9 1f3d ba78 6cbd b22a 463d
000001c0: 5af8 593d 13bd 6f3e c1a2 b3bd 5477 70bd
000001d0: 1baa 3b3d 992f 33b9 1ad0 623c bb57 833d
000001e0: e6bd b73d 0e2d d93c 513f fabb b453 9dbd
000001f0: 977f 033e 1230 05bd d37c 0f3d f093 8e3d
00000200: 6b80 293c 7e48 95bd 3e71 bdbd 76a0 583b
00000210: 925a 0abd 1741 513d 3837 d53d 4149 80bd
00000220: ad9f 893d 7766 5dbe 5bee afbd 7aa4 be3d
00000230: 9a64 30bd dc59 93bc 56b0 83bd 9450 3abd
00000240: 7617 363b 6b56 fa3c b21b d4bd e53c a13d
00000250: a4ff b8bb 9b87 d3bd 3fbc bdbb 6666 f53d
00000260: c3ac 033e 0f5d 2dbe e292 3d3e 26e5 d53c
00000270: 786f 8abc d4ff 38bd b993 f2bd d764 ceba
00000280: 85b0 d7bb 6112 753d 8309 8d3d 2843 093c
00000290: 063e 1e3e 470c 333e 17ad acbd c1da 8ebc
000002a0: 4cf0 033c 3f4e 4b3d 6201 25be 3aa4 b6bd
000002b0: 9297 883e fe46 c9bd 5913 1bbd 1341 8f3d
000002c0: efbb 5c3d 6063 a23d e15c c3bc 71cc c23d
000002d0: 8f49 323d d6d1 7c3d ee8d c53d 4065 bfbc
000002e0: 2505 91bd c4f2 6bbe 5283 c43c 8f5d e0bb
000002f0: 9980 90bd 0f7a 99bb b9d7 35bd d46c bbbd
00000300: d1cd 48bd 7f1e 233d 2967 053d 8dfa a03c
00000310: c716 493a 4f31 cdbc f9df 98bd 6b67 a6bd
00000320: fc37 9e3d c38b 493c cad6 afbd fcbb 0f3d
00000330: 14ec 18bd 6d09 12be 8528 f03d 8027 c03d
00000340: b0e3 cdbc 299e 003c 16bd 613d f6f5 ecbc
00000350: b379 19bd 0e07 cdbd 1dda 37bd e562 99bc
00000360: e126 dcbd 83c1 57bd 9917 1dbd 8934 8d3d
00000370: 99bc 583d 8aea 9ebd 7048 a8bd c53e b1bd
00000380: 81c0 f33b aff5 f8bd 96aa c5bd 614a 7abd
00000390: 38fb ad3d d4ef 5dbd 43b5 cfbd 2913 2ebc
000003a0: 5b21 ad3d 68bc f8bd 8fad e5bc 6919 ff3d
000003b0: 6ec0 21be 00d1 a23d ce3f aebd 5a38 28bd
000003c0: c976 10bd f8cb 643d 7c38 8c3d 8084 483c
000003d0: 594b f63d b67b 963d 57cd ebbc a037 f4bc
000003e0: df60 03bd 9f76 cbbd b4fb 52bc ac52 a9bd
000003f0: 9135 17be 1949 b9bb c860 103e 7ec7 d8bb
0.014917431 -0.04756783 0.040638406 -0.039728977 -0.014848192 -0.017521063 0.03961124 0.10905244
0.037433594 0.13510002 0.040586166 -0.048502736 0.093359955 0.05120186 0.04669931 -0.028679745
0.09100723 -0.069956295 0.008073137 -0.10575926 -0.0036345737 0.055179063 -0.14589716 -0.02962925
-0.021861766 0.0926188 -0.153089 0.061554424 0.048667613 -0.07833608 0.09940358 -0.0590045
-0.019586138 -0.018259263 0.029385852 0.116310656 -0.04726959 -0.01095547 0.06071097 0.1533812
-0.14653867 0.067141265 0.057459418 0.16210973 -0.10945019 0.09932497 0.0061351685 -0.16663381
0.15222165 -0.13679996 0.0728443 0.050277933 -0.23240128 -0.1309225 0.032209832 0.025785994
-0.08921398 0.04576426 0.009959708 -0.18326135 0.021529032 0.09425968 -0.015464463 -0.029223667
0.11676714 -0.04586477 0.1139982 -0.10732788 0.11049234 -0.083476745 0.022157246 -0.0015306624
-0.11146937 0.009276262 0.047395453 0.04626197 -0.006570522 -0.1564091 0.13475363 -0.093185924
0.010089796 0.03611712 0.026529009 -0.039952885 -0.04934019 0.089623235 -0.12864198 0.09050314
0.04965463 -0.027714944 0.124429524 -0.057203367 -0.059802536 0.05299648 -0.023947692 0.07022548
0.0130499 0.0022841087 -0.10459647 0.16317599 0.04318162 -0.08213708 -0.0023600867 0.15166895
0.028156072 -0.1344435 0.04562999 -0.020597858 0.09024482 0.039010096 -0.05773232 0.04838056
0.053215362 0.2341197 -0.08771277 -0.05870755 0.045816522 -0.00017088502 0.013843561 0.06413218
0.08971767 0.026510742 -0.0076369424 -0.07681981 0.1284164 -0.032516547 0.03503115 0.069618106
0.010345559 -0.072892174 -0.09250115 0.0033054627 -0.03377778 0.051087465 0.10410923 -0.06263972
0.06719909 -0.21621118 -0.085903846 0.09308715 -0.04306469 -0.017987184 -0.06430118 -0.045487
0.002778498 0.030558785 -0.10356845 0.07872943 -0.005645709 -0.10328599 -0.005790263 0.119824216
0.12858872 -0.1693003 0.18513063 0.026110243 -0.016898856 -0.04516585 -0.11844582 -0.0015746605
-0.006582322 0.05983198 0.0688658 0.008377828 0.15453348 0.17485152 -0.08431452 -0.017438294
0.008052897 0.04963517 -0.16113809 -0.089180425 0.2667814 -0.09827994 -0.03786025 0.06994834
0.053890165 0.079291105 -0.023847999 0.0951165 0.043527182 0.061723553 0.096462116 -0.02336371
-0.07081059 -0.23041826 0.0239884 -0.0068470906 -0.07055778 -0.00468374 -0.044395182 -0.09151617
-0.049024407 0.039824005 0.032569084 0.019650722 0.00076709356 -0.025047926 -0.074645944 -0.08125194
0.07725522 0.012301388 -0.0858589 0.035091385 -0.037334517 -0.14261408 0.117264785 0.09382534
-0.025132984 0.007850208 0.055111967 -0.028925877 -0.037469577 -0.10011111 -0.044885743 -0.018723914
-0.10749603 -0.05267478 -0.038352583 0.06894786 0.052914236 -0.077595785 -0.08216941 -0.086545505
0.0074387197 -0.121562354 -0.09651677 -0.06110609 0.08495182 -0.054183796 -0.10141995 -0.010624685
0.08453628 -0.12145311 -0.02803686 0.124560185 -0.15796062 0.0795002 -0.085082635 -0.041069366
-0.035269532 0.055858582 0.06846711 0.012238622 0.1202609 0.07347815 -0.028784437 -0.02981168
-0.032074805 -0.099347346 -0.0128773935 -0.082677215 -0.14766528 -0.005654466 0.14099419 -0.006615578

network_body._body_endoder.seq_layers.2.bias f4 [128]
00000000: 0000 0000 0000 0000 0000 0000 0000 0000
00000010: 0000 0000 0000 0000 0000 0000 0000 0000
00000020: 0000 0000 0000 0000 0000 0000 0000 0000
00000030: 0000 0000 0000 0000 0000 0000 0000 0000
00000040: 0000 0000 0000 0000 0000 0000 0000 0000
00000050: 0000 0000 0000 0000 0000 0000 0000 0000
00000060: 0000 0000 0000 0000 0000 0000 0000 0000
00000070: 0000 0000 0000 0000 0000 0000 0000 0000
00000080: 0000 0000 0000 0000 0000 0000 0000 0000
00000090: 0000 0000 0000 0000 0000 0000 0000 0000
000000a0: 0000 0000 0000 0000 0000 0000 0000 0000
000000b0: 0000 0000 0000 0000 0000 0000 0000 0000
000000c0: 0000 0000 0000 0000 0000 0000 0000 0000
000000d0: 0000 0000 0000 0000 0000 0000 0000 0000
000000e0: 0000 0000 0000 0000 0000 0000 0000 0000
000000f0: 0000 0000 0000 0000 0000 0000 0000 0000
00000100: 0000 0000 0000 0000 0000 0000 0000 0000
00000110: 0000 0000 0000 0000 0000 0000 0000 0000
00000120: 0000 0000 0000 0000 0000 0000 0000 0000
00000130: 0000 0000 0000 0000 0000 0000 0000 0000
00000140: 0000 0000 0000 0000 0000 0000 0000 0000
00000150: 0000 0000 0000 0000 0000 0000 0000 0000
00000160: 0000 0000 0000 0000 0000 0000 0000 0000
00000170: 0000 0000 0000 0000 0000 0000 0000 0000
00000180: 0000 0000 0000 0000 0000 0000 0000 0000
00000190: 0000 0000 0000 0000 0000 0000 0000 0000
000001a0: 0000 0000 0000 0000 0000 0000 0000 0000
000001b0: 0000 0000 0000 0000 0000 0000 0000 0000
000001c0: 0000 0000 0000 0000 0000 0000 0000 0000
000001d0: 0000 0000 0000 0000 0000 0000 0000 0000
000001e0: 0000 0000 0000 0000 0000 0000 0000 0000
000001f0: 0000 0000 0000 0000 0000 0000 0000 0000
0.0 0.0 0.0 0.0 0.0 0.0 0.0 0.0
0.0 0.0 0.0 0.0 0.0 0.0 0.0 0.0
0.0 0.0 0.0 0.0 0.0 0.0 0.0 0.0
0.0 0.0 0.0 0.0 0.0 0.0 0.0 0.0
0.0 0.0 0.0 0.0 0.0 0.0 0.0 0.0
0.0 0.0 0.0 0.0 0.0 0.0 0.0 0.0
0.0 0.0 0.0 0.0 0.0 0.0 0.0 0.0
0.0 0.0 0.0 0.0 0.0 0.0 0.0 0.0
0.0 0.0 0.0 0.0 0.0 0.0 0.0 0.0
0.0 0.0 0.0 0.0 0.0 0.0 0.0 0.0
0.0 0.0 0.0 0.0 0.0 0.0 0.0 0.0
0.0 0.0 0.0 0.0 0.0 0.0 0.0 0.0
0.0 0.0 0.0 0.0 0.0 0.0 0.0 0.0
0.0 0.0 0.0 0.0 0.0 0.0 0.0 0.0
0.0 0.0 0.0 0.0 0.0 0.0 0.0 0.0
0.0 0.0 0.0 0.0 0.0 0.0 0.0 0.0

action_model._discrete_distribution.branches.0.weight f4 [2, 128]
00000000: b0cf e93b 1dc5 6ebc f069 463c 2355 4c3c
00000010: 0a6b f53b 85c6 cdba 483b c53b 8e59 12bc
00000020: 1244 17bc 38a1 85bc cd2d 6e3c aba9 9abb
00000030: 4dfc 58bc fb24 283c 3f97 a8ba 6f4f 2cbc
00000040: 8d86 993c 52df e9bb d547 73ba f8ee 79bb
00000050: 95f7 593b 9a38 56bc 299a 143c 9bf5 9b3c
00000060: 22af e03b 8674 4b3c dbcc 033c 57a8 01bc
00000070: a33f 353b 7b64 30bc 6b68 913b 6677 2bba
00000080: 1bca 53bc 9e5a a93b 185d f4bb c4d7 193c
00000090: af8e 24bc 1f7a 0dbc 4bdd 253b 8a36 54bc
000000a0: 4769 a23a 85ff 823c 4bd8 01bc 9319 05bc
000000b0: 589a e63b aa2f 59bb 3f39 b2bb 7487 a53a
000000c0: e597 793c 4383 adbb e753 873c f052 6f3b
000000d0: 8219 ebbb 9d39 873c 4dd9 e13a ed07 6e3c
000000e0: e4ae 1e3c 08c9 99bb 0760 933a af57 b83a
000000f0: c3bd 1abb 493c 06bc b1bc 12bc fe04 02bc
00000100: da8e b8bb 370e 0cbb 79d4 a639 6a74 9d3b
00000110: 1bb3 0f3c 43fa e13a 6349 a13b 87ed 553c
00000120: e95e 21bc a497 19ba 63b7 29bc f5cc 573b
00000130: 17b9 a23b 638d 833a 6702 4e3c 28b8 4f3c
00000140: efaf cbba 2f11 60b9 c5df 9b3c 0d5b 29bb
00000150: 0466 be3c cf3c c93b c9f5 223c 04d8 37bc
00000160: af89 ba3b f335 533b bb15 b5bb f2db 83bb
00000170: a543 20bc 5f7d 28bc 4705 53bb ccb8 a6bb
00000180: 43d9 9e3b aaba ed3a 4b72 a63c e22d cf39
00000190: 0dc2 65b9 9510 95bb 72ee 6ebc 3833 65bb
000001a0: caf8 6e3a 6bc1 9c3c 7066 f93a 699f ad3a
000001b0: ad66 0b3b c43f 1c3c 25cc eb3a ae34 46bb
000001c0: a3f1 56bb efa0 843b b747 bab9 aaab d3bb
000001d0: ec50 0ebb b5b0 90bc 979b 3e3c ee88 a439
000001e0: ee3e 26bc 9d8d 92bb 12b2 503b 03b9 26bc
000001f0: ea06 76bc 06e4 233c 1769 713c 7899 63bc
00000200: 6e93 81bc 8c1c bb3c 85ef 6ebc 110e 46bc
00000210: 400e 77bc 1d62 27bc 2f67 09bc 2759 84bb
00000220: ffb8 fbbc f60c 3eba 33ea a339 17fd a0b8
00000230: cf68 373b eead 0cbc 0b64 903b e82b 533c
00000240: 374a 7bbb 1e78 1e3c c54e 9e3b 9b02 3dbc
00000250: eeb9 2f3c 84a7 363b 7d43 aa38 3d5c abbb
00000260: 5332 f53a d0f5 233b 228e 7cbc 352c 5fbc
00000270: 91af 083b 13b6 29bb 0ac9 7e3b 709e 63bb
00000280: 2d37 3bbc 7066 4b3c 20a7 653b 9a6f 4cbc
00000290: 1220 febb 87df f23b 054d a3bc bb04 b8bb
000002a0: 9274 313c d2f7 f8bb 13af 21bb 9a8e 573a
000002b0: 03be cebb c8e8 b9bb 2a82 8db9 733b a93c
000002c0: 0734 a3bc 9017 b3bb f75a 103c 7ec8 91bb
000002d0: 0df4 8abb c61c 823b cba6 a33b f8b7 39bc
000002e0: 3f48 bf3b 2d73 3fbb ff00 a0bb b878 10bc
000002f0: a55d 433b d782 f03b 7bd0 153c 8a55 8d3a
00000300: 1fb7 9fbb 553e 073c 14db 8bba ada6 a53b
00000310: 272d aebb 3a49 843b 9f2f b1bc 3115 1c3c
00000320: e34a 2f3b aadd 6cbb e22c 6abc ef9a 36bb
00000330: 9f8d 0ebb 474f 3b3b 90c3 63bb 8d45 72ba
00000340: d393 e43b cba1 dc3b 2a54 353c 0c4a 363c
00000350: 14e7 2bbc e02b 22bc 7b70 1fbc 266b ad3a
00000360: 7d1a fa3a e6de 8737 6abe 2d3c 6c52 13ba
00000370: 4b0d 67bb fac8 063b d804 08bb 1797 5bba
00000380: 06f6 0c3c 1f4c a1bb c2d0 73ba ef3b 11ba
00000390: 9948 353a 639f ccb9 3aa0 dcbb 0bad 153c
000003a0: 2b2c 42bc c16b a63b 054a fc3b db78 283c
000003b0: acfd c73b 09a0 8238 10a1 fabb 75c7 67bc
000003c0: ea10 73bb 2fa1 063c c89d 0a3c 0abc f6bb
000003d0: ba14 93bb 7f82 7e3c 98a7 333c 0de6 49bc
000003e0: f35b e13b 8325 33bc ef21 3cbc 9fb7 86bb
000003f0: c9e3 8fbb a442 34ba 5772 0d3c b79e 553b
0.007135354 -0.014573363 0.012110218 0.01247147 0.0074895667 -0.0015699422 0.0060190298 -0.008932484
-0.009232538 -0.016312227 0.014537287 -0.004719933 -0.013243747 0.010262723 -0.0012862458 -0.010516985
0.018740917 -0.0071372176 -0.0009280418 -0.0038136821 0.0033259143 -0.013075018 0.009069958 0.019038012
0.006856815 0.012417918 0.008044447 -0.0079136705 0.0027656339 -0.010766144 0.0044374964 -0.0006540924
-0.012926604 0.005168273 -0.0074573867 0.009389821 -0.010043784 -0.008635073 0.0025308903 -0.012952456
0.0012390994 0.015990982 -0.007925103 -0.008123773 0.007037442 -0.0033139982 -0.005438953 0.0012628869
0.015233968 -0.0052951886 0.0165195 0.003651794 -0.0071746716 0.016506964 0.0017230898 0.014528257
0.009685252 -0.0046931542 0.0011243828 0.0014064218 -0.0023611642 -0.008193084 -0.00895612 -0.007935761
-0.0056322636 -0.0021370777 0.00031820292 0.0048051374 0.008770729 0.0017240721 0.0049220785 0.013057119
-0.0098492885 -0.0005859083 -0.010358664 0.003292856 0.004965912 0.0010036643 0.012573815 0.012678184
-0.0015540103 -0.00021368706 0.0190276 -0.0025841624 0.023242004 0.006141282 0.009946295 -0.011220936
0.0056926827 0.00322282 -0.005526272 -0.0040240223 -0.009781753 -0.010283797 -0.003219919 -0.0050879475
0.004847677 0.0018137295 0.020318171 0.00039516302 -0.00021911431 -0.004549096 -0.014583217 -0.0034973156
0.0009116052 0.019135198 0.0019027721 0.001324636 0.0021270916 0.009536687 0.0017989917 -0.0030243802
-0.0032797835 0.004047505 -0.00035530116 -0.006459673 -0.0021715714 -0.017662385 0.011633775 0.00031382538
-0.01014684 -0.004472448 0.003184442 -0.010175946 -0.015016297 0.0100030955 0.014734528 -0.01389157
-0.01581737 0.02284076 -0.014583473 -0.012088315 -0.015079081 -0.010216263 -0.008386417 -0.004038948
-0.030727861 -0.0007249856 0.00031264275 -7.676536e-05 0.0027986055 -0.00858639 0.0044064573 0.012888886
-0.0038343796 0.009672193 0.0048311674 -0.011536266 0.010725481 0.0027870843 8.118802e-05 -0.0052295015
0.0018707014 0.0025018342 -0.0154147465 -0.01362138 0.00208566 -0.0025895878 0.0038877153 -0.0034731887
-0.011426729 0.01241456 0.0035042241 -0.01247778 -0.007755288 0.0074119004 -0.019934187 -0.0056157983
0.010831015 -0.007597902 -0.0024671003 0.00082228484 -0.0063092723 -0.0056735016 -0.00026990596 0.02065823
-0.01992227 -0.0054654554 0.00881075 -0.0044489494 -0.004240519 0.003970715 0.0049942485 -0.0113353655
0.00583747 -0.0029212937 -0.0048829312 -0.008817844 0.0029810455 0.007339816 0.009143944 0.0010782939
-0.0048741247 0.008254607 -0.0010670149 0.0050552697 -0.005315441 0.0040370496 -0.021629153 0.009526537
0.0026747517 -0.0036142864 -0.014292927 -0.0027863344 -0.0021751893 0.0028581189 -0.0034754016 -0.0009241931
0.00697563 0.0067331544 0.01106743 0.011126053 -0.010492105 -0.009898156 -0.009731407 0.0013230785
0.001908138 1.619705e-05 0.01060448 -0.0005619887 -0.0035255726 0.0020566569 -0.002075484 -0.0008376701
0.008603578 -0.0049224044 -0.00093008217 -0.0005540242 0.000691542 -0.00039028664 -0.0067329677 0.009135495
-0.011851351 0.0050787632 0.0076992535 0.01028272 0.006103238 6.228692e-05 -0.0076485947 -0.014146675
-0.003708894 0.00821714 0.00846047 -0.00752974 -0.004488555 0.015534042 0.01096525 -0.012322915
0.0068774163 -0.010934236 -0.0114827 -0.004111245 -0.004391168 -0.00068763853 0.008633218 0.0032595822

action_model._discrete_distribution.branches.0.bias f4 [2]
00000000: 0000 0000 0000 0000
0.0 0.0

action_model._discrete_distribution.branches.1.weight f4 [19, 128]
00000000: 9264 df3b 9708 1a3b 3bc5 82bb 0069 a03b
00000010: e35a e5ba 88f1 2cbc f27c 3bba 8ae5 72bc
00000020: 981d 2f3b aba5 9dbb 475f babb c555 ebbb
00000030: c096 81bb ea1c 75bc 7aad 8cb9 68b5 0aba
00000040: 83f7 1a3c 4a41 ab3b 6204 6a3a f4c7 89bb
00000050: fbd9 02b9 cb04 85bb e893 33ba 55ae 423b
00000060: a3f9 63bb 2a6c 07bb 0452 c6b9 3055 f8ba
00000070: b3b9 3fbc 5b0d 85bc f5d1 61bc b739 c63b
00000080: 2394 a6bc d0b7 77b9 6f0b b9b9 a3ee e3bb
00000090: aa19 223b 59c0 9f3c e86e 093c 8b72 383c
000000a0: 3b59 ed3b 5677 43bc da6c 953b 5c4c afbb
000000b0: 678a b83b 05c5 9fbb 4a40 a13b f77b 00bc
000000c0: 2c89 333b 8f6d cab9 c8f2 8d3c 2262 06bb
000000d0: 03dc 763c f0f8 adba cf9b 043c b8df 753c
000000e0: df0d 80ba eb73 ac3a b299 6a3b ef87 843c
000000f0: 8c07 22bc 1fd5 9abb 814e 983b 662c a73b
00000100: 5d1d 893c eb42 e7bb 5e46 c33b 77fa 1fbc
00000110: e3f5 de3a 853a 8e3b af9c 4a3a 6c39 b8ba
00000120: 0340 06bc f668 80bc b382 cc3b cf0c 92bb
00000130: 304e a43a e046 1a3c e0ad f7bb 2366 613c
00000140: ad64 573c 1f83 853b 9781 41bc 251e e9ba
00000150: 34db a6b9 e830 1fbc 0d23 a1ba 0e24 3bbc
00000160: 1bfa 06bc fe84 983b 47c0 2eb8 5ed6 373b
00000170: e5dc 5cbc f39f 04bc 1063 3cbb d265 743c
00000180: 3e74 bebb bdf4 7a3b 3f04 c93b b39f 4a3c
00000190: 78d7 03ba f2e3 bb3c 481f 7cbc ac1c b73b
000001a0: 5b0a 28bb 2db6 063c 1ee6 023c c845 073c
000001b0: 9333 d73b 4c89 8e3c a301 4fba d5f4 d63b
000001c0: 92dc 193c 1c75 14bb 57b3 22bc 1860 6e3b
000001d0: b361 d2bb c7c9 1dbc 3853 7fbc e015 5fba
000001e0: f33b 523b ed32 56bc c7fa 2f3b 2ed7 333b
000001f0: e5b8 723c 93e1 aebb 9891 033b 1d03 38bc
00000200: b81c 4d3b 58d1 f6bb 8fc6 13bb 247e 9e3a
00000210: bfef 5fbb 5a5f fcba cf63 25bb 5d43 37bc
00000220: b59a f13a 4f0d 16bc 7395 00bc 075d 12ba
00000230: ca16 5b3c df53 f9ba cbe2 943a 201f 623b
00000240: b28e 51bb 2b90 5ebc e2c1 523c 3d6a fe39
00000250: 6294 caba 323c fb3a 3fab 40bb 75d8 5f3c
00000260: 2296 59b9 ab09 06bb dbb7 573b b135 c4bb
00000270: 0309 5d3b 95a9 3b3c 92ea a73b 0ad8 3d3c
00000280: fd45 913c f317 04bc 90ef 4e3c d27c 7fbc
00000290: 7fbc fcbb 37c7 163c 633c 943c 7be0 8e3b
000002a0: 900b 85bc 11e5 1abc 2744 e93b 5f4a 1a3a
000002b0: 6c0c ba3b 60ed 62bb d4ba b8bc 88f8 6e3b
000002c0: 52ff e6ba f37c 63bc 4f19 9f3b 5ba2 1d3b
000002d0: 4705 193b 17e3 253c 0a3f 51bc 455d 5b3b
000002e0: eba8 61bc 6b78 313b d3ca 88bc d017 433c
000002f0: b7c2 27bb 83ae ddbb 9783 663b cc7a 94bc
00000300: 1a5f 12bb 7758 eb3b b309 9fbc 4fe4 af3b
00000310: 2e31 173b 6a58 a63b 2b10 28bb 37b7 59bb
00000320: 23ee 2bbc 53e2 7abb 5346 6ebb 1300 16bc
00000330: 9ae4 37bb 991b 16bc f19d 1abb 73a1 f7bb
00000340: 35ec 553c 85e4 3ebb 3a8b 61bc 92e7 6f3b
00000350: afe2 2839 a0a1 373c 163a afbb 8720 3cba
00000360: 7814 333c 6664 8c3b f502 87bc 93d6 63bb
00000370: 380a 663a 7503 d6bb 5c22 9b3b 7733 55bc
00000380: 55c9 9a39 85b9 23bb 1f01 513a b29d 8fb9
00000390: d313 473b 23d0 ddba 2833 483c 8482 1e3c
000003a0: c37d 91bc 3773 bebb b40e c93b 156b ba3b
000003b0: e526 4fba 53a0 0f3c db84 14bc c551 89bb
000003c0: a087 94bb e426 26bb d348 033b 7381 a83b
000003d0: 058c eb3b 2531 933b 73bf a7bb ef41 74bb
000003e0: f938 983c cd40 cdba 1665 afba 6b0d 1d3c
000003f0: 758d 0f3c 9287 07bc 1736 21bb ea8d 59bb
0.006817409 0.0023503655 -0.003990797 0.0048953295 -0.00174984 -0.010555632 -0.0007152102 -0.014825234
0.002672052 -0.004811009 -0.0056876275 -0.0071818554 -0.0039547384 -0.014960507 -0.0002683213 -0.0005291314
0.009458425 0.005226289 0.00089270447 -0.0042047445 -0.0001247897 -0.0040594093 -0.0006850348 0.002970596
-0.0034786246 -0.0020663836 -0.0003782661 -0.0018946286 -0.011701989 -0.01624172 -0.013782968 0.0060493606
-0.020334309 -0.00023624231 -0.00035294468 -0.006955938 0.0024734535 0.019500898 0.0083882585 0.011257778
0.007243303 -0.011930307 0.0045600953 -0.005349679 0.005631733 -0.0048757815 0.004920994 -0.0078420555
0.0027394993 -0.0003861007 0.017327681 -0.002050527 0.015067103 -0.0013273042 0.008093788 0.015006952
-0.0009769759 0.0013157105 0.0035797176 0.0161781 -0.009889495 -0.004725113 0.0046480303 0.0051017283
0.016737634 -0.007057538 0.005959316 -0.009764305 0.0017010536 0.004340472 0.0007729036 -0.0014055199
-0.0081939725 -0.01567505 0.0062411665 -0.0044570933 0.0012535509 0.009416312 -0.0075585693 0.013757261
0.013146562 0.0040744687 -0.011810682 -0.0017785473 -0.00031825306 -0.00971625 -0.0012293771 -0.01142217
-0.008238341 0.004654526 -4.1663905e-05 0.0028051357 -0.0134804 -0.0080947755 -0.002874557 0.014916854
-0.005812197 0.0038292848 0.0061345394 0.012367177 -0.0005029361 0.022935841 -0.015388317 0.0055881348
-0.0025640938 0.008222145 0.0079894345 0.008256383 0.0065674274 0.017399453 -0.0007896667 0.006559948
0.009390967 -0.002265281 -0.009930453 0.0036373194 -0.006420338 -0.009630627 -0.015583806 -0.00085100345
0.003207919 -0.013073665 0.0026852356 0.002744149 0.01481459 -0.005336949 0.0020075794 -0.011231211
0.0031297635 -0.00753228 -0.002254877 0.0012092036 -0.003417 -0.0019254491 -0.0025236493 -0.011185494
0.0018432947 -0.009158446 -0.0078481315 -0.000558332 0.013372133 -0.0019022188 0.0011359093 0.0034503415
-0.0031975922 -0.013584177 0.012863608 0.0004852581 -0.0015455598 0.001916772 -0.0029398946 0.013662447
-0.00020750661 -0.002045254 0.0032915983 -0.005987846 0.0033727295 0.011454006 0.0051243985 0.011587152
0.017733568 -0.008062351 0.012630358 -0.015593724 -0.0077129 0.00920277 0.0180952 0.0043602563
-0.016240865 -0.009454028 0.00711872 0.0005885716 0.0056777503 -0.003462635 -0.022550024 0.0036464054
-0.0017623699 -0.013884771 0.004855312 0.002405307 0.0023349093 0.010124943 -0.012771377 0.003347234
-0.013773183 0.0027079831 -0.016698277 0.011907533 -0.0025598237 -0.006765188 0.0035173649 -0.01812496
-0.0022334517 0.0071821767 -0.019413805 0.0053677927 0.0023070085 0.0050764577 -0.0025644402 -0.0033220777
-0.010493788 -0.0038281872 -0.0036357834 -0.009155291 -0.002805984 -0.009161853 -0.0023592676 -0.007557088
0.013056804 -0.0029127907 -0.013766104 0.0036606533 0.00016106175 0.011207968 -0.0053475006 -0.0007176478
0.010930173 0.0042844294 -0.016480902 -0.0034765347 0.00087753264 -0.006531174 0.0047343206 -0.013012758
0.00029523173 -0.0024982404 0.00079728843 -0.00027392578 0.0030376806 -0.0016922991 0.012219228 0.009674672
-0.017760163 -0.0058120745 0.006135786 0.0056890347 -0.0007902219 0.008766252 -0.009064878 -0.004190656
-0.0045327693 -0.002535277 0.002003242 0.0051423847 0.0071883225 0.0044919425 -0.005119258 -0.0037270745
0.018581854 -0.0015659571 -0.0013381566 0.009585719 0.008761753 -0.008272069 -0.002459889 -0.003319616

action_model._discrete_distribution.branches.1.bias f4 [19]
00000000: 0000 0000 0000 0000 0000 0000 0000 0000
00000010: 0000 0000 0000 0000 0000 0000 0000 0000
00000020: 0000 0000 0000 0000 0000 0000 0000 0000
00000030: 0000 0000 0000 0000 0000 0000 0000 0000
00000040: 0000 0000 0000 0000 0000 0000
0.0 0.0 0.0 0.0 0.0 0.0 0.0 0.0
0.0 0.0 0.0 0.0 0.0 0.0 0.0 0.0
0.0 0.0 0.0

action_model._discrete_distribution.branches.2.weight f4 [15, 128]
00000000: cbf2 72bc 2fb9 e73b b203 d63b 3904 093c
00000010: 88f2 6ebb 9d69 74bb 726d b83b 3d02 4ebb
00000020: 1f72 e23b 324f 4e3b 3523 92bb b29f 063c
00000030: 53c7 ad3b 8f04 b63b 92c3 7fbc bb85 68ba
00000040: 0eb6 a43b e5fc fb3b fc56 2d3c 36c5 21bc
00000050: 970f 363a 4115 0b3c 1df2 6fb5 8b44 ce39
00000060: 290d a53a fc74 48bc 15de f1b9 c3d9 933c
00000070: 1a26 e4bb c0fd 50bc 8f27 273c e3f3 79b9
00000080: 1928 1c3c 798e 8a3a 3053 293b 9bd6 053c
00000090: e3bf 4ebb ea6a 733c 12a9 acbb 3b0a 93ba
000000a0: 4af2 993b dbea 803b a45e a0ba a3f1 89bc
000000b0: 7f92 34bc a3a7 f638 e3cb 70bc 202c 5b3c
000000c0: 3f14 cb38 ba9c 623b 1c47 183a 6a45 cdb8
000000d0: cf36 753c 4245 543c 9389 253c 78ed c93a
000000e0: 9751 55b9 c73d f33a d33a 483c 3301 523c
000000f0: d701 79bb 3cca 36bc bb1c 8bbb 8e79 1f3b
00000100: a202 7dbc b763 ff3b 0a6b 62bc 5b52 febb
00000110: dad7 05bc 62fa 6eba 5944 39ba 57eb 353b
00000120: 2845 83bc e0a6 51bc 02c4 e33b b216 813c
00000130: 19ad 23bc ca84 dd3a ef7d adbb d31a f23b
00000140: b8d4 2c3c df2a f4bb a9d3 883c aa52 59ba
00000150: e370 fc3b 9012 a8ba bbd6 27bc 45cf 983a
00000160: 3350 15bc 21d0 393c b674 143c 15b1 dc3b
00000170: 783e fc3b bee1 22ba 0358 183b 31c5 153c
00000180: 0580 e9ba e5d7 f1bb 1f07 1e3a d9d0 b03b
00000190: 15c7 ff3b 030f ec3b 6b49 ed3b 2da4 133b
000001a0: d785 763c 3d43 6a3b 00a0 3bbb fd4a 63bb
000001b0: c3c6 1b3a e31c 9bbb b58d 2c3b 470c 473b
000001c0: 4145 393c 3370 8d3b 49b5 023c 5510 9e3a
000001d0: 8dba 09bb 7492 373c 0de3 8a3b 909f 753c
000001e0: e411 8ebb 7389 5f3c b363 c5ba 13ae edbb
000001f0: ed9e c5bb db84 df3b 432a 853b 8bce 143c
00000200: 8d5e 94bc 65b2 40ba 93ab 343c 654c 5f3c
00000210: 69ad 093b 72c4 cdba 6ef7 8b3b f826 383c
00000220: e58d 68bb c326 833a 2909 02bc 1f51 393c
00000230: 65f5 643c abc8 c3bb 410b 2a3a 37ad 64bb
00000240: 34ad c2bc e3c7 b63b b1b1 cb3a 0b9b a53b
00000250: 8f09 7dbc c7c6 2a3c 7519 bd3b ba35 a5bb
00000260: 353a 7a3c f309 e1bb 12f6 5b3b b008 f93a
00000270: 5f80 42bc 204c 58bb 64c3 20bc 22a9 4ebb
00000280: 16e1 b2bb d8bd bcbb 133b 9e3c dfb8 0739
00000290: b7e1 433b d072 a8bb 486d d33c 9bf0 68bb
000002a0: 34eb b73b b546 d7bb 3b37 793b 3b29 b23b
000002b0: 2709 9338 6255 7ebb 78f4 4dbc b1d2 9a3a
000002c0: 2229 ff3b eb60 bebc d978 0f3c 453a 513c
000002d0: 91d8 223b b530 a1ba 8248 93bb c712 b3bb
000002e0: c7bd 4cbc 6cb3 1dbb 73de b0bb dcd2 bebb
000002f0: 10ac f7b9 979a 5cba e145 a53b bf73 e7bb
00000300: befc 023c afc7 9f3b 9bfa 9dbb a105 263c
00000310: 935a d33b 2a05 6b3b 84d8 46bb ad50 db3a
00000320: 894f 0d3d caf2 ea3a d4d5 253c 97ae 3c3c
00000330: 77ef 35bb 002d f9bb a7ba aeb8 6db2 af3b
00000340: ba9d 5fbc bc80 3d3b e3b0 0ebc 2a40 b23a
00000350: 234e 123a 9e4a 383c e712 253c bf91 f63b
00000360: 2291 b83b 4868 70bc 4f04 103c 30d5 6c3a
00000370: e798 64ba 3be8 993c b8c3 9f3b afc2 74bc
00000380: d7ee 46bb 974d e139 1594 62bb ab6a a6bb
00000390: 12d9 793b 6b37 3f3c 8571 293b 655e a73a
000003a0: 8455 873c a51f 5fbc f80e 68bc e7d7 6e3b
000003b0: 8777 d139 72a7 6a3c c376 da3b e745 b53c
000003c0: e38c afbb 71d6 483c 2daf 51bc 0adf 203a
000003d0: d3ad 38bc 3e8d a4bc 6a9f cbba afe2 5c3c
000003e0: 9a52 573c f00b 83bc 7920 a0bb 0fca 2fbc
000003f0: 33ba adba e08a e53b 463d ba3a 27ba 36bc
-0.014828394 0.007071636 0.0065312022 0.008362823 -0.0036460478 -0.0037294396 0.0056282813 -0.003143444
0.006910577 0.003148031 -0.0044597634 0.008216785 0.0053033023 0.0055547426 -0.015610592 -0.0008870025
0.0050265854 0.0076900595 0.010579821 -0.009873679 0.0006945072 0.008488954 -8.938676e-07 0.0003934245
0.0012592423 -0.0122349225 -0.00046132566 0.018048173 -0.00696255 -0.012755811 0.010202303 -0.00023837345
0.009531044 0.0010571025 0.0025836937 0.008168842 -0.003154748 0.014857033 -0.005269178 -0.0011218259
0.0046980726 0.003934247 -0.0012235236 -0.016838854 -0.0110212555 0.00011761419 -0.014697048 0.013377219
9.6835654e-05 0.003457828 0.0005808936 -9.788091e-05 0.014966681 0.0129559655 0.010103601 0.0015405854
-0.00020343658 0.001855784 0.012221056 0.012817669 -0.0037995481 -0.011156615 -0.0042453683 0.0024333927
-0.015442522 0.0077938694 -0.013819465 -0.0077612824 -0.008169139 -0.00091162894 -0.00070673745 0.0027758682
-0.016024187 -0.012796134 0.006950856 0.015757892 -0.00999 0.0016900536 -0.0052945535 0.0073884516
0.010548763 -0.0074513997 0.01670249 -0.0008290211 0.007703887 -0.0012822915 -0.010244067 0.0011658451
-0.009113359 0.011341126 0.009061029 0.006734977 0.0076978765 -0.0006213448 0.0023245818 0.009141252
-0.0017814642 -0.007380473 0.0006028283 0.0053959903 0.007805715 0.007203938 0.007241418 0.0022528276
0.015046558 0.0035745644 -0.0028629303 -0.0034682148 0.00059423986 -0.004733668 0.002632958 0.0030372308
0.011308015 0.0043163537 0.007977792 0.0012059311 -0.0021015734 0.011204351 0.0042384923 0.014991656
-0.004335629 0.01364361 -0.001505962 -0.0072534173 -0.0060309083 0.0068212575 0.004063876 0.009082447
-0.018111492 -0.00073508016 0.011027235 0.013629054 0.0021007902 -0.0015698804 0.0042714393 0.01123976
-0.0035484966 0.0010006059 -0.007936754 0.011310845 0.013974522 -0.005974849 0.00064866623 -0.0034893283
-0.02376423 0.0055780276 0.0015540627 0.005053883 -0.0154441735 0.010423369 0.005770857 -0.005041805
0.015272667 -0.006867641 0.0033563417 0.0018999781 -0.011871426 -0.0033004358 -0.00981221 -0.0031533916
-0.0054589612 -0.005759936 0.019315278 0.00012943473 0.0029889175 -0.00514064 0.025808945 -0.0035543803
0.005612755 -0.006569708 0.0038027305 0.005437044 7.011211e-05 -0.0038808216 -0.012570493 0.0011812059
0.007786886 -0.023239573 0.00875684 0.01277024 0.0024848322 -0.0012297841 -0.0044947276 -0.005464885
-0.012496418 -0.0024063243 -0.0053976118 -0.0058234762 -0.00047239708 -0.00084153697 0.0050437306 -0.0070633586
0.007994829 0.004876099 -0.0048211343 0.010133178 0.0064500063 0.0035861232 -0.0030341456 0.0016732417
0.03449968 0.001792514 0.010121781 0.011516235 -0.002776114 -0.0076042414 -8.331733e-05 0.005361846
-0.013648445 0.0028915843 -0.008709165 0.0013599445 0.0005581101 0.011248259 0.010075307 0.0075246985
0.0056325356 -0.0146733 0.00879009 0.0009034453 -0.0008720294 0.018787494 0.0048756264 -0.014938994
-0.0030354762 0.00042973153 -0.0034573127 -0.005078634 0.0038123769 0.0116709275 0.0025855016 0.0012769221
0.01652027 -0.0136183845 -0.014163725 0.0036444606 0.0003995264 0.014322149 0.0066669895 0.022128059
-0.005357371 0.012258158 -0.012798113 0.0006136751 -0.011271912 -0.02008688 -0.001553518 0.01348178
0.013142252 -0.015996903 -0.0048866835 -0.010729327 -0.0013254344 0.0070050806 0.0014208935 -0.011152781

action_model._discrete_distribution.branches.2.bias f4 [15]
00000000: 0000 0000 0000 0000 0000 0000 0000 0000
00000010: 0000 0000 0000 0000 0000 0000 0000 0000
00000020: 0000 0000 0000 0000 0000 0000 0000 0000
00000030: 0000 0000 0000 0000 0000 0000
0.0 0.0 0.0 0.0 0.0 0.0 0.0 0.0
0.0 0.0 0.0 0.0 0.0 0.0 0.0

action_model._discrete_distribution.branches.3.weight f4 [10, 128]
00000000: b6f0 1d3c 141c ac3a 0287 ffbb 0302 463c
00000010: ef40 84bb 66a4 b43b 8f2d d53b 7839 4bbb
00000020: 5fe1 5a3c 3c1d b93a 16a1 273c 6627 28bc
00000030: 9045 eebb 4fae 333b 056b d43b d7ce 03bc
00000040: bdcc 0bbc 1095 563b 4844 023c eb71 903c
00000050: 4899 7a3b 3758 4abb 1f1b 0a3b 8eb6 4abc
00000060: 1aba f63b a1fe 253c a93d 19ba 7e5c 39ba
00000070: 1abb 663c 0750 edbb 8808 dbbb 67ca b7bc
00000080: a1ea b439 43c9 043b cade 623c 92e6 54bc
00000090: a8f9 8439 154c 513b 5b60 853c 9b39 2fbb
000000a0: 337e 7e3b 0371 2b3a 9b56 34bc 680a 47bc
000000b0: dcd4 adbb 9b1d 6ab8 3db5 56ba 62af 64ba
000000c0: 3f60 2a3b 57f0 363c 7e50 463b 25b6 933b
000000d0: 938f 663c 0f1d 96bb 256a b73b c54e 38bc
000000e0: f63b ad3b 0b56 50bc 3bda d6bb 3d7b 79bc
000000f0: 26f1 89bb df2d 9f3b 6b72 8ebc bcb2 3a3c
00000100: 4fbd d0bb 0ca3 b3bb 8dea 0abb 9dee 60bb
00000110: 8552 733b fe1e 97bb 3aa3 4a3b eea7 0bbb
00000120: ef20 c3ba 368d 8dbb e697 21bc 970e 57bc
00000130: a92f 8d3b 6c59 acbc 4f5a 8fbc 9c0a 35bc
00000140: a7d1 623b c758 f83a c71c 143b 0b75 8c3b
00000150: d2fd aabb 089d 503c ec5f 023a c324 f53b
00000160: af20 23bc 25a7 56bc cfa7 0dbc 92b0 fb3a
00000170: 6216 763c eb4c f53b edf0 663c d910 863b
00000180: a87c d03b 41e7 a0b9 93db b3bb cf2b a53c
00000190: 27a6 33bc 9bdc 29bc f711 dc3b 3370 cd3b
000001a0: c9ca 0c3c 94e5 2a3c 0fe3 fc3a ae46 2b3b
000001b0: c26f 26bb 9b2e fc3b a90d 94bb 62c4 463c
000001c0: f87a 6cba 7092 0dbc 0fc2 31ba 5517 b239
000001d0: 75ff 7a3b a89f 3fbc c2d2 e43b 16b0 bdbb
000001e0: 0152 07bc 9691 993b 30e9 923c 5245 babb
000001f0: 0eb2 94bc 111c 28bc c296 76bc ee50 33b8
00000200: 38ef 6db8 b303 4a3c ddf8 e2bb 11a2 22bc
00000210: 9bf0 c93a e63d 3b3c 9720 22bb a0e0 57bb
00000220: 7f43 433c 4434 39bc 2045 6ebb 63e6 4a3c
00000230: b5d9 863b a05b bdbb 5a60 0bbc c47b bf3c
00000240: d847 443c fcdb b0bc 7ac7 853c 3750 6b3b
00000250: 5b21 7d3c 2c93 10bc b0ca a9bc b185 04bd
00000260: 8827 143c 1c76 8dbc 06ea 953b 6a66 9dbc
00000270: ea84 70bb be27 3abc 9d9e f73b 7fea 03bc
00000280: 8ab3 513a b3fa 1bbc e996 c9bb 83a5 70b8
00000290: b634 913b 5f4b f23a 43d0 0db8 0baa 183c
000002a0: 9d69 ffbb 4592 30bc 444d 8abb ffa6 fdbb
000002b0: cf36 a03b acdd 803b b3e8 32bb 882d 13bb
000002c0: 8dc1 1f3c 80c5 bdbb 36e4 a63b 2f1f af3c
000002d0: 35d1 5c3c e05d 29bc f165 453a c7dd 893b
000002e0: d4d1 373c 2d38 aaba b6b1 b63c 67dc 8dba
000002f0: cb7f 653a 2f71 51ba 51c6 103c cd7b 8b3a
00000300: 0f8a 7bba b38c b93a e239 aebb 8bb6 673b
00000310: 0839 573c 8a6d 3639 5ab9 84bc e0f9 e83b
00000320: 43f8 3c3c 47d9 863c 0b19 34bb 38dc 393c
00000330: da24 00bc ad2c e73b fd19 41bc 26dd ac3a
00000340: 38e4 91bc 9284 acbb 9873 8e3a 959e 8439
00000350: 443a 94bc 3daa 523b 02be 9ebb 49ce 063c
00000360: ad5f 67bc 9240 983b 02c9 debb 0307 843b
00000370: f04b 9c3b 00c9 433b 154a 3a3b f11b 333c
00000380: 07aa 2e3b 569f a9bb 30b5 c439 b015 64bc
00000390: ffc4 8bbc df92 aabb db35 3239 9071 e13b
000003a0: 36b2 ca3a 97c3 623b 262a 47bc e709 7abb
000003b0: b2bb 223b d81a 00bc 1bcf 0aba 455d 663b
000003c0: 85cb dc3b d739 373c c69e 94b9 3a66 7a3b
000003d0: dcf3 84bb aa78 1f3c 86e6 83ba 7369 baba
000003e0: 2d33 f4bb 584b 6fb8 c30d 393b 7ae7 063c
000003f0: 5856 fdbb faf7 66b9 5731 17bb 1b15 46ba
0.0096399095 0.0013130927 -0.0077980766 0.012085441 -0.004036061 0.005512762 0.006505675 -0.0031009596
0.013359397 0.0014123092 0.010231277 -0.0102633 -0.007271476 0.0027417128 0.0064824843 -0.00804492
-0.0085327 0.0032742657 0.00795085 0.017632445 0.0038238335 -0.0030875334 0.0021073294 -0.012372626
0.0075295093 0.010131509 -0.0005845675 -0.00070709724 0.014082694 -0.007242206 -0.0066843666 -0.02243538
0.00034507088 0.0020261563 0.013847062 -0.012994425 0.0002536301 0.0031936218 0.016281297 -0.0026737216
0.0038832545 0.00065399724 -0.0110069765 -0.012148477 -0.005304916 -5.581752e-05 -0.0008190459 -0.0008723644
0.0025997309 0.0111657 0.003026038 0.0045077973 0.014072317 -0.004581101 0.00559737 -0.011249249
0.005286689 -0.012715827 -0.006556777 -0.015227136 -0.0042096553 0.004857763 -0.017388543 0.011395153
-0.0063702236 -0.005482083 -0.0021196932 -0.0034321912 0.0037128043 -0.004611849 0.0030920045 -0.002130981
-0.0014887134 -0.004319812 -0.009862876 -0.013126037 0.00430866 -0.021038733 -0.017499117 -0.011049893
0.0034609826 0.0018947356 0.002260016 0.0042864135 -0.005218246 0.012732752 0.00049734 0.007481189
-0.009956523 -0.013101374 -0.008645966 0.0019202402 0.015019985 0.007485976 0.014095527 0.004091364
0.0063625164 -0.00030689876 -0.005488822 0.020162491 -0.010964907 -0.010367538 0.0067160088 0.0062694787
0.00859327 0.010430712 0.0019293743 0.0026134658 -0.0025396203 0.0076959855 -0.00451823 0.012131782
-0.00090210093 -0.00864087 -0.0006780931 0.0003396819 0.0038299237 -0.01169578 0.006983132 -0.0057888133
-0.008259297 0.0046865446 0.017933458 -0.005684533 -0.01815131 -0.010260598 -0.015050592 -4.2752297e-05
-5.6727993e-05 0.0123299835 -0.0069266395 -0.009926335 0.0015406789 0.011428332 -0.0024738663 -0.0032940283
0.011917948 -0.011303965 -0.003635712 0.01238403 0.004115308 -0.005778745 -0.008506859 0.023374446
0.0119800195 -0.021589272 0.01633047 0.0035905966 0.015449847 -0.008824151 -0.020726532 -0.03235406
0.009042628 -0.017268233 0.004575017 -0.019213874 -0.0036700317 -0.011362014 0.00755675 -0.008051514
0.00079994707 -0.009520221 -0.006152023 -5.7374604e-05 0.0044313325 0.0018485597 -3.381098e-05 0.009317885
-0.0077945725 -0.010777061 -0.0042206366 -0.0077408548 0.004889346 0.0039326753 -0.0027299344 -0.0022457559
0.009750736 -0.005791366 0.005093123 0.021377174 0.013477613 -0.010337323 0.0007530144 0.004207346
0.0112194605 -0.0012986712 0.022301536 -0.0010823131 0.00087546994 -0.0007989583 0.008836345 0.0010641754
-0.00095954625 0.0014156312 -0.0053169588 0.0035356607 0.013136156 0.00017397679 -0.016201664 0.0071098655
0.0115338 0.016461028 -0.0027480747 0.011344008 -0.007821286 0.0070548863 -0.011785981 0.0013188466
-0.017809018 -0.005264827 0.001086819 0.00025295155 -0.01809419 0.0032144927 -0.004844428 0.008227893
-0.014121932 0.0046463693 -0.0067988643 0.004029156 0.0047697946 0.0029874444 0.0028425504 0.010931955
0.0026651637 -0.005176465 0.00037519028 -0.013921186 -0.017061708 -0.0052054967 0.00016995466 0.006879993
0.0015464488 0.0034601444 -0.012156045 -0.0038152875 0.0024831113 -0.0078189 -0.00052951433 0.0035150808
0.0067381286 0.011183224 -0.00028347055 0.0038207904 -0.0040573906 0.009733358 -0.0010063208 -0.00142221
-0.0074523897 -5.705221e-05 0.0028236962 0.008233899 -0.0077312402 -0.00022026888 -0.002307018 -0.00075562455

action_model._discrete_distribution.branches.3.bias f4 [10]
00000000: 0000 0000 0000 0000 0000 0000 0000 0000
00000010: 0000 0000 0000 0000 0000 0000 0000 0000
00000020: 0000 0000 0000 0000
0.0 0.0 0.0 0.0 0.0 0.0 0.0 0.0
0.0 0.0

network_body._body_endoder.seq_layers.0.weight f4 [128, 78]
00000000: 59a0 f4bd e31c 90bd 2d17 8bbc 43fe 0c3d
00000010: d409 06be 382c 8d3e 08db 68be 4b49 3e3e
00000020: f263 babd 013f 4e3d f71f 9d3d d299 6c3d
00000030: 7283 473c db79 e93d 8572 55be 755c 793d
00000040: 8bd4 b43c f714 d3bc 7ec7 bb3d 3753 4dbe
00000050: 702b d5bd c4e7 3c3e b474 81bd d1aa e63d
00000060: dc59 183d d5fb 2c3d 4e36 17bd 7b5e e8ba
00000070: 6254 9d3d 8638 41bc 60b7 37bd b091 fa3d
00000080: 0f09 0fbe 488b 18be b73a 313e d53a 0a3c
00000090: 3879 b5bd f2df 33bd 04c9 493c c0a1 b93d
000000a0: 1d30 16bd c8e2 c53d 633b 1a3d 8123 cfbd
000000b0: 6b20 1c3e 2e35 08bd 97e6 bf3d ca5c 1dbe
000000c0: fa47 19be 940d dbbd 8d1a 2b3e ca65 333e
000000d0: 3bcf 8fbd 330d e4bd 75cc 203e 300a 323e
000000e0: 05a2 d13d ce61 34be ab52 5dbe 8005 c53d
000000f0: 076e 92bb 3e29 2dbd 94b2 3f3d 2faf b1bd
00000100: e6ed fd3d 87e0 c9bd 5bb3 e0bd cf0f 813c
00000110: 4d98 e23d 2ef2 2abc f73c e23d 23d7 983c
00000120: a692 adbd 8701 493d 073b c23d a84d ac3d
00000130: 44aa 273e f91f 483e 4007 b43d 5ed1 c63d
00000140: 6f6b 183e 2fa7 d83d 1d83 75bd 6360 41be
00000150: 36bf 28bc 4d35 8dbd c27b ebbc fd83 043e
00000160: db12 f93a 75a0 353d 212d 7e3c 4bda c2bd
00000170: 480c 77bd 639b 7ebe 79e4 01be e82d 553d
00000180: f50b c0bd 35ff f13d 6ccf 103e 5b01 4dbc
00000190: b1e4 92be c7af 1fbd 736a 3f3d e488 d7bd
000001a0: 7459 793e 34fd 37bd 9784 3fbc 24ee 56bd
000001b0: 92cd cfbd a610 2abe a2d3 f83c 44bf a43d
000001c0: 799d 99bc f3b9 10be 6f36 4cbd d2dc aa3e
000001d0: 3d9d 26bd caa4 05bd 51bc 76be 5a63 48be
000001e0: 60f0 4cbd 30e0 6d3d 2c2f 143e 1fd5 583d
000001f0: ada1 523d 8456 80bd 9c4a c03d df0b edbd
00000200: 7668 883d 05ed e5bc ff66 17bd ec62 2fbd
00000210: e55f f1bd d976 7dbe 3b9e 6dbc 0ed0 633c
00000220: c6e8 683d f2c9 dd3c cb0b 57be 88b1 703d
00000230: 825e 123d de39 1e3e bc1f bbbd 7ff1 0a3d
00000240: 229b 9e3d 04b9 a8bc 9e18 f13d ec99 c1bd
00000250: 86b9 b3bc 9395 823d 2658 0d3d 2818 f63d
00000260: 94e0 92bc 2708 c63d 10c6 4ebe 5ce5 9a3d
00000270: 793d d23d 8897 30bd 038d bdbd c18d 57bd
00000280: 690e 22bc b0b8 b5bd 2c61 cfbd a921 04bd
00000290: 83a2 d03d 3df5 84bd 142c 82bd 9ad7 bdbc
000002a0: 05ce 293e aebe cfbd 801a edbd 3e65 a9bd
000002b0: edb0 3f3e 5b10 aabd 8557 80bd 3612 77bd
000002c0: 1314 d1bc d646 553d de08 a43a 9046 503d
000002d0: 02a4 093d bcb5 e63b 7070 4abc 5acd 07be
000002e0: b22f bf3d 037b bf3d ed31 5dbe 7bad 563e
000002f0: a398 e0bd 7989 b23b 904f f8bd 6e22 fe3d
00000300: 6fa0 6c3e e098 143e 92cf 563e bb24 973d
00000310: e135 de3d 026e 08be 795e b5bd b09a 5ebc
00000320: 7edc 46bd deae 573d feb1 723d 139b a3bd
00000330: fa0e 17be 45b1 633b 29e7 513e d621 803d
00000340: 7705 2fbd d1c4 213d 2ba6 a53c bff8 eabd
00000350: e181 c5bd c8a5 9abc c064 ccbd 1856 59bd
00000360: 0216 c23d 39b8 12bd bb78 813d ada7 743c
00000370: dd1c c5bc d315 703d 1d69 113e 6153 543d
00000380: f51b e53c efd6 b6bd 1172 ed3d e3a6 a13d
00000390: 8390 ca3d 7a75 3e3e 9894 573d ce10 223e
000003a0: 85bc b4bc ac58 033e c4ee 893d e5d4 b93d
000003b0: 012a abbd c9ff 2fbd 3dab 033d 1068 2f3d
000003c0: d977 a03d 7e56 27be 5ecb 24bd 9ec9 80bd
000003d0: ca8a bcbc a2c8 0b3e 7d1d d43c 1931 90be
000003e0: a98c 583e e9ee e13d 63ba 7bbd dc72 253e
000003f0: 26d3 a6bd 7a6c 9abd 2134 91bd 854e 453e
-0.119446464 -0.0703676 -0.016978825 0.03442217 -0.13089687 0.275728 -0.22739804 0.18582647
-0.09101094 0.050353054 0.076721124 0.057763882 0.012177335 0.11400195 -0.20844467 0.06087919
0.022074005 -0.025766833 0.091689095 -0.20051275 -0.10408676 0.18447787 -0.063210875 0.112630494
0.03719507 0.042232353 -0.036917023 -0.0017728353 0.0768211 -0.011793261 -0.044852614 0.12234819
-0.139683 -0.14896882 0.17307554 0.008436878 -0.08861011 -0.043914743 0.012315992 0.090640545
-0.03666698 0.09662396 0.03765429 -0.10114194 0.15246741 -0.03325384 0.093701534 -0.15367427
-0.14968863 -0.10695949 0.16709347 0.17519298 -0.07021948 -0.1113533 0.15702994 0.17386699
0.10235981 -0.17615435 -0.21613567 0.0962019 -0.0044686827 -0.04227566 0.046801165 -0.08675992
0.12398891 -0.09857278 -0.10971709 0.015754608 0.11064205 -0.010433717 0.11046784 0.018657273
-0.084752366 0.049073722 0.09483915 0.08413249 0.16373545 0.19543447 0.08790445 0.09707902
0.14884733 0.10578763 -0.059939492 -0.18884425 -0.0102994945 -0.06894932 -0.028745536 0.12940975
0.0019002812 0.044342477 0.015513689 -0.09514292 -0.060314447 -0.24863963 -0.12684812 0.052045733
-0.093772806 0.11816255 0.14141625 -0.01251253 -0.28690103 -0.038985994 0.046732377 -0.10524157
0.2435053 -0.044919208 -0.011689327 -0.052473202 -0.10146631 -0.16607913 0.030374352 0.080442935
-0.018751847 -0.14133434 -0.0498566 0.33371598 -0.040677298 -0.03262786 -0.24095275 -0.1956915
-0.050033927 0.05807513 0.1447112 0.052937623 0.051423717 -0.062665015 0.093892306 -0.1157453
0.06660549 -0.028067121 -0.03696346 -0.04281895 -0.117858686 -0.24752368 -0.014503057 0.013904585
0.056862615 0.027073834 -0.21000592 0.058763057 0.03573466 0.15451762 -0.09136912 0.033921715
0.07744433 -0.020596035 0.117722735 -0.094531864 -0.02193905 0.06376185 0.034507893 0.12016326
-0.017929353 0.09669524 -0.20192742 0.07563278 0.10265631 -0.04311326 -0.092554115 -0.05262542
-0.009891131 -0.08873117 -0.10125956 -0.032258663 0.10187247 -0.06492088 -0.063560635 -0.023174096
0.16582496 -0.10143791 -0.1157732 -0.082712635 0.18719836 -0.08303901 -0.06266693 -0.0603201
-0.025522267 0.052069508 0.001251485 0.050848544 0.033603676 0.0070407074 -0.012355909 -0.13261929
0.09335269 0.093496345 -0.21601076 0.20964615 -0.10966613 0.005448517 -0.1212455 0.12408911
0.23108076 0.14511442 0.2097762 0.07380053 0.1085012 -0.13323215 -0.0885591 -0.013586685
-0.04855012 0.052657 0.059251778 -0.079885624 -0.14751807 0.0034743112 0.20498337 0.06256454
-0.04272982 0.03949434 0.020220837 -0.11473226 -0.09643913 -0.018877879 -0.09980154 -0.05306062
0.09476854 -0.03582022 0.06321856 0.014932555 -0.024061615 0.058614563 0.14200254 0.05183733
0.027967433 -0.08927714 0.11594022 0.07893159 0.09890845 0.18599501 0.052631944 0.15826723
-0.02206255 0.12826794 0.06734994 0.090738095 -0.08357621 -0.042968545 0.032145727 0.04282385
0.07835359 -0.16341588 -0.04023301 -0.062884554 -0.023015399 0.13650754 0.025892967 -0.2816246
0.21147408 0.110318966 -0.06145705 0.16157097 -0.08145742 -0.075402215 -0.07090021 0.19268234
