FYPprototype/results/Test3/AIBalancing/AIBalancing-200.pt (torch, 247543 bytes, 18 tensors)

discrete_act_size_vector f4 [1, 4]
00000000: 0000 0040 0000 9841 0000 7041 0000 1041
2.0 19.0 15.0 9.0

network_body._body_endoder.seq_layers.0.weight f4 [128, 78]
00000000: e60b 3c3e 3458 1d3e 2277 893d a459 81be
00000010: 4644 78be 913d 0d3e 5867 033d 02d9 843d
00000020: 7f84 833c 6530 59be c438 43bd c0a5 18be
00000030: f11a 13bd 8a30 2c3e 41e2 133e d382 a83d
00000040: cb86 8b3d 0cd7 48be 4ac0 3f3e b482 55bd
00000050: 1e64 eebd 8b15 3abe cb4a d3bd bf07 85bd
00000060: 2cec 2abe 890c be3b d280 373e c2be 0abe
00000070: 5187 30be 42ba 683e c264 17be 6040 363c
00000080: 4888 0bbd 78c8 4b3c 0be7 0a3e fd79 e9bd
00000090: c1cb a33d f49b dbbd 0ca4 9b3d 8fe7 8a3c
000000a0: 7420 5dbd 255a 92bd d01d 603e 92c9 01be
000000b0: 45fe 10be 4902 60bd f84f 923c d055 f13d
000000c0: e91b 333e 000f 233e af75 ccbb 76d8 f23d
000000d0: 27dd aebd 0a27 043e ec20 28be b268 0c3e
000000e0: d06d 2cbe 84b1 83bd 7e24 853d 64fe cfbb
000000f0: 6ac8 6d3c c972 d13d 4679 0f3e e4c2 1b3e
00000100: d18c dfbd 1964 aabd 4c9a a53d ac64 e3bd
00000110: 8bf1 73bc 4f59 21bd c007 ccbd 7c20 aebc
00000120: 704b 54be e245 17bd 956f 83bc effe b83d
00000130: 27f4 c03d 3cdf b4bd b23c cbbc ddb7 2b3e
00000140: a8a1 aebd a027 40be 5d34 80be 169f 813d
00000150: d5ec c53d 2a40 d5bd 8839 36bd e74b 093e
00000160: 0111 da3c 6332 22be d06c 243d dcee a8bd
00000170: 96cc 78bd 69ee 7cbc 16de 46bd 9cb4 8f3d
00000180: 556e 8abd d22c 97bd 29c5 a13c 9eb1 d9bc
00000190: 6375 45be daec 7bbd dd74 8fbd 2c5d fdbd
000001a0: e859 40be 1f9e ba3b cb6e 4b3d 5ed5 2fbe
000001b0: 4034 773c 772d 383e f5c5 a3bd 521e d43c
000001c0: 4356 2a3d 49d5 b3bb f882 babd ba50 16be
000001d0: 6ba6 51be 1d85 7bbd 8609 03bd 21e5 2fbd
000001e0: 1f52 bdbc 2616 0c3e 912b 933d 33e0 06bc
000001f0: 2d92 b3bd de86 c1bd e1f3 173e 5a97 fcbd
00000200: 915d 033e da54 d13d d525 7cbd 1005 94bd
00000210: 092f fe3d ed0e 343e b535 bb3d 182b 40bd
00000220: 5d8e d13b 50d3 1b3e 4a49 3fbd a5d7 753d
00000230: c7d4 a7bc d933 f03c 132e 9dbd 8434 1eba
00000240: c4d5 efbc 5c84 23be 3eeb 1c3d c0f7 b9bd
00000250: 2bff b03b 1887 20be 9357 e23b e9dc 4abd
00000260: b280 973d 24f2 b7bd ee36 ae3d 752b 6fbe
00000270: a93d 3cbe 2610 ab3d 6c43 233c eac0 d43d
00000280: 6720 efbd c84c a4bd 0627 0f3e 6b02 adbd
00000290: 7490 10be 32a4 2cbc acfb c5bd d26f ff3d
000002a0: 9c86 07bd d262 333e a44b 2dbd d7e5 f7bc
000002b0: 445d 193e 279e a73d 6f61 b03d 1122 01be
000002c0: 63b5 dd3c b4cf fe3b f433 37bd 96a3 82bd
000002d0: 633b 81bd fe19 e8bd 90c6 c13d 2fda 3cbc
000002e0: ce7f d23b 9e67 74be 355f 533c 0193 353e
000002f0: 985a 8a3d aceb 9c3d 6200 483a 55d4 d33d
00000300: 84e3 0a3d e025 183e c41d 0f3e 0515 67be
00000310: a0c8 c23d a268 24bd fdba 9abd c34f 68bc
00000320: d32d a3be 6867 9ebd 6639 95bd 1078 b7bd
00000330: 3ced 2d3d 3a90 b83d b002 5e3e 4a84 b5bd
00000340: 7de0 273e 8f61 2ebd ec77 46bd 5aa3 17be
00000350: d669 d2bd 2045 493d 9ccf a6be 9752 afbc
00000360: 556d 7e3d cb40 de3d a81e 483e 95b7 653c
00000370: 19bc 1abe dc5d 463d d06a 443d dc02 fbbd
00000380: 3f7d f33d 5d41 87bd ebc5 b13d 4229 98bd
00000390: a8fe b13d 9546 adbd 5ab5 42bc 0236 a83d
000003a0: 92ce d9bd def2 af3d 928e 0cbe b9bf 5a3e
000003b0: fd07 233e ce4b 7bbe a081 debc b542 17be
000003c0: ecb1 1ebd 8ac5 063d dd91 113e 3464 333c
000003d0: 1a14 44bd 37ea 1c3d c017 cc3d 2bbf 35be
000003e0: de17 4c3e 81de cfbd 71ea b8bd 4fdb 813d
000003f0: 8d54 bcbc 06c8 35bd 8de3 e13d ecc1 d73c
0.18363914 0.15365678 0.06712176 -0.25263703 -0.24244794 0.13793017 0.03208098 0.064867035
0.01605439 -0.21209867 -0.047661558 -0.14906979 -0.035914365 0.16815391 0.14441778 0.08228078
0.06812819 -0.19613284 0.18725696 -0.0521266 -0.116401896 -0.1817228 -0.10317 -0.06495618
-0.16691655 0.005799834 0.17920235 -0.13549331 -0.17239119 0.22727302 -0.1478453 0.011123747
-0.034065515 0.012437932 0.13564698 -0.114002205 0.07997847 -0.10723105 0.07599649 0.016956119
-0.053986028 -0.071461 0.21886373 -0.12674549 -0.14159496 -0.05468968 0.017860398 0.117839456
0.17491116 0.15923691 -0.006239615 0.11857693 -0.08538275 0.12905517 -0.16418809 0.13711813
-0.16838765 -0.06430343 0.06501101 -0.0063474644 0.0145131145 0.10226972 0.14011106 0.15211064
-0.109155305 -0.08319873 0.080860704 -0.11103186 -0.014889131 -0.039391812 -0.09962416 -0.021255724
-0.20731902 -0.03693188 -0.016044417 0.09033 0.09421568 -0.08831641 -0.024809215 0.16769357
-0.08526927 -0.18765116 -0.2503995 0.06329171 0.09664313 -0.10412629 -0.04448846 0.1340786
0.026619436 -0.15839534 0.040142834 -0.08248684 -0.060741983 -0.015437701 -0.04855164 0.070168704
-0.067593254 -0.07381596 0.019747334 -0.026573952 -0.1928306 -0.061505176 -0.07004712 -0.12371287
-0.18784297 0.005695119 0.049666207 -0.17171237 0.015088141 0.17986093 -0.07996742 0.025893364
0.04158617 -0.005488072 -0.091070116 -0.14679232 -0.2047364 -0.061406244 -0.031991504 -0.042943124
-0.023110447 0.13680324 0.07186044 -0.008232164 -0.08768115 -0.09449552 0.14839126 -0.123335555
0.12828662 0.10221262 -0.061559517 -0.07227528 0.12411315 0.17583819 0.09141103 -0.046916097
0.006395145 0.15217328 -0.046700753 0.060020108 -0.020487202 0.029321598 -0.076748036 -0.0006035047
-0.029276736 -0.1596846 0.038310282 -0.09080458 0.005401512 -0.15676534 0.0069074123 -0.049527083
0.073975936 -0.089817315 0.08506571 -0.23356421 -0.18382896 0.083526894 0.009964805 0.10388358
-0.11676102 -0.08022457 0.1397973 -0.08447727 -0.14117604 -0.010537194 -0.09667143 0.124725
-0.033087358 0.17518166 -0.042308465 -0.030260963 0.14976984 0.08184462 0.08612334 -0.12610652
0.027064031 0.007776225 -0.04472728 -0.06378858 -0.06310155 -0.113330826 0.09461701 -0.011526628
0.006423927 -0.23867652 0.012901117 0.17731859 0.06755561 0.07662138 0.00076294516 0.103432335
0.033908382 0.14858198 0.13976198 -0.22566612 0.095109224 -0.040138848 -0.075551964 -0.014179173
-0.318709 -0.07734567 -0.072863385 -0.08958447 0.042462572 0.09011884 0.21680713 -0.08863123
0.16394229 -0.042573508 -0.04845421 -0.14808407 -0.10274093 0.04913819 -0.32580268 -0.021401687
0.062115986 0.10852202 0.19542944 0.01402082 -0.15110816 0.048429355 0.047953427 -0.12256405
0.11889123 -0.06604264 0.08680328 -0.07429744 0.0869115 -0.08460728 -0.011884058 0.08213426
-0.10635103 0.08591245 -0.13726261 0.21362199 0.15921016 -0.24540636 -0.02716142 -0.1477154
-0.0387439 0.03290323 0.14215799 0.010949183 -0.047870733 0.038309302 0.099654675 -0.17748706
0.1993098 -0.10149861 -0.09029091 0.06340658 -0.022989536 -0.04438021 0.1102973 0.026337586

network_body._body_endoder.seq_layers.0.bias f4 [128]
00000000: 0000 0000 0000 0000 0000 0000 0000 0000
00000010: 0000 0000 0000 0000 0000 0000 0000 0000
00000020: 0000 0000 0000 0000 0000 0000 0000 0000
00000030: 0000 0000 0000 0000 0000 0000 0000 0000
00000040: 0000 0000 0000 0000 0000 0000 0000 0000
00000050: 0000 0000 0000 0000 0000 0000 0000 0000
00000060: 0000 0000 0000 0000 0000 0000 0000 0000
00000070: 0000 0000 0000 0000 0000 0000 0000 0000
00000080: 0000 0000 0000 0000 0000 0000 0000 0000
00000090: 0000 0000 0000 0000 0000 0000 0000 0000
000000a0: 0000 0000 0000 0000 0000 0000 0000 0000
000000b0: 0000 0000 0000 0000 0000 0000 0000 0000
000000c0: 0000 0000 0000 0000 0000 0000 0000 0000
000000d0: 0000 0000 0000 0000 0000 0000 0000 0000
000000e0: 0000 0000 0000 0000 0000 0000 0000 0000
000000f0: 0000 0000 0000 0000 0000 0000 0000 0000
00000100: 0000 0000 0000 0000 0000 0000 0000 0000
00000110: 0000 0000 0000 0000 0000 0000 0000 0000
00000120: 0000 0000 0000 0000 0000 0000 0000 0000
00000130: 0000 0000 0000 0000 0000 0000 0000 0000
00000140: 0000 0000 0000 0000 0000 0000 0000 0000
00000150: 0000 0000 0000 0000 0000 0000 0000 0000
00000160: 0000 0000 0000 0000 0000 0000 0000 0000
00000170: 0000 0000 0000 0000 0000 0000 0000 0000
00000180: 0000 0000 0000 0000 0000 0000 0000 0000
00000190: 0000 0000 0000 0000 0000 0000 0000 0000
000001a0: 0000 0000 0000 0000 0000 0000 0000 0000
000001b0: 0000 0000 0000 0000 0000 0000 0000 0000
000001c0: 0000 0000 0000 0000 0000 0000 0000 0000
000001d0: 0000 0000 0000 0000 0000 0000 0000 0000
000001e0: 0000 0000 0000 0000 0000 0000 0000 0000
000001f0: 0000 0000 0000 0000 0000 0000 0000 0000
0.0 0.0 0.0 0.0 0.0 0.0 0.0 0.0
0.0 0.0 0.0 0.0 0.0 0.0 0.0 0.0
0.0 0.0 0.0 0.0 0.0 0.0 0.0 0.0
0.0 0.0 0.0 0.0 0.0 0.0 0.0 0.0
0.0 0.0 0.0 0.0 0.0 0.0 0.0 0.0
0.0 0.0 0.0 0.0 0.0 0.0 0.0 0.0
0.0 0.0 0.0 0.0 0.0 0.0 0.0 0.0
0.0 0.0 0.0 0.0 0.0 0.0 0.0 0.0
0.0 0.0 0.0 0.0 0.0 0.0 0.0 0.0
0.0 0.0 0.0 0.0 0.0 0.0 0.0 0.0
0.0 0.0 0.0 0.0 0.0 0.0 0.0 0.0
0.0 0.0 0.0 0.0 0.0 0.0 0.0 0.0
0.0 0.0 0.0 0.0 0.0 0.0 0.0 0.0
0.0 0.0 0.0 0.0 0.0 0.0 0.0 0.0
0.0 0.0 0.0 0.0 0.0 0.0 0.0 0.0
0.0 0.0 0.0 0.0 0.0 0.0 0.0 0.0

network_body._body_endoder.seq_layers.2.weight f4 [128, 128]
00000000: 6476 d2bd c11a 853d 2919 703d acef 0fbe
00000010: a820 243e 07b9 b13d 51c5 fcbc ebde 7a3d
00000020: 9bc5 893d b2e9 233e c24c 03be 15f0 923d
00000030: a6c2 f3bc bff9 88bc 2b9b a5bd ba09 68bd
00000040: 87f8 e13d 37ca 043d 34dc e2bd b6a4 b2bd
00000050: 7602 1cbd 9708 34bd 30c6 dd3c 5359 61bd
00000060: 5574 0c3d b1f3 f7bd adcb 3c3e f62b 903d
00000070: 8924 ecbd 26d9 333e 9d30 b8bd 202d 333d
00000080: f9cd 773d 4d83 b03d b656 bc3d 7b32 4cbd
00000090: d31d 223c a359 093e da22 b53d d9f3 a3bd
000000a0: a08e 883d 808b ab3d 50b1 8d3c a559 2abd
000000b0: 5368 853d 3239 edbc ecc8 ddbc 037f 17bc
000000c0: b58e 0c3d 3640 d63c a3a8 d63d 6c18 723a
000000d0: 6a74 d6bd ee6b 533e 879a 7e3d 5316 133a
000000e0: 1966 16bb b231 293d 901a b7bd b9f2 66bd
000000f0: 1971 1e3e 13f0 b23d 63f9 2e3d a81d f93b
00000100: 4209 59bd 863f 9d3d 81e2 57bc a28d d43d
00000110: 1b33 f4bc c137 17bc 8a62 893d edc4 313d
00000120: f588 38bd 682b 3e3d 162f b3bd cd22 653d
00000130: 4693 bd3d b356 83bd ec47 d0bc a02a 223d
00000140: 1ed6 613d 8238 6f3d 94e2 b33d 2169 e03d
00000150: 5a00 5bbd 2aa0 c7bd 7e3b e2bc 39f2 c93d
00000160: 719a bb39 16db acbc 8017 d93d 201f fdbc
00000170: dcd9 0fbe e2d7 efbd 89e0 793d 05e4 853d
00000180: 111f 463d aeb9 a93b a7d9 5fbd 1998 013e
00000190: afbf 583e 70bd dd3c 50f1 13bd f81c cb3d
000001a0: 7df6 ca3d b32d 233d ac1b 773d 598a 3fbb
000001b0: 47e7 b5bd 71bb 0ebe 3f4f 9f3d fc6b 953d
000001c0: 6d29 e0bd d42f 25bd e541 68bd 22cb 96bd
000001d0: 2bca 28be 105d 1cbd d7a0 91bc 2b78 54bd
000001e0: 32db 52be efdd f43d fbe9 09bd 7d50 a63d
000001f0: bb87 06be 4452 013c 74bc f4bc 5b05 81bd
00000200: ce78 cbbd 709b b7bc 5a9f b8bc 7d18 a73d
00000210: b02c 063e d574 e13c 482f acbd c352 853d
00000220: f618 50be d645 eb3d 2bc0 1f3e 05fe d6bd
00000230: 03bd 073e 6239 ce3d 4589 52bd 1f57 113d
00000240: 1bab 34be a5e7 cfbc be20 afbd 227f 553d
00000250: 6d59 7fbd 3cbc 5cbd 2714 f93c ab7d 65bd
00000260: 3f05 2d3e cffc 833d 4925 03be f05a 133d
00000270: 4323 8ebb 4e69 013d c8aa d93d 2859 bb3d
00000280: fb9c 9e3d e035 d5bd 4949 f9bc 69bd f53c
00000290: 822f e13d 59c9 8fbe ab1c d93c 0f2f a33d
000002a0: b78e 283e 4463 cf3d f769 7f3d 63ad e03c
000002b0: 9751 82bd 1b66 1bbb 0dc8 33bd 9f70 f93d
000002c0: 4706 0a3e dfc6 a83c ca74 36be f031 c73d
000002d0: e6fe 2fbe 4808 bb3d 6811 92bc f592 383e
000002e0: 8ec4 203e b036 abbc fec5 a13c bf49 413d
000002f0: 0d8f b83d 5e5c f7bd 4e7d 46bd 1ee1 293d
00000300: 3ee7 7a3d 39ce 7ebd e0ed 64bd c732 e8bd
00000310: 9928 2cbd 89d0 70bd db82 e0bd 4472 64bd
00000320: 6712 cc3d 2842 ecbd f298 db3d 75fe 69bc
00000330: 6ba6 193d 1440 c33c 6e65 603d e210 bdbd
00000340: 0893 2cbd 8dd2 99bd 7df7 79bd 1107 5ebd
00000350: f086 08bd eb92 b83d de1d 703c 65f4 bbba
00000360: 2567 963d 8bf4 f6bc 3078 56bc f9bb e93c
00000370: e332 cebd daeb 68bd d511 f73d f02d 56bd
00000380: 37b2 8dbd ba96 18bd 880e 55bd 9c6e 88bd
00000390: 338c 9d3c 6e36 93bd c2e5 bebd 2d69 ff3d
000003a0: c17a db3b 3206 05bd 36bf 93bc 94e1 c8bc
000003b0: 0dee c0bd 7353 263d 2c74 58be 79c9 9cbd
000003c0: e08b 8d3d de92 313b f25d 073e 0e75 bcbb
000003d0: eb6b f2bd 5c6e 39bd 022d cd3d 9941 c13b
000003e0: 8173 683d bd84 dd3d 8afc 25be afc6 dd3d
000003f0: 0a08 0e3e 8966 923d a086 82bd bf9e 3bbd
-0.102764875 0.064992435 0.058617745 -0.14056271 0.16028082 0.08677869 -0.030855807 0.061247747
0.067271434 0.16007116 -0.1282225 0.07174698 -0.029755902 -0.01672065 -0.080862366 -0.0566499
0.11033731 0.03241941 -0.11077157 -0.08722822 -0.038088284 -0.043953504 0.027072042 -0.055016827
0.03429063 -0.12107027 0.18437071 0.07039635 -0.11530406 0.17563304 -0.08993647 0.043744206
0.060499165 0.08618794 0.09196226 -0.04985283 0.009894806 0.134131 0.08844538 -0.080054946
0.066678286 0.08376217 0.017296463 -0.041589398 0.06514039 -0.028957937 -0.027073346 -0.009246591
0.034315784 0.026153665 0.10481384 0.00092352065 -0.10471423 0.2064664 0.062159088 0.00056109315
-0.0022949039 0.04130716 -0.08940613 -0.056383822 0.15472831 0.08737197 0.042718302 0.0076024123
-0.052987345 0.07678132 -0.013176561 0.10378577 -0.029809525 -0.009229601 0.06708248 0.043400694
-0.045052487 0.046428114 -0.08749215 0.05594139 0.09256606 -0.06413021 -0.02542492 0.03959143
0.05513584 0.0584035 0.08783451 0.10957552 -0.053467132 -0.09747346 -0.027616259 0.098606534
0.00035782487 -0.021100562 0.106001854 -0.03089863 -0.1404795 -0.11711098 0.06100515 0.06537632
0.04836947 0.0051796054 -0.05465093 0.12655677 0.21166871 0.02706787 -0.036118805 0.09917635
0.09910295 0.039838504 0.060329124 -0.0029226749 -0.08882003 -0.1393869 0.07778787 0.07295987
-0.10945401 -0.040328816 -0.056703467 -0.07362963 -0.16483371 -0.03817469 -0.01777689 -0.051872414
-0.20591429 0.11956393 -0.033670407 0.08120821 -0.13137715 0.007893149 -0.029875018 -0.062998496
-0.09935151 -0.022412986 -0.022536922 0.08158968 0.13102984 0.02752153 -0.08407456 0.06509926
-0.20322022 0.114879295 0.1560065 -0.10497669 0.13255696 0.10069539 -0.05140044 0.035483476
-0.17643397 -0.025379011 -0.08551167 0.052123196 -0.062341142 -0.05389045 0.030405117 -0.05602805
0.16896532 0.06444704 -0.12807192 0.035975397 -0.0043376996 0.031594567 0.10628277 0.091478646
0.077447854 -0.104106665 -0.030430453 0.029997544 0.109953895 -0.28083304 0.026502928 0.0796796
0.16460691 0.10126355 0.062356915 0.027426427 -0.06363218 -0.0023711983 -0.043891955 0.12179684
0.13478957 0.020602642 -0.17817989 0.09726322 -0.1718708 0.09132439 -0.017830566 0.1802481
0.1569998 -0.0209001 0.01974773 0.04718947 0.0901166 -0.120781645 -0.048459344 0.041474454
0.061255686 -0.062208388 -0.055890918 -0.1133781 -0.042030904 -0.058792625 -0.10962459 -0.055773035
0.099644475 -0.11536056 0.107225314 -0.014281859 0.037512224 0.023834266 0.05478423 -0.09231736
-0.042132407 -0.075108625 -0.06102704 -0.054205958 -0.03333181 0.090123974 0.014655558 -0.0014339803
0.07343892 -0.030145904 -0.013090178 0.028532015 -0.100682996 -0.05686555 0.12063948 -0.052289903
-0.069187574 -0.03725312 -0.05201581 -0.06661722 0.019231891 -0.07188116 -0.093211666 0.124712326
0.006697983 -0.03247661 -0.018035512 -0.024521627 -0.094204046 0.040606927 -0.21138066 -0.07655615
0.06911445 0.0027095596 0.13219431 -0.0057512587 -0.1183699 -0.045271263 0.1001835 0.0058977124
0.056750778 0.108163334 -0.16209617 0.108289115 0.13870254 0.07148463 -0.06373334 -0.04580569

network_body._body_endoder.seq_layers.2.bias f4 [128]
00000000: 0000 0000 0000 0000 0000 0000 0000 0000
00000010: 0000 0000 0000 0000 0000 0000 0000 0000
00000020: 0000 0000 0000 0000 0000 0000 0000 0000
00000030: 0000 0000 0000 0000 0000 0000 0000 0000
00000040: 0000 0000 0000 0000 0000 0000 0000 0000
00000050: 0000 0000 0000 0000 0000 0000 0000 0000
00000060: 0000 0000 0000 0000 0000 0000 0000 0000
00000070: 0000 0000 0000 0000 0000 0000 0000 0000
00000080: 0000 0000 0000 0000 0000 0000 0000 0000
00000090: 0000 0000 0000 0000 0000 0000 0000 0000
000000a0: 0000 0000 0000 0000 0000 0000 0000 0000
000000b0: 0000 0000 0000 0000 0000 0000 0000 0000
000000c0: 0000 0000 0000 0000 0000 0000 0000 0000
000000d0: 0000 0000 0000 0000 0000 0000 0000 0000
000000e0: 0000 0000 0000 0000 0000 0000 0000 0000
000000f0: 0000 0000 0000 0000 0000 0000 0000 0000
00000100: 0000 0000 0000 0000 0000 0000 0000 0000
00000110: 0000 0000 0000 0000 0000 0000 0000 0000
00000120: 0000 0000 0000 0000 0000 0000 0000 0000
00000130: 0000 0000 0000 0000 0000 0000 0000 0000
00000140: 0000 0000 0000 0000 0000 0000 0000 0000
00000150: 0000 0000 0000 0000 0000 0000 0000 0000
00000160: 0000 0000 0000 0000 0000 0000 0000 0000
00000170: 0000 0000 0000 0000 0000 0000 0000 0000
00000180: 0000 0000 0000 0000 0000 0000 0000 0000
00000190: 0000 0000 0000 0000 0000 0000 0000 0000
000001a0: 0000 0000 0000 0000 0000 0000 0000 0000
000001b0: 0000 0000 0000 0000 0000 0000 0000 0000
000001c0: 0000 0000 0000 0000 0000 0000 0000 0000
000001d0: 0000 0000 0000 0000 0000 0000 0000 0000
000001e0: 0000 0000 0000 0000 0000 0000 0000 0000
000001f0: 0000 0000 0000 0000 0000 0000 0000 0000
0.0 0.0 0.0 0.0 0.0 0.0 0.0 0.0
0.0 0.0 0.0 0.0 0.0 0.0 0.0 0.0
0.0 0.0 0.0 0.0 0.0 0.0 0.0 0.0
0.0 0.0 0.0 0.0 0.0 0.0 0.0 0.0
0.0 0.0 0.0 0.0 0.0 0.0 0.0 0.0
0.0 0.0 0.0 0.0 0.0 0.0 0.0 0.0
0.0 0.0 0.0 0.0 0.0 0.0 0.0 0.0
0.0 0.0 0.0 0.0 0.0 0.0 0.0 0.0
0.0 0.0 0.0 0.0 0.0 0.0 0.0 0.0
0.0 0.0 0.0 0.0 0.0 0.0 0.0 0.0
0.0 0.0 0.0 0.0 0.0 0.0 0.0 0.0
0.0 0.0 0.0 0.0 0.0 0.0 0.0 0.0
0.0 0.0 0.0 0.0 0.0 0.0 0.0 0.0
0.0 0.0 0.0 0.0 0.0 0.0 0.0 0.0
0.0 0.0 0.0 0.0 0.0 0.0 0.0 0.0
0.0 0.0 0.0 0.0 0.0 0.0 0.0 0.0

action_model._discrete_distribution.branches.0.weight f4 [2, 128]
00000000: f1a6 183c efc8 033c 5fec 1cbb f26f 76b9
00000010: 55d6 36ba eacb 663c 8205 69bc 4b67 11bc
00000020: 126d 5ebc 32dc a0bc af40 86bb b0d8 523a
00000030: 2898 f1bb 839c aa3b d146 123c 7bba d7ba
00000040: 5a7d c2b8 461b 9e3a 541e bcbb 1831 0a3c
00000050: 3223 433b e75a c33b bade 593b 6b7f fabb
00000060: 43c8 873b f099 3d3c 60ad 8cba ba76 67bc
00000070: 743c 09bc 68c7 6a3a 0beb 453a d713 92ba
00000080: e55c 273c 6907 08bb e2e9 55bc bef5 c13b
00000090: 7311 573c 5781 deba c8bb 013a e665 8bba
000000a0: 8333 aeba 5abd 393c ddad 4abc 8bc0 023c
000000b0: 12f5 1abc 5f27 58bc 573f b73b 93f7 b8bb
000000c0: b8af 77bb e3ec fe38 820e 553c 4127 91bc
000000d0: f78e aaba 52db c3bb 0b8a 093c e7e6 4d3b
000000e0: f7ab 453c bd1b e53b 5e2e ac39 1d9f af3b
000000f0: 039e e3bb 9350 773c 4b08 56bc d5d7 ab3b
00000100: b62e 24b9 da06 c039 2fe6 0b3c e2c1 823b
00000110: 0751 52bb 4bad 2fbc cf39 883a aa68 ce3b
00000120: 5703 d4bb f02f 903b 3716 53bb 4fe8 4d3c
00000130: e0c5 1abb f64c b43b 2cb9 3cbb 168a 14bc
00000140: 0bb6 daba 6ebf 1fba 97b5 67bb be6d 123c
00000150: e325 c03b ea10 043c da22 cebb ca79 9dba
00000160: eb49 fc3a 1704 72bc 23ed d0bb a281 8f3b
00000170: c191 08bc 5324 b5bb edcc 55ba 3f6b 9bbb
00000180: 9499 4ab9 77f7 e539 d3f5 8ebc 2afc 673c
00000190: 600d 5c3b bf07 e13b cb12 8abc 3f44 173c
000001a0: 8c52 acbb 18fd 22bc d7cc 8dbb 55d2 013c
000001b0: 5689 023c 6e53 823c 48d0 69bc a373 8b3b
000001c0: 50f6 653c 7bd8 303b c539 73bb c6b7 97bb
000001d0: 79fc 8cbb 2ffe 4abc e433 b3bb ee77 a8ba
000001e0: 1089 f43b debf 243c f39e 413b 8fcc b33b
000001f0: 4017 f73b acb6 3b3c 0a23 3f3c 8a2c 78bc
00000200: de3d 3dbc 25b3 763a b06d 17bb 9821 17bc
00000210: 3329 c73b 02e9 023c c851 0f3c e233 6fbb
00000220: 25ac 2fbc 6c07 843c 022d 973a 2f6e 52bc
00000230: 3bd5 04bb 1f2d 0e3c 9e10 bf3a 3865 183c
00000240: 7fdc 57bb efed d43b 4f7a 2cbb 4d79 edbb
00000250: 7b0c 0b3c 8400 c5ba 7ddb 703c 4831 393c
00000260: 4bb3 f5bb 39f9 b23a 32fd 1a3c 2a68 1dbb
00000270: 88c0 abbc 5699 2a3c 6165 133b 37f5 cebb
00000280: ff9c 543b 52e9 913b 7e34 123b e022 dc3a
00000290: da37 423c 70ee f53a 238e 393b e0c5 b33b
000002a0: a3d4 b73c 494b 843c 6a58 1ebb adb3 29bc
000002b0: 8aa1 a63b ac71 103b 874b 86bb 33e4 3abc
000002c0: aa18 8abc 00b6 ceba 9590 4abb c330 4cbc
000002d0: 8379 79bb 009d 2d3c 307f bf39 fdb0 acbb
000002e0: 978a 1bbb 4cbf 08bb 0bc8 033c 2a5f 073c
000002f0: 9e5a 4bbb 3b2b d7bb 5fa6 be37 32af 343c
00000300: 5bf8 ac3c e317 c53b 1ba2 bbbb 0f10 52bb
00000310: da36 50bb ff29 2c3b 7074 b6ba eabe c6bb
00000320: 1f0d 17bc 2021 81bc e595 fb3b 2d80 523a
00000330: 9487 b1ba 173f 02bc 9e2b 003c 9277 60bb
00000340: a79c 01bc 5ab6 a43b a2b0 5bbc 3ee5 813a
00000350: 7384 3fbc 29c8 aa3b 53e0 33bc 06fe 42bb
00000360: f6d2 c5bb f7ce e5bb 6a11 4dbb a3e2 8fbb
00000370: 1598 98bb 942b c53a 60a4 debb 2a12 08bc
00000380: 26be 2cbc e5ed 61bc f563 8b3b 7910 babb
00000390: 80d5 693c e7a7 1f3c b71f 623c 1d63 3a3c
000003a0: 6463 1ebc 134d f23b cda3 3dbc 6182 1dbc
000003b0: 07cf 9dba 26b2 843b d59d 583c 21db 493c
000003c0: 2315 aa39 5f8f c6bb 78be 9a3c df12 2439
000003d0: ebca a8bb 27ae 10bc fd12 cbbc 5d9b 4b3b
000003e0: 36ac 83bc a781 0338 5faf 813c 748a 2dbc
000003f0: 652c 393c eeda a5b8 03fb 10bc c00a be3b
0.009317146 0.008043512 -0.00239446 -0.00023502091 -0.0006974687 0.014086703 -0.014222505 -0.008874725
-0.013575809 -0.019636247 -0.0040970664 0.0008043153 -0.0073728748 0.005206646 0.008928017 -0.0016458774
-9.2739894e-05 0.0012062571 -0.00574092 0.008434556 0.0029775617 0.005961764 0.0033244328 -0.007644584
0.004143746 0.011572346 -0.0010732822 -0.014127428 -0.00837623 0.00089561054 0.0007549978 -0.0011144829
0.010215019 -0.002075637 -0.01305625 0.0059191873 0.013126719 -0.0016975802 0.0004948941 -0.0010635226
-0.0013290498 0.011336649 -0.012370554 0.007980476 -0.009457843 -0.013192981 0.0055922675 -0.0056447475
-0.0037793946 0.000121557874 0.013003947 -0.017718913 -0.0013012578 -0.0059770728 0.008394728 0.0031418146
0.012064925 0.006991832 0.00032840943 0.005359544 -0.0069463267 0.015094894 -0.013063501 0.005244235
-0.0001565766 0.000366262 0.008538767 0.003990398 -0.0032091753 -0.010722469 0.0010393205 0.006299098
-0.0064701247 0.004400246 -0.0032209286 0.012567594 -0.0023616478 0.0055023385 -0.0028796894 -0.009066125
-0.0016686333 -0.0006093894 -0.0035356039 0.008937297 0.0058638914 0.008060673 -0.0062907757 -0.0012014445
0.0019248103 -0.014771483 -0.006375925 0.004379467 -0.008335532 -0.005528012 -0.00081558415 -0.0047430093
-0.00019321434 0.0004386266 -0.017451202 0.014159242 0.0033577308 0.0068673785 -0.016854664 0.00923258
-0.005258864 -0.009948038 -0.0043273973 0.007923682 0.007967314 0.015908923 -0.0142708495 0.0042557283
0.014035776 0.0026984501 -0.003711329 -0.004630062 -0.004302558 -0.012389704 -0.0054688323 -0.0012853125
0.007462628 0.01005551 0.0029544204 0.005487032 0.0075406134 0.011457127 0.011666069 -0.015147338
-0.011550395 0.000941085 -0.002310615 -0.009224318 0.0060779094 0.007990124 0.0087475255 -0.003649943
-0.010722195 0.01611682 0.0011533799 -0.012843653 -0.0020268697 0.00867775 0.0014577096 0.009301476
-0.0032937822 0.0064980905 -0.0026318019 -0.007247126 0.008486862 -0.0015030061 0.014700768 0.0113032535
-0.00749818 0.0013654596 0.0094597805 -0.0024018385 -0.02096583 0.010412535 0.0022490846 -0.006315853
0.003244221 0.004452863 0.002230912 0.0016795062 0.011854136 0.0018763077 0.002831348 0.005486235
0.02244026 0.01614918 -0.0024161586 -0.010357779 0.005085175 0.002204041 -0.004098359 -0.011406946
-0.016857464 -0.0015770793 -0.0030908932 -0.012462798 -0.0038066811 0.010596514 0.0003652512 -0.005270122
-0.002373373 -0.0020865975 0.008043299 0.008262435 -0.0031029354 -0.006566433 2.2727238e-05 0.011028098
0.021114519 0.0060148104 -0.0057261116 -0.0032053029 -0.0031770975 0.0026270149 -0.0013920199 -0.006065239
-0.009219437 -0.015762866 0.007677781 0.0008029964 -0.0013544434 -0.007949612 0.007822899 -0.0034250957
-0.007910884 0.005026621 -0.013408812 0.0009910238 -0.011689293 0.005211849 -0.010978776 -0.002975346
-0.0060371114 -0.0070131975 -0.0031290897 -0.004391031 -0.0046568015 0.0015042895 -0.0067944974 -0.008305112
-0.010543382 -0.013789629 0.004253859 -0.005678233 0.014272094 0.009744621 0.013801507 0.0113761695
-0.009667251 0.007394442 -0.011574698 -0.009613604 -0.0012039848 0.0040495573 0.013221224 0.012320311
0.00032440675 -0.0060595716 0.01888965 0.00015647289 -0.005151143 -0.008830584 -0.024789328 0.0031067946
-0.016073328 3.1353582e-05 0.015830694 -0.010592092 0.011302088 -7.908592e-05 -0.008848908 0.0057996213

action_model._discrete_distribution.branches.0.bias f4 [2]
00000000: 0000 0000 0000 0000
0.0 0.0

action_model._discrete_distribution.branches.1.weight f4 [19, 128]
00000000: 8a87 95ba d76b a83a 4b7c e8ba ff3b 043c
00000010: 4f2b 2bbc 2371 7a3b faf7 dc39 3793 a4ba
00000020: 381b 77ba 7d41 953b 1fa7 5aba 6f83 d0bb
00000030: 95cb d539 0147 a43c f73e e3bb 0f65 8e3a
00000040: 4e7e 133b aa82 e4bb 3a78 5ebc b1b5 083a
00000050: dd1c b73b 78fb e83a d273 413c ca7f 303c
00000060: ea41 2c3c bf8e 72b9 e748 bd3b bd59 3f3c
00000070: f606 37bb 6684 aebb 420b eeb9 1ec0 843b
00000080: 2e4f 3fbc 31cd 33bc 28d7 d7bb 156d 8dbb
00000090: 33ef ac3b 13a5 edba 2825 1cbc e079 7aba
000000a0: adc5 e3bb a7d8 613c 4d49 8cba 89f7 92bb
000000b0: 650d 05bc 6788 e2ba 4ddf 0dbc 8250 73bc
000000c0: 6f1f 9f3c 2a20 633c 4701 773c c328 c03b
000000d0: 5b17 1f3b 601c 74bc 3f58 d13b c15d 2b3c
000000e0: 316f 923c 4f94 89ba 3d07 4cbc 9742 cf3a
000000f0: 8758 033c 228c de3b c8e3 60bc 039a d7ba
00000100: 6d69 e8bb 0ef8 a6bb 505a 143c 90e7 84bc
00000110: a768 65bc e3f0 31bb 6712 94bc f202 663b
00000120: acd9 063a 77c5 693c 0f9f 673c c8c5 903b
00000130: 3af1 ec3b 75b7 a3bb b400 90ba 8593 903b
00000140: 3832 c5bb e9c6 08bb f60e 89bb b342 753c
00000150: 299a 44bc eabd 4f3c 137d 0ebc 162a 933a
00000160: 7b6d e83b 7ba6 a6ba f97f 1b3b f206 babb
00000170: 4a85 cbbb 07ba c6ba 2fd1 523a 6799 233c
00000180: fb94 9f3b 121c 173c 7772 973a 9248 33bb
00000190: 9f94 da39 9fae 54bc 794d 26bc 4b08 a139
000001a0: 5caf 9e3b b5eb 8ebb 0a98 293c 5c4a 1cbc
000001b0: 45ce c3bb 4a7f 76bc a394 1cbc c3b3 5dbc
000001c0: 2d80 9dbc 47be 5f3c 2257 d1bb 9704 51bb
000001d0: c622 06bb 6828 a93a fb28 443c 3d4c 8dba
000001e0: 7a03 1abb 8b4d c8ba 4f02 533b faaf ca3b
000001f0: ca17 e8bb 5af3 bf3b a759 333c a381 93bc
00000200: d16f aabb c780 353c 5671 843a f7de e9bb
00000210: fa59 683b 9b0d 6dbb 4555 6e3b b5ec 10bc
00000220: 0b4e 313c 48b6 78bc 7505 5b3b f6c2 8f3c
00000230: 2729 453c f5ec 39bc 1bd7 c0bb 5fb5 3339
00000240: 02dd edba a311 a1bb 835f f5ba 03c6 23bc
00000250: c54b 563a 3faf 40bc c804 943b 13f6 96bc
00000260: ab16 05ba 9bd2 9bbb 2741 bb39 af99 f7ba
00000270: 623d 6ebc e00b 55bc e5f4 e8bb 691d 3c3c
00000280: 14cf 463b c91a bdbb b0d3 dd3b 7b99 9fbc
00000290: 2a03 88bb c7e5 febb b89c fdbb 436d c63a
000002a0: 6500 573c fdd8 5cbb 4aa1 513b ebd2 cebb
000002b0: 9de1 c73b 3727 4e3b dede 2b3c a5d9 4a3c
000002c0: 1fae 743c 1df4 92bc f08b d639 6def 913b
000002d0: 2397 8fba 4915 1dbb e3a5 f43a c88f 743b
000002e0: a852 c4bb d58c 753a 9ded d43b b2a1 f73b
000002f0: 7fe1 5abc 6827 d5ba 0d92 39bb b124 a23b
00000300: cbc8 4c3c 2f23 153b 971c ad3a a700 cfbb
00000310: 437d de39 8ae8 803a eba9 dabb fa62 e43b
00000320: 0ea5 acbb b317 0e3b a38f 1c3c 5b47 a73b
00000330: 8cff 2cbc 0d1c 7abc e3de 43ba 30c5 4f3a
00000340: bdc3 423b 602d 2d3c d1aa 833b a1f0 b939
00000350: ec52 c23b 7dc7 7038 280b e33a 0f54 0ebc
00000360: 3bc4 b93a 1bae bbbb f174 9d3c 56ec 1e3c
00000370: 18b3 56bc 32da 98ba 2a9d c0bb f5cb 983c
00000380: f0de 03bc 2781 4f3c 7bf9 1a3c 3ddc 953b
00000390: b7f5 15bc 606c 58ba 4da8 36bc a0ac 79bc
000003a0: 2399 9d3c 46c1 17bc e7b5 f5bb b270 9038
000003b0: 03a8 98bc 75fa fabb 9221 353c 2177 933a
000003c0: fd55 58bc 0342 b0ba 163f c73b 627c 51bc
000003d0: b2cf 5bbb 7362 953c 3cd1 b7bc 004f e93b
000003e0: 3df5 7fba 2bb7 cbba eaa9 b0bb 60c7 f2ba
000003f0: 5747 8a38 af89 4c3b 2ba0 163c 8ba1 513b
-0.0011408192 0.0012849522 -0.0017737238 0.008070945 -0.010447337 0.0038214407 0.00042146427 -0.001255608
-0.0009426358 0.004554926 -0.0008340943 -0.0063633244 0.00040778206 0.020053389 -0.006934996 0.0010863858
0.0022505703 -0.006973584 -0.013578469 0.00052150624 0.0055881576 0.0017775139 0.011807399 0.010772655
0.010513762 -0.00023132096 0.005776513 0.01167911 -0.0027927733 -0.0053258417 -0.00045403285 0.0040512225
-0.011676593 -0.010974214 -0.006586928 -0.004315982 0.005277538 -0.0018130861 -0.009530343 -0.0009554904
-0.006951055 0.013784564 -0.0010702998 -0.004485075 -0.008120869 -0.0017283083 -0.008659196 -0.0148507375
0.019424168 0.013862649 0.015075988 0.005864234 0.0024275396 -0.014899343 0.0063886936 0.010459364
0.017875286 -0.001049647 -0.012452898 0.0015812692 0.008016712 0.0067916075 -0.013726182 -0.0016449097
-0.007092646 -0.0050954884 0.009054735 -0.016223699 -0.014002002 -0.0027151636 -0.018075181 0.003509697
0.000514413 0.014268271 0.014137044 0.0044181086 0.007230905 -0.004996235 -0.0010986538 0.004412117
-0.0060179494 -0.0020870513 -0.0041826917 0.014969516 -0.011999645 0.012679556 -0.008696812 0.0011227753
0.007093129 -0.001271441 0.00237274 -0.0056770975 -0.0062109577 -0.0015161642 0.0008042035 0.009985304
0.004870055 0.009223001 0.0011554499 -0.0027356488 0.00041690932 -0.012981086 -0.010150307 0.00030714492
0.004842682 -0.0043615946 0.01035119 -0.009539213 -0.005975517 -0.0150449965 -0.009556922 -0.013531628
-0.019226158 0.0136562055 -0.006388561 -0.0031893605 -0.0020467504 0.0012905719 0.011972661 -0.0010780167
-0.0023500607 -0.0015281899 0.003219742 0.006185529 -0.007082914 0.005857867 0.010946668 -0.018006152
-0.005201318 0.011078066 0.0010104578 -0.007137175 0.003545402 -0.003617144 0.0036366743 -0.008845498
0.01082183 -0.015180178 0.003342 0.01754902 0.012033737 -0.011347999 -0.0058850176 0.00017138336
-0.001814753 -0.0049154325 -0.0018720481 -0.00999594 0.00081747427 -0.011760532 0.0045171715 -0.018427884
-0.0005076925 -0.0047553307 0.00035715962 -0.0018890406 -0.014541002 -0.0130033195 -0.007109272 0.011481621
0.003033583 -0.0057710153 0.00676962 -0.019482365 -0.004150768 -0.0077788564 -0.0077396296 0.0015138764
0.013122653 -0.003369867 0.0031987005 -0.0063117645 0.0060998932 0.003145648 0.010490147 0.012380992
0.014934092 -0.017938668 0.00040921522 0.0044535906 -0.0010955076 -0.0023968986 0.0018665161 0.0037317146
-0.0059912987 0.0009366994 0.0064980523 0.0075571174 -0.0133594265 -0.0016262354 -0.0028315813 0.0049482216
0.012499045 0.0022756567 0.0013207373 -0.0063172164 0.00042436467 0.0009834927 -0.006673088 0.0069698067
-0.0052686995 0.0021681606 0.00955573 0.005104942 -0.010558974 -0.015265477 -0.00074718724 0.00079258066
0.002971872 0.0105699 0.0040181656 0.00035465232 0.005930295 5.7406247e-05 0.001732205 -0.008687033
0.0014172861 -0.005727542 0.019220801 0.009699902 -0.013104223 -0.0011661707 -0.0058781104 0.018651942
-0.008048758 0.01266507 0.009458895 0.0045733736 -0.009152821 -0.0008255895 -0.0111485245 -0.015238911
0.01923806 -0.009262389 -0.007498491 6.887446e-05 -0.018634802 -0.0076592513 0.011055367 0.0011250713
-0.013204095 -0.0013447407 0.0060805185 -0.012786003 -0.0033540544 0.01823542 -0.022438638 0.0071200132
-0.00097640214 -0.0015542259 -0.005391349 -0.0018522553 6.593641e-05 0.0031209996 0.00919346 0.0031987156

action_model._discrete_distribution.branches.1.bias f4 [19]
00000000: 0000 0000 0000 0000 0000 0000 0000 0000
00000010: 0000 0000 0000 0000 0000 0000 0000 0000
00000020: 0000 0000 0000 0000 0000 0000 0000 0000
00000030: 0000 0000 0000 0000 0000 0000 0000 0000
00000040: 0000 0000 0000 0000 0000 0000
0.0 0.0 0.0 0.0 0.0 0.0 0.0 0.0
0.0 0.0 0.0 0.0 0.0 0.0 0.0 0.0
0.0 0.0 0.0

action_model._discrete_distribution.branches.2.weight f4 [15, 128]
00000000: 9f1a 9a3b ad4c d9bb 7802 923b 24ee 4a3b
00000010: f0d0 6d3c c5c9 db3b 43b1 743c aa66 c63c
00000020: 8dc1 d9bb 1314 f83b 98f4 663b fd2e de3b
00000030: 5fa6 513b 93a8 98bb 4242 b8bb e5a8 71bc
00000040: ede6 5cbb 57d8 48bb 3b23 c93b be8f 39bc
00000050: de82 9dba 7bd6 29bc 25fc 04bc 1726 493c
00000060: 6400 09bb c4ac c2bb cf76 903b 1cc7 393b
00000070: f236 9ebb 25b7 64bb c84c e73b bec7 90bb
00000080: 233e 303b c63f 9fbc d7df b8ba 0f09 dbbb
00000090: 275c 1fbb 35ac 533c 27d1 933a cf1d 1aba
000000a0: 4340 8e3c 57f6 43bc d342 803c 677b a83b
000000b0: a008 a03c abfd 38ba 37de 003c 1216 593b
000000c0: 4795 453b 1f34 b4bb 23af 1fbb 528b 66bc
000000d0: 48e3 dc3c 0fcc b63c bb7c 83bb 32f8 edbb
000000e0: 20ca f13a 25df 91bc bf7a e33a 1310 8dbc
000000f0: 3a34 8d3b dc2c 4b3c deed b43b bd94 8bbb
00000100: fb65 23bc 7d82 81bc b1e5 a53b 4cf2 a8ba
00000110: c62b 3dbb 8ba6 893c 5ab1 6f3c 2b61 cfbb
00000120: 7c77 123c c78a 66bb e7a4 13bc c3fb ebba
00000130: a935 46bc f5cc 823b 4787 cc3b d5be a53b
00000140: 2752 b93b e0d2 ef3a 2c95 abbb 08cc de3b
00000150: b7b8 073b ffd2 4f3c 2f0f a2bb bb3f 1a3c
00000160: 8809 093c e135 2e3c 47ee 1fbc 7793 09bc
00000170: 37bc 113c e18a a13b 5d9b b23b a53b 063c
00000180: 16b6 433c a905 1cbb 8bf1 0dbc 0e53 453a
00000190: 037d e13b b03c 673b 67de dabb fa92 a83b
000001a0: 547b 243c 1334 a9bc d894 e3bb de74 203c
000001b0: 9006 2b3b 2b64 a9bb 3fc5 81bb 02b0 79bb
000001c0: 2f5a 3d3c 2de2 b33a fd97 7f3b e209 943b
000001d0: 3f71 413b 77de 803c 2508 0d3c 58ee 07bc
000001e0: d329 3e3b 58ce 0a3b ec1c c3bb 0c52 aa3b
000001f0: e57f 59bc 9a84 8ebb 4333 ba39 6b4b 233a
00000200: 50d9 e63b 7b1f f13b 0db5 713b 6e14 293c
00000210: 0443 90bc 1e7a 96bc 449d c33a 0f32 ffbb
00000220: f33f a5bb 7759 dc3b e7f6 9bba af47 213c
00000230: 4c30 49bb b7f5 03bc f29b 20bb d624 42bb
00000240: b543 283c 0ec7 0ebc cbfe f73b 3f1d 5cbc
00000250: 07b5 983b 3738 6fbb 8ffc d3bb 07fd 44bc
00000260: 2a8b 00bb 4563 703a 933f 7bbc 03f6 4fbc
00000270: 8abf 1e3c 20d0 66ba fa1c 5e3c 6af9 9cba
00000280: 3581 6839 e3fe 2b3b 83d3 57bb f9b3 0fbb
00000290: 5328 15bc 846c 9abc f264 d9bb 1c29 a8bc
000002a0: 9b67 1fbb dbf4 e7ba ebde 4e3c 2ca8 c83a
000002b0: 02a7 df3b d822 0d3c eaa7 473c 3318 11bb
000002c0: 2718 d83b 3733 2f3a 139b c03b 9092 01bc
000002d0: 4d6b af3b 0fb1 893b 3252 123b bb7f 33bb
000002e0: 346f 89bb 76a7 2abb da92 233b 990b 14bc
000002f0: ddce 28bb 3de3 793c 23f7 1b3c e51a 2c3b
00000300: 6bee 66bc 8903 afbc 5bb1 7c3a 1da8 d13b
00000310: b034 7b3b f40a 99b9 0a23 d23b 9dd6 33bb
00000320: 1eef a6bb 3b4f 8bbc 9bfd 3c3b 9b1a ea3b
00000330: e8e9 16bb ab7e 37bc 4016 73bc e4eb 89bb
00000340: a857 3c3b 8b76 913b ca6c c5bc e086 c63a
00000350: d6f2 153c 538a fbbb 6aea 4fbb 7023 b2bc
00000360: 805a d83b 883f 63bc 5169 2d3c 2885 573c
00000370: 77eb 9b3c 8d8a 13bc 4d99 563c 132d 8cbb
00000380: 926c 0cbb 8072 bcbb 9242 17bc cd22 1c3c
00000390: a884 653b 7a44 0c3b 6a7d 703b 56f0 923b
000003a0: cddf fcb8 8511 e1bc af86 963a 4394 663a
000003b0: f35c 743b b19f ac3b 2094 643c 1582 e3ba
000003c0: 108b ebbb 3c72 843b 9f6b 123c ef47 e1bb
000003d0: 3d93 033b cdf6 05bb e3b1 a13b e763 0b3c
000003e0: 770a b0ba a965 2f3c 73c5 b9bc 89b3 853a
000003f0: df53 83bb 1bd6 353b 6444 88ba 3ea5 91bc
0.0047028805 -0.006631455 0.0044558607 0.0030964697 0.014515147 0.0067074024 0.014934841 0.024218876
-0.0066453875 0.0075707524 0.0035241004 0.006780504 0.0031990034 -0.0046587675 -0.005623133 -0.01474974
-0.0033706978 -0.0030646527 0.006138233 -0.011325775 -0.0012017151 -0.010366078 -0.008116757 0.012277148
-0.0020904774 -0.0059410054 0.0044086943 0.0028347438 -0.0048283273 -0.0034899202 0.0070587136 -0.0044183424
0.0026892505 -0.01943959 -0.0014104795 -0.0066844295 -0.0024316402 0.012919475 0.0011277542 -0.00058790756
0.017364627 -0.011960587 0.015656864 0.005141664 0.019535363 -0.00070568424 0.00786548 0.0033124727
0.003014879 -0.0054993774 -0.0024365864 -0.0140713025 0.026963845 0.0223141 -0.0040126718 -0.007262253
0.0018447079 -0.017806599 0.0017355307 -0.017219579 0.0043092044 0.012400832 0.00552152 -0.0042596743
-0.0099730445 -0.015809292 0.0050627817 -0.0012889593 -0.0028865202 0.016803047 0.014629686 -0.006328722
0.00893962 -0.0035177933 -0.009011484 -0.0018004108 -0.0120977545 0.003991718 0.0062417123 0.0050581493
0.0056555453 0.0018297099 -0.0052362885 0.0067992248 0.0020709464 0.012684583 -0.0049456577 0.009414609
0.008364089 0.010632963 -0.0097614 -0.008396975 0.008894972 0.0049298857 0.0054506497 0.008192931
0.011945268 -0.0023807085 -0.008663545 0.000752733 0.0068813576 0.0035283975 -0.0066793445 0.005144474
0.010039169 -0.020654714 -0.006945234 0.009793488 0.002609644 -0.0051694117 -0.003960281 -0.0038099294
0.011557146 0.0013724022 0.0039000504 0.0045177797 0.0029516963 0.01573108 0.008607899 -0.008296572
0.0029016628 0.002118012 -0.0059543755 0.005197769 -0.013275121 -0.0043493034 0.00035514878 0.00062291947
0.0070449486 0.007358489 0.0036881596 0.010319812 -0.01761008 -0.018368777 0.0014924188 -0.00778795
-0.0050430237 0.006724532 -0.0011899144 0.009843751 -0.0030698953 -0.008054188 -0.0024507013 -0.0029624007
0.010270049 -0.0087144505 0.0075682155 -0.013434707 0.004660252 -0.0036502013 -0.0064693163 -0.012023217
-0.0019614198 0.0009170066 -0.0153349815 -0.012692931 0.009689221 -0.0008804817 0.013556713 -0.0011976187
0.00022173378 0.0026244454 -0.0032932467 -0.002192734 -0.009103852 -0.018850572 -0.006634348 -0.020527415
-0.0024323228 -0.0017696874 0.01262639 0.0015308908 0.006825329 0.008614264 0.01218603 -0.0022139668
0.006594676 0.0006683352 0.0058778613 -0.007908478 0.0053533674 0.004202015 0.0022326824 -0.0027389366
-0.0041941646 -0.0026039756 0.0024959357 -0.009035968 -0.0025758066 0.015251932 0.009519371 0.0026261148
-0.014094929 -0.02136399 0.0009639465 0.0063982145 0.0038330965 -0.00029190595 0.0064128684 -0.0027441152
-0.005094423 -0.017005553 0.0028837684 0.007144285 -0.0023027603 -0.011199634 -0.014836848 -0.0042090286
0.002873877 0.0044391803 -0.024099726 0.0015146397 0.009152135 -0.0076764016 -0.0031725415 -0.021745414
0.0066025853 -0.0138701275 0.010584191 0.0131543055 0.019033177 -0.009005201 0.013098073 -0.004277834
-0.0021427018 -0.005750954 -0.00923218 0.0095297815 0.0035021696 0.002140312 0.0036695846 0.0044842167
-0.000120579825 -0.027474174 0.0011484231 0.00087958964 0.0037286847 0.00526806 0.013951331 -0.0017357493
-0.0071882084 0.004041938 0.008936792 -0.00687503 0.0020076775 -0.0020441294 0.004934536 0.008507705
-0.0013430853 0.01070539 -0.022677159 0.00102006 -0.004007801 0.0027746025 -0.0010396359 -0.017778989

action_model._discrete_distribution.branches.2.bias f4 [15]
00000000: 0000 0000 0000 0000 0000 0000 0000 0000
00000010: 0000 0000 0000 0000 0000 0000 0000 0000
00000020: 0000 0000 0000 0000 0000 0000 0000 0000
00000030: 0000 0000 0000 0000 0000 0000
0.0 0.0 0.0 0.0 0.0 0.0 0.0 0.0
0.0 0.0 0.0 0.0 0.0 0.0 0.0

action_model._discrete_distribution.branches.3.weight f4 [9, 128]
00000000: a3e8 8cbb 8b50 a3bc 21d5 913b bd8d 75bc
00000010: b7dc 34bb bf77 05bc c6cf 9e3b c4af 273c
00000020: 2a00 c13a 7b81 633a eeda 903b a767 6bbb
00000030: 3f0b e5bb 5079 c13b 6d1b d1bb 291a 973b
00000040: f5a0 c83a d35a 153c 2a20 cebb 1227 d9ba
00000050: 9777 a23c a8e2 3dbc 1ff2 053b cdfe dfba
00000060: a9a2 a8bb 783b e13a 2db6 033c 89e1 18ba
00000070: f088 e23b ec5a 0b3c 5a4d 603b c280 383c
00000080: 0977 913b 8fca 86bb 3f6e 94bb d042 d53b
00000090: 68a8 f239 fb37 0bbb 0b31 953c 67cb 7c3b
000000a0: 8c72 a43b a300 063c 2a37 bc3b 472c 253c
000000b0: 62ea 8e3a 80b2 58b9 d24d e5bb 3dd0 5ebb
000000c0: 3f60 343c 5aee eaba 09dc 443c ec08 2a3c
000000d0: aa86 04ba e307 f23b 9213 91bb e25f 31ba
000000e0: 0bf0 89bc cf67 01bc db10 42bc af85 0d3a
000000f0: 5478 9dbb d8e9 843b f22d 3abc 5ea0 3dbb
00000100: 5207 683c 90f1 13bc 05f6 dcb9 cfe5 79bc
00000110: 2be0 efbb ba47 df3a 97b9 823c 7dfd bdbb
00000120: 4235 bbbc b20f 0dba d295 51bc 7ede babb
00000130: bd01 61bb 8691 81bb 2dd3 debb 62bf cfbb
00000140: 577e 733a 38d4 a53c efb3 a23b e380 44bc
00000150: 9aa1 01ba 9370 d63b 9229 f6ba 95cc 943b
00000160: bdfb 623a 2bc7 453b 8f7d 143c 272b c6bb
00000170: 9e9d 05bc 1205 e63b 0a55 8039 43e8 f73b
00000180: 1cc7 21bc 8382 533b 907e ff3b 624f f13a
00000190: d5bd f1ba 1e17 193c efa8 3c3c 19bb 01bc
000001a0: 10b0 94bb 4c6b 063c 8303 30bc a77d 56bc
000001b0: db6c 64bc a49b 3cba 27d2 113b 2314 a03c
000001c0: 2209 00ba 3f54 763c 97fe aa3b a409 aebb
000001d0: 4bd1 83bc 0600 31bc 3b02 9f3c 155d 443a
000001e0: e3b0 63ba 408c a03a 0f74 7fba e84d 193b
000001f0: a29f 3c3b 3c67 39bc 5149 1ebb 2b62 71bc
00000200: 9ab9 b73b df10 37bc 544f 8ebc 80d2 57bb
00000210: 62ef b23c e09a 0f3b bcc9 3fbc dda8 293c
00000220: a460 293b 4fd1 27ba b6a7 c33b 6509 353c
00000230: 548c 853b bf19 0abb 5a2f 1b3c 1f90 373c
00000240: cc23 14bb 2b0e 01bc 3fa7 123b ef58 f9b9
00000250: 4f44 3ebc fd27 3a3c 0c42 10bb 9553 773b
00000260: ebcb 803b 7be9 68bc e3e8 d03b 0b9f a73b
00000270: 1231 a8bb 54ad 3bbc ffd9 0a3c 976e 1cbc
00000280: cfc0 243c 45fb 69bc 42b2 58bc 750a 043c
00000290: 6bd9 2cbc 9ab5 cfbb 9300 ebba 625b 49bc
000002a0: 4b88 9c3b aeea c03a 33b5 7a3b 1f07 563c
000002b0: b7e4 8bbc e3e5 97bb 4b7b b53b 68d5 86b9
000002c0: bbbf 193c 6471 803c a311 6ebc cb74 f43b
000002d0: cf2b 983c 332e 82bb 232a 3e3a bfe2 fb3b
000002e0: 1bdc 5abb 1768 a93a 6379 143c 779c 2bbc
000002f0: bd5c 5b3c ddbf 13bb 0bae 2dbb 9dce d13b
00000300: 3fdf 47bb 9abb f73b 8307 13bc 3a6b 333b
00000310: 7a80 fdbb 0be8 ac3b af6b ad3b bf26 9cba
00000320: 5d31 eabb 8585 b6bb 39c4 0c3c 37e0 01bc
00000330: 38f6 7a3b da60 c1bb 225d d1bb c25d 83bb
00000340: ac59 b1bb d6d4 03bc a3ac beba db34 1a3c
00000350: 1bcc 51bb d504 75ba 3b75 c23b 072f 003c
00000360: db90 db3c 50ed 5dbc baa2 7ebc 227c d439
00000370: 612d 89bb f2f5 80bc 9fc4 ab3a 5b94 d83b
00000380: 83a9 d1bb 6e96 813b 695d 92bc a26c e5bb
00000390: 42c4 9b3a 92b4 e33a 4b2c bcbb 34f4 073c
000003a0: 1d1a 64bb 55aa 083c ef7a e7bb 03f3 a1bc
000003b0: 6396 1a3c 1302 77bc 8d57 f33b ccb3 9e37
000003c0: 8bf6 16bb 471d d53a 1723 2d3c 28aa fcba
000003d0: 3d68 f0bb 0d01 a13b 1ff2 e03b 88f8 fbbb
000003e0: 0b10 e0bb e057 69bb 28f2 683c fe2b ae3a
000003f0: 219c c53b fc6d 1bbc 8a60 e23b 54f1 89b9
-0.0043001934 -0.019935867 0.004450456 -0.014987406 -0.0027597377 -0.0081462255 0.004846546 0.010234777
0.001472478 0.0008678657 0.0044206297 -0.0035919936 -0.006989866 0.005904354 -0.0063814432 0.004611273
0.0015306758 0.009115892 -0.0062904553 -0.001656743 0.019832416 -0.011589684 0.0020438505 -0.0017089486
-0.0051463437 0.0017183861 0.00803904 -0.0005831947 0.006913297 0.008505564 0.0034225793 0.011261167
0.004439239 -0.0041135023 -0.004529744 0.006508209 0.0004628331 -0.0021243084 0.018211862 0.0038573386
0.005018538 0.008178863 0.0057438808 0.010081357 0.0010903592 -0.00020665862 -0.0069978023 -0.0033998631
0.011009275 -0.0017923818 0.012015351 0.010378104 -0.0005055467 0.007386194 -0.004427382 -0.0006766302
-0.016838094 -0.007898285 -0.011844839 0.00053986436 -0.004805604 0.0040561967 -0.011363493 -0.0028934698
0.014161902 -0.009029761 -0.0004214497 -0.015252545 -0.007320424 0.0017034926 0.015957637 -0.0057980404
-0.022852544 -0.0005381062 -0.012792068 -0.0057027927 -0.0034333311 -0.0039541153 -0.0068000765 -0.0063399533
0.00092885405 0.020242795 0.0049652974 -0.01199362 -0.000494504 0.0065441816 -0.00187807 0.0045409896
0.0008658728 0.0030178528 0.009063139 -0.0060476246 -0.008155255 0.0070196474 0.00024477422 0.0075655296
-0.0098741315 0.0032273836 0.00779707 0.0018410499 -0.0018443415 0.0093438905 0.011514886 -0.007918143
-0.00453759 0.0082042925 -0.010743025 -0.013091481 -0.013941969 -0.0007194823 0.0022250505 0.019540852
-0.00048841734 0.015034734 0.0052183378 -0.005311208 -0.01609101 -0.010803228 0.019410243 0.0007490677
-0.0008685721 0.0012248829 -0.0009744772 0.0023392383 0.0028781672 -0.011316117 -0.0024152587 -0.014732878
0.005606842 -0.011173456 -0.017371811 -0.0032931864 0.021842662 0.002191238 -0.011705812 0.010355202
0.0025844956 -0.0006401734 0.0059709204 0.011049603 0.0040755663 -0.0021072475 0.009471739 0.011203795
-0.0022604344 -0.007876913 0.0022377518 -0.00047559242 -0.011612966 0.011362073 -0.0022012023 0.0037739028
0.003930559 -0.014215822 0.0063754185 0.005115395 -0.0051328028 -0.011454899 0.008474826 -0.009547851
0.010055735 -0.014281099 -0.013226094 0.008059134 -0.010549883 -0.0063387873 -0.0017929248 -0.012289854
0.0047769896 0.0014718377 0.0038254976 0.013063221 -0.017076833 -0.004635559 0.0055383793 -0.00025717472
0.009384091 0.015679069 -0.014530572 0.007460212 0.018575577 -0.0039727925 0.00072542037 0.0076869424
-0.0033395353 0.0012924698 0.009062144 -0.010474316 0.01338881 -0.002254478 -0.0026501443 0.006402804
-0.0030498055 0.0075602056 -0.008973959 0.0027377144 -0.007736263 0.005276685 0.005292378 -0.0011913403
-0.007146998 -0.005570116 0.008591705 -0.007926992 0.003829373 -0.005901438 -0.006389276 -0.0040089795
-0.005412301 -0.0080463495 -0.0014547299 0.009412016 -0.0032012525 -0.00093467283 0.005934385 0.007823712
0.02680247 -0.013545349 -0.015541727 0.00040528277 -0.004186318 -0.015742276 0.0013104862 0.006609482
-0.006398381 0.0039547 -0.017866807 -0.0070014754 0.0011884051 0.001737254 -0.005742585 0.008297969
-0.0034805604 0.008341392 -0.0070642154 -0.019769197 0.009435269 -0.015076178 0.0074262084 1.8918792e-05
-0.0023035135 0.0016259336 0.010567448 -0.0019276785 -0.007336645 0.0049134553 0.0068648006 -0.0076895393
-0.00683785 -0.0035605356 0.014217891 0.0013288257 0.006030575 -0.009486672 0.006908481 -0.0002631048

action_model._discrete_distribution.branches.3.bias f4 [9]
00000000: 0000 0000 0000 0000 0000 0000 0000 0000
00000010: 0000 0000 0000 0000 0000 0000 0000 0000
00000020: 0000 0000
0.0 0.0 0.0 0.0 0.0 0.0 0.0 0.0
0.0

network_body._body_endoder.seq_layers.0.weight f4 [128, 78]
00000000: 6b36 c83d 0f0f 97bb 2c87 bdbc 5d55 26bd
00000010: 2df8 31be debd e23d 183d d0bd 843e dcbc
00000020: 2a3b 12bd 41c9 1bbd ae57 0abd 5001 973c
00000030: 5c32 8bbe f0d3 9cbc 3713 06be 25ba f23d
00000040: 76ff cdbc 5eb8 30bc b849 fe3c 2841 55bd
00000050: cf97 b33d 86ae 22be 49ad 943e 4f5c d83d
00000060: 04e9 023d 6145 f2bd 8b37 453c 5863 c8bc
00000070: 9b04 61bd 8c9d bc3d 4fe3 023e ecfd 8a3c
00000080: 59d1 2bbd f8e4 68bb d98a a0bd 2395 9cbc
00000090: 35c1 173d 87ad 8f3c 29a3 78bd dbc9 2fbd
000000a0: 3029 17bd b0b6 e9bd d3db 6a3d 95f7 c5bd
000000b0: aa69 643e 0c75 6d3e 7e10 fe3c 2fc9 30be
000000c0: f5a6 5ebe eab9 ebbd 410b 003e 943f e3bd
000000d0: 5674 bc3d aa2c 0bbe 2558 29bd 504c 203d
000000e0: 5f62 2a3e a3a3 a5bd 4a89 083d c969 913d
000000f0: ebe5 9f3c 6e30 bd3d c932 f83c 2fcd 9a3c
00000100: b1bd 853d 8892 423e bd6d 283e ff6e 60bd
00000110: f50b 553d b8df fcbc 0014 413d f1cc 253c
00000120: 0980 83be 5b69 46bd 0222 003d 1499 9fbd
00000130: 41e0 cebc 930e f73c a3fd f13d 2c6a 55bd
00000140: 60d6 b23c 2a76 53bd 206a 8fbd f1af 33be
00000150: 8c90 90bd 61a7 9b3d 28c5 fc3a e6ab 47bd
00000160: 8886 003d a30e 7d3e fb66 c0bc 6a8a 2abe
00000170: 77f8 c3bd 4d98 f8bd c035 c83d 3b5a 9ebe
00000180: 5d94 47bd 56f5 2bbd fb75 da3d b5c5 cb3d
00000190: 6fcb 803d 5fa8 0ebd dc67 2bbe 9e81 8d3c
000001a0: 9da1 003d 8fa5 ddbd ae6f 763c 096e d1bd
000001b0: 7e3b 9b3d e754 663e 3dde 813d 96cf 39be
000001c0: 35b5 2a3e 039e 8abb 4581 35bd 9d2f 0d39
000001d0: 4c40 8b3d dd4c 6cbc 8532 8dbd b5b5 963d
000001e0: c527 363e dd6f 17be 12f1 09be 32ab 173e
000001f0: 7482 a13c b22d b4bd 0a80 97bd b10c 893d
00000200: 7283 653d 843a 243e 6bf2 083e 0dde 193e
00000210: d926 adbd 9196 b5bd 7139 1bbe 07c2 e7bd
00000220: 7f05 c13d 2866 babc 4838 fe3d 56b2 7f3d
00000230: 8816 ccbd bbe1 8ebd 85ab 243e 6a3c 7cbd
00000240: 4e2c 8b3d afff 0dbe aafe 02be 8482 c8bd
00000250: 711d d7bd 3211 56be a873 173e 6d6e 80be
00000260: cfbe 4f3e ca16 47be c96c af3d 21a3 94bc
00000270: aaea 513c 4dc7 79bd 09bd 88bc 5745 8cbc
00000280: 7bbe f5ba 7c61 5dbd 1ddd 8fbe 7b06 61bd
00000290: b33f 4dbe 31f1 57bc 10aa 03be f2bb d33d
000002a0: 02a5 123e e59f f7bd e61b e0bd 3895 24be
000002b0: 6093 c7bd 54f6 b5bd 3ad3 2bbe 6962 ec3b
000002c0: 2891 503c 24d9 18bd 22cd d63d 153a 43bd
000002d0: a653 02bd 40b1 b9bd a911 c0bd b45e f83d
000002e0: 978a 8dbd cbbe 173d cd04 40be f893 43ba
000002f0: 839b 2bbd 529d 613d 81c9 3b3e 0046 bf3b
00000300: ec1e 9e3d ee78 1abe d4bc b3bd 5359 933c
00000310: 5790 55be 8acf 663d a939 f33d f759 f9bd
00000320: b5d8 b9bc 7f6d d13d effc c03d 6a11 df3a
00000330: f38b 713d a3e7 43be e629 3abd fbe8 343e
00000340: 22f9 c83d a4da 123e cfb4 653c 0c40 0fbd
00000350: 1043 133d 9f4f a8bd 9e7e 513e a3a4 84ba
00000360: dc4b 383d 2aae e7bd 03e8 043e 4954 c23d
00000370: 0167 d43c ce0d 22be 8f8b b03c 22bd d7bd
00000380: 64da 853e 8a52 793d 8484 0a3e fa5a a13d
00000390: 40bc 943e 54d5 fabc 48ef 05bd 0003 97bd
000003a0: a376 0b3d c1f5 6abd f654 03be 544b 6e3d
000003b0: edec 0ebe a43b ad3d 817f 9d3d 2e03 423e
000003c0: 9f6b 2b3e a49a cebc 5cbf 0b3e 8d07 09be
000003d0: e3aa f8bc c527 073d 37cc 4a3d 9973 933e
000003e0: b700 ac3d 92d9 f8bc 0fa8 da3d 4c1e 7e3d
000003f0: 28d6 26bd 150c c8bd 738b 273e 8272 cebd
0.097760044 -0.0046099494 -0.023135744 -0.040608753 -0.17379828 0.110713705 -0.10167903 -0.026885279
-0.035700954 -0.038033728 -0.033775024 0.018433243 -0.2718686 -0.019144028 -0.13093267 0.118519105
-0.025146227 -0.010786144 0.031041011 -0.05206409 0.087691896 -0.15886888 0.29038456 0.105644815
0.031960502 -0.11829639 0.012037168 -0.024461433 -0.054936033 0.09209737 0.12782024 0.016966783
-0.041947696 -0.0035536867 -0.07838983 -0.019114083 0.03704949 0.017538799 -0.060702477 -0.042917114
-0.036904514 -0.11411798 0.057338547 -0.09666363 0.22305933 0.23189181 0.031013723 -0.17264245
-0.21743377 -0.1151007 0.12504293 -0.11096111 0.09201877 -0.13591257 -0.041343827 0.039135277
0.16639088 -0.08087852 0.033334054 0.07100255 0.019518813 0.09237753 0.030297654 0.018896667
0.065303214 0.1900121 0.16448112 -0.054793354 0.052013356 -0.030868396 0.047138214 0.010119663
-0.2568362 -0.04844032 0.031282432 -0.07792869 -0.025253417 0.030158317 0.118159555 -0.052103207
0.021830738 -0.051626362 -0.070026636 -0.17547585 -0.0705882 0.07600284 0.0019284831 -0.04874792
0.0313783 0.24712615 -0.023486605 -0.16654363 -0.09568875 -0.12138424 0.09775877 -0.30928215
-0.048725475 -0.041982017 0.10667034 0.09949819 0.06288802 -0.03482854 -0.16738838 0.01727372
0.031404126 -0.108225934 0.015041275 -0.10226066 0.075797066 0.22493325 0.06341217 -0.18145594
0.16670687 -0.0042302622 -0.044312734 0.00013464545 0.06799373 -0.0144226225 -0.068944015 0.073588766
0.17788608 -0.14788766 -0.13470867 0.148114 0.019715525 -0.08797778 -0.073974684 0.06691874
0.05603356 0.16037947 0.13373725 0.15026112 -0.08454675 -0.08866609 -0.15158631 -0.11316305
0.094248764 -0.02275379 0.124130785 0.062425934 -0.09965235 -0.069766484 0.16081055 -0.061581053
0.0679556 -0.13867067 -0.12792459 -0.09790519 -0.105036624 -0.20904997 0.14790213 -0.25084248
0.20287631 -0.19442287 0.08565671 -0.018144192 0.012812296 -0.060981084 -0.016691701 -0.017122908
-0.0018748784 -0.054048046 -0.28098384 -0.05493782 -0.2004383 -0.013180063 -0.12857842 0.10338582
0.14320758 -0.12091044 -0.10942821 -0.16072547 -0.097449064 -0.08884874 -0.16779795 0.00721388
0.01272992 -0.037316456 0.10488345 -0.047662813 -0.031818055 -0.09067011 -0.093783684 0.12127438
-0.069111995 0.03704719 -0.18751831 -0.0007460709 -0.041896354 0.055081673 0.18338586 0.005837202
0.07720742 -0.15085194 -0.087762505 0.017986929 -0.20855843 0.05635027 0.11876232 -0.121753626
-0.022686342 0.10225963 0.09423243 0.001701874 0.058971357 -0.19131331 -0.045450114 0.17667
0.09813143 0.14341217 0.014020159 -0.03497319 0.035952628 -0.082183115 0.20458457 -0.0010119866
0.04499422 -0.11312516 0.1297913 0.09488732 0.025928022 -0.15825579 0.021550922 -0.10534121
0.2614318 0.06086973 0.13527113 0.078786805 0.29049873 -0.0306193 -0.0326989 -0.07373619
0.034048688 -0.057363275 -0.12825379 0.058177307 -0.13957568 0.08458641 0.07690335 0.18946525
0.16740273 -0.025220223 0.13647217 -0.13381787 -0.030354923 0.03299691 0.04951116 0.28799132
0.08398574 -0.030377183 0.10676586 0.062040612 -0.04073158 -0.097679295 0.1636179 -0.100804344
