FYPprototype/results/Test3/AIBalancing/AIBalancing-1482.pt (torch, 247543 bytes, 18 tensors)

discrete_act_size_vector f4 [1, 4]
00000000: 0000 0040 0000 9841 0000 7041 0000 1041
2.0 19.0 15.0 9.0

network_body._body_endoder.seq_layers.0.weight f4 [128, 78]
00000000: b74d 2ebc f663 313d deb5 5b3e 35fd 34bd
00000010: db27 cdbd f769 4f3e cf52 26be d1a2 adbd
00000020: 0a6f e03b 67e9 d6bd 91eb 5ebe 3fb6 9bbd
00000030: c25e 25be 6760 92bd 719a 66bc d7a2 363d
00000040: 13f4 1abe d29f 11be ee99 21bd d722 94bd
00000050: 6378 3e3d 4c56 ca3d 2059 dfbd dadd 9c3d
00000060: 844f 213c e1d6 583e 618e 583d b9af 9abc
00000070: 9db3 16be e48b 803c e2d6 273e 326b 1dbe
00000080: cc3a 3e3e 230d b6bd b9de f9bc b1ff 473d
00000090: 837d 383d 3d75 1a3d 6c81 bf3d f92f 7bbd
000000a0: 2e22 1fbd ccee d03b 6f3a fb3c 20e8 6a3c
000000b0: 4133 88bc 08ad 4c3d e207 db3d 9cff 813e
000000c0: 72c0 1d3e 898f 50bd 8c20 fe3d 2446 593e
000000d0: e3bc 15bd 155e dfb9 e854 f0bd 98d8 8ebb
000000e0: cfda 313d 5bde 2dbc 919f 2d3e 4616 1fbd
000000f0: 8a50 3d3e 5756 27be 0fb4 59be 3c9d 26be
00000100: 6c46 7f3e 551c 92bd 0845 4cbd 94df b33e
00000110: 9933 423e bdda 8cbc d65c 1fbe ca02 16bd
00000120: 3bb0 66be 28d8 29be 0d61 80bd 3357 17be
00000130: 1f68 5f3d 7297 bfbd 2ccd 973d 0353 6a3d
00000140: 347a ddbd b9e0 2e3d 4692 edbc a3d0 0c3e
00000150: 9f09 60bc a641 b4bd 7356 203d 2cc5 11bd
00000160: d3a7 8abc e0bb 16bc ea82 f33d 3d68 57bd
00000170: a1de dfbd 46d1 42bd cfa6 a23d 1620 953d
00000180: 7b1e a93d 71c7 3a3d 41f9 13be 8c42 a43d
00000190: 3f33 a13d 3842 293e a6e4 853d 8cc6 ecbd
000001a0: ff71 5e3e 8281 613e af5a 2dbe 2623 70bc
000001b0: 7a41 febd fb82 fa3d c19c 4d3e 62c6 92bd
000001c0: bbaf 9a3d fb76 33bd c596 f03d bf87 21be
000001d0: 3482 cbbd f585 06be 1cfb 0e3e bb46 393b
000001e0: 1e27 34be c22e adbc 39b3 a7bc 78ae eabc
000001f0: 9085 00be a44c 66bd 5669 323e 3fa8 b5bd
00000200: 4c1d 333c 7cbb c73d 1fe0 4dbe 31ba 613d
00000210: bb70 c33d 489e a4bd 8566 83bd 4941 b93d
00000220: 3c4c 4cbd 2687 cd3d baed 613d 361b 20be
00000230: f792 033e 239f cebd df01 153d b46e a9bc
00000240: fa3c fe3d a8dc f73c ff5a 26bd 772e c83d
00000250: 0df4 043e 2305 b53d fcc1 94bd 403a acbb
00000260: b46f 81be 1e85 07be 2491 b1bd 1045 513b
00000270: ec7d 953d 5da7 99bd 8951 0e3e 1279 2e3c
00000280: 7c34 48bd a81e 123d dacb e73d e5ea 79bd
00000290: 9db6 20bc ffcc c0bd a3c1 76bc 7098 08bd
000002a0: d799 b1bc e295 183d c37a 9a3d 85f5 cfbd
000002b0: 7222 0a3e 2175 f3bc 75b7 3cbe 4ae5 5e3c
000002c0: bd4d 0a3e be87 f93b 53cd 993a 86e4 053e
000002d0: 625d 25be 11ad 0ebd 2f74 46bd 4f29 9f3d
000002e0: e7a5 c0bd 762f 103e 93ef babb 8664 62be
000002f0: 0901 e4bd a1ed 943d 19d6 2a3d 06f0 4dbd
00000300: 3b37 293e 714c afbd 8d71 0d3b 8514 27bd
00000310: 2a1f 4cbd 1fc4 2bbd d0e2 613e 712e 5dbd
00000320: 7f82 1bbd d620 1b3e 4985 8a3d d9eb d63d
00000330: a083 343d a564 d0bd 5e42 ffba b235 10bc
00000340: 1dd1 a5bd 52aa 4a3d 1867 633d a1b6 203e
00000350: 51de aebd ff6f 8e3e 8109 3abe 72e2 00bd
00000360: 775f 973d 5a2f d43d 9f55 4f3d fbfd 66bc
00000370: d4f6 61be e310 853e 79ef 1a3e df24 853d
00000380: 3932 d83d 9ae8 1c3e 11e7 39bd 7294 c43d
00000390: 10b7 423e 9fef 94bc cf8e 81be e8da 87bc
000003a0: e280 40bd c183 2cbd 5369 bc3b 9c4d f9bd
000003b0: 910a 873d 9668 273d 038d 803d 460e a4bd
000003c0: f30b d93d 7b8e 65bd 2a1b bd3d 64a4 a1bd
000003d0: 82fc a8bd af0e 41bd f7ed 083e a2b2 9e3d
000003e0: b3d8 c8bd eab1 56bd eb23 fe3d 154c b23d
000003f0: 9ecd 2d3e f903 5c3d 9780 c93d 19fe 7b3e
-0.010638646 0.04330822 0.21456096 -0.04418679 -0.100173675 0.20255266 -0.16242526 -0.084783204
0.0068491744 -0.10493737 -0.21769549 -0.0760312 -0.16149428 -0.071472935 -0.014074908 0.04458889
-0.1513217 -0.14221123 -0.03945344 -0.07233208 0.04650153 0.09879741 -0.10905671 0.07659502
0.009845618 0.2117572 0.052870158 -0.01888262 -0.14716955 0.015691705 0.16390565 -0.15372923
0.18577117 -0.088892244 -0.03050171 0.04882783 0.045041572 0.037709463 0.09350857 -0.061325047
-0.038850956 0.006376123 0.030667512 0.0143375695 -0.016626002 0.049969703 0.10694863 0.25390327
0.15405443 -0.050918136 0.124085516 0.21218163 -0.03655709 -0.0004260397 -0.117349446 -0.004359316
0.043421563 -0.010612096 0.16955401 -0.0388396 0.18487754 -0.1634153 -0.21260093 -0.16270918
0.24929208 -0.0713431 -0.04987052 0.35131514 0.18964995 -0.017194146 -0.15562758 -0.036623754
-0.22528164 -0.16586363 -0.06268511 -0.14779358 0.054542657 -0.09355058 0.0741218 0.057208072
-0.10814324 0.04269478 -0.029000413 0.13751464 -0.013674169 -0.08801584 0.039144944 -0.03558843
-0.016925728 -0.009200066 0.11890204 -0.052589644 -0.10931135 -0.04756286 0.079419725 0.072815105
0.08257767 0.04560036 -0.14450552 0.08020505 0.078711025 0.16529167 0.06537752 -0.11561307
0.21723174 0.2202206 -0.16929124 -0.014656818 -0.124148324 0.12232014 0.20079328 -0.07166745
0.07553049 -0.04381464 0.11747507 -0.1577444 -0.09936944 -0.13137038 0.13962978 0.0028270918
-0.17593047 -0.02114046 -0.020471202 -0.028647646 -0.1255095 -0.056225434 0.17422995 -0.08869981
0.010932278 0.09752557 -0.20105027 0.055109207 0.09542986 -0.08038002 -0.064160384 0.09045655
-0.04987739 0.10035543 0.055158354 -0.1563538 0.12849031 -0.10088947 0.036378738 -0.02068267
0.12413974 0.030256584 -0.040614124 0.097744875 0.12983723 0.088388704 -0.07263562 -0.0052559674
-0.25280535 -0.13234374 -0.086702615 0.0031932034 0.07299408 -0.07502625 0.1389829 0.010648983
-0.048878178 0.035673767 0.113181785 -0.06101503 -0.009809163 -0.094141 -0.015060815 -0.0333485
-0.021679802 0.037252314 0.07542946 -0.10154251 0.13489702 -0.029718937 -0.18429358 0.013604471
0.13506217 0.0076150587 0.0011734165 0.13075456 -0.16148904 -0.034833018 -0.048450645 0.07771551
-0.09406643 0.14080605 -0.005704829 -0.22108659 -0.1113301 0.072718866 0.041708086 -0.050277732
0.16524975 -0.08559502 0.0021582574 -0.040791053 -0.049834408 -0.041935083 0.22059178 -0.053999368
-0.037966248 0.15149245 0.067637034 0.10494203 0.04407084 -0.101754464 -0.0019474735 -0.008801864
-0.08096526 0.049478836 0.05551824 0.15694667 -0.08538497 0.2781982 -0.18167688 -0.031465955
0.07391255 0.10360594 0.050618764 -0.01409864 -0.22066814 0.25989446 0.15130414 0.06501173
0.10556454 0.15323105 -0.045386378 0.09598626 0.19015145 -0.018180666 -0.25304267 -0.016583875
-0.046997912 -0.042117838 0.0057498603 -0.12173006 0.06593812 0.040871225 0.06276896 -0.08010535
0.10597982 -0.056044083 0.09233697 -0.07892683 -0.08251287 -0.047133144 0.13372026 0.07748915
-0.09806957 -0.052415766 0.124091946 0.08705918 0.16972968 0.053714726 0.0983898 0.2460865

network_body._body_endoder.seq_layers.0.bias f4 [128]
00000000: 0000 0000 0000 0000 0000 0000 0000 0000
00000010: 0000 0000 0000 0000 0000 0000 0000 0000
00000020: 0000 0000 0000 0000 0000 0000 0000 0000
00000030: 0000 0000 0000 0000 0000 0000 0000 0000
00000040: 0000 0000 0000 0000 0000 0000 0000 0000
00000050: 0000 0000 0000 0000 0000 0000 0000 0000
00000060: 0000 0000 0000 0000 0000 0000 0000 0000
00000070: 0000 0000 0000 0000 0000 0000 0000 0000
00000080: 0000 0000 0000 0000 0000 0000 0000 0000
00000090: 0000 0000 0000 0000 0000 0000 0000 0000
000000a0: 0000 0000 0000 0000 0000 0000 0000 0000
000000b0: 0000 0000 0000 0000 0000 0000 0000 0000
000000c0: 0000 0000 0000 0000 0000 0000 0000 0000
000000d0: 0000 0000 0000 0000 0000 0000 0000 0000
000000e0: 0000 0000 0000 0000 0000 0000 0000 0000
000000f0: 0000 0000 0000 0000 0000 0000 0000 0000
00000100: 0000 0000 0000 0000 0000 0000 0000 0000
00000110: 0000 0000 0000 0000 0000 0000 0000 0000
00000120: 0000 0000 0000 0000 0000 0000 0000 0000
00000130: 0000 0000 0000 0000 0000 0000 0000 0000
00000140: 0000 0000 0000 0000 0000 0000 0000 0000
00000150: 0000 0000 0000 0000 0000 0000 0000 0000
00000160: 0000 0000 0000 0000 0000 0000 0000 0000
00000170: 0000 0000 0000 0000 0000 0000 0000 0000
00000180: 0000 0000 0000 0000 0000 0000 0000 0000
00000190: 0000 0000 0000 0000 0000 0000 0000 0000
000001a0: 0000 0000 0000 0000 0000 0000 0000 0000
000001b0: 0000 0000 0000 0000 0000 0000 0000 0000
000001c0: 0000 0000 0000 0000 0000 0000 0000 0000
000001d0: 0000 0000 0000 0000 0000 0000 0000 0000
000001e0: 0000 0000 0000 0000 0000 0000 0000 0000
000001f0: 0000 0000 0000 0000 0000 0000 0000 0000
0.0 0.0 0.0 0.0 0.0 0.0 0.0 0.0
0.0 0.0 0.0 0.0 0.0 0.0 0.0 0.0
0.0 0.0 0.0 0.0 0.0 0.0 0.0 0.0
0.0 0.0 0.0 0.0 0.0 0.0 0.0 0.0
0.0 0.0 0.0 0.0 0.0 0.0 0.0 0.0
0.0 0.0 0.0 0.0 0.0 0.0 0.0 0.0
0.0 0.0 0.0 0.0 0.0 0.0 0.0 0.0
0.0 0.0 0.0 0.0 0.0 0.0 0.0 0.0
0.0 0.0 0.0 0.0 0.0 0.0 0.0 0.0
0.0 0.0 0.0 0.0 0.0 0.0 0.0 0.0
0.0 0.0 0.0 0.0 0.0 0.0 0.0 0.0
0.0 0.0 0.0 0.0 0.0 0.0 0.0 0.0
0.0 0.0 0.0 0.0 0.0 0.0 0.0 0.0
0.0 0.0 0.0 0.0 0.0 0.0 0.0 0.0
0.0 0.0 0.0 0.0 0.0 0.0 0.0 0.0
0.0 0.0 0.0 0.0 0.0 0.0 0.0 0.0

network_body._body_endoder.seq_layers.2.weight f4 [128, 128]
00000000: 234f a53d 7e09 d139 0768 8dbd ca30 7ebd
00000010: 28f8 cd3c b5f4 05be cd5d 233d a94f a0bc
00000020: 7571 97bd ea17 c63d d68a 4e3d 250d d5bd
00000030: 62f2 35bd 78db 1abe 6675 9bbd 6a69 d13d
00000040: 9dbd c93d 9701 8f3c c983 c33c 921b 863d
00000050: c15c 2f3d 86ad fc3d 9022 0c3e 06b1 c2bd
00000060: 1948 4c3e de23 a03d 054b 05be 9c36 4d3c
00000070: e7e2 fd3b cfee f7bd b35d e43b 48a5 17be
00000080: ced8 153d 7fe5 523e 1834 363d ba30 50bc
00000090: 737b de3d 73fe 55bd bcde 963d 996f 9cbd
000000a0: 73c8 373e 9f7d a43d 5102 3c3e 1e20 4d3e
000000b0: 0613 803c 5f39 0c3d 9771 d83d f97c 933d
000000c0: 0add 0c3e d51a 723d f342 153e 31c1 803d
000000d0: 0b14 3cbe ea58 50bc 565f a83d 7b25 a0bc
000000e0: d42e 82be 5494 b63d 448e 25bd fa9c b93c
000000f0: 7bd4 ef3d c5b0 fe3b 5b57 823c d5f1 623e
00000100: dfd8 5c3d dd8e 74bd 4a2d d33d 3785 89bc
00000110: 0a6e 94bd 4ac6 91bc 589c 21bd e422 c6bd
00000120: 0dc5 3d3e 93b7 babd 812b b6bd f535 89bc
00000130: 04c8 6d3c 4030 683d a82c cb3d ea97 253d
00000140: fc77 b0bd d742 1e3e 90e5 113e fc15 0c3c
00000150: 1647 a83d 483e b73d a7cc 613d ba24 25be
00000160: 362b 353c 1a25 78bd 5398 9dbc 882d 77bd
00000170: c211 0d3c fc4c 10be b76f a83d 15ce ad3d
00000180: 1d64 eebd b868 e93d 75fe 04be f423 833d
00000190: 6d11 4fbc 9564 d6bc 5fab 70bd f300 ae3c
000001a0: ddc0 273d fcf1 f33d d6a5 7ebd 2c63 073e
000001b0: 7db7 843d 87ed 3f3e 5098 c33d 00b5 a8bd
000001c0: 805c 51be 84b0 e9bd 6a0a 18be 996e 8b3d
000001d0: 9b0c debc 3661 34bb 0cbc b0bc aabf 3b3e
000001e0: f373 96bc f38e e63d 7cba d53c 9e86 57bd
000001f0: 5e61 f43b 537b 5b3e e829 6c3d 9184 15be
00000200: 20da 71bc 4ea2 2a3d 1c86 673d 17e6 12be
00000210: aaca 3fbd 3d95 afbd 9d27 4dbd 2134 4d3d
00000220: 6ad3 b23d ed28 0f3d 9877 5d3b 073a e537
00000230: 131c 94bc 9f49 dabd e827 8fbd c795 fbbd
00000240: 0496 d53a dcc6 91bd 808f 4ebe d4a7 fa3c
00000250: 8dd7 8f3c cd47 e7bc e13c 80bd 54dd ad3d
00000260: c6eb f1bc 0593 4f3e 6efe 1f3e 3828 083b
00000270: aaab 12be 1dd9 c6bd a9a5 a33d 4f6d 443d
00000280: e716 8ebd f2d1 e6bd 1774 7dbd be6e 7e3d
00000290: 25eb 563d cd97 78bd 0f21 f83d eb5a e1bd
000002a0: 1a26 1c3c 6bf5 bcbd f2d4 13be 01ab b8bd
000002b0: 3086 803c c78b c3bd e5e3 a63d 1e34 1a3e
000002c0: f887 87bc e569 c7bd 06aa d1bd 27d7 573c
000002d0: a10c 15be 964e 283e 7e8e e0bd 93cc da3d
000002e0: bd7c 703d e731 d2bc 3f7a 1dbd 2388 2a3e
000002f0: 0c8e 8ebc 1bea 473c 7d63 7e3d 3df3 6fbb
00000300: 711c c5bd bddf eebd e3d8 463d 44f8 a63d
00000310: 093f d13c b86e ba3d 0d08 2cbb 6caa 163e
00000320: 4b3d 28bd 0ece b0bd fddb 483d be0f 1f3d
00000330: b38c 423d 345a 8c3d 21d7 ba3c 413b 203d
00000340: 24de eebc b627 0bbe 9065 96bc 2882 07bd
00000350: 8aa1 09be be16 71bc cac5 8ebd e720 e13c
00000360: c523 943d 3566 f93b c300 c9bc e6c0 263e
00000370: 7fb4 cc3c 774e 223d d6e5 233d 8d26 15be
00000380: dd7d d4bc 1cb3 423e 5c15 143d 307f e6bd
00000390: 79db ef3d 45f5 fbbc 38a6 94ba 4ed6 1b3d
000003a0: a8db 3b3c 47b2 063d c33c fb3d 6424 d7bc
000003b0: 1d18 4abb 857a d8bd 6359 a23d acce b23d
000003c0: 038f 453d 286d ebbc faf2 94bc 7d2a 1c3d
000003d0: e281 863c 6302 b7ba fb4f 70bd 70f6 9f3b
000003e0: 9385 e5bb 4a10 813d 2866 95bd 00f7 9a3d
000003f0: e19c 9e3d 5d99 1bbe 09c0 ca3d 80ea 8cbc
0.08071735 0.0003987066 -0.06904607 -0.062058248 0.025142744 -0.1308163 0.039884377 -0.019569235
-0.07394687 0.0967253 0.050425373 -0.10402898 -0.044420607 -0.15122783 -0.07590751 0.10225184
0.09850619 0.017456813 0.023866551 0.06548227 0.042813066 0.123377845 0.1368506 -0.09506421
0.19949378 0.07819341 -0.13016899 0.012525227 0.007747996 -0.12106096 0.0069691776 -0.14809144
0.036583714 0.20595358 0.044483274 -0.01270693 0.1086339 -0.052244615 0.07366702 -0.07638473
0.17947559 0.08031773 0.18360259 0.20031783 0.015634071 0.0342344 0.105685405 0.07201571
0.13756195 0.05910762 0.1457632 0.06286848 -0.18367021 -0.012716511 0.08221309 -0.019549122
-0.25426352 0.0891501 -0.04041888 0.02265786 0.11710449 0.0077725374 0.015910795 0.22162564
0.053917762 -0.059706558 0.103113726 -0.016787155 -0.07247551 -0.017794747 -0.03945574 -0.096746236
0.185322 -0.09117045 -0.088950165 -0.016749362 0.0145130195 0.05668664 0.09920627 0.04042808
-0.08616635 0.15455185 0.14247727 0.008550163 0.082166836 0.08947426 0.055126812 -0.16127291
0.011057666 -0.060582258 -0.019237673 -0.060346156 0.008610191 -0.14091867 0.08224433 0.08486573
-0.11640189 0.11396927 -0.12987693 0.06403342 -0.012638432 -0.026171008 -0.058757182 0.021240687
0.040955413 0.11911389 -0.062169872 0.13221425 0.0648031 0.18742953 0.09550536 -0.08237648
-0.20445442 -0.11410621 -0.14847723 0.06808204 -0.02710562 -0.0027523763 -0.021574043 0.18334833
-0.018365836 0.11257734 0.0260899 -0.052618615 0.007457896 0.21433763 0.057657152 -0.14601351
-0.014761478 0.041658692 0.05652438 -0.14345585 -0.046824135 -0.08573387 -0.050086606 0.050098542
0.0873173 0.03495114 0.0033793207 2.7325948e-05 -0.018079793 -0.10658573 -0.069900334 -0.12284427
0.0016295318 -0.071180075 -0.20171928 0.030597605 0.017558837 -0.02823248 -0.06261612 0.084894806
-0.02953137 0.20270927 0.15624401 0.0020775925 -0.14323297 -0.0970938 0.079905815 0.047955807
-0.06937962 -0.11270513 -0.06187829 0.06211733 0.052470345 -0.060691644 0.121156804 -0.11003669
0.0095305685 -0.09226497 -0.14436701 -0.090169914 0.015688986 -0.09548145 0.08148936 0.15058944
-0.016544327 -0.09736995 -0.102375075 0.013173855 -0.14555599 0.16436228 -0.10964678 0.10683551
0.05871271 -0.02565856 -0.03844666 0.16653495 -0.017401718 0.012201811 0.0621066 -0.0036613487
-0.096245654 -0.116637684 0.048546683 0.08152822 0.025542753 0.09103149 -0.0026249916 0.14713448
-0.04107408 -0.08633052 0.049037922 0.038833372 0.047497462 0.068531424 0.02280766 0.03911901
-0.02915866 -0.13589367 -0.018358976 -0.03308311 -0.13440529 -0.014714895 -0.06971319 0.02748151
0.07233385 0.007611061 -0.024536496 0.16284522 0.024988411 0.03962561 0.04001411 -0.14565487
-0.025938923 0.19013637 0.036153182 -0.11254728 0.11711783 -0.030756602 -0.0011341041 0.038046174
0.011465944 0.032884862 0.12267449 -0.02626247 -0.0030837127 -0.10570244 0.079272054 0.08730826
0.04823209 -0.028738573 -0.018182267 0.038126457 0.016419355 -0.0013962503 -0.058670025 0.0048816726
-0.0070044487 0.06301935 -0.072948754 0.07566643 0.07744766 -0.15195222 0.09899909 -0.017201662

network_body._body_endoder.seq_layers.2.bias f4 [128]
00000000: 0000 0000 0000 0000 0000 0000 0000 0000
00000010: 0000 0000 0000 0000 0000 0000 0000 0000
00000020: 0000 0000 0000 0000 0000 0000 0000 0000
00000030: 0000 0000 0000 0000 0000 0000 0000 0000
00000040: 0000 0000 0000 0000 0000 0000 0000 0000
00000050: 0000 0000 0000 0000 0000 0000 0000 0000
00000060: 0000 0000 0000 0000 0000 0000 0000 0000
00000070: 0000 0000 0000 0000 0000 0000 0000 0000
00000080: 0000 0000 0000 0000 0000 0000 0000 0000
00000090: 0000 0000 0000 0000 0000 0000 0000 0000
000000a0: 0000 0000 0000 0000 0000 0000 0000 0000
000000b0: 0000 0000 0000 0000 0000 0000 0000 0000
000000c0: 0000 0000 0000 0000 0000 0000 0000 0000
000000d0: 0000 0000 0000 0000 0000 0000 0000 0000
000000e0: 0000 0000 0000 0000 0000 0000 0000 0000
000000f0: 0000 0000 0000 0000 0000 0000 0000 0000
00000100: 0000 0000 0000 0000 0000 0000 0000 0000
00000110: 0000 0000 0000 0000 0000 0000 0000 0000
00000120: 0000 0000 0000 0000 0000 0000 0000 0000
00000130: 0000 0000 0000 0000 0000 0000 0000 0000
00000140: 0000 0000 0000 0000 0000 0000 0000 0000
00000150: 0000 0000 0000 0000 0000 0000 0000 0000
00000160: 0000 0000 0000 0000 0000 0000 0000 0000
00000170: 0000 0000 0000 0000 0000 0000 0000 0000
00000180: 0000 0000 0000 0000 0000 0000 0000 0000
00000190: 0000 0000 0000 0000 0000 0000 0000 0000
000001a0: 0000 0000 0000 0000 0000 0000 0000 0000
000001b0: 0000 0000 0000 0000 0000 0000 0000 0000
000001c0: 0000 0000 0000 0000 0000 0000 0000 0000
000001d0: 0000 0000 0000 0000 0000 0000 0000 0000
000001e0: 0000 0000 0000 0000 0000 0000 0000 0000
000001f0: 0000 0000 0000 0000 0000 0000 0000 0000
0.0 0.0 0.0 0.0 0.0 0.0 0.0 0.0
0.0 0.0 0.0 0.0 0.0 0.0 0.0 0.0
0.0 0.0 0.0 0.0 0.0 0.0 0.0 0.0
0.0 0.0 0.0 0.0 0.0 0.0 0.0 0.0
0.0 0.0 0.0 0.0 0.0 0.0 0.0 0.0
0.0 0.0 0.0 0.0 0.0 0.0 0.0 0.0
0.0 0.0 0.0 0.0 0.0 0.0 0.0 0.0
0.0 0.0 0.0 0.0 0.0 0.0 0.0 0.0
0.0 0.0 0.0 0.0 0.0 0.0 0.0 0.0
0.0 0.0 0.0 0.0 0.0 0.0 0.0 0.0
0.0 0.0 0.0 0.0 0.0 0.0 0.0 0.0
0.0 0.0 0.0 0.0 0.0 0.0 0.0 0.0
0.0 0.0 0.0 0.0 0.0 0.0 0.0 0.0
0.0 0.0 0.0 0.0 0.0 0.0 0.0 0.0
0.0 0.0 0.0 0.0 0.0 0.0 0.0 0.0
0.0 0.0 0.0 0.0 0.0 0.0 0.0 0.0

action_model._discrete_distribution.branches.0.weight f4 [2, 128]
00000000: f6d5 31bb 1b39 08bb 8de0 503b 9079 ce3b
00000010: 7e9d 193c 8b11 413c b302 953b 3aad 9d3a
00000020: 656a 67bb d981 a13b c2f5 873b e236 a8b9
00000030: 2c7b 183c cc00 223c 00a8 653c 5cdd 913a
00000040: 02f4 f2ba e433 1bba 5c99 ca3b a3e0 cdbb
00000050: ed2b f03b 15c0 b338 ac05 03bc 7bfe a1bb
00000060: 54b5 403c e270 60bc 77a3 033d 62dd 593c
00000070: 0877 9f3b 9d3b 2fbb 7ae8 5e3c eadc cebb
00000080: 8bc1 7c3c df6d 7cbb 5f86 1bbc 6891 1fbb
00000090: d3de 543c 8b5c daba 15d1 e33b 0df1 363c
000000a0: e3ff cc3b ba1d a33b 3b66 68bc 7833 5cba
000000b0: 23a5 913b 8b94 1cbc 9d6e 0fbc fb3a 36bc
000000c0: 9110 85bb 6f75 03bc f472 00bb a1d1 19bc
000000d0: df50 2cb8 537d 393c eb85 ceba ef15 e93b
000000e0: ab75 373c ad8d be3b 28c0 043c 8f1b 3a3c
000000f0: 876c 5c3c 77b3 2b3b 69d9 3a3c 4b2b 583b
00000100: 5dc4 7d3c 2b85 743b b6fd 303c f6be 473c
00000110: 4f64 063c 7539 64ba 9700 9b3c 9751 f2ba
00000120: b88d 0e39 27c1 a0b9 8bae 4a3b e671 1ebc
00000130: f773 cfba 95a2 34bc 0c19 433b ef32 2f3b
00000140: c209 c5bc d857 aabb 895c 9abb 9b33 ae3a
00000150: 48f0 0e3b d7a8 60bb d0ce 66bc 53ba a13b
00000160: 405d dcbb c9da 003c 9b54 4cbc a820 c3bb
00000170: abb0 ca3b ff68 8339 cfd2 1ebc b428 c43b
00000180: 52f2 3d3c add0 0fbc d553 a03a 990f 8e3b
00000190: 8dba 6c3b 115e 983c 0951 493b a19a 42bb
000001a0: 0a75 983b 2603 cb3b fcbe 04bc 6132 c4bb
000001b0: a2ec 533b ad41 7abc f33a 343c b221 62bc
000001c0: 5344 58bc bd4b d8ba c2ff da3b acf4 2e3c
000001d0: 8fff c539 f966 1e3b 42ed c4bb 36af 00bb
000001e0: bbfa 493c 38f5 77bc cd9a 17bc e345 d2bb
000001f0: 3f50 0c3b 734f 803b d7f4 843b 8061 743b
00000200: 53c7 433c ab45 4fbc da9f f83a 38a7 a83b
00000210: 9ff9 ef3b 027e f5ba f77d a53b adc5 f03b
00000220: c88f 79bc ac90 8b3b d5dd da3a da50 55bc
00000230: 28ec cd3a 682c 1b3c 23e4 f0bb 1832 a13c
00000240: f8e9 13bc 0cc7 49ba d160 07bb 930a 0b3c
00000250: 25b3 37bc c32d 30bb 9787 ae3a 5725 dd39
00000260: e3fc 8fb9 4369 e63b 8b9f d2bb 3b2e 953b
00000270: 2b20 093c 7613 0cbc cb63 1ebc c8bf b83b
00000280: f3a4 02b9 8a6a 2fbc 56ef bebc 189b 303b
00000290: 8ff4 403a fab6 47bc 7a88 d8ba 0a65 373c
000002a0: 82db 69bc 8534 203b 8a64 403b fc33 a5bb
000002b0: 6aa9 85bc 0351 c4bb 2113 153c 53e1 6dbb
000002c0: c5e4 923b 1fc0 f73a e6ae 273c efd2 1f3c
000002d0: fbfc 86bc 42f6 97bc bb72 533c e573 623c
000002e0: b3a2 a2bc b755 3c3c 98df 043b b277 303a
000002f0: 2e0b 373a f119 22bc 0535 873c 4d39 603b
00000300: 358d cc3a 9e79 06bc 9b83 db3b 759d 49bb
00000310: 34e3 17bb d473 ca3a d11f 04bb 29f0 a7bb
00000320: f0f0 e2bb cb78 5b3c 0792 fd3b e209 67bc
00000330: 958b 4aba 7257 da3b 6913 2abc ec44 47bc
00000340: 82ea cebb 9f7e 32bc 31d3 0ebc 034b 93bb
00000350: f26d 6a3c 5376 c4bb afec 19bc 734b 9fb8
00000360: f28f 1539 d0e5 50bc 3baa 5d3c 98d4 81bb
00000370: 87fa 07bb 5796 b73b 0751 f2ba aacf 313c
00000380: 7504 a9bb e741 ac3c 03d2 d03b 41c8 193c
00000390: 42ec a6bc 5f1f babc e7ee b53b a851 913b
000003a0: 55c0 45bc 2f65 c23b cf12 78bb 985e 61bc
000003b0: 295b b8bb ffa0 df3b f03d 4d3b bd1d ec3a
000003c0: 421d da3b 5188 95bb b03f 523c 6397 063b
000003d0: 6ce5 9abb 2299 28ba 77e7 b13b 63da 0ebb
000003e0: 0748 78bb a51b 51bc 6b22 7b3c d37a 083c
000003f0: f2c1 8f3a 7595 1abb 0dea 50ba e186 813b
-0.0027135587 -0.002078599 0.0031872124 0.0063011125 0.009375928 0.011783968 0.004547441 0.0012029775
-0.0035311219 0.004928809 0.0041491697 -0.00032084348 0.00930671 0.009887885 0.014017105 0.0011128592
-0.0018535855 -0.0005920513 0.0061828326 -0.0062828823 0.007329455 8.571163e-05 -0.007996958 -0.0049436665
0.011761982 -0.013698788 0.032138314 0.013297411 0.0048664846 -0.0026738413 0.013605231 -0.006312956
0.015427004 -0.0038517637 -0.009492486 -0.0024348143 0.012992579 -0.001665966 0.0069524148 0.011165869
0.00625609 0.004977909 -0.01418453 -0.00084000034 0.0044447347 -0.0095569 -0.0087544 -0.0111224605
-0.0040608128 -0.008023604 -0.0019599767 -0.009388358 -4.1083313e-05 0.0113213835 -0.0015756463 0.0071132104
0.011197488 0.005815229 0.008102454 0.01135911 0.013453609 0.0026199499 0.011404374 0.003298479
0.015488711 0.003731082 0.010802677 0.012191525 0.008202626 -0.00087060715 0.01892118 -0.001848745
0.0001359497 -0.00030661488 0.003092679 -0.00967071 -0.0015827407 -0.011025091 0.0029769568 0.002673324
-0.024052504 -0.00519846 -0.004710738 0.0013290526 0.00218107 -0.0034280324 -0.014087394 0.0049355417
-0.0067249835 0.007864662 -0.012471343 -0.0059548207 0.0061856112 0.00025064495 -0.009693815 0.0059862975
0.011593418 -0.0087777795 0.0012232015 0.0043353555 0.0036121935 0.018599542 0.0030718467 -0.0029694217
0.004652624 0.0061954437 -0.008102175 -0.005987451 0.003233709 -0.015274447 0.011000383 -0.013801979
-0.0131998835 -0.0016502064 0.0066833207 0.0106784515 0.00037765174 0.0024170263 -0.0060097286 -0.0019635684
0.012327845 -0.015134148 -0.009253216 -0.0064170226 0.0021410135 0.003915721 0.0040575075 0.003728956
0.011949378 -0.0126508875 0.0018968538 0.005146887 0.0073234583 -0.001872957 0.0050504166 0.0073477835
-0.015232034 0.0042591896 0.0016698191 -0.013019765 0.0015710639 0.0094710365 -0.0073514148 0.019677207
-0.0090279505 -0.0007697202 -0.0020657072 0.008486408 -0.011212145 -0.0026882745 0.0013315555 0.00042180225
-0.000274635 0.007031591 -0.0064277104 0.0045526302 0.008369486 -0.008549562 -0.009667347 0.0056380965
-0.00012459214 -0.010706553 -0.023307484 0.0026947912 0.0007360661 -0.012189621 -0.0016520165 0.011193523
-0.014273526 0.0024445367 0.00293568 -0.0050415974 -0.016316134 -0.0059911027 0.009098799 -0.0036297634
0.004482838 0.0018901861 0.01023457 0.00975488 -0.016478052 -0.018550042 0.012905772 0.013821577
-0.019852972 0.011495045 0.0020274874 0.0006731703 0.0006982562 -0.00989388 0.016504774 0.0034213841
0.0015606048 -0.008207707 0.006699038 -0.0030764018 -0.0023176195 0.0015445896 -0.0020160566 -0.005125065
-0.0069256946 0.0133954985 0.007738355 -0.014101477 -0.0007726488 0.0066632563 -0.010380604 -0.012162428
-0.0063145766 -0.010894447 -0.008717344 -0.004495026 0.01430844 -0.0059955507 -0.009394809 -7.595764e-05
0.00014263371 -0.012750104 0.013529356 -0.0039621107 -0.0020748691 0.0056026387 -0.0018487283 0.010852734
-0.005158002 0.021027518 0.0063726916 0.009386123 -0.020376328 -0.022720037 0.005552161 0.004434783
-0.012069781 0.005932472 -0.0037853008 -0.013755463 -0.0056261015 0.006824612 0.0031317435 0.0018014234
0.00665632 -0.0045633693 0.012832567 0.002053701 -0.0047270562 -0.000643151 0.005429204 -0.002179765
-0.0037884729 -0.012762939 0.01532803 0.008330065 0.0010967834 -0.0023587618 -0.00079694466 0.0039528464

action_model._discrete_distribution.branches.0.bias f4 [2]
00000000: 0000 0000 0000 0000
0.0 0.0

action_model._discrete_distribution.branches.1.weight f4 [19, 128]
00000000: 9fc7 b33c 28ed 1dbc 334c dbbb d6ed 053b
00000010: 0332 9c3b 904a 2b3b 0e4f b63b 0df3 2fbb
00000020: e995 0dbc 5ed8 a43c f54e 0bbc 80de 693c
00000030: 9ad4 6b3c 4c7a 3d3c d079 f6ba 5262 2e3c
00000040: 1742 673c 0d1d ca3b 8fd4 ee3b 2f9a 263b
00000050: 9361 11bb 4b05 bcba 8fdb 9c3a 881e b73c
00000060: 62ed e53b 3803 d53b 6263 f8bb c310 1e3c
00000070: 630f 783b 0070 9b3a 1fcb 133b 81e4 8f3b
00000080: bf61 af3b 71a6 883b 6576 7fbb 7b92 4bba
00000090: 4712 563b 28f4 373c aa32 ef3a fbe3 e0bb
000000a0: b724 49bc 8f3e d1bb 5871 54bc 9b1d 62b9
000000b0: c57e 0c3c e37c e13b 9302 383b cbd1 073c
000000c0: 60be 0dbc ea16 4fbc bb8a 3d3a 2b99 923b
000000d0: cce9 973c d1f1 47bc bd65 b5ba f3b3 12bb
000000e0: b7d6 81bc 85dd 4dbb 9a6f c23b 48d8 0abc
000000f0: bb11 693c afc5 99ba 13eb db3a bff9 1b3c
00000100: 2354 0bbc 3b21 2a3b ca80 543b 9997 433a
00000110: 5d5a b53a cebf a43a 2038 68bc 7d2d 66bc
00000120: d0ea 52bc 62d3 1a3c 69a2 043a 673d 0abb
00000130: 5a1d aa3b 1887 0d3b 6fa0 873b 28ed b43a
00000140: 5933 9ebb 9a28 e13a 32b3 58bb 9601 0e3c
00000150: 9bb6 aebb 4567 81bc 9a6a ef3a 340a 0f3b
00000160: fc08 4bbc 1137 8dbb 1f57 6ebc 92da c73a
00000170: db26 443b 3b0e c1bc 12a8 fe3b e9f9 b03b
00000180: 8faa 393c e209 55bc 0879 0ebc 78ec 2b3c
00000190: c7a3 3fbb 2b6d 563c b3ac 56bc 350b 65bb
000001a0: 55ee 14bc 4ff3 a1bc ff2a 3ebc b7e7 8e3b
000001b0: 488a 27bb b815 eab9 4a42 33bc b236 e2bb
000001c0: 4a27 523c 333c 69bb bbba 8dbb 4fea d03b
000001d0: 08b8 873c 6c5a a53c dbf0 5a3b 70de 8138
000001e0: 382b ff3b 6438 cc3b 3df2 293c af9d 91bb
000001f0: 827e 2a3b f3f4 35bc fc13 013c d0b2 8f3a
00000200: 33b3 8d3c 6784 2dbc b530 4a3c 2c48 0a3c
00000210: 8350 b4bb 17fe 3dbb 878c e63b dbba 413c
00000220: 128f 82bb 5ad5 903b d093 db3b 875d a43a
00000230: 007d e5bb 7d24 48bc ddc4 9c3b 1b4b 91ba
00000240: cddc 92bb 2aac b4bb f767 df3b 5faf a4bb
00000250: 2b98 4bbc ce81 053c 9345 8ebb 1305 ac3c
00000260: c5a0 09bc a2ba 0e3c 3635 ae3b d09c d7ba
00000270: 6c75 c6bb 0d38 f53b 8e39 0dbc b509 f53c
00000280: 3b12 1bbc 0757 41bc 4ab1 92bc df29 5dbc
00000290: 50c3 9fbc 985d c6ba a597 903c 3bb1 1abb
000002a0: 5bf0 463b 877f 89bb 6cbd 053c ff8d 6e3c
000002b0: a35e 7abb c147 24bc c00b 8cbb c9d8 093c
000002c0: c6d8 09bc 5f20 343c ebeb c63b f779 90bb
000002d0: 5ad1 c0bc 2daf 58bc 677d 403c 2fa6 5c3b
000002e0: cd85 233b 6223 0abb c321 64bc 6f9a 883b
000002f0: 02f7 583c c0ab 553a 7802 f83b e384 9b3b
00000300: 049f 0f3b 2d46 a13b 568f a13a a7b8 5abc
00000310: 08b2 6c3c 7311 87bc 7739 0d3c a7f7 8dba
00000320: 374c 5b3c 1293 a5bb 6267 d8bb 6375 733b
00000330: f32e 4a3b b767 96ba 04b7 3d3c c31d 66ba
00000340: 8a9f debb 171b eb3b aaab 9b3b ab67 3f3c
00000350: 530b 91bb 9043 c73c 6f20 df3b 9e2c 8eba
00000360: 05f1 613b 3d60 a6bc 52ae 1c3c c705 bbbb
00000370: 5f72 8ebb cf68 04bb d942 1abb 2ac2 58bc
00000380: 9ea7 193b 3322 dd3a 770b acbc 9b7d 1dbc
00000390: 37f2 383b a323 82bc da94 7dbb 2359 48bb
000003a0: 30f5 debb 7bfd 663a a377 313c 2e7c bd3b
000003b0: a70c 8db7 be39 143b 332a 10bc c372 b5bb
000003c0: 3d0d 733c 4537 1cba e7de 8539 c33f d3bc
000003d0: d976 343b 4dd0 faba eb22 87bc be05 a3bb
000003e0: d3e7 57bc b9f0 40bb d32e 1d3c f9b7 abba
000003f0: fb3f a33b eb2e 3c3b 135e 2a3b 98b7 81bb
0.021945773 -0.009639062 -0.0066924333 0.002043595 0.004766704 0.0026136972 0.0055636233 -0.002684775
-0.008641698 0.020122703 -0.008502712 0.01427424 0.01439395 0.011564802 -0.0018804614 0.010643559
0.014114878 0.006168014 0.0072885226 0.002542149 -0.0022183403 -0.0014344839 0.0011967289 0.022353426
0.0070168236 0.006500628 -0.0075802067 0.009647551 0.0037850968 0.001185894 0.002255149 0.0043912535
0.0053522284 0.004170232 -0.003898048 -0.0007765663 0.0032664703 0.011227645 0.0018249352 -0.006863115
-0.01227682 -0.0063856314 -0.012966476 -0.00021564068 0.008575146 0.0068813427 0.0028077706 0.008289765
-0.008651346 -0.0126397405 0.000723045 0.0044738255 0.0185441 -0.01220365 -0.0013839524 -0.002238509
-0.015849454 -0.0031412554 0.005933714 -0.008474417 0.014225419 -0.0011731888 0.0016778432 0.009519993
-0.0085039465 0.0025959748 0.0032425397 0.00074612495 0.0013836134 0.0012569369 -0.0141735375 -0.014048931
-0.0128733665 0.009449812 0.00050596014 -0.0021093728 0.0051914873 0.0021595415 0.004138998 0.0013803588
-0.0048278985 0.0017178238 -0.0033065793 0.00866737 -0.005331827 -0.015796313 0.0018266023 0.002182615
-0.012392279 -0.004309543 -0.0145471385 0.0015247634 0.0029930386 -0.023566356 0.0077715004 0.0054008854
0.011332168 -0.0130028445 -0.008695848 0.01049339 -0.0029241906 0.013087551 -0.013102698 -0.0034949307
-0.009090026 -0.019769339 -0.011606931 0.0043611187 -0.00255646 -0.0004464814 -0.0109410975 -0.006903493
0.01282675 -0.003558886 -0.0043252385 0.006375588 0.016567245 0.020184718 0.0033407721 6.1926316e-05
0.0077871345 0.006232308 0.0103726955 -0.004443846 0.0026015346 -0.011105764 0.0078783 0.0010963324
0.017297363 -0.010590649 0.012340714 0.008440059 -0.005502762 -0.002899056 0.007035795 0.011824335
-0.0039843405 0.0044199647 0.00670097 0.001254008 -0.0070034266 -0.012215731 0.00478421 -0.0011085005
-0.004481888 -0.0055136876 0.0068178135 -0.0050257887 -0.012426416 0.008148624 -0.00434179 0.020998513
-0.008400147 0.008711489 0.005316402 -0.0016449932 -0.0060564782 0.0074834884 -0.008619679 0.029911855
-0.009464796 -0.011800534 -0.017906804 -0.013498752 -0.019502312 -0.0015134094 0.017650435 -0.0023604173
0.0030355665 -0.0041961106 0.0081628375 0.014560222 -0.003820338 -0.010026873 -0.0042738616 0.008413502
-0.008413499 0.010994046 0.006070604 -0.0044090706 -0.023537327 -0.013225359 0.011748648 0.003366839
0.0024951578 -0.0021078219 -0.013924065 0.0041688005 0.013242485 0.0008150898 0.0075686537 0.004746066
0.002191485 0.0049216957 0.0012326043 -0.013349689 0.014446743 -0.016487813 0.008619658 -0.0010831252
0.01338487 -0.0050529325 -0.006604121 0.0037148825 0.0030850738 -0.0011475001 0.011579279 -0.00087782386
-0.006793921 0.00717486 0.0047506886 0.011682431 -0.004426399 0.024324208 0.0068092863 -0.0010847037
0.0034475934 -0.020309562 0.009563046 -0.005707476 -0.00434713 -0.0020204072 -0.002353838 -0.013229886
0.0023445855 0.0016871154 -0.02100156 -0.009612466 0.0028220543 -0.015886134 -0.0038693459 -0.0030570708
-0.006804131 0.0008811575 0.010831746 0.0057826256 -1.6814402e-05 0.0022617425 -0.008799124 -0.0055373623
0.014834699 -0.00059591635 0.00025533812 -0.02578724 0.002753666 -0.0019135565 -0.016496142 -0.0049750498
-0.01317783 -0.0029440357 0.009593683 -0.0013101093 0.0049819923 0.0028714489 0.0025996014 -0.0039586537

action_model._discrete_distribution.branches.1.bias f4 [19]
00000000: 0000 0000 0000 0000 0000 0000 0000 0000
00000010: 0000 0000 0000 0000 0000 0000 0000 0000
00000020: 0000 0000 0000 0000 0000 0000 0000 0000
00000030: 0000 0000 0000 0000 0000 0000 0000 0000
00000040: 0000 0000 0000 0000 0000 0000
0.0 0.0 0.0 0.0 0.0 0.0 0.0 0.0
0.0 0.0 0.0 0.0 0.0 0.0 0.0 0.0
0.0 0.0 0.0

action_model._discrete_distribution.branches.2.weight f4 [15, 128]
00000000: d736 bd3b 87a7 9b3a 0359 1cbc 30a5 8a3a
00000010: b6df 9d39 fac5 cf3b 74de 1d3c 0783 223b
00000020: 241e 13bc 2b60 243b 720a 813c b7fa 363c
00000030: 2860 5abc 6261 19ba 9432 843b d704 a2bb
00000040: eb82 923b 4340 7ebc e99c ae3b 9f34 95bc
00000050: 27e1 53bb 50cd 5e3a dfa2 4a3b bf70 563c
00000060: b382 803b e86c 743b 35b9 6b3b 891b 34bc
00000070: ebda 0ebb 518f 8bbc ab14 883c e0e9 ddbc
00000080: 3202 22bc 08e2 a63c d6cb 86bb 5503 0fbc
00000090: 6027 4b3c 65f2 03bc f921 a33b f925 c03b
000000a0: fb92 d6bc 43e0 7a3c 1f97 1e3c 9dbf 35bc
000000b0: 7915 4b3c aa2c 7bbc 6fd8 7d3c 7a03 9c3c
000000c0: e33d 79bc 540d 163c 9fcb 8cba b841 19bc
000000d0: 5655 bebb 6bbb a2bb a884 91bb da1e 36bb
000000e0: 394f c03b 4b78 50bc db23 12bb d328 04bc
000000f0: d022 0dbc 0b68 573c db32 c63a 1d36 62bc
00000100: af33 813b 0a71 813b efd9 1b3c 83b9 e8bb
00000110: c757 143c 7b92 cd39 1b7a de3b 1b07 38bc
00000120: 0dfa 4abc 1029 6cbc ef1a 05bb 27b2 e239
00000130: 976e 13bb 0f8b 0d3a 8fac ecb9 da64 53bc
00000140: 828c 5b3a 4018 54bc 7833 b43b 8024 5dbb
00000150: 5a77 02bc cd09 5ebb 8bf0 8c3c 4d61 1ebc
00000160: f0e9 ed3b 1551 953b 2732 afba e355 ecbb
00000170: e29d 9cbb 4362 83bb 452e 06bb 88d7 69bb
00000180: aade 1bbb f586 d5bb 8363 fcbb 7c5c 02bb
00000190: c7fc 0dbb afbc 54bc b94e 163c c61f 9dbc
000001a0: c2e4 623b 759a 8d3b 8277 2fbb 72b2 56bc
000001b0: efec 12bc c1ca 223a 7a64 75bc e783 13bb
000001c0: c33c 1cbc 7fe2 9a3c 6b00 40bb 43bd 53bc
000001d0: e05d ccbb 67c3 07bb 3322 8a3b 532b 6cbb
000001e0: a985 a7bb d70a 323b c302 473b 4f16 19bb
000001f0: 700b 1a3c 7e9d a63a da85 a53a 7653 0bbc
00000200: 0f66 a53b 686d 4e3a 01d2 0fbc 0417 8b3b
00000210: c3fb 363b e169 2b3b 2d7c ac3c 72fd b6bb
00000220: 5891 643c c80d bc3b 7ddd 7cbc 42f7 cdbb
00000230: 7b7f 71bc 35d1 30bb 0f15 9bbb 7d4f f339
00000240: ca9f 523b e7ec ad3b 370b 04bb a4ec a0bb
00000250: df08 f1b9 3a1a ecbb 52a0 c33b 8873 653c
00000260: 7b05 263b d487 46bc 87cf e6ba 997d 0f3c
00000270: 127f 113c c37e 4cbc 55cb 96bb f2e4 e5bb
00000280: 87b6 91bb 749d 2b3c cd10 5b3b 86fc 88bc
00000290: 97ba 4bbc 4d96 7cbb d962 48bc 803e 56bc
000002a0: cb1c 813c c7f1 00bc 3303 9b3b 4c53 293c
000002b0: 4f3e 8abc 0096 d23b abb5 8c3b 0de7 5e3a
000002c0: bdb8 05bc a371 30ba 1d6a 98bc 2649 9fbb
000002d0: 0088 5f3c 9ddb 033c 57c7 943b e913 a13b
000002e0: cd07 43bb 35e5 f9bb f730 3a3b 874a 1bbc
000002f0: 10fc fc3b 88d5 68bc d312 793b 7914 0dbc
00000300: b04e f93b e0d3 eabb c247 30ba 4451 1abb
00000310: af07 2a3c c674 ad3a 4ea0 3d3b add5 333c
00000320: 916d 0e3b 75bb d33b 05ba b43b f37b 893c
00000330: fb60 faba b83b b6ba 60eb 333b 3a37 0b3b
00000340: cf13 8eba 4b57 87bb b5d2 ae3a 899d 84bb
00000350: 9113 a8bb d59f 6fbb 119d b0b9 05ce 603a
00000360: 738f 393b f389 45bc c0be 573a c3fc 033c
00000370: 522d 59bb 83bb 82bc e165 26bb 9f73 833c
00000380: c530 bdbc 6fec 04ba 1ffa 453c ea95 f5bb
00000390: 9598 643c b5e0 92bc 5bd1 1f3a cbf6 bd3b
000003a0: 7c97 943b 8bc0 033a b0dc 69bb 5bb8 623c
000003b0: 249c 403c 4efa 813c f8d5 483c bad3 e43b
000003c0: 61e1 42b9 c8e2 ebbb 056e 8e3b c52b 24bb
000003d0: 3578 5bbc ea69 eabb d7c0 c83a 3835 c0bc
000003e0: ad63 5db9 8a61 3f3c 7db7 9b3c fef6 80bc
000003f0: d7ac a8bb efb6 b9ba 27f9 6c3c 2886 bfbb
0.0057743597 0.0011875489 -0.009542706 0.0010577794 0.0003011205 0.0063407393 0.0096355565 0.0024797337
-0.008979354 0.0025081735 0.015752051 0.0111681735 -0.0133285895 -0.0005850998 0.0040343497 -0.0049444246
0.004471173 -0.015518251 0.0053287637 -0.018213568 -0.0032330246 0.0008499222 0.0030919833 0.013088404
0.0039218306 0.0037296358 0.0035968546 -0.010992893 -0.0021797966 -0.017036112 0.016611418 -0.02708906
-0.009888219 0.020371452 -0.0041136546 -0.008728822 0.012399524 -0.008053397 0.004978415 0.0058639017
-0.026193133 0.015312257 0.009679585 -0.011093047 0.012395256 -0.015330473 0.015493496 0.019044627
-0.015212509 0.009158451 -0.0010741836 -0.0093540475 -0.0058085127 -0.0049661896 -0.0044408627 -0.0027789385
0.005868819 -0.012723993 -0.0022299204 -0.008066374 -0.008614257 0.013147364 0.0015121357 -0.013806847
0.0039429287 0.003950243 0.009512409 -0.007102193 0.009054131 0.00039209783 0.0067894584 -0.011232163
-0.012388718 -0.014414087 -0.0020310243 0.00043238813 -0.0022496337 0.00053994445 -0.00045141994 -0.012902463
0.00083751243 -0.012945235 0.0054992996 -0.003374368 -0.007963026 -0.0033880353 0.017204544 -0.009666753
0.0072605535 0.004556785 -0.0013366387 -0.007212387 -0.0047795633 -0.0040095164 -0.0020474356 -0.0035681445
-0.0023783841 -0.0065163323 -0.0077022924 -0.001989155 -0.002166556 -0.012984439 0.009174042 -0.01918019
0.0034621214 0.004321391 -0.0026774113 -0.013104068 -0.008967622 0.0006210022 -0.014977569 -0.002250904
-0.009535971 0.01890683 -0.0029297124 -0.0129235415 -0.0062367767 -0.0020715834 0.0042155026 -0.0036036565
-0.005112369 0.0027167106 0.0030366636 -0.0023359244 0.009402141 0.0012711731 0.0012628392 -0.008503785
0.0050475667 0.0007874579 -0.008778096 0.004244687 0.0027921058 0.0026155638 0.021055305 -0.0055844123
0.013950668 0.0057389475 -0.015433666 -0.006285579 -0.014739866 -0.0026980166 -0.004732735 0.00046407795
0.0032138699 0.005307782 -0.0020148286 -0.0049110223 -0.00045973712 -0.007205275 0.0059700394 0.014004596
0.0025332856 -0.012117345 -0.0017609455 0.008757972 0.008880394 -0.012481394 -0.004601876 -0.007015818
-0.004446808 0.0104745515 0.0033426762 -0.016721975 -0.012434623 -0.0038541735 -0.012230598 -0.013076425
0.0157608 -0.007870144 0.004730606 0.010334801 -0.016875414 0.006426573 0.0042941174 0.0008503057
-0.008161721 -0.00067308004 -0.018605286 -0.004861015 0.013643265 0.008047965 0.0045403647 0.0049157036
-0.0029759288 -0.0076262006 0.0028410533 -0.009478218 0.007720478 -0.014211066 0.0038005605 -0.008610838
0.0076082572 -0.0071663707 -0.000672456 -0.0023546973 0.0103778085 0.0013233654 0.002893466 0.010976237
0.0021732787 0.0064615556 0.0055153393 0.016782736 -0.0019102389 -0.0013903296 0.0027453527 0.0021242634
-0.0010839644 -0.004130279 0.0013337942 -0.0040471 -0.0051292856 -0.0036563773 -0.0003368636 0.0008575621
0.0028314262 -0.012056815 0.0008230023 0.008055869 -0.0033138585 -0.015958553 -0.0025390314 0.016046343
-0.023094544 -0.0005070632 0.012083559 -0.007494678 0.013952394 -0.017929414 0.0006096565 0.0057972423
0.00453466 0.00050259446 -0.0035684519 0.013837899 0.011755977 0.015866425 0.012258045 0.0069832476
-0.00018585242 -0.0071986653 0.0043466114 -0.0025050503 -0.013395359 -0.007153739 0.001531626 -0.023462877
-0.00021113335 0.01168097 0.019008392 -0.015742775 -0.0051475572 -0.0014168898 0.014463699 -0.00584485

action_model._discrete_distribution.branches.2.bias f4 [15]
00000000: 0000 0000 0000 0000 0000 0000 0000 0000
00000010: 0000 0000 0000 0000 0000 0000 0000 0000
00000020: 0000 0000 0000 0000 0000 0000 0000 0000
00000030: 0000 0000 0000 0000 0000 0000
0.0 0.0 0.0 0.0 0.0 0.0 0.0 0.0
0.0 0.0 0.0 0.0 0.0 0.0 0.0

action_model._discrete_distribution.branches.3.weight f4 [9, 128]
00000000: cb00 11bc d0ac 88bb 1cee 453b 9ebb 89bb
00000010: 05ae 153a 951a d33c eb92 1f3c 8c89 bd3a
00000020: 5a51 be39 0658 87bc 28ba 8c3a 03c4 743b
00000030: 5b2c 083c f890 ed39 67a2 203c 5df0 ed3a
00000040: f12c b0bb ca5b b0bb 27f5 103c d832 463c
00000050: 34fa 933a d742 13bc cb60 f43b dba9 f0bb
00000060: 62b5 34bb 93cb 6d3c 97ef 0d3c 8e79 39bc
00000070: c35d 35bb 06c9 04bb ef8f 423c 1f0f 0ebc
00000080: dda0 7b3b 0dff dbba 6f83 ecbb b337 d4bb
00000090: f8e5 0a3c 9fe4 f93b 2854 e53a 079c f9b9
000000a0: 48db b23b ff97 99bb 670e 83ba da18 853a
000000b0: 6220 573b 8a0d ebbb 1ff3 1d3a 5839 d9bb
000000c0: 2cce c93b c796 fb3b 32c6 a8bb ff71 19bc
000000d0: b6c8 8a3c 3dd1 f6bb 5ab9 f03b b025 afbb
000000e0: a776 84bc e89c ccbb 8728 06bc 5097 a5bb
000000f0: 081f fabb ddd1 e93a 4e45 063c 9f85 12bb
00000100: 950d 5d3a 7ad3 5fb8 c56a e73b 0aeb 813a
00000110: 12b9 8fbb 4a59 cd3b 643f 063b 124a b63b
00000120: 891a 2fbc 6849 b13b f0b2 04bb 8506 18bc
00000130: a97f 1ebc 473f 063c 931d 2f3c 004e eb3b
00000140: 8e00 293c 3c7d 1a3b 952e 003b ac78 463c
00000150: 7723 bf38 5aa3 573c 42e4 17ba 3e53 0d3c
00000160: 9d49 a33b 072b b3ba e7e5 273b 6a1f 35bc
00000170: 5f5c 32bc 702c 813b e948 33bb 402e b8bb
00000180: ea83 e9ba 8f67 f63b 9d95 b3bb 2146 c23b
00000190: 6b08 dbbb c073 e5ba 0fc8 8bbc 76ec c2ba
000001a0: 5544 743b 95d1 8f3b 935e 753b cb1e 8e3b
000001b0: 6d18 e33a 88f3 fcbb 1802 603b 4e8c 09bc
000001c0: 3253 5fbc 78ea e03b 8d70 983c 1f9b a13b
000001d0: 1fec e2b9 bb9b e7ba 937c 3ebc 23d2 a5bb
000001e0: 9919 863a 6de4 02bb 7f78 123c 3c46 433b
000001f0: b364 32bc 3884 5abb 49a3 cabb aad5 703c
00000200: 5fd0 e4ba 5de4 9cbb bc23 92ba 2fc5 2fbb
00000210: 5ddd f8ba 7752 503b 2077 edbb 4f9d d0ba
00000220: 5a38 f13b ab66 f33b 9095 c83a df1a 453b
00000230: 3d0c bb3c 7eca 21bc ebe3 07bc 26df 343b
00000240: 1b27 1fb8 0c3b 47bb fcab 0a3c 2d40 d7bb
00000250: 44e0 383a 1770 0bbb bbf5 903c 435a 71bb
00000260: 0c2f 8f3c 2d8d 023c 31da 193c 8c42 9cba
00000270: c8a2 dfba 3f73 26bc 8d41 e03b a57d 4f3c
00000280: b4a2 8cbb 4983 3d3c d2a4 44bc 6c9c 14bc
00000290: 559a c2bb f27a 6f3c 6b57 303b 68bb d83a
000002a0: c026 60bc 5bd1 44bc 9b97 3cbb 8d3a 933b
000002b0: 985d a9bc 1cf8 1d3b 15b5 fb3b efbf 51bb
000002c0: 9850 443a e591 9ab9 fdbe e53c 5ea4 88bb
000002d0: edfc 70bb dbb9 60bb 3d83 59bc 5b75 c1ba
000002e0: f101 9dbb 6b41 2fbc 920b 1f3c cd49 99bc
000002f0: c3d5 72bb db78 e43a ab07 31bc d914 0b3c
00000300: 6def a0bb d04c 4fbc 2f3c 33bc 7bc1 683c
00000310: 729d 6f3c a880 353b 0d54 9f3c 043a 4cbb
00000320: 87fb c23b 4a4f 2a3c 221d f5bb 7d0e dfbb
00000330: 3592 3b3b 43de 2cbc d1ea 8db8 b354 393b
00000340: b036 ddbb 2f2d 25bb 7b2e dcbc 4864 183c
00000350: 33dd 5bb8 48ad e2bb 0501 b7ba 5cbb bb3b
00000360: 41ec 143c af90 083a 4889 243b fef2 983b
00000370: cb32 5fba 8f7e da3a 0da5 0ebc 47a5 c2bb
00000380: d726 70bb f051 a8bc f0c6 473b a75a eebb
00000390: 707b 6837 3023 e13b 2b8f b3bc dc2e ae3b
000003a0: e868 363c 67f1 433c c08a d0ba 22e6 68bc
000003b0: e703 88bb c542 13bb a5d2 76bc ac79 3ebc
000003c0: 8358 343a bafe f8bb 93e4 193c cddf 1f3b
000003d0: f9c7 903b 58fa f93a aa7b e63a ca7d f4ba
000003e0: 3346 c3ba f057 7b3b dc89 a63b fb53 843c
000003f0: d07a e2bb 337d 9bbb dca2 2abc 87ae 66ba
-0.008850287 -0.0041709915 0.0030201739 -0.004203274 0.000570983 0.025769511 0.009739618 0.0014460548
0.00036300236 -0.016521465 0.0010736631 0.0037348277 0.008311356 0.00045312173 0.009804345 0.0018153299
-0.005376451 -0.005382036 0.008847511 0.012097083 0.0011289776 -0.008988104 0.0074578277 -0.007344467
-0.0027573933 0.014513868 0.00866308 -0.011320485 -0.0027674295 -0.002026142 0.011875137 -0.008670597
0.0038395443 -0.0016784385 -0.0072178165 -0.0064763664 0.00847768 0.0076261307 0.0017496394 -0.0004760923
0.0054582693 -0.004687309 -0.0009998799 0.0010154501 0.0032825698 -0.007173245 0.00060253026 -0.0066291504
0.006158611 0.007677886 -0.00515058 -0.009365558 0.01694141 -0.0075322674 0.0073463144 -0.005345069
-0.01616986 -0.0062442906 -0.008188373 -0.0050534382 -0.0076330937 0.0017839033 0.008195234 -0.0022357476
0.0008432505 -5.3364296e-05 0.0070622885 0.0009911966 -0.004386076 0.0062667476 0.002048456 0.005563029
-0.010687479 0.005410362 -0.0020248257 -0.009278898 -0.009673991 0.008193797 0.010688203 0.007180929
0.010315074 0.002357318 0.0019559015 0.012113731 9.1141956e-05 0.013161505 -0.0005794206 0.0086258035
0.0049831406 -0.0013669439 0.002561921 -0.011054853 -0.010886281 0.003942065 -0.002735669 -0.005620748
-0.0017815803 0.0075196694 -0.005480482 0.00592877 -0.006684353 -0.001750581 -0.017063169 -0.0014871496
0.0037272174 0.004388998 0.0037440404 0.004337167 0.0017326005 -0.007719461 0.0034180935 -0.008395268
-0.013630675 0.0068638884 0.018608356 0.004931822 -0.00043282003 -0.0017670313 -0.0116263805 -0.0050604506
0.0010231017 -0.0019972578 0.008939861 0.0029796502 -0.010888266 -0.0033342969 -0.006184016 0.014699379
-0.0017457119 -0.004787965 -0.0011149566 -0.0026820411 -0.001898687 0.0031787434 -0.007246867 -0.0015916022
0.007361454 0.0074280105 0.0015303362 0.003007583 0.022832984 -0.009874938 -0.008294086 0.0027598827
-3.7944974e-05 -0.0030400185 0.008463856 -0.0065689296 0.0007052461 -0.0021276528 0.017695298 -0.0036827482
0.017478488 0.007968229 0.0093904 -0.0011921688 -0.0017062062 -0.010159313 0.0068437518 0.012664233
-0.0042918567 0.011566945 -0.012002187 -0.009070497 -0.005938808 0.014616715 0.0026907574 0.0016535344
-0.013681114 -0.012012805 -0.0028776887 0.004493064 -0.020674512 0.0024104184 0.007681499 -0.003200527
0.0007488816 -0.0002948187 0.028045172 -0.0041699847 -0.003677185 -0.0034290466 -0.013275919 -0.0014759706
-0.004791491 -0.010696749 0.009707348 -0.018711949 -0.0037053681 0.0017431037 -0.010805051 0.008488857
-0.0049113543 -0.012652591 -0.010939642 0.014206286 0.01462494 0.0027695093 0.019449258 -0.003116251
0.0059503946 0.010394881 -0.0074802795 -0.006807147 0.0028621082 -0.010551038 -6.767142e-05 0.0028279244
-0.006750904 -0.0025203933 -0.026877632 0.009301253 -5.2419677e-05 -0.0069176294 -0.0013962096 0.005729122
0.00908953 0.0005209548 0.002510624 0.004667639 -0.00085143436 0.0016669797 -0.008706343 -0.0059401128
-0.0036644244 -0.020546883 0.0030483566 -0.00727399 1.3857018e-05 0.0068706498 -0.021918854 0.0053156447
0.01113341 0.01195941 -0.0015910491 -0.014215024 -0.004150856 -0.0022470218 -0.01506487 -0.0116256885
0.00068796444 -0.007598725 0.009392875 0.002439487 0.00441837 0.0019071801 0.0017584462 -0.0018653211
-0.001489824 0.0038351975 0.005082352 0.016153326 -0.006911613 -0.0047451495 -0.010414805 -0.00087998103

action_model._discrete_distribution.branches.3.bias f4 [9]
00000000: 0000 0000 0000 0000 0000 0000 0000 0000
00000010: 0000 0000 0000 0000 0000 0000 0000 0000
00000020: 0000 0000
0.0 0.0 0.0 0.0 0.0 0.0 0.0 0.0
0.0

network_body._body_endoder.seq_layers.0.weight f4 [128, 78]
00000000: 138c 8cbd 9d39 2ebd c1a8 893d 689c 95bd
00000010: 163a cbbd 1b55 3c3e db6a c2bd 3a96 d4bd
00000020: 948c d53d 12e2 fabd e82c 173d 460c 07be
00000030: 0c06 543a 832d fdbc 31b1 0d3e 9cee 103d
00000040: b600 253e ed48 f03c 5689 96bc c105 30be
00000050: 9c32 663e f76f 10bc c1ca d53c 3683 b7bd
00000060: 84a9 5b3b 6aa9 713e 767a a23e 34a3 40be
00000070: 92f4 c9ba ba1d 573a 5805 8b3d 32db 95bd
00000080: f606 343c 9408 7b3e e6d7 febc f015 fd3c
00000090: c2c6 c83d 8643 cf3d c0ed 88bd 7239 153e
000000a0: fab6 6b3d 75a1 103e 4a8c 10bd 2a40 c83c
000000b0: 9445 c13b e024 b8bc c6a8 96bd e655 32be
000000c0: 0feb 1f3e ee41 a4bd 54a5 443e aeba ebbd
000000d0: 027b 103e 363a 88be ba21 b23d 240c ef3c
000000e0: c490 a5bd d74e 813d 88cc 19bd fcd5 96bd
000000f0: eae8 d5bc 5060 9b3e 94e4 9cbd 0796 3c3e
00000100: f273 92bc de5e 0abd 603a 573d ebd4 a93c
00000110: 800d 1cbd 4a78 c3ba 4d67 00be c61b 363e
00000120: fffd d23d ac8a 8ebd dc88 593d 9689 013d
00000130: 54eb 4dbd c5fe 303d 1533 9abd bac9 bfbd
00000140: 50d1 e6bd cd43 2f3d 33b5 6b3e 850d 173d
00000150: 9c75 2f3d 5f7b 2abc 7fbf d8bc 8040 cb3c
00000160: 93b5 3f3e 4637 1fbc c362 16bd df5a 90bd
00000170: beaf 1bbd 62f6 163e d191 a5bd 2678 cbbd
00000180: 0398 ed3d b3b5 bdbd b773 8a3c b987 f73d
00000190: a064 c53b ff0a 08bd f548 4abc 9b67 493c
000001a0: a95f 5b3e 7786 afbd a223 0dbe 913a f43d
000001b0: 5caa 83bd 9133 b63d 8341 6c3b fa4f 843d
000001c0: 366c 67be a7f7 0dbe 4212 113e 55c7 cd3e
000001d0: c3dd f03c bb10 41bd 2d37 393d 2344 f4bb
000001e0: 7e57 003e 9819 9fbd d6f0 81bd 4953 d33d
000001f0: af17 10bd bd5f d43c da9e 7ebb 030f ffbd
00000200: 9b11 263e 7ebf 85bd 2f6b 7abc 78dc 123e
00000210: ded4 70be ae4c 023d 9c80 233b 2b1b 0abe
00000220: efe5 0ebd 9321 fe3d bad3 d53d 78f8 39bc
00000230: 4626 0dbd 9c00 55bc e7a1 a2bd e62b de3d
00000240: 8802 373e 3e15 5fbe dbec a23d 35a5 dabd
00000250: b8dc b1bd 56dd 183d dca3 f1bc ace8 1e3c
00000260: 9853 25be e7d2 09bd 4ec6 41bd 0412 81bd
00000270: 1929 293c 87bb a13d 8744 07be 2f79 27be
00000280: 76bc 473e 2a2e 88bc 45de 4c3d 5fdd 053e
00000290: d491 19be 8926 b13d 9b6d 0bbe 39fe ab3c
000002a0: e981 3c3d 9715 cf3c 8222 2ebe d53d 02bd
000002b0: e382 e3bc 3052 b2bc fc71 f13d 6fae e53d
000002c0: e975 183e 7ed4 bcbc a574 163c 27d7 353d
000002d0: b54c b83d 4cb2 143e e362 5e3d 0324 60bb
000002e0: 46ec 00bd 0c1c 3f3e 8c5a e23d 5bd2 34be
000002f0: 73fd b63b 864d 1ebe 72c2 933c 07a0 32bd
00000300: 87f7 55bc 0f07 d1bc 7ea8 b93b 54c0 843d
00000310: 5162 20be 9ed5 fabd 9b39 4f3d 123c 203e
00000320: 9608 443e a99d 6fbe 651b 7cbd f285 d1bd
00000330: 37b7 2b3e cc43 de3b 220a d0bc dc09 39be
00000340: 2d0f 153c 8508 ccbc 3e23 d33d a7d1 043e
00000350: 51f4 ccbd df75 edbd 747d 3e3d 4e75 753e
00000360: 9a65 86bd d314 42be cc92 8c3c 5fde 89bc
00000370: d7c4 d5bb d03d 3b3d 952c 4e3e a000 4e3e
00000380: 5d47 19bd 0505 b83d dcbc 9f3d 45e2 9ebc
00000390: 3e3f 633e 26bb 1f3e fe5d 193e 3f0c b8bb
000003a0: 26a7 4f3d 381e f53c 3829 a83d d8c2 c3bd
000003b0: 96cb b3be c0de 643e 9f49 ce3d 3985 1e3e
000003c0: 414f 6cbb 4a48 dc3c 5307 7c3d 53e7 44bd
000003d0: 4c0a bb3d 127d c4bc f134 4f3e 4d6d 19be
000003e0: 2745 863e c71d 90bc da30 a7bd bcf7 873d
000003f0: a7cc 693e dde2 ca3d 0516 9a3d 6722 47bd
-0.068626545 -0.042535413 0.067216404 -0.07305223 -0.099231884 0.1839184 -0.09493037 -0.10380216
0.10427204 -0.12250151 0.03690806 -0.13188276 0.0008088059 -0.03090549 0.13837124 0.035383806
0.16113552 0.029331649 -0.018376034 -0.17189695 0.22480243 -0.008815757 0.026097657 -0.089605734
0.0033517787 0.23599783 0.31734055 -0.18812257 -0.0015407971 0.0008206029 0.067881286 -0.07317199
0.010987988 0.24514991 -0.031108808 0.03089425 0.09803535 0.10120301 -0.06685972 0.14572695
0.057547547 0.14124091 -0.03529004 0.024444658 0.005898187 -0.02247852 -0.0735641 -0.1741558
0.15617011 -0.080203876 0.19203693 -0.11510216 0.14109424 -0.2660691 0.08697839 0.029180594
-0.080842525 0.06313866 -0.03754857 -0.07365033 -0.026112039 0.30346918 -0.07660785 0.18416606
-0.017877553 -0.03378188 0.052545905 0.02073141 -0.038098812 -0.0014913168 -0.12539406 0.17784032
0.10302352 -0.06960043 0.053109035 0.031625353 -0.050273255 0.043211717 -0.075292744 -0.09364648
-0.11270392 0.04278927 0.23018341 0.036878128 0.04283677 -0.0104053905 -0.0264585 0.02481103
0.18721609 -0.009717768 -0.03671528 -0.07048582 -0.038009398 0.14742425 -0.08084453 -0.09935026
0.116012596 -0.09263172 0.01690088 0.12086434 0.0060239583 -0.03321361 -0.012346496 0.012292768
0.2142321 -0.08570569 -0.13783124 0.11925233 -0.06428978 0.08896554 0.003604979 0.06460567
-0.22599873 -0.13864003 0.14167121 0.4019114 0.02940262 -0.047135096 0.045218635 -0.0074544116
0.12533376 -0.077685535 -0.06344764 0.1031862 -0.035178836 0.025924558 -0.0038852007 -0.12454035
0.16217653 -0.06530665 -0.015284344 0.14341915 -0.23518702 0.03181141 0.0024948483 -0.13486926
-0.03488725 0.124087475 0.10440774 -0.0113507435 -0.03446033 -0.013000634 -0.07941037 0.10848217
0.1787206 -0.21785447 0.07955333 -0.10676042 -0.08684677 0.037320457 -0.02949708 0.009699028
-0.1614517 -0.033648398 -0.04730826 -0.06302264 0.01032474 0.07897096 -0.13209735 -0.16354822
0.19505486 -0.016623575 0.05001666 0.13072728 -0.14997035 0.08649928 -0.1361603 0.020995246
0.04602233 0.02527885 -0.17005351 -0.03179725 -0.027772373 -0.021767706 0.11789319 0.11214911
0.14888729 -0.023050543 0.009183084 0.04439464 0.08999006 0.1452114 0.054293524 -0.0034201152
-0.031475328 0.18663043 0.11052427 -0.17658369 0.0055844127 -0.1545926 0.018037055 -0.043609645
-0.013059503 -0.025516061 0.005665838 0.06481996 -0.15662505 -0.122477755 0.050592046 0.15647915
0.191439 -0.23399986 -0.061549563 -0.10230626 0.1676911 0.0067829844 -0.025395457 -0.18070167
0.0090978565 -0.024906406 0.10309456 0.12970601 -0.10007537 -0.11594748 0.04650636 0.2397053
-0.06562348 -0.18953256 0.017159842 -0.016829668 -0.0065237093 0.045713246 0.20134194 0.20117426
-0.037421573 0.089853324 0.07799694 -0.019395003 0.22192094 0.15598735 0.14977261 -0.005616694
0.050696515 0.029921636 0.08210987 -0.09558648 -0.3511626 0.22350597 0.10072636 0.15480508
-0.0036057981 0.026889939 0.061530422 -0.04807217 0.09132823 -0.02398542 0.2023504 -0.14983101
0.26224634 -0.017592324 -0.081636146 0.066390485 0.22831975 0.09906552 0.07523731 -0.048616793
