FYPprototype/results/Test3/AIBalancing/AIBalancing-0.onnx (onnx, 135029 bytes, 13 tensors)

action_model._discrete_distribution.branches.0.bias f4 [2]
000000 00 00 00 00 00 00 00 00
       0.0 0.0

action_model._discrete_distribution.branches.0.weight f4 [2, 128]
000000 ba 89 5a bb f2 09 ce 3a 41 2d 8d 3b 4f 65 f7 bb
       -0.0033346252 0.0015719517 0.004308373 -0.0075499187
000010 83 9d ef b9 d6 69 11 bb b7 12 9b bb dd fe 65 3c
       -0.00045702988 -0.0022188327 -0.0047324556 0.014037815
000020 32 de 1d bb cd af 84 3b 9f 7e a1 bb 8f b1 1c bc
       -0.0024088738 0.0040492774 -0.0049284245 -0.009563818
000030 48 bc 00 bc e0 9a ca bb e4 b9 a4 3a b9 c9 03 3c
       -0.00785739 -0.0061830133 0.0012567607 0.0080437
000040 ba cd e0 bb 55 de 5f 3b ec 6d 13 bc dd 53 f7 3b
       -0.006860462 0.003415962 -0.008998375 0.007547839
000050 d5 8e 19 bc bf 72 79 bb b3 83 ad ba 70 2b 96 ba
       -0.009372433 -0.0038062779 -0.0013238102 -0.0011457037
000060 6b 79 64 3c e5 c7 7e 3c 9b 87 a2 3a e7 07 e8 3b
       0.013944964 0.015550588 0.0012400033 0.00708102
000070 00 90 b6 bb 45 ef 57 bb 9a 00 17 3c e7 93 80 bb
       -0.0055713654 -0.0032949012 0.009216452 -0.0039238813
000080 65 b8 47 bc 47 dd 19 3c 0a 37 ab b9 ed 46 68 bc
       -0.012189959 0.009391136 -0.0003265667 -0.014177066
000090 28 c2 56 bb 36 52 a7 3b b0 f3 bf bb 77 02 89 bb
       -0.0032769535 0.005106236 -0.0058579072 -0.004181202
0000a0 27 a8 17 3c 62 d6 4f 3c ff 75 32 bb f8 9d 9c 3b
       0.009256399 0.01268539 -0.0027230976 0.0047795735
0000b0 17 65 92 ba 4b e3 95 bb c7 68 12 3c 24 b3 15 3c
       -0.0011169043 -0.0045742146 0.008936114 0.009136949
0000c0 5e 33 87 3c 4f e6 a1 bb b1 29 1d 3c e3 41 10 3c
       0.016503986 -0.004940785 0.00959246 0.008804771
0000d0 07 bb 4a bc 7b 61 07 3b fd 3d c5 3a 2a 68 8a 3a
       -0.012373692 0.0020657468 0.0015048381 0.0010559608
0000e0 5b a4 0c bd 67 9c ac bb d1 77 c2 3b 48 0c d7 bb
       -0.03433643 -0.005267668 0.0059346934 -0.0065627433
0000f0 43 9f be 3b ce 19 06 bc b2 ac a4 3b a5 72 52 bc
       0.0058173253 -0.008184863 0.0050254697 -0.012844716
000100 cb 27 63 3b a7 3a b0 3c 37 ef 90 bb b7 f4 61 bb
       0.003466117 0.021512343 -0.004423048 -0.0034478137
000110 66 f9 35 bc 8b c5 fa 3a 5a f6 67 bc 81 72 98 3b
       -0.0111068245 0.0019132359 -0.014157856 0.004652322
000120 cd 1d ff bb 4a 6a 51 bc ca 55 40 3c 10 d0 57 3c
       -0.007785535 -0.012781689 0.011739204 0.013172165
000130 ab df 37 3c 86 67 bf bb 58 b0 03 bc 5b 3e 87 3c
       0.01122276 -0.0058411984 -0.008037649 0.016509226
000140 00 9e 2d bc 53 53 48 bb 4d 4d 99 bb 93 32 b5 39
       -0.010596752 -0.0030567243 -0.0046784044 0.0003456069
000150 e4 b1 23 bc b5 96 00 3c 25 74 94 bb e1 cd b9 ba
       -0.009991143 0.007848431 -0.004530447 -0.0014175737
000160 a7 25 37 bb a8 4c 7f bc 47 e8 1a 3c 80 ca be 3b
       -0.0027946027 -0.015582241 0.009454793 0.0058224797
000170 5d 0b 61 bc 8f e5 81 3b b6 88 2c bc 7f 7f ee 3a
       -0.013735619 0.003964133 -0.010530641 0.0018195956
000180 bd 06 79 ba af bd 93 3c 8c 20 2c ba 82 84 06 3c
       -0.00094996 0.018034784 -0.0006566129 0.008210303
000190 25 34 fe ba c6 3e bf 3b b3 1e 28 bc 1a ee 64 bb
       -0.0019394202 0.0058363406 -0.0102612255 -0.0034931959
0001a0 15 56 6c bb bf c3 32 3c 77 11 06 3b 73 c5 2c 3c
       -0.003606205 0.010910927 0.0020457187 0.010545122
0001b0 25 75 e8 3b ad dd 92 bc 2d 63 bc 3b c2 b8 a2 ba
       0.007094043 -0.017927969 0.0057491274 -0.0012414681
0001c0 62 80 cc 3b e7 ba 37 3b a4 4e 37 3c 6a 23 d7 3b
       0.0062408904 0.0028034986 0.011188183 0.006565501
0001d0 93 a7 8d 3b 54 49 00 3c 9d e4 3a bc ac 7a 0b bc
       0.004322955 0.007829983 -0.011407045 -0.008513134
0001e0 2a 49 dc ba 77 5d f7 3b 87 db 33 bb 1a 36 3c 3b
       -0.0016806473 0.0075489837 -0.002744408 0.002871877
0001f0 4f c6 38 3c 7d 15 d6 bb ac f0 a1 3c 3f eb 6d 3a
       0.011277749 -0.0065333233 0.019768082 0.0009075887
000200 1f cb 0d 3b 6d 4b 12 bb 8a 61 b2 bb 21 ab b6 39
       0.0021635962 -0.002232279 -0.0054437565 0.00034841246
000210 fa 63 97 bc 7d e6 a2 bc 12 1b 91 b9 6f e1 43 bb
       -0.01848029 -0.019885296 -0.00027676724 -0.0029889008
000220 c8 b3 bb 3b 5c 5d 1b bc f5 19 51 ba ae 69 b9 bb
       0.0057282187 -0.009482708 -0.0007976585 -0.00565835
000230 34 17 ac bb 7d eb de ba 4a ce d9 bb c1 fd 0c bc
       -0.0052517895 -0.0017007437 -0.006646906 -0.0086054215
000240 10 6e fa ba 76 b1 41 3b 39 bb 3b bc 72 1a 16 bc
       -0.0019106288 0.0029555238 -0.011458212 -0.0091615785
000250 fc 68 24 3c c2 0d cd b9 b8 53 44 bc 2c b1 86 3c
       0.010034796 -0.00039110897 -0.011982851 0.016441904
000260 5d 9c 49 39 12 fe 23 bc a3 2f da 3b a3 09 d9 ba
       0.00019227104 -0.010009306 0.006658511 -0.0016558658
000270 ca 0c eb 3b 1b d0 a2 3b 1d 6b 95 bb e9 66 2a bc
       0.0071731554 0.0049686558 -0.004559888 -0.010400512
000280 28 8b 90 3b 0b e5 c2 ba 15 c6 73 bc 59 69 2a 3c
       0.00441112 -0.0014869286 -0.014878769 0.010401093
000290 67 45 50 bc 57 59 28 3c 8b 5b be 3b b4 1e 44 bb
       -0.012711859 0.0102752065 0.0058092526 -0.0029925527
0002a0 5b 58 ee bb f1 1d a1 bc 9f eb 8a bb a1 05 92 3b
       -0.0072737164 -0.019667597 -0.004239514 0.0044562374
0002b0 43 eb 3a bb b3 7f 31 3b 8b b7 5c bc bb 3f 9c bb
       -0.0028521575 0.0027084171 -0.013471494 -0.0047683395
0002c0 a7 9b 10 3c cd 30 94 bb 23 46 46 3c 70 86 b5 ba
       0.008826173 -0.004522419 0.012101683 -0.001384927
0002d0 27 f2 1a 3b ff 16 07 bc bf 4a 8e bb 90 04 fd 3b
       0.002364287 -0.008245229 -0.0043424065 0.007721491
0002e0 fa 04 79 39 55 a4 6a 3c 65 36 d6 3b 2d fc 6f 3c
       0.00023748344 0.014321406 0.006537246 0.014647526
0002f0 83 37 2e 3c 61 f8 31 3b 73 91 05 bc 67 db 12 bc
       0.010633352 0.0027156102 -0.008152354 -0.008963442
000300 ea 55 8c 3c 37 f3 9c 3b 15 ea e4 b9 4b f4 56 bb
       0.01713081 0.0047897357 -0.00043661954 -0.0032799419
000310 00 56 5d 3b b5 43 51 bb 23 43 c7 bb 9d 25 e2 ba
       0.0033773184 -0.0031931226 -0.0060810014 -0.0017253641
000320 d7 74 e0 bb 72 92 7f ba e7 bd a7 3b f3 70 15 3c
       -0.006849866 -0.00097493 0.0051190737 0.0091211675
000330 aa bd f9 bb 6d 49 eb 3b b7 b0 5d 3c 6a f0 08 3c
       -0.0076214867 0.007180384 0.013530902 0.0083581
000340 32 e2 34 3c f3 09 fe bb 87 76 0c bd 2b 93 20 3c
       0.011040257 -0.007752651 -0.034292724 0.009800713
000350 77 37 8f 3c 2f 40 0a bc aa cf 62 bc 25 cf cf bb
       0.017482502 -0.008438154 -0.013843456 -0.006341832
000360 b7 67 6b 3b 43 d0 31 bb f7 fe 68 3c b8 51 3f bc
       0.0035919973 -0.002713219 0.014220945 -0.011677198
000370 23 69 29 3b 8b db 42 3c f2 3a fe b9 00 5c d0 3a
       0.002585002 0.011893163 -0.00048490573 0.0015896559
000380 51 10 0d b9 7c 52 ae 39 07 fb 3d bb 2c dc 39 3b
       -0.00013452886 0.00033249322 -0.0028988735 0.0028359992
000390 23 78 c4 39 e6 79 32 bb 1e 79 2e bc 93 80 46 bc
       0.00037473542 -0.0027233302 -0.010648994 -0.012115615
0003a0 bf a4 06 3c 5f ee dd 39 69 8a bb bb 49 fc 14 3c
       0.0082179895 0.00042330005 -0.005723287 0.009093353
0003b0 e7 c9 cb 38 7a 25 9d 3b c0 73 66 bc 8f c1 72 bb
       9.7174016e-05 0.0047957273 -0.014065683 -0.003704164
0003c0 0a 6f 61 bc cf 88 3b 3a 5b ca d1 bb 81 b5 92 3c
       -0.013759384 0.000715387 -0.0064022965 0.017908813
0003d0 f5 9c 74 bc c8 25 ba 3b c1 13 83 3b 82 b4 3e 3c
       -0.01493 0.0056807734 0.0040001576 0.011639716
0003e0 ff a7 bb 3b 5f c3 f6 ba 3f 8b e6 3a 92 11 b3 3a
       0.005726814 -0.0018826536 0.0017589106 0.0013661853
0003f0 89 c0 b5 bb 2f a8 84 ba 0f 92 5c bc 14 2f 4b 3b
       -0.0055466336 -0.0010120923 -0.013462557 0.0031003403

action_model._discrete_distribution.branches.1.bias f4 [19]
000000 00 00 00 00 00 00 00 00 00 00 00 00 00 00 00 00
       0.0 0.0 0.0 0.0
000010 00 00 00 00 00 00 00 00 00 00 00 00 00 00 00 00
       0.0 0.0 0.0 0.0
000020 00 00 00 00 00 00 00 00 00 00 00 00 00 00 00 00
       0.0 0.0 0.0 0.0
000030 00 00 00 00 00 00 00 00 00 00 00 00 00 00 00 00
       0.0 0.0 0.0 0.0
000040 00 00 00 00 00 00 00 00 00 00 00 00
       0.0 0.0 0.0

action_model._discrete_distribution.branches.1.weight f4 [19, 128]
000000 26 53 3b bb 47 36 56 bc 70 10 7e 3c b8 08 d1 3c
       -0.0028583496 -0.013074464 0.015506849 0.025516853
000010 d6 39 2b 3c 93 fc bf ba 51 ac 25 bc 65 d5 07 bb
       0.010450801 -0.0014647417 -0.010111884 -0.0020726558
000020 c0 49 a2 3b b6 2e b2 bc 75 90 3b bc b3 8a 82 3a
       0.0049526393 -0.02175079 -0.011448015 0.0009959548
000030 1d 19 d0 ba 14 f0 96 bb c4 d7 80 ba fb 9d 98 3b
       -0.0015876625 -0.0046062563 -0.0009829928 0.0046575046
000040 73 e8 bb 3a 02 d9 45 3c 43 65 06 bc 51 96 10 bc
       0.0014336243 0.0120756645 -0.008202854 -0.008824901
000050 ce 65 24 3c 35 84 26 bc d5 d7 d1 bb 88 c1 e7 bb
       0.010034038 -0.010163357 -0.006403903 -0.0070726313
000060 36 7e 0c bb b3 00 11 3d 41 15 8d bc 44 bb cc bb
       -0.0021437532 0.035401057 -0.017222049 -0.0062479097
000070 4a b6 61 3b 8a 47 ee bb 7d f6 01 38 af e7 c7 b9
       0.0034440928 -0.0072717117 3.0985557e-05 -0.00038128856
000080 72 7a 6c 3c 57 90 3b bc 60 1c c2 bb 32 80 1c ba
       0.01443349 -0.0114479875 -0.0059237927 -0.00059700303
000090 b9 e9 47 3c fd af 5b 3c fd 27 ff bb 8a 9c 29 3c
       0.01220172 0.013408658 -0.0077867494 0.010352263
0000a0 ee cd 88 bc 58 ed 66 bc 34 52 b3 bc 13 dd 01 bb
       -0.016699757 -0.014094673 -0.021889783 -0.0019815608
0000b0 50 f4 45 bb 7b 40 8e 3a 2b b3 ed 3b e3 bc f8 3a
       -0.0030205436 0.0010852957 0.0072540245 0.0018977191
0000c0 53 d7 d6 3a fa 71 ca bb 51 be c1 3a 0c 6f 16 3b
       0.0016391076 -0.006178138 0.001478145 0.0022954373
0000d0 39 9a 42 bc d1 ce 8f 38 e1 93 13 bc 35 2f 33 bb
       -0.01187759 6.857294e-05 -0.009007425 -0.002734137
0000e0 4e 39 3c 3a d7 dc 31 3b 43 6f cd bb 72 91 5c 3b
       0.000718017 0.0027139687 -0.006269367 0.0033656028
0000f0 eb 5f 0a bc cb 72 c3 3a e0 53 05 bc 70 63 e1 3b
       -0.00844572 0.001491153 -0.008137673 0.006878309
000100 ac b0 00 3c e7 1a 52 bc f5 af 08 bc 9d 0f ab bc
       0.007854622 -0.012823797 -0.008342733 -0.020881468
000110 89 90 b1 bb 9d 35 13 ba cf 5a e6 3b 82 2c 08 bc
       -0.0054188413 -0.0005615594 0.007029868 -0.008311393
000120 10 57 e0 bb ed c3 62 bb d0 b4 af 3b fd 80 ea 3c
       -0.006846316 -0.0034601644 0.0053621307 0.02862596
000130 78 4e 0c bc 44 1f 47 39 5a 40 06 3a 14 e2 85 3c
       -0.00856363 0.00018989766 0.00051212835 0.016343154
000140 10 9d 20 bc 05 64 15 bc 28 fa e9 bb d5 66 76 3b
       -0.009803072 -0.009118085 -0.0071404167 0.0037597914
000150 7f b7 5c bc 2d b0 c5 3b c0 d1 74 b9 39 50 15 bc
       -0.013471483 0.0060329647 -0.00023347791 -0.009113365
000160 24 dc 34 3c b6 1a 30 3b d2 67 54 3c 48 83 50 3c
       0.011038814 0.002687139 0.012964206 0.012726612
000170 df 39 07 3c 3b 34 45 3c f7 8b 8d ba f8 ec 67 bc
       0.008253544 0.0120363785 -0.0010799159 -0.014155619
000180 bb 11 57 bb 58 92 02 3b 32 2a f8 3a 73 56 c1 3b
       -0.0032816965 0.0019923653 0.0018933474 0.005900198
000190 af 1f 02 3c cb d8 d0 b9 aa 6a 81 3b ad da 72 bb
       0.007942124 -0.00039834375 0.003949483 -0.003705661
0001a0 63 9e cd 3b b3 b5 9c ba 75 1f 83 bb 55 9c d4 3b
       0.0062749847 -0.0011956006 -0.0040015527 0.006488363
0001b0 fc 4d 14 3c cb 8e 40 bc eb 11 ea bb 15 98 71 3c
       0.009051796 -0.0117527945 -0.0071432493 0.014745732
0001c0 57 0d 47 bb df f7 e7 3b bd 66 4a b9 57 dd aa 3b
       -0.0030372941 0.007079109 -0.00019302494 0.005214374
0001d0 32 45 8f 3b 63 d4 36 bb 0a 3a dc 3b 7b 86 09 3c
       0.0043722624 -0.0027897588 0.006720786 0.008393879
0001e0 93 46 0b bc 26 e8 02 bc 6b 2a 9b ba 28 4f 53 bc
       -0.008500713 -0.007989919 -0.0011838203 -0.01289729
0001f0 7b c6 bc 3b e0 80 b8 bb 97 f2 a7 bb 7d ce 4b 3b
       0.0057609654 -0.0056305975 -0.0051253545 0.0031098418
000200 a0 9a 31 bc 0c 16 46 3c 3e fa 2a 3c eb 30 98 bb
       -0.010840088 0.012090217 0.010435639 -0.0046445034
000210 4f 2b ab bc bf 96 99 bb 7d 9f 6e 3b 1a 82 93 3c
       -0.020894675 -0.00468716 0.003641098 0.018006373
000220 2d 9e 49 bc 4c 6a 90 3b 71 a9 a0 bc 13 50 a0 3c
       -0.012305778 0.004407203 -0.019612046 0.019569432
000230 f7 d8 51 3c 0b 58 01 ba b3 79 b1 3b 6e 7e 84 3b
       0.012808076 -0.0004934079 0.005416119 0.004043392
000240 d7 d0 6e 3a 72 b6 c2 3b 91 02 08 bc eb 7f 2b bc
       0.0009110099 0.0059421593 -0.008301393 -0.01046751
000250 68 01 cc 3b d8 04 ce ba b5 49 95 3b 95 be 96 bb
       0.0062257536 -0.0015717996 0.0045559057 -0.004600356
000260 d3 d7 70 3a b3 06 83 bc 37 fb c0 39 eb 5f 2d bc
       0.0009187434 -0.015994405 0.00036808263 -0.010581951
000270 d0 91 bc bb 1c b4 a3 3b b1 d4 0c 3c 61 46 22 bc
       -0.005754687 0.004995836 0.008595631 -0.009904475
000280 b6 60 bb ba 85 e9 f2 3b 52 ef db bb 57 2c 54 3c
       -0.001429579 0.0074130916 -0.006711879 0.012950025
000290 03 13 17 3b 4f 9b ab bc 22 13 fc 3a 73 d7 63 bb
       0.0023052103 -0.02094808 0.0019231776 -0.003476587
0002a0 bb ae 42 bc a5 03 89 bb 1b d9 d2 bb 80 3e ec 3b
       -0.011882479 -0.0041813427 -0.0064345724 0.007209599
0002b0 e2 c8 eb bb cd cc 25 bc 75 42 ad ba 3d 3d 99 bc
       -0.007195578 -0.010119629 -0.0013218658 -0.018705959
0002c0 90 75 37 3b 4f 0b 30 bc 7e 28 08 3b c4 b2 33 bc
       0.0027993657 -0.010744884 0.0020776088 -0.010967914
0002d0 54 86 0c 3b ba 61 5f bc 07 0b 8c bb ed 8a 70 3c
       0.002144237 -0.01363414 -0.0042737755 0.01468156
0002e0 d5 c6 4f bc f0 0b 08 3b 32 cd 7b bb 07 b3 e1 bb
       -0.012681683 0.0020759068 -0.0038421866 -0.006887797
0002f0 0d da ec ba 5f 07 31 bb 97 c2 39 bb 2e 12 1d 3c
       -0.0018070355 -0.002701245 -0.0028344744 0.009586854
000300 0a fc 47 3c e8 c9 43 bc c2 5c 9c 3b ca 1b 20 3c
       0.012206087 -0.011949994 0.0047718 0.00977225
000310 c5 1f 4d 3c 09 be a4 bb 28 30 00 3c 1b d8 3c 3b
       0.0125197815 -0.005027537 0.007823981 0.0028815332
000320 e0 fa 01 bb 2d c6 4e 3b 38 3c 31 3a c7 ac be 3c
       -0.001983337 0.0031551227 0.00067609875 0.023275746
000330 59 96 ad bb 0d 25 e5 bb 46 6c 44 bc 16 94 90 bb
       -0.005297464 -0.006992942 -0.011988705 -0.0044121845
000340 2d 17 03 bc e9 75 0b bc 0f 7a 88 ba a8 f4 5b bc
       -0.008001131 -0.008511999 -0.0010412353 -0.01342503
000350 61 58 01 bc 45 63 8d bb 4f cd 5a 3c e5 7f 10 3c
       -0.007894606 -0.0043148124 0.013354613 0.008819555
000360 f3 97 91 bc e3 bf 63 3c 15 c2 c2 bb 54 68 8c 3c
       -0.01777265 0.01390073 -0.0059435465 0.017139591
000370 34 54 a6 bc 9f 02 ac bb 84 33 1b bc 51 a4 48 bc
       -0.020303823 -0.005249336 -0.0094727315 -0.012246207
000380 72 b0 37 bb 43 02 44 3b 49 b5 1b b9 6e 29 a2 bb
       -0.0028028754 0.0029908575 -0.00014849486 -0.0049487865
000390 3a a5 56 3c 47 d3 02 3c 6a 74 d7 3b e2 25 3b 3c
       0.0131009165 0.007984943 0.006575157 0.011422606
0003a0 1f ce 6b b8 a9 90 41 3c e9 d7 26 3a 27 3d 4b 3c
       -5.622033e-05 0.011814275 0.00063645706 0.012404717
0003b0 6b 0e 1c bc b7 b5 3b bc a2 cd a0 3a 2b 4b 18 3c
       -0.009524922 -0.011456898 0.0012268315 0.009295265
0003c0 38 80 e4 3b 0b 63 84 3a 9c 36 32 bc 9a 1b 89 bb
       0.0069732927 0.0010100318 -0.010877278 -0.0041841986
0003d0 3a 31 5b bc 86 3d 11 3c df b1 2e 3a 66 52 86 bb
       -0.013378436 0.008864766 0.0006664078 -0.004099178
0003e0 9a d9 d6 bc ee eb 00 bc cc 96 11 3c b8 07 ff ba
       -0.026226807 -0.00786875 0.00888605 -0.0019457256
0003f0 57 36 fa bb 50 2c bc 3b e3 3d 41 bb 3a cf 7b 3c
       -0.0076358723 0.005742587 -0.002948635 0.015369231

action_model._discrete_distribution.branches.2.bias f4 [15]
000000 00 00 00 00 00 00 00 00 00 00 00 00 00 00 00 00
       0.0 0.0 0.0 0.0
000010 00 00 00 00 00 00 00 00 00 00 00 00 00 00 00 00
       0.0 0.0 0.0 0.0
000020 00 00 00 00 00 00 00 00 00 00 00 00 00 00 00 00
       0.0 0.0 0.0 0.0
000030 00 00 00 00 00 00 00 00 00 00 00 00
       0.0 0.0 0.0

action_model._discrete_distribution.branches.2.weight f4 [15, 128]
000000 aa 37 03 3b 63 28 be ba 37 07 b5 3b a5 84 c9 3b
       0.0020022192 -0.0014507886 0.0055245417 0.0061498457
000010 7f 84 80 bc 30 64 2a 3c db b2 d4 3b 0c 87 41 3b
       -0.015688179 0.010399863 0.006491048 0.0029529957
000020 51 23 09 3c 2d 02 75 3c 6f 14 3b bb ba 82 80 3b
       0.0083702365 0.014954132 -0.0028546115 0.003921834
000030 9a d8 7e bc 73 d4 8a bb ba 20 52 3b 4d cc 37 ba
       -0.0155545715 -0.0042367517 0.0032062964 -0.0007011339
000040 20 e8 fe ba 2b 85 4a bc dc 95 88 3b 83 6f 86 3c
       -0.0019447841 -0.012360851 0.0041682553 0.016410595
000050 1d 49 59 b9 d5 bb b3 bb fc 49 22 bc fd 79 78 3c
       -0.0002072197 -0.005485038 -0.009905335 0.015165803
000060 37 28 46 3c 0f b4 06 3c bb 0b 86 3c c9 e1 a4 3b
       0.012094549 0.00822164 0.016363015 0.0050317985
000070 e8 e9 93 b9 fb 67 5c 3c 6c 14 95 bb dc 7e 99 3b
       -0.000282123 0.013452525 -0.0045495536 0.0046843123
000080 88 f1 7a bc 80 5a aa bb a7 8d 07 bc 2d 7a 1a 3b
       -0.015316375 -0.0051987767 -0.008273519 0.0023571358
000090 a2 16 68 38 d8 f3 55 bb ce dc 34 3b b3 22 36 3c
       5.533419e-05 -0.0032646563 0.002759743 0.011116671
0000a0 45 ed 8c ba aa 5d ff 3b 79 0d 1c 3b 0d 55 67 3c
       -0.0010751864 0.007793148 0.0023811741 0.014119399
0000b0 2f e8 09 3c ef 27 6a bb 45 2f 7d ba 67 b2 e0 3a
       0.008417173 -0.0035729369 -0.0009658228 0.0017143012
0000c0 97 32 aa 3b dd 61 30 bc 70 c6 55 bc 6d 1b 6e 3c
       0.005194019 -0.01076552 -0.0130477995 0.014532906
0000d0 2c ef 37 bc 7a 5b 39 3b b7 bf 62 3b 7e 30 a2 3b
       -0.011226457 0.0028283284 0.0034599134 0.0049496284
0000e0 b7 21 a8 bb 1a 1d a5 bb a7 c9 42 bb af 74 b6 3a
       -0.0051309722 -0.0050388696 -0.0029722245 0.0013920272
0000f0 db 43 02 3b 80 e5 45 3c 80 06 f6 3a 0b a1 22 3c
       0.001987687 0.012078643 0.0018770248 0.009926091
000100 cf 7a 59 bc 4d bf 7f 3b ea a1 81 3b 75 f8 03 bb
       -0.013273909 0.0039023936 0.0039560692 -0.0020137106
000110 63 b6 81 3b c0 be b9 39 83 89 0c bc ad df c4 bb
       0.00395851 0.0003542807 -0.008577707 -0.0060081095
000120 db 72 6f bc d5 57 7f bb a1 51 af 3b 87 f4 15 bc
       -0.014614786 -0.0038962264 0.005350307 -0.009152538
000130 c2 cf 2c bb ef 81 b6 3c 8c 5d 25 b9 f2 ec 4d bb
       -0.002636895 0.022278754 -0.00015770475 -0.0031421748
000140 0f 28 d4 3b dd 98 e4 38 d3 06 27 3c 47 3d 21 3b
       0.006474502 0.0001090036 0.010194498 0.0024603175
000150 7d 4b 1a bb 00 df 56 3c 5f 96 9a 3b 8a 23 ec ba
       -0.002354353 0.013114691 0.0047176327 -0.0018015963
000160 a9 0b 85 3b f2 0c b7 3b 0f 00 b6 3b d7 6d c0 3b
       0.004060228 0.00558626 0.005554206 0.005872469
000170 57 ad 11 bc cd 3c 7d bb f7 f5 20 bc 06 87 a9 38
       -0.008891425 -0.0038640976 -0.009824268 8.083698e-05
000180 a3 73 bf 3b 9b 7a 21 3a 64 72 b6 bc 5f ff de 3a
       0.0058426424 0.0006159932 -0.022271343 0.0017013362
000190 5f 5b 48 3c 83 b6 0a 3c f7 87 f9 39 f5 bb 45 bb
       0.012228816 0.008466366 0.00047594283 -0.0030171846
0001a0 25 45 0f 3b 12 31 6f bc a3 32 d9 ba 8c 8e b0 38
       0.0021861282 -0.014599102 -0.0016570877 8.4188854e-05
0001b0 b7 c1 9e ba b9 c1 39 b9 0e 44 97 b9 b5 0e ab bb
       -0.0012112175 -0.00017715142 -0.0002885167 -0.005220259
0001c0 aa dc 44 3b f4 95 b2 3a fb b9 33 bb bd 97 89 3c
       0.0030038753 0.0013625012 -0.0027424085 0.016795987
0001d0 86 f6 13 bc b5 7c 3c 3c 87 cd e6 bb ea 58 91 3b
       -0.009030944 0.011504342 -0.0070435437 0.004435648
0001e0 fb 5d bc 3b 56 98 c3 3b a5 7b f4 ba bb 7f 35 bc
       0.005748508 0.0059690876 -0.0018652572 -0.011077817
0001f0 e6 fd 34 3c 55 af 52 bc 1f d8 ae 3b 6f 74 a4 bb
       0.011046862 -0.012859185 0.0053358222 -0.005018763
000200 97 07 e8 3b 3b 28 09 bb 45 85 2c 3b 23 d6 1d bc
       0.007080983 -0.002092852 0.0026324552 -0.009633574
000210 9b 41 06 3c 47 a1 82 3b b2 a1 2d 3c cf 03 a9 3b
       0.0081943525 0.003986511 0.010597633 0.0051579247
000220 38 0f 32 3c 0a 96 f8 3b 4a ab d8 3b 68 f1 80 3c
       0.010867886 0.0075862454 0.006612216 0.015740111
000230 2f 7b da 3b 0b 69 1a 3c 82 fb 74 bb 07 3d 13 3b
       0.0066675167 0.009424458 -0.0037381356 0.0022466795
000240 d2 02 c5 bb f4 3b 9a 3c b0 d3 6f bb c8 7c a0 3c
       -0.006012299 0.018827416 -0.0036594681 0.01959075
000250 ef d9 7d 3b 4b 17 02 bc e6 96 0a 3c 74 15 2e bb
       0.0038734635 -0.007940124 0.008458829 -0.002656308
000260 70 b4 11 3b 2f 45 91 bb 2b 57 cd 3b 7b 36 05 3c
       0.0022232793 -0.004433296 0.0062664947 0.008130665
000270 3b 47 bb 3b 97 39 aa b8 0e 94 4b 3c ac c5 c9 3b
       0.0057152784 -8.1169586e-05 0.012425436 0.0061575975
000280 10 b5 d6 bb 4f 4c c9 3b cb 94 20 bb a0 86 14 bc
       -0.006552346 0.00614313 -0.002450275 -0.0090653
000290 43 85 85 3b 40 88 7f ba b7 c6 1e bc 1d 7b 22 bc
       0.004074724 -0.0009747781 -0.009690932 -0.009917048
0002a0 6d 88 98 3a f5 75 3d bc 2d 7e dc 3b 0d c6 ea bc
       0.0011637338 -0.011563768 0.0067289085 -0.028658891
0002b0 65 b8 42 3c da ef 24 3c ff a8 86 bc d5 26 52 3c
       0.011884783 0.010066951 -0.016438005 0.012826641
0002c0 4d 9a c8 3a e7 31 c6 bb 70 91 94 bc 88 ed c2 bb
       0.0015304774 -0.0060484293 -0.018135756 -0.005948726
0002d0 a3 41 98 bc 52 4b c1 bb 9b 40 8c 3b 8b a5 32 3c
       -0.018585986 -0.0058988715 0.0042801625 0.010903726
0002e0 4d 3a 09 ba 56 f1 11 3c a0 24 97 bb 1a 5d 3a bc
       -0.0005234823 0.008907637 -0.0046125203 -0.011374736
0002f0 fb b6 f8 3b e0 ee a2 3a eb 13 19 bb 3a 2d 18 bb
       0.0075901723 0.001243081 -0.002335782 -0.0023220317
000300 f6 77 8c bb 6c 53 0b bc 0d 7c da 39 1b 66 84 bb
       -0.0042867614 -0.008503776 0.00041672625 -0.0040404922
000310 6b 09 f6 bb 83 e0 10 3b 88 d1 9e 37 51 25 b7 3a
       -0.007508447 0.0022106476 1.8932638e-05 0.0013972913
000320 7b 94 d9 3b b2 f7 1b 3c 77 8b 84 3c 55 3d 10 bc
       0.0066400147 0.009519504 0.016179783 -0.008803685
000330 99 7e 08 3c ed 0b d4 3a ff 25 9b 3c 93 65 5f 3b
       0.0083309645 0.001617787 0.018939016 0.0034087643
000340 47 48 25 3c ba 01 70 3b d9 3d c8 bb 08 1b 5d 3a
       0.010088033 0.0036622123 -0.0061108884 0.0008434509
000350 bd 3e 39 bb 2d 99 86 bb 15 92 17 bc 6f de 14 3c
       -0.0028266155 -0.0041076154 -0.009251137 0.009086235
000360 e4 ab 01 bb ad 91 90 bb 0f df 5a 3c 7b a4 77 3c
       -0.0019786293 -0.004411897 0.013358845 0.015114899
000370 a5 7d 0c 3a 39 e9 b9 bb c8 c6 80 ba 08 d0 9e bb
       0.00053592987 -0.0056735543 -0.0009824866 -0.0048465766
000380 58 b4 69 3c f7 b5 c9 3a c7 c6 73 3b 4a b7 6a bc
       0.014264189 0.0015389313 0.0037197338 -0.014325926
000390 1b e4 bf 3b 04 57 26 3b 35 f4 17 3b 02 33 5d ba
       0.0058560497 0.0025381455 0.002318633 -0.0008438082
0003a0 01 4f 2e bc 50 fe 7c bb 2f d5 59 bc 72 06 b8 3b
       -0.010638953 -0.003860373 -0.013295456 0.0056160027
0003b0 cf d8 33 ba 1f 9a a8 3c 66 d6 83 3c 43 42 52 3c
       -0.0006860615 0.020581303 0.016093444 0.012833181
0003c0 d8 f8 45 bc ab 6c 3e b9 cf e0 cf 3b db 84 b4 bb
       -0.012083255 -0.00018160294 0.006343938 -0.0055090017
0003d0 e3 a9 55 bc 88 df 50 3c 78 d2 66 3b 80 2d 0d 3c
       -0.013040992 0.0127486065 0.0035220664 0.008616805
0003e0 ff 5d c4 3b eb f1 d2 ba de 52 0f 3c e3 4a 5b 3c
       0.0059926505 -0.0016093826 0.008747784 0.013384554
0003f0 0c 8a 9e bb 98 dd 5c bb da 83 55 ba dd 9a b6 3b
       -0.004838234 -0.0033701416 -0.00081449526 0.0055726604

action_model._discrete_distribution.branches.3.bias f4 [10]
000000 00 00 00 00 00 00 00 00 00 00 00 00 00 00 00 00
       0.0 0.0 0.0 0.0
000010 00 00 00 00 00 00 00 00 00 00 00 00 00 00 00 00
       0.0 0.0 0.0 0.0
000020 00 00 00 00 00 00 00 00
       0.0 0.0

action_model._discrete_distribution.branches.3.weight f4 [10, 128]
000000 c9 d0 98 b7 8a d8 e6 bc c7 af c6 3b 09 1d 96 ba
       -1.8217035e-05 -0.028179426 0.0060634348 -0.0011452745
000010 14 8d b4 ba c3 2c e9 3a 50 c3 af bb a9 1a 49 3b
       -0.0013774955 0.0017789829 -0.0053638592 0.0030686057
000020 8f 05 98 bb 02 70 88 3b af 0e 91 bb d2 4e de 3b
       -0.0046393345 0.004163743 -0.0044267992 0.0067842985
000030 28 c3 e6 ba 10 cc 15 bc 9f d9 b1 3b aa 1c 01 bc
       -0.0017605769 -0.009142891 0.005427554 -0.007880369
000040 b8 6f 6d ba 45 2b 84 3c d2 bc 97 3c 4e 1e ab 3b
       -0.000905748 0.016133914 0.018522654 0.0052221185
000050 1d 20 7b 39 82 9f 6a 3b b7 1a c1 3b ca 4c f2 3a
       0.00023949188 0.003580064 0.0058930772 0.001848602
000060 c6 b9 a6 3a 97 38 5c bc f3 d0 e9 bb e2 a7 9d 3b
       0.001272016 -0.013441226 -0.0071355044 0.004811273
000070 d6 5b c1 3b 2f f8 ab ba a7 cb ed 3b fb 65 b7 3b
       0.0059008403 -0.0013120229 0.0072569433 0.005596874
000080 f7 99 d4 bb e9 97 08 3b 3c 3e 33 bb b8 a9 5a 3b
       -0.0064880806 0.0020842499 -0.0027350327 0.003336532
000090 03 d5 21 bc cd 77 a1 bc 07 a7 15 bb df 6e 23 bc
       -0.009877446 -0.019710446 -0.0022835152 -0.009975164
0000a0 53 ae 9d ba df d7 82 3c df 38 b4 3b d7 da 8b bc
       -0.0012030102 0.015972076 0.0054999436 -0.017072124
0000b0 8f f5 aa 39 f5 12 de bb 36 3b 00 bc 50 21 7d bb
       0.00032607882 -0.006777162 -0.007826617 -0.0038624592
0000c0 4a 3d e5 bb 6f 04 72 3b 38 18 74 3c 1b e8 1c bc
       -0.0069958316 0.0036928912 0.014898352 -0.009576823
0000d0 3c a0 20 ba d7 41 9c bb b5 97 c8 ba 82 19 7a 3b
       -0.00061273924 -0.004768591 -0.0015304001 0.0038162176
0000e0 f5 35 0a 3c 5a 35 67 3c 93 1a 87 bb 2b 38 12 3c
       0.008435716 0.014111841 -0.004123041 0.008924524
0000f0 70 4a 27 bc ac 9f 95 3b 5a fc f6 ba 29 04 1d bc
       -0.010210618 0.0045661535 -0.0018843517 -0.009583511
000100 ea 0b ed b9 c0 ff cf bb a6 e8 a5 ba f7 2f 85 bb
       -0.0004521304 -0.0063476264 -0.0012657836 -0.0040645557
000110 d0 06 8c bc 82 0c 25 3b 95 2b 54 3b f8 de b9 bc
       -0.017093092 0.0025184457 0.003237461 -0.022689328
000120 6d fb 67 3c 36 19 a4 bb ca aa e3 3b 43 ba 07 3c
       0.014159066 -0.005007888 0.00694785 0.008284154
000130 7f 3a 96 bb 4b e2 b6 bb 9c 4c 31 bc 15 75 80 bb
       -0.00458461 -0.0055811754 -0.010821488 -0.0039202073
000140 4d c6 09 3c dd ac 3f 3c 97 0d 3e ba 7b 63 49 bb
       0.008409095 0.011698929 -0.000724995 -0.003072946
000150 1d f2 10 3c 07 48 40 bc da 42 89 3b d1 1f 07 3c
       0.008846787 -0.011735923 0.0041888775 0.008247332
000160 40 2a f3 3b 93 4c 5a 3c 58 a1 1c 3c 3f 66 34 3a
       0.007420808 0.013323921 0.009559952 0.0006881691
000170 05 ac 6a 3c 51 d3 38 bc b0 33 a3 39 e7 b7 13 3c
       0.014323239 -0.0112808505 0.00031128293 0.009016014
000180 6a 4b ca bb 80 71 d1 3b 80 48 0f 3c 80 67 6f ba
       -0.006173541 0.006391704 0.008745313 -0.0009132549
000190 50 d6 29 bc 9a 00 31 bc c1 39 c3 bb d5 fd fa 3b
       -0.0103660375 -0.010803366 -0.0059578125 0.0076596537
0001a0 9d cb 58 3c e6 7f 37 bc e8 7c 9a bc 2a 2a 5c 3b
       0.013232139 -0.011199927 -0.018858388 0.0033594468
0001b0 97 92 11 bc 29 30 42 3c e0 18 51 3c e6 e4 91 ba
       -0.008885047 0.011852303 0.012762278 -0.0011130839
0001c0 70 69 b2 3b 17 63 0b 3b 10 b1 9c 3c 66 24 01 bc
       0.005444698 0.002126878 0.019127399 -0.007882213
0001d0 47 11 a2 bc 65 0d 4e 3c a1 02 2f bb 93 ad 53 bc
       -0.01978363 0.012576436 -0.0026704448 -0.012919801
0001e0 67 4a af ba 15 d6 70 bc e2 70 85 bc 6f 0c b0 3b
       -0.0013373614 -0.014699479 -0.016289178 0.005372576
0001f0 8b 1b 51 bc 2b e9 80 3c 25 24 89 bc ca 7f 57 bb
       -0.012762914 0.015736183 -0.016740868 -0.0032882565
000200 f7 40 c8 3b e6 89 37 bc 05 60 ff 3a 8c eb 87 bc
       0.00611126 -0.011202311 0.0019483572 -0.01659181
000210 d2 ce 62 3c 10 eb 73 3b 58 41 98 3b 03 d5 2b 3c
       0.013843255 0.0037218966 0.0046464615 0.010487798
000220 64 fe 09 3c 54 a4 82 bc 0f 02 c9 3a bc b0 c7 3a
       0.008422468 -0.015947498 0.0015335697 0.0015235166
000230 16 98 02 3c 97 d9 27 ba 30 50 63 b9 93 14 d2 ba
       0.00797083 -0.0006402968 -0.00021678279 -0.001602786
000240 49 0e 23 bc af d4 f9 3a fd 0c 6b 3b 0b 71 01 3c
       -0.009952136 0.0019060577 0.0035865896 0.007900487
000250 8f 22 2a 3c 95 d1 84 3b 8b e3 d6 3a 6c ad 83 bb
       0.010384216 0.0040533044 0.0016394717 -0.0040184762
000260 5b db 16 3c a3 ce 21 bb 38 26 d2 bb 5b 4d b5 3b
       0.009207572 -0.0024689815 -0.0064132474 0.005532903
000270 95 20 f1 3b 7d d5 d0 3b a8 2e ba bb 03 d4 be bc
       0.0073586204 0.006373106 -0.0056818314 -0.023294454
000280 5b a8 a4 bc bb 79 16 bc 5a 5a f8 3b df b7 62 3c
       -0.02009981 -0.009184296 0.00757913 0.013837784
000290 83 b2 02 3c 97 c8 58 bc 93 df eb 3a 9b 25 08 3c
       0.007977131 -0.013231418 0.0017995707 0.008309747
0002a0 0b 0e 1f ba 5e 26 0a bc fe be b3 bb bd 5b 8a 3c
       -0.0006067461 -0.008431999 -0.0054854145 0.016889447
0002b0 0f c1 65 ba db 9f 2c 3c 3b 42 ac 3b 40 7c 6e bb
       -0.0008764425 0.010536159 0.0052569187 -0.0036389977
0002c0 93 b1 d1 3b 97 1b bf bb c4 77 9b bb 40 92 86 bb
       0.0063993423 -0.0058321464 -0.004744502 -0.00410679
0002d0 02 bc 35 bb 65 cc 30 bc f6 07 89 3c cb 3c 24 3c
       -0.002773047 -0.010790919 0.016727429 0.01002426
0002e0 ad 6e 0e ba a3 c9 f1 bb 5f b2 2d 39 d3 f9 70 3b
       -0.0005433362 -0.0073787733 0.00016565014 0.003677
0002f0 7d ad ac bb 87 be 33 b9 ad f5 3c bc a3 30 55 3c
       -0.005269705 -0.00017141747 -0.011533183 0.013012084
000300 06 cc 2b bb 4a 0f 92 3b d0 79 b3 3b f7 40 2c bc
       -0.0026214137 0.004457389 0.0054771677 -0.010513536
000310 ba 71 86 3a b3 57 95 bc 44 f7 3f bb ba dd cc bb
       0.0010257282 -0.018230295 -0.002929167 -0.006252018
000320 0b 46 11 bc 54 ff 22 3c 1c 40 14 39 eb 75 61 bb
       -0.008866797 0.00994857 0.00014138262 -0.003440256
000330 51 9f b3 bc ce 9d 14 3c d0 5b 53 bb f5 38 dd 3a
       -0.021926554 0.009070827 -0.003225077 0.0016877936
000340 3a 7f d1 ba 54 67 03 3b 06 b2 34 3c 8a c7 54 3c
       -0.0015983351 0.0020050602 0.011028772 0.012987027
000350 49 d3 83 39 25 22 57 3c c5 6f 55 3c 62 89 89 bb
       0.00025143687 0.013130699 0.013027136 -0.0041972855
000360 e7 94 d5 3b 58 4a c3 3b 4f 8c 1f 3c 70 06 c0 ba
       0.0065179947 0.00595979 0.009738042 -0.0014650356
000370 a3 bd d6 bb e6 a5 b2 bb 5b f9 02 bc f0 17 e1 3c
       -0.006553368 -0.0054519055 -0.007994021 0.027477235
000380 8f 8e a3 ba 43 ca 78 bb 15 11 7a 3b 40 d8 49 bb
       -0.0012478399 -0.0037962354 0.0038157154 -0.003079906
000390 1b f7 21 3c b2 2b 8b bb 62 ce 78 3c b3 c3 3d bc
       0.009885575 -0.0042471522 0.015185924 -0.011582303
0003a0 54 2b 3b bc 3f 58 3f 3b 9b cd 73 bc 75 86 aa bb
       -0.011423904 0.0029196886 -0.014880563 -0.005204017
0003b0 5f 0d 1d b9 16 67 86 3c 84 3f 01 39 16 86 02 3c
       -0.00014977668 0.016406577 0.0001232606 0.007966539
0003c0 90 09 d3 39 b3 4d 0c 3c 71 91 96 3a a3 3b 8f 3c
       0.0004025218 0.008563447 0.0011487437 0.017484492
0003d0 a3 64 a0 3c 07 36 25 bb 98 4a e9 3b 93 e6 75 bb
       0.019579237 -0.0025209205 0.007119488 -0.0037521466
0003e0 c3 3f 62 3c 29 58 83 bc ec 5a c2 ba d8 e5 2b 3b
       0.013809147 -0.016033249 -0.0014828122 0.0026229527
0003f0 d7 1b 81 ba cf 7a 49 3c 6b 03 b8 bb f2 fd 11 3c
       -0.0009850216 0.012297346 -0.005615642 0.008910643

discrete_action_output_shape f4 [1, 4]
000000 00 00 00 40 00 00 98 41 00 00 70 41 00 00 20 41
       2.0 19.0 15.0 10.0

network_body._body_endoder.seq_layers.0.bias f4 [128]
000000 00 00 00 00 00 00 00 00 00 00 00 00 00 00 00 00
       0.0 0.0 0.0 0.0
000010 00 00 00 00 00 00 00 00 00 00 00 00 00 00 00 00
       0.0 0.0 0.0 0.0
000020 00 00 00 00 00 00 00 00 00 00 00 00 00 00 00 00
       0.0 0.0 0.0 0.0
000030 00 00 00 00 00 00 00 00 00 00 00 00 00 00 00 00
       0.0 0.0 0.0 0.0
000040 00 00 00 00 00 00 00 00 00 00 00 00 00 00 00 00
       0.0 0.0 0.0 0.0
000050 00 00 00 00 00 00 00 00 00 00 00 00 00 00 00 00
       0.0 0.0 0.0 0.0
000060 00 00 00 00 00 00 00 00 00 00 00 00 00 00 00 00
       0.0 0.0 0.0 0.0
000070 00 00 00 00 00 00 00 00 00 00 00 00 00 00 00 00
       0.0 0.0 0.0 0.0
000080 00 00 00 00 00 00 00 00 00 00 00 00 00 00 00 00
       0.0 0.0 0.0 0.0
000090 00 00 00 00 00 00 00 00 00 00 00 00 00 00 00 00
       0.0 0.0 0.0 0.0
0000a0 00 00 00 00 00 00 00 00 00 00 00 00 00 00 00 00
       0.0 0.0 0.0 0.0
0000b0 00 00 00 00 00 00 00 00 00 00 00 00 00 00 00 00
       0.0 0.0 0.0 0.0
0000c0 00 00 00 00 00 00 00 00 00 00 00 00 00 00 00 00
       0.0 0.0 0.0 0.0
0000d0 00 00 00 00 00 00 00 00 00 00 00 00 00 00 00 00
       0.0 0.0 0.0 0.0
0000e0 00 00 00 00 00 00 00 00 00 00 00 00 00 00 00 00
       0.0 0.0 0.0 0.0
0000f0 00 00 00 00 00 00 00 00 00 00 00 00 00 00 00 00
       0.0 0.0 0.0 0.0
000100 00 00 00 00 00 00 00 00 00 00 00 00 00 00 00 00
       0.0 0.0 0.0 0.0
000110 00 00 00 00 00 00 00 00 00 00 00 00 00 00 00 00
       0.0 0.0 0.0 0.0
000120 00 00 00 00 00 00 00 00 00 00 00 00 00 00 00 00
       0.0 0.0 0.0 0.0
000130 00 00 00 00 00 00 00 00 00 00 00 00 00 00 00 00
       0.0 0.0 0.0 0.0
000140 00 00 00 00 00 00 00 00 00 00 00 00 00 00 00 00
       0.0 0.0 0.0 0.0
000150 00 00 00 00 00 00 00 00 00 00 00 00 00 00 00 00
       0.0 0.0 0.0 0.0
000160 00 00 00 00 00 00 00 00 00 00 00 00 00 00 00 00
       0.0 0.0 0.0 0.0
000170 00 00 00 00 00 00 00 00 00 00 00 00 00 00 00 00
       0.0 0.0 0.0 0.0
000180 00 00 00 00 00 00 00 00 00 00 00 00 00 00 00 00
       0.0 0.0 0.0 0.0
000190 00 00 00 00 00 00 00 00 00 00 00 00 00 00 00 00
       0.0 0.0 0.0 0.0
0001a0 00 00 00 00 00 00 00 00 00 00 00 00 00 00 00 00
       0.0 0.0 0.0 0.0
0001b0 00 00 00 00 00 00 00 00 00 00 00 00 00 00 00 00
       0.0 0.0 0.0 0.0
0001c0 00 00 00 00 00 00 00 00 00 00 00 00 00 00 00 00
       0.0 0.0 0.0 0.0
0001d0 00 00 00 00 00 00 00 00 00 00 00 00 00 00 00 00
       0.0 0.0 0.0 0.0
0001e0 00 00 00 00 00 00 00 00 00 00 00 00 00 00 00 00
       0.0 0.0 0.0 0.0
0001f0 00 00 00 00 00 00 00 00 00 00 00 00 00 00 00 00
       0.0 0.0 0.0 0.0

network_body._body_endoder.seq_layers.0.weight f4 [128, 78]
000000 f2 51 f0 3d 9c e8 c2 3d 07 be 8d 3d 15 0f c0 3d
       0.1173438 0.09517023 0.069210105 0.09377877
000010 65 f6 67 3e 78 bf c3 bd 34 c0 45 3e 9c 0f 79 39
       0.22652586 -0.09558004 0.19311601 0.00023752305
000020 a3 ed 2d bd 8f c5 c2 bd c0 c5 07 3e ad af b0 bd
       -0.042462956 -0.095103376 0.1325903 -0.086272575
000030 c6 33 9c 3d a7 6a 0d 3e b9 aa 77 bd 5c 1b 0b 3d
       0.076270625 0.13810216 -0.06046555 0.03396164
000040 a1 2e 56 bc 47 f0 c8 3d 38 ca 53 bd 67 75 bc bc
       -0.013072641 0.09811454 -0.051706523 -0.0230052
000050 96 18 d2 bc f8 5f e7 bc 53 91 ac bd ef 2e d4 3d
       -0.02564649 -0.028244004 -0.08426156 0.103605144
000060 87 60 94 bd 3a 70 a6 3d 90 db 11 3d 48 c3 36 be
       -0.07244974 0.08126874 0.03560978 -0.17847931
000070 0c cc 0d 3e 1e 63 af bc 65 2d 66 3b 7e 57 6f bc
       0.13847369 -0.021409567 0.0035122272 -0.014608262
000080 15 9a a9 3d c3 6f 2f 3e 92 3b dd bd 77 8d c0 bd
       0.08281342 0.17132477 -0.10802378 -0.09401982
000090 ad 81 d9 3d f8 f2 ca bc 0b 6f 36 3d fb ad c3 3d
       0.10620437 -0.02477406 0.044539493 0.095546685
0000a0 53 1a 81 3e db db 94 bd 7d 48 99 3d f5 ae 16 3e
       0.25215396 -0.072684966 0.07484529 0.14715178
0000b0 33 51 99 bc 6c 6f bd bd 31 2e 97 3c fb c1 b8 ba
       -0.018715477 -0.09249768 0.018454643 -0.0014095897
0000c0 2f 94 3e bd 71 81 3c bd 75 18 fc 3b 50 bc ab 3c
       -0.046528038 -0.046021882 0.007693345 0.020963818
0000d0 d2 f1 c7 bd 7c c1 8f be 3b d6 a8 bc 66 cf 81 bd
       -0.097629204 -0.28077304 -0.020609966 -0.06338386
0000e0 89 a2 1b be b6 81 c5 3d 7d ed 06 3e 15 ec c3 3d
       -0.15198721 0.09643881 0.13176532 0.095665134
0000f0 ec be f3 3d e8 39 01 3d 60 e1 75 3e 88 62 3c 3c
       0.1190165 0.031549364 0.24011755 0.011498101
000100 fd 7f 5b bd f7 8f 1b bd 5b 26 44 3d 41 ce f4 3d
       -0.053588856 -0.037979092 0.04788814 0.11953402
000110 ea d6 8c 3c ef 90 c8 bd b6 ec 9f bb 58 94 e9 3d
       0.017192323 -0.09793269 -0.004880513 0.114052474
000120 af 3a 1b bd 77 97 00 be 8d ad 1f 3e 33 b0 06 be
       -0.037897762 -0.12557779 0.15593548 -0.13153152
000130 22 ed aa bc 5c 9e 5e 3e 7b 34 60 3e be b5 2b be
       -0.020865027 0.21740097 0.2189502 -0.16768548
000140 f4 dc aa bd 8a 42 44 bd 6b 71 4e bd 6d f9 2c 3e
       -0.08342925 -0.04791502 -0.050401133 0.16892023
000150 a7 90 ba 3c 18 f8 30 3d c9 9f a5 3b 48 41 3d 3e
       0.022774054 0.04320535 0.0050544483 0.18481934
000160 ae e3 1e 3c fb 42 bb bd 1c 67 b2 bc 70 12 02 be
       0.009697838 -0.09143635 -0.021777682 -0.12702346
000170 76 a0 88 3c 7f 57 72 bd c8 7f 04 3d 44 0d c2 3c
       0.016678076 -0.059165474 0.032348424 0.023687966
000180 82 14 dc 3d 9e 57 53 3d 81 5e 5f 3a 80 13 bc 3d
       0.10746099 0.05159723 0.0008520857 0.09183407
000190 02 4f 49 3d 51 9c a0 3e 25 83 04 be a8 ca 30 3d
       0.049147613 0.3136926 -0.12940653 0.043162018
0001a0 05 f0 be 3b 16 f9 12 bd ca 06 d8 bd 3c 7f eb ba
       0.0058269524 -0.035882078 -0.1054817 -0.0017966996
0001b0 b5 66 ed 3d 98 ea d2 3d e5 d3 65 3c d1 39 13 be
       0.115918554 0.102986515 0.01402757 -0.14377524
0001c0 1b c5 b8 bd 8e e8 c0 bc f4 50 af 3d f6 f5 62 3e
       -0.0902197 -0.02354839 0.085603625 0.22164139
0001d0 03 d0 fc 3d c2 34 96 bd cb b7 04 3d 7d 89 a4 bd
       0.123443626 -0.073342815 0.03240184 -0.08034036
0001e0 19 94 e1 bc 63 e3 11 3d 8b 19 c9 3d 61 92 0a 3e
       -0.027536439 0.035617243 0.09819325 0.13532402
0001f0 8b 9f 04 3e 2f c6 69 3e fa 39 89 3d c3 5a de 3d
       0.12951486 0.22829507 0.06700511 0.10857155
000200 7b 6b 7b be 7a 07 46 3d 04 58 f8 3c ed 2b 47 3d
       -0.2455272 0.048346974 0.030315407 0.048625875
000210 28 b7 e0 3c 67 c8 dc bc b0 dd 35 3b 9c 7c 39 be
       0.027431086 -0.026951028 0.0027750544 -0.18113941
000220 27 f0 22 bd 96 b7 b8 3d cc 05 52 3e 23 71 91 3c
       -0.03977981 0.09019391 0.20510024 0.017754143
000230 68 d4 1e be e0 20 ec ba b2 c3 06 be ad b8 75 3d
       -0.15510714 -0.0018015169 -0.1316059 0.059990574
000240 8e 05 9b 3d 80 94 37 3e b7 b0 d2 3c 85 f0 6f 3e
       0.07569419 0.17927742 0.02571903 0.23431595
000250 49 9a 27 bd b3 98 94 3d cb 93 1e 3e 1e 0e 23 bd
       -0.040918622 0.072556876 0.15486066 -0.039808385
000260 31 45 1f 3d 3f 7e 93 3d 3b c1 14 3e 3f 6c 3b bb
       0.038884345 0.07201814 0.14526837 -0.0028598455
000270 5b 03 08 3d 63 08 03 3e 49 08 37 3e 61 57 f6 3d
       0.033206325 0.12796168 0.17874254 0.12028385
000280 14 f7 30 bc b5 04 06 bd 53 3a 0c bd a8 5f cc bd
       -0.0108010955 -0.032719333 -0.03423531 -0.099791825
000290 44 21 a7 3c 3e 3d 29 be bc fd bc bd c6 97 64 3d
       0.020401604 -0.16527268 -0.092280835 0.055808805
0002a0 fb 30 23 be ea 92 54 be 2b cf dd bd 48 d5 29 bc
       -0.15936653 -0.20759168 -0.1083053 -0.010365792
0002b0 82 42 1d 3d 28 74 43 3e b5 53 00 3d 9e 70 17 be
       0.038393505 0.19087279 0.03132983 -0.14789054
0002c0 2f 67 02 be af b5 49 3d 7e b1 e3 bd 02 a4 08 be
       -0.12734674 0.049245533 -0.11117838 -0.13343814
0002d0 2e f7 ab be 92 ed 32 be 35 9c ec 3d c5 7d 2b bd
       -0.3358702 -0.17473438 0.115532316 -0.04186799
0002e0 4d f3 42 3b d3 ce 8c 3d ee 08 46 bd bf d5 e8 bc
       0.002974707 0.06875386 -0.04834836 -0.028422235
0002f0 8f 06 36 3e d2 6e 16 3e 2a b6 2a bd a0 1c 3c be
       0.1777594 0.14690712 -0.04167763 -0.18370295
000300 cf b4 0c bd 23 38 58 be b3 a7 5a be 5b 19 66 3d
       -0.03435212 -0.21115164 -0.21353035 0.056176525
000310 09 45 16 be 56 fa 00 be ef 91 af 3c df ed 04 be
       -0.14674772 -0.12595496 0.021431891 -0.12981366
000320 9f ed 3c 3d f1 9e 78 bd ac 8d d1 bc 5f b2 c9 bc
       0.04612505 -0.060698453 -0.02558025 -0.024621187
000330 cf fc 84 bd 05 0c e3 bd 1b 1c 34 3d 84 47 bc 3d
       -0.06493532 -0.11086277 0.043972116 0.09193328
000340 81 76 91 3d 1a 58 34 3d 99 c8 69 bd 1e ad 32 bd
       0.07102681 0.044029333 -0.05707607 -0.04362213
000350 9c 51 62 bc c9 49 eb 3d 31 6c ee 3d 70 22 6a bc
       -0.0138134025 0.11488683 0.116417296 -0.014290437
000360 63 4f 20 bd d6 82 ae 3c d9 09 0c 3e dd 7e 72 3b
       -0.03913821 0.021302622 0.13675632 0.0037001886
000370 6b 64 28 3d 57 44 b8 bb 97 f1 ee 3d b6 9e 1a 3d
       0.04111139 -0.005623381 0.11667173 0.037749015
000380 0f bf ce 3c 21 25 71 3d f3 05 81 3a 1e 99 aa 3d
       0.025237588 0.0588733 0.0009843692 0.08329986
000390 49 bd 8d 3d 03 49 91 3d 88 d4 32 3d 5f 3d 52 bc
       0.06920869 0.07094004 0.043659717 -0.012832015
0003a0 bc 0f ae bd 07 bb 02 bd 5b 6a 4c 3d fc df 83 bd
       -0.08499095 -0.031916644 0.049906116 -0.06439206
0003b0 43 52 82 be 47 da 0c 3e 22 69 0a 3e 6b ec 29 3e
       -0.25453386 0.13755141 0.13516667 0.16594093
0003c0 2e d2 55 3e c9 25 0d 3c 53 bd f3 3d 6f 37 9c 3d
       0.20880958 0.008614966 0.11901345 0.076277606
0003d0 61 bf 7e bc fd 23 f6 bd 07 4e e6 3d b2 8f b2 bd
       -0.015548558 -0.12018583 0.11245351 -0.08718814
0003e0 79 1b ad bd 1c ef ea bd 26 40 e1 3a c1 20 7f bd
       -0.084525056 -0.11471388 0.0017185255 -0.062287096
0003f0 8d ec 3b bd 92 56 cc 3d 29 77 57 3c 8c 9e 71 3c
       -0.04587989 0.099774495 0.013150969 0.014747273

network_body._body_endoder.seq_layers.2.bias f4 [128]
000000 00 00 00 00 00 00 00 00 00 00 00 00 00 00 00 00
       0.0 0.0 0.0 0.0
000010 00 00 00 00 00 00 00 00 00 00 00 00 00 00 00 00
       0.0 0.0 0.0 0.0
000020 00 00 00 00 00 00 00 00 00 00 00 00 00 00 00 00
       0.0 0.0 0.0 0.0
000030 00 00 00 00 00 00 00 00 00 00 00 00 00 00 00 00
       0.0 0.0 0.0 0.0
000040 00 00 00 00 00 00 00 00 00 00 00 00 00 00 00 00
       0.0 0.0 0.0 0.0
000050 00 00 00 00 00 00 00 00 00 00 00 00 00 00 00 00
       0.0 0.0 0.0 0.0
000060 00 00 00 00 00 00 00 00 00 00 00 00 00 00 00 00
       0.0 0.0 0.0 0.0
000070 00 00 00 00 00 00 00 00 00 00 00 00 00 00 00 00
       0.0 0.0 0.0 0.0
000080 00 00 00 00 00 00 00 00 00 00 00 00 00 00 00 00
       0.0 0.0 0.0 0.0
000090 00 00 00 00 00 00 00 00 00 00 00 00 00 00 00 00
       0.0 0.0 0.0 0.0
0000a0 00 00 00 00 00 00 00 00 00 00 00 00 00 00 00 00
       0.0 0.0 0.0 0.0
0000b0 00 00 00 00 00 00 00 00 00 00 00 00 00 00 00 00
       0.0 0.0 0.0 0.0
0000c0 00 00 00 00 00 00 00 00 00 00 00 00 00 00 00 00
       0.0 0.0 0.0 0.0
0000d0 00 00 00 00 00 00 00 00 00 00 00 00 00 00 00 00
       0.0 0.0 0.0 0.0
0000e0 00 00 00 00 00 00 00 00 00 00 00 00 00 00 00 00
       0.0 0.0 0.0 0.0
0000f0 00 00 00 00 00 00 00 00 00 00 00 00 00 00 00 00
       0.0 0.0 0.0 0.0
000100 00 00 00 00 00 00 00 00 00 00 00 00 00 00 00 00
       0.0 0.0 0.0 0.0
000110 00 00 00 00 00 00 00 00 00 00 00 00 00 00 00 00
       0.0 0.0 0.0 0.0
000120 00 00 00 00 00 00 00 00 00 00 00 00 00 00 00 00
       0.0 0.0 0.0 0.0
000130 00 00 00 00 00 00 00 00 00 00 00 00 00 00 00 00
       0.0 0.0 0.0 0.0
000140 00 00 00 00 00 00 00 00 00 00 00 00 00 00 00 00
       0.0 0.0 0.0 0.0
000150 00 00 00 00 00 00 00 00 00 00 00 00 00 00 00 00
       0.0 0.0 0.0 0.0
000160 00 00 00 00 00 00 00 00 00 00 00 00 00 00 00 00
       0.0 0.0 0.0 0.0
000170 00 00 00 00 00 00 00 00 00 00 00 00 00 00 00 00
       0.0 0.0 0.0 0.0
000180 00 00 00 00 00 00 00 00 00 00 00 00 00 00 00 00
       0.0 0.0 0.0 0.0
000190 00 00 00 00 00 00 00 00 00 00 00 00 00 00 00 00
       0.0 0.0 0.0 0.0
0001a0 00 00 00 00 00 00 00 00 00 00 00 00 00 00 00 00
       0.0 0.0 0.0 0.0
0001b0 00 00 00 00 00 00 00 00 00 00 00 00 00 00 00 00
       0.0 0.0 0.0 0.0
0001c0 00 00 00 00 00 00 00 00 00 00 00 00 00 00 00 00
       0.0 0.0 0.0 0.0
0001d0 00 00 00 00 00 00 00 00 00 00 00 00 00 00 00 00
       0.0 0.0 0.0 0.0
0001e0 00 00 00 00 00 00 00 00 00 00 00 00 00 00 00 00
       0.0 0.0 0.0 0.0
0001f0 00 00 00 00 00 00 00 00 00 00 00 00 00 00 00 00
       0.0 0.0 0.0 0.0

network_body._body_endoder.seq_layers.2.weight f4 [128, 128]
000000 44 c6 08 be ba 88 70 bb 4d d7 c2 3d 0f 8e a7 3c
       -0.13356882 -0.003670259 0.095137216 0.020453481
000010 e8 88 98 3b bf 47 6a bc 48 27 73 bd c7 a5 f9 bd
       0.0046549924 -0.014299332 -0.059363633 -0.12189823
000020 94 e1 a2 bd 75 a4 36 bd 17 93 89 3d df 7d 3b 3d
       -0.07953182 -0.044590432 0.06717508 0.045774337
000030 2f 41 b0 3d 7b ae 4e 3d bc 42 12 3d 5f 3c c1 3d
       0.08606183 0.050459366 0.035708174 0.09435343
000040 e5 6f 37 3d 6a ad a4 3d 69 c3 b4 3d 88 24 9a bb
       0.044784445 0.080408886 0.08826334 -0.004704062
000050 6a ec d9 bd 67 09 ed 3c 56 a1 a2 bd ef 24 0e 3d
       -0.106407955 0.028935147 -0.07940929 0.03470319
000060 76 d1 9f bd 7f 71 95 3c 63 6f cd bd 20 67 92 bd
       -0.078036234 0.018242596 -0.10031011 -0.07148576
000070 82 8c b6 bd f8 48 f6 bc ea ff 4e 3d b3 01 e5 3b
       -0.089135185 -0.030064091 0.050537027 0.006988728
000080 c4 92 e1 3c c0 a1 a6 3c 61 e3 cc 3d 65 60 18 3d
       0.027535804 0.0203408 0.100043066 0.037201304
000090 75 2b 29 3d 68 ff d6 bc 7d 6b d0 bd 26 a8 aa bc
       0.04130121 -0.026244834 -0.10176752 -0.020832133
0000a0 fd 86 51 3e f1 55 0a be 33 c3 ef ba 71 73 bd 3d
       0.2046165 -0.13509347 -0.0018292427 0.09250534
0000b0 36 f0 03 3d 1f f6 54 3d 23 87 d8 bd 8e da 8d 3c
       0.032211505 0.051992532 -0.1057265 0.017316129
0000c0 52 d1 93 bd e2 59 31 bd d2 e1 c1 bd e7 08 1a 3d
       -0.07217659 -0.04329861 -0.094669 0.037606146
0000d0 84 f7 37 3e be b5 42 bc 10 3f 58 3c c6 92 dc 3c
       0.17965513 -0.011884151 0.013198629 0.026925456
0000e0 9d 28 d7 3b c8 2b c3 3d 48 d2 71 bd 6d e6 92 bd
       0.006566121 0.09529835 -0.05903843 -0.071728565
0000f0 32 f6 97 3d 74 d1 e0 bc b2 f2 28 3d c0 bf e8 3d
       0.07420005 -0.027443625 0.041247077 0.113646984
000100 22 43 a8 3d 94 76 c3 bd 7f 40 53 3d bc 1b c3 3d
       0.082159296 -0.09544101 0.05157518 0.09526774
000110 09 9d 78 3d 4c be 1a 3b 2d 42 05 bd b9 b2 6c be
       0.060696635 0.002361196 -0.032533813 -0.23115052
000120 8f b7 1a be e6 65 a7 3d 57 0d ec 3d 39 53 9b be
       -0.15109085 0.081737325 0.11525982 -0.3033693
000130 b9 dd 21 3d cf 7d 33 3d 6a 68 9c bd e8 ae e6 bd
       0.03951809 0.043821152 -0.07637103 -0.112638295
000140 9c 08 02 3c 5f fc 48 bd 30 91 c9 3d 80 a5 5d bd
       0.007936623 -0.049068805 0.098421454 -0.05411291
000150 a6 dd 81 3d 1c 61 fe 3c 3e d3 f2 bd be 1c 87 3d
       0.06341104 0.031052165 -0.118566975 0.06597279
000160 44 67 0c bd 0e 06 93 3d 68 63 a1 ba 7f 80 f9 3d
       -0.03427817 0.07178889 -0.001231295 0.12182712
000170 6e 7b 4d bd a8 f4 51 bd 5c 0c 67 bd 34 26 2d bd
       -0.05016654 -0.051258713 -0.05640827 -0.04227276
000180 a8 3b 35 3d ae 3e e0 bd 05 1e 0b bd 1f ea 0f 3e
       0.044246346 -0.10949455 -0.033964176 0.14054154
000190 f1 b1 5a 3c 22 3b 82 bc 10 9d 33 be c7 3f 86 3a
       0.013348089 -0.015897337 -0.17540383 0.0010242396
0001a0 85 24 df bd 64 83 ac bc 7e 8b 0d bd cf 2c 88 3e
       -0.108956374 -0.021058746 -0.03455686 0.26596686
0001b0 f1 cc 95 3d a2 ef 98 bc f8 80 75 bc d1 1a 1a 3d
       0.0731448 -0.018668953 -0.014984362 0.03762323
0001c0 be 80 85 3d 70 f3 4a bd 15 b6 c0 bd 15 d7 f6 bd
       0.06518696 -0.049548566 -0.094097294 -0.120527424
0001d0 24 e1 0c be 30 c3 7e bd 97 cd 73 bd 79 11 a1 bd
       -0.1375776 -0.062197864 -0.059522238 -0.07864661
0001e0 ef 85 e5 bd d2 b3 01 be a8 11 49 3b af d0 ac 3d
       -0.112071864 -0.12666252 0.003068069 0.08438241
0001f0 f2 7f 9d bd 3f a6 8d 3d c2 76 50 3d b5 e3 9f bd
       -0.07690419 0.069164746 0.050894506 -0.078071035
000200 70 d0 99 bd a2 84 30 3a c3 b5 7f 3d 32 9d 11 bd
       -0.075104594 0.0006733631 0.0624292 -0.035550304
000210 e5 5a 0a be ce 5a 1b bd c6 b7 83 3d 14 bd ff bd
       -0.13511236 -0.037928395 0.064315364 -0.12487236
000220 6d 63 61 bd 91 46 82 3d 73 31 8c 3d d0 b2 08 3e
       -0.05502646 0.06361116 0.06845369 0.13349462
000230 66 0b ae bd 61 4e dc 3d 3f cb ff bd c5 85 2b 3d
       -0.08498268 0.10757137 -0.12489938 0.04187562
000240 ac a8 00 3d 5a de 37 bd d7 27 15 3e 5e bf 0e be
       0.031410858 -0.044889785 0.14565979 -0.13940188
000250 b4 d6 c5 3d fc 85 31 be 03 44 c6 3b e5 1e 55 3d
       0.09660092 -0.17336267 0.006050588 0.052031416
000260 95 b3 96 bd 34 55 f9 bc 00 d9 66 3b 31 12 1d 3e
       -0.07358471 -0.030436136 0.0035224557 0.1533897
000270 5b 3c c8 3d fe 46 4b bd e2 e6 21 bd 28 fe 0e bc
       0.09777137 -0.04962825 -0.039526828 -0.008727588
000280 c8 39 9a bc 10 da d3 bd 39 e6 26 3d 2f 2f 4a bd
       -0.01882638 -0.103443265 0.0407469 -0.049361404
000290 2e a9 a4 bc 05 01 17 3e 51 0a 07 bd bd 85 2a 3d
       -0.020100202 0.14746483 -0.032968823 0.04163145
0002a0 d1 8e d5 bd 49 ff f0 bd d1 54 ff bd 2b 00 c1 3d
       -0.10427631 -0.11767442 -0.12467349 0.0942386
0002b0 98 6c 01 bd 5a 06 10 3e a8 d1 9e 3d 92 fa 3c bd
       -0.031597704 0.14064923 0.077548325 -0.0461374
0002c0 bd 17 af 3c dd d9 bd 3d 3b d9 59 3d bc b5 ef 3d
       0.021373624 0.0927007 0.053185683 0.11704585
0002d0 5c 8b b8 3b 6b 53 73 bd e8 02 1a 3c a5 d8 1a 39
       0.0056318473 -0.059405725 0.009400107 0.00014767291
0002e0 77 e7 47 bc 99 4a 8c bd 60 d3 4d be 33 fd 9c 3d
       -0.012201182 -0.06850166 -0.20100164 0.076654814
0002f0 ab 49 24 be d5 7c 26 3d 70 d6 67 bd f1 15 dd 3d
       -0.16043727 0.040646393 -0.056600988 0.107952006
000300 2f 72 27 3e 22 fe 39 3e ed a8 7f bd e4 a3 60 3d
       0.16352151 0.1816335 -0.06241696 0.0548438
000310 08 b5 f1 3d 3b 69 ee 3d a7 57 c3 bd ca a4 70 3e
       0.11802107 0.11641165 -0.09538203 0.23500362
000320 26 52 c1 3d c1 55 b0 3d 03 0f f7 3d 52 53 9f 3d
       0.09439497 0.08610106 0.1206341 0.07779564
000330 37 02 79 bd 67 d3 72 bd 5f 07 ae 3d b8 2f b8 bd
       -0.060793128 -0.05928364 0.084975 -0.08993477
000340 fa 4d 9e bd 4d dd 5e bd 0d 2f cd bd 42 b0 0f be
       -0.077297166 -0.054410268 -0.1001874 -0.14032081
000350 da 47 6b bd 95 44 21 3d e9 8c 12 bc 1e db d2 3d
       -0.05744157 0.039372046 -0.008944728 0.102956995
000360 e4 15 45 3e ae fd 32 bc 26 1a 0c be c9 7e 72 bb
       0.19246632 -0.01092474 -0.1368185 -0.003700184
000370 ff bc de 3c 18 bd 41 3c 53 8c b0 bd 38 07 c7 3d
       0.02718973 0.011824869 -0.08620515 0.09718174
000380 9a 00 ca bd 12 4d ea bd be 39 c3 3d 8e a2 a2 bc
       -0.09863396 -0.11440481 0.09532498 -0.019852903
000390 7e f5 5f bd 18 76 fb bd ba 3d cb 3c 84 fe 76 3d
       -0.05467748 -0.12278384 0.024809707 0.06030132
0003a0 e7 06 53 3d 85 7f ac bc 54 24 1b 3d 41 e7 c6 3d
       0.051520254 -0.0210569 0.037876442 0.09712077
0003b0 ec 21 11 3e 58 11 53 bd 43 9a eb bd dc 49 b1 bd
       0.14173096 -0.051530212 -0.115040325 -0.08656666
0003c0 b9 27 1a be 32 f8 d0 bd 82 1e b4 3d 93 4f 17 be
       -0.15054215 -0.102035895 0.087948814 -0.14776449
0003d0 14 5c b5 bd 0b cc 47 bb bb e4 68 3d 1e 15 09 be
       -0.08855453 -0.003048661 0.05685876 -0.13386962
0003e0 3f 9d dd bd 9b c3 6d bd 46 d7 d6 3d f2 ff b5 3d
       -0.10821008 -0.058047872 0.10490279 0.08886708
0003f0 fc 0c a2 3d 81 c3 8e bd 8d 7f 8e 3d b7 d2 94 bd
       0.07912633 -0.06970883 0.06957922 -0.07266753
