FYPprototype/results/ppo/AIBalancing/AIBalancing-1504.pt (torch, 148295 bytes, 11 tensors)

network_body._body_endoder.seq_layers.0.weight f4 [128, 5]
000000 95 c0 4f 3e 99 67 16 3f 58 18 20 3f 72 6c 06 bf
       0.20288308 0.5875183 0.62537146 -0.52509224
000010 9e 06 02 3f 39 ba 68 3f df 62 c4 bd 56 38 89 bd
       0.5079135 0.90909153 -0.09589171 -0.06700198
000020 be c5 ad 3e 96 44 80 3e 7e f5 a1 3e 4a a7 06 3d
       0.33939928 0.25052327 0.31632608 0.032874383
000030 4e d9 63 be 23 3d 13 3e b1 db a9 be fa e4 eb bb
       -0.22250864 0.1437879 -0.33175424 -0.007198927
000040 6d ac 0f 3e b3 a9 de 3d 12 29 a4 3e da a2 1a bf
       0.14030619 0.10872211 0.32062584 -0.6040474
000050 ae d8 28 bc fa 7d c7 3e e9 17 eb 3d 7d 95 31 be
       -0.010305567 0.389633 0.1147917 -0.17342182
000060 be 17 3b 3e 7c a4 c4 be 5c 87 a0 3e 51 f2 81 be
       0.18270776 -0.38406742 0.3135327 -0.25380185
000070 3b 5d ed 3e 6b ab 81 3d 0a 99 8a be f3 e2 7a 3e
       0.46360192 0.063315235 -0.27069885 0.24500637
000080 06 1b 19 bd dc 67 19 3e 28 57 ba be 60 8b 12 bf
       -0.037379287 0.14981025 -0.3639462 -0.5724392
000090 e4 d2 4a bf 73 c7 78 3d 6d 3f 0b 3e 4c 90 bd be
       -0.79228044 0.060737085 0.13598414 -0.37024152
0000a0 79 d1 c2 3e 37 60 4e 3c f1 c2 1f bf cd a8 91 be
       0.3805044 0.012596182 -0.6240683 -0.28449097
0000b0 97 af 94 3e d1 6f f3 3c 65 02 24 3d df 60 66 be
       0.29040214 0.029716404 0.040041346 -0.22497891
0000c0 71 6f 5e be ef 97 3a bd 9c d5 15 bf 6f ae 33 be
       -0.21722199 -0.04555505 -0.5852907 -0.1754701
0000d0 63 12 71 3e 62 4a be bc b5 4f 61 bb 94 29 e3 be
       0.2354217 -0.023228828 -0.0034379784 -0.4436766
0000e0 9a 04 1e 3f 74 41 e0 3e 9e 78 91 3e b8 d4 4b bf
       0.6172577 0.43799937 0.28412336 -0.7962146
0000f0 32 af 0c 3f 0a 30 c3 3e f8 da fe 3e 98 db 3d 3f
       0.54954827 0.38122588 0.49776435 0.741632
000100 a0 25 aa 3d 1a 8a 38 be 1e 64 ab be 21 5e ca be
       0.08307958 -0.18021432 -0.3347482 -0.3952494
000110 5e f3 2d 3f ed 2e 77 3f b4 e2 0c 3d 54 26 af 3e
       0.67949474 0.9655598 0.03439589 0.3420893
000120 78 89 a5 be 9d 76 d5 3e 07 45 46 bd 60 14 55 3f
       -0.32331443 0.41692057 -0.048405673 0.83234215
000130 46 89 83 3e f9 a5 b2 be b7 e8 1f 3e e1 c7 d1 be
       0.2569067 -0.34892252 0.15616117 -0.40972808
000140 a2 19 07 3f 05 e0 00 bf f3 cc 45 bf 9e b3 d2 be
       0.5277349 -0.50341827 -0.7726585 -0.41152662
000150 38 8e 4e bd e7 33 41 bf 22 bd 13 bf 56 d5 19 3e
       -0.0504286 -0.7546982 -0.5771047 0.15022787
000160 57 83 95 be 3d d6 bc be 4d 28 f3 be b2 ff c3 3e
       -0.29201767 -0.368822 -0.47491685 0.38281018
000170 1b 1e 03 be 92 89 c4 3e aa 78 c3 3d d1 f8 11 3f
       -0.12804453 0.38386208 0.09544499 0.5702029
000180 b9 b8 f9 3e 37 9e 1d be a8 fa 2c 3e 8a b2 e6 3d
       0.48773745 -0.15392385 0.16892493 0.112645224
000190 e2 ff 68 be 90 3a 54 3e 00 40 37 bf 7a ca 87 3f
       -0.22753862 0.20725465 -0.7158203 1.0608666
0001a0 b2 d6 96 bf 9f dc ce 3f d3 f6 7a be 03 27 a4 be
       -1.178427 1.6161078 -0.24508218 -0.32061014
0001b0 bd 19 07 3f 54 7f 2d be f7 1a 52 3e af 2d 98 3f
       0.5277365 -0.16943103 0.20518099 1.1888942
0001c0 70 f2 85 3e bc ef 79 3f 24 59 ce bd 58 74 9f be
       0.26161528 0.9763143 -0.10075596 -0.3114345
0001d0 61 c4 46 3d 5e fd 23 bf ab 43 1c 3e e3 f4 85 bf
       0.048527125 -0.6405848 0.15260188 -1.0465358
0001e0 91 ce 53 bf a6 9c e5 3e 6b 88 fb be e8 d1 c9 3e
       -0.8273707 0.44846076 -0.49127516 0.39417958
0001f0 30 9b 95 3e b2 7c 12 bf 0e 6f b1 3f e2 90 40 3e
       0.2921996 -0.5722152 1.3862016 0.18805268
000200 33 7a e3 3e 9f 00 43 bf e0 76 88 3e 1b b2 bf bf
       0.44429168 -0.7617282 0.26653194 -1.4976228
000210 9f cd 74 be 3c 90 cb 3d 43 ad 37 3e 52 61 23 3e
       -0.23906563 0.0993962 0.17937188 0.15955094
000220 7d a7 14 be df 59 2a be 46 0c e0 3e d9 b8 91 3e
       -0.14517017 -0.16635846 0.43759364 0.2846134
000230 7f f8 03 bf b3 5e e3 be 9c 4a f6 be cc 6f 4b be
       -0.5155105 -0.44408187 -0.48103797 -0.19866866
000240 0a 6d 09 be 44 a2 b1 3e d5 5b c7 be 34 d6 95 be
       -0.13420501 0.3469411 -0.3893725 -0.29264987
000250 ea e6 11 3e 2a 86 71 3f 1d a5 ab 3c 79 0a 27 3f
       0.14248243 0.94345343 0.020952756 0.65250355
000260 33 09 3c bf 28 37 02 bf 1f 3f 2d 3e 1d db d3 be
       -0.73451537 -0.5086541 0.1691861 -0.41378108
000270 73 8f fc 3e 21 fc bd 3c f0 9d 71 3e 06 33 41 bf
       0.49328193 0.023191513 0.23595405 -0.7546848
000280 31 11 63 be 4e 30 84 3e 8e 7d 4b be 25 f6 59 be
       -0.22174527 0.25818104 -0.19872114 -0.21285303
000290 84 09 1f be e5 7f 80 3e 5b 2f 17 3f cb 3e c5 3e
       -0.15530974 0.25097576 0.59056634 0.3852447
0002a0 70 1c 92 3e 5e ba ae be 31 cb aa 3e eb a6 90 3e
       0.2853732 -0.34126562 0.33358148 0.28252348
0002b0 22 d9 60 bd 87 5b 82 3f da ef 3e be f7 78 7d be
       -0.054894574 1.0184182 -0.18646184 -0.24753176
0002c0 bb 8c a4 be d4 a4 82 3f 2c ea 6c bf c3 96 02 be
       -0.3213862 1.0206552 -0.9254482 -0.12752824
0002d0 e5 d7 98 3e a2 90 d2 be 80 7f 75 3c a5 22 4e bf
       0.29852214 -0.4112597 0.014984012 -0.80521613
0002e0 49 76 72 bc f9 f1 30 bf dc 97 0b be 2a b0 af be
       -0.014798709 -0.6911922 -0.13632149 -0.3431409
0002f0 be 58 28 3f 5d 57 25 bf 9b f6 81 bf 3d f6 0c be
       0.6576041 -0.6458643 -1.0153383 -0.13765807
000300 1b d2 58 3e 55 f5 cb be 45 ad 7a 3e bf 3d ee bd
       0.21173899 -0.3983561 0.2448016 -0.11632871
000310 38 58 cf 3e 6f bc 32 3e 4d 98 c4 be 04 9c e6 be
       0.40496993 0.17454694 -0.38397446 -0.45040905
000320 a0 b7 d9 be 55 81 18 3f c2 80 90 3e b8 02 86 bf
       -0.42522907 0.59572345 0.28223234 -1.046958
000330 df 0f 19 3e 67 c6 01 3e 5e 9d 11 bf 46 f2 e7 3e
       0.1494746 0.1267334 -0.5688075 0.45302027
000340 1c d3 4f 3f 3e 0a 73 be bb 41 c5 3e 19 8a 40 3d
       0.811815 -0.23734376 0.3852671 0.0470067
000350 8f 85 cc be 32 98 a9 be df eb 86 3f 4c 78 52 bf
       -0.39945647 -0.33123928 1.0540732 -0.8221481
000360 0e 75 d1 be df 22 5a be e0 3f e3 be 45 50 c8 be
       -0.40909618 -0.21302365 -0.4438467 -0.3912374
000370 81 18 04 3f 28 0b 18 3f 47 0c cc 3e fe 17 21 3f
       0.5159989 0.59392023 0.39853117 0.62927234
000380 27 32 91 be 76 15 db be bf 46 87 be 1e 43 33 3f
       -0.28358576 -0.4278981 -0.26421162 0.7002429
000390 58 0e 6b 3e 3d 0d 6b bf a1 ac b4 be 4e 62 ca be
       0.2295469 -0.91817075 -0.35287955 -0.39528126
0003a0 6a 5c 4e be 90 42 7b 3d 86 b1 14 bf 1d 38 d8 3e
       -0.2015244 0.061342776 -0.5808338 0.4223031
0003b0 e4 f5 02 bf 56 34 bc 3e 1e 70 b6 3c df 44 c1 3e
       -0.5115645 0.3675868 0.022270259 0.37747857
0003c0 09 b0 89 3c fd 85 86 3e 88 80 87 bd 52 47 28 3e
       0.016807573 0.262741 -0.06616312 0.16433457
0003d0 e6 54 bd bd 69 bb f9 be 82 a8 13 be ad 6f e1 3e
       -0.09244709 -0.48775795 -0.1441975 0.44030514
0003e0 a4 ef 5b bd 88 f0 e9 3e db 7d 2a be b5 e3 18 bf
       -0.053695336 0.45691323 -0.16649573 -0.59722453
0003f0 da 76 87 3e e6 aa fc be e1 8f aa 3e 94 35 16 3e
       0.26457864 -0.49349135 0.33312896 0.14668876

network_body._body_endoder.seq_layers.0.bias f4 [128]
000000 00 00 00 00 00 00 00 00 00 00 00 00 00 00 00 00
       0.0 0.0 0.0 0.0
000010 00 00 00 00 00 00 00 00 00 00 00 00 00 00 00 00
       0.0 0.0 0.0 0.0
000020 00 00 00 00 00 00 00 00 00 00 00 00 00 00 00 00
       0.0 0.0 0.0 0.0
000030 00 00 00 00 00 00 00 00 00 00 00 00 00 00 00 00
       0.0 0.0 0.0 0.0
000040 00 00 00 00 00 00 00 00 00 00 00 00 00 00 00 00
       0.0 0.0 0.0 0.0
000050 00 00 00 00 00 00 00 00 00 00 00 00 00 00 00 00
       0.0 0.0 0.0 0.0
000060 00 00 00 00 00 00 00 00 00 00 00 00 00 00 00 00
       0.0 0.0 0.0 0.0
000070 00 00 00 00 00 00 00 00 00 00 00 00 00 00 00 00
       0.0 0.0 0.0 0.0
000080 00 00 00 00 00 00 00 00 00 00 00 00 00 00 00 00
       0.0 0.0 0.0 0.0
000090 00 00 00 00 00 00 00 00 00 00 00 00 00 00 00 00
       0.0 0.0 0.0 0.0
0000a0 00 00 00 00 00 00 00 00 00 00 00 00 00 00 00 00
       0.0 0.0 0.0 0.0
0000b0 00 00 00 00 00 00 00 00 00 00 00 00 00 00 00 00
       0.0 0.0 0.0 0.0
0000c0 00 00 00 00 00 00 00 00 00 00 00 00 00 00 00 00
       0.0 0.0 0.0 0.0
0000d0 00 00 00 00 00 00 00 00 00 00 00 00 00 00 00 00
       0.0 0.0 0.0 0.0
0000e0 00 00 00 00 00 00 00 00 00 00 00 00 00 00 00 00
       0.0 0.0 0.0 0.0
0000f0 00 00 00 00 00 00 00 00 00 00 00 00 00 00 00 00
       0.0 0.0 0.0 0.0
000100 00 00 00 00 00 00 00 00 00 00 00 00 00 00 00 00
       0.0 0.0 0.0 0.0
000110 00 00 00 00 00 00 00 00 00 00 00 00 00 00 00 00
       0.0 0.0 0.0 0.0
000120 00 00 00 00 00 00 00 00 00 00 00 00 00 00 00 00
       0.0 0.0 0.0 0.0
000130 00 00 00 00 00 00 00 00 00 00 00 00 00 00 00 00
       0.0 0.0 0.0 0.0
000140 00 00 00 00 00 00 00 00 00 00 00 00 00 00 00 00
       0.0 0.0 0.0 0.0
000150 00 00 00 00 00 00 00 00 00 00 00 00 00 00 00 00
       0.0 0.0 0.0 0.0
000160 00 00 00 00 00 00 00 00 00 00 00 00 00 00 00 00
       0.0 0.0 0.0 0.0
000170 00 00 00 00 00 00 00 00 00 00 00 00 00 00 00 00
       0.0 0.0 0.0 0.0
000180 00 00 00 00 00 00 00 00 00 00 00 00 00 00 00 00
       0.0 0.0 0.0 0.0
000190 00 00 00 00 00 00 00 00 00 00 00 00 00 00 00 00
       0.0 0.0 0.0 0.0
0001a0 00 00 00 00 00 00 00 00 00 00 00 00 00 00 00 00
       0.0 0.0 0.0 0.0
0001b0 00 00 00 00 00 00 00 00 00 00 00 00 00 00 00 00
       0.0 0.0 0.0 0.0
0001c0 00 00 00 00 00 00 00 00 00 00 00 00 00 00 00 00
       0.0 0.0 0.0 0.0
0001d0 00 00 00 00 00 00 00 00 00 00 00 00 00 00 00 00
       0.0 0.0 0.0 0.0
0001e0 00 00 00 00 00 00 00 00 00 00 00 00 00 00 00 00
       0.0 0.0 0.0 0.0
0001f0 00 00 00 00 00 00 00 00 00 00 00 00 00 00 00 00
       0.0 0.0 0.0 0.0

network_body._body_endoder.seq_layers.2.weight f4 [128, 128]
000000 dc bb 15 bd 16 b6 48 bd 85 a1 41 bd fb 2e 9e 3b
       -0.03655611 -0.049001776 -0.047273178 0.004827378
000010 96 a6 04 3d ed 17 88 3d ac be 18 3e 17 71 a1 3c
       0.03238543 0.066451885 0.14916486 0.019707246
000020 04 91 83 3d 75 07 b1 3c 25 81 8e bd da 27 ee bd
       0.06424144 0.021610001 -0.06958226 -0.11628695
000030 7a 75 d7 bd fc b6 91 bd 83 c1 b4 bd ec fb 05 3c
       -0.10520454 -0.071149796 -0.08825972 0.008177739
000040 3e 75 5d 3d 23 17 26 be b9 91 ee 3c 8d 34 fe 3d
       0.05406689 -0.16219763 0.02912222 0.12412367
000050 bc 52 ed bd 61 3d 04 3e bf b7 5e bd 03 a4 cf bd
       -0.11588046 0.12914039 -0.054374453 -0.10138705
000060 78 cf 36 be d2 5a 90 3d db 4c b0 bd b4 70 e6 3d
       -0.1785258 0.070485726 -0.08608409 0.11251965
000070 7f ce 83 3d f9 25 74 be 1e ec ec 3d 16 45 9f 3b
       0.064358704 -0.2384261 0.11568473 0.0048605306
000080 7a 03 86 bd ef 39 d2 bd 08 0a af bc 07 4c 08 bd
       -0.06543632 -0.10264956 -0.021367088 -0.03327563
000090 2a 81 23 3a 1c ed 65 be fa dd 32 3e 39 77 11 3e
       0.00062372035 -0.22453731 0.1746749 0.14205636
0000a0 b3 99 07 bd c8 4e 8c 3d c8 94 09 be e9 78 8e 3d
       -0.033105563 0.06850964 -0.13435662 0.069566555
0000b0 8b 44 e6 bd 69 80 e1 3d 7d f4 2f 3e 16 a2 30 3d
       -0.11243542 0.110108204 0.17183109 0.043123327
0000c0 77 f7 8f ba 93 f0 07 bc 68 66 c4 3d 4c 1b 50 3d
       -0.0010983784 -0.008297103 0.09589845 0.050807282
0000d0 09 93 16 3d e0 a3 84 bd ea 33 08 3e 1a 44 15 3e
       0.036761317 -0.06476569 0.13301054 0.1457676
0000e0 57 87 2a bd 50 b7 03 3e ca aa f9 bd 25 ca 47 3d
       -0.041632976 0.12862897 -0.121907786 0.048776764
0000f0 74 e0 b8 bc 0a d3 a1 bd 59 7f 91 3d 07 85 55 be
       -0.022567965 -0.07901581 0.07104368 -0.20851527
000100 68 8f b9 3c a8 42 1e bd 15 21 e4 3c d8 92 ec bb
       0.02265139 -0.038637787 0.027847806 -0.0072196536
000110 12 c2 26 bd 44 46 d7 3d 5c 1a d5 bc 13 db 34 bd
       -0.040712424 0.10511449 -0.026013546 -0.044154238
000120 9b 73 0f be b3 a8 41 be 2c 23 5f 3d ca 59 0b 3e
       -0.14008944 -0.1891201 0.054476902 0.1360847
000130 e7 da 3c 3d 47 91 22 bc c1 58 a3 3d bd 0f d8 3d
       0.0461072 -0.009922332 0.07975913 0.10549877
000140 3b cd 02 be 93 07 97 3c d9 cb 7d 3d 73 8d 03 3e
       -0.12773602 0.018436229 0.061961982 0.12846927
000150 73 7e 61 bd 58 e4 00 3e 8b ea 88 3d a8 5a 20 3d
       -0.055052232 0.12587106 0.066853605 0.039148957
000160 2f 40 a3 3c f5 6e d5 bd 03 7d c7 bd a8 e9 53 3d
       0.019928066 -0.10421554 -0.09740641 0.051736504
000170 ee 02 3a bd 4e a4 91 bd ee fc 7a bc 02 53 a8 3c
       -0.04541295 -0.07111417 -0.015319092 0.020547394
000180 7a d4 bf bd 3b 7e dc 3d ac 36 69 3d 66 e0 41 bd
       -0.093666986 0.10766264 0.056936905 -0.047333144
000190 c5 f0 36 be 72 16 f1 3a 93 63 10 be 56 1f 59 3d
       -0.17865284 0.001839353 -0.14100485 0.0530084
0001a0 23 4b 84 3d 2c 74 f5 3d 34 bf 58 3c 3c 9c 00 be
       0.06459644 0.11985049 0.01322918 -0.12559599
0001b0 16 ef 86 3c e9 a7 cc bd 99 63 00 3e 0a ae e3 3d
       0.016471427 -0.09992964 0.12537993 0.1111718
0001c0 dc fb 27 3d 84 8a 4f 3d 31 4d dc bd 15 e7 e9 bd
       0.041011676 0.05066921 -0.107569106 -0.114210285
0001d0 f8 19 12 3e d8 ef 1c be e2 87 87 3d 2e 9b 54 bd
       0.14267719 -0.15325868 0.066177145 -0.051905803
0001e0 05 fd fe bd 75 ef e1 bb e9 60 47 bd 68 65 03 be
       -0.124506034 -0.0068950006 -0.048676405 -0.12831652
0001f0 25 56 c3 bc 0a eb d2 bd 47 96 bd bd 93 66 bc 3d
       -0.023844788 -0.102987364 -0.09257179 0.09199252
000200 27 9e bd 3c 7a d1 62 bd c0 9b 93 bc b3 05 02 3d
       0.023146702 -0.055375554 -0.018018603 0.031743716
000210 67 d9 3c bd a1 4c 9d bd c4 d0 41 3e ef e7 d9 3d
       -0.04610577 -0.076806314 0.18927294 0.10639941
000220 5c ed 5e 3e f7 3c 72 3e d5 69 2e bc 8f b4 d3 3d
       0.21770233 0.23656069 -0.0106453495 0.10337173
000230 da ce cb 3c ea 43 1a 3c b1 35 a7 3b 46 6f a2 3a
       0.024878908 0.009415606 0.005102836 0.0012392781
000240 5f 1a a9 bc b0 7e de bd 93 4d 40 bd 36 26 2e bd
       -0.020642458 -0.108640075 -0.04694898 -0.04251691
000250 d8 54 e1 bd 99 5b b9 bc 47 32 80 3d 92 f5 a6 3d
       -0.11002511 -0.022626685 0.0625959 0.081523076
000260 95 bd 1e be db 2b 71 bd 19 47 3b 3c 5a f4 89 3b
       -0.15502007 -0.058879714 0.011430525 0.004210037
000270 3a 3c e6 bd 25 07 d4 3d ef 52 95 bd eb 42 78 bd
       -0.11241956 0.10352925 -0.07291209 -0.060610693
000280 42 3a de bd f8 3a e6 bd cb 9f 21 3d ee 64 bd bc
       -0.108509555 -0.11241716 0.03945903 -0.023119416
000290 2f 4a b2 3d cf 95 1e bd ac bc bb 3d 10 cf 67 bd
       0.08705556 -0.038717087 0.09166846 -0.056593955
0002a0 f2 9d dd 3d db 4e 67 bc 3e d6 1e 3a 85 d5 b6 3c
       0.10821141 -0.014117922 0.0006059146 0.02231861
0002b0 d6 22 08 be 00 96 5e 3c 0d 51 95 bd fb 33 da 3d
       -0.13294539 0.0135855675 -0.0729085 0.10654446
0002c0 3d dc e5 3d 9c 5e b5 bc b5 ea 3b 3e d4 85 8d bd
       0.11223648 -0.02213984 0.18351252 -0.06910291
0002d0 1e 8c ef bc 8f fe d3 ba 29 43 1f bd b1 d7 f5 3d
       -0.029241618 -0.0016173887 -0.03888241 0.120040305
0002e0 62 8a b3 bd fa 5a b1 bd 51 22 49 bd bf 43 23 bd
       -0.08766629 -0.086599305 -0.049104992 -0.03985953
0002f0 82 28 fb 3c 3b 6f 4f be c2 c9 50 3e 15 88 1e 3d
       0.030658964 -0.20257275 0.20389464 0.038703997
000300 0b 8b 9c bd 7f 76 f9 bd 80 35 34 3d 3a 0c 90 3d
       -0.07643708 -0.121808045 0.043996334 0.07033582
000310 11 c5 ec bc 41 ea 7d 3d 22 d0 80 bc b1 27 de bd
       -0.028902562 0.06199098 -0.015724245 -0.10847414
000320 17 50 30 bd 1a 2b 74 3e 0e c5 d7 bd 7c 69 a4 3d
       -0.04304513 0.23844567 -0.10535632 0.08027932
000330 73 bf 09 3e fa 8c ec 3c 4f 65 f1 3c 79 05 69 3d
       0.13451938 0.028875817 0.029467253 0.056889985
000340 4b e8 e8 3b 9e 91 8e bd 95 39 14 3e 34 79 4a 3c
       0.0071077696 -0.06961368 0.14475091 0.012357999
000350 3b 5b 29 3e 5b 1b 0f 3e db 5f b3 bc 8d 14 1f 3d
       0.16538708 0.13975279 -0.021896293 0.038837958
000360 2d 05 86 bc 78 60 ac bc 53 11 e1 bc 09 33 4c 3d
       -0.01635989 -0.021042094 -0.027474081 0.04985336
000370 0d cf f3 bd 53 d6 9a bd 0e 8a aa 3d e4 64 d2 bd
       -0.11904726 -0.0756041 0.08327113 -0.102731496
000380 10 35 e5 bb 09 61 07 be 55 40 a3 bd ff 6a 98 3d
       -0.006994851 -0.1322061 -0.07971255 0.07442283
000390 1c 4d cb bd 11 07 02 3d 56 a3 f4 3d ba 66 8a 3c
       -0.09926817 0.03174502 0.11945216 0.016894687
0003a0 ab ce 23 3a 28 8a a0 3c 5e a9 7c 3d 15 88 13 3d
       0.00062487525 0.019597128 0.06168496 0.03601845
0003b0 f5 4a 02 3d af 4f 3e 3d 7b 2a 0e 3e b3 41 29 3d
       0.031809766 0.04646271 0.13883393 0.04132242
0003c0 22 33 ca bd b2 e1 bb bd e8 b2 c1 3c 3e 9c 92 3d
       -0.09873034 -0.09173907 0.02364488 0.07158707
0003d0 33 b9 4b bd b3 ad 0f bd 96 10 e8 3c de 56 7b 3d
       -0.049737167 -0.03507776 0.028328221 0.06136214
0003e0 85 0e d2 bd f9 fb 8d 3d 22 f1 03 3e 5d 78 00 3d
       -0.10256676 0.069328256 0.12884954 0.031364787
0003f0 a3 f4 1a bd 81 b8 10 3d a8 bd 68 3d f8 58 5b be
       -0.03783096 0.035332207 0.056821495 -0.21420658

network_body._body_endoder.seq_layers.2.bias f4 [128]
000000 00 00 00 00 00 00 00 00 00 00 00 00 00 00 00 00
       0.0 0.0 0.0 0.0
000010 00 00 00 00 00 00 00 00 00 00 00 00 00 00 00 00
       0.0 0.0 0.0 0.0
000020 00 00 00 00 00 00 00 00 00 00 00 00 00 00 00 00
       0.0 0.0 0.0 0.0
000030 00 00 00 00 00 00 00 00 00 00 00 00 00 00 00 00
       0.0 0.0 0.0 0.0
000040 00 00 00 00 00 00 00 00 00 00 00 00 00 00 00 00
       0.0 0.0 0.0 0.0
000050 00 00 00 00 00 00 00 00 00 00 00 00 00 00 00 00
       0.0 0.0 0.0 0.0
000060 00 00 00 00 00 00 00 00 00 00 00 00 00 00 00 00
       0.0 0.0 0.0 0.0
000070 00 00 00 00 00 00 00 00 00 00 00 00 00 00 00 00
       0.0 0.0 0.0 0.0
000080 00 00 00 00 00 00 00 00 00 00 00 00 00 00 00 00
       0.0 0.0 0.0 0.0
000090 00 00 00 00 00 00 00 00 00 00 00 00 00 00 00 00
       0.0 0.0 0.0 0.0
0000a0 00 00 00 00 00 00 00 00 00 00 00 00 00 00 00 00
       0.0 0.0 0.0 0.0
0000b0 00 00 00 00 00 00 00 00 00 00 00 00 00 00 00 00
       0.0 0.0 0.0 0.0
0000c0 00 00 00 00 00 00 00 00 00 00 00 00 00 00 00 00
       0.0 0.0 0.0 0.0
0000d0 00 00 00 00 00 00 00 00 00 00 00 00 00 00 00 00
       0.0 0.0 0.0 0.0
0000e0 00 00 00 00 00 00 00 00 00 00 00 00 00 00 00 00
       0.0 0.0 0.0 0.0
0000f0 00 00 00 00 00 00 00 00 00 00 00 00 00 00 00 00
       0.0 0.0 0.0 0.0
000100 00 00 00 00 00 00 00 00 00 00 00 00 00 00 00 00
       0.0 0.0 0.0 0.0
000110 00 00 00 00 00 00 00 00 00 00 00 00 00 00 00 00
       0.0 0.0 0.0 0.0
000120 00 00 00 00 00 00 00 00 00 00 00 00 00 00 00 00
       0.0 0.0 0.0 0.0
000130 00 00 00 00 00 00 00 00 00 00 00 00 00 00 00 00
       0.0 0.0 0.0 0.0
000140 00 00 00 00 00 00 00 00 00 00 00 00 00 00 00 00
       0.0 0.0 0.0 0.0
000150 00 00 00 00 00 00 00 00 00 00 00 00 00 00 00 00
       0.0 0.0 0.0 0.0
000160 00 00 00 00 00 00 00 00 00 00 00 00 00 00 00 00
       0.0 0.0 0.0 0.0
000170 00 00 00 00 00 00 00 00 00 00 00 00 00 00 00 00
       0.0 0.0 0.0 0.0
000180 00 00 00 00 00 00 00 00 00 00 00 00 00 00 00 00
       0.0 0.0 0.0 0.0
000190 00 00 00 00 00 00 00 00 00 00 00 00 00 00 00 00
       0.0 0.0 0.0 0.0
0001a0 00 00 00 00 00 00 00 00 00 00 00 00 00 00 00 00
       0.0 0.0 0.0 0.0
0001b0 00 00 00 00 00 00 00 00 00 00 00 00 00 00 00 00
       0.0 0.0 0.0 0.0
0001c0 00 00 00 00 00 00 00 00 00 00 00 00 00 00 00 00
       0.0 0.0 0.0 0.0
0001d0 00 00 00 00 00 00 00 00 00 00 00 00 00 00 00 00
       0.0 0.0 0.0 0.0
0001e0 00 00 00 00 00 00 00 00 00 00 00 00 00 00 00 00
       0.0 0.0 0.0 0.0
0001f0 00 00 00 00 00 00 00 00 00 00 00 00 00 00 00 00
       0.0 0.0 0.0 0.0

action_model._discrete_distribution.branches.0.weight f4 [2, 128]
000000 e0 4d ad bb 08 06 fd b8 f7 d1 40 3b 93 20 cb bb
       -0.0052888244 -0.000120651035 0.0029422024 -0.0061989515
000010 6f 7d 6d 3c e8 5f 93 bb 4f 58 69 bc 21 b1 32 bb
       0.014495238 -0.004497517 -0.014242246 -0.0027266222
000020 85 e1 e6 bb 0f 5f 28 3b 93 ef 28 3c 92 a3 b8 bb
       -0.007045927 0.0025691425 0.010311025 -0.0056347335
000030 92 14 45 3b ea ab 65 bc 9e ea 4b bc 17 ad 2e bc
       0.0030072075 -0.014018038 -0.012446074 -0.010661385
000040 62 b2 2f bc 08 8a aa 3a db f9 1b bc 76 9d 99 3b
       -0.010723682 0.0013011107 -0.009520019 0.0046879603
000050 0f 9f dc bb f4 5a ad 3b f2 4b be 3b 38 60 e4 3b
       -0.0067328284 0.0052903835 0.005807393 0.006969478
000060 d5 09 c2 3a f6 7b a1 3b e3 ac 86 3b 16 f3 88 3c
       0.0014803956 0.0049281074 0.004109965 0.016717475
000070 a3 d6 76 bc 00 86 96 ba 59 38 1b bc 2a ce ba bc
       -0.015065822 -0.0011484027 -0.009473884 -0.022803385
000080 c2 e8 76 3b 97 84 15 3b 97 31 94 bc 90 34 12 bc
       0.0037675356 0.0022814625 -0.018090053 -0.008923665
000090 48 30 5a ba 5f 30 81 3c c7 85 d2 3a 94 0d 87 3a
       -0.00083232345 0.015770135 0.0016061597 0.0010303729
0000a0 aa 1d 1f bb 8b 72 a3 3c 51 a5 22 3c 95 29 3f 3b
       -0.0024279156 0.01995208 0.00992711 0.0029169072
0000b0 1a 4a d7 3b 3a 85 41 bc b3 b9 48 3b 14 75 04 3c
       0.006570113 -0.011811549 0.0030628263 0.008084554
0000c0 8c 37 49 3c 65 62 b6 3b 47 5b 56 39 f3 2f 9f 3a
       0.01228131 0.0055659288 0.00020442634 0.0012145027
0000d0 8f 23 97 3b 2a 49 ed ba 63 77 50 3a 85 71 64 3c
       0.004612393 -0.001810347 0.00079523603 0.013943081
0000e0 e1 fc 1c 3b 43 bd 2c 3c 53 d3 e2 bb 70 e9 40 3b
       0.0023954439 0.01054317 -0.0069221645 0.0029436015
0000f0 77 2a 7d ba cd 31 14 3c 56 12 8b bb 80 d6 4e 37
       -0.0009657512 0.009045077 -0.004244129 1.2328499e-05
000100 14 da 23 bc ff 47 98 bc a4 48 3b 3b b3 9e 87 3b
       -0.010000724 -0.018589018 0.0028577233 0.0041387915
000110 9c 6a 86 3b 07 ce b4 3a 51 36 05 bc da cc 24 3c
       0.0041020643 0.0013794311 -0.008130626 0.010058606
000120 bf 57 cf bb d7 be 9a ba cb c8 32 bc d3 58 b6 3b
       -0.006327599 -0.0011806142 -0.010912131 0.005564788
000130 83 72 25 bb c3 48 a1 3c f3 17 2b 3c cc 34 1b bc
       -0.0025245256 0.019688016 0.010442722 -0.009473037
000140 fe ce 2d 3c 6b ad 1e bb ea 85 1a bb cb 28 8d bb
       0.010608433 -0.0024212252 -0.0023578354 -0.0043078414
000150 03 82 40 bc 0d c6 8e 3c fb 4e 37 bc 06 9a 37 bc
       -0.011749747 0.017428422 -0.011188264 -0.011206156
000160 63 ed 7b bb 1a f0 2e bc 2d a5 f7 3a c5 db 7e 3c
       -0.0038441054 -0.010677362 0.0018893831 0.015555327
000170 cd 35 4f b9 af 84 fb 3b ea 79 b6 3c a2 5b 15 bc
       -0.000197611 0.007675729 0.02227493 -0.009116085
000180 d8 f6 3c ba c0 da 3b bc 19 70 a5 3a e8 17 04 ba
       -0.00072084134 -0.011465728 0.0012621909 -0.00050389627
000190 20 c6 28 bc 52 a3 22 bc 7b 5d 07 3c 66 92 1a 3c
       -0.010301143 -0.009926634 0.008262034 0.009434318
0001a0 a2 17 90 3b f5 b8 19 bc 67 5f 3c 3c f7 a7 98 bc
       0.0043973485 -0.009382476 0.011497355 -0.01863478
0001b0 a3 74 fc bb 4d 02 df ba 0a 05 d5 39 99 11 ac 3b
       -0.007704334 -0.0017014235 0.0004063028 0.0052511212
0001c0 a9 da 86 38 80 56 c7 bb 7e 74 37 3c 10 9e 80 bb
       6.4303465e-05 -0.0060833097 0.0111972075 -0.0039250925
0001d0 f2 92 c1 3b 31 75 2a 3c a0 7e 5f bc ec 97 40 bc
       0.00590741 0.010403917 -0.01364103 -0.011754971
0001e0 0f 35 8a bc 8e 4b 3d 3c c8 b1 34 bc 7c 17 2c bc
       -0.016871003 0.011553658 -0.0110287145 -0.010503646
0001f0 eb b6 ed 3b bf e8 24 3b b7 4e 27 3c 7e da 25 bc
       0.0072544715 0.0025163142 0.010211638 -0.010122893
000200 9f e5 8a 3c 57 45 64 bb f8 7b 34 39 28 ab 54 3c
       0.016955195 -0.0034831369 0.0001721232 0.01298026
000210 88 3d 69 3b 37 dc 8f bc 57 68 88 ba 2b 56 b4 bb
       0.0035589654 -0.017561061 -0.0010407072 -0.005503436
000220 48 8e e1 bb f8 37 e2 bb 0f f7 99 bb 28 71 8a bb
       -0.0068834163 -0.0069036447 -0.004698641 -0.004224915
000230 6c e6 4b bc 05 b4 3d 3a f8 7a 63 bc 3a 8e cd bb
       -0.012445074 0.0007236603 -0.0138842985 -0.0062730582
000240 af 75 33 b9 c6 ee a6 bb e3 a1 ee bc 3f e4 83 3c
       -0.00017114611 -0.005094382 -0.029129928 0.016100047
000250 3f 2d 0b 3c 72 4c 60 ba d3 a9 b4 3b 98 e9 2e 3c
       0.008494674 -0.0008556313 0.0055134087 0.01067581
000260 31 f6 41 3b 4a 5a 01 bc 97 e4 93 bb c7 6a 19 3c
       0.0029596204 -0.007895062 -0.004513334 0.009363837
000270 40 75 f3 bb 19 c6 94 ba 52 2f f1 39 0e 0e b0 bb
       -0.007429749 -0.0011350542 0.00046002358 -0.005372769
000280 57 af 64 bc 3e 59 b5 bb 7a 47 ca bb 50 ff d4 3a
       -0.01395782 -0.00553432 -0.0061730715 0.0016250405
000290 6f 67 d1 bb 90 d2 4c 3b 02 bf 5d 3c 53 6b 58 36
       -0.006390504 0.0031253435 0.013534309 3.224898e-06
0002a0 1a be 4d ba 0b ea 1d 3c ef 0d aa bb 9a 8e d3 bc
       -0.0007848457 0.00963832 -0.0051896493 -0.025824834
0002b0 ef 23 d9 39 79 64 8a 3b a7 7e e8 bb 05 c8 d3 bb
       0.00041416238 0.004223403 -0.0070951763 -0.006463053
0002c0 2f 01 6a bc 51 14 87 3c d0 9b b3 b9 1b c7 de bb
       -0.014282509 0.01648918 -0.0003425763 -0.0067986376
0002d0 de 6e b3 3c 35 ef 1d bb e8 f7 52 bb c0 ba c1 bb
       0.021903452 -0.0024098877 -0.003219122 -0.005912155
0002e0 37 14 0a bc 73 05 09 3c bd 89 8e 39 80 8d 85 3c
       -0.008427671 0.008363116 0.00027186974 0.016302824
0002f0 42 dd 16 3c 6f 1f e2 3b 5a 7e 8d 3b 50 c0 7f 3a
       0.009208025 0.00690072 0.004318041 0.0009756135
000300 19 b5 0d bc e0 95 89 b9 a7 bf 29 bc f2 e8 98 bb
       -0.008649134 -0.00026242342 -0.010360635 -0.004666441
000310 6b 7c 26 bc 93 88 4c bc d5 a8 50 ba 17 41 2a bc
       -0.0101614995 -0.012483734 -0.0007959728 -0.010391495
000320 48 5d 00 bc f9 d4 36 3c 6f c0 00 3b 18 6f 35 bb
       -0.00783474 0.011159175 0.001964595 -0.0027684625
000330 07 71 59 bb 5b 80 7d 3c a2 cf ac ba 30 40 13 3c
       -0.0033178942 0.015472497 -0.0013184438 0.008987471
000340 68 35 9d bb ea 8b 64 bc d6 ac 1b 3c 05 65 54 3b
       -0.0047976263 -0.013949374 0.0095016565 0.0032408845
000350 cd c4 6f bb 67 c3 4b bc af 7b ab bc 45 51 5e bc
       -0.0036585808 -0.012436724 -0.020933 -0.013569181
000360 b4 ce 16 bb 1d 04 86 3b fa 1c 22 3c 92 07 aa 39
       -0.0023011388 0.004089846 0.009894604 0.00032430567
000370 0b b5 3c bb ea 39 fd 3b 35 73 77 3c d0 72 b3 ba
       -0.0028794433 0.007727851 0.015103151 -0.0013690833
000380 bf 7a 92 3b 53 32 7a 3c da b5 03 bb d2 0e 2a bc
       0.004470199 0.015270787 -0.0020097406 -0.01037951
000390 60 a7 da bb bb e1 c4 3c a8 70 3d bc 4f 18 31 bc
       -0.0066727847 0.024033418 -0.011562504 -0.010809018
0003a0 50 21 79 bc e2 e1 ed 3c 1d b2 74 3b f7 36 28 3c
       -0.015205696 0.029038373 0.003733761 0.010267011
0003b0 55 7d 6f 3b 44 58 a5 3b b5 00 dc bb 5a f7 4a 3b
       0.003654321 0.0050459225 -0.0067139515 0.0030970187
0003c0 6d e2 e2 bb 3c 36 1a bc 97 bb 70 bb 5f e3 8c 3b
       -0.0069239647 -0.009412345 -0.0036732906 0.0042995657
0003d0 fb 35 b3 38 63 84 30 3b 80 09 31 3b e1 12 82 bc
       8.54544e-05 0.0026934377 0.002701372 -0.015878143
0003e0 4c 66 a2 3c 82 7e b2 bc 67 1c 3a 3c fe fc ae 3b
       0.01982417 -0.02178884 0.011359311 0.0053402176
0003f0 50 d9 ea bb 8b 3d a9 3a 63 02 33 3c d7 1f 76 bc
       -0.007167019 0.0012912018 0.010925862 -0.01502224

action_model._discrete_distribution.branches.0.bias f4 [2]
000000 00 00 00 00 00 00 00 00
       0.0 0.0

network_body._body_endoder.seq_layers.0.weight f4 [128, 5]
000000 95 bb 46 be 1e 56 1e bf f8 de 21 bf 7d 0a 33 3d
       -0.19407494 -0.61850154 -0.6323085 0.043711174
000010 08 e7 ab 3d d3 73 87 bd e4 51 46 3e 80 cf 3e 3e
       0.08393675 -0.066138886 0.19367176 0.18633842
000020 01 ca 23 bf 61 c3 9e bd 82 69 c1 3d 21 11 14 bf
       -0.6398011 -0.07752109 0.09443952 -0.57838637
000030 d8 ee 25 bf a3 be f0 bd 05 be 59 3e 7d eb 2d be
       -0.6481757 -0.11755111 0.21263893 -0.16984363
000040 ca e1 b0 be 80 ed bd bd 07 a6 05 3e a9 f4 23 3e
       -0.34547263 -0.09273815 0.13051616 0.16011299
000050 c2 34 1a bf bd eb 03 3f af f3 34 3e 73 30 0e bf
       -0.6023675 0.51531583 0.17671083 -0.5554268
000060 04 c6 06 be a6 e3 9f 3e e3 02 f9 3e 4e 08 25 3e
       -0.13161474 0.3122837 0.48635015 0.16116449
000070 60 c2 8a 3d 24 d7 3b 3e 4e f5 8c be 15 b7 13 3f
       0.06775355 0.18343788 -0.27530903 0.57701236
000080 f5 0f cd 3d 68 bc 58 bf 0a 37 af 3e 35 06 66 be
       0.10012809 -0.84662485 0.3422168 -0.22463305
000090 8b 76 be 3d 3d 3d bd 3e 84 f0 82 3d d4 40 7d 3e
       0.09299954 0.36960784 0.06393531 0.24731761
0000a0 84 f9 41 3e 83 16 10 3f 79 3a 64 3e 06 7a d6 3e
       0.18942839 0.5628435 0.2228793 0.41889971
0000b0 3e be 10 be ae bb 98 bd b1 e2 9e 3e f0 69 17 be
       -0.14135072 -0.07457672 0.31032327 -0.14786506
0000c0 02 80 66 be 6d ef 9e be 0c 97 a3 be 2e 05 69 3f
       -0.22509769 -0.31042042 -0.31951177 0.9102353
0000d0 12 a3 37 3e 46 f4 35 be b7 70 11 3f f4 af e4 3e
       0.179333 -0.17768964 0.56812614 0.44665492
0000e0 a5 ff 9c 3e c9 ca df 3e 5e 88 17 3e eb 24 96 be
       0.3066379 0.437094 0.14798114 -0.2932504
0000f0 87 f6 8e be 45 f9 27 bf e0 62 3b be a6 0c 44 bd
       -0.2792246 -0.6561473 -0.18299437 -0.047863625
000100 6d 82 0c bf 20 c4 86 3e 2d 5a 38 3e fc dc 93 bf
       -0.54886514 0.26321507 0.1800315 -1.1551814
000110 5b e0 58 be 87 16 b2 3f bc 03 e2 3e 1b d5 1f 3f
       -0.21179335 1.3913125 0.44143474 0.6243455
000120 46 79 71 bf 4e 16 87 3f 66 47 a9 be cf c3 a6 3e
       -0.94325674 1.0553682 -0.33062285 0.32571265
000130 41 c9 57 be f1 79 55 3d ba 47 0d 3e 0c 34 94 be
       -0.21072866 0.052118246 0.13796893 -0.2894596
000140 95 a5 e0 bd 65 3c 51 bf b7 d7 03 bf 11 93 8b 3e
       -0.10969082 -0.8173278 -0.5150103 0.2726064
000150 f4 a3 30 3d 8c 21 d2 bd 4e 2e 9f be 50 f4 2c bf
       0.043125108 -0.10260305 -0.31090015 -0.6756029
000160 da f4 b0 3d 25 6f 23 bf f9 73 cb be 78 78 88 bf
       0.08640452 -0.6384147 -0.39736918 -1.0661764
000170 b7 26 77 bf 99 c5 a9 3d 72 1f 06 bf 90 f5 9c be
       -0.9654345 0.08289642 -0.5239173 -0.306561
000180 79 1f 29 bf b4 22 09 bc 68 1b 43 3e a2 fb 96 be
       -0.6606365 -0.00837009 0.19053423 -0.29488856
000190 58 2e 76 be a2 28 c6 bd 64 8c 1c be 5a 3d 3a be
       -0.24041116 -0.09675719 -0.1528793 -0.18187466
0001a0 29 f8 19 3e 7f fa cf 3d 69 0c d9 3c 1b 73 a7 be
       0.15036072 0.101552 0.026495175 -0.32705006
0001b0 d5 20 b8 bd bd 68 86 be 81 a7 75 be 2c f7 3b bf
       -0.08990637 -0.26251784 -0.23989679 -0.7342403
0001c0 b6 95 53 3f 47 d8 b3 3d 61 4e 15 be 9c b2 3b bf
       0.82650316 0.08781486 -0.1458068 -0.7331941
0001d0 f5 ad bb 3f a6 13 60 be cf 66 1b 3f 29 b0 83 3d
       1.4662462 -0.21882495 0.6070375 0.06430084
0001e0 9b 3d eb 3e df 8c e0 be cb 40 72 be 3a ba fe 3e
       0.4594544 -0.43857476 -0.23657529 0.49751455
0001f0 6b 10 33 bf d5 fe 15 3f a5 cd 8e be 84 af e5 b8
       -0.69946927 0.5859197 -0.2789127 -0.00010952263
000200 f2 dc e9 3e d5 ab f0 3d 96 a1 4f be 8d 10 33 be
       0.4567638 0.11751524 -0.20276484 -0.17486782
000210 01 78 e8 3e 47 e7 ef 3e 47 1d 11 be a4 cd 9f 3f
       0.45404056 0.46856138 -0.14171325 1.2484632
000220 b9 75 7d 3d 9d f1 71 3e 25 7f 8d bc 9e 75 5f 3f
       0.061879847 0.23627324 -0.017272541 0.87288845
000230 49 38 f3 be bf 4e bf 3d 5b be bf bd 05 14 88 3d
       -0.4750388 0.093411915 -0.09362479 0.066444434
000240 02 5e 60 3e e1 bf 14 bf c3 96 a1 be f9 53 9d 3f
       0.21910861 -0.58105284 -0.31560335 1.2291251
000250 d9 a2 64 bf d3 35 1c 3e ae 38 0c bf 61 64 93 be
       -0.89310986 0.15254907 -0.54773986 -0.2878752
000260 c1 95 3c 3f ef 57 96 3e bd 71 51 3f 2d 34 30 3f
       0.73666006 0.29363963 0.81814176 0.68829614
000270 f1 34 84 3e 63 51 72 3f 2a 08 52 3f e8 c6 9e 3f
       0.2582164 0.94655436 0.8204371 1.2404451
000280 70 69 bf bd ab ca 90 be 4d 06 9b be e3 89 7f 3f
       -0.093462825 -0.28279623 -0.30278245 0.99819773
000290 57 37 73 3e a9 78 05 bf 6c 4b 88 3e 44 5a 13 bf
       0.23751579 -0.5213724 0.26620042 -0.5755961
0002a0 b5 1d 67 3d 2f ce 22 3e d4 9e 22 be 38 ae 2a 3f
       0.056424815 0.15898965 -0.158809 0.66672087
0002b0 0a 5d 70 3f 26 23 0d bf 9b 5f cb bd f8 3a 31 3f
       0.93891966 -0.5513176 -0.09930345 0.69230604
0002c0 2e df 36 3e 58 0a e7 3e 10 eb bd bb 48 ed bf 3b
       0.17858574 0.4512508 -0.005795844 0.0058571436
0002d0 21 74 41 3d 4b 01 9c be 0e e9 e5 be 33 a1 15 bd
       0.04722989 -0.30469736 -0.4490437 -0.036530685
0002e0 f6 c0 f6 3e e4 56 29 bf 3d 94 e1 3e 86 59 eb 3d
       0.48194093 -0.6614821 0.4405841 0.114916846
0002f0 a1 90 8f 3e 61 36 c6 3d b7 45 d9 3e f4 e1 1b bf
       0.2804003 0.09678341 0.42436 -0.6089165
000300 c7 6e 8e bb 0b 68 f3 3e 47 93 ce 3d ad fd 74 3e
       -0.004346702 0.47540316 0.10086685 0.23924895
000310 e7 b1 e2 3d 9e 2b 31 3f dd 29 46 bf b4 43 82 be
       0.110690884 0.6920718 -0.7740763 -0.25442278
000320 9b e1 66 3d 63 88 c3 3e 31 6f 19 bf 48 81 61 be
       0.056367498 0.38189992 -0.5993529 -0.22021973
000330 7c e4 dd be 04 2c f0 3d 06 34 ab 3e 8f 5b 81 3e
       -0.43338382 0.11727145 0.33438128 0.25265166
000340 52 88 dc be 85 29 64 3e dc ed 07 bf b2 11 82 be
       -0.43072754 0.22281463 -0.5309732 -0.25404125
000350 6b 84 ee 3e 14 a6 87 3d 3d 67 69 3f 32 d6 8f 3e
       0.46585402 0.06623474 0.91173154 0.28093106
000360 5f c9 1f 3e 3c f1 77 be 81 a4 39 bf f4 e1 ed 3e
       0.1560416 -0.24213117 -0.7251664 0.4646145
000370 80 79 14 bf a4 01 b8 3e ca d1 58 be 07 1d 84 be
       -0.57997894 0.35938752 -0.21173778 -0.25803396
000380 cc 26 2a bf 0f 10 49 3f c1 b7 67 3f 8a 3e 3b bd
       -0.6646545 0.7854013 0.9051476 -0.04571394
000390 8f 8b 0f 3f 0e 6f c1 be e5 ca 5e be 5c 10 c3 3f
       0.56072325 -0.3778004 -0.21757086 1.5239367
0003a0 dc ad 14 3e e8 83 de be 37 dd 40 3f f3 cf 58 be
       0.14519447 -0.4346001 0.7533755 -0.21173076
0003b0 14 fa 8a 3d 7a 1f ad be fd 83 0b bf 08 9e f0 3e
       0.0678598 -0.33813077 -0.54498273 0.46995568
0003c0 13 19 cd be ed 6d e1 be 5b ca 82 be 2e 56 d5 bd
       -0.40058193 -0.4402918 -0.2554501 -0.10416828
0003d0 3c c8 24 3e 42 3a 40 3f 16 15 d6 3e 2e 63 d5 3e
       0.16092008 0.75088894 0.41812962 0.4167723
0003e0 d4 dd d8 3e 6e 1d 0d 3f 4b 8d 06 3d 76 91 b2 3e
       0.4235674 0.5512303 0.03284959 0.34876603
0003f0 b2 e7 c0 be 55 98 df 3d 5a 66 03 3f 74 04 2e 3e
       -0.3767677 0.10917727 0.5132805 0.16993886

network_body._body_endoder.seq_layers.0.bias f4 [128]
000000 00 00 00 00 00 00 00 00 00 00 00 00 00 00 00 00
       0.0 0.0 0.0 0.0
000010 00 00 00 00 00 00 00 00 00 00 00 00 00 00 00 00
       0.0 0.0 0.0 0.0
000020 00 00 00 00 00 00 00 00 00 00 00 00 00 00 00 00
       0.0 0.0 0.0 0.0
000030 00 00 00 00 00 00 00 00 00 00 00 00 00 00 00 00
       0.0 0.0 0.0 0.0
000040 00 00 00 00 00 00 00 00 00 00 00 00 00 00 00 00
       0.0 0.0 0.0 0.0
000050 00 00 00 00 00 00 00 00 00 00 00 00 00 00 00 00
       0.0 0.0 0.0 0.0
000060 00 00 00 00 00 00 00 00 00 00 00 00 00 00 00 00
       0.0 0.0 0.0 0.0
000070 00 00 00 00 00 00 00 00 00 00 00 00 00 00 00 00
       0.0 0.0 0.0 0.0
000080 00 00 00 00 00 00 00 00 00 00 00 00 00 00 00 00
       0.0 0.0 0.0 0.0
000090 00 00 00 00 00 00 00 00 00 00 00 00 00 00 00 00
       0.0 0.0 0.0 0.0
0000a0 00 00 00 00 00 00 00 00 00 00 00 00 00 00 00 00
       0.0 0.0 0.0 0.0
0000b0 00 00 00 00 00 00 00 00 00 00 00 00 00 00 00 00
       0.0 0.0 0.0 0.0
0000c0 00 00 00 00 00 00 00 00 00 00 00 00 00 00 00 00
       0.0 0.0 0.0 0.0
0000d0 00 00 00 00 00 00 00 00 00 00 00 00 00 00 00 00
       0.0 0.0 0.0 0.0
0000e0 00 00 00 00 00 00 00 00 00 00 00 00 00 00 00 00
       0.0 0.0 0.0 0.0
0000f0 00 00 00 00 00 00 00 00 00 00 00 00 00 00 00 00
       0.0 0.0 0.0 0.0
000100 00 00 00 00 00 00 00 00 00 00 00 00 00 00 00 00
       0.0 0.0 0.0 0.0
000110 00 00 00 00 00 00 00 00 00 00 00 00 00 00 00 00
       0.0 0.0 0.0 0.0
000120 00 00 00 00 00 00 00 00 00 00 00 00 00 00 00 00
       0.0 0.0 0.0 0.0
000130 00 00 00 00 00 00 00 00 00 00 00 00 00 00 00 00
       0.0 0.0 0.0 0.0
000140 00 00 00 00 00 00 00 00 00 00 00 00 00 00 00 00
       0.0 0.0 0.0 0.0
000150 00 00 00 00 00 00 00 00 00 00 00 00 00 00 00 00
       0.0 0.0 0.0 0.0
000160 00 00 00 00 00 00 00 00 00 00 00 00 00 00 00 00
       0.0 0.0 0.0 0.0
000170 00 00 00 00 00 00 00 00 00 00 00 00 00 00 00 00
       0.0 0.0 0.0 0.0
000180 00 00 00 00 00 00 00 00 00 00 00 00 00 00 00 00
       0.0 0.0 0.0 0.0
000190 00 00 00 00 00 00 00 00 00 00 00 00 00 00 00 00
       0.0 0.0 0.0 0.0
0001a0 00 00 00 00 00 00 00 00 00 00 00 00 00 00 00 00
       0.0 0.0 0.0 0.0
0001b0 00 00 00 00 00 00 00 00 00 00 00 00 00 00 00 00
       0.0 0.0 0.0 0.0
0001c0 00 00 00 00 00 00 00 00 00 00 00 00 00 00 00 00
       0.0 0.0 0.0 0.0
0001d0 00 00 00 00 00 00 00 00 00 00 00 00 00 00 00 00
       0.0 0.0 0.0 0.0
0001e0 00 00 00 00 00 00 00 00 00 00 00 00 00 00 00 00
       0.0 0.0 0.0 0.0
0001f0 00 00 00 00 00 00 00 00 00 00 00 00 00 00 00 00
       0.0 0.0 0.0 0.0

network_body._body_endoder.seq_layers.2.weight f4 [128, 128]
000000 35 86 47 3d dc d9 8f 3c 10 3f 94 bd 96 d6 f5 bc
       0.048711974 0.017559938 -0.07238591 -0.03000955
000010 e7 62 e5 3d c1 77 b2 bd 73 63 79 bd 8e 69 2d 3e
       0.11200505 -0.087142475 -0.060885858 0.16934797
000020 f6 7f 9d bd 46 72 e7 3c ff 7b b1 bc f2 9b b7 bd
       -0.07690422 0.028252732 -0.021665571 -0.08965291
000030 23 42 19 3d 64 9b 04 be bb 38 2d 3e 4a 05 e5 3c
       0.03741659 -0.12949902 0.16916172 0.027956624
000040 37 5c 84 3c 1b ca 64 bc 50 49 0a be 54 79 10 bd
       0.016157253 -0.013964201 -0.13504529 -0.035271958
000050 9a ff 7f 3d fe 2d 8a bd 8d 5e 59 3e 69 db 3b bd
       0.06249962 -0.067470536 0.21227475 -0.045863543
000060 15 14 fc bd a2 62 62 bd cd 69 92 3d b8 10 b1 ba
       -0.12308518 -0.055269845 0.07149086 -0.0013509011
000070 f6 9b 78 bd fe be d6 3d fa c7 c9 bd 93 79 e0 3d
       -0.06069561 0.104856476 -0.098525956 0.109606884
000080 62 eb f1 bb 4d 9f c5 3d f4 dd 0e bd b9 b8 7a bd
       -0.007382796 0.09649525 -0.03487964 -0.06121132
000090 59 02 b6 3d 48 a4 33 bd 2c 6a e8 bd 54 12 7c bc
       0.088871665 -0.043857843 -0.11348376 -0.015385229
0000a0 3a 01 9e 3d f0 e1 cf bc 61 e0 8d bd cf 64 a2 bd
       0.07715078 -0.02537629 -0.069275625 -0.07929384
0000b0 51 45 b6 3d c6 ec 3c 3e 77 ed df 3b 4c 1a 04 bd
       0.0889994 0.18449697 0.006833728 -0.03225164
0000c0 59 f8 23 be d8 3e 4e bd 47 4d 5c bd ca b1 97 3b
       -0.16012706 -0.0503529 -0.053784635 0.0046293484
0000d0 9a a5 33 3d 4d f9 10 be bc ad 32 bb 30 56 6c be
       0.0438591 -0.141576 -0.0027264198 -0.23079753
0000e0 16 0d 80 3c 2a ac 6e be 28 65 3b be 00 14 a8 3c
       0.01563124 -0.23307863 -0.18300307 0.02051735
0000f0 09 a2 e9 3c b2 09 37 bc d4 28 80 bd bd d1 c2 bd
       0.028519647 -0.011171745 -0.06257787 -0.09512661
000100 32 b7 95 bd e0 5a 80 3d b9 06 e0 bd ef e8 0f be
       -0.07310332 0.06267333 -0.10938782 -0.14053701
000110 9c 04 2e 3c db dc d3 3c 48 37 fa bc 1f 61 df 3b
       0.010621216 0.025862148 -0.030543938 0.0068169977
000120 9f b4 88 bc 47 99 e0 bd 43 fb a6 3d 4a 50 f6 3d
       -0.01668769 -0.10966735 0.08153393 0.12027033
000130 7c 72 c9 3d b7 38 6e 3d b4 1c 8f bd f0 e4 0d be
       0.09836289 0.058159556 -0.069878966 -0.13856864
000140 c1 a1 09 bd 2c ca 95 3d 5f 59 b8 3d 9a 9b c8 bb
       -0.033601526 0.07313952 0.09001421 -0.006122065
000150 b9 65 99 3c c0 a9 60 bd 19 4c af bc 44 6f 0a be
       0.018725263 -0.054849386 -0.02139859 -0.13519007
000160 a2 a5 cb bd c9 ce a1 3d d4 7b 3c bd 3b 9a fc bd
       -0.09943701 0.07900769 -0.04601653 -0.123341046
000170 fb f4 0c be a1 18 1e 3e 88 7a a0 3d 4c 42 84 3d
       -0.13765328 0.15439083 0.07835871 0.064579576
000180 e0 98 91 bd b9 31 76 bc b5 23 ef 3d a0 8c 5c bd
       -0.07109237 -0.015026503 0.116767325 -0.053845048
000190 73 cf d7 bd 6c 5d 21 bc b0 a4 7f 3d 79 f9 11 3d
       -0.10537615 -0.009848934 0.062412918 0.035638306
0001a0 2c 56 02 3e 05 d2 04 be e9 60 f3 bd 31 6a aa 3c
       0.12728184 -0.12970741 -0.118837185 0.02080259
0001b0 d2 f1 75 3d e5 0c cf bd 21 e7 2d be e2 06 65 bd
       0.06004507 -0.10109881 -0.169827 -0.055914767
0001c0 67 bf 7f 3d 9f 9c c7 bd 3f ae 81 3e 16 00 f1 3c
       0.062438395 -0.0974667 0.25328252 0.029418986
0001d0 f9 d7 7f 3d a6 2c 10 3e 63 9c 5f 3c 0d 97 11 3e
       0.062461827 0.14079532 0.013648125 0.14217778
0001e0 ce 13 70 bd 8d 31 56 bb 2c 99 e3 ba 95 4f 00 bb
       -0.058612637 -0.0032683343 -0.0017364374 -0.0019578685
0001f0 5a 04 07 3d 60 ea 00 3d 60 13 d7 bc 3d 52 38 bd
       0.032963134 0.031473517 -0.026254356 -0.045000304
000200 5c c4 56 3d f2 57 17 be ed 7e 6e bd 8d ca 52 3d
       0.052433357 -0.14779642 -0.058226515 0.0514627
000210 79 72 45 3d 49 5b 96 3d 0c e8 3c 3a 25 22 0e 3d
       0.048204873 0.0734163 0.00072062085 0.03470053
000220 af 65 eb 3d 84 0e 02 3c 50 f0 28 bb 42 1f f4 3c
       0.11494004 0.007938031 -0.0025778003 0.029800061
000230 00 93 0e 3d 7f 89 89 bb 14 3e 7c 3d a0 ff 23 3c
       0.03480816 -0.004197299 0.06158264 0.010009676
000240 a5 ce 43 bd e1 2a 09 3d 2e ed f5 bc 8d 25 2c ba
       -0.047804493 0.033488158 -0.030020323 -0.0006566875
000250 24 27 bc 3c 9d aa 26 3d ed 92 a7 3c aa eb 4b bd
       0.022967882 0.040690053 0.020455802 -0.049785294
000260 07 41 4f 3b 31 ba ce 3c 96 bc 34 be 66 ea 5c bd
       0.0031624453 0.025235267 -0.17650065 -0.053934477
000270 f8 98 a5 3c aa 6d c2 bd 64 22 d6 bc a4 6f 24 be
       0.020214543 -0.09493573 -0.026139446 -0.16058213
000280 d8 5e 80 bc d5 5e 08 3c 4a af 2b 3d 8b 02 00 be
       -0.015670225 0.008323391 0.041915216 -0.1250097
000290 96 16 ff bd 1e 73 b9 bc d8 e2 26 bd e4 97 95 3c
       -0.1245548 -0.0226379 -0.04074368 0.018260904
0002a0 28 53 50 bd 9d 85 86 bd a3 8c 9b 3d 19 2c 52 3e
       -0.050860554 -0.065684535 0.07595184 0.20524634
0002b0 3c 6c 33 bd 66 95 63 3e 7b 0b 04 3e f2 44 18 be
       -0.043804392 0.2222496 0.12895004 -0.1487005
0002c0 4a 2b 31 3d 1e 2c 91 3c fc 45 54 3d ef 86 03 3d
       0.043254174 0.017721232 0.051824555 0.032111105
0002d0 28 e9 fe 3c f5 45 6e bc ee cc 31 bd 07 78 b4 bd
       0.031117037 -0.014543046 -0.043408327 -0.08811956
0002e0 89 2b 5c 3d bf 8a a4 3c 59 92 1a 3e cc 4e f4 bd
       0.053752456 0.02008569 0.1509489 -0.11929092
0002f0 4e dd 88 bc bf fb 10 bd 03 0d 5a bd 25 0c cf 3b
       -0.016707089 -0.035396334 -0.053235065 0.0063185864
000300 4f c5 6e bd 6f b5 0e be 89 76 fb 3b 48 71 8d bd
       -0.058293637 -0.13936399 0.0076740426 -0.06906372
000310 fc 8c 04 be 8e 12 a1 3d 1a 11 cc 3d 65 51 b7 bd
       -0.12944406 0.07864867 0.09964199 -0.08951072
000320 49 39 16 3d 57 a2 41 bd de 5f b0 3b 0e 76 9c 3d
       0.036675725 -0.04727396 0.005382522 0.07639705
000330 05 a9 84 3c 8e 24 aa 3d d5 6d 27 3d 35 bd 64 bd
       0.016193876 0.083077535 0.04087623 -0.055844504
000340 9c b8 80 3c cc b7 6d bc 3e bc 87 3b 1e ec 10 3e
       0.015713029 -0.014509153 0.0041423133 0.14152572
000350 01 12 16 3e 0f 1c 15 be e4 78 b0 3d 8d be 10 3e
       0.14655305 -0.14561485 0.08616808 0.1413519
000360 3b 46 62 bd 39 16 c5 bc 69 f4 ba 3d 6f bd 84 3d
       -0.05524276 -0.024058448 0.09128649 0.06481444
000370 45 d4 47 bd 80 69 14 be 46 3d e9 bc d6 9b b2 3d
       -0.04878642 -0.1449337 -0.0284716 0.087211296
000380 8f cc 38 bd 45 1e d3 3b 2b 81 79 3d cc 78 68 3d
       -0.045116957 0.0064428174 0.0609142 0.056755826
000390 20 e0 61 3d 33 e4 67 bd 63 80 dc bd 2d 21 93 bd
       0.055145383 -0.056614112 -0.10766675 -0.07184062
0003a0 99 85 85 bc 7e 96 91 ba 5f 3f 1a 3d 5c 52 ab bd
       -0.016299056 -0.0011107472 0.03765809 -0.08365318
0003b0 9e b0 51 bd 75 69 0b be e8 a4 38 3e 26 18 b9 bd
       -0.051193826 -0.13614447 0.18031657 -0.09037809
0003c0 c6 fe 29 be 84 dc a1 3d 9d 49 d3 3d 4a ac 8a bc
       -0.16601095 0.07903388 0.10316775 -0.016927857
0003d0 5f 3e cc bd 4a ff cb 3c 78 76 2b 3e 09 fe 04 3d
       -0.09972834 0.024902005 0.16744411 0.03246883
0003e0 a8 cc a1 bd d9 a0 8d bc 9b 3d 24 bd a4 8a 1f bd
       -0.07900363 -0.017288612 -0.040097814 -0.038950577
0003f0 c4 57 b1 3d 42 26 d0 3b e3 5b 3c 3c f8 07 9b 3d
       0.08659318 0.006352217 0.011496517 0.07569879

network_body._body_endoder.seq_layers.2.bias f4 [128]
000000 00 00 00 00 00 00 00 00 00 00 00 00 00 00 00 00
       0.0 0.0 0.0 0.0
000010 00 00 00 00 00 00 00 00 00 00 00 00 00 00 00 00
       0.0 0.0 0.0 0.0
000020 00 00 00 00 00 00 00 00 00 00 00 00 00 00 00 00
       0.0 0.0 0.0 0.0
000030 00 00 00 00 00 00 00 00 00 00 00 00 00 00 00 00
       0.0 0.0 0.0 0.0
000040 00 00 00 00 00 00 00 00 00 00 00 00 00 00 00 00
       0.0 0.0 0.0 0.0
000050 00 00 00 00 00 00 00 00 00 00 00 00 00 00 00 00
       0.0 0.0 0.0 0.0
000060 00 00 00 00 00 00 00 00 00 00 00 00 00 00 00 00
       0.0 0.0 0.0 0.0
000070 00 00 00 00 00 00 00 00 00 00 00 00 00 00 00 00
       0.0 0.0 0.0 0.0
000080 00 00 00 00 00 00 00 00 00 00 00 00 00 00 00 00
       0.0 0.0 0.0 0.0
000090 00 00 00 00 00 00 00 00 00 00 00 00 00 00 00 00
       0.0 0.0 0.0 0.0
0000a0 00 00 00 00 00 00 00 00 00 00 00 00 00 00 00 00
       0.0 0.0 0.0 0.0
0000b0 00 00 00 00 00 00 00 00 00 00 00 00 00 00 00 00
       0.0 0.0 0.0 0.0
0000c0 00 00 00 00 00 00 00 00 00 00 00 00 00 00 00 00
       0.0 0.0 0.0 0.0
0000d0 00 00 00 00 00 00 00 00 00 00 00 00 00 00 00 00
       0.0 0.0 0.0 0.0
0000e0 00 00 00 00 00 00 00 00 00 00 00 00 00 00 00 00
       0.0 0.0 0.0 0.0
0000f0 00 00 00 00 00 00 00 00 00 00 00 00 00 00 00 00
       0.0 0.0 0.0 0.0
000100 00 00 00 00 00 00 00 00 00 00 00 00 00 00 00 00
       0.0 0.0 0.0 0.0
000110 00 00 00 00 00 00 00 00 00 00 00 00 00 00 00 00
       0.0 0.0 0.0 0.0
000120 00 00 00 00 00 00 00 00 00 00 00 00 00 00 00 00
       0.0 0.0 0.0 0.0
000130 00 00 00 00 00 00 00 00 00 00 00 00 00 00 00 00
       0.0 0.0 0.0 0.0
000140 00 00 00 00 00 00 00 00 00 00 00 00 00 00 00 00
       0.0 0.0 0.0 0.0
000150 00 00 00 00 00 00 00 00 00 00 00 00 00 00 00 00
       0.0 0.0 0.0 0.0
000160 00 00 00 00 00 00 00 00 00 00 00 00 00 00 00 00
       0.0 0.0 0.0 0.0
000170 00 00 00 00 00 00 00 00 00 00 00 00 00 00 00 00
       0.0 0.0 0.0 0.0
000180 00 00 00 00 00 00 00 00 00 00 00 00 00 00 00 00
       0.0 0.0 0.0 0.0
000190 00 00 00 00 00 00 00 00 00 00 00 00 00 00 00 00
       0.0 0.0 0.0 0.0
0001a0 00 00 00 00 00 00 00 00 00 00 00 00 00 00 00 00
       0.0 0.0 0.0 0.0
0001b0 00 00 00 00 00 00 00 00 00 00 00 00 00 00 00 00
       0.0 0.0 0.0 0.0
0001c0 00 00 00 00 00 00 00 00 00 00 00 00 00 00 00 00
       0.0 0.0 0.0 0.0
0001d0 00 00 00 00 00 00 00 00 00 00 00 00 00 00 00 00
       0.0 0.0 0.0 0.0
0001e0 00 00 00 00 00 00 00 00 00 00 00 00 00 00 00 00
       0.0 0.0 0.0 0.0
0001f0 00 00 00 00 00 00 00 00 00 00 00 00 00 00 00 00
       0.0 0.0 0.0 0.0

value_heads.value_heads.extrinsic.weight f4 [1, 128]
000000 25 19 ff 3c c2 5c f1 3d 2e 12 d6 3c dd 26 ca bc
       0.03113992 0.1178527 0.026131716 -0.024676735
000010 35 54 3a bd 40 00 3d be 4d f6 f6 3d 28 21 50 be
       -0.045490462 -0.18457127 0.12058697 -0.20325148
000020 7a da 93 3d f0 74 64 3c b5 36 47 3e cc 73 c0 bc
       0.072194055 0.013943896 0.19454463 -0.023492716
000030 a7 95 74 bd 76 b4 17 3e 31 35 5d 3d 01 4e e0 bc
       -0.059713032 0.14814934 0.054005805 -0.027380945
000040 49 e3 48 3d 4e f8 1d be e8 d9 20 3e 20 36 b9 3d
       0.04904488 -0.15426752 0.15708125 0.09043527
000050 14 c7 55 be 81 28 21 3e 84 9c 42 3e 48 0f 9d 3c
       -0.20876724 0.15738107 0.19005018 0.019172326
000060 1b 07 81 3d 14 bf cc bd 3c c5 36 3d 84 79 f5 3d
       0.063001834 -0.09997383 0.04462169 0.11986068
000070 a5 a8 4e 3d ff 49 dd bd 5e c7 30 be da 65 13 be
       0.0504538 -0.10805129 -0.17263553 -0.14394322
000080 24 90 43 3e 91 2e ef bd d9 06 48 3d fc 14 f6 3d
       0.19097954 -0.11678804 0.048834655 0.12015721
000090 ba 1a 50 3d 27 ed 17 bd 47 fd 41 bd 02 34 2a 3e
       0.05080674 -0.0370914 -0.047360685 0.16621402
0000a0 6f 56 29 3e eb b3 e3 3c 1b 03 0e bd 83 65 06 be
       0.16536878 0.027795753 -0.03467093 -0.13124661
0000b0 23 6d 1f 3e 8f 30 41 bd 9f 6a f0 3d c3 af 3a 3e
       0.15568976 -0.04716545 0.11739086 0.1823111
0000c0 26 2d c6 3d 61 2f 0b be e3 0a ab 3d 90 a9 4e 3e
       0.0967658 -0.13592292 0.08351686 0.2018187
0000d0 72 14 22 be 72 de c5 3d c9 79 e0 3d 08 68 1d 3c
       -0.15828112 0.09661569 0.10960729 0.0096073225
0000e0 8f 23 32 3e 7b 28 38 be 63 80 11 be 8d c0 09 3d
       0.17396377 -0.17984192 -0.14209132 0.033630896
0000f0 59 2e 21 be 25 25 a3 bb 01 48 1c be 23 be 78 bd
       -0.15740336 -0.004978793 -0.15261842 -0.060728204
000100 82 37 18 3e 32 e8 91 bb 7d 72 44 be bb 1e 87 bc
       0.14864925 -0.0044527287 -0.19184299 -0.016494146
000110 18 9e 18 3e e3 87 35 be ac d9 56 3e d9 81 94 3d
       0.14904058 -0.17727618 0.20981473 0.07251329
000120 ac fb 52 3e e4 99 4f be 40 92 94 bd 3a 86 27 3e
       0.20603818 -0.20273548 -0.072544575 0.16359797
000130 bd 6e ab 3d e6 09 47 3c 95 cf 11 3d be 6b ea 3b
       0.08370731 0.012148356 0.035598356 0.007153957
000140 e3 c7 54 3d d4 bc 22 3e 6d 6f 1e 3e 52 48 1a 3e
       0.05194844 0.15892345 0.15472193 0.1506665
000150 38 43 48 bd 47 22 70 bc 44 b9 00 bb 11 4e fc 3d
       -0.04889223 -0.01465661 -0.0019641677 0.123195775
000160 8e 8b 95 bd 62 2f 01 3e d3 eb 2f 3e b4 64 0f 3d
       -0.073020086 0.12615731 0.17179804 0.035008147
000170 74 6e 62 3d 44 ab 17 3e e3 6d 7d 3d bc b2 22 3e
       0.055281118 0.14811426 0.061872374 0.15888494
000180 2e 8d 0f 3e 43 98 3f 3e 8e 7b 28 be cc 0d 3e 3e
       0.140187 0.18710427 -0.16453382 0.1855995
000190 e7 66 6d bd 28 cf 15 3c b6 25 01 be b7 cd 53 3d
       -0.057959463 0.009143628 -0.12612042 0.051709857
0001a0 c8 44 66 bc a3 58 b0 bd 03 f0 e3 bd 4d aa 4c 3d
       -0.014054485 -0.08610656 -0.11129763 0.0499671
0001b0 c9 25 09 3e bc ba f1 3d d2 76 00 be 08 63 9a 3d
       0.1339332 0.11803195 -0.12545326 0.0753842
0001c0 23 e3 dd 3d 4a 58 2e 3e ed b4 88 3d 85 80 47 3e
       0.108343385 0.17025867 0.06675134 0.1948262
0001d0 f4 54 0c 3e fe 8f f7 bc d6 b0 9c 3d 9b 35 a2 bd
       0.13704282 -0.030220028 0.07650916 -0.07920381
0001e0 33 93 c1 3b 58 84 ff 3d 3c 27 b7 bd fc fc 0d 3e
       0.00590744 0.124764144 -0.0894303 0.13866037
0001f0 4b 7a 1d be 1d 09 94 bd 75 d3 46 be e4 b4 20 3e
       -0.15378682 -0.07228301 -0.19416602 0.15694004
