FYPprototype/results/ppo/AIBalancing/AIBalancing-65790.onnx (onnx, 72282 bytes, 6 tensors)

action_model._discrete_distribution.branches.0.bias f4 [2]
0.0050736405 -0.0050736433
00000000: c840 a63b ce40 a6bb

action_model._discrete_distribution.branches.0.weight f4 [2, 128]
-0.011568672 -0.011559219 0.00025650012 0.0024195176 -0.025174934 -0.0008596246 -0.0043020383 -0.010017656
-0.006340542 -0.007245502 -0.006294266 -0.006298131 -0.013624545 0.0019357795 0.0055806213 0.016109431
-0.010491764 -0.0060376707 0.016493497 -0.006128293 0.0031376083 0.011244065 0.0055420077 0.0029133458
0.005655793 -0.00090226554 0.0062383492 0.0045470456 0.015290866 -0.00625748 -0.002194686 0.008885822
0.011419011 -0.0029407584 -0.009135125 0.008474888 -0.004548129 0.004243475 -0.011889532 0.0049051843
-0.008417245 0.018748064 -0.0155130755 -0.009782206 -0.0011130362 -0.0059038727 0.011820199 -0.014375969
-0.007154315 0.009778051 -0.011192576 -0.007004738 0.00874422 0.003548927 0.0041839774 -0.01581771
0.009369454 -0.004870049 0.02247951 -0.008293447 -0.007064212 0.0033789985 -0.00430821 -0.0072473427
-0.009705412 -0.0046777404 0.011304176 -0.004929433 -0.009283046 -0.001849689 0.0073380405 -0.023288192
-0.010489434 -0.01361127 -6.823241e-05 -0.00097588345 -0.000301563 0.0028622064 0.011136975 -0.008097163
-0.00638955 0.0066449796 0.016954634 7.56727e-05 0.015924059 0.0013139594 0.0016685561 -0.007032526
0.008158835 0.009868923 0.0023516086 -0.02097581 0.0004956308 -0.021282425 0.0037784034 -0.006826017
0.016209692 -0.013878518 0.013901137 -0.010969371 0.01685797 0.0007540439 -0.0072932015 0.0010698577
0.012103781 0.024343425 0.0038532242 -0.008806409 -0.0019202098 0.003490422 -0.0003146095 0.0026721826
0.024322877 -0.0059360308 -0.00035030718 0.0047880546 -0.00608724 0.017267818 0.024838202 -0.005108177
0.00261702 -0.019478297 0.002733607 -0.0021085113 -0.009732663 0.017201945 -0.00966078 -0.010491213
0.010735294 0.0013476342 -0.0038782523 -0.006811677 0.00815961 -0.005601362 -0.005685684 0.012135981
0.01432933 -0.0058060526 -0.005833935 0.024110714 0.012029977 0.00758971 0.010398309 -0.024207752
0.004923975 -0.009934141 -0.01861573 0.015205659 0.013292595 -0.0022491233 -0.014269797 -0.006493082
0.0012267075 0.012489871 -0.017299967 -0.00086229295 -0.0022660994 0.014337256 -0.0069663175 0.0046268133
-0.010019184 -0.0027150845 -0.012710674 -0.014452398 0.0012723898 -0.015085227 0.008285814 -0.0036251044
0.0059066233 0.015257006 0.001485957 0.013286652 0.006958598 -0.014561533 -0.012297215 0.0043697283
-0.010866513 0.017450675 0.0038936809 -0.00023872891 -0.015815658 -0.0015023015 0.011881112 -0.00063587347
0.008958337 -0.0054304623 0.00084890326 0.0030266687 -0.006453584 0.0016894169 0.02677917 0.0020396663
0.013423024 -0.022663066 0.0021809184 -0.0016077408 -0.00609231 -0.0024870208 0.013140457 0.011399429
0.005958326 -0.008916639 0.00079572265 0.014924943 -0.0012218454 -0.008018503 0.009585958 -0.012010744
0.014592016 0.0036602083 -0.009816804 -0.0074531455 0.00534299 0.010555584 0.0085506085 -0.0076180883
0.01546762 -0.010284465 0.017167835 -0.00039940263 -0.004948796 0.017719267 0.01242878 0.0076238136
-0.016714657 0.0070850537 0.014690959 -9.972251e-05 -0.0052387137 -0.009544506 0.01781387 0.009839152
-0.0074555064 0.004549483 -0.00241332 -0.008019136 0.0233592 0.0013442023 0.01611514 -0.0032627375
-0.016261304 0.014207669 -0.008242213 -0.005418571 -0.009916397 -0.010977864 -0.0048671104 0.021559037
0.0012733496 0.012438609 -0.0033935208 -0.009889045 0.008762147 -0.014822815 0.008145065 -0.005867918
00000000: 878a 3dbc e162 3dbc dd7a 8639 c590 1e3b
00000010: aa3b cebc 6e58 61ba 1df8 8cbb 1821 24bc
00000020: 52c4 cfbb ad6b edbb 2140 cebb 8d60 cebb
00000030: 7c39 5fbc fbb9 fd3a a5dd b63b edf7 833c
00000040: a6e5 2bbc a7d7 c5bb 5f1d 873c d9cf c8bb
00000050: 55a0 4d3b 0739 383c bb99 b53b d5ed 3e3b
00000060: 3b54 b93b 0486 6cba 116b cc3b 62ff 943b
00000070: 8a86 7a3c 8c0b cdbb b9d4 0fbb d795 113c
00000080: ce16 3b3c bdb9 40bb 7eab 15bc 42da 0a3c
00000090: 7908 95bb d90c 8b3b 50cc 42bc abbb a03b
000000a0: 7ce8 09bc 8a95 993c 8e2a 7ebc 8c45 20bc
000000b0: 4ce3 91ba 4675 c1bb 82a9 413c 2f89 6bbc
000000c0: be6e eabb 1e34 203c 1161 37bc 0088 e5bb
000000d0: eb43 0f3c 1d95 683b bf19 893b 2494 81bc
000000e0: 5782 193c ef94 9fbb f326 b83c 3de1 07bc
000000f0: e87a e7bb 3072 5d3b e32b 8dbb 1e7b edbb
00000100: 7303 1fbc bb47 99bb 2735 393c 1587 a1bb
00000110: eb17 18bc 4471 f2ba f273 f03b e1c6 bebc
00000120: e0db 2bbc ce01 5fbc ff17 8fb8 6ed2 7fba
00000130: 1a1b 9eb9 db93 3b3b dc77 363c f7a9 04bc
00000140: 6e5f d1bb 21be d93b 72e4 8a3c 79b2 9e38
00000150: 2c73 823c 2939 ac3a 74b3 da3a 1b71 e6bb
00000160: a2ac 053c 43b1 213c 721d 1a3b 76d5 abbc
00000170: 38ed 013a 7b58 aebc 179f 773b c8ac dfbb
00000180: 30ca 843c b962 63bc 98c1 633c e0b8 33bc
00000190: ba19 8a3c 08ab 453a cffb eebb 783a 8c3a
000001a0: f04e 463c dd6b c73c 6086 7c3b c248 10bc
000001b0: 8daf fbba 90bf 643b 2cf2 a4b9 c91f 2f3b
000001c0: c540 c73c 0983 c2bb 6fa9 b7b9 1de5 9c3b
000001d0: 7877 c7bb 3d75 8d3c 7c79 cb3c 7f62 a7bb
000001e0: 4f82 2b3b f390 9fbc 5126 333b f32e 0abb
000001f0: bf75 1fbc 18eb 8c3c 4048 1ebc 56e3 2bbc
00000200: 16e3 2f3c 1aa3 b03a 472a 7ebb 7d34 dfbb
00000210: e3af 053c a18b b7bb f94e babb fed5 463c
00000220: 91c5 6a3c b340 bebb 982a bfbb d583 c53c
00000230: 6119 453c 1ab3 f83b ab5d 2a3c 564f c6bc
00000240: 4c59 a13b cfc2 22bc 0480 98bc 2821 793c
00000250: 2fc9 593c 0766 13bb decb 69bc ebc3 d4bb
00000260: 79c9 a03a 51a2 4c3c a9b8 8dbc 800b 62ba
00000270: d782 14bb cfe6 6a3c b545 e4bb 869c 973b
00000280: 8127 24bc 8fef 31bb 6e40 50bc c0c9 6cbc
00000290: 51c6 a63a 0728 77bc 39c1 073c 2993 6dbb
000002a0: 598c c13b 85f8 793c 71c4 c23a 42b0 593c
000002b0: f304 e43b 7f93 6ebc 427a 49bc f02f 8f3b
000002c0: 7509 32bc b8f4 8e3c 202d 7f3b 4e53 7ab9
000002d0: d78f 81bc e0e8 c4ba ffa8 423c bfb0 26ba
000002e0: fdc5 123c 05f2 b1bb ef88 5e3a 135b 463b
000002f0: 9678 d3bb 6d6f dd3a fd5f db3c ecab 053b
00000300: 3eec 5b3c e5a7 b9bc bded 0e3b d4ba d2ba
00000310: 00a2 c7bb 49fd 22bb 124b 573c acc4 3a3c
00000320: 103e c33b 1817 12bc 0b98 503a c087 743c
00000330: 5426 a0ba 0a60 03bc 6c0e 1d3c b6c8 44bc
00000340: 5a13 6f3c 1be0 6f3b a9d6 20bc 8439 f4bb
00000350: 4014 af3b 54f1 2c3c da17 0c3c 28a1 f9bb
00000360: e76b 7d3c 2c80 28bc 8fa3 8c3c ea66 d1b9
00000370: 8229 a2bb ff27 913c 15a2 4b3c 2fd1 f93b
00000380: 2ded 88bc bd29 e83b 59b2 703c 1d22 d1b8
00000390: 84a9 abbb 8f60 1cbc 65ee 913c 6534 213c
000003a0: 524d f4bb d413 953b ca28 1ebb b262 03bc
000003b0: cb5b bf3c f22f b03a e603 843c a7d3 55bb
000003c0: 6d36 85bc 48c7 683c 590a 07bc 458e b1bb
000003d0: 6278 22bc 80dc 33bc 487c 9fbb 949c b03c
000003e0: 86e6 a63a 4fcb 4b3c d565 5ebb a905 22bc
000003f0: 1c8f 0f3c 64db 72bc e172 053c aa47 c0bb

network_body._body_endoder.seq_layers.0.bias f4 [128]
0.0038962853 -0.0028862536 0.00083559746 0.0048346394 0.0019370232 0.00069579587 0.0010978197 -0.0027115473
0.0029837864 0.003669587 0.0012869126 0.0019285969 0.0043984605 -0.005535345 -0.006318435 0.0056440523
-0.00090499694 0.00042360535 -0.0049257665 -0.005186264 -0.0027939647 -0.0034105526 0.0059071514 0.005201184
-0.0039470824 0.0021601918 0.0012129436 -0.00080674543 -0.0066205775 0.00027530958 0.0031087687 -0.004194532
-0.0028585757 -0.005018505 -0.0013353666 -0.0007713199 0.0063537136 -0.0053453255 0.005477601 0.00646521
0.009900036 0.00619474 -0.0036040067 -0.0071472405 -0.0040302165 -0.0077663953 -0.0008346013 0.0010790734
-0.0058615427 0.004886381 0.0026248859 -0.0040015974 -0.0036302255 0.00046577436 0.0035482403 -0.0055494267
0.005529848 -0.0041687223 -0.0054312684 0.0035742118 -0.0053197825 0.004992918 -0.0023202982 -0.0061970064
-0.003405716 -0.0043988097 0.006740226 -0.00027981444 -0.0062105013 0.0072780517 0.0068713184 0.001716669
-0.0024193383 0.006990977 -0.0036307801 0.006408665 0.0053994004 -0.0014884926 0.0062518236 -0.0014433356
0.0062492234 -0.0018736438 -0.0010439187 0.0041516167 -0.0059820637 0.0038719177 0.0041048536 0.00092939945
0.006542671 0.0056620045 0.00518371 -0.004180549 -0.00064376317 0.0028588371 0.0051822565 0.006309921
-0.0019170918 -0.0034806682 -0.002965143 0.0036683378 -0.003359271 -0.008297418 0.0044504763 0.0033521424
-0.000695259 0.0071153007 -0.0047551813 -0.0040574004 0.005460292 -0.0065912246 -0.0024391261 -0.0005949538
-0.006373246 -0.0047449428 0.0050411476 0.0060102926 -0.00062748365 -0.005253301 0.0047930735 0.0039863945
0.005333799 -0.0041576084 0.014289763 0.0016554366 0.006563932 0.005336045 0.006038439 -0.001683316
00000000: d258 7f3b 4d27 3dbb ff0b 5b3a e56b 9e3b
00000010: b7e3 fd3a 1266 363a b7e4 8f3a 37b4 31bb
00000020: a18b 433b 747d 703b 9fad a83a f9c8 fc3a
00000030: f620 903b d761 b5bb e00a cfbb bef1 b83b
00000040: 513d 6dba 5917 de39 5368 a1bb 89f1 a9bb
00000050: f31a 37bb 9483 5fbb c790 c13b b26e aa3b
00000060: 8756 81bb 0192 0d3b a2fb 9e3a c57b 53ba
00000070: 6ef1 d8bb 6d57 9039 7cbc 4b3b 4972 89bb
00000080: f156 3bbb 4572 a4bb 7807 afba 6732 4aba
00000090: d032 d03b d727 afbb 737d b33b 1dda d33b
000000a0: c333 223c 3ffd ca3b 3331 6cbb 6633 eabb
000000b0: e80f 84bb 3f7d febb 25c9 5aba b26f 8d3a
000000c0: 2f12 c0bb ef1d a03b 4706 2c3b d51f 83bb
000000d0: 14e9 6dbb 2d33 f439 9889 683b f7d7 b5bb
000000e0: ba33 b53b c799 88bb c8f8 b1bb 533d 6a3b
000000f0: 9251 aebb a29b a33b 2510 18bb 4210 cbbb
00000100: 6f32 5fbb e423 90bb 1ddd dc3b 0fb4 92b9
00000110: 7681 cbbb b97c ee3b cc28 e13b da01 e13a
00000120: c38d 1ebb 9114 e53b 62f2 6dbb c7ff d13b
00000130: 74ed b03b 8619 c3ba 19dc cc3b 4e2e bdba
00000140: 49c6 cc3b 0e95 f5ba 19d4 88ba 490a 883b
00000150: 3005 c4bb 00c0 7d3b 0282 863b f1a2 733a
00000160: e763 d63b 5688 b93b 1cdc a93b fdfc 88bb
00000170: 37c2 28ba 545b 3b3b ebcf a93b 74c3 ce3b
00000180: ed46 fbba ec1b 64bb d852 42bb 7f68 703b
00000190: 3727 5cbb e5f1 07bc 4dd5 913b 9eaf 5b3b
000001a0: 0b42 36ba 7827 e93b 5ad1 9bbb f1f3 84bb
000001b0: 40ec b23b 33fb d7bb bfd9 1fbb acf6 1bba
000001c0: aad6 d0bb 777b 9bbb 3630 a53b fdf1 c43b
000001d0: b77d 24ba e223 acbb 370f 9d3b 4da0 823b
000001e0: 26c7 ae3b 8c3c 88bb 9c1f 6a3c 3cfb d83a
000001f0: 4116 d73b fdd9 ae3b 19de c53b b6a2 dcba

network_body._body_endoder.seq_layers.0.weight f4 [128, 5]
-0.23962349 -0.29441908 -0.031379856 0.07467635 -0.11287778 0.60891837 0.36612633 -0.42015606
0.6520207 -0.20123291 0.02590992 0.6097305 -0.38334078 0.38545793 -0.014986247 0.1445279
-0.46956795 -0.083512954 0.090393454 -0.7886035 -0.42530462 0.22791559 -0.43780792 -0.22520965
1.2413574 0.504762 -0.30978605 0.8866279 0.2709069 -0.11713804 0.057926726 -0.112935476
0.30750212 0.37273833 -0.012315519 0.29258546 1.1281278 0.41799155 -0.7178387 0.6760212
-0.3097671 0.15608485 0.6596244 -1.0513351 -0.17908931 -1.2501376 -0.18006517 0.4751036
0.23557489 0.4285483 0.65162486 -0.62773377 0.048327424 -0.14238878 -0.24414326 0.084503524
-0.84569156 -0.23188186 0.13691501 -0.5110428 -0.47512963 -0.2947735 0.012172884 0.026882652
0.073254354 -0.14796661 0.8809449 -0.39338657 -0.2104841 -0.31743732 0.51680773 -0.058267258
-0.02406211 -0.119045414 -0.9718977 -0.8856897 0.6352196 0.008541266 -0.33756852 -0.29879174
0.046909787 -0.32616973 -0.31795403 -0.10430068 -0.2515553 0.49742648 0.35287324 0.6626673
-0.15128584 -0.18104622 -0.58340836 0.41245475 0.50516015 -0.058684673 -0.27940455 0.21873774
-0.89526415 0.040775675 -0.52905416 0.21278875 0.53768307 -0.60837364 0.22916918 0.21686393
0.5088025 -0.27373686 -0.18185346 -0.20015892 -0.10068965 -0.5603633 -0.076241024 0.3994598
0.004649914 0.102018036 0.5249086 0.28545225 -0.38986224 -0.3365553 -0.11720903 -0.36957657
-0.06339759 -0.5115862 0.46739313 0.0073485426 0.39522547 0.07570043 -0.38612318 -0.19040585
-0.15401495 0.840371 0.61590266 -0.028136097 0.12074672 0.16420707 -0.32278162 0.22121231
0.28072008 -0.70866495 0.47332475 0.4496944 0.14177167 -0.31501186 0.09250706 -0.30181172
0.31963176 0.16837831 -0.14497046 0.13330147 0.294147 0.18190955 0.43979818 -0.29772854
-0.34425533 -0.67822707 0.7333854 -0.36107934 0.52467704 0.23298864 0.2621696 0.44732645
0.12813857 0.15975612 -0.539156 -0.90320563 -0.20445074 -0.56409425 0.4609667 1.0379415
-1.0809954 0.5615032 0.57153904 0.1211218 -0.08194869 0.62449896 -0.76974744 -0.112279125
-0.03893405 -0.4793373 0.7421032 1.1286539 0.376656 -0.048507143 0.20945157 0.5806398
-0.6390745 0.20134918 0.34976044 0.18510745 0.12908547 0.10455567 0.23169668 1.0574657
-0.3007783 0.13070317 0.010693689 -0.50606596 0.6310154 0.8592197 0.25089902 0.7646052
-0.44445053 0.3504361 -0.4150066 0.27863073 -0.8850362 -0.19887027 -0.9899573 0.012089252
-0.09938975 -0.6811384 0.19101703 0.3021662 0.5456364 0.44309458 -0.20383306 -0.2601788
-0.39286357 0.3253082 0.07993574 -0.14834937 0.8251829 0.34598002 -0.22624074 0.12611996
-0.064320646 -0.31740838 -0.7270767 -0.39457625 -0.12986887 0.2123331 0.67212355 -0.15555228
0.977632 -0.016114919 -0.11955028 0.21814075 0.47043726 -0.3373311 -0.49226424 0.30275488
-0.6512459 -0.16641201 0.11682987 0.6102539 0.09753808 0.18405485 -0.15915592 0.27918878
-0.44242865 0.7618145 -0.42585987 -0.2752263 0.22986554 -0.24787095 -0.69278026 0.18996762
00000000: dc5f 75be 19be 96be 2a88 00bd eaef 983d
00000010: 772c e7bd 13e2 1b3f e974 bb3e b21e d7be
00000020: d4ea 263f 0010 4ebe 0a41 d43c 4c17 1c3f
00000030: 3e45 c4be be5a c53e e088 75bc 1fff 133e
00000040: 366b f0be d708 abbd 3420 b93d ebe1 49bf
00000050: 87c1 d9be b462 693e 5c28 e0be 5c9d 66be
00000060: cde4 9e3f 1538 013f 479c 9ebe 0cfa 623f
00000070: 4fb4 8a3e 12e6 efbd 9344 6d3d b74a e7bd
00000080: eb70 9d3e 8fd7 be3e 08c7 49bc c3cd 953e
00000090: 7e66 903f fd02 d63e 47c4 37bf ba0f 2d3f
000000a0: cb99 9ebe b5d4 1f3e 25dd 283f 2692 86bf
000000b0: 3063 37be 8204 a0bf 0163 38be c740 f33e
000000c0: 8b3a 713e af6a db3e e3d0 263f 29b3 20bf
000000d0: faf2 453d 5dce 11be b100 7abe 2f10 ad3d
000000e0: 3e7f 58bf 7072 6dbe 7333 0c3e b3d3 02bf
000000f0: 3144 f3be 8dec 96be c770 473c 0239 dc3c
00000100: 6106 963d 8f84 17be 9b85 613f f769 c9be
00000110: 2589 57be 2587 a2be 834d 043f a6a9 6ebd
00000120: e71d c5bc 15ce f3bd 4ace 78bf 8fbc 62bf
00000130: c09d 223f abf0 0b3c c8d5 acbe 3bfb 98be
00000140: 7a24 403d b8ff a6be dfca a2be 989b d5bd
00000150: dbcb 80be afae fe3e cdab b43e 90a4 293f
00000160: adea 1abe 2e64 39be 405a 15bf 452d d33e
00000170: 2d52 013f 575f 70bd 1d0e 8fbe c9fc 5f3e
00000180: 0830 65bf 6504 273d 1870 07bf 4be5 593e
00000190: 99a5 093f 60be 1bbf 53ab 6a3e 9411 5e3e
000001a0: e140 023f 3d27 8cbe cb37 3abe 76f6 4cbe
000001b0: 6036 cebd f873 0fbf 4124 9cbd ff85 cc3e
000001c0: 4e5e 983b d5ee d03d 6960 063f cc26 923e
000001d0: 069c c7be fa50 acbe 4a0b f0bd 2439 bdbe
000001e0: 98d6 81bd 50f7 02bf 274e ef3e 0bcc f03b
000001f0: fe5a ca3e d408 9b3d f0b1 c5be c0f9 42be
00000200: 18b6 1dbe 8e22 573f ccab 1d3f ac7d e6bc
00000210: 0e4a f73d e625 283e a243 a5be 7b85 623e
00000220: 8bba 8f3e 116b 35bf 9f57 f23e 583e e63e
00000230: 982c 113e 3c49 a1be 5774 bd3d 1187 9abe
00000240: c6a6 a33e 5d6b 2c3e 2373 14be 2e80 083e
00000250: 709a 963e 7f46 3a3e 3a2d e13e e06f 98be
00000260: 3c42 b0be 4aa0 2dbf 25bf 3b3f 64df b8be
00000270: 3c51 063f 9394 6e3e 183b 863e f907 e53e
00000280: c236 033e 1c97 233e 2106 0abf 7c38 67bf
00000290: 895b 51be 7b68 10bf d403 ec3e 44db 843f
000002a0: 0f5e 8abf acbe 0f3f 6250 123f b50e f83d
000002b0: b7d4 a7bd 2adf 1f3f 2b0e 45bf 99f2 e5bd
000002c0: 4f79 1fbd b36b f5be 7afa 3d3f bb77 903f
000002d0: 0ed9 c03e 6daf 46bd 797a 563e cfa4 143f
000002e0: 639a 23bf 7b2e 4e3e cd13 b33e cf8c 3d3e
000002f0: fb2e 043e 4821 d63d e541 6d3e 095b 873f
00000300: 9dff 99be 0dd7 053e 9534 2f3c 8a8d 01bf
00000310: 3a8a 213f d2f5 5b3f d675 803e 2bbd 433f
00000320: 058f e3be 5c6c b33e bf7b d4be b0a8 8e3e
00000330: bb91 62bf a6a4 4bbe d76d 7dbf ff11 463c
00000340: da8c cbbd 165f 2ebf f899 433e 87b5 9a3e
00000350: d4ae 0b3f 4bdd e23e 9db9 50be 2836 85be
00000360: 6a25 c9be cc8e a63e 59b5 a33d e6e8 17be
00000370: 303f 533f 4b24 b13e a7ab 67be 9725 013e
00000380: 8bba 83bd 5a83 a2be b321 3abf e605 cabe
00000390: 58fc 04be d96d 593e 4a10 2c3f 1949 1fbe
000003a0: 1746 7a3f 6f03 84bc c7d6 f4bd 4a60 5f3e
000003b0: 27dd f03e a9b6 acbe 0f0a fcbe b002 9b3e
000003c0: 0db8 26bf e967 2abe 8044 ef3d 9939 1c3f
000003d0: 0bc2 c73d e078 3c3e c5f9 22be d5f1 8e3e
000003e0: 0286 e2be 4606 433f 4e0a dabe 76ea 8cbe
000003f0: df61 6b3e e2d1 7dbe 0c5a 31bf df86 423e

network_body._body_endoder.seq_layers.2.bias f4 [128]
-0.00590433 -0.0042421604 0.0043785037 -0.00060665765 -0.0048601315 0.003939424 -0.0030328184 -0.0042191404
-0.0038520875 0.0037941076 -0.0032678118 -0.005443607 -0.0055211727 0.0015212611 -0.0034447738 0.005809182
-0.0050739804 0.00437244 0.0058135265 -0.005012147 -0.0030897355 0.0044588307 0.0065032127 -0.00012726906
-0.0012108003 -0.004128818 0.006196571 0.0025465062 0.0039441306 -0.0063176225 -0.0021399453 -0.0023485413
0.006440668 -0.0038998977 0.0031115124 0.006226133 0.0013653021 0.0056326017 -0.0057066744 0.0045998143
-0.0038789434 -0.0012008051 -0.0018828203 -0.0058869524 -0.0040937024 0.0043376023 0.0061558764 -0.0036781454
0.0035050234 -1.4760265e-05 -0.0072297836 -0.0012860819 0.0062512364 0.0045660697 0.001514245 -0.004008353
0.0040524723 -0.0032591582 0.0062785153 -0.0026773582 0.0001545633 -0.002866351 -0.0054239663 -0.00043045674
-0.005766739 0.0054762457 -0.00026717625 -0.0034696271 0.0028773742 0.0034144341 0.0015457028 -0.004788786
-0.0062520374 -0.0038282461 0.002366406 -0.004296264 -0.0018444404 0.0043461616 0.0038129122 -0.002536633
-0.0055769123 -0.0028814515 0.006178085 0.0023075794 0.0062094536 0.0011795359 -0.00040302757 0.0036347955
-0.0036713248 0.0066210986 -0.007831034 -0.0060270852 0.0024681492 -0.004666846 -7.202279e-05 -0.0066493875
0.0059470073 -0.0060848817 -0.003448736 -0.0023982704 0.0062323143 0.0014017184 -0.005597237 5.1726405e-05
0.006560544 0.0065123797 -0.0013220458 -0.0032564832 -0.0056879204 0.0038307216 -0.010098598 -0.001270022
0.0057491167 -0.010713848 0.0049900184 0.004683778 0.0047504776 0.0061445353 0.0047721337 0.00010467957
-0.002578698 -0.005151156 -0.0012327405 -0.00080753677 -0.0042737545 0.0058622984 -0.006598545 -0.0026512002
00000000: 1c79 c1bb d201 8bbb 8d79 8f3b 1b08 1fba
00000010: bd41 9fbb 4916 813b 40c2 46bb b740 8abb
00000020: 4e73 7cbb 90a6 783b c928 56bb 4960 b2bb
00000030: f4ea b4bb 0d65 c73a b7c1 61bb f35a be3b
00000040: a243 a6bb af46 8f3b 657f be3b f03c a4bb
00000050: 297d 4abb 621b 923b e718 d53b 8773 05b9
00000060: b7b3 9eba 094b 87bb 9b0c cb3b 49e3 263b
00000070: c43d 813b 0f04 cfbb 533e 0cbb fce9 19bb
00000080: 3d0c d33b 6d95 7fbb 84ea 4b3b 9704 cc3b
00000090: f0f3 b23a b091 b83b 0eff babb 0aba 963b
000000a0: df35 7ebb 5564 9dba f7c8 f6ba 56e7 c0bb
000000b0: 7724 86bb 7222 8e3b 3cb7 c93b 0a0d 71bb
000000c0: 89b4 653b dba2 77b7 d2e7 ecbb bf91 a8ba
000000d0: 2cd7 cc3b f89e 953b a279 c63a 8158 83bb
000000e0: 9aca 843b 9a97 55bb 01bc cd3b 9e76 2fbb
000000f0: 4512 2239 64d9 3bbb 87bb b1bb edae e1b9
00000100: eaf6 bcbb 1472 b33b ca13 8cb9 af62 63bb
00000110: 5492 3c3b b3c4 5f3b 2e99 ca3a 40eb 9cbb
00000120: e4dd ccbb 50e3 7abb b415 1b3b adc7 8cbb
00000130: 26c1 f1ba 3f6a 8e3b 0de2 793b a43d 26bb
00000140: 88be b6bb bcd6 3cbb 8971 ca3b c23a 173b
00000150: ac78 cb3b a89a 9a3a 724d d3b9 c035 6e3b
00000160: 9c9a 70bb cdf5 d83b bd4d 00bc db7e c5bb
00000170: acc0 213b 57ec 98bb f10a 97b8 1be3 d9bb
00000180: 1ddf c23b b063 c7bb 3004 62bb 4d2c 1dbb
00000190: 7138 cc3b ddb9 b73a 0769 b7bb cef4 5838
000001a0: d5f9 d63b cd65 d53b 7f48 adba b96a 55bb
000001b0: bc61 babb d80c 7b3b 9774 25bc de76 a6ba
000001c0: 1663 bc3b 2389 2fbc 4f83 a33b 617a 993b
000001d0: e5a9 9b3b 1958 c93b 8f5f 9c3b 6b87 db38
000001e0: 60ff 28bb 07cb a8bb e893 a1ba e0b0 53ba
000001f0: da0a 8cbb 8618 c03b 9b38 d8bb c2bf 2dbb

network_body._body_endoder.seq_layers.2.weight f4 [128, 128]
-0.01883357 0.08463163 0.093085684 0.055940904 -0.15770052 -0.01097796 0.060930405 -0.067094676
0.2908279 0.074302144 -0.06435072 -0.11439525 0.0765837 0.08536622 -0.024577372 -0.07141957
-0.059618942 -0.06120433 -0.040300917 0.061762534 -0.04185415 -0.0039813006 -0.15336207 -0.135124
-0.10580283 0.112809174 -0.2199135 0.057324324 -0.06838558 -0.046735648 -0.117907025 -0.047568236
0.088212624 -0.19257912 -0.110191174 -0.012185944 -0.03409018 -0.1851906 0.17369163 -0.092889726
-0.09737766 -0.076655336 0.019825209 0.08249349 -0.13603686 0.003983752 -0.0135881305 -0.08173386
0.005672581 0.07342537 0.15513878 -0.007372221 -0.027985165 -0.09895613 0.020845188 -0.01615781
-0.08027922 0.05308624 -0.07806407 0.037140198 -0.065270096 0.081747025 -0.089064196 -0.058391836
-0.088611715 -0.0020097508 0.02306307 -0.0959309 -0.047222592 -0.03950398 -0.059412804 -0.084929116
0.08000427 0.06395499 0.0937247 -0.03524522 0.10326682 -0.032600544 0.0077180034 -0.008370668
-0.06731628 0.11746071 -0.01275936 -0.19870555 0.24566276 0.039140858 0.105441846 -0.023685964
-0.19493692 -0.1495301 0.00785881 -0.10044532 -0.03808591 -0.07036937 -0.07403768 0.2839525
-0.064646885 0.08516953 -0.024103722 -0.1793208 0.0713593 -0.011963877 -0.18904397 -0.06682461
0.14387095 0.0832102 -0.19347778 -0.1361735 0.0111652175 -0.01106449 0.06524859 -0.12911747
-0.068602115 0.1170064 0.0641545 0.15487857 0.1424319 -0.044651125 -0.004771208 0.050319303
-0.11669909 0.14762802 0.048457313 -0.07253179 -0.05526283 -0.14887203 -0.019337017 -0.015540873
0.052129164 0.050764766 -0.09477947 -0.047622092 -0.26839 -0.03546907 -0.09528284 0.3275523
-0.034691993 -0.061651386 -0.21352755 -0.038490724 -0.01324545 0.069493264 0.081214756 -0.06833932
-0.12179687 0.018180273 0.10457014 -0.087747045 0.12676488 -0.23873007 -0.07589199 -0.055178296
-0.12366829 -0.1245876 0.048735436 -0.020454543 0.013643651 -0.0346177 -0.08080031 -0.022909908
-0.14163835 -0.025474444 -0.0019319175 0.07477778 -0.03798738 -0.0238291 0.054283142 0.08420973
-0.0055991886 0.1432914 0.15819694 0.15522021 -0.06986218 0.12727366 -0.11662022 -0.08922379
0.024315998 -0.025342042 0.052063473 -0.08507401 0.044035085 -0.109958574 0.06084414 0.036117133
0.084616795 -0.067177646 -0.06576101 0.053254202 -0.016956296 -0.15082817 -0.029259719 -0.0782542
0.032823283 0.0015523008 -0.011999255 -0.0984138 -0.05083508 -0.112205885 0.037916232 -0.18016805
0.0024499006 -0.21871464 -0.004647142 -0.045398854 -0.03514514 -0.06812592 0.010002415 -0.028217053
-0.063133836 0.028705785 -0.00039233902 0.011128781 0.10720769 0.0913091 -0.122614406 -0.09404483
-0.1645999 -0.008858572 -0.014129555 -0.093474016 0.14390513 0.014932528 0.019911624 0.14144893
-0.02419131 0.05511736 0.03594255 0.14599207 -0.01933151 0.067479454 -0.19667043 -0.051350225
0.033718478 -0.18011954 0.083995365 0.036204915 0.052567534 0.0017137277 0.18584277 0.20909238
0.07120755 -0.044329118 -0.2285659 -0.024296544 -0.04313652 -0.110712394 -0.121492766 -0.068147846
-0.10822751 0.11199946 -0.08143196 -0.03484154 0.08743845 -0.0010999525 0.067784354 -0.06861228
00000000: dc48 9abc 5953 ad3d b5a3 be3d 4a22 653d
00000010: 3f7c 21be e7dc 33bc 2992 793d ef68 89bd
00000020: 65e7 943e b92b 983d 4fca 83bd 0f48 eabd
00000030: ead7 9c3d 7cd4 ae3d 7c56 c9bc 6c44 92bd
00000040: fe32 74bd 64b1 7abd 9312 25bd b6fa 7c3d
00000050: 426f 2bbd 9275 82bb f20a 1dbe f25d 0abe
00000060: 27af d8bd 7f08 e73d 0131 61be e9cc 6a3d
00000070: bd0d 8cbd e16d 3fbd 3d79 f1bd e9d6 42bd
00000080: d2a8 b43d 7633 45be e9ab e1bd 8ea7 47bc
00000090: 25a2 0bbd 9ba2 3dbe 38dc 313e f83c bebd
000000a0: f06d c7bd 79fd 9cbd 7a68 a23c 59f2 a83d
000000b0: 3f4d 0bbe 228a 823b c0a0 5ebc 1564 a7bd
000000c0: 0fe1 b93b 0a60 963d b3dc 1e3e ac92 f1bb
000000d0: 2541 e5bc 83a9 cabd 87c3 aa3c 625d 84bc
000000e0: 6f69 a4bd f570 593d 0ee0 9fbd 5220 183d
000000f0: 54ac 85bd fc6a a73d 4a67 b6bd 472c 6fbd
00000100: 0f7a b5bd 06b6 03bb c3ee bc3c 6b77 c4bd
00000110: 7a6c 41bd edce 21bd d75a 73bd 51ef adbd
00000120: 47d9 a33d d5fa 823d bcf2 bf3d 4b5d 10bd
00000130: 8e7d d33d 2688 05bd 4ee7 fc3b 2025 09bc
00000140: 1edd 89bd 3e8f f03d a20c 51bc 7879 4bbe
00000150: 058f 7b3e 2a52 203d e5f1 d73d 1109 c2bc
00000160: 8b9d 47be 6b1e 19be 3dc2 003c 47b6 cdbd
00000170: f9ff 1bbd d11d 90bd 11a1 97bd 3962 913e
00000180: 9665 84bd 5d6d ae3d 2b75 c5bc df9f 37be
00000190: d324 923d 2304 44bc be94 41be 57db 88bd
000001a0: e852 133e 1c6a aa3d 0a1f 46be 1171 0bbe
000001b0: 51ee 363c d647 35bc 0ea1 853d 5f37 04be
000001c0: 447f 8cbd 0da1 ef3d 6f63 833d 7d98 1e3e
000001d0: abd9 113e 19e4 36bd cb57 9cbb 9d1b 4e3d
000001e0: efff eebd cd2b 173e 2d7b 463d 8c8b 94bd
000001f0: 475b 62bd e971 18be aa68 9ebc 259f 7ebc
00000200: 6485 553d b7ee 4f3d bd1b c2bd 620f 43bd
00000210: 6a6a 89be 0448 11bd a623 c3bd efb4 a73e
00000220: 3119 0ebd 2a86 7cbd f7a6 5abe 73a8 1dbd
00000230: 7203 59bc 7c52 8e3d ec53 a63d 7cf5 8bbd
00000240: a370 f9bd ccee 943c df28 d63d b9b4 b3bd
00000250: a7ce 013e a875 74be 426d 9bbd a302 62bd
00000260: cd45 fdbd c927 ffbd cf9e 473d 4990 a7bc
00000270: 9f89 5f3c 4acb 0dbd a27a a5bd 8fad bbbc
00000280: a509 11be c8af d0bc 6538 fdba 1825 993d
00000290: a898 1bbd 3f35 c3bc 0058 5e3d 2776 ac3d
000002a0: 6679 b7bb fbba 123e 61fe 213e 0cf2 1e3e
000002b0: e713 8fbd 0754 023e 95d6 eebd f6ba b6bd
000002c0: 5832 c73c 1d9a cfbc 8240 553d 483b aebd
000002d0: 225e 343d f631 e1bd b437 793d 8fef 133d
000002e0: 924b ad3d 6f94 89bd b5ad 86bd 1421 5a3d
000002f0: eee7 8abc b372 1abe 14b2 efbc bd43 a0bd
00000300: b571 063d 9276 cb3a 8698 44bc 2d8d c9bd
00000310: 7238 50bd 33cc e5bd 0d4e 1b3d f97d 38be
00000320: 838e 203b bbf6 5fbe 0d47 98bb 26f4 39bd
00000330: 5af4 0fbd 9a85 8bbd 2be1 233c 7327 e7bc
00000340: 504c 81bd 6528 eb3c dab2 cdb9 7e55 363c
00000350: b58f db3d 4400 bb3d 431d fbbd 939a c0bd
00000360: e08c 28be 8b23 11bc a67f 67bc 4e6f bfbd
00000370: de5b 133e 90a7 743c b41d a33c fdd7 103e
00000380: db2c c6bc bec2 613d 7f38 133d f27e 153e
00000390: 1d5d 9ebc ab32 8a3d f963 49be 9d54 52bd
000003a0: 631c 0a3d 4271 38be c305 ac3d 9b4b 143d
000003b0: 0e51 573d 299f e03a 914d 3e3e 501c 563e
000003c0: 44d5 913d 7392 35bd 2e0d 6abe 8c09 c7bc
000003d0: ebaf 30bd 2ebd e2bd 33d1 f8bd 1991 8bbd
000003e0: 62a6 ddbd f95f e53d cdc5 a6bd 01b6 0ebd
000003f0: ee12 b33d 482c 90ba 86d2 8a3d 9884 8cbd
