FYPprototype/results/ppo/AIBalancing/checkpoint.pt (torch, 147271 bytes, 11 tensors)

network_body._body_endoder.seq_layers.0.weight f4 [128, 4]
-0.28034145 -0.576963 -0.44893435 0.39614862 0.12623641 0.33004367 0.21373719 -0.56843764
0.250912 -0.4455128 -0.55027586 1.0199506 -0.052859172 -1.0957999 0.38712654 -0.21678965
0.9137993 -0.0698209 -0.20264539 -1.1208541 0.49211416 -0.45583698 0.86436075 0.5462928
0.26975667 0.29141513 0.1390928 0.98897254 0.11614007 0.08894206 0.12122731 -0.123885415
-0.38446647 -0.4960768 -0.9385756 0.37742758 -1.118377 0.09177174 -0.016495008 0.3951086
-0.3513739 0.0033687628 -0.6151348 -0.00031704133 -0.32930753 0.48546293 0.43394008 0.8588387
0.12413181 -0.40788493 -0.658942 0.15960869 0.35968664 -0.21542345 0.7923828 0.057343565
-0.10481816 -0.0972857 0.57779866 0.13901201 -0.5502958 0.13479178 0.4562579 -0.5131028
0.61147815 0.59670067 0.49324545 0.18177575 -1.3692452 1.0984805 0.29999918 -0.20133393
-0.5685086 0.20375293 0.7496685 -0.22100292 0.08828307 -0.43172175 -0.8327864 -0.66409177
-0.31822383 0.39440402 -0.1523117 -0.9674407 0.50994587 0.46388713 -0.501825 -0.34479272
-0.15638582 -0.013773439 0.15297067 0.051023062 0.24544168 -0.5463636 0.1298141 0.37390316
-0.49957785 0.1549242 -0.29778162 -0.23981206 0.2132822 -0.0013020268 0.45335436 0.009232213
0.48903418 -0.24165817 0.01629608 -0.37351424 -0.33964303 1.0788506 0.06634618 -0.17540738
-0.24501978 -0.6258314 0.3275546 0.042236082 0.77294254 0.033133384 -0.2567192 0.30403283
-0.09165475 -0.5907994 0.09275315 0.99360526 -0.28054398 -0.23045027 0.2441469 0.11741583
0.32291958 0.77522486 -0.616727 0.0022932629 -0.17611718 0.13960719 -0.27571306 -0.30876496
0.26940864 -0.4553255 -0.16229397 -0.44476762 -0.11394786 0.21434283 0.39508477 0.15530571
-0.49504226 0.40079227 -0.12910943 0.6344012 -0.5176194 -0.35235515 0.15321532 0.50081205
0.067462996 0.08559204 -0.64980125 0.40438408 -1.2803942 -1.4605547 -0.06527575 0.08754213
-0.97428536 -0.3653377 -0.3785994 -0.19775967 0.49599597 -0.09708935 -0.075900525 0.3900421
-0.096015245 0.106945135 0.3155608 0.2214442 0.82457316 -0.15341142 -0.09022941 0.31962466
-0.21359117 -0.07185271 -0.43603802 0.5156804 0.0720637 -0.6589823 -0.37394053 -1.029233
0.8985684 -0.49102467 -0.60129577 -0.17018692 0.5483859 -0.054876916 -0.548761 -0.39832196
-0.46605372 0.5958538 0.3828863 0.26219523 0.3046133 -0.0014231682 -0.8720255 -0.28271353
0.74729264 -0.38097018 0.3520988 0.0873311 0.54668367 -0.21450068 -0.30640078 -0.058741253
-0.55648476 0.25102317 -0.30745122 0.047476046 -0.13346152 0.6882606 -0.17422263 -0.7783457
-0.020147832 -0.37920752 0.13738278 -0.7416569 -0.34170392 0.48659378 0.20646274 -0.49635044
-0.3558069 -0.23095368 -0.02454461 -0.6851215 0.25135753 -0.1767945 0.5207074 0.71374947
0.35932034 0.8794536 -0.24123967 -0.27429205 0.3297622 -0.24888733 0.44874904 -0.32693902
0.14976597 0.034635793 0.4094673 0.056114364 0.6528131 -0.26341376 -0.23315358 -0.54609483
-0.012658762 0.019533351 0.67598855 -0.20064348 0.4236673 0.34049806 -0.62402254 0.26144487
00000000: ea88 8fbe d9b3 13bf b9da e5be fed3 ca3e
00000010: 1e44 013e 7cfb a83e ecdd 5a3e 2185 11bf
00000020: 8a77 803e 411a e4be e1de 0cbf be8d 823f
00000030: dc82 58bd 2c43 8cbf 7335 c63e 1bfe 5dbe
00000040: c0ee 693f 43fe 8ebd 4682 4fbe 2678 8fbf
00000050: 63f6 fb3e 7763 e9be bf46 5d3f d8d9 0b3f
00000060: 8c1d 8a3e 5d34 953e 586e 0e3e 4e2d 7d3f
00000070: d8da ed3d 4127 b63d 0646 f83d a3b7 fdbd
00000080: cad8 c4be c7fd fdbe 7e46 70bf 303e c13e
00000090: fa26 8fbf d2f2 bb3d 8a20 87bc ad4b ca3e
000000a0: 48e7 b3be 76c6 5c3b 7979 1dbf 9138 a6b9
000000b0: ff9a a8be 998e f83e 652d de3e dadc 5b3f
000000c0: d238 fe3d 4bd6 d0be 6cb0 28bf 7670 233e
000000d0: d928 b83e f797 5cbe 99d9 4a3f 16e1 6a3d
000000e0: e7aa d6bd ba3d c7bd 9dea 133f 2a59 0e3e
000000f0: 30e0 0cbf db06 0a3e a39a e93e b55a 03bf
00000100: d589 1c3f 60c1 183f ab8a fc3e 6c23 3a3e
00000110: 6d43 afbf 029b 8c3f 7e99 993e 7b2a 4ebe
00000120: c889 11bf 9ca4 503e 46ea 3f3f 974e 62be
00000130: c1cd b43d a20a ddbe 7d31 55bf eb01 2abf
00000140: 3cee a2be 53ef c93e 99f7 1bbe 32aa 77bf
00000150: d08b 023f 9d82 ed3e 9a77 00bf ac88 b0be
00000160: 9b23 20be fea9 61bc 58a4 1c3e 8ffd 503d
00000170: 1055 7b3e 7cde 0bbf fded 043e 3c70 bf3e
00000180: abc8 ffbe 73a4 1e3e d576 98be 4b91 75be
00000190: a666 5a3e c5a8 aaba 101e e83e b542 173c
000001a0: b062 fa3e 3d75 77be 5b7f 853c 423d bfbe
000001b0: b1e5 adbe c717 8a3f 82e0 873d fe9d 33be
000001c0: 77e6 7abe 7d36 20bf 3db5 a73e beff 2c3d
000001d0: 90df 453f dfb6 073d b370 83be 31aa 9b3e
000001e0: 7cb5 bbbd a13e 17bf 5df5 bd3d ea5c 7e3f
000001f0: 76a3 8fbe 28fb 6bbe a501 7a3e b677 f03d
00000200: b755 a53e 2375 463f d2e1 1dbf 914a 163b
00000210: 1058 34be 30f5 0e3e 432a 8dbe 7116 9ebe
00000220: eeef 893e 6d20 e9be 6430 26be 95b8 e3be
00000230: 7f5d e9bd b07c 5b3e 8d48 ca3e 7608 1f3e
00000240: 2e76 fdbe a534 cd3e 4335 04be 1e68 223f
00000250: b482 04bf e567 b4be 7ae4 1c3e 3835 003f
00000260: 0a2a 8a3d e14a af3d 6059 26bf 6e0b cf3e
00000270: f5e3 a3bf 75f3 babf 4baf 85bd 4a49 b33d
00000280: c46a 79bf 8b0d bbbe c8d7 c1be 8381 4abe
00000290: 2ff3 fd3e c8d6 c6bd bc71 9bbd 99b3 c73e
000002a0: a4a3 c4bd 0d06 db3d 2f91 a13e 45c2 623e
000002b0: 3a17 533f e217 1dbe 32ca b8bd d8a5 a33e
000002c0: a5b7 5abe 8327 93bd 6040 dfbe a103 043f
000002d0: 2296 933d 10b3 28bf 2275 bfbe e8bd 83bf
000002e0: 9408 663f 9667 fbbe 85ee 19bf 7b45 2ebe
000002f0: 0563 0c3f 9ec6 60bd 9a7b 0cbf dbf0 cbbe
00000300: 989e eebe e089 183f ac09 c43e 743e 863e
00000310: 46f6 9b3e 9a89 baba 103d 5fbf d4bf 90be
00000320: 924e 3f3f 860e c3be 4b46 b43e a6da b23d
00000330: 76f3 0b3f 11a6 5bbe 90e0 9cbe ab9a 70bd
00000340: c975 0ebf 1c86 803e 3f6a 9dbe 3e76 423d
00000350: 23aa 08be d931 303f 6b67 32be aa41 47bf
00000360: 110d a5bc 7d27 c2be 12ae 0c3e 3add 3dbf
00000370: d1f3 aebe d222 f93e f86a 533e a521 febe
00000380: 522c b6be 1f7f 6cbe c711 c9bc 1f64 2fbf
00000390: efb1 803e 9e09 35be 154d 053f 49b8 363f
000003a0: d6f8 b73e df23 613f 8807 77be 0270 8cbe
000003b0: 97d6 a83e 52dc 7ebe 6fc2 e53e 8d64 a7be
000003c0: 405c 193e 43de 0d3d b3a5 d13e 2dd8 653d
000003d0: c21e 273f 2bde 86be d0bf 6ebe dfcc 0bbf
000003e0: b266 4fbc 6804 a03c 960d 2d3f 7c75 4dbe
000003f0: ecea d83e c355 ae3e f1bf 1fbf 1adc 853e

network_body._body_endoder.seq_layers.0.bias f4 [128]
0.0 0.0 0.0 0.0 0.0 0.0 0.0 0.0
0.0 0.0 0.0 0.0 0.0 0.0 0.0 0.0
0.0 0.0 0.0 0.0 0.0 0.0 0.0 0.0
0.0 0.0 0.0 0.0 0.0 0.0 0.0 0.0
0.0 0.0 0.0 0.0 0.0 0.0 0.0 0.0
0.0 0.0 0.0 0.0 0.0 0.0 0.0 0.0
0.0 0.0 0.0 0.0 0.0 0.0 0.0 0.0
0.0 0.0 0.0 0.0 0.0 0.0 0.0 0.0
0.0 0.0 0.0 0.0 0.0 0.0 0.0 0.0
0.0 0.0 0.0 0.0 0.0 0.0 0.0 0.0
0.0 0.0 0.0 0.0 0.0 0.0 0.0 0.0
0.0 0.0 0.0 0.0 0.0 0.0 0.0 0.0
0.0 0.0 0.0 0.0 0.0 0.0 0.0 0.0
0.0 0.0 0.0 0.0 0.0 0.0 0.0 0.0
0.0 0.0 0.0 0.0 0.0 0.0 0.0 0.0
0.0 0.0 0.0 0.0 0.0 0.0 0.0 0.0
00000000: 0000 0000 0000 0000 0000 0000 0000 0000
00000010: 0000 0000 0000 0000 0000 0000 0000 0000
00000020: 0000 0000 0000 0000 0000 0000 0000 0000
00000030: 0000 0000 0000 0000 0000 0000 0000 0000
00000040: 0000 0000 0000 0000 0000 0000 0000 0000
00000050: 0000 0000 0000 0000 0000 0000 0000 0000
00000060: 0000 0000 0000 0000 0000 0000 0000 0000
00000070: 0000 0000 0000 0000 0000 0000 0000 0000
00000080: 0000 0000 0000 0000 0000 0000 0000 0000
00000090: 0000 0000 0000 0000 0000 0000 0000 0000
000000a0: 0000 0000 0000 0000 0000 0000 0000 0000
000000b0: 0000 0000 0000 0000 0000 0000 0000 0000
000000c0: 0000 0000 0000 0000 0000 0000 0000 0000
000000d0: 0000 0000 0000 0000 0000 0000 0000 0000
000000e0: 0000 0000 0000 0000 0000 0000 0000 0000
000000f0: 0000 0000 0000 0000 0000 0000 0000 0000
00000100: 0000 0000 0000 0000 0000 0000 0000 0000
00000110: 0000 0000 0000 0000 0000 0000 0000 0000
00000120: 0000 0000 0000 0000 0000 0000 0000 0000
00000130: 0000 0000 0000 0000 0000 0000 0000 0000
00000140: 0000 0000 0000 0000 0000 0000 0000 0000
00000150: 0000 0000 0000 0000 0000 0000 0000 0000
00000160: 0000 0000 0000 0000 0000 0000 0000 0000
00000170: 0000 0000 0000 0000 0000 0000 0000 0000
00000180: 0000 0000 0000 0000 0000 0000 0000 0000
00000190: 0000 0000 0000 0000 0000 0000 0000 0000
000001a0: 0000 0000 0000 0000 0000 0000 0000 0000
000001b0: 0000 0000 0000 0000 0000 0000 0000 0000
000001c0: 0000 0000 0000 0000 0000 0000 0000 0000
000001d0: 0000 0000 0000 0000 0000 0000 0000 0000
000001e0: 0000 0000 0000 0000 0000 0000 0000 0000
000001f0: 0000 0000 0000 0000 0000 0000 0000 0000

network_body._body_endoder.seq_layers.2.weight f4 [128, 128]
0.1800354 -0.14231242 0.13665612 -0.1515496 0.08701157 -0.033033464 0.0527335 -0.0148274815
-0.037707265 -0.15296991 0.070419036 0.01334724 0.026731586 0.06059089 0.09035627 -0.09614621
-0.13456205 0.15946239 0.04027062 0.034113828 -0.011589296 -0.04682122 0.0024058782 0.009656584
-0.08195346 -0.024816986 -0.021633394 0.026169268 0.0573081 -0.1419249 -0.05760039 0.05010735
0.04561959 -0.07475315 -0.037914768 -0.017432043 -0.067227684 0.0070645604 0.029774932 -0.01413859
-0.03427172 -0.056284323 -0.08476019 0.016866893 -0.054078978 0.02740023 0.032543734 0.029393606
-0.0077172057 0.16749951 -0.15284024 0.048467122 -0.028713873 -0.21552488 0.03830987 -0.15046586
-0.09022944 -0.1603724 0.046817172 0.010098447 0.088977 0.113332465 -0.044812825 -0.048779335
0.28170878 0.19116624 -0.0060127755 -0.008989257 -0.17741108 0.043816533 0.082361765 -0.08632264
-0.06876443 -0.09326104 0.19177239 0.06547359 -0.03188592 0.08617075 0.094588175 0.13611889
-0.0412249 -0.12234116 -0.059566546 -0.042468727 0.0019108248 -0.16611166 -0.035037618 -0.035558987
0.065408096 0.17016368 0.09342163 0.04204625 0.007998768 0.12357283 0.0439649 0.13198546
-0.043814447 0.11180765 -0.22212163 0.008378068 -0.0015931203 -0.12117776 0.046701137 0.03127342
-0.064021364 0.036745507 0.0385745 0.012112165 0.047940865 0.059503183 -0.023749614 -0.024167411
-0.118875615 0.019941406 -0.05492848 -0.08424349 0.08866429 0.13022049 0.015871087 -0.08246683
-0.009911233 0.010822411 -0.036095057 -0.064894326 0.009715383 -0.05914307 0.07585795 0.17057331
-0.124405935 -0.022042824 0.08276806 -0.0034918035 -0.058134228 0.108770244 -0.0018696634 -0.1358308
0.010920194 -0.007251205 -0.010965186 0.1239958 0.016405078 0.04158987 0.13458191 0.09074217
0.010287844 0.03247563 0.046695583 -0.019136425 0.062433995 0.040532935 -0.02933029 0.0038369773
0.16381328 -0.030404512 0.08407609 0.05996708 0.023012463 -0.14101103 0.051124763 -0.1858769
-0.058615375 0.06708095 0.08393667 0.00097130943 -0.009383455 0.012504813 0.033073116 -0.032119524
-0.13081482 -0.175212 0.17380121 0.014252702 0.10740477 0.020551408 -0.007310529 -0.07606379
0.033073477 0.0242449 -0.037727736 -0.102184355 -0.01008959 0.0140196 -0.11043314 0.0798094
0.0046641063 0.0046639605 0.09161919 0.13129383 -0.105871804 0.11408973 0.016487772 0.0033367823
-0.038133394 0.0020781446 0.11528392 -0.088385895 0.014591315 0.053640556 0.0748327 0.042230524
-0.08181867 -0.011148526 -0.00702676 -0.05410993 -0.14457583 -0.15634276 -0.003991884 0.036278646
-0.10372774 -0.021975484 0.075322874 0.02084308 0.10330768 -0.115388796 -0.11286632 0.04204872
0.020100448 -0.090447284 -0.033005435 -0.08548439 0.02730549 -0.07609273 0.0896064 0.0026363768
-0.013834331 -0.058622684 -0.05906415 0.049158797 -0.05994641 0.035767864 -0.0316836 0.024931064
0.004107307 0.033717014 0.2041341 0.06774094 0.06703246 0.14485817 -0.09427172 -0.054506432
-0.039765943 0.012012077 0.047480743 0.00969446 0.0719031 0.015782852 0.0005388572 -0.07918994
0.065790795 0.0020963452 -0.09701589 -0.07243138 -0.015183425 0.101928905 0.050985157 -0.02689842
00000000: 335b 383e 59ba 11be 95ef 0b3e d12f 1bbe
00000010: 1f33 b23d 194e 07bd 15ff 573d f7ee 72bc
00000020: ef72 1abd 25a4 1cbe db37 903d 62ae 5a3c
00000030: 33fc da3c 272e 783d b50c b93d 4ee8 c4bd
00000040: a2ca 09be 1c4a 233e cef2 243d f1ba 0b3d
00000050: 08e1 3dbc 9cc7 3fbd f0ab 1d3b a636 1e3c
00000060: 37d7 a7bd fe4c cbbc 8438 b1bc ef60 d63c
00000070: e6bb 6a3d c354 11be 63ee 6bbd 5d3d 4d3d
00000080: 9bdb 3a3d 2e18 99bd 844c 1bbd a5cd 8ebc
00000090: abae 89bd d47d e73b 8fea f33c 8ba5 67bc
000000a0: 8160 0cbd 648a 66bd c096 adbd 702c 8a3c
000000b0: eb81 5dbd 7276 e03c 944c 053d dcca f03c
000000c0: 9de0 fcbb fe84 2b3e 2782 1cbe 7685 463d
000000d0: 5b39 ebbc 8eb2 5cbe cfea 1c3d b913 1abe
000000e0: 36ca b8bd aa38 24be 5dc3 3f3d f573 253c
000000f0: 9339 b63d da1a e83d a78d 37bd d7cc 47bd
00000100: 223c 903e 15c1 433e d106 c5bb ad47 13bc
00000110: 40ab 35be f778 333d 49ad a83d edc9 b0bd
00000120: 5ed4 8cbd a5ff bebd fb5f 443e 0417 863d
00000130: cf9a 02bd 4a7a b03d 72b7 c13d c062 0b3e
00000140: 71db 28bd 018e fabd 0dfc 73bd b0f3 2dbd
00000150: a474 fa3a 2d19 2abe 9b83 0fbd 4da6 11bd
00000160: aef4 853d 633f 2e3e d753 bf3d b038 2c3d
00000170: 440d 033c c013 fd3d 8a14 343d 3227 073e
00000180: c776 33bd 69fb e43d da73 63be 2a44 093c
00000190: 3fd0 d0ba 0c2c f8bd b149 3f3d 8f18 003d
000001a0: a21d 83bd 7582 163d 4b00 1e3d 1a72 463c
000001b0: a45d 443d 9cb9 733d 8d8e c2bc bcfa c5bc
000001c0: 0f75 f3bd 295c a33c b0fc 60bd da87 acbd
000001d0: a095 b53d 8558 053e 1504 823c 5fe4 a8bd
000001e0: b962 22bc 7b50 313c 69d8 13bd 51e7 84bd
000001f0: 452d 1f3c 0140 72bd 6a5b 9b3d c5aa 2e3e
00000200: 8ac8 febd 2793 b4bc 4d82 a93d bed6 64bb
00000210: 281e 6ebd efc2 de3d 7e0f f5ba 3b17 0bbe
00000220: 9dea 323c 849b edbb 53a7 33bc 83f1 fd3d
00000230: f163 863c 245a 2a3d d7cf 093e 08d7 b93d
00000240: 588e 283c 2b05 053d de43 3f3d fec3 9cbc
00000250: caba 7f3d dd05 263d 1446 f0bc cc75 7b3b
00000260: abbe 273e e212 f9bc 1630 ac3d 0aa0 753d
00000270: a284 bc3c 3265 10be 3368 513d 8456 3ebe
00000280: ad16 70bd bd61 893d fde6 ab3d 799f 7e3a
00000290: 10bd 19bc fde0 4c3c ad77 073d c38f 03bd
000002a0: 52f4 05be c66a 33be f2f8 313e 2a84 693c
000002b0: 08f7 db3d 6d5b a83c 298d efbb 55c7 9bbd
000002c0: 0e78 073d 3e9d c63c 6688 1abd 0846 d1bd
000002d0: cf4e 25bc 77b2 653c c52a e2bd 1c73 a33d
000002e0: 5cd5 983b 23d4 983b d8a2 bb3d e471 063e
000002f0: 51d3 d8bd e0a7 e93d 5d11 873c ebad 5a3b
00000300: c331 1cbd 7b31 083b fa19 ec3d aa03 b5bd
00000310: 6910 6f3c 33b6 5b3d e341 993d eaf9 2c3d
00000320: 8c90 a7bd 4fa8 36bc bc40 e6bb 60a2 5dbd
00000330: b00b 14be 5118 20be 5ace 82bb eb98 143d
00000340: 366f d4bd ee05 b4bc e142 9a3d 1bbf aa3c
00000350: fa92 d33d f650 ecbd 7526 e7bd 473b 2c3d
00000360: b2a9 a43c 6d3c b9bd b530 07bd 7112 afbd
00000370: c3af df3c 81d6 9bbd 8f83 b73d 10c7 2c3b
00000380: 64a9 62bc 571e 70bd 40ed 71bd bc5a 493d
00000390: 5e8a 75bd 5381 123d aac6 01bd 3b3c cc3c
000003a0: 9796 863b da1a 0a3d 8808 513e c3bb 8a3d
000003b0: 5048 893d b355 143e 8811 c1bd 2342 5fbd
000003c0: 9de1 22bd 4dce 443c 2b7b 423d 83d5 1e3c
000003d0: ef41 933d 0a4b 813c 1842 0d3a 562e a2bd
000003e0: 53bd 863d d662 093b 44b0 c6bd e756 94bd
000003f0: e6c3 78bc 1ac0 d03d d0d5 503d 135a dcbc

network_body._body_endoder.seq_layers.2.bias f4 [128]
0.0 0.0 0.0 0.0 0.0 0.0 0.0 0.0
0.0 0.0 0.0 0.0 0.0 0.0 0.0 0.0
0.0 0.0 0.0 0.0 0.0 0.0 0.0 0.0
0.0 0.0 0.0 0.0 0.0 0.0 0.0 0.0
0.0 0.0 0.0 0.0 0.0 0.0 0.0 0.0
0.0 0.0 0.0 0.0 0.0 0.0 0.0 0.0
0.0 0.0 0.0 0.0 0.0 0.0 0.0 0.0
0.0 0.0 0.0 0.0 0.0 0.0 0.0 0.0
0.0 0.0 0.0 0.0 0.0 0.0 0.0 0.0
0.0 0.0 0.0 0.0 0.0 0.0 0.0 0.0
0.0 0.0 0.0 0.0 0.0 0.0 0.0 0.0
0.0 0.0 0.0 0.0 0.0 0.0 0.0 0.0
0.0 0.0 0.0 0.0 0.0 0.0 0.0 0.0
0.0 0.0 0.0 0.0 0.0 0.0 0.0 0.0
0.0 0.0 0.0 0.0 0.0 0.0 0.0 0.0
0.0 0.0 0.0 0.0 0.0 0.0 0.0 0.0
00000000: 0000 0000 0000 0000 0000 0000 0000 0000
00000010: 0000 0000 0000 0000 0000 0000 0000 0000
00000020: 0000 0000 0000 0000 0000 0000 0000 0000
00000030: 0000 0000 0000 0000 0000 0000 0000 0000
00000040: 0000 0000 0000 0000 0000 0000 0000 0000
00000050: 0000 0000 0000 0000 0000 0000 0000 0000
00000060: 0000 0000 0000 0000 0000 0000 0000 0000
00000070: 0000 0000 0000 0000 0000 0000 0000 0000
00000080: 0000 0000 0000 0000 0000 0000 0000 0000
00000090: 0000 0000 0000 0000 0000 0000 0000 0000
000000a0: 0000 0000 0000 0000 0000 0000 0000 0000
000000b0: 0000 0000 0000 0000 0000 0000 0000 0000
000000c0: 0000 0000 0000 0000 0000 0000 0000 0000
000000d0: 0000 0000 0000 0000 0000 0000 0000 0000
000000e0: 0000 0000 0000 0000 0000 0000 0000 0000
000000f0: 0000 0000 0000 0000 0000 0000 0000 0000
00000100: 0000 0000 0000 0000 0000 0000 0000 0000
00000110: 0000 0000 0000 0000 0000 0000 0000 0000
00000120: 0000 0000 0000 0000 0000 0000 0000 0000
00000130: 0000 0000 0000 0000 0000 0000 0000 0000
00000140: 0000 0000 0000 0000 0000 0000 0000 0000
00000150: 0000 0000 0000 0000 0000 0000 0000 0000
00000160: 0000 0000 0000 0000 0000 0000 0000 0000
00000170: 0000 0000 0000 0000 0000 0000 0000 0000
00000180: 0000 0000 0000 0000 0000 0000 0000 0000
00000190: 0000 0000 0000 0000 0000 0000 0000 0000
000001a0: 0000 0000 0000 0000 0000 0000 0000 0000
000001b0: 0000 0000 0000 0000 0000 0000 0000 0000
000001c0: 0000 0000 0000 0000 0000 0000 0000 0000
000001d0: 0000 0000 0000 0000 0000 0000 0000 0000
000001e0: 0000 0000 0000 0000 0000 0000 0000 0000
000001f0: 0000 0000 0000 0000 0000 0000 0000 0000

action_model._discrete_distribution.branches.0.weight f4 [2, 128]
0.009066037 0.0052156486 -0.003522231 0.01007461 0.015917428 0.008254281 0.0009804519 -0.0023829502
-0.015228768 -0.007450183 -0.013124418 0.0108046485 0.0030691717 0.003756499 -0.0021935792 -0.009510168
0.0147648705 0.0022634293 0.008523197 0.0047534383 -0.0027870734 0.0019343185 -0.016775006 -0.012406896
0.0022532435 -0.004497102 7.634493e-05 0.011386394 0.0033106494 0.012720483 -0.0011607361 -0.012227312
-0.0028452238 -0.0011512178 0.0056333942 -0.015246257 -0.0067860833 0.002472265 -0.0044561676 -0.014217227
0.026920764 0.0033832316 -0.0036409807 0.0021693867 -0.0006389751 0.012463542 -0.014218791 -0.0010081477
0.007570527 -0.0027208382 0.012383481 0.0035479614 0.011350789 0.008863672 -0.007043609 -0.0015664703
0.01138693 0.001338105 -0.00084564724 -0.016811503 0.0133981155 0.009954459 0.0020818745 0.0035317962
0.003644963 -0.00437333 0.01593486 -0.0009575478 0.004554308 0.005370866 -0.0033516728 0.005857104
0.0015933007 0.010679323 -0.0056593805 -0.01328812 -0.0034799806 0.00977623 0.0010548424 -0.0040216963
0.0054316083 -0.0046591046 -0.017961446 0.01306714 -0.016312273 0.0032140228 0.0069496357 -0.016697017
0.012676704 0.0022829697 -0.0022420788 -0.0075588073 -0.0047858297 0.013626138 -0.0047369828 0.00981001
-0.0049076797 -0.001048205 0.0014519074 -0.005539402 0.005409074 -0.0007506664 -0.011680564 0.006281011
-0.0054023676 0.008311877 -0.0008947475 -0.005664283 -0.021166464 -0.0010346676 -0.0024444247 -0.011395142
-0.002143689 -0.0064773397 0.0078832805 0.014285549 0.0093588075 0.011947532 0.0096503375 -0.0047212653
0.009380071 0.010632815 0.0012511978 0.0023546482 -0.009991682 -0.013442109 -0.002721201 -0.009109891
0.013889009 0.008178996 -0.014052639 0.009721489 0.004443138 0.003528994 -0.0041841874 -0.003489548
0.009462144 -0.009346687 0.0054470086 -0.0077146604 -0.021943001 -0.0018520429 0.00041509728 0.0060155424
0.0030650168 0.003426772 -0.008278731 0.008569751 0.007910855 -0.0010838279 0.0007306495 0.0038836978
-0.0043532867 -0.00055419066 0.0010186313 0.013685358 -0.017275505 -0.0015003354 -0.0025942412 0.016046911
-0.012137483 0.003849451 0.0040623206 -0.006542264 -0.010071113 0.0064991564 0.009847376 0.006801599
0.008266329 -0.01981359 0.007209968 0.016900694 0.0015284395 0.0034806074 -0.013515296 0.0031017978
0.0039944327 -0.0047279987 0.00897303 -0.004013981 -0.0036332242 0.012900399 0.008538616 0.006002537
-0.0010209017 0.0032272865 0.009903348 0.00020623974 0.0168887 -0.015745072 0.0012695527 -0.011323827
-0.0017534004 -0.019849947 -0.018843358 0.023701807 -0.0050648595 0.0006286469 -0.0027590669 0.0070439503
-0.0024724184 -0.009862661 0.00905659 -3.7484537e-05 0.0040487787 -0.004596268 0.0109946765 0.004343208
-0.009425222 0.007238465 -0.0014614869 -0.0075074956 -0.0068807267 0.0067636105 0.0014683949 -0.0074766735
-0.0063272277 0.009844082 -0.0018644364 -0.0024708493 -0.005973754 0.012308209 -0.0049493066 -0.0022163517
0.0022093216 0.0028464277 0.0042028874 -0.0047582244 -0.023607053 -0.0009894635 -0.0064847707 0.002854484
0.005233045 0.006492413 -0.01292394 0.012259082 0.004135615 -0.0023303318 -0.0073619345 0.0027695263
-0.0012128152 0.0033288912 -0.0036594197 0.0044122315 0.009743768 0.011907401 0.002626275 -0.0095265
-0.0068690847 -0.0034168165 -0.010937562 0.0045662685 -0.0045255353 0.002355118 0.009176436 0.010630508
00000000: b789 143c 08e8 aa3b 3bd5 66bb fa0f 253c
00000010: 4465 823c f73c 073c 8282 803a 452b 1cbb
00000020: 1582 79bc aa20 f4bb cd07 57bc fb05 313c
00000030: 2824 493b 982f 763b 27c2 0fbb 89d0 1bbc
00000040: 5be8 713c 0b56 143b e1a4 0b3c bbc2 9b3b
00000050: 55a7 36bb f588 fd3a bd6b 89bc 4b46 4bbc
00000060: 27ab 133b 6d5c 93bb 5f1b a038 ff8d 3a3c
00000070: 7bf7 583b 9369 503c d723 98ba 1055 48bc
00000080: ef76 3abb 76e4 96ba 5698 b83b 70cb 79bc
00000090: cb5d debb b905 223b 0b05 92bb 5fef 68bc
000000a0: ef88 dc3c 35b9 5d3b 859d 6ebb 452c 0e3b
000000b0: e580 27ba e233 4c3c eff5 68bc d323 84ba
000000c0: 2f12 f83b 1750 32bb 15e4 4a3c ea84 683b
000000d0: a9f8 393c ef38 113c 13ce e6bb 0552 cdba
000000e0: 3f90 3a3c 5a63 af3a 6dae 5dba 47b8 89bc
000000f0: c583 5b3c 0718 233c 0f70 083b b575 673b
00000100: 55e0 6e3b 274e 8fbb d389 823c f203 7bba
00000110: 4e3c 953b 17fe af3b bda7 5bbb f3ec bf3b
00000120: 4dd6 d03a 54f8 2e3c 5372 b9bb 6ab6 59bc
00000130: 6310 64bb 7b2c 203c a342 8a3a 6fc8 83bb
00000140: a2fb b13b 67ab 98bb e223 93bc 8f17 563c
00000150: 51a1 85bc 5ba2 523b c5b9 e33b 2fc8 88bc
00000160: f3b1 4f3c e09d 153b d7ef 12bb dfaf f7bb
00000170: 73d2 9cbb 2a40 5f3c b138 9bbb 2aba 203c
00000180: 9ad0 a0bb ec63 89ba ee4d be3a df83 b5bb
00000190: 9a3e b13b 5fc8 44ba d65f 3fbc f0d0 cd3b
000001a0: 5806 b1bb 8a2e 083c 7d8d 6aba 739b b9bb
000001b0: 4b65 adbc af9d 87ba a432 20bb b1b2 3abc
000001c0: 227d 0cbb dd3f d4bb e028 013c ef0d 6a3c
000001d0: af55 193c 95bf 433c 731c 1e3c d8b4 9abb
000001e0: dfae 193c 4235 2e3c 3bff a33a 7150 1a3b
000001f0: 27b4 23bc 4b3c 5cbc 2d56 32bb a741 15bc
00000200: ba8e 633c 3201 063c 0a3d 66bc e146 1f3c
00000210: be97 913b b246 673b 821b 89bb e7b0 64bb
00000220: 1c07 1b3c d922 19bc d27c b23b 43cb fcbb
00000230: cfc1 b3bc 3fc0 f2ba 6aa1 d939 071e c53b
00000240: 73de 483b b293 603b 84a3 07bc 2468 0c3c
00000250: 889c 013c 3b0f 8eba 0f89 3f3a a385 7e3b
00000260: 04a6 8ebb 1b47 11ba 9883 853a 8d38 603c
00000270: 5c85 8dbc e7a6 c4ba 2504 2abb d074 833c
00000280: 4bdc 46bc 1247 7c3b 371d 853b 7d60 d6bb
00000290: 4f01 25bc e0f6 d43b e356 213c f3df de3b
000002a0: 7f6f 073c 1c50 a2bc 9841 ec3b 5373 8a3c
000002b0: eb55 c83a e71a 643b 436f 5dbc 8847 4b3b
000002c0: bbe3 823b 54ed 9abb 9e03 133c b787 83bb
000002d0: 631b 6ebb 325c 533c 8de5 0b3c eeb0 c43b
000002e0: c7cf 85ba e280 533b a741 223c 0f42 5839
000002f0: 2c5a 8a3c cffb 80bc 1f67 a63a 9387 39bc
00000300: 5bd2 e5ba 5b9c a2bc 635d 9abc 4b2a c23c
00000310: 1ff7 a5bb c8cb 243a 76d1 34bb f0d0 e63b
00000320: 4c08 22bb 0097 21bc 1762 143c b738 1db8
00000330: 9eab 843b 4a9c 96bb 0423 343c 7851 8e3b
00000340: 3f6c 1abc a530 ed3b 5d8f bfba 7001 f6bb
00000350: b877 e1bb 47a1 dd3b 2877 c03a e2fe f4bb
00000360: a254 cfbb 1349 213c 1b60 f4ba f9ed 21bb
00000370: 7bbf c3bb 5fa8 493c cb2d a2bb 3640 11bb
00000380: 44ca 103b 228b 3a3b 60b8 893b e1ea 9bbb
00000390: 9463 c1bc e3b0 81ba 337e d4bb 4b12 3b3b
000003a0: f779 ab3b 4fbe d43b efbe 53bc 51da 483c
000003b0: 0e84 873b 7bb8 18bb 623c f1bb f180 353b
000003c0: 53f7 9eba 8729 5a3b e0d2 6fbb 7b94 903b
000003d0: 53a4 1f3c 4217 433c 951d 2c3b 0915 1cbc
000003e0: 0f16 e1bb abec 5fbb 7633 33bc a3a0 953b
000003f0: f14a 94bb 5358 1a3b c358 163c 952b 2e3c

action_model._discrete_distribution.branches.0.bias f4 [2]
0.0 0.0
00000000: 0000 0000 0000 0000

network_body._body_endoder.seq_layers.0.weight f4 [128, 4]
-0.26073498 -0.0841501 -0.6459707 0.49104366 -0.5548449 -0.01743368 -0.42157018 -0.2501392
-0.6848168 0.2708622 -0.1230637 0.0026787873 0.73568785 0.08605765 -0.25265503 -0.029720625
0.057215087 0.24754414 -0.2273392 -0.5787997 0.30433333 -0.076647215 -0.68036056 -0.039700434
0.5157494 0.6321096 -0.4279126 0.4897537 -0.23556156 0.20682427 0.18427666 -0.22108257
0.21652886 0.24643321 -0.24597251 0.66053885 -0.19861963 1.0374918 -0.37243184 0.4255767
-0.36619145 0.4441301 -0.29574236 0.59886724 -0.3705334 -0.2275325 -0.605583 -0.18649614
0.8506698 -0.4224191 -0.027703932 -0.82152873 -0.64157677 0.3604868 -0.6356114 -0.045296974
0.5502233 0.43322966 -1.1216508 1.4530352 -0.68903965 0.78488475 -0.4449259 -0.84571654
0.9502816 0.24336028 -0.026342077 0.2592134 -0.50185114 -0.8449933 0.27568913 -0.6078403
0.15557984 0.14167373 0.52713567 -0.4416518 -0.133712 0.31161034 0.83992016 -0.3015253
-0.21973817 0.48003072 -0.49618518 -0.36718282 -0.08620602 -0.31984067 -0.4230985 0.56505793
-0.07732697 -0.088079765 0.0582778 -0.12731206 0.31085864 0.40316537 -0.14713567 -0.22462255
0.2835629 -0.50097287 -0.34082296 -0.4604482 0.6210755 -0.26161942 -0.7036286 -0.08218779
0.16283552 -0.6201209 0.35741532 -0.4986934 0.18099768 -0.45554426 0.70935935 -0.2599438
1.0929905 0.27501202 -0.12098058 -0.37179354 -0.16401811 -0.40152645 0.36773464 0.16241303
0.22702454 -0.23833731 0.66777825 0.41382968 0.26007378 0.44617194 -0.029373087 0.039824065
0.07023399 0.53326434 0.6826862 0.54905975 -0.17602672 0.1776002 -0.45547846 0.12234043
0.48457617 0.55517095 0.35796934 -0.06560949 -0.45455244 -0.40600735 0.37765643 0.023920327
-0.45021874 0.7960578 -0.6429908 -0.7496824 0.19161512 0.087808535 -0.38120043 -0.5250598
0.5907076 0.41672075 0.95713377 -0.85850656 -0.44219506 -0.2704931 0.4709426 -0.578152
-0.3197031 -0.5602581 0.072323844 0.07383473 -0.45978957 0.20382257 0.093551554 -0.977122
0.27511862 -0.21641389 -0.19456804 0.07840953 0.46859592 -0.43548226 -0.16304223 0.343661
0.38320023 -0.3509819 -0.30303088 0.69675004 -0.22159332 0.33895546 0.47116727 0.41543713
0.83525956 -0.52641505 -0.1669155 0.15406485 0.13997805 -0.6470975 0.2525487 0.016962446
-0.076754615 0.432479 1.0357916 -1.0733565 -0.23688306 -0.1683443 -0.8847088 -0.70517427
0.153575 0.4803582 0.014360267 0.8617327 -0.14907691 -0.25602284 0.7044785 0.5521532
-0.78051853 -0.16376905 -0.3257313 -0.11565456 0.5684533 -0.23522359 0.123691216 0.7110583
-0.2143803 -0.6625886 -0.23114988 -0.035980646 0.48232836 -0.44231203 0.07624726 0.06691935
0.2594828 0.29625326 0.08382954 0.24219333 0.005450792 -0.0034388257 0.34917438 -0.5815635
-0.1919124 -0.15054876 -0.88082325 0.13971001 -0.5698871 0.059323132 -0.15034659 -0.328143
-0.6780758 0.3799658 0.25268093 -0.43631092 0.25173396 0.03456088 -0.049357392 -0.22319105
-0.6268023 0.29066473 -0.089138605 0.4619377 -0.16685988 -0.10761067 -0.14957286 -0.2960341
00000000: 0e7f 85be e356 acbd 565e 25bf 136a fb3e
00000010: 510a 0ebf 14d1 8ebc 0cd8 d7be 3f12 80be
00000020: 2750 2fbf 73ae 8a3e d208 fcbd 988e 2f3b
00000030: 0a56 3c3f fe3e b03d 005c 81be ab78 f3bc
00000040: 5e5a 6a3d 367c 7d3e 9bcb 68be 382c 14bf
00000050: 94d1 9b3e 37f9 9cbd 1c2c 2ebf ec9c 22bd
00000060: 2708 043f efd1 213f 5c17 dbbe ffc0 fa3e
00000070: 0d37 71be bec9 533e 05b3 3c3e 7863 62be
00000080: beb9 5d3e fd58 7c3e 38e0 7bbe 1319 293f
00000090: f262 4bbe 88cc 843f 63af bebe 30e5 d93e
000000a0: 727d bbbe 0565 e33e 8b6b 97be 5d4f 193f
000000b0: 8eb6 bdbe 48fe 68be 7d07 1bbf d8f8 3ebe
000000c0: 7fc5 593f 5147 d8be 5bf3 e2bc b54f 52bf
000000d0: 603e 24bf ba91 b83e 6eb7 22bf 5289 39bd
000000e0: 6fdb 0c3f 47d0 dd3e 4192 8fbf 0ffd b93f
000000f0: e764 30bf 35ee 483f 54cd e3be e180 58bf
00000100: a845 733f 7033 793e 57cb d7bc 9eb7 843e
00000110: 5179 00bf 7b51 58bf 2027 8d3e 6c9b 1bbf
00000120: 5250 1f3e eb12 113e 5df2 063f 2f20 e2be
00000130: cceb 08be 648b 9f3e 0205 573f 8661 9abe
00000140: 0b03 61be 96c6 f53e fc0b febe 63ff bbbe
00000150: c88c b0bd 28c2 a3be 5ea0 d8be a3a7 103f
00000160: 9a5d 9ebd 2a63 b4bd b4b4 6e3d 185e 02be
00000170: dd28 9f3e b16b ce3e bcaa 16be 7403 66be
00000180: 282f 913e c23f 00bf 5980 aebe debf ebbe
00000190: cefe 1e3f fbf2 85be 0121 34bf 1252 a8bd
000001a0: 5bbe 263e 3ec0 1ebf 24ff b63e be54 ffbe
000001b0: 7557 393e 193d e9be 9398 353f 5b17 85be
000001c0: 1de7 8b3f 60ce 8c3e abc4 f7bd b95b bebe
000001d0: 5df4 27be e094 cdbe b747 bc3e 9a4f 263e
000001e0: 1f79 683e b20e 74be 84f3 2a3f 7ce1 d33e
000001f0: 6428 853e a670 e43e d49f f0bc 8f1e 233d
00000200: d7d6 8f3d 0384 083f 86c4 2e3f 2e8f 0c3f
00000210: 5940 34be d4dc 353e 7934 e9be 9f8d fa3d
00000220: 5e1a f83e af1f 0e3f c247 b73e 455e 86bd
00000230: 19bb e8be 32e0 cfbe 2f5c c13e 90f4 c33c
00000240: 1283 e6be 72ca 4b3f 0c9b 24bf 30eb 3fbf
00000250: c136 443e f6d4 b33d b42c c3be 526a 06bf
00000260: 9d38 173f 6c5c d53e b806 753f 16c7 5bbf
00000270: 6467 e2be 127e 8abe 631f f13e c501 14bf
00000280: 20b0 a3be 136d 0fbf 861e 943d aa36 973d
00000290: 8a69 ebbe ddb6 503e f597 bf3d ab24 7abf
000002a0: 59dc 8c3e 9a9b 5dbe d83c 47be 2d95 a03d
000002b0: ceeb ef3e 88f7 debe 8bf4 26be 56f4 af3e
000002c0: d232 c43e e6b3 b3be dd26 9bbe 365e 323f
000002d0: 5ce9 62be 928b ad3e d63c f13e 2db4 d43e
000002e0: 92d3 553f 23c3 06bf e6eb 2abe 2dc3 1d3e
000002f0: 6856 0f3e 2fa8 25bf 104e 813e d4f4 8a3c
00000300: 8631 9dbd e36d dd3e d294 843f bf63 89bf
00000310: 7991 72be 7362 2cbe 477c 62bf 4d86 34bf
00000320: c442 1d3e 83f1 f53e 5347 6b3c 849a 5c3f
00000330: 9ea7 18be 6d15 83be b458 343f ea59 0d3f
00000340: 10d0 47bf 13b3 27be 41c6 a6be 4cdc ecbd
00000350: 2886 113f 74de 70be d251 fd3d eb07 363f
00000360: 8286 5bbe 689f 29bf 8eb2 6cbe 7160 13bd
00000370: bef3 f63e b976 e2be 8627 9c3d 030d 893d
00000380: eeda 843e 82ae 973e d2ae ab3d 8701 783e
00000390: 8f9c b23b ec5d 61bb fcc6 b23e 58e1 14bf
000003a0: af84 44be 7429 1abe a27d 61bf 2410 0f3e
000003b0: 1fe4 11bf d0fc 723d 75f4 19be 5c02 a8be
000003c0: 6096 2dbf e18a c23e 655f 813e 2564 dfbe
000003d0: 46e3 803e b68f 0d3d fa2a 4abd 328c 64be
000003e0: 1e76 20bf 02d2 943e 4d8e b6bd 1983 ec3e
000003f0: 51dd 2abe fc62 dcbd a129 19be c891 97be

network_body._body_endoder.seq_layers.0.bias f4 [128]
0.0 0.0 0.0 0.0 0.0 0.0 0.0 0.0
0.0 0.0 0.0 0.0 0.0 0.0 0.0 0.0
0.0 0.0 0.0 0.0 0.0 0.0 0.0 0.0
0.0 0.0 0.0 0.0 0.0 0.0 0.0 0.0
0.0 0.0 0.0 0.0 0.0 0.0 0.0 0.0
0.0 0.0 0.0 0.0 0.0 0.0 0.0 0.0
0.0 0.0 0.0 0.0 0.0 0.0 0.0 0.0
0.0 0.0 0.0 0.0 0.0 0.0 0.0 0.0
0.0 0.0 0.0 0.0 0.0 0.0 0.0 0.0
0.0 0.0 0.0 0.0 0.0 0.0 0.0 0.0
0.0 0.0 0.0 0.0 0.0 0.0 0.0 0.0
0.0 0.0 0.0 0.0 0.0 0.0 0.0 0.0
0.0 0.0 0.0 0.0 0.0 0.0 0.0 0.0
0.0 0.0 0.0 0.0 0.0 0.0 0.0 0.0
0.0 0.0 0.0 0.0 0.0 0.0 0.0 0.0
0.0 0.0 0.0 0.0 0.0 0.0 0.0 0.0
00000000: 0000 0000 0000 0000 0000 0000 0000 0000
00000010: 0000 0000 0000 0000 0000 0000 0000 0000
00000020: 0000 0000 0000 0000 0000 0000 0000 0000
00000030: 0000 0000 0000 0000 0000 0000 0000 0000
00000040: 0000 0000 0000 0000 0000 0000 0000 0000
00000050: 0000 0000 0000 0000 0000 0000 0000 0000
00000060: 0000 0000 0000 0000 0000 0000 0000 0000
00000070: 0000 0000 0000 0000 0000 0000 0000 0000
00000080: 0000 0000 0000 0000 0000 0000 0000 0000
00000090: 0000 0000 0000 0000 0000 0000 0000 0000
000000a0: 0000 0000 0000 0000 0000 0000 0000 0000
000000b0: 0000 0000 0000 0000 0000 0000 0000 0000
000000c0: 0000 0000 0000 0000 0000 0000 0000 0000
000000d0: 0000 0000 0000 0000 0000 0000 0000 0000
000000e0: 0000 0000 0000 0000 0000 0000 0000 0000
000000f0: 0000 0000 0000 0000 0000 0000 0000 0000
00000100: 0000 0000 0000 0000 0000 0000 0000 0000
00000110: 0000 0000 0000 0000 0000 0000 0000 0000
00000120: 0000 0000 0000 0000 0000 0000 0000 0000
00000130: 0000 0000 0000 0000 0000 0000 0000 0000
00000140: 0000 0000 0000 0000 0000 0000 0000 0000
00000150: 0000 0000 0000 0000 0000 0000 0000 0000
00000160: 0000 0000 0000 0000 0000 0000 0000 0000
00000170: 0000 0000 0000 0000 0000 0000 0000 0000
00000180: 0000 0000 0000 0000 0000 0000 0000 0000
00000190: 0000 0000 0000 0000 0000 0000 0000 0000
000001a0: 0000 0000 0000 0000 0000 0000 0000 0000
000001b0: 0000 0000 0000 0000 0000 0000 0000 0000
000001c0: 0000 0000 0000 0000 0000 0000 0000 0000
000001d0: 0000 0000 0000 0000 0000 0000 0000 0000
000001e0: 0000 0000 0000 0000 0000 0000 0000 0000
000001f0: 0000 0000 0000 0000 0000 0000 0000 0000

network_body._body_endoder.seq_layers.2.weight f4 [128, 128]
-0.0568973 0.07208068 -0.01593236 0.1204001 -0.12842572 0.030279554 -0.10526666 0.004947301
-0.10175605 0.09138683 -0.18213087 0.09608411 0.006182656 -0.0076732254 0.043887388 0.04688456
-0.006394369 -0.10329199 0.10540529 -0.013123318 0.13444664 0.022453941 -0.0020881658 0.14658801
-0.026267586 0.087821834 0.10419114 0.13202974 0.11166166 0.07647687 0.03176922 0.0080319755
-0.05935071 0.11546747 0.06748982 0.008299764 0.08730888 -0.05311979 0.055004243 -0.06600724
0.04116804 0.11704148 -0.07003034 -0.13796028 0.07362954 0.08406776 0.029642155 -0.08329834
-0.19355777 0.050680652 0.054557856 -0.02336011 0.011010928 -0.011124427 0.022075154 -0.038505573
-0.10882309 0.07967657 0.038089093 -0.10067138 -0.17865781 0.13495676 0.13348249 -0.038381945
0.10379065 0.16074811 -0.059199996 0.1514764 -0.08953129 0.0027263009 0.2504561 0.04815949
-0.12266865 0.010011089 0.0720857 -0.045482688 0.0033891164 0.13608874 -0.043817494 -0.099110276
-0.12656155 -0.05857822 -0.051445466 -0.13737677 0.07835656 -0.07014607 -0.034183063 -0.12533198
-0.039515607 -0.15849403 -0.10159892 -0.06775784 -0.0024963352 0.0154005 0.18751459 0.07481928
0.13792974 0.008671502 0.27285436 -0.09367154 0.10469456 0.10627102 -0.016820796 -0.08367553
0.18490058 -0.13839985 -0.13626352 -0.014907618 -0.016937567 0.0474083 0.10765028 0.06694157
-0.03716528 0.019632896 0.042248797 -0.04916023 0.08468927 -0.05808853 0.057026446 -0.15422498
-0.11997924 -0.04006062 -0.030138379 -0.08456119 -0.12303206 -0.05965688 0.03876443 -0.0637599
-0.028475022 -0.04013085 0.045695864 0.14294626 0.013194755 0.029420715 0.004915081 -0.011232678
-0.04642266 0.08843759 0.03832314 -0.014032128 0.17412755 0.023238637 0.08482541 -0.0035332977
0.084520526 0.076959796 -0.054130282 -0.111236066 0.15868524 -0.0164013 -0.0837994 0.060263053
-0.14899383 0.14100936 -0.0050250045 0.11696691 0.050222907 -0.023471035 -0.14525056 -0.055924095
-0.0771182 0.062905654 -0.024064822 -0.13651599 -0.0808457 0.030393098 -0.06403106 -0.024467146
0.09080085 -0.05728024 -0.21167685 -0.1595333 -0.07624396 0.110425055 -0.096820705 -0.024388805
0.053487975 0.16447383 0.056190234 0.087219976 -0.16445348 -0.06817693 -0.062085737 0.091009796
0.03859242 0.053935375 0.088170886 0.0143409325 0.045519445 0.0064170454 0.06540302 0.21005212
0.10250448 0.058141198 -0.1216788 -0.06965275 0.033240974 0.030250128 -0.023870187 0.017359812
-0.019056318 -0.020818686 0.0534833 0.08926015 -0.043491665 0.018889729 0.08485816 -0.16007511
-0.08223215 0.11260594 0.020141982 -0.07589343 -0.027669042 0.061366115 0.063328244 -0.038826164
-0.05389679 -0.07462541 -0.08532453 0.00900998 -0.006643767 -0.12471574 0.21076053 0.05972875
0.04555381 -0.0015965637 -0.061825242 -0.07536216 0.04019552 -0.19178854 -0.07924539 -0.018258432
-0.044531006 0.062009078 -0.06415699 -0.0627458 0.004101346 0.12405477 -0.027306031 -0.065823905
0.116308644 -0.0036428014 -0.04892087 0.03719489 -0.15219185 -0.10245228 0.038907606 -0.015598997
0.19902045 0.092375144 -0.059498057 0.15710665 0.010303178 0.05153607 0.059436053 -0.07950516
00000000: 250d 69bd 099f 933d 9584 82bc 5494 f63d
00000010: 0882 03be d40c f83c 0c96 d7bd f81c a23b
00000020: 7a65 d0bd 0529 bb3d 8480 3abe bfc7 c43d
00000030: e197 ca3b ae6f fbbb 43c3 333d 060a 403d
00000040: db87 d1bb c08a d3bd bbde d73d 2f03 57bc
00000050: 61ac 093e 54f1 b73c 9cd9 08bb 2b1b 163e
00000060: 1f2f d7bc efdb b33d 2a62 d53d ce32 073e
00000070: deae e43d e89f 9c3d 7120 023d 8c98 033c
00000080: bb19 73bd 357a ec3d 1a38 8a3d bcfb 073c
00000090: 00cf b23d 2394 59bd 214c 613d ce2e 87bd
000000a0: d29f 283d 72b3 ef3d 116c 8fbd 7645 0dbe
000000b0: 16cb 963d b82b ac3d 1bd4 f23c 5298 aabd
000000c0: 0234 46be 8496 4f3d 0f78 5f3d b45d bfbc
000000d0: 2e67 343c 3b43 36bc f4d6 b43c 05b8 1dbd
000000e0: a4de debd 782d a33d 4f03 1c3d cc2c cebd
000000f0: 13f2 36be 1b32 0a3e a2af 083e 6336 1dbd
00000100: 3190 d43d 279b 243e b27b 72bd a11c 1b3e
00000110: 2e5c b7bd bdab 323b c83b 803e e342 453d
00000120: b339 fbbd 8d05 243c aba1 933d 0e4c 3abd
00000130: f01b 5e3b d95a 0b3e f979 33bd 54fa cabd
00000140: 5a99 01be b7ef 6fbd 7bb8 52bd 7fac 0cbe
00000150: 6779 a03d bea8 8fbd 8a03 0cbd 0757 00be
00000160: 1edb 21bd 424c 22be 1813 d0bd 9fc4 8abd
00000170: 8e99 23bb 6152 7c3c d303 403e da3a 993d
00000180: 743d 0d3e ea12 0e3c 91b3 8b3e ddd6 bfbd
00000190: 1a6a d63d 9fa4 d93d c4cb 89bc 145e abbd
000001a0: 9456 3d3e b1b8 0dbe aa88 0bbe 153f 74bc
000001b0: a7c0 8abc 352f 423d c077 dc3d a918 893d
000001c0: 9f3a 18bd 2bd5 a03c 130d 2d3d 3d5c 49bd
000001d0: 9171 ad3d 3dee 6dbd 9094 693d 27ed 1dbe
000001e0: adb7 f5bd 9b16 24bd c3e4 f6bc 6b2e adbd
000001f0: 3cf8 fbbd c65a 74bd 73c7 1e3d 8d94 82bd
00000200: 7344 e9bc 3f60 24bd 962b 3b3d 8160 123e
00000210: d02e 583c b603 f13c b00e a13b 4409 38bc
00000220: b025 3ebd c41e b53d baf8 1c3d 03e7 65bc
00000230: 7e4e 323e f45e be3c f2b8 ad3d e68e 67bb
00000240: 1919 ad3d 199d 9d3d b7b7 5dbd bccf e3bd
00000250: 627e 223e 055c 86bc 059f abbd 64d6 763d
00000260: d791 18be c264 103e cba8 a4bb 598c ef3d
00000270: 89b6 4d3d 5446 c0bc 90bc 14be aa10 65bd
00000280: 26f0 9dbd aed4 803d 9723 c5bc d9ca 0bbe
00000290: 6e92 a5bd f2fa f83c b722 83bd 536f c8bc
000002a0: ccf5 b93d af9e 6abd d1c1 58be b35c 23be
000002b0: cb25 9cbd 8826 e23d ef49 c6bd 08cb c7bc
000002c0: 3516 5b3d d46b 283e bb27 663d 63a0 b23d
000002d0: 7e66 28be 59a0 8bbd 9d4d 7ebd 5863 ba3d
000002e0: 1613 1e3d 57eb 5c3d f092 b43d 3bf6 6a3c
000002f0: 9972 3a3d 1446 d23b 05f2 853d e717 573e
00000300: deed d13d 7725 6e3d bc32 f9bd 1aa6 8ebd
00000310: b027 083d 1ecf f73c 698b c3bc 2a36 8e3c
00000320: ff1b 9cbc f38b aabc 4e11 5b3d 07ce b63d
00000330: 5124 32bd a2be 9a3c 1dca ad3d bbea 23be
00000340: 5469 a8bd f19d e63d cc00 a53c 046e 9bbd
00000350: 30aa e2bc 095b 7b3d 3db2 813d 2f08 1fbd
00000360: e1c2 5cbd 35d5 98bd a1be aebd 989e 133c
00000370: f5b3 d9bb f76a ffbd 9cd1 573e 22a6 743d
00000380: a296 3a3d ca43 d1ba 773c 7dbd 7a57 9abd
00000390: 0fa4 243d 3764 44be 684b a2bd b592 95bc
000003a0: 2566 36bd 3bfd 7d3d bd64 83bd df80 80bd
000003b0: 9564 863b 6d10 fe3d e6b0 dfbc afce 86bd
000003c0: 3a33 ee3d 11bc 6ebb 4061 48bd ab59 183d
000003d0: 2ed8 1bbe 80d2 d1bd 955d 1f3d ef92 7fbc
000003e0: 04cc 4b3e 2e2f bd3d 3cb4 73bd 91e0 203e
000003f0: a9ce 283c 7c17 533d 3873 733d 9ad3 a2bd

network_body._body_endoder.seq_layers.2.bias f4 [128]
0.0 0.0 0.0 0.0 0.0 0.0 0.0 0.0
0.0 0.0 0.0 0.0 0.0 0.0 0.0 0.0
0.0 0.0 0.0 0.0 0.0 0.0 0.0 0.0
0.0 0.0 0.0 0.0 0.0 0.0 0.0 0.0
0.0 0.0 0.0 0.0 0.0 0.0 0.0 0.0
0.0 0.0 0.0 0.0 0.0 0.0 0.0 0.0
0.0 0.0 0.0 0.0 0.0 0.0 0.0 0.0
0.0 0.0 0.0 0.0 0.0 0.0 0.0 0.0
0.0 0.0 0.0 0.0 0.0 0.0 0.0 0.0
0.0 0.0 0.0 0.0 0.0 0.0 0.0 0.0
0.0 0.0 0.0 0.0 0.0 0.0 0.0 0.0
0.0 0.0 0.0 0.0 0.0 0.0 0.0 0.0
0.0 0.0 0.0 0.0 0.0 0.0 0.0 0.0
0.0 0.0 0.0 0.0 0.0 0.0 0.0 0.0
0.0 0.0 0.0 0.0 0.0 0.0 0.0 0.0
0.0 0.0 0.0 0.0 0.0 0.0 0.0 0.0
00000000: 0000 0000 0000 0000 0000 0000 0000 0000
00000010: 0000 0000 0000 0000 0000 0000 0000 0000
00000020: 0000 0000 0000 0000 0000 0000 0000 0000
00000030: 0000 0000 0000 0000 0000 0000 0000 0000
00000040: 0000 0000 0000 0000 0000 0000 0000 0000
00000050: 0000 0000 0000 0000 0000 0000 0000 0000
00000060: 0000 0000 0000 0000 0000 0000 0000 0000
00000070: 0000 0000 0000 0000 0000 0000 0000 0000
00000080: 0000 0000 0000 0000 0000 0000 0000 0000
00000090: 0000 0000 0000 0000 0000 0000 0000 0000
000000a0: 0000 0000 0000 0000 0000 0000 0000 0000
000000b0: 0000 0000 0000 0000 0000 0000 0000 0000
000000c0: 0000 0000 0000 0000 0000 0000 0000 0000
000000d0: 0000 0000 0000 0000 0000 0000 0000 0000
000000e0: 0000 0000 0000 0000 0000 0000 0000 0000
000000f0: 0000 0000 0000 0000 0000 0000 0000 0000
00000100: 0000 0000 0000 0000 0000 0000 0000 0000
00000110: 0000 0000 0000 0000 0000 0000 0000 0000
00000120: 0000 0000 0000 0000 0000 0000 0000 0000
00000130: 0000 0000 0000 0000 0000 0000 0000 0000
00000140: 0000 0000 0000 0000 0000 0000 0000 0000
00000150: 0000 0000 0000 0000 0000 0000 0000 0000
00000160: 0000 0000 0000 0000 0000 0000 0000 0000
00000170: 0000 0000 0000 0000 0000 0000 0000 0000
00000180: 0000 0000 0000 0000 0000 0000 0000 0000
00000190: 0000 0000 0000 0000 0000 0000 0000 0000
000001a0: 0000 0000 0000 0000 0000 0000 0000 0000
000001b0: 0000 0000 0000 0000 0000 0000 0000 0000
000001c0: 0000 0000 0000 0000 0000 0000 0000 0000
000001d0: 0000 0000 0000 0000 0000 0000 0000 0000
000001e0: 0000 0000 0000 0000 0000 0000 0000 0000
000001f0: 0000 0000 0000 0000 0000 0000 0000 0000

value_heads.value_heads.extrinsic.weight f4 [1, 128]
-0.09526196 -0.10903201 0.091643326 -0.17791301 0.07159037 0.12531815 0.16975872 0.07161022
0.034111816 0.12669975 -0.08354745 0.17072998 -0.16545488 -0.05846401 -0.19465145 -0.12506066
0.14758746 -0.1289905 0.07911763 -0.033048633 -0.16970348 -0.010130597 0.14388156 -0.21010004
-0.03977268 0.19159022 -0.1190488 0.16292618 0.118594006 -0.14729717 0.08013564 -0.072304145
0.0025789037 0.11382907 0.0063167843 0.10931268 -0.06996873 0.11288756 0.07925394 -0.02712573
-0.02289059 0.011523953 0.025575057 0.19767156 0.14185715 -0.1994481 -0.118831605 0.061818305
-0.173806 0.024191843 -0.07384589 -0.16708189 -0.019452328 -0.02717545 -0.18183929 0.12882288
0.13208292 -0.06396104 -0.21289045 0.10616683 -0.04702721 -0.09530738 -0.0004317883 -0.14794363
-0.00899346 -0.14547719 -0.11376777 -0.18712142 0.16370176 -0.017388253 0.04179274 0.03985343
0.102576785 -0.111197405 0.07089499 0.18758039 0.06914804 -0.20323992 0.034188893 0.07055735
0.048110317 -0.07695948 0.09987509 -0.073811404 0.18080641 -0.14830759 -0.20107183 0.06489975
0.12574747 0.14877464 -0.07442988 0.14444713 0.08127909 -0.17233619 0.08564377 -0.10409668
-0.005350434 0.028885905 -0.10166207 -0.13536078 0.00040628464 -0.17691128 0.1365761 0.20134172
0.14631654 0.09915302 -0.11960758 -0.20347334 0.02504506 -0.19431157 -0.033024415 -0.21494761
-0.13236865 -0.079841204 -0.19361986 -0.07449004 0.18527202 0.13624431 -0.20698598 0.02473359
-0.03133008 0.099842854 -0.08137407 0.14703785 -0.022910234 -0.03463629 -0.17706718 -0.14484885
00000000: b418 c3bd 2d4c dfbd 7faf bb3d d42e 36be
00000010: f99d 923d 6753 003e 3bd5 2d3e 61a8 923d
00000020: d5b8 0b3d 94bd 013e ed1a abbd d7d3 2e3e
00000030: 016d 29be f577 6fbd b652 47be e70f 00be
00000040: 2b21 173e 1616 04be 6d08 a23d 015e 07bd
00000050: c0c6 2dbe cefa 25bc b055 133e 7724 57be
00000060: ade8 22bd 3a30 443e dbcf f3bd 1fd6 263e
00000070: 6ae1 f23d 12d5 16be 281e a43d 3214 94bd
00000080: d302 293b 371f e93d 07fd ce3b 54df df3d
00000090: c44b 8fbd 9831 e73d e44f a23d c736 debc
000000a0: 0c85 bbbc f6ce 3c3c c882 d13c 6a6a 4a3e
000000b0: 0043 113e 1f3c 4cbe fc5d f3bd 3135 7d3d
000000c0: 33fa 31be f92d c63c 843c 97bd 8417 2bbe
000000d0: 7d5a 9fbc 0d9f debc 1434 3abe 25ea 033e
000000e0: bf40 073e 01fe 82bd f4ff 59be ff6d d93d
000000f0: 9b9f 40bd 8430 c3bd a561 e2b9 897e 17be
00000100: 4e59 13bc f9f7 14be 14ff e8bd c29c 3fbe
00000110: 6fa1 273e cf71 8ebc dd2e 2b3d 5a3d 233d
00000120: c713 d23d 77bb e3bd 6431 913d 1315 403e
00000130: 7d9d 8d3d 201e 50be a709 0c3d 5f80 903d
00000140: 530f 453d ef9c 9dbd 508b cc3d 6f2a 97bd
00000150: 5125 393e f2dd 17be c6e5 4dbe 29ea 843d
00000160: f2c3 003e 6158 183e b16e 98bd f3e9 133e
00000170: a775 a63d e678 30be 0066 af3d a430 d5bd
00000180: b252 afbb 22a2 ec3c 3434 d0bd 049c 0abe
00000190: 9a02 d539 3b28 35be 9bda 0b3e 862c 4e3e
000001a0: 01d4 153e bd10 cb3d d2f4 f4bd 515b 50be
000001b0: 4c2b cd3c 9df9 46be 9c44 07bd 3a1b 5cbe
000001c0: a68b 07be c983 a3bd 4944 46be 3c8e 98bd
000001d0: f3b7 3d3e a183 0b3e 22f4 53be 199e ca3c
000001e0: f853 00bd 697a cc3d 73a7 a6bd 1791 163e
000001f0: 3eae bbbc c8de 0dbd 1951 35be 4253 14be
