FYPprototype/results/Test2.2/AIBalancing/AIBalancing-395.pt (torch, 242151 bytes, 16 tensors)

discrete_act_size_vector f4 [1, 3]
000000 00 00 00 40 00 00 98 41 00 00 70 41
       2.0 19.0 15.0

network_body._body_endoder.seq_layers.0.weight f4 [128, 78]
000000 ca 17 29 be 6e 46 16 bc 0c 6a 7f 3d bb 0e 24 3b
       -0.16512981 -0.009172065 0.062356994 0.0025033194
000010 53 7a ec 3d 58 9a d1 3d 33 a2 18 3d 27 09 44 bd
       0.11546769 0.10234517 0.03726406 -0.04786029
000020 84 63 3e bc 72 99 a6 3d 17 77 c0 3d 91 94 4f bd
       -0.011620406 0.08134736 0.093977146 -0.050678793
000030 a8 92 91 3d 37 59 15 3e 0d 08 09 3e cd 37 6b bd
       0.071080506 0.14584814 0.13381977 -0.057426263
000040 cc 92 ed 3d c1 09 66 3c af db b1 bd 85 6a 26 be
       0.11600265 0.014040411 -0.086844794 -0.16251571
000050 a3 ad f3 bd 58 a6 e9 3d c2 17 0e 3e 2b 10 11 3e
       -0.11898353 0.11408681 0.1387625 0.14166324
000060 df c7 e5 3d 1d 17 c7 bc f3 ad a8 3d e8 16 70 be
       0.11219763 -0.024303013 0.08236303 -0.23446238
000070 8f 4c 2e be dc 94 87 3e 09 2b 8e 3e ed 1e 10 be
       -0.17021392 0.26480758 0.27767208 -0.14074297
000080 d2 a4 63 bc cc 09 0b bd f2 7c 08 3d 14 19 8c bd
       -0.013894277 -0.03394489 0.033322282 -0.06840721
000090 2e 60 0f bc bc 89 f1 bd 28 e8 8e bc d5 15 a1 3d
       -0.008750958 -0.11793849 -0.017444685 0.07865492
0000a0 be 01 f3 bd f1 a1 9d bd 80 41 02 3d 95 9c 26 3e
       -0.11865567 -0.076969035 0.031800747 0.16270669
0000b0 43 35 ea 3d 12 67 9d 3d c6 14 be 3c 9a 55 46 be
       0.1143594 0.07685675 0.023203265 -0.19368592
0000c0 71 ec 1b bd 5d 26 58 be 9f a9 d3 3d 8d 69 8f 3b
       -0.038067285 -0.21108384 0.10335087 0.0043765963
0000d0 ae ce 01 be 6e b7 8b be 60 69 76 3c 12 85 13 3e
       -0.12676498 -0.27288383 0.015039772 0.14406231
0000e0 97 11 5b bd bb 5e ca bd 16 ed 9e 3c 38 da 67 bd
       -0.05348357 -0.0988135 0.01940016 -0.056604594
0000f0 a1 8f 25 3e 30 50 4c bd 38 87 bc 3d 86 cc 24 3d
       0.16168071 -0.04988116 0.092054784 0.04023411
000100 a0 47 14 bd 64 2d c9 bb 2f 1f 13 3d a7 99 78 bd
       -0.03620112 -0.006139444 0.03591841 -0.06069341
000110 bd c4 91 3d 69 a3 4c 3d 1c 07 19 be d2 2e fb 3b
       0.07117603 0.049960528 -0.14944118 0.0076654935
000120 80 d0 bf 3d 50 bb 15 bd ef 22 6e 3c 23 de 31 bc
       0.0936594 -0.03655559 0.014534696 -0.010856184
000130 31 c9 08 bd 97 32 92 3d db 19 86 bd ad cb 55 3d
       -0.033394996 0.071385555 -0.065479 0.052196193
000140 8c ca c5 bd 94 8e d5 3d d4 02 d8 bd 60 a3 07 be
       -0.096577734 0.10427585 -0.105474144 -0.13245916
000150 24 d8 3e bd d7 cb 20 3e ca 25 02 3e d8 d6 0e 3d
       -0.046592847 0.15702759 0.12709728 0.03487286
000160 14 27 f3 bd 7d d7 10 be 3e c8 41 3d 9c 76 70 3c
       -0.11872688 -0.14144702 0.047310106 0.014676716
000170 2c a7 db 3d e6 db 9b 3d fc b2 06 be 6b 25 33 3d
       0.10725245 0.07610302 -0.13154215 0.043736856
000180 1c 23 1c 3e e2 b8 04 be 06 59 0e 3e a5 54 f1 3c
       0.15247768 -0.12961152 0.13901147 0.029459307
000190 c2 08 63 3c 48 db 4d 3e 52 fa 53 3e 65 b2 58 3e
       0.0138570685 0.2010318 0.20700958 0.21161802
0001a0 b1 67 0e bd 05 6f 6a be 11 c7 ef 3d f6 2f 06 be
       -0.034766857 -0.22893913 0.11707891 -0.13104233
0001b0 61 73 4d 3e bb 03 d0 3d 77 72 25 3e 6a 0d c7 bd
       0.20063545 0.101569615 0.16156946 -0.097193554
0001c0 f2 5b a2 3d 8d c6 8d 3d 99 86 b1 3d 31 d3 74 be
       0.079276934 0.06922636 0.086682506 -0.23908688
0001d0 a2 27 23 3e 4f 01 04 3e d4 1c 24 3e a3 61 3d 3b
       0.15933087 0.12891124 0.16026622 0.0028897307
0001e0 71 3e b8 3d 9e 8c dc 3d 02 89 10 bc d8 74 f1 3d
       0.08996285 0.10769008 -0.008821728 0.11789864
0001f0 52 53 cd bd 95 71 84 bd fa 39 cc bd a0 9c ee bd
       -0.10025658 -0.064669766 -0.09971996 -0.116509676
000200 7d a1 ca 3c 70 59 ad bd b2 ee b2 3d 69 0f 59 bc
       0.024735207 -0.084643245 0.08736934 -0.013248303
000210 8e 53 71 3d 13 7c a5 bd 5b 42 22 bb 8d a6 08 3e
       0.058917575 -0.08080306 -0.002475879 0.13344784
000220 e5 b6 13 3e 1f ec a1 3d 4a 30 53 3e 9d a7 f6 3c
       0.14425237 0.07906365 0.2062389 0.030109221
000230 f3 72 ac 3d 5d f3 f3 bc bc 82 ba bd db 61 f8 3d
       0.08420362 -0.02977913 -0.09106967 0.121280394
000240 fb 98 23 3e 2a 1f a5 3d bc d3 7a bd f2 09 45 bd
       0.15976326 0.08062585 -0.061237082 -0.048105188
000250 bc db 88 bc 30 4c 99 3c 4c da c1 bd 33 95 c3 bd
       -0.01670634 0.018713087 -0.09465465 -0.09549942
000260 ce f1 95 3d 08 45 70 3d 9b 7f d0 3c a0 f5 7a 3d
       0.07321511 0.058659583 0.025451472 0.061269403
000270 cf 38 33 3e 30 54 a0 bd ab ef 24 bd e7 75 a2 3c
       0.1750214 -0.078285575 -0.040267628 0.01983161
000280 66 d2 f3 3d bd 8b 84 3d c0 ea 69 bc 3d 15 50 3d
       0.11905365 0.064719655 -0.01427716 0.050801504
000290 7f 0d 01 3d 87 83 8d 3d 11 0a 81 bd 1a 0e 9d bc
       0.03150701 0.069098525 -0.06300748 -0.019171763
0002a0 b8 73 85 3d 9d ab 27 3e d2 3c b4 bd d6 15 06 be
       0.06516212 0.16374059 -0.08800663 -0.13094267
0002b0 4b 71 89 3d d4 ca 49 3d 29 5b 13 3d da e8 1a bd
       0.06711062 0.049265698 0.03597561 -0.03781972
0002c0 9e 3d 06 bd 89 ca f9 bb 10 3e 4d bc 95 5d c0 bc
       -0.032773606 -0.007623021 -0.012527004 -0.023482123
0002d0 bc fa ad 3d 59 43 d3 3c fa 12 da 3d c1 e8 20 3c
       0.084950894 0.02578895 0.10648151 0.009821118
0002e0 bf a4 24 3c 23 eb 27 3d af ef 44 bd 50 cf 36 3c
       0.010049044 0.04099573 -0.048080143 0.011157826
0002f0 eb 9c 81 3b 69 b9 dc bd 49 47 72 bc 6c c5 18 bd
       0.0039554737 -0.10777552 -0.0147875035 -0.03729765
000300 db 35 e4 3d 4b 97 41 3d f0 82 b2 bc 8b 9c f2 3d
       0.111430846 0.047263425 -0.021790951 0.118462645
000310 90 35 27 3d 84 70 42 be e9 ee 97 3b 66 4e 74 3d
       0.040822566 -0.18988234 0.0046366346 0.05964508
000320 1f 53 a9 bd a2 ec 1b bd dc ce e3 3c 6b db 15 3d
       -0.08267807 -0.038067468 0.0278086 0.036586206
000330 b9 64 89 3e a7 d6 05 bd 8e a1 3c 3c 1f 31 8a 3d
       0.26834658 -0.03267541 0.011513127 0.0674765
000340 e0 65 e8 bc fe 66 0f 3d a4 e3 96 bd b7 37 01 3e
       -0.02836889 0.03501033 -0.07367638 0.1261891
000350 9b 1f 2c bd 41 c8 24 3d 1a 5e 1a 3d 5d a6 38 bd
       -0.04202233 0.04023004 0.0376874 -0.04508053
000360 6f 80 a0 bd 7a 28 c2 3d a3 43 1c 3e 06 e8 b4 bc
       -0.07836997 0.094803765 0.15260176 -0.022083294
000370 31 a2 3c ba 28 9a 0a 3e 9d 47 03 3d ca d3 00 3c
       -0.0007195799 0.13535368 0.032050718 0.007862994
000380 35 6e b9 3d 02 5d b6 bd df 72 80 bd 53 6e 57 3e
       0.090542234 -0.089044586 -0.0627191 0.21038179
000390 3c ac 8d bd ca 4e 42 3d 22 d9 12 3d f2 f8 d3 3c
       -0.06917617 0.04743842 0.035851605 0.025875542
0003a0 a7 90 98 bd 80 f3 9c bd a9 bd af 3c 63 70 7d b9
       -0.07449465 -0.076636314 0.021452742 -0.00024169828
0003b0 74 e3 47 bc 92 a4 4c be f7 80 0f be 48 0e bb bc
       -0.012200225 -0.19984654 -0.1401404 -0.022833958
0003c0 9f 08 ba ba 06 5e 57 bc 2b df 6c 3d 98 45 d9 bc
       -0.0014193243 -0.0131449755 0.057830017 -0.026522443
0003d0 e6 ff ff 3b d7 79 08 be ca da ee 3d b6 4e 9a bd
       0.007812488 -0.13327728 0.116628245 -0.07534544
0003e0 70 9d ad 3d c5 18 c7 bd 4e cd a5 3d 63 bf 15 bd
       0.084772944 -0.09721521 0.080957994 -0.036559474
0003f0 96 ed 40 3e b5 ce 1f 3e e1 52 a1 bc fb 2c a9 3c
       0.18840632 0.15606196 -0.01969284 0.020651331

network_body._body_endoder.seq_layers.0.bias f4 [128]
000000 00 00 00 00 00 00 00 00 00 00 00 00 00 00 00 00
       0.0 0.0 0.0 0.0
000010 00 00 00 00 00 00 00 00 00 00 00 00 00 00 00 00
       0.0 0.0 0.0 0.0
000020 00 00 00 00 00 00 00 00 00 00 00 00 00 00 00 00
       0.0 0.0 0.0 0.0
000030 00 00 00 00 00 00 00 00 00 00 00 00 00 00 00 00
       0.0 0.0 0.0 0.0
000040 00 00 00 00 00 00 00 00 00 00 00 00 00 00 00 00
       0.0 0.0 0.0 0.0
000050 00 00 00 00 00 00 00 00 00 00 00 00 00 00 00 00
       0.0 0.0 0.0 0.0
000060 00 00 00 00 00 00 00 00 00 00 00 00 00 00 00 00
       0.0 0.0 0.0 0.0
000070 00 00 00 00 00 00 00 00 00 00 00 00 00 00 00 00
       0.0 0.0 0.0 0.0
000080 00 00 00 00 00 00 00 00 00 00 00 00 00 00 00 00
       0.0 0.0 0.0 0.0
000090 00 00 00 00 00 00 00 00 00 00 00 00 00 00 00 00
       0.0 0.0 0.0 0.0
0000a0 00 00 00 00 00 00 00 00 00 00 00 00 00 00 00 00
       0.0 0.0 0.0 0.0
0000b0 00 00 00 00 00 00 00 00 00 00 00 00 00 00 00 00
       0.0 0.0 0.0 0.0
0000c0 00 00 00 00 00 00 00 00 00 00 00 00 00 00 00 00
       0.0 0.0 0.0 0.0
0000d0 00 00 00 00 00 00 00 00 00 00 00 00 00 00 00 00
       0.0 0.0 0.0 0.0
0000e0 00 00 00 00 00 00 00 00 00 00 00 00 00 00 00 00
       0.0 0.0 0.0 0.0
0000f0 00 00 00 00 00 00 00 00 00 00 00 00 00 00 00 00
       0.0 0.0 0.0 0.0
000100 00 00 00 00 00 00 00 00 00 00 00 00 00 00 00 00
       0.0 0.0 0.0 0.0
000110 00 00 00 00 00 00 00 00 00 00 00 00 00 00 00 00
       0.0 0.0 0.0 0.0
000120 00 00 00 00 00 00 00 00 00 00 00 00 00 00 00 00
       0.0 0.0 0.0 0.0
000130 00 00 00 00 00 00 00 00 00 00 00 00 00 00 00 00
       0.0 0.0 0.0 0.0
000140 00 00 00 00 00 00 00 00 00 00 00 00 00 00 00 00
       0.0 0.0 0.0 0.0
000150 00 00 00 00 00 00 00 00 00 00 00 00 00 00 00 00
       0.0 0.0 0.0 0.0
000160 00 00 00 00 00 00 00 00 00 00 00 00 00 00 00 00
       0.0 0.0 0.0 0.0
000170 00 00 00 00 00 00 00 00 00 00 00 00 00 00 00 00
       0.0 0.0 0.0 0.0
000180 00 00 00 00 00 00 00 00 00 00 00 00 00 00 00 00
       0.0 0.0 0.0 0.0
000190 00 00 00 00 00 00 00 00 00 00 00 00 00 00 00 00
       0.0 0.0 0.0 0.0
0001a0 00 00 00 00 00 00 00 00 00 00 00 00 00 00 00 00
       0.0 0.0 0.0 0.0
0001b0 00 00 00 00 00 00 00 00 00 00 00 00 00 00 00 00
       0.0 0.0 0.0 0.0
0001c0 00 00 00 00 00 00 00 00 00 00 00 00 00 00 00 00
       0.0 0.0 0.0 0.0
0001d0 00 00 00 00 00 00 00 00 00 00 00 00 00 00 00 00
       0.0 0.0 0.0 0.0
0001e0 00 00 00 00 00 00 00 00 00 00 00 00 00 00 00 00
       0.0 0.0 0.0 0.0
0001f0 00 00 00 00 00 00 00 00 00 00 00 00 00 00 00 00
       0.0 0.0 0.0 0.0

network_body._body_endoder.seq_layers.2.weight f4 [128, 128]
000000 d4 54 c3 bc cb c9 5a 3d 99 b5 22 bd ba 83 3a bd
       -0.02384416 0.0534151 -0.039723966 -0.04553578
000010 0c 85 95 3c 8a 19 d3 bd b7 c9 c1 3b 0c 91 93 bc
       0.018251918 -0.103076056 0.005913939 -0.0180135
000020 65 59 01 bd 11 8f a9 3d 95 92 62 bc 1c dc f0 3d
       -0.031579394 0.08279241 -0.013828893 0.117607325
000030 7b 84 e7 bd 91 bf 3d 3e a5 04 41 bd eb 9c 2e bd
       -0.113045655 0.18530108 -0.04712357 -0.042630117
000040 0f 85 a2 3d cf 32 09 be d8 80 54 bd ca 09 8d bd
       0.07935535 -0.13398288 -0.051880687 -0.06886633
000050 6a d7 02 bc b6 d2 5a bd a1 85 bd bc 9a 6d d2 3d
       -0.007985929 -0.053423606 -0.023135008 0.10274811
000060 3f 75 5d 3e 5b f0 65 bd 52 52 b0 bc f7 05 5d 3d
       0.21626757 -0.056137424 -0.021523628 0.053960767
000070 16 08 f5 bb a4 e0 67 3d cb b4 11 3c f9 6b 28 bd
       -0.0074777706 0.05661072 0.008893202 -0.041118596
000080 5d 6c 1c 3e 44 79 26 bd 07 bd 6b 3e 50 d8 d4 bb
       0.15275712 -0.04064299 0.23021327 -0.006495513
000090 b1 54 29 bb 13 15 f4 3c 75 ae 3d 3d f0 dd 8a bc
       -0.0025837834 0.029795205 0.046308953 -0.016951531
0000a0 04 e1 3f bd a3 0c ba 3d 9e a4 06 be 1a c4 e4 3c
       -0.04684545 0.090844415 -0.13148734 0.02792554
0000b0 fc d3 07 be 4b 1b d2 bd 61 22 24 be 5d 34 c5 bd
       -0.1326446 -0.10259112 -0.1602874 -0.09629128
0000c0 7a 5f 95 bd 2b a8 d6 bb 37 4e be 3d af df d2 3d
       -0.07293601 -0.006550809 0.09292262 0.102965705
0000d0 14 05 2a bd 64 b5 10 bd e9 db 61 3d 80 e2 10 3d
       -0.04150875 -0.035329238 0.055141363 0.035372257
0000e0 77 ad 34 bd fe 8b 74 3c 05 24 4a be 2a d3 20 3d
       -0.04411074 0.014925955 -0.19740303 0.03926388
0000f0 ff 27 66 3d a2 f5 90 3c 7b cb 45 3d 57 5d 54 3d
       0.056190487 0.017695252 0.048289757 0.05184683
000100 d0 62 02 3d 99 67 fe 3d e8 d0 7a bd 7e c1 25 bd
       0.031832516 0.124221034 -0.061234385 -0.04046773
000110 87 40 3f 3d 6f 80 ee 3d c9 6c d5 bd 36 9b 23 3d
       0.046692397 0.116455905 -0.1042114 0.039942943
000120 bc c3 11 3e 8e 41 34 bb f6 5c 14 3d b3 cc b2 bd
       0.14234823 -0.0027504894 0.036221467 -0.087304495
000130 25 1b 30 bd 77 4e ab bd 77 31 1f bd 6e ee ed 3d
       -0.042994637 -0.08364575 -0.038865533 0.116177425
000140 4b 60 25 bd ce a8 f3 bd 85 ab cc ba c3 68 5e bd
       -0.040375035 -0.11897431 -0.0015615082 -0.054299127
000150 9e 87 e1 3c 1c f4 13 be 5e 55 47 3c 7d 86 bc 3d
       0.027530488 -0.14448589 0.012166349 0.09205339
000160 70 1d 1a bd 9f db 9a 3c 22 a2 d1 bd 06 56 e1 3d
       -0.03762573 0.018903552 -0.102360025 0.11002736
000170 f4 9d 44 3d 74 ea 53 3d 54 07 04 3d f1 48 97 3c
       0.0480022 0.051737264 0.03223355 0.018467398
000180 ce b9 b2 3d 32 00 4d bd d0 6a ca bd d6 2b bf 3d
       0.08726846 -0.050049014 -0.09883654 0.09334533
000190 3c 03 bc 3c a8 00 d9 b8 17 33 1a be a4 01 ae bc
       0.022950761 -0.000103474886 -0.15058552 -0.021241017
0001a0 2e 4b a9 bd 46 40 36 3d d2 17 77 bd cd 22 dd bd
       -0.082662925 0.04449489 -0.06032545 -0.10797653
0001b0 18 e9 08 bd 3b 2b 6b bb 06 a4 f9 3c 31 41 9e bc
       -0.03342542 -0.0035883922 0.03047372 -0.019318195
0001c0 e5 5d 59 bc 60 2a c3 3d 34 dc 08 be 69 22 9b bd
       -0.013267015 0.09529567 -0.13365251 -0.075749226
0001d0 62 d6 00 bc 3d d2 f7 3d 33 59 87 3d 0c 27 97 3d
       -0.007863613 0.12100647 0.0660881 0.073804945
0001e0 26 6e 90 bd 59 1c 06 3e 6d 2f c6 bd 87 d6 ea bd
       -0.07052259 0.13096751 -0.096770145 -0.11466699
0001f0 26 59 d6 bd ac 3f 38 3c b1 ba ee 3c 08 c6 09 3c
       -0.104662225 0.011245649 0.029141756 0.008409031
000200 e6 18 17 bd d0 37 b5 3d 2c de ed bc 02 5b 96 3d
       -0.03688898 0.08848536 -0.029036604 0.07341577
000210 84 91 c1 bd a9 a8 a3 3d 9d 5c 49 be 3b 0b 26 be
       -0.09451583 0.07991154 -0.19664235 -0.16215222
000220 55 ee 7c bb eb 59 af bc 5d a9 01 3e a8 24 50 bd
       -0.0038594205 -0.02140518 0.12662263 -0.050816208
000230 7e 80 ea bc 2a 27 97 3d b4 42 46 3d d9 87 18 be
       -0.028625723 0.07380517 0.048403457 -0.14895572
000240 08 07 ab 3d 84 99 ea 3d b7 51 08 3b 5c 69 68 bd
       0.083509505 0.11455062 0.002080066 -0.056741104
000250 d7 82 c8 bc 68 07 31 be 97 36 ef bc 02 dc c8 3d
       -0.024476452 -0.17287982 -0.029200835 0.09807588
000260 fa ff 21 be 08 73 bb bc 2e 80 26 3e 10 00 d5 bd
       -0.15820304 -0.022882 0.16259834 -0.104004025
000270 d7 8b 85 3c e9 96 f4 3d 95 ea 31 bc fb e2 61 bc
       0.016302032 0.11942846 -0.010859151 -0.0137870265
000280 a6 fe d6 3d 3e d7 05 3c a8 0a 86 3a b3 a9 20 be
       0.10497789 0.0081689935 0.0010226564 -0.15689735
000290 e0 7e ed bd 45 72 17 bd 4c a7 e1 bd a2 0d d6 3d
       -0.11596465 -0.03697421 -0.110182375 0.10451819
0002a0 aa 5c 32 3e 2d 5f 6f bd 57 1f 8e bd e4 8a 57 3d
       0.17418161 -0.058440376 -0.06939571 0.05262269
0002b0 2b 02 83 3d 3a 3a 05 3e 8e ed ac 3c 73 8e 92 3d
       0.06396898 0.13010493 0.021109369 0.07156076
0002c0 ce ee be bd 40 fb 8c 3d 8d 86 f5 bd d4 60 b9 bb
       -0.09322892 0.0688386 -0.11988554 -0.0056572948
0002d0 47 67 3f 3e b2 50 08 3d 52 6f 3a be 32 6b 69 3c
       0.18691741 0.033280082 -0.18206528 0.014246749
0002e0 e1 e0 a6 bd fe fd c5 3c fe bd 41 3d a9 1d aa 3c
       -0.08148361 0.024168964 0.04730033 0.020766096
0002f0 23 a1 a7 bc dc ae 46 3c 9a 4b 23 bd 57 c3 66 3c
       -0.020462578 0.012126651 -0.03986702 0.014084659
000300 6c 92 0d 3d 6c c0 9e 3d d1 da a5 3c ba f6 cf 3d
       0.034563467 0.07751545 0.020245941 0.10154481
000310 fc 0f f7 bc d4 2e 00 3e aa 2e e8 bc 74 8c 7c 3c
       -0.03015899 0.12517864 -0.028342564 0.015414346
000320 98 6f ec 3c 0d 1f 4b 3d 0f be 1f be e7 b8 f1 bd
       0.028861806 0.04959016 -0.15599845 -0.118028454
000330 49 06 54 bb 8d 51 a4 bd 63 e7 e4 bc 48 47 a8 bd
       -0.003235238 -0.08023367 -0.027942365 -0.08216721
000340 74 48 b1 bd 84 1b 76 3a dc d8 06 3d 1c 1e 0f 3c
       -0.086563975 0.00093882554 0.032921657 0.008735206
000350 9b 63 56 3d a1 c2 db 3b 6d 88 92 bd ab ed bd 3b
       0.052341085 0.006706551 -0.071549274 0.0057961545
000360 5d a4 43 3e b0 86 15 3d b7 b8 ed bd 9c f9 33 bd
       0.19105668 0.0365054 -0.11607497 -0.043939218
000370 b5 88 bf bd dc b2 dc bc 3f 46 62 3d 89 f4 3f bd
       -0.09352247 -0.026940756 0.055242773 -0.046864066
000380 d3 75 02 3e 94 3b eb 3b 86 7a 80 3c 5c 71 3a be
       0.12740259 0.007178733 0.015683424 -0.18207306
000390 1f 3b c6 bd eb 2e 7a 3d 3c 38 c4 bd 10 4a 7d 3d
       -0.09679245 0.0610799 -0.09581038 0.06183821
0003a0 2b c8 86 39 dd da b2 bb 06 ac 32 bd fb e7 0e 3e
       0.00025707608 -0.0054582194 -0.043621086 0.13955681
0003b0 47 81 8f 3d 65 09 be 3d c6 bb 9b 3c 88 33 04 3d
       0.070070796 0.092791356 0.019010436 0.032275707
0003c0 3d f3 85 bc ae 31 83 bd c8 44 eb 3c 77 61 4a bd
       -0.016351337 -0.0640596 0.02871932 -0.049409356
0003d0 aa d2 2a 3d 76 b7 20 bd 21 c0 1d bc 3b 34 1e 3a
       0.04170481 -0.039237462 -0.009628327 0.00060350046
0003e0 79 a4 b4 3d 98 4b 02 bd e6 69 95 3d ad 35 7c bd
       0.08820433 -0.031810373 0.07295589 -0.061574627
0003f0 15 d9 03 3d cb a3 fb bd 00 79 d6 3d 59 8a 3d be
       0.032189447 -0.122871004 0.10472298 -0.18509807

network_body._body_endoder.seq_layers.2.bias f4 [128]
000000 00 00 00 00 00 00 00 00 00 00 00 00 00 00 00 00
       0.0 0.0 0.0 0.0
000010 00 00 00 00 00 00 00 00 00 00 00 00 00 00 00 00
       0.0 0.0 0.0 0.0
000020 00 00 00 00 00 00 00 00 00 00 00 00 00 00 00 00
       0.0 0.0 0.0 0.0
000030 00 00 00 00 00 00 00 00 00 00 00 00 00 00 00 00
       0.0 0.0 0.0 0.0
000040 00 00 00 00 00 00 00 00 00 00 00 00 00 00 00 00
       0.0 0.0 0.0 0.0
000050 00 00 00 00 00 00 00 00 00 00 00 00 00 00 00 00
       0.0 0.0 0.0 0.0
000060 00 00 00 00 00 00 00 00 00 00 00 00 00 00 00 00
       0.0 0.0 0.0 0.0
000070 00 00 00 00 00 00 00 00 00 00 00 00 00 00 00 00
       0.0 0.0 0.0 0.0
000080 00 00 00 00 00 00 00 00 00 00 00 00 00 00 00 00
       0.0 0.0 0.0 0.0
000090 00 00 00 00 00 00 00 00 00 00 00 00 00 00 00 00
       0.0 0.0 0.0 0.0
0000a0 00 00 00 00 00 00 00 00 00 00 00 00 00 00 00 00
       0.0 0.0 0.0 0.0
0000b0 00 00 00 00 00 00 00 00 00 00 00 00 00 00 00 00
       0.0 0.0 0.0 0.0
0000c0 00 00 00 00 00 00 00 00 00 00 00 00 00 00 00 00
       0.0 0.0 0.0 0.0
0000d0 00 00 00 00 00 00 00 00 00 00 00 00 00 00 00 00
       0.0 0.0 0.0 0.0
0000e0 00 00 00 00 00 00 00 00 00 00 00 00 00 00 00 00
       0.0 0.0 0.0 0.0
0000f0 00 00 00 00 00 00 00 00 00 00 00 00 00 00 00 00
       0.0 0.0 0.0 0.0
000100 00 00 00 00 00 00 00 00 00 00 00 00 00 00 00 00
       0.0 0.0 0.0 0.0
000110 00 00 00 00 00 00 00 00 00 00 00 00 00 00 00 00
       0.0 0.0 0.0 0.0
000120 00 00 00 00 00 00 00 00 00 00 00 00 00 00 00 00
       0.0 0.0 0.0 0.0
000130 00 00 00 00 00 00 00 00 00 00 00 00 00 00 00 00
       0.0 0.0 0.0 0.0
000140 00 00 00 00 00 00 00 00 00 00 00 00 00 00 00 00
       0.0 0.0 0.0 0.0
000150 00 00 00 00 00 00 00 00 00 00 00 00 00 00 00 00
       0.0 0.0 0.0 0.0
000160 00 00 00 00 00 00 00 00 00 00 00 00 00 00 00 00
       0.0 0.0 0.0 0.0
000170 00 00 00 00 00 00 00 00 00 00 00 00 00 00 00 00
       0.0 0.0 0.0 0.0
000180 00 00 00 00 00 00 00 00 00 00 00 00 00 00 00 00
       0.0 0.0 0.0 0.0
000190 00 00 00 00 00 00 00 00 00 00 00 00 00 00 00 00
       0.0 0.0 0.0 0.0
0001a0 00 00 00 00 00 00 00 00 00 00 00 00 00 00 00 00
       0.0 0.0 0.0 0.0
0001b0 00 00 00 00 00 00 00 00 00 00 00 00 00 00 00 00
       0.0 0.0 0.0 0.0
0001c0 00 00 00 00 00 00 00 00 00 00 00 00 00 00 00 00
       0.0 0.0 0.0 0.0
0001d0 00 00 00 00 00 00 00 00 00 00 00 00 00 00 00 00
       0.0 0.0 0.0 0.0
0001e0 00 00 00 00 00 00 00 00 00 00 00 00 00 00 00 00
       0.0 0.0 0.0 0.0
0001f0 00 00 00 00 00 00 00 00 00 00 00 00 00 00 00 00
       0.0 0.0 0.0 0.0

action_model._discrete_distribution.branches.0.weight f4 [2, 128]
000000 33 e8 0c bb 9f fe b2 3a 23 e1 12 3c ef e4 55 bb
       -0.0021500706 0.0013656205 0.00896481 -0.0032637676
000010 83 46 04 ba 4d 5f 21 bb 0b c2 ec 3a a6 a5 c0 ba
       -0.00050459075 -0.0024623454 0.00180632 -0.0014697805
000020 46 4c 48 3b 9d 3b 79 3a 02 42 7a 3c 8a a8 40 bc
       0.003056304 0.0009507479 0.015274527 -0.011758933
000030 8d 59 66 bb 82 57 07 3b f7 73 fb 3a 48 96 fe 3b
       -0.0035148591 0.0020651524 0.001918434 0.0077693798
000040 a6 8d 16 3b 65 88 9c 3c 7a c2 3d ba ad d9 7d b9
       0.0022972613 0.019108007 -0.0007238757 -0.00024209051
000050 f3 ec 9e bc 6e b0 00 3a 53 44 c5 3a a8 ff 41 bc
       -0.019400096 0.00049091026 0.001505027 -0.011840738
000060 20 3a ae bc 9a c7 f8 bb 08 96 a3 3b 67 3b 8e bb
       -0.02126795 -0.0075921537 0.0049922504 -0.0043405774
000070 5f 16 d0 3b d2 78 51 bb 00 e9 2e bb 02 ac 69 bb
       0.006350323 -0.0031962884 -0.0026689172 -0.0035655503
000080 bd c2 28 bc 98 64 67 bc 5b 85 67 bc 45 98 54 bb
       -0.0103003355 -0.0141231045 -0.0141309155 -0.0032439393
000090 99 9b 25 bb f7 bb 8d 3b 2a 6d 17 bb 66 e3 a6 3b
       -0.0025269745 0.0043253857 -0.0023105838 0.005093026
0000a0 11 29 20 bc 9d e9 69 3c e5 7e e2 3b a9 72 8a 3b
       -0.009775416 0.014276889 0.0069120997 0.0042250943
0000b0 77 ad d4 3b d7 cc 03 bb f3 85 01 bb 77 2e 16 bc
       0.006490405 -0.0020111108 -0.0019763678 -0.0091663515
0000c0 86 b2 1e bc e4 9b 3d bc 1a d9 bd 39 7f 29 56 3b
       -0.009686118 -0.011572812 0.00036210642 0.0032678542
0000d0 6d 2d 13 bb 01 b3 0e bc d3 a4 d3 ba 87 dc f5 bb
       -0.0022457496 -0.00870967 -0.0016147144 -0.0075030955
0000e0 b5 c8 17 3a f3 48 26 bc db b0 58 bb 7e 66 aa 3b
       0.00057901005 -0.010149228 -0.0033064398 0.0052002063
0000f0 7c 3f 9f bb 72 88 3b 3c 97 83 fd 3b 02 f0 fe bb
       -0.004859863 0.011446105 0.007736634 -0.007780076
000100 c8 37 99 3c 9b 19 1b b8 5b e7 26 bc a7 8b 64 3b
       0.018703356 -3.6978727e-05 -0.010186995 0.0034873278
000110 7c 67 a4 3c f3 6c 1d bc d2 89 5d 3c 1d 9f d1 bb
       0.020068876 -0.009608495 0.013521628 -0.0063971416
000120 17 0f e2 3b 40 b0 36 3b e8 53 f6 ba 65 f1 8f bb
       0.0068987715 0.002787605 -0.0018793317 -0.00439279
000130 3d d3 c8 3b 0c f1 83 3b 45 cc 3f bc 1b f5 07 bc
       0.006128697 0.0040265378 -0.0117064165 -0.008298184
000140 d9 a0 01 bb 3f 53 a5 bb 09 47 8c bc 25 bf 49 bc
       -0.001977971 -0.005045324 -0.017123716 -0.012313639
000150 2b dc cf 39 7b 20 00 3c 5b 5d 5b bc a2 46 e7 bb
       0.00039646155 0.007820244 -0.013388957 -0.0070579806
000160 98 af 5f bb aa 2d 55 3c 3b 95 04 bc 6f 81 c6 39
       -0.0034131762 0.013011375 -0.00809222 0.00037861938
000170 e3 f4 12 3b 8c 83 1c 3c 44 65 bc bb 81 66 41 bc
       0.0022423796 0.009552848 -0.0057493765 -0.011804224
000180 3c 50 c9 bb 7a fa 28 3c 8b cc 43 3b 65 8b dc 3b
       -0.006143598 0.0103136245 0.0029876556 0.0067304843
000190 d7 d4 50 3b 2d 14 14 ba 3c c4 37 bb cf 47 61 bb
       0.0031865144 -0.00056487584 -0.0028040549 -0.0034375077
0001a0 bb 45 41 bc 18 e6 5f 3b 7a e4 d9 3b f9 e8 be 3b
       -0.01179641 0.0034164246 0.006649551 0.0058261123
0001b0 14 b1 05 3b 96 49 28 bc f0 7b d5 bb 0e 69 34 3c
       0.0020399736 -0.0102714505 -0.0065150186 0.011011375
0001c0 d2 38 c0 3c 8f 80 f5 bb 79 cc 2a 3b e0 9e 7d bc
       0.023464594 -0.007492132 0.0026061817 -0.015479773
0001d0 30 27 ae 3c 97 13 25 bc 53 e1 4b 3b ad 82 a2 bb
       0.02125892 -0.010075471 0.0031109645 -0.0049594254
0001e0 4f fa 26 bc 58 cc 83 bb ff 37 d7 bb d7 83 a9 3b
       -0.010191514 -0.0040221624 -0.0065679546 0.0051731872
0001f0 56 a6 25 ba 04 cc 82 bb 23 08 33 bb 10 89 1a 3c
       -0.00063190365 -0.0039916057 -0.0027318082 0.009432092
000200 26 30 81 bc f8 4c f8 3a dd a7 bf bb 8f e7 da bb
       -0.01577003 0.0018943837 -0.0058488683 -0.006680436
000210 cf 8e 49 bc 57 bc 43 bc 87 51 7a 3a 47 88 7f bb
       -0.012302115 -0.011946759 0.00095488917 -0.003899114
000220 f9 02 1c 3c 2e 61 10 37 07 2b 0c 3c 8f b5 83 bb
       0.009522193 8.605695e-06 0.00855518 -0.004019446
000230 0f 89 43 3c e6 66 36 3c 10 82 9f 3c e3 6c be bb
       0.011934533 0.011132931 0.019471198 -0.00581132
000240 da b5 60 3a a1 60 09 3b 46 80 ca bb d2 aa ae bb
       0.000857202 0.0020962136 -0.006179842 -0.005330422
000250 70 d7 f8 ba ca f4 0c 3b 0a 90 2f bc 46 43 8f 3c
       -0.0018985104 0.002150821 -0.010715494 0.017488133
000260 66 bb 18 bc 83 a6 e9 3b b2 41 d2 39 a0 53 20 3c
       -0.009322023 0.0071304454 0.00040103268 0.009785563
000270 42 66 66 bc 21 3b aa bc f0 17 16 bc ab a2 16 bb
       -0.014062466 -0.020780148 -0.009160981 -0.0022985141
000280 af 1f 07 3c 89 59 a3 3c 90 d3 a5 ba f8 5c 7f 3c
       0.0082473 0.019940155 -0.0012651552 0.01558613
000290 bb 7b b1 ba ef b4 a4 3b d1 7e ad bc b3 17 12 3b
       -0.0013540903 0.005026452 -0.021178635 0.0022291958
0002a0 ff 71 dd 3a 64 c8 14 3c 91 29 0b bc 70 8e 9a 3a
       0.0016894935 0.00908098 -0.008493797 0.0011791717
0002b0 4b a4 1d 3c 8d 5d 21 bb 78 62 94 bc 74 be 97 3b
       0.00962169 -0.002462241 -0.01811336 0.004630858
0002c0 ae 49 99 3b 1c 24 3c bc 4a 1f cc 3c 62 75 92 3c
       0.0046779728 -0.0114832185 0.024917264 0.017878238
0002d0 6f 51 9b 3b f9 8e 03 3c cf bc 4d 3c 43 67 d2 3a
       0.0047399323 0.008029693 0.0125572225 0.0016052503
0002e0 b7 a0 08 3c d1 ad c6 bb c2 8b 72 bb 6a 19 be bb
       0.008339099 -0.006063201 -0.0037009572 -0.0058013694
0002f0 52 3c cf 3b 75 ba 09 bb f1 79 3b 3c 9d 54 20 3c
       0.0063243294 -0.0021015678 0.011442647 0.009785798
000300 3a 32 2d bc 0c 67 14 bc 2d 32 68 ba 58 b3 44 bc
       -0.010571057 -0.009057771 -0.00088575744 -0.0120056495
000310 e5 38 07 bc cf 53 fb 3b 9c 01 87 3a 43 7a 14 3b
       -0.008253311 0.007669903 0.0010300162 0.0022655881
000320 73 0d 06 3c c3 c4 59 ba 5d b6 23 bb df 19 59 3c
       0.0081819175 -0.0008307213 -0.0024980523 0.013250797
000330 ec 7e 92 3c e6 6d 07 bc a1 4b ac bc b2 a7 0d 3c
       0.017882787 -0.008265948 -0.021032156 0.008645939
000340 1d 92 36 3c 52 30 d3 bb 97 19 72 3b c2 ed e2 bb
       0.011143235 -0.006444969 0.0036941522 -0.0069253156
000350 20 1d 52 b9 a3 9f 99 3b 38 9c 38 3c 1f 9f ab bb
       -0.0002003801 0.0046882196 0.011267714 -0.0052374746
000360 c8 03 ce 3b 33 d1 4a bc 4b ac 90 bc 95 dc f3 ba
       0.006287072 -0.012378979 -0.01766028 -0.0018605167
000370 a6 89 1f 3c 4d b8 49 3c 3a 18 a7 3b c8 64 51 3c
       0.009737408 0.012312007 0.0050993236 0.012780376
000380 b2 f7 50 3c 3b fc 05 bc e2 0a 5b 3c 27 ef 2f 3c
       0.012754368 -0.008177812 0.013369294 0.010738171
000390 dd fb 0a 3c 98 90 10 bc ee 0e 99 bb f6 56 cc 3b
       0.0084829 -0.008823536 -0.004670969 0.0062359525
0003a0 55 45 5c bc 1f 35 d4 3b ff 04 f7 ba 58 d3 c5 bb
       -0.013444264 0.006476059 -0.0018846093 -0.006037157
0003b0 9f 8d 3d 3a 14 2b cb b9 cd ab 7d 3c 53 ac 46 bc
       0.0007230881 -0.00038751273 0.015482855 -0.012126046
0003c0 4d ba e7 3a c2 d5 84 3b 1f c5 26 ba d2 1d 44 3b
       0.0017679423 0.004053802 -0.0006361771 0.0029925
0003d0 b4 02 0b 3c 38 80 d9 bb bd e6 19 3c c3 ea cb 3b
       0.008484531 -0.0066375993 0.009393391 0.006223054
0003e0 63 8b 15 3b 33 e1 a2 3b 53 1e 0f bc ef d8 d0 3b
       0.0022818677 0.0049706935 -0.008735257 0.0063735167
0003f0 8b 52 82 3c 45 ce 82 3a 5b 8b 35 3c c3 1f a0 ba
       0.0159085 0.0009979686 0.011080588 -0.0012216497

action_model._discrete_distribution.branches.0.bias f4 [2]
000000 00 00 00 00 00 00 00 00
       0.0 0.0

action_model._discrete_distribution.branches.1.weight f4 [19, 128]
000000 97 1b b7 bc 93 3b 2c 3c fb bd a8 bb dd 6b b1 b9
       -0.022352023 0.0105122505 -0.0051496006 -0.00033840435
000010 92 ba f5 bb ee 00 15 3c 6b ac 98 3b d5 0a 63 3c
       -0.0074990476 0.00909446 0.0046592257 0.013857563
000020 e0 ab 5d 3b a2 1e 66 3b 37 e4 ef 3b f9 65 b8 3a
       0.003382437 0.0035113473 0.0073209065 0.0014068476
000030 23 24 32 bc 68 0b f6 b9 98 23 82 3c ab 1d 8a bb
       -0.0108728735 -0.00046929275 0.015886113 -0.0042149625
000040 7a 1c a3 bb 94 85 44 ba 9a 26 b9 bb 82 1b b9 ba
       -0.00497776 -0.00074967113 -0.0056503536 -0.0014122578
000050 af c0 73 3b af cb ee ba fa 3d 04 3c ca de 28 3b
       0.0037193706 -0.0018218661 0.008071417 0.0025767558
000060 5a 8a e7 38 d3 81 1d 3b 29 41 17 3c 55 38 12 bc
       0.00011040708 0.002403368 0.009231844 -0.008924563
000070 d5 09 31 3c cb 4a cf 3b cb 6b 26 3b ad 8f e9 3b
       0.010805567 0.0063260547 0.002539384 0.007127723
000080 87 35 00 bc ef 8c 25 3b 00 01 84 3a 28 01 ed ba
       -0.007825262 0.0025261005 0.0010071099 -0.001808201
000090 2a f0 a6 3a 86 e8 0a 3c ae 24 14 bc d3 9c 21 b9
       0.0012736369 0.0084782895 -0.009041948 -0.00015412578
0000a0 af 0a 7a bb b2 66 0e 3c bd e5 8f 3b f0 f7 80 3b
       -0.003815334 0.008691477 0.0043914006 0.0039358065
0000b0 bb 45 16 bb 6e 94 ad 3a b4 eb a8 bb d5 ff c9 3b
       -0.0022929746 0.0013243088 -0.005155051 0.0061645308
0000c0 12 c8 cb 3a 81 91 35 3c 9f 13 44 3b 6d 8a d3 3b
       0.0015547296 0.011082054 0.0029918922 0.0064557106
0000d0 e9 d0 0c 3c 5f a5 a1 3b 25 b5 1d bc ab f6 86 3a
       0.00859473 0.004933044 -0.009625708 0.0010296901
0000e0 62 1d 28 3c 93 e4 aa bb 93 04 87 bc 7f 42 05 bc
       0.010260912 -0.0052152365 -0.016481673 -0.00813353
0000f0 e0 1d e6 3b f0 07 80 bc 2b 40 0f bb fe 00 02 bc
       0.0070226043 -0.015628785 -0.0021858315 -0.007934807
000100 83 43 b2 bb f2 f5 0d 3b 52 29 54 b9 b5 50 56 bc
       -0.005440177 0.0021661487 -0.00020233289 -0.0130807655
000110 5a a8 0c bc 2d c4 e8 bb f6 8b 87 3c 43 97 15 bb
       -0.00858506 -0.007103464 0.01654623 -0.0022825755
000120 ab 1c b8 bb d7 b7 6a 3c 6f 87 3d bc cb 64 72 bc
       -0.005618652 0.014326057 -0.011567934 -0.014794539
000130 4a e6 50 bc b8 64 61 3c 3e 3b b1 bb 73 33 e4 bb
       -0.012750218 0.013756923 -0.0054086735 -0.006964141
000140 db 4b 35 3a a8 d1 24 3c db ca 0f bc db 30 e2 bb
       0.00069159054 0.010059752 -0.008776392 -0.0069027967
000150 b5 05 4e bc 35 7f 26 3b d5 ef 17 3c d9 c7 c8 3b
       -0.012574603 0.002540541 0.009273489 0.0061273393
000160 e1 b0 23 3a 5c ae c5 bb 65 b9 5a ba 1f 8d 0a 3c
       0.00062443136 -0.006032748 -0.0008343666 0.008456497
000170 ab d5 68 bb 9b 6c 81 bc f7 0b f2 38 d3 0f a6 ba
       -0.0035527747 -0.015798857 0.00011541688 -0.0012669511
000180 10 f4 50 bc 72 6d ea 3b 55 f4 cd 3b 17 a3 c5 3a
       -0.012753502 0.00715416 0.00628523 0.0015078512
000190 65 b6 91 3b d1 8b 4b ba 9f 4b 05 3c b9 8f 0c bb
       0.004446792 -0.000776467 0.008135705 -0.002144797
0001a0 57 39 6b 3c ad 52 14 bc 8b 83 fe bb dc 60 16 3c
       0.014356933 -0.009052915 -0.007767146 0.0091783665
0001b0 42 4e 7a 3b 47 03 4a bc 31 e0 2c 3c b5 c3 a3 bb
       0.0038193618 -0.012329883 0.010551498 -0.0049976953
0001c0 48 f7 8e bb c2 7e a5 3b 43 66 ba ba 25 6a f4 bb
       -0.0043629743 0.005050511 -0.001422115 -0.0074589425
0001d0 02 85 2e 3c f3 f8 48 bb 10 30 0f bc 55 cc 06 bc
       0.010651829 -0.0030665963 -0.008739486 -0.0082274275
0001e0 75 25 f0 3b bc 23 87 3c 17 c6 1b bb 37 2b 9c 3c
       0.007328684 0.016496532 -0.0023769194 0.019063575
0001f0 ed 04 8c bb f6 7c 1b bc a4 b0 88 bb e3 d7 14 3a
       -0.004273048 -0.009490242 -0.004171448 0.00056779216
000200 33 94 fb 3b d7 a8 9e bb 19 29 18 bc 6a fb 4e bc
       0.007677579 -0.0048419046 -0.009287142 -0.012633184
000210 be ba 2b bc b5 01 d6 3b d7 23 5c bc 28 cb 90 3c
       -0.0104815345 0.006530965 -0.013436279 0.017674997
000220 bf 3b 3d 3b 3d cf 78 bc 20 da f1 3a 07 a4 e9 bb
       0.0028874723 -0.015186128 0.0018451847 -0.0071301493
000230 ba 02 2b 3b 92 e1 a3 bb 5b 7f 2c 3b 70 3a 8e bb
       0.0026094154 -0.0050012553 0.0026321027 -0.0043404624
000240 c3 47 18 bc 24 d7 8a bc 08 83 19 ba 93 ec e4 bb
       -0.009294453 -0.01694829 -0.0005856012 -0.0069862097
000250 94 6b 14 bb b6 21 26 bc a8 cb 3d 3c 84 ea 31 3c
       -0.002264713 -0.010139873 0.0115842 0.010859136
000260 fa 55 65 3c ea a7 fa 3b d5 0f 4c bc 9f 24 ff ba
       0.013997549 0.0076494114 -0.0124549465 -0.001946587
000270 cf 9c 1e 3c f6 dc 39 3b 8a b4 23 bc 7e 29 bc bb
       0.009680941 0.0028360463 -0.009991774 -0.005742251
000280 0a 9b e2 39 8e f2 18 bc 52 25 50 bb 60 3f 86 3b
       0.00043221592 -0.009335173 -0.0031760526 0.0040969104
000290 70 fd 6d bc 02 eb 0b 3b 72 be fe 3a 83 e6 52 3c
       -0.014525756 0.0021349792 0.0019435419 0.012872341
0002a0 6b 4f c9 3b f7 79 7f bc 9b 75 2f bb eb e9 3a bb
       0.0061435006 -0.0155930435 -0.002677298 -0.0028520774
0002b0 8e 44 0f bc 0c 77 c7 bb c7 1f 72 3c c3 ce 6d bc
       -0.008744372 -0.0060871895 0.014778084 -0.014514628
0002c0 aa 9e 1e 3c 77 fb 22 bc 03 07 4c bb f8 16 ac bc
       0.009681383 -0.009947649 -0.003113211 -0.021007046
0002d0 f8 23 bc 3b cd 5c b7 bb 2f 65 80 3b ff a0 b2 39
       0.0057415925 -0.0055957795 0.003918312 0.00034070757
0002e0 12 86 d5 b8 a3 09 e8 3b 37 ef f3 3a 4f b7 c7 3b
       -0.00010181604 0.007081227 0.001861072 0.00609485
0002f0 ba 54 aa 3b 37 d3 02 3a c6 86 08 ba ea 4a 60 bc
       0.0051980885 0.000499058 -0.0005208071 -0.013689736
000300 99 04 c0 3b 90 20 e5 38 8c 6e 41 bb c1 02 07 3c
       0.005859923 0.00010925636 -0.0029515354 0.008240403
000310 8b 0e f8 bb c8 6c 60 bb 82 6a 5a 3c e4 fc 26 bb
       -0.007570093 -0.0034244526 0.0133310575 -0.0025480324
000320 8b d2 c6 3b 75 58 2c bb f2 e9 26 3c ec ed 0f 3b
       0.006067579 -0.0026297842 0.010187613 0.002196188
000330 0f b4 a7 3c 47 19 17 3c 1b 9b d0 3b 9e b5 01 bc
       0.0204716 0.009222335 0.0063661463 -0.007916836
000340 fd bb 1d 3c 56 3e 11 bc d7 74 cb 3b bd dc 54 3c
       0.009627339 -0.00886496 0.0062089968 0.012992081
000350 58 fd c7 bb 8b ed 9b 3c 40 b5 8d ba 12 43 65 3b
       -0.006103199 0.019034168 -0.0010811463 0.0034982604
000360 78 00 39 bc 54 01 c0 3a df 03 db bb e0 2f 62 bb
       -0.011291616 0.0014648833 -0.006683811 -0.00345134
000370 d9 65 b1 3c b3 7a 3d ba 22 f8 31 3c cb 91 c6 3b
       0.02165501 -0.00072280614 0.010862382 0.0060598603
000380 c8 0f dd ba 9a 36 11 bc e2 57 f9 b9 53 0a 26 3c
       -0.0016865665 -0.008863116 -0.0004755846 0.010134297
000390 a2 a2 d6 bb ef 45 da 3a fe 61 37 bb fd 93 fa bb
       -0.006550149 0.0016652922 -0.0027981992 -0.007647036
0003a0 33 82 d7 ba 93 e3 38 3c 35 f3 12 3c a2 86 d9 3a
       -0.0016442001 0.011284727 0.008969118 0.001659591
0003b0 3b e7 15 3c 8b ab 0d 3c 0a f0 61 3c 71 19 8e 3a
       0.009149368 0.008646856 0.01379014 0.0010841322
0003c0 7a ae 15 3b fb 16 85 3c 07 61 6b bb d1 d1 27 3a
       0.0022839592 0.01624631 -0.0035915987 0.00064018095
0003d0 f7 c7 20 3c b7 b4 b4 bb 1b 56 4d bc 01 ea 84 bb
       0.0098133 -0.005514707 -0.012532736 -0.0040562158
0003e0 53 95 ee bb c1 e2 07 ba 8f 28 ce bb 36 22 85 bc
       -0.0072809844 -0.000518363 -0.006291456 -0.016251665
0003f0 1f db 95 bb cd ab 21 bc 35 9a c0 3b d3 66 96 b9
       -0.0045732404 -0.009867621 0.005877758 -0.0002868684

action_model._discrete_distribution.branches.1.bias f4 [19]
000000 00 00 00 00 00 00 00 00 00 00 00 00 00 00 00 00
       0.0 0.0 0.0 0.0
000010 00 00 00 00 00 00 00 00 00 00 00 00 00 00 00 00
       0.0 0.0 0.0 0.0
000020 00 00 00 00 00 00 00 00 00 00 00 00 00 00 00 00
       0.0 0.0 0.0 0.0
000030 00 00 00 00 00 00 00 00 00 00 00 00 00 00 00 00
       0.0 0.0 0.0 0.0
000040 00 00 00 00 00 00 00 00 00 00 00 00
       0.0 0.0 0.0

action_model._discrete_distribution.branches.2.weight f4 [15, 128]
000000 36 3e 13 3b 08 0a 1f bc 7a e4 7e 3a 28 97 4d ba
       0.00224675 -0.0097069815 0.0009723377 -0.00078426534
000010 8e 84 2e 3b d0 43 eb 3a e3 e5 1d 3b 15 14 41 3b
       0.0026629302 0.0017949287 0.0024093322 0.0029461433
000020 4b c1 4c 3c 19 a2 3d 3b b7 41 2c bc 65 e4 83 bb
       0.0124972565 0.002893573 -0.0105137145 -0.0040250295
000030 1a 48 26 ba 4b 41 06 3c 73 db 33 3c b8 b8 7d bc
       -0.00063431414 0.008194278 0.010977614 -0.015485935
000040 7d 90 71 bc f6 dc 44 3c 82 44 2a 3c 5b 1e 65 3b
       -0.014743921 0.012015572 0.01039231 0.003496072
000050 b6 4f 3e bb e3 5f b7 3b 3b a2 f8 3a 10 38 2c 3c
       -0.002903921 0.0055961474 0.0018969247 0.010511413
000060 ef f9 35 3c 5f 44 46 bc 0b bc 1e ba 9f ac 83 b9
       0.011106952 -0.012101262 -0.0006055242 -0.0002511488
000070 d9 40 4a bc 71 31 15 3c 53 28 11 3b b8 e1 f9 bb
       -0.012344562 0.009106026 0.002214928 -0.0076257847
000080 5e 9f 09 bc 13 c7 36 3a 13 8f fc ba 3a c0 01 3c
       -0.0083998125 0.00069724134 -0.0019268714 0.007919366
000090 86 57 94 3b 4e 7f c3 3a e4 57 43 3c 33 5b fa 3b
       0.004527035 0.0014915259 0.01192281 0.0076402663
0000a0 36 e1 ad 3b 38 b3 ac 3b e7 07 3f bb 11 a2 00 bc
       0.0053063883 0.005270388 -0.0029148997 -0.00785114
0000b0 9b 26 59 bc f9 92 b3 ba 37 67 4a 3c cf 5b a7 bc
       -0.013253833 -0.0013700417 0.01235371 -0.02042952
0000c0 8d d2 5c 3a 9b 1e 0e bc f0 3d 78 39 9f eb 27 bc
       0.00084237085 -0.008674289 0.00023674197 -0.010249048
0000d0 be 8f bf bb 54 10 38 bc 6f b0 11 3c 9a d5 12 3c
       -0.005845993 -0.011234362 0.008892163 0.008962059
0000e0 8b b9 78 3a d6 45 c6 3b 2c b9 23 bc 45 08 85 bc
       0.0009488097 0.0060508056 -0.009992879 -0.016239295
0000f0 21 f2 82 3c e8 7d e4 bb b2 34 50 bb ff 82 ed bb
       0.015984597 -0.006973017 -0.003176969 -0.007248282
000100 cd ad fb bb d1 5e 92 3c e2 05 4b 3b 12 0c 02 3c
       -0.007680631 0.017867478 0.0030978848 0.007937448
000110 78 90 55 bb 73 f8 d1 bb 6f 4e cb ba d3 6b 28 bb
       -0.003258733 -0.0064077913 -0.0015511046 -0.0025699034
000120 bd f8 40 3c 92 2a cf 3b 5b 5a a3 bb 59 fe a5 3b
       0.011778054 0.0063222134 -0.0049851364 0.005065721
000130 c3 ee 08 bc 14 a1 c5 b7 01 53 a2 3c e3 8c c5 3c
       -0.0083577065 -2.3559238e-05 0.01981497 0.024115032
000140 ff 5a 10 3b b8 c0 f4 3b 1c 48 80 bc d2 60 d6 bb
       0.0022026894 0.007469263 -0.015659384 -0.0065423036
000150 df 79 0f 39 f7 17 e6 3b 1a c7 3a 3c 02 2d d1 ba
       0.00013682943 0.0070219 0.011400009 -0.0015958848
000160 2f d1 74 bb e2 ba ff 39 d2 93 73 bc 58 87 05 3c
       -0.0037356128 0.0004877663 -0.014866786 0.008149944
000170 1b fc 13 bc 42 e3 3a bc e3 fd f8 3b f0 98 58 bc
       -0.009032275 -0.011406722 0.007598625 -0.013220057
000180 ed 6b 7b bc ba 1b 59 bb cb 16 80 3c a3 b6 01 bb
       -0.015345556 -0.0033128099 0.015635869 -0.0019792698
000190 a6 4a 2d 3c f3 23 8d 3b 9a d4 69 3b a3 07 a9 bb
       0.01057688 0.004307264 0.00356797 -0.005158381
0001a0 1d 12 70 bb 11 91 91 bb fb e5 f7 3b 38 50 f7 3b
       -0.003663189 -0.004442342 0.0075652576 0.0075474046
0001b0 30 2c 06 3b e5 7b be b9 8d 80 2e 3c 8b b2 3f bb
       0.0020473115 -0.00036331933 0.010650766 -0.0029250707
0001c0 9b ed a6 3a b7 02 56 3c 76 41 26 3b f6 62 20 3c
       0.0012735607 0.013062171 0.0025368608 0.009789219
0001d0 95 e6 d2 bb ec 24 b8 bb 38 a3 1e ba 7f 6e 1e bc
       -0.006436179 -0.005619636 -0.0006051543 -0.009669899
0001e0 28 a7 51 3b 53 e7 87 bb f1 e7 3d bc 53 ab 2b 3c
       0.0031990502 -0.004147449 -0.011590944 0.010477859
0001f0 aa 88 55 bb a6 e3 ac bc 85 60 e5 bb 68 6a 72 bc
       -0.0032582679 -0.021104645 -0.0070000314 -0.014795877
000200 4b 50 f0 3b 29 43 2d bb 87 0d 64 3b 71 1f 8f 3a
       0.0073337904 -0.0026437736 0.0034798102 0.0010919404
000210 c9 ce 91 bb c6 00 27 3b c9 b5 b0 39 ff f0 19 bb
       -0.0044496995 0.0025482639 0.00033704776 -0.0023489592
000220 18 c3 45 bb 3d 66 79 bc 05 96 fa ba 77 fe 88 ba
       -0.00301761 -0.015222129 -0.0019118196 -0.0010451813
000230 09 8c 8b bb a7 f9 ba ba 23 54 a9 3c 36 0b 8e bb
       -0.004258637 -0.0014265076 0.020670002 -0.0043348325
000240 4e 26 ba 3b a2 76 23 3c dd a1 02 bc b9 0b 00 3b
       0.005680836 0.009977015 -0.0079731615 0.0019538237
000250 77 56 a4 3a 18 b2 f1 bb 64 15 92 3b ff 13 6a ba
       0.0012537976 -0.0073759668 0.0044581164 -0.0008929371
000260 36 a3 30 3c 55 91 ba 3c 93 14 28 3c 39 70 11 bb
       0.0107811 0.022774378 0.0102588115 -0.0022192134
000270 1d 74 f4 bb 40 3b 5e b9 db e5 fa 3a 16 bb bd bb
       -0.007460131 -0.00021193642 0.0019141989 -0.0057901246
000280 1f 80 49 ba 88 57 19 bc e7 c0 74 bb 82 e7 dd 3b
       -0.0007686633 -0.009359248 -0.0037346424 0.0067719826
000290 50 d6 4c bc 6e 79 24 3c 0d 5f a9 3a ea 49 2e 3c
       -0.012502268 0.010038717 0.0012922004 0.01063774
0002a0 67 b4 a2 3b 32 b2 1a 3b 91 3f 82 bc 53 1f d0 b9
       0.0049653533 0.0023604748 -0.015899451 -0.0003969619
0002b0 63 b1 15 bb 5f 38 51 bb be 30 a7 bc 14 d4 a9 3b
       -0.0022841326 -0.003192447 -0.020408984 0.0051827524
0002c0 ee 37 1b bc 9e 56 a6 bb 2b 91 b4 3b 7d 01 31 3c
       -0.009473784 -0.0050762435 0.0055104694 0.0108035775
0002d0 63 96 e4 b9 58 ed 47 3c 7c de 1c 3b 54 55 0e bb
       -0.00043599596 0.012202583 0.0023936322 -0.002171834
0002e0 1b 44 e3 3b 86 08 82 3b 48 db d5 bc 96 99 08 bc
       0.006935609 0.003968301 -0.026105538 -0.008337399
0002f0 7c 3d 49 3c e5 48 96 3b 73 30 94 bb b9 6d c4 bb
       0.012282725 0.0045863264 -0.004522377 -0.0059945253
000300 d8 08 53 bb 4e e1 19 bb 97 75 a9 ba 1a 94 a5 bb
       -0.0032201316 -0.002348024 -0.0012928721 -0.0050530555
000310 00 44 55 bc 41 1a 2d bb 9a ba 85 bc 8f 45 1b 3c
       -0.013016701 -0.0026413354 -0.01632433 0.009477033
000320 59 8d 88 bc 18 6b 0c bb 23 5b 97 3b 45 4e 18 3c
       -0.016668962 -0.0021426138 0.0046190186 0.009296005
000330 02 46 51 bb b9 ed b4 ba 98 fa 0e 3b f8 19 5c 3c
       -0.0031932597 -0.0013803757 0.0021816846 0.013433926
000340 28 8b a6 bb 45 ee 34 3b 5d df fb 3b 43 2f 13 3b
       -0.0050825067 0.002760784 0.007686539 0.002245859
000350 35 a2 e3 ba 3b 03 52 bc f6 b9 3c bc 0f c2 c9 bb
       -0.0017367067 -0.012818153 -0.011518946 -0.006157167
000360 fd 75 e8 bb bf 11 b1 ba bd 8d 71 ba 13 02 a2 bb
       -0.0070941434 -0.0013509317 -0.0009214541 -0.004944095
000370 1d 51 0a bc 07 fd 42 bc 63 39 bf 3b ca 84 07 3b
       -0.0084421905 -0.011901147 0.0058356985 0.0020678514
000380 49 6b 81 3b b8 1e e8 3b 3e 16 a8 39 ef 29 48 3c
       0.003949557 0.00708374 0.0003206003 0.012217029
000390 78 bc d4 bb d6 4d bc 3b 9c 3e 07 3b 51 76 96 bb
       -0.006492194 0.0057465835 0.0020636683 -0.004591741
0003a0 6b 85 6e 3b 19 3d 98 bc d0 ee 1a bb 1c 9b 34 3a
       0.0036395441 -0.018583821 -0.0023640878 0.0006889568
0003b0 77 07 b8 3b 7a 4e 62 bb a7 4c 1c bc 87 19 e6 3b
       0.0056161243 -0.003453164 -0.00953976 0.007022086
0003c0 7f b7 a6 3a a4 4b 13 ba ec ac 4c bc 68 2b d2 3b
       0.0012719481 -0.00056188763 -0.0124924 0.006413866
0003d0 50 cc 07 bc d2 33 22 3b 9b 26 88 3c 10 df 70 3b
       -0.008288458 0.0024750126 0.016619971 0.003675405
0003e0 6f 0e 0f ba aa 76 e5 bc 75 ae 62 bb 09 35 93 3b
       -0.0005457168 -0.028010685 -0.0034588848 0.0044924063
0003f0 aa af 49 ba 48 f0 da 3c e3 64 f2 bb ab 94 00 3c
       -0.00076937175 0.026725903 -0.0073972805 0.007847945

action_model._discrete_distribution.branches.2.bias f4 [15]
000000 00 00 00 00 00 00 00 00 00 00 00 00 00 00 00 00
       0.0 0.0 0.0 0.0
000010 00 00 00 00 00 00 00 00 00 00 00 00 00 00 00 00
       0.0 0.0 0.0 0.0
000020 00 00 00 00 00 00 00 00 00 00 00 00 00 00 00 00
       0.0 0.0 0.0 0.0
000030 00 00 00 00 00 00 00 00 00 00 00 00
       0.0 0.0 0.0

network_body._body_endoder.seq_layers.0.weight f4 [128, 78]
000000 8a 55 5c 3e 6c a8 a2 3d 96 a5 29 3e 42 09 1c be
       0.21517006 0.0794228 0.16567072 -0.15237907
000010 0f 9f 83 3e 7d 86 06 be c9 cc a2 bd b7 a9 10 be
       0.2570729 -0.1313724 -0.07949216 -0.14127241
000020 a3 4c 1c 3e 2f a5 08 bd 41 cb f9 3d bb a7 15 3e
       0.1526361 -0.033360656 0.12196971 0.14614765
000030 d6 4b 88 bd 04 ac 80 bd 35 14 41 be 96 ec cf 3d
       -0.066550896 -0.062828094 -0.18855365 0.10152547
000040 c2 02 53 3d 93 8b 2a 3e 19 47 a7 bc c9 ae 81 be
       0.051516302 0.16654806 -0.020419644 -0.25328663
000050 a6 56 05 be cb 30 8a bd e3 93 96 3d 53 7c 8d bd
       -0.13021335 -0.06747588 0.07352426 -0.069084786
000060 4b 00 1e be 36 2c 4e bc f0 cb cd bb 16 08 4b bd
       -0.154298 -0.012583783 -0.0062804148 -0.04956826
000070 af 4e de bc da e4 cd 3d 85 1e 43 be 01 d0 2a 3d
       -0.027137129 0.100534156 -0.19054611 0.041702274
000080 e0 e9 6b 3d 92 07 1d 3e b9 fb c3 3d fe 16 12 3d
       0.057596087 0.15334919 0.09569497 0.03566646
000090 f1 09 1f be e6 71 a6 bd 30 ac 80 3d a3 f1 76 3e
       -0.15531136 -0.08127193 0.06282842 0.24115615
0000a0 7c 1f 9a 3d 24 42 1f 3e f7 de d0 bd 6e 22 bc 3d
       0.075255364 0.15552574 -0.10198777 0.091862544
0000b0 6d c2 3b bc 58 f4 c4 bd 3a ab 08 3e 1b 93 9f be
       -0.011459929 -0.09616917 0.13346568 -0.3116692
0000c0 37 64 62 bc 6e 68 99 3c cd 73 4d 3d 50 38 06 3d
       -0.013817838 0.018726554 0.050159264 0.032768548
0000d0 cb 98 ba 3d 4b 84 7a 3c 0a 16 ab 3d 99 b1 52 bd
       0.09111174 0.01529033 0.08353813 -0.0514389
0000e0 3a b0 1f 3e 76 9a 1d 3d c0 a8 cd bd a4 e8 54 bd
       0.15594569 0.038477384 -0.10041952 -0.051979676
0000f0 09 b1 5f bd 26 d1 0d ba ba 9f 21 be 00 93 4f bd
       -0.054612193 -0.00054098887 -0.15783587 -0.0506773
000100 68 60 1a 3c e7 1c 4b be 99 87 15 be 5a 55 a6 3d
       0.009422399 -0.19835244 -0.14602508 0.08121748
000110 72 0a e3 3c 97 56 49 3d 0d de 62 be 7d 62 6b be
       0.027714942 0.049154844 -0.22155018 -0.22986789
000120 b0 ee be 3d d7 02 ae 3c c8 d3 a5 bd ab 73 20 bc
       0.0932287 0.021241589 -0.08097035 -0.009793202
000130 02 fa 3b be 5a 96 08 3e 57 c3 ab 3c 1c 0e 3c 3e
       -0.18357089 0.13338605 0.020967169 0.18364757
000140 dc 41 57 3d 09 fc 94 3c 53 f9 d8 bb b8 d2 b7 bd
       0.052553043 0.018186586 -0.0066215186 -0.08975738
000150 96 bf a1 3d 11 3d 15 3e 25 0d e5 bd 60 f8 82 bb
       0.0789787 0.14574076 -0.11184148 -0.0039968938
000160 ab 1d 6e be 25 20 9c 3d 2e fb af bc 29 44 13 bb
       -0.23253505 0.076233186 -0.021482076 -0.0022471047
000170 cf 50 d9 bd 00 27 cd 3d c8 06 8c bc 21 9f 95 3b
       -0.10611116 0.10017204 -0.017093077 0.004566089
000180 57 b3 01 3e bb 08 cf bc 5c 2e 4f 3d a7 4c 4d 3c
       0.12666069 -0.025272718 0.05058132 0.012530482
000190 9a fe 0d be c8 84 4f be 6f a3 3b ba 52 08 60 3d
       -0.13866654 -0.20265496 -0.00071578374 0.054695435
0001a0 2f b7 83 bd c0 55 c5 bd fb 49 91 bd d1 41 b3 3c
       -0.06431424 -0.09635496 -0.07094189 0.02188197
0001b0 01 4e 8e 3e 89 2d 41 bd 8c 16 88 3d ca 88 16 3e
       0.27793887 -0.047162566 0.066449255 0.14700618
0001c0 ca ad 27 3d 93 92 61 3d a6 2b c5 bb 5a c4 8f bd
       0.040937223 0.055071425 -0.006017166 -0.07019873
0001d0 2d eb f6 bd 4a cc a3 3d ac e1 ad 3d 70 80 b5 3d
       -0.12056575 0.079979494 0.08490309 0.08862388
0001e0 40 b2 2e 3d 6e 31 83 be ee 2d a0 bd 10 d0 29 be
       0.04265046 -0.2562365 -0.078212604 -0.16583276
0001f0 01 6b 3d be f9 4f db 3d 88 7e 17 3d 35 8d 1e 3c
       -0.1849785 0.10708613 0.036985904 0.009677221
000200 97 41 31 be 1f ad 41 be 5a 0c 57 bd da 93 4c 3e
       -0.17310177 -0.18913697 -0.052502014 0.19978276
000210 85 d2 13 3e 79 73 15 be 30 ba 8d bc 9a 5b 91 bb
       0.14435776 -0.1459483 -0.017300695 -0.0044359686
000220 21 1d 48 3d a5 43 d0 bd 03 7f be bd 59 84 18 bd
       0.048855904 -0.10169152 -0.09301569 -0.03723559
000230 93 84 bd bd 66 6d 0d 3d 8a 66 d8 bc 47 76 dd bd
       -0.09253802 0.03452816 -0.026416082 -0.10813575
000240 52 65 27 3e 30 17 c5 3d bb bb 56 bc c1 54 f4 3d
       0.16347244 0.09623563 -0.013106282 0.11930228
000250 91 78 84 bd e8 f1 3b 3d d4 5d 79 3e d5 87 07 be
       -0.06468309 0.045884997 0.24352199 -0.1323541
000260 e2 bd f3 3d d6 3e 87 bc 0f d6 85 3d dc bf c1 3d
       0.11901452 -0.016509455 0.06534969 0.094604224
000270 a3 79 9a 3d 9d b7 4f 3e 6f be 29 3e 2c b7 8f 3d
       0.075427316 0.20284887 0.16576551 0.07017359
000280 bc 09 21 3e 2c cb e8 bd d9 ba 0c 3c 2d 40 bc 3d
       0.1572637 -0.11366877 0.00858947 0.09191928
000290 3f 14 d1 bd 6c 53 9e 3b 7d c8 3b bd b8 30 ae 3d
       -0.1020894 0.004831722 -0.045845497 0.08505386
0002a0 9a 63 1e bd 70 95 87 bc 27 64 3f be 4d 46 6a 3c
       -0.038669206 -0.01655075 -0.18690549 0.014298988
0002b0 b4 68 a7 bd cd f6 16 bd 72 ce 83 3d 6a 2e 11 3e
       -0.081742674 -0.03685646 0.06435861 0.14177862
0002c0 b2 0c 55 3e e8 0d c5 3d cd ab 2a 3e 42 a4 80 bc
       0.20805624 0.09621793 0.166671 -0.015703324
0002d0 73 98 ca bc b6 50 8d be 5a 69 3e bd 30 73 dc 3d
       -0.024730897 -0.2760064 -0.04648719 0.10764158
0002e0 4b 5b e2 3d ad dd da 3c a7 65 4b bc 62 eb 35 3e
       0.11052569 0.026717031 -0.0124143725 0.17765573
0002f0 17 19 9c bc 42 ae 72 3e ee f8 78 be 34 21 2a 3e
       -0.019054933 0.23699287 -0.24313709 0.16614228
000300 0e d4 11 3d a5 d4 e0 3d 02 6f 12 be 26 8a 8f 3d
       0.03560262 0.10978059 -0.14300159 0.070087716
000310 12 cf 01 bd 91 4c 86 bd 80 bf 67 bd b7 73 0b bd
       -0.03169162 -0.06557573 -0.056579113 -0.0340459
000320 8c 20 1d 3e 04 c7 dc 3d 7e 08 2f 3c ef 54 8a 3c
       0.15344447 0.10780147 0.010683177 0.016886203
000330 63 84 88 bd df 2f ac 3c 1f c8 c2 3d 73 3e 71 bd
       -0.06665876 0.02101892 0.09510826 -0.058897447
000340 41 fc cb bc c5 7b f7 3d 46 8f 3a bd 76 dd ff bc
       -0.024900557 0.12084154 -0.045546792 -0.03123353
000350 e7 1d 97 bd 25 40 35 be 95 06 a0 bd f7 c0 6f 3c
       -0.0737875 -0.1770025 -0.078137554 0.014633409
000360 57 97 1f 3e 5f d7 bd bd ea 9b 9b 3c 65 30 44 3e
       0.15585075 -0.092695944 0.018995244 0.19159086
000370 4d 94 cc bd f7 f4 5d 3e 8d d5 47 be be d8 af 3d
       -0.09989224 0.21675478 -0.19515057 0.08586262
000380 d3 4c 45 3e ea 3b a2 bd 68 fc 73 3b 3b 8d fe 3d
       0.19267587 -0.07921584 0.0037229303 0.12429281
000390 cb 46 f1 bd d8 3e d5 bd 6d 1d 69 bc d8 c3 96 3d
       -0.11781081 -0.10412377 -0.014228207 0.07361573
0003a0 2f 79 0b 3c 7d 03 b9 3d 99 93 d1 bd 37 70 5f 3d
       0.008512779 0.090338685 -0.1023323 0.054550376
0003b0 4e 35 a9 bd 8e c8 7d be ac 47 e2 bd 33 4f aa 3d
       -0.0826212 -0.24783537 -0.110488266 0.08315887
0003c0 58 b4 8b bd 69 4e 2d 3d 34 9f 37 3b aa af b7 bd
       -0.06821507 0.042311106 0.0028018476 -0.08969052
0003d0 0c 45 4c bc 9a 04 5e 3e 9e ed 59 bd 12 e6 18 3e
       -0.012467634 0.21681443 -0.053205125 0.14931515
0003e0 f7 b0 e3 bc cb d8 a3 3d 94 4c 86 bd bf 11 32 be
       -0.027794344 0.08000334 -0.06557575 -0.17389582
0003f0 8a a4 68 bd 93 c0 20 bd a9 19 38 3e 22 6f d8 bd
       -0.05679754 -0.039246153 0.17978539 -0.10568072
