FYPprototype/results/Test2.2/AIBalancing/AIBalancing-221.pt (torch, 242151 bytes, 16 tensors)

discrete_act_size_vector f4 [1, 3]
2.0 19.0 15.0
00000000: 0000 0040 0000 9841 0000 7041

network_body._body_endoder.seq_layers.0.weight f4 [128, 78]
-0.08349117 0.03226226 0.08761456 -0.031466376 -0.059960872 0.0834734 0.0022721644 0.044308674
0.14056002 -0.1169995 0.10401381 0.08538479 0.027360415 0.1327915 0.11210001 -0.093668476
0.1338124 -0.028543599 0.20867142 0.033072922 0.0051842704 -0.046277624 0.011901787 -0.2038589
-0.00085494743 0.00983051 -0.00021325318 0.046866566 -0.00087659626 0.069361806 -0.13876957 -0.0067775855
0.066182144 -0.061987262 -0.043786548 -0.094557315 0.13684882 -0.07561994 0.029212749 0.08749165
-0.11024907 0.033393733 0.122851305 0.28442812 -0.098241605 0.089762315 0.09175855 -0.065050445
0.18280749 -0.046948865 -0.08391952 -0.074802406 -0.1821873 0.061391566 -0.03683332 -0.11810049
-0.039506335 -0.18401742 -0.0030092727 -0.122037604 -0.06102721 0.15400489 0.060981516 0.011815804
-0.091457784 -0.0053908485 0.105576 -0.13304396 0.1252913 0.0021188732 -0.0133724585 -0.041323524
0.11329811 -0.12493776 0.068396136 0.046425186 0.18501621 -0.013841745 0.0077189463 0.0009312978
0.058978185 0.22781244 -0.04997994 0.04559374 0.048453074 0.07189763 -0.06012901 -0.13417985
-0.033090793 0.09634163 -0.19566998 -0.10749043 -0.08492209 0.041063115 0.011198532 0.0647727
-0.117999345 0.06820087 -0.008453261 0.20792429 0.066142336 0.0042922106 -0.12583607 0.16687027
-0.023599995 -0.07429878 0.015916673 -0.030874472 -0.03997423 0.15190667 0.15832092 0.00955681
0.049053017 -0.3200937 0.06270875 0.11932607 0.17087369 0.074615836 -0.032435644 0.036228657
0.11407626 -0.08188728 0.038330436 -0.010703034 -0.0643102 -0.07279648 0.07231013 0.09839639
0.09025613 -0.05156516 -0.17997125 0.080566876 0.26632124 -0.035361327 -0.14229275 0.05578006
-0.0764916 -0.24263017 0.044915013 0.053881105 -0.027231073 0.022259654 -0.1450143 -0.25828323
0.040644467 0.19720164 0.11195511 0.006573342 -0.16911957 -0.08464984 -0.023733605 -0.12454443
-0.00041724817 -0.03512358 0.2593179 -0.00065383594 0.12585722 0.16310331 -0.08708113 0.04721999
0.21276914 -0.13817899 -0.104204424 0.21912906 0.010145443 -0.13381559 -0.040227976 0.005855091
0.07707611 0.0765179 0.04954541 -0.08335393 -0.070013024 -0.08434739 0.085581064 0.0836164
0.14961116 -0.10368976 -0.032802545 0.04202414 0.26177654 0.116758525 -0.10674926 0.02276577
-0.24431202 0.25088835 0.03269947 0.08132084 0.07393813 0.17721528 -0.10585619 0.09163205
0.05777192 0.035026252 0.051537793 -0.22876701 0.11864167 -0.03047204 -0.121814325 0.028540514
0.11630111 0.037942655 0.06034532 0.008637522 -0.03960884 -0.15417105 -0.08831333 -0.0048527764
0.046113938 0.033380795 -0.1306916 -0.12254601 0.077512525 0.020402338 0.099898204 0.17826492
-0.07760313 0.06112606 -0.0003703776 -0.024910823 -0.120537214 -0.021711148 0.10824116 -0.12620974
0.088735215 0.17209767 0.12697762 0.11491705 -0.041261498 0.13857175 -0.0042604706 -0.027867801
0.14685299 -0.005024588 0.019539416 -0.04326927 -0.117726825 -0.13079989 0.14612526 0.05271239
-0.05494931 -0.14413793 -0.27660644 0.16408953 0.18662626 0.07513415 0.13920173 -0.039511297
0.0461868 -0.0016743053 -0.10411984 -0.012356492 -0.03710281 0.01137833 0.15265906 -0.04191056
00000000: 6bfd aabd 6e25 043d 436f b33d e3e2 00bd
00000010: 8899 75bd 1af4 aa3d 98e8 143b 037d 353d
00000020: f7ee 0f3e 6f9d efbd 3105 d53d 39de ae3d
00000030: f322 e03c 7ffa 073e b194 e53d 42d5 bfbd
00000040: 1e06 093e 44d4 e9bc f6ad 553e 7977 073d
00000050: d0e0 a93b 9b8d 3dbd b6ff 423c 63c0 50be
00000060: 8d1e 60ba 2610 213c b79c 5fb9 28f7 3f3d
00000070: 61cb 65ba 900d 8e3d 9c19 0ebe 8216 debb
00000080: 818a 873d 5be6 7dbd 8659 33bd 44a7 c1bd
00000090: 1922 0c3e a1de 9abd 934f ef3c d22e b33d
000000a0: 44ca e1bd dec7 083d 7799 fb3d 90a0 913e
000000b0: e532 c9bd 4ed5 b73d e8eb bb3d 2b39 85bd
000000c0: e331 3b3e 744d 40bd ffdd abbd 0132 99bd
000000d0: 4f8f 3abe b975 7b3d 89de 16bd abde f1bd
000000e0: 65d1 21bd 106f 3cbe 3837 45bb daee f9bd
000000f0: abf7 79bd 75b3 1d3e c1c7 793d 1397 413c
00000100: 384e bbbd b7a5 b0bb 3b38 d83d ad3c 08be
00000110: 5d4c 003e cbdc 0a3b 2818 5bbc db42 29bd
00000120: d708 e83d 5edf ffbd 4613 8c3d 5628 3e3d
00000130: e474 3d3e 7dc8 62bc 37ef fc3b 5622 743a
00000140: 1c93 713d aa47 693e c4b7 4cbd 80c0 3a3d
00000150: bb76 463d 113f 933d d649 76bd 7166 09be
00000160: 368a 07bd c34e c53d b65d 48be f123 dcbd
00000170: a2eb adbd cc31 283d 0c7a 373c 8da7 843d
00000180: a4a9 f1bd e6ac 8b3d 8c7f 0abc 1bea 543e
00000190: a275 873d aca5 8c3b 2cdb 00be 0ae0 2a3e
000001a0: c754 c1bc f529 98bd af63 823c 76ec fcbc
000001b0: 05bc 23bd 6c8d 1b3e e11e 223e 2b94 1c3c
000001c0: d1eb 483d 52e3 a3be 726d 803d 3a61 f43d
000001d0: 83f9 2e3e 30d0 983d 3ddb 04bd 8064 143d
000001e0: d0a0 e93d 85b4 a7bd 6000 1d3d c75b 2fbc
000001f0: 11b5 83bd 5216 95bd 5517 943d 0c84 c93d
00000200: 35d8 b83d fd35 53bd 624a 38be 3f00 a53d
00000210: 425b 883e 0ad7 10bd 31b5 11be a279 643d
00000220: a1a7 9cbd 0b74 78be cef8 373d 6fb2 5c3d
00000230: b313 dfbc e159 b63c a17e 14be b33d 84be
00000240: d07a 263d 3aef 493e b948 e53d 3065 d73b
00000250: ae2d 2dbe e55c adbd fa6c c2bc 2611 ffbd
00000260: 1ac2 dab9 bedd 0fbd 51c5 843e 3066 2bba
00000270: b7e0 003e 8e04 273e 9757 b2bd c069 413d
00000280: 27e0 593e cb7e 0dbe 2169 d5bd 5e63 603e
00000290: 1239 263c f406 09be 17c6 24bd 10dc bf3b
000002a0: 14da 9d3d 6bb5 9c3d 21f0 4a3d 77b5 aabd
000002b0: fd62 8fbd 53be acbd 2045 af3d 133f ab3d
000002c0: ab33 193e 4c5b d4bd f65b 06bd 8121 2c3d
000002d0: 9307 863e 181f ef3d 5b9f dabd 487f ba3c
000002e0: ee2c 7abe 7074 803e e1ef 053d 8a8b a63d
000002f0: e06c 973d ec77 353e 21cb d8bd 96a9 bb3d
00000300: 40a2 6c3d b077 0f3d 4b19 533d e641 6abe
00000310: 67fa f23d 80a0 f9bc ca79 f9bd cccd e93c
00000320: 472f ee3d c269 1b3d a72c 773d 6584 0d3c
00000330: e13c 22bd 04df 1dbe 9fdd b4bd 0a04 9fbb
00000340: f8e1 3c3d 4dba 083d 05d4 05be 67f9 fabd
00000350: e3be 9e3d ce22 a73c 6e97 cc3d 148b 363e
00000360: 64ee 9ebd 525f 7a3d 3d2f c2b9 c811 ccbc
00000370: 37dc f6bd 94db b1bc 8bad dd3d 203d 01be
00000380: cfba b53d 5f3a 303e 6c06 023e a159 eb3d
00000390: d101 29bd c1e5 0d3e 6b9b 8bbb 044b e4bc
000003a0: a160 163e 4da5 a4bb 2011 a03c 1e3b 31bd
000003b0: c31a f1bd 68f0 05be dca1 153e f2e8 573d
000003c0: 8712 61bd e598 13be 5c9f 8dbe 1607 283e
000003d0: f41a 3f3e efdf 993d e68a 0e3e 99d6 21bd
000003e0: 5f2e 3d3d 5d74 dbba c83c d5bd e272 4abc
000003f0: 1ef9 17bd 2d6c 3a3c a852 1c3e 68aa 2bbd

network_body._body_endoder.seq_layers.0.bias f4 [128]
0.0 0.0 0.0 0.0 0.0 0.0 0.0 0.0
0.0 0.0 0.0 0.0 0.0 0.0 0.0 0.0
0.0 0.0 0.0 0.0 0.0 0.0 0.0 0.0
0.0 0.0 0.0 0.0 0.0 0.0 0.0 0.0
0.0 0.0 0.0 0.0 0.0 0.0 0.0 0.0
0.0 0.0 0.0 0.0 0.0 0.0 0.0 0.0
0.0 0.0 0.0 0.0 0.0 0.0 0.0 0.0
0.0 0.0 0.0 0.0 0.0 0.0 0.0 0.0
0.0 0.0 0.0 0.0 0.0 0.0 0.0 0.0
0.0 0.0 0.0 0.0 0.0 0.0 0.0 0.0
0.0 0.0 0.0 0.0 0.0 0.0 0.0 0.0
0.0 0.0 0.0 0.0 0.0 0.0 0.0 0.0
0.0 0.0 0.0 0.0 0.0 0.0 0.0 0.0
0.0 0.0 0.0 0.0 0.0 0.0 0.0 0.0
0.0 0.0 0.0 0.0 0.0 0.0 0.0 0.0
0.0 0.0 0.0 0.0 0.0 0.0 0.0 0.0
00000000: 0000 0000 0000 0000 0000 0000 0000 0000
00000010: 0000 0000 0000 0000 0000 0000 0000 0000
00000020: 0000 0000 0000 0000 0000 0000 0000 0000
00000030: 0000 0000 0000 0000 0000 0000 0000 0000
00000040: 0000 0000 0000 0000 0000 0000 0000 0000
00000050: 0000 0000 0000 0000 0000 0000 0000 0000
00000060: 0000 0000 0000 0000 0000 0000 0000 0000
00000070: 0000 0000 0000 0000 0000 0000 0000 0000
00000080: 0000 0000 0000 0000 0000 0000 0000 0000
00000090: 0000 0000 0000 0000 0000 0000 0000 0000
000000a0: 0000 0000 0000 0000 0000 0000 0000 0000
000000b0: 0000 0000 0000 0000 0000 0000 0000 0000
000000c0: 0000 0000 0000 0000 0000 0000 0000 0000
000000d0: 0000 0000 0000 0000 0000 0000 0000 0000
000000e0: 0000 0000 0000 0000 0000 0000 0000 0000
000000f0: 0000 0000 0000 0000 0000 0000 0000 0000
00000100: 0000 0000 0000 0000 0000 0000 0000 0000
00000110: 0000 0000 0000 0000 0000 0000 0000 0000
00000120: 0000 0000 0000 0000 0000 0000 0000 0000
00000130: 0000 0000 0000 0000 0000 0000 0000 0000
00000140: 0000 0000 0000 0000 0000 0000 0000 0000
00000150: 0000 0000 0000 0000 0000 0000 0000 0000
00000160: 0000 0000 0000 0000 0000 0000 0000 0000
00000170: 0000 0000 0000 0000 0000 0000 0000 0000
00000180: 0000 0000 0000 0000 0000 0000 0000 0000
00000190: 0000 0000 0000 0000 0000 0000 0000 0000
000001a0: 0000 0000 0000 0000 0000 0000 0000 0000
000001b0: 0000 0000 0000 0000 0000 0000 0000 0000
000001c0: 0000 0000 0000 0000 0000 0000 0000 0000
000001d0: 0000 0000 0000 0000 0000 0000 0000 0000
000001e0: 0000 0000 0000 0000 0000 0000 0000 0000
000001f0: 0000 0000 0000 0000 0000 0000 0000 0000

network_body._body_endoder.seq_layers.2.weight f4 [128, 128]
0.13906929 0.05813102 0.14325017 -0.01751668 0.17841214 -0.07673473 -0.00031482318 -0.08025267
-0.10140412 0.16423127 0.046725687 0.16040097 -0.04511085 0.025659489 -0.08796753 0.07490464
0.08831652 0.11329908 0.13825741 -0.060976416 0.00065226847 -0.017842254 0.054965343 -0.16544417
0.0044486406 -0.17771652 -0.1148675 0.03058518 0.10972787 0.0126160085 -0.03272307 -0.04809703
-0.04307988 -0.051164735 -0.009171971 -0.14075774 0.11488711 -0.10260637 -0.21834427 -0.035464972
-0.017858595 0.060883835 0.060054373 -0.046754003 -0.029950256 0.018592019 -0.0042813043 -0.112014584
-0.017264893 -0.0010636428 0.024257787 -0.11808091 -0.012592714 0.033546537 -0.008155011 0.09216817
-0.07754974 -0.10468413 -0.14264277 -0.088702224 0.021152878 0.0727412 0.020945134 -0.097091526
0.103841454 0.09690859 0.18546562 0.00067204266 -0.0019172165 0.012545078 0.1714668 -0.08796795
-0.02020271 0.0979901 0.040496737 0.0041008987 0.1356951 -0.021872979 -0.08401422 -0.10921782
0.083647646 -0.02010803 0.10232701 -0.008333963 0.0864674 0.20970201 0.06996721 -0.008528837
-0.14740105 0.21199752 -0.11417292 -0.15088296 0.021908822 -0.053097393 -0.09553812 -0.011330453
0.030828813 0.06001185 0.05307301 0.07455055 0.10742467 0.15918629 -0.118471146 0.041062865
-0.052624833 0.026635313 0.0920204 -0.11367263 0.1426378 -0.00123757 0.10042051 0.10137433
0.10120504 0.0019101253 0.045358084 0.09370488 -0.111789815 0.28864473 -0.12892158 -0.02506011
-0.10921825 -0.05504589 -0.05932883 -0.0034786987 -0.0049347477 -0.04587045 0.018857209 -0.039080113
-0.017502861 -0.03412461 -0.07405232 -0.05492285 -0.054754198 -0.06227118 0.08061822 0.052719634
0.06776612 -0.04661307 0.14491946 0.097235054 -0.111354806 0.0102130165 0.05698614 -0.08810625
0.0035703073 0.006726035 0.07208133 0.10529319 0.10454913 0.046612434 0.023577055 -0.0071789324
0.07193516 -0.16683546 -0.10949052 -0.057140883 0.044533245 0.048217367 0.03934369 0.15326524
-0.04790115 0.17333537 -0.06215695 -0.019995825 -0.17644563 -0.01696432 -0.17731832 0.027457993
-0.0058222148 0.10873423 0.04585007 0.09637979 0.12800856 0.0866991 0.23895933 0.0067964448
0.02758958 0.17064306 0.016726345 -0.0560614 -0.0012050169 -0.06711162 0.017422767 -0.08148665
0.13065915 0.07771908 -0.121441685 -0.11953473 0.19781253 0.06803541 0.008979989 0.13255037
0.016031435 0.080855116 -0.13909261 -0.042901304 -0.06294824 0.025719365 -0.13046673 -0.191689
-0.01509644 -0.032392606 0.04293052 0.036121543 0.05268925 -0.008439211 -0.05346044 -0.04325508
-0.040811658 -0.08273318 0.008767671 -0.0020752437 -0.0101475725 -0.11103798 0.13274996 -0.09726973
-0.14246397 0.053391848 0.07163953 -0.079792306 -0.03311925 -0.12884276 0.033305418 -0.010153969
0.0967465 0.05883282 -0.010296421 0.11000153 -0.06799104 0.100075796 -0.114332035 -0.0031665922
-0.08861586 -0.1295101 0.0075837024 0.05417764 0.12430985 -0.019213038 -0.19106811 -0.1258957
-0.017252533 -0.07827805 0.023989327 -0.1472195 -0.023683082 0.12306508 0.09481884 -0.13827312
-0.10358831 -0.14423096 0.029508969 -0.12838441 0.08921393 -0.06101546 -0.0059904973 -0.0051469486
00000000: 2e68 0e3e cb1a 6e3d 2cb0 123e 247f 8fbc
00000010: acb1 363e 1927 9dbd da0e a5b9 835b a4bd
00000020: f7ac cfbd 3e2c 283e 6f63 3f3d 2740 243e
00000030: 28c6 38bd d933 d23c 5228 b4bd 9b67 993d
00000040: 4bdf b43d 5909 e83d 5a93 0d3e 68c2 79bd
00000050: fffc 2a3a eb29 92bc 5723 613d 326a 29be
00000060: e7c5 913b 52fb 35be a73f ebbd c58d fa3c
00000070: 01b9 e03d 60b3 4e3c a008 06bd 6401 45bd
00000080: 8774 30bd 1d92 51bd 0946 16bc cc22 10be
00000090: ef49 eb3d 4a23 d2bd a495 5fbe b843 11bd
000000a0: 304c 92bc 5461 793d 93fb 753d 2081 3fbd
000000b0: 3d5a f5bc 4a4e 983c 2f4a 8cbb e767 e5bd
000000c0: 1b6f 8dbc ee69 8bba 44b8 c63c 67d4 f1bd
000000d0: ac51 4ebc 1868 093d 989c 05bc aac2 bc3d
000000e0: 66d2 9ebd a264 d6bd f210 12be 83a9 b5bd
000000f0: cd48 ad3c 57f9 943d 2195 ab3c ecd7 c6bd
00000100: d4aa d43d 0378 c63d b3ea 3d3e 052c 303a
00000110: 1c4b fbba df89 4d3c fe94 2f3e 8a28 b4bd
00000120: 2780 a5bc 09af c83d e8df 253d d560 863b
00000130: a8f3 0a3e f62e b3bc a60f acbd 98ad dfbd
00000140: 754f ab3d 98b9 a4bc d390 d13d 2d8b 08bc
00000150: d215 b13d 20bc 563e f84a 8f3d 89bc 0bbc
00000160: 4df0 16be e115 593e 7ed3 e9bd 1081 1abe
00000170: 217a b33c a77c 59bd 7da9 c3bd 5da3 39bc
00000180: b58c fc3c fcce 753d 1663 593d f5ad 983d
00000190: 7701 dc3d bb01 233e 00a1 f2bd 8931 283d
000001a0: 238d 57bd 4d32 da3c 3175 bc3d 32cd e8bd
000001b0: a50f 123e f535 a2ba 45a9 cd3d 589d cf3d
000001c0: 9744 cf3d 2b5d fa3a 66c9 393d 58e8 bf3d
000001d0: 0ff2 e4bd 3ec9 933e 0504 04be dc4a cdbc
000001e0: d1ad dfbd cd77 61bd ca02 73bd e1fa 63bb
000001f0: aab3 a1bb a7e2 3bbd 6f7a 9a3c 7812 20bd
00000200: 2962 8fbc 3fc6 0bbd bea8 97bd c8f6 60bd
00000210: f045 60bd 1110 7fbd 2a1b a53d 8bf0 573d
00000220: f7c8 8a3d 59ed 3ebd c465 143e 2c23 c73d
00000230: fd0d e4bd 7f54 273c 4c6a 693d 0d71 b4bd
00000240: d1fb 693b 1266 dc3b 609f 933d f5a3 d73d
00000250: db1d d63d aeec 3e3d ab24 c13c 403d ebbb
00000260: be52 933d ead6 2abe 913c e0bd 8f0c 6abd
00000270: 7e68 363d 937f 453d d926 213d 90f1 1c3e
00000280: ff33 44bd d47e 313e 4998 7ebd 49ce a3bc
00000290: 2aae 34be c2f8 8abc ef92 35be 96ef e03c
000002a0: 47c8 bebb 0db0 de3d 48cd 3b3d c462 c53d
000002b0: ad14 033e 4c8f b13d c1b1 743e b6b4 de3b
000002c0: 8b03 e23c 0ebd 2e3e b005 893c a3a0 65bd
000002d0: a8f1 9dba d171 89bd 31ba 8e3c 79e2 a6bd
000002e0: 83cb 053e 2e2b 9f3d 6bb6 f8bd a0ce f4bd
000002f0: 5e8f 4a3e 2656 8b3d ce20 133c 49bb 073e
00000300: 5b54 833c 5e97 a53d 4b6e 0ebe 47b9 2fbd
00000310: 02eb 80bd 6bb1 d23c 1299 05be 1f4a 44be
00000320: 0f57 77bc 1cae 04bd ead7 2f3d 2ff4 133d
00000330: afd0 573d 9e44 0abc 56f9 5abd 3d2c 31bd
00000340: 202a 27bd 0370 a9bd 47a6 0f3c d000 08bb
00000350: 0142 26bc e167 e3bd 9bef 073e 5a35 c7bd
00000360: 13e2 11be 69b1 5a3d bfb7 923d 266a a3bd
00000370: 0da8 07bd 5bef 03be 436b 083d d55c 26bc
00000380: 0723 c63d affa 703d 52b2 28bc 7b48 e13d
00000390: e33e 8bbd 8af4 cc3d ea26 eabd 9a86 4fbb
000003a0: 3b7c b5bd 4c9e 04be b580 f83b 5fe9 5d3d
000003b0: 2a96 fe3d a964 9dbc 5ca7 43be cdea 00be
000003c0: 2f55 8dbc 3e50 a0bd 4485 c43c b5c0 16be
000003d0: 0603 c2bc 8b09 fc3d 6130 c23d 7897 0dbe
000003e0: 1c26 d4bd 48b1 13be cbbc f13c 3477 03be
000003f0: cbb5 b63d 59eb 79bd ef4b c4bb bca7 a8bb

network_body._body_endoder.seq_layers.2.bias f4 [128]
0.0 0.0 0.0 0.0 0.0 0.0 0.0 0.0
0.0 0.0 0.0 0.0 0.0 0.0 0.0 0.0
0.0 0.0 0.0 0.0 0.0 0.0 0.0 0.0
0.0 0.0 0.0 0.0 0.0 0.0 0.0 0.0
0.0 0.0 0.0 0.0 0.0 0.0 0.0 0.0
0.0 0.0 0.0 0.0 0.0 0.0 0.0 0.0
0.0 0.0 0.0 0.0 0.0 0.0 0.0 0.0
0.0 0.0 0.0 0.0 0.0 0.0 0.0 0.0
0.0 0.0 0.0 0.0 0.0 0.0 0.0 0.0
0.0 0.0 0.0 0.0 0.0 0.0 0.0 0.0
0.0 0.0 0.0 0.0 0.0 0.0 0.0 0.0
0.0 0.0 0.0 0.0 0.0 0.0 0.0 0.0
0.0 0.0 0.0 0.0 0.0 0.0 0.0 0.0
0.0 0.0 0.0 0.0 0.0 0.0 0.0 0.0
0.0 0.0 0.0 0.0 0.0 0.0 0.0 0.0
0.0 0.0 0.0 0.0 0.0 0.0 0.0 0.0
00000000: 0000 0000 0000 0000 0000 0000 0000 0000
00000010: 0000 0000 0000 0000 0000 0000 0000 0000
00000020: 0000 0000 0000 0000 0000 0000 0000 0000
00000030: 0000 0000 0000 0000 0000 0000 0000 0000
00000040: 0000 0000 0000 0000 0000 0000 0000 0000
00000050: 0000 0000 0000 0000 0000 0000 0000 0000
00000060: 0000 0000 0000 0000 0000 0000 0000 0000
00000070: 0000 0000 0000 0000 0000 0000 0000 0000
00000080: 0000 0000 0000 0000 0000 0000 0000 0000
00000090: 0000 0000 0000 0000 0000 0000 0000 0000
000000a0: 0000 0000 0000 0000 0000 0000 0000 0000
000000b0: 0000 0000 0000 0000 0000 0000 0000 0000
000000c0: 0000 0000 0000 0000 0000 0000 0000 0000
000000d0: 0000 0000 0000 0000 0000 0000 0000 0000
000000e0: 0000 0000 0000 0000 0000 0000 0000 0000
000000f0: 0000 0000 0000 0000 0000 0000 0000 0000
00000100: 0000 0000 0000 0000 0000 0000 0000 0000
00000110: 0000 0000 0000 0000 0000 0000 0000 0000
00000120: 0000 0000 0000 0000 0000 0000 0000 0000
00000130: 0000 0000 0000 0000 0000 0000 0000 0000
00000140: 0000 0000 0000 0000 0000 0000 0000 0000
00000150: 0000 0000 0000 0000 0000 0000 0000 0000
00000160: 0000 0000 0000 0000 0000 0000 0000 0000
00000170: 0000 0000 0000 0000 0000 0000 0000 0000
00000180: 0000 0000 0000 0000 0000 0000 0000 0000
00000190: 0000 0000 0000 0000 0000 0000 0000 0000
000001a0: 0000 0000 0000 0000 0000 0000 0000 0000
000001b0: 0000 0000 0000 0000 0000 0000 0000 0000
000001c0: 0000 0000 0000 0000 0000 0000 0000 0000
000001d0: 0000 0000 0000 0000 0000 0000 0000 0000
000001e0: 0000 0000 0000 0000 0000 0000 0000 0000
000001f0: 0000 0000 0000 0000 0000 0000 0000 0000

action_model._discrete_distribution.branches.0.weight f4 [2, 128]
-0.0060242657 0.0014706597 0.0011561655 -0.00589173 -0.013708663 0.0029562078 -0.00092849246 -0.00031741426
0.010608594 0.0019571276 0.0027789192 0.0067987405 0.0065880986 -0.010301489 0.0012764934 -0.0063290456
0.020911222 -0.0034889963 0.014303143 0.002239704 0.0051022004 -0.011790414 -0.007340093 0.0057490575
0.010446046 -0.009438079 -0.007979162 0.009207661 0.0074814013 0.0026227601 0.004361376 0.019610556
0.006915975 -0.011194514 -0.00040520285 -0.0050278534 -0.016428502 -0.010578101 -0.012977197 -0.003334881
-0.0014863489 0.01140819 -0.007473327 0.004996413 0.003840648 0.008452955 0.0031677268 -0.010572359
0.0023489702 -0.011983301 0.0028798382 0.000998401 -0.0102072405 -0.002249175 -0.00873477 0.0031281102
0.000985835 -0.013598144 0.005887834 0.0088863 0.016487801 -0.00948692 -0.006811151 0.00449757
-0.016661318 0.0018540083 -0.0047412408 0.002993216 -0.005930627 -0.001620657 0.0047867936 -0.0050879894
-0.0048920317 -0.013602468 0.013968445 0.0010477448 0.008397414 -0.011283214 0.017674018 0.007408213
0.006171337 0.0099712685 -0.003709025 -0.014204874 -0.0027112241 -0.0052650464 -0.0089837015 -0.0022048603
-0.009021195 0.014665951 0.020979429 0.004496273 0.0014601069 0.0041970476 -0.0039343727 0.008511386
0.0070198253 0.011143592 0.0011115505 0.01421263 -0.0025267664 -0.007885029 0.013249146 -0.011044943
-0.0066696713 0.005923391 0.0067556896 0.008904623 0.009516558 0.00043630003 -0.004428777 -0.00233269
0.02081627 -0.004837913 0.013616544 -0.009618078 -0.004708709 0.011598269 -0.0031856012 -0.022558508
-0.0057648136 -0.0023598901 -0.0013662345 -0.020070808 0.0056433035 0.0010799288 -0.016370276 0.018586468
0.012489284 0.0034958217 0.0042335666 -0.0055612973 0.007713525 -0.001324586 0.00577185 -0.016372858
0.006344928 0.0063768937 -0.003377836 -0.0046105627 0.0039714766 -0.0036629115 0.01865393 0.0067618936
-0.010328204 0.016270166 0.0036761991 -0.000770749 -0.0013209288 0.0005401287 0.003795309 -0.0038378264
-0.0038715897 -0.0043175523 -0.0009897499 0.0024638576 0.0017753731 -0.0019198764 -0.01429424 -0.0082415
0.015171851 0.0041259686 -0.0012394462 -0.0069915974 0.0012567308 0.003648505 0.011101428 0.0032310504
-0.0054878257 0.01689571 5.26194e-05 -0.007501556 0.0019498434 -0.0052334843 -0.009756056 0.011972101
-0.010251069 -0.0056941803 0.013939181 0.006377825 -0.003176715 -0.008718892 -0.009177865 -0.0057386854
0.004857239 -0.015897853 0.009172384 -0.0045854948 -0.010796286 0.0021906344 -0.0015759548 0.011168909
-0.0049954443 0.015122867 -0.0055380017 0.005950523 -0.02334795 0.009621329 -0.0019108739 0.0006857232
0.010568595 -0.0044365223 0.0029432308 -0.0003284137 -0.008723218 0.00874579 0.0032274001 -0.004125864
0.00052206445 -0.009039855 0.008521569 -0.002927665 0.003909252 -0.0038834307 -0.0018883111 0.012383054
0.0062771584 -0.0036824537 -0.005448991 0.005574378 -0.0055674813 -0.00019894613 0.036352206 -0.0029054992
0.0010273828 0.0029809645 -0.0013289754 -0.005635574 0.0010767777 -0.0012517936 0.0097465925 0.005638685
-0.0025371334 -0.0029379523 -0.0026476358 0.00015855813 0.0017347755 0.0061422065 0.0055556726 0.005740762
0.011187028 -0.00200839 -0.007767836 -0.004671771 -0.011042866 0.007508715 -0.005312865 -0.0053213183
-0.017256394 -5.7402165e-05 -0.00052766886 0.001565494 0.015307854 -0.007860728 -0.0026865026 0.0027209842
00000000: 3467 c5bb 27c3 c03a 7a8a 973a 6a0f c1bb
00000010: 4d9a 60bc f0bc 413b 1366 73ba 9f6a a6b9
00000020: abcf 2d3c 2743 003b 871e 363b f8c7 de3b
00000030: fae0 d73b 94c7 28bc 0350 a73a e263 cfbb
00000040: 034e ab3c a5a7 64bb bb57 6a3c ffc7 123b
00000050: 5c30 a73b 952c 41bc 2a85 f0bb 9762 bc3b
00000060: e425 2b3c 2ca2 1abc 08bb 02bc bbdb 163c
00000070: 8b26 f53b 9de2 2b3b e0e9 8e3b 51a6 a03c
00000080: 679f e23b 3269 37bc 6871 d4b9 b1c0 a4bb
00000090: 1195 86bc c54f 2dbc 4f9e 54bc 058e 5abb
000000a0: 98d1 c2ba 6be9 3a3c d0e2 f4bb f3b8 a33b
000000b0: 62b3 7b3b 437e 0a3c a399 4f3b b037 2dbc
000000c0: 2ef1 193b 9b55 44bc abbb 3c3b c7dc 823a
000000d0: 453c 27bc e566 13bb 481c 0fbc fb00 4d3b
000000e0: 2237 813a c0ca 5ebc bbee c03b d897 113c
000000f0: 6d11 873c 076f 1bbc 1330 dfbb 5a60 933b
00000100: 517d 88bc 3202 f33a 695c 9bbb d529 443b
00000110: b555 c2bb 3a6c d4ba 89da 9c3b 26b9 a6bb
00000120: 564d a0bb e3dc 5ebc e8db 643c 7b54 893a
00000130: 4f95 093c 3bdd 38bc 1ac9 903c 98c0 f23b
00000140: ed38 ca3b 885e 233c 1d13 73bb 8fbb 68bc
00000150: cbae 31bb 6986 acbb 6030 13bc 6b7f 10bb
00000160: a2cd 13bc 7549 703c 0ddd ab3c 7955 933b
00000170: 0f61 bf3a 6387 893b e9eb 80bb 5773 0b3c
00000180: 9006 e63b 9d93 363c 72b1 913a 17dc 683c
00000190: 1b98 25bb 3530 01bc f212 593c d9f5 34bc
000001a0: 428d dabb 0119 c23b d55e dd3b b2e4 113c
000001b0: 56eb 1b3c 33bf e439 461f 91bb 0be0 18bb
000001c0: e286 aa3c 5b87 9ebb ed17 5f3c 2595 1dbc
000001d0: 844b 9abb ab06 3e3c 85c5 50bb 9fcc b8bc
000001e0: c3e6 bcbb 63a8 1abb 3913 b3ba 896b a4bc
000001f0: 76eb b83b 668c 8d3a f51a 86bc a642 983c
00000200: db9f 4c3c 281a 653b bbb9 8a3b 8b3b b6bb
00000210: bdc1 fc3b bb9d adba c921 bd3b 5f20 86bc
00000220: 1de9 cf3b 43f5 d03b af5e 5dbb 3414 97bb
00000230: 2923 823b 750d 70bb 20d0 983c e092 dd3b
00000240: a137 29bc 0349 853c 63ec 703b 170c 4aba
00000250: 0423 adba 6c97 0d3a b8ba 783b 0b84 7bbb
00000260: 7fba 7dbb 417a 8dbb 7fba 81ba ac78 213b
00000270: a3b3 e83a 5da4 fbba 6332 6abc 5b07 07bc
00000280: 5b93 783c 2233 873b ea74 a2ba c519 e5bb
00000290: e3b8 a43a c21b 6f3b c4e2 353c 08c0 533b
000002a0: 38d3 b3bb df68 8a3c a7b3 5c38 9dcf f5bb
000002b0: e391 ff3a a67d abbb ddd7 1fbc a226 443c
000002c0: 1af4 27bc 3f96 babb 2a61 643c 13fd d03b
000002d0: 6f30 50bb afd9 0ebc c25e 16bc 950b bcbb
000002e0: 7929 9f3b 373c 82bc c447 163c eb41 96bb
000002f0: e8e2 30bc bf90 0f3b 4590 ceba cdfd 363c
00000300: d3b0 a3bb e7c5 773c 2078 b5bb 9bfc c23b
00000310: 3344 bfbc c7a2 1d3c 4a76 faba 1bc2 333a
00000320: e627 2d3c 3f60 91bb 38e3 403b f12e acb9
00000330: d4eb 0ebc 814a 0f3c ca82 533b 4132 87bb
00000340: 27db 083a e61b 14bc 0d9e 0b3c 11de 3fbb
00000350: 2f19 803b 2881 7ebb 3581 f7ba 4be2 4a3c
00000360: 9fb0 cd3b 5255 71bb 738d b2bb 46a9 b63b
00000370: 6b6f b6bb 329c 50b9 0de6 143d 306a 3ebb
00000380: 3fa9 863a 495c 433b 0431 aeba 9faa b8bb
00000390: aa22 8d3a 3913 a4ba 2cb0 1f3c b8c4 b83b
000003a0: 0946 26bb a98a 40bb f583 2dbb a042 2639
000003b0: 6861 e33a 9044 c93b 5c0c b63b 011d bc3b
000003c0: cc49 373c 319f 03bb 5589 febb a815 99bb
000003d0: 23ed 34bc ab0b f63b 8b17 aebb 745e aebb
000003e0: 485d 8dbc 1bc3 70b8 4253 0aba 4331 cd3a
000003f0: cbcd 7a3c 48ca 00bc 0910 30bb 8a52 323b

action_model._discrete_distribution.branches.0.bias f4 [2]
0.0 0.0
00000000: 0000 0000 0000 0000

action_model._discrete_distribution.branches.1.weight f4 [19, 128]
-0.011203287 -0.0033260991 0.0020867947 0.0029265974 -0.015207847 -0.010555828 0.0037766006 0.0057541407
0.009773865 -0.00094149815 -0.02125558 0.00097218127 -0.018895835 -0.0050536264 -0.013929074 0.009402662
0.0040744073 -0.013146192 -0.012518431 0.016800975 -1.2586019e-05 0.010942348 -0.0026082247 0.0019767664
0.014199468 0.0027119864 -0.0049519846 -0.00402168 -0.0021754922 -0.01464773 -0.0008509881 -0.0061058262
0.004068058 0.004520051 -0.0011315914 -0.0014025759 0.010574237 0.028201444 -0.012557484 -0.0062270598
0.0037461822 0.00029855216 -0.005449243 0.011481095 -0.008579504 -0.00052062765 -0.0023327887 0.00092074194
-0.0021830122 -0.0013372872 0.018458141 0.006538474 0.0065091546 -0.0017385259 -0.0024719525 -0.0038843786
-0.0053299232 -0.00025407175 0.001937232 -0.011927582 0.017576579 -0.0033115044 0.00341569 -0.008133853
0.012033022 0.008940493 -0.011787408 0.001822272 0.006936285 0.001390089 0.009069959 -0.007135529
0.006491668 -0.0010204816 -0.007919638 0.0058328905 0.0012204971 0.0020525723 -0.013884941 -0.02364256
0.0070236414 0.004478605 0.002701558 -0.01743091 -0.018933892 0.011494978 -0.0073224157 0.016812552
-0.0037649781 -0.0052219955 -0.011194075 -0.00391956 -0.00063374534 -0.0030399107 0.010823477 -0.0049926867
-0.015935257 0.016606769 0.0054748883 -0.01402681 -0.007914179 -0.009882103 0.004952019 -0.0018122139
-0.005006255 -0.006658882 -0.006044101 0.0019800751 0.010373846 0.00095454574 0.00065617345 0.0023463562
0.0028758354 -0.015957668 0.006016113 -0.0079418225 0.00044758298 -0.006908741 0.01612672 -0.0005210053
-0.0064727524 -0.0015171099 0.0036834085 -0.015396878 -0.0027184018 0.012053536 -0.0067653223 -0.0067357607
-0.0071625332 0.004200471 -0.0022407752 -0.0012084122 -0.005470387 -0.0085687265 0.012517244 -0.015517107
5.8737754e-05 -0.012658107 -0.0056090103 0.015981823 0.0057329377 -0.0017376541 -0.006615901 -0.0075913616
0.010435553 0.0033075314 0.007388606 0.005453265 -0.007436134 -0.01038135 0.01535319 0.010471964
0.00021654977 0.010887193 0.0015204027 0.0029703958 0.025395691 0.016323252 -0.0006206179 0.0064226235
-0.012783812 0.00151441 -0.0017720101 -0.01283688 -0.0024471458 -0.011819594 -0.010793039 0.005536109
-0.0072700097 -0.00062764104 -0.015156643 -0.01775971 0.009823357 -0.010388585 -0.005358936 0.007181381
0.00078499113 -0.004945542 0.007855911 0.0030694632 0.014246491 -0.017390547 -0.004176171 -0.009354225
0.00070229283 -0.005666906 -0.000389435 -0.013777882 -0.003660767 0.004253617 0.0059585455 -0.007791504
0.0013818037 0.0032105893 0.0017385243 0.006749466 0.0014689473 -0.0028570415 -0.008287619 -0.0033769028
-0.010299413 0.005994456 0.0006509446 0.002172277 -0.024471857 0.0099887205 0.010410101 0.013408355
0.014416291 -0.0072146505 -0.011888584 0.00076323224 0.0061387694 0.0049025356 -0.009881365 0.011150084
-0.007948805 0.010164896 0.015800934 0.011820274 -0.0038727447 -0.003001135 0.0017226379 -0.004174717
0.002840159 -0.0028030567 -0.00952391 -0.015601647 0.0035428428 -0.0076622437 0.002694533 0.006575481
0.008895429 0.0061646863 0.01001674 -0.020066993 -0.0008675891 0.0025390803 0.0051397397 -0.0047297007
0.0012454332 -0.006560369 -0.0004557406 0.0017149843 0.0033160422 0.0006021741 -0.00024200992 0.013514114
-0.014002639 -0.004242235 0.004982725 -0.004840416 -0.006576929 -0.014299154 -0.0024679375 -0.0007152668
00000000: fe8d 37bc affa 59bb 9bc2 083b 28cc 3f3b
00000010: 552a 79bc 5af2 2cbc d880 773b 3b8d bc3b
00000020: 9022 203c dfce 76ba 2f20 aebc fbd9 7e3a
00000030: 70cb 9abc e498 a5bb c536 64bc 9f0d 1a3c
00000040: 9b82 853b 2063 57bc 1b1a 4dbc 33a2 893c
00000050: 8a28 53b7 8947 333c c0ee 2abb a38c 013b
00000060: e3a4 683c 95bb 313b 4244 a2bb 4cc8 83bb
00000070: b492 0ebb 08fd 6fbc d814 5fba 6213 c8bb
00000080: 584d 853b f01c 943b e851 94ba a3d6 b7ba
00000090: 913f 2d3c b706 e73c e8bd 4dbc 5d0c ccbb
000000a0: 8282 753b fe86 9c39 908f b2bb 341b 3c3c
000000b0: 0c91 0cbc bb7a 08ba b3e1 18bb f25d 713a
000000c0: de10 0fbb ea47 afba 8735 973c b240 d63b
000000d0: bf4a d53b 40df e3ba 7b00 22bb 0f91 7ebb
000000e0: a3a6 aebb ef34 85b9 b8ea fd3a e86b 43bc
000000f0: c2fc 8f3c d305 59bb c5d9 5f3b da43 05bc
00000100: 2726 453c 257b 123c f91f 41bc 4dd9 ee3a
00000110: c749 e33b a633 b63a 2a9a 143c 28d1 e9bb
00000120: 0fb8 d43b aec1 85ba 5fc1 01bc d521 bf3b
00000130: 16f9 9f3a 7384 063b aa7d 63bc 0bae c1bc
00000140: 9326 e63b 43c1 923b 9f0c 313b 45cb 8ebc
00000150: 401b 9bbc 6f55 3c3c e0f0 efbb 7aba 893c
00000160: dabd 76bb 461d abbb 5b67 37bc a76f 80bb
00000170: ee21 26ba 3d39 47bb f454 313c b199 a3bb
00000180: a88a 82bc eb0a 883c b166 b33b b5d0 65bc
00000190: 79aa 01bc 8be8 21bc 8c44 a23b cf87 edba
000001a0: 830b a4bb c032 dabb 980d c6bb 26c4 013b
000001b0: 10f7 293c 7b3a 7a3a 0e03 2c3a 53c5 193b
000001c0: 8378 3c3b a8b9 82bc d022 c53b 6b1e 02bc
000001d0: 92a9 ea39 b862 e2bb 2f1c 843c 1394 08ba
000001e0: 6219 d4bb c3d9 c6ba 5765 713b 3043 7cbc
000001f0: 3727 32bb 327c 453c a3af ddbb a8b7 dcbb
00000200: afb3 eabb 1ba4 893b f8d9 12bb 9663 9eba
00000210: ef40 b3bb d863 0cbc 2015 4d3c 773b 7ebc
00000220: 2f5d 7638 f363 4fbc cacb b7bb 50ec 823c
00000230: 5edb bb3b ffc1 e3ba 33ca d8bb f5c0 f8bb
00000240: e2f9 2a3c 2bc3 583b 1f1c f23b 4db1 b23b
00000250: d0aa f3bb 8a16 2abc f28b 7b3c 9a92 2b3c
00000260: a311 6339 3260 323c 4048 c73a f9aa 423b
00000270: a00a d03c 57b8 853c f6b0 22ba df74 d23b
00000280: 3273 51bc 2b7f c63a cb42 e8ba c751 52bc
00000290: 4b60 20bb f8a6 41bc 49d5 30bc 4068 b53b
000002a0: 4339 eebb 4788 24ba 9253 78bc d07c 91bc
000002b0: 25f2 203c e234 2abc 039a afbb ca51 eb3b
000002c0: ddc7 4d3a 370e a2bb 14b6 003c 0c29 493b
000002d0: 1d6a 693c 9f76 8ebc 43d8 88bb 7742 19bc
000002e0: 131a 383a 74b1 b9bb 152d ccb9 a0bc 61bc
000002f0: 7be9 6fbb ed61 8b3b e73f c33b df4f ffbb
00000300: a31d b53a c068 523b 32df e33a a02a dd3b
00000310: b189 c03a 343d 3bbb cbc8 07bc 074f 5dbb
00000320: dfbe 28bc 246d c43b 27a4 2a3a c35c 0e3b
00000330: 3479 c8bc bba7 233c 218f 2a3c b8ae 5b3c
00000340: 4f32 6c3c e068 ecbb 56c8 42bc a613 483a
00000350: bb27 c93b 73a5 a03b 73e5 21bc d8ae 363c
00000360: b43b 02bc aa8a 263c f670 813c d3a9 413c
00000370: e0cd 7dbb b1ae 44bb 23ca e13a 10cc 88bb
00000380: f621 3a3b 7db3 37bb 2c0a 1cbc 0d9e 7fbc
00000390: 0a2f 683b 8f13 fbbb c396 303b 2277 d73b
000003a0: 22be 113c 2301 ca3b 411d 243c 8963 a4bc
000003b0: eb6e 63ba b366 263b 436b a83b 9bfb 9abb
000003c0: ce3d a33a 5df8 d6bb 78f0 eeb9 53c9 e03a
000003d0: f551 593b 38db 1d3a 0bc4 7db9 4d6a 5d3c
000003e0: 536b 65bc 7202 8bbb 2046 a33b 5a9c 9ebb
000003f0: 4783 d7bb 0047 6abc 1fbd 21bb be80 3bba

action_model._discrete_distribution.branches.1.bias f4 [19]
0.0 0.0 0.0 0.0 0.0 0.0 0.0 0.0
0.0 0.0 0.0 0.0 0.0 0.0 0.0 0.0
0.0 0.0 0.0
00000000: 0000 0000 0000 0000 0000 0000 0000 0000
00000010: 0000 0000 0000 0000 0000 0000 0000 0000
00000020: 0000 0000 0000 0000 0000 0000 0000 0000
00000030: 0000 0000 0000 0000 0000 0000 0000 0000
00000040: 0000 0000 0000 0000 0000 0000

action_model._discrete_distribution.branches.2.weight f4 [15, 128]
-0.0055298847 0.0024004898 -0.014248217 0.019197881 0.0016903527 -0.0039143027 0.0003711532 -0.025458014
0.026303396 0.0031982714 -0.0069721253 0.0032708284 -0.00794105 -0.00018866464 -0.014203005 -2.6760663e-06
0.004444986 -0.0073992587 0.00482355 0.0074831783 -0.0004739023 -0.008187032 -0.008217258 -0.00076362764
-0.006199577 0.022972612 0.00781207 -0.0074495636 -0.021912685 0.0029099926 -0.0011165777 -0.0043638847
-0.006437072 -0.0016838253 -0.008189138 0.0041343695 -0.004246386 -0.011750637 -0.01576187 -0.0045854216
-0.0062678494 -0.008563498 0.0009154437 -0.013043364 0.015333312 -0.014949306 -0.0021498883 -0.0008188245
0.007186737 0.0014915498 0.0033063535 0.013008951 -0.012299052 -0.0024578024 -0.006635697 0.0085796155
-0.014159887 -0.0076923347 0.017639978 -0.015849572 -0.0065280977 0.009532931 0.016493782 -0.0044683455
-0.010094469 0.000468741 -0.010026283 -0.00933697 0.0039974023 0.0069839396 0.007140959 -0.012503241
-0.010358528 -0.013809397 0.010165873 -0.0062990286 -0.008950312 0.0047461684 -4.1934734e-05 -0.0018311389
0.0026568358 0.00086013565 -0.019704634 0.0076852725 0.003130296 -0.0033943155 0.0024069457 0.007141152
0.01526437 -0.0010894999 -0.00928004 0.008620927 -0.009479151 0.014556323 -0.013335416 -0.000785429
0.005578035 -0.003858609 0.007492054 0.020005144 0.0021833077 -0.014534316 0.0041508623 0.004252152
-0.0010916262 -0.018081803 -0.009587461 -0.0006959892 -0.011979649 0.006583132 0.0006411181 9.937858e-05
-0.0034346634 0.0070793354 0.030082542 0.004162257 -0.005236774 7.027863e-05 0.017735332 -0.006645859
0.0019044037 -0.014201179 -0.00031570808 0.018498871 -0.008773925 -0.007814148 -0.001353482 -0.0052304175
-0.001859846 0.0025180993 0.019562304 -0.0011789574 -0.012850516 0.008370392 0.0025129884 -0.00323226
-0.0019521501 0.012996162 0.004294307 -0.0025606516 0.0078051053 0.0067978664 -0.010774074 -0.00068150595
-0.0037543662 0.01822677 -0.0066426764 -0.0044556893 0.015911823 -0.0001662394 -0.0011167243 -0.011528799
0.0019238914 -0.009545763 -0.0019717133 0.0038209518 -0.013218931 0.005488215 0.0074291336 -0.0014312849
0.01456097 0.01124042 0.003136129 0.014426504 0.0047204844 0.017050344 5.621298e-05 0.0063103223
0.008757877 0.0137993945 0.0005967882 0.0004768958 -0.0044711484 0.0014096496 -0.0037681852 -0.0017754885
-0.010797747 -0.008323582 0.0067514624 -0.006642328 0.012164417 -0.006481439 0.0020242464 0.00050378696
0.016120076 0.003948705 -0.006914593 -0.013409937 0.0047046114 0.0013563302 -0.015482782 0.012918286
-0.0015774912 -0.0042483634 -0.011012535 -0.007441824 -0.0023267316 0.0072365575 0.00080962974 0.018123819
-0.0076320446 -0.0065596416 -0.0013327971 0.008861034 -0.009368691 0.00036589892 -0.0057857675 0.0015549216
0.005949542 -0.007697402 0.0037396934 -0.0033486576 -0.0026662794 -0.010704282 -0.0031103564 0.009406239
-0.0008329766 0.008606062 0.0055060843 -0.009191847 0.0063803047 0.0015827224 0.015610665 0.0030747352
-0.00811541 -0.012227426 0.01426998 -0.009083423 0.0011265973 -0.0034495627 0.0033689737 0.0023204184
0.018464096 0.0040779733 0.00802322 0.0038787783 0.0074810474 -0.00228153 -0.0014005181 0.012105842
-0.0057396884 -0.0023025593 0.011198786 0.0060856794 -0.00040041725 0.0034007193 0.011015149 0.0020271123
0.008449826 -0.0030228763 0.011137925 0.015383151 0.007828473 -0.013244084 0.0063354955 -0.0066065625
00000000: 0934 b5bb 8951 1d3b 5b71 69bc e044 9d3c
00000010: d38e dd3a 8d43 80bb 5797 c239 538d d0bc
00000020: 387a d73c 179a 513b 6d76 e4bb 655b 563b
00000030: 2e1b 02bc 47d4 45b9 b8b3 68bc 7896 33b6
00000040: 3fa7 913b 7b75 f2bb df0e 9e3b 7335 f53b
00000050: 1776 f8b9 e722 06bc aea1 06bc 2f2e 48ba
00000060: d225 cbbb 0f31 bc3c 65fc ff3b 781b f4bb
00000070: 3b82 b3bc 93b5 3e3b 215a 92ba ebfe 8ebb
00000080: 13ee d2bb cdb3 dcba bc2b 06bc 9b79 873b
00000090: 4425 8bbb be85 40bc 0a1f 81bc 4e41 96bb
000000a0: 8862 cdbb ea4d 0cbc 63fa 6f3a d5b3 55bc
000000b0: 9238 7b3c efed 74bc 24e5 0cbb 62a6 56ba
000000c0: b87e eb3b 1b80 c33a 68af 583b 7f23 553c
000000d0: f781 49bc 1513 21bb 4370 d9bb 8491 0c3c
000000e0: dffe 67bc fb0f fcbb b781 903c f6d6 81bc
000000f0: a7e9 d5bb 0330 1c3c f81d 873c 336b 92bb
00000100: 4663 25bc 5ac1 f539 4745 24bc 17fa 18bc
00000110: a4fc 823b 88d9 e43b b5fe e93b 65da 4cbc
00000120: d1b6 29bc cf40 62bc c38e 263c 1568 cebb
00000130: 54a4 12bc bf85 9b3b 14e3 2fb8 d302 f0ba
00000140: 4f1e 2e3b ba7a 613a 9d6b a1bc bdd4 fb3b
00000150: a725 4d3b 2a73 5ebb d9bd 1d3b 5300 ea3b
00000160: 6817 7a3c 8dcd 8eba 4f0b 18bc ca3e 0d3c
00000170: 714e 1bbc a57d 6e3c ca7c 5abc 3fe5 4dba
00000180: f3c7 b63b b7e0 7cbb e77f f53b d4e1 a33c
00000190: d315 0f3b 5721 6ebc f503 883b a355 8b3b
000001a0: e614 8fba 4a20 94bc ba14 1dbc 0b73 36ba
000001b0: 4a46 44bc 50b7 d73b b510 283a 7869 d038
000001c0: 1718 61bb c5f9 e73b aa6f f63c 8b63 883b
000001d0: 3f99 abbb 8d62 9338 b049 913c 82c5 d9bb
000001e0: 2f9d f93a 10ac 68bc 9f85 a5b9 f28a 973c
000001f0: 82c0 0fbc ea06 00bc 5267 b1ba ec63 abbb
00000200: 13c6 f3ba b206 253b 2041 a03c 3f87 9aba
00000210: f88a 52bc f823 093c f3b0 243b 53d4 53bb
00000220: 4adf ffba dbed 543c 42b7 8c3b 9bd0 27bb
00000230: f8c1 ff3b a3c0 de3b be85 30bc 17a7 32ba
00000240: d00b 76bb 4f50 953c cfaa d9bb 0801 92bb
00000250: 8359 823c 8d50 2eb9 0d5f 92ba 4ae3 3cbc
00000260: 152b fc3a d565 1cbc dc37 01bb ef68 7a3b
00000270: 3794 58bc 7cd6 b33b 1770 f33b f499 bbba
00000280: 2291 6e3c bd29 383c 8387 4d3b 255d 6c3c
00000290: 4bae 9a3b 2aad 8b3c 3ac6 6b38 d2c6 ce3b
000002a0: 337d 0f3c db16 623c c771 1c3a df07 fa39
000002b0: b682 92bb fec3 b83a a8f3 76bb 82b7 e8ba
000002c0: 09e9 30bc a25f 08bc 5f3b dd3b e3a7 d9bb
000002d0: 434d 473c 4062 d4bb 38a9 043b 9210 043a
000002e0: 400e 843c 2364 813b cf93 e2bb 5ab5 5bbc
000002f0: 2429 9a3b e4c6 b13a 7fab 7dbc 38a7 533c
00000300: d2c3 ceba db35 8bbb eb6d 34bc 8bda f3bb
00000310: 147c 18bb a520 ed3b 553d 543a 6778 943c
00000320: 3b16 fabb 43f2 d6bb 40b1 aeba df2d 113c
00000330: 237f 19bc 1fd6 bf39 8996 bdbb 83ce cb3a
00000340: 60f4 c23b 7d3a fcbb a515 753b 2775 5bbb
00000350: bfbc 2ebb 0361 2fbc 1fd7 4bbb a01c 1a3c
00000360: 1d5c 5aba 7100 0d3c 626c b43b 6799 16bc
00000370: e011 d13b 5a73 cf3a e0c3 7f3c 7f81 493b
00000380: 7ff6 04bc 8b55 48bc a2cc 693c a3d2 14bc
00000390: 55aa 933a 0f12 62bb 00ca 5c3b 2912 183b
000003a0: 0442 973c 85a0 853b d373 033c 1a33 7e3b
000003b0: 9323 f53b b985 15bb 9791 b7ba 9557 463c
000003c0: ff13 bcbb 89e6 16bb 1d7b 373c 616a c73b
000003d0: 18ef d1b9 9ade 5e3b e278 343c 4dd9 043b
000003e0: 2471 0a3c 731b 46bb d87b 363c 9d09 7c3c
000003f0: ff42 003c b7fd 58bc fd99 cf3b dd7b d8bb

action_model._discrete_distribution.branches.2.bias f4 [15]
0.0 0.0 0.0 0.0 0.0 0.0 0.0 0.0
0.0 0.0 0.0 0.0 0.0 0.0 0.0
00000000: 0000 0000 0000 0000 0000 0000 0000 0000
00000010: 0000 0000 0000 0000 0000 0000 0000 0000
00000020: 0000 0000 0000 0000 0000 0000 0000 0000
00000030: 0000 0000 0000 0000 0000 0000

network_body._body_endoder.seq_layers.0.weight f4 [128, 78]
0.0044335052 0.16122423 -0.06701454 0.032146204 -0.010371587 -0.22059104 0.008600075 0.003796265
0.016479772 0.14822151 0.1006732 -0.22867228 -0.13359565 -0.12648968 0.06473399 -0.09090721
-0.12945127 0.04030773 0.15311946 0.09577805 -0.13855267 -0.097953655 -0.05568307 -0.026347317
0.114428386 0.0148375295 0.021850506 -0.056209493 0.07664178 -0.0014136278 0.25465572 0.0105120605
-0.006873985 0.13538824 -0.0015925206 0.02729262 -0.13710581 -0.04712792 -0.14439893 -0.15577322
0.16936372 0.18531868 -0.13239464 0.14050533 -0.044880353 0.07355217 -0.09557022 -0.033307422
-0.14357159 -0.04606021 -0.09090991 -0.14474128 0.10538133 0.13848172 -0.040914193 -0.00023098229
-0.09227381 0.062580556 -0.036096003 -0.18704292 -0.12701556 -0.019793829 0.09998225 -0.15536268
0.0613326 0.05799954 0.027461875 0.03090814 0.17941651 -0.012511244 0.17018862 -0.1406808
-0.028433383 0.14824253 0.1084641 -0.041383967 -0.041469403 -0.080687694 0.14600945 0.053487282
0.034863457 0.051059946 0.05141956 -0.3663582 -0.14415997 0.12591739 0.010214089 -0.06979986
-0.027752537 -0.05940375 -0.08777765 -0.13566706 -0.021653015 -0.047122575 0.100653134 0.09864071
0.0069043715 0.09511931 -0.016353147 0.050154753 -0.05999282 0.059839346 0.09520614 0.024096817
0.008530237 -0.008483189 0.089769386 -0.069305085 -0.077025734 -0.040280897 0.0525556 0.09726682
-0.047876596 0.21262394 -0.12739241 0.13549817 0.10725227 -0.09738853 -0.16454187 0.10002269
0.08102037 0.19566871 -0.114737295 -0.07653592 0.13483414 0.2792978 0.25976378 0.16032937
-0.112097144 0.10078348 0.17021258 -0.014631078 -0.038277693 -0.13815345 -0.1780372 0.010949076
0.06627485 0.07501828 0.13635157 0.05943157 -0.08146251 0.08907486 -0.19836816 -0.063009866
-0.027319428 0.054491192 -0.10036721 -0.20416528 -0.09852992 0.1533361 0.20787853 0.0068365256
-0.03052438 0.021735972 0.03155566 -0.015546273 0.0075968797 -0.10894055 -0.058788028 -0.05413427
-0.10948944 0.09836601 -0.07300107 -0.02098084 -0.07901788 -0.17270888 -0.02278375 -0.29053116
0.06399369 0.00086945825 0.0138564445 0.18434036 0.16332078 -0.028728597 0.010693326 0.041061703
-0.05657377 -0.09230053 -0.06696536 -0.027737763 0.12898386 0.113882214 0.12196628 0.10039503
0.114507034 -0.023510726 -0.061434466 0.09791659 -0.13541439 0.16847952 -0.08728021 -0.0563361
0.30462778 0.015263028 0.027455604 0.0046159956 -0.099169515 0.11450452 -0.07911124 0.05611671
-0.06454179 0.16360034 -0.0448603 -0.0052350364 -0.082808234 0.055509362 0.007893951 -0.007861224
0.078647114 0.003209675 -0.088534415 0.082569405 0.024760587 -0.09374558 0.039606817 0.020996638
0.23657408 -0.009304579 -0.026168352 -0.073665336 0.052622847 0.09431162 0.020188125 -0.028795356
0.20951942 -0.13501555 -0.0007678661 0.08557835 -0.14612706 -0.029387029 0.06943844 -0.031758826
-0.06417603 -0.05238406 0.045355175 0.080431625 0.07145677 -0.13111907 0.0535723 0.054967336
-0.0073550255 -0.01936615 0.032224063 -0.0960536 -0.20372093 0.011046885 0.26090074 0.05566518
-0.022185747 0.019233486 -0.096144274 -0.0741132 0.21841724 -0.019475723 -0.024900252 0.1530309
00000000: f046 913b f717 253e eb3e 89bd bdab 033d
00000010: 97ed 29bc 9ee2 61be 54e7 0c3c c2ca 783b
00000020: 9600 873c 61c7 173e c02d ce3d 1129 6abe
00000030: 4ccd 08be 8386 01be 4193 843d 8f2d babd
00000040: e08e 04be b819 253d 59cb 1c3e 4827 c43d
00000050: c0e0 0dbe ed9b c8bd ee13 64bd 54d6 d7bc
00000060: 6e59 ea3d 1c19 733c d5ff b23c ed3b 66bd
00000070: 5ef6 9c3d 7a49 b9ba 3c62 823e c73a 2c3c
00000080: 2a3f e1bb 37a3 0a3e 20bc d0ba c694 df3c
00000090: 7765 0cbe 3509 41bd 50dd 13be 0483 1fbe
000000a0: af6d 2d3e 2ec4 3d3e 7692 07be a1e0 0f3e
000000b0: 76d4 37bd 85a2 963d 52ba c3bd 5d6d 08bd
000000c0: 6e04 13be a1a9 3cbd fa2e babd 0f37 14be
000000d0: 2bd2 d73d 27ce 0d3e a495 27bd d633 72b9
000000e0: 0dfa bcbd 3c2a 803d 67d9 13bd 2e88 3fbe
000000f0: 5e10 02be ab26 a2bc 7ec3 cc3d 6517 1fbe
00000100: e437 7b3d ed90 6d3d baf7 e03c 1133 fd3c
00000110: f6b8 373e f6fb 4cbc ed45 2e3e a10e 10be
00000120: 20ed e8bc e4cc 173e 6d22 de3d 3c82 29bd
00000130: d2db 29bd 973f a5bd 8083 153e 7b15 5b3d
00000140: fccc 0e3d 3c24 513d 519d 523d 4d93 bbbe
00000150: ac9e 13be 7df0 003e ff58 273c 3bf3 8ebd
00000160: 4a59 e3bc 5951 73bd c5c4 b3bd 4eec 0abe
00000170: aa61 b1bc 9a03 41bd 3b23 ce3d 2404 ca3d
00000180: 113e e23b eacd c23d 09f7 85bc 126f 4d3d
00000190: 08bb 75bd 1a1a 753d 70fb c23d b066 c53c
000001a0: 68c2 0b3c 13fd 0abc 03d9 b73d d3ef 8dbd
000001b0: abbf 9dbd 95fd 24bd 8a44 573d d433 c73d
000001c0: 401a 44bd 17ba 593e 2873 02be 08c0 0a3e
000001d0: 14a7 db3d a373 c7bd aa7d 28be b2d8 cc3d
000001e0: 02ee a53d 615d 483e 63fb eabd ddbe 9cbd
000001f0: f611 0a3e 1f00 8f3e c2ff 843e 622d 243e
00000200: 3093 e5bd 9267 ce3d 354c 2e3e 30b7 6fbc
00000210: 12c9 1cbd 1978 0dbe 624f 36be c163 333c
00000220: 1cbb 873d 2fa3 993d bf9f 0b3e 856e 733d
00000230: d1d5 a6bd e16c b63d 0621 4bbe 510b 81bd
00000240: fecc dfbc 2832 5f3d 538d cdbd b410 51be
00000250: 0eca c9bd 2304 1d3e 1cde 543e ef04 e03b
00000260: 440e fabc a30f b23c 8240 013d ccb5 7ebc
00000270: 3fef f83b 391c dfbd b7cb 70bd e5bb 5dbd
00000280: 003c e0bd 1e74 c93d 9681 95bd 03e0 abbc
00000290: 20d4 a1bd 99da 30be fda4 babc 80c0 94be
000002a0: 200f 833d 5bec 633a 2406 633c b8c3 3c3e
000002b0: 903d 273e 3c58 ebbc 0f33 2f3c 5130 283d
000002c0: e6b9 67bd 0f08 bdbd 2225 89bd 4e3a e3bc
000002d0: 5814 043e 143b e93d 75c9 f93d e99b cd3d
000002e0: aa82 ea3d 9199 c0bc b5a2 7bbd 7e88 c83d
000002f0: 12aa 0abe e585 2c3e f7bf b2bd afc0 66bd
00000300: 2cf8 9b3e c811 7a3c 93ea e03c c741 973b
00000310: 6319 cbbd 5981 ea3d 1305 a2bd a3da 653d
00000320: 7c2e 84bd d986 273e 6fbf 37bd ab8a abbb
00000330: 5d97 a9bd c95d 633d a155 013c 5dcc 00bc
00000340: bd11 a13d 6959 523b 8851 b5bd 261a a93d
00000350: b7d6 ca3c affd bfbd c23a 223d 2401 ac3c
00000360: 7a40 723e 3c72 18bc 035f d6bc dadd 96bd
00000370: 0e8b 573d 7326 c13d 9161 a53c 3de4 ebbc
00000380: 428c 563e 8441 0abe 9f4a 49ba b443 af3d
00000390: 55a2 15be 11bd f0bc be35 8e3d 8b15 02bd
000003a0: b96e 83bd ab90 56bd 59c6 393d 56b9 a43d
000003b0: ed57 923d 1444 06be a16e 5b3d 6e25 613d
000003c0: 6d02 f1bb c3a5 9ebc 61fd 033d c0b7 c4bd
000003d0: 389c 50be fefd 343c c894 853e 2c01 643d
000003e0: e2be b5bc 8b8f 9d3c 4ae7 c4bd a9c8 97bd
000003f0: c5a8 5f3e 8d8b 9fbc 9dfb cbbc 22b4 1c3e

network_body._body_endoder.seq_layers.0.bias f4 [128]
0.0 0.0 0.0 0.0 0.0 0.0 0.0 0.0
0.0 0.0 0.0 0.0 0.0 0.0 0.0 0.0
0.0 0.0 0.0 0.0 0.0 0.0 0.0 0.0
0.0 0.0 0.0 0.0 0.0 0.0 0.0 0.0
0.0 0.0 0.0 0.0 0.0 0.0 0.0 0.0
0.0 0.0 0.0 0.0 0.0 0.0 0.0 0.0
0.0 0.0 0.0 0.0 0.0 0.0 0.0 0.0
0.0 0.0 0.0 0.0 0.0 0.0 0.0 0.0
0.0 0.0 0.0 0.0 0.0 0.0 0.0 0.0
0.0 0.0 0.0 0.0 0.0 0.0 0.0 0.0
0.0 0.0 0.0 0.0 0.0 0.0 0.0 0.0
0.0 0.0 0.0 0.0 0.0 0.0 0.0 0.0
0.0 0.0 0.0 0.0 0.0 0.0 0.0 0.0
0.0 0.0 0.0 0.0 0.0 0.0 0.0 0.0
0.0 0.0 0.0 0.0 0.0 0.0 0.0 0.0
0.0 0.0 0.0 0.0 0.0 0.0 0.0 0.0
00000000: 0000 0000 0000 0000 0000 0000 0000 0000
00000010: 0000 0000 0000 0000 0000 0000 0000 0000
00000020: 0000 0000 0000 0000 0000 0000 0000 0000
00000030: 0000 0000 0000 0000 0000 0000 0000 0000
00000040: 0000 0000 0000 0000 0000 0000 0000 0000
00000050: 0000 0000 0000 0000 0000 0000 0000 0000
00000060: 0000 0000 0000 0000 0000 0000 0000 0000
00000070: 0000 0000 0000 0000 0000 0000 0000 0000
00000080: 0000 0000 0000 0000 0000 0000 0000 0000
00000090: 0000 0000 0000 0000 0000 0000 0000 0000
000000a0: 0000 0000 0000 0000 0000 0000 0000 0000
000000b0: 0000 0000 0000 0000 0000 0000 0000 0000
000000c0: 0000 0000 0000 0000 0000 0000 0000 0000
000000d0: 0000 0000 0000 0000 0000 0000 0000 0000
000000e0: 0000 0000 0000 0000 0000 0000 0000 0000
000000f0: 0000 0000 0000 0000 0000 0000 0000 0000
00000100: 0000 0000 0000 0000 0000 0000 0000 0000
00000110: 0000 0000 0000 0000 0000 0000 0000 0000
00000120: 0000 0000 0000 0000 0000 0000 0000 0000
00000130: 0000 0000 0000 0000 0000 0000 0000 0000
00000140: 0000 0000 0000 0000 0000 0000 0000 0000
00000150: 0000 0000 0000 0000 0000 0000 0000 0000
00000160: 0000 0000 0000 0000 0000 0000 0000 0000
00000170: 0000 0000 0000 0000 0000 0000 0000 0000
00000180: 0000 0000 0000 0000 0000 0000 0000 0000
00000190: 0000 0000 0000 0000 0000 0000 0000 0000
000001a0: 0000 0000 0000 0000 0000 0000 0000 0000
000001b0: 0000 0000 0000 0000 0000 0000 0000 0000
000001c0: 0000 0000 0000 0000 0000 0000 0000 0000
000001d0: 0000 0000 0000 0000 0000 0000 0000 0000
000001e0: 0000 0000 0000 0000 0000 0000 0000 0000
000001f0: 0000 0000 0000 0000 0000 0000 0000 0000
