FYPprototype/results/Test2.2/AIBalancing/AIBalancing-64.onnx (onnx, 128981 bytes, 11 tensors)

action_model._discrete_distribution.branches.0.bias f4 [2]
00000000: 0000 0000 0000 0000
0.0 0.0

action_model._discrete_distribution.branches.0.weight f4 [2, 128]
00000000: a77a fe3b cf4c b93c 7a1d 183b e593 103a
00000010: 6b62 2ebb fde0 cbbb 33b8 703c 4eec 853c
00000020: ff54 7c39 8fbb 34bb 1fdc 8aba a595 f0bb
00000030: 3282 9ebc e549 4e3c dfe6 a138 57f3 3dbb
00000040: f63c 403c cb13 9a3b b5bd 01bb 5b47 113c
00000050: 9f41 a8bb 829e 733a 6b2f cf3a 2c4b 03bc
00000060: 7706 723c 3306 b5bb 2507 f8bb 2f18 2f3c
00000070: a62d 4c3c 8731 473c 03bd 55bc 852d ea3b
00000080: df00 d23a b8fa 8939 61f6 a5bb 2771 49bc
00000090: 1715 ee3b 5ff6 603c b73e 27bb 25ec f4bb
000000a0: 15ec 08bc c0c3 69bb 50ea ec3a 4b16 ddba
000000b0: ed03 653c 6737 18bc 6232 6639 3b20 f2bb
000000c0: bada 743c 43b9 803b 223f 453a d2fd 023b
000000d0: d621 163b 8217 cdbb e09b a8ba ad4b 6c3c
000000e0: 07ed 903b 24fe 27bc a3dd 3dbc 800d 70ba
000000f0: 931c 69bc cf46 8bba b331 ebba 4b56 0f3b
00000100: 95fb 333c 5640 3e3a f7d9 a03b ece3 c63a
00000110: d7dd 49bc 13e7 9fbb 9e03 0fbc eb3a 003c
00000120: 2b74 d6bb 306c c03b c1a4 143b 232b 043b
00000130: 7b32 66bb 4541 253c 3919 343b cf45 503b
00000140: 477a 0dbc 5b74 dc3b 17d8 c43a ed21 fc3b
00000150: 035e ce3b 6032 30ba f577 7f3c 0e8d 3a3c
00000160: 8aa4 d23a 2104 88bb c5b6 813b 9df3 02bc
00000170: 03cb 863b c8b0 bf3b 9598 d639 08d8 513c
00000180: 13dc 78bb 3ffe c73b 50bf 303b 0952 85bc
00000190: e200 46bc 2f6d b93b 2332 1b3c fd4d 96bb
000001a0: c2d7 333c 123b 823b bd80 7ebc 1ff7 93bb
000001b0: 2855 4abb 7dc3 77bc 09d7 083b 2787 3cbc
000001c0: 37ad 6eba 3cd4 283a 28cb 20bc 13f2 523c
000001d0: e3d9 b2bb 6423 20bc 5542 7b3b 2f0f 103c
000001e0: 4b54 143c 5706 c438 237d 313b a8ee 7b3c
000001f0: f9a9 80bb cea0 22bc eb92 15bc c247 203b
00000200: a36c babb 2e10 0ebb a3fb 04bc e3ac 553b
00000210: 2a3a 4bbc c5cd d33b 77e9 c23b c375 b7bb
00000220: a445 90bc 7b20 a6bb ee83 413b 09ed 413c
00000230: 9ba3 5dbc 0a3a 62bc 876b 953c 5342 cb3a
00000240: 2d38 4d3b 89d8 a23c 1178 b13b ca85 1a3c
00000250: 757f 25bc fc43 1abb 7753 c0bb 72eb ca3b
00000260: b7dd cb3c fab4 f33b 4aee 9c3b 9511 e93b
00000270: 03d3 4b3b 773e 643c 0a7a f8bb d5a4 58ba
00000280: 82d1 60bc 187a 0abc fb69 cf3b a790 20bc
00000290: e292 4ebb 46cb 14bc 4e38 13bb b047 733b
000002a0: d709 e83c 7918 c6bc d048 47ba 01d1 2fbc
000002b0: 7b4f 8bbb 938a 343c 1393 bf3b 12f6 153c
000002c0: 0e5f 133c 6a04 d5bb d272 26bb d8e0 243c
000002d0: c50a 2a3c e71e 00bc e8c4 e7bb 134c 433c
000002e0: 330a 0bba 5a1a 00bc 1556 1e3c ccd6 4bbc
000002f0: 1b1c 073c 0370 4ebc 2f3d 87bb bc2f c03b
00000300: 0fe6 4a3b fa77 22bc 3147 babb e225 ee3b
00000310: 6077 e03b 5b68 25bc 3901 b63b 3822 95ba
00000320: cb62 b13b b37f e1ba 1df2 39bb 01e4 883c
00000330: 175d cb3a eb99 493c 4aa8 c8bb 3d6d 4fbb
00000340: 83a3 74bb 1819 623c 545a 2a3a 8e31 46ba
00000350: 0806 3abc eac9 173c de25 29bc 9f87 dd3b
00000360: 219a a4bc 9f2f 1cbc 05d1 453c e16e 96bc
00000370: ddf7 573c 38cd 3b3c 83c9 3ebc bdd7 d93a
00000380: 4ac6 f63b 1096 50bb 3b73 803b d3ee bc3b
00000390: e4d1 1a3c c05a 06bc 8187 163c b206 1c3b
000003a0: 3b6c fbb9 737f 1ebc 3405 413c dba3 273c
000003b0: 720b 6a3c fbf6 cbbb c84d 733b 4f4b 573c
000003c0: bf8f cabb 12a0 73bc 773b b63b 83eb c8bb
000003d0: 71df abbc ce00 cb3a 477c f03b 7505 2d3c
000003e0: 4bfd 6dba fb1e bdb9 175f baba b35e 343c
000003f0: 28e7 923a 683c 163c a5f1 e0ba f0ef 59bc
0.007766086 0.022619633 0.0023210929 0.0005515202 -0.0026608955 -0.006221889 0.014692354 0.01634803
0.00024064256 -0.0027577614 -0.0010594166 -0.007342058 -0.019349191 0.01259086 7.720081e-05 -0.0028984153
0.011733284 0.0047020665 -0.0019796912 0.00886711 -0.005134776 0.0009293334 0.0015806978 -0.008013528
0.014772049 -0.0055244206 -0.007569211 0.010686918 0.012462055 0.012157804 -0.013045552 0.0071465396
0.0016021988 0.00026317476 -0.005064771 -0.012295044 0.0072656977 0.013730614 -0.0025519559 -0.0074744397
-0.008357068 -0.0035669655 0.0018075202 -0.0016867606 0.013977987 -0.009290553 0.00021953278 -0.007389096
0.014944727 0.003928335 0.0007524361 0.0019987714 0.0022908351 -0.006258906 -0.0012863837 0.014422339
0.004422787 -0.010253463 -0.011588487 -0.0009157285 -0.014228004 -0.0010625961 -0.0017943889 0.0021871503
0.010985275 0.00072575116 0.004908796 0.0015174127 -0.012320957 -0.004879841 -0.00872889 0.007826547
-0.00654461 0.005872272 0.0022681209 0.0020167313 -0.0035125304 0.010086362 0.0027480854 0.003177989
-0.00863511 0.006727738 0.0015018013 0.007694474 0.006297828 -0.00067213736 0.015592565 0.011386169
0.0016070765 -0.004150883 0.0039585554 -0.007992652 0.0041135564 0.0058499314 0.00040930943 0.0128078535
-0.0037972971 0.0061033065 0.00269695 -0.016274469 -0.012085171 0.0056587677 0.009472403 -0.0045869336
0.010976734 0.003974327 -0.015533623 -0.004515543 -0.003087351 -0.015122292 0.0020880124 -0.011506832
-0.00091047905 0.0006440317 -0.009814061 0.012875098 -0.005458103 -0.009774063 0.0038339098 0.008792683
0.0090533 9.347189e-05 0.0027082644 0.015376724 -0.0039265123 -0.009926034 -0.009129266 0.0024456833
-0.00568922 -0.0021677124 -0.0081166355 0.003260427 -0.012404004 0.0064637386 0.0059482413 -0.005598755
-0.017611332 -0.00506979 0.00295281 0.011836299 -0.013527776 -0.013807783 0.01823975 0.0015507437
0.0031314 0.019878643 0.0054159244 0.009431312 -0.010101189 -0.0023539057 -0.005869325 0.006192618
0.024885995 0.0074373456 0.0047891485 0.0071126916 0.0031101115 0.013930908 -0.0075829076 -0.0008264308
-0.013721826 -0.008451961 0.0063297725 -0.009800113 -0.0031520654 -0.009081667 -0.002246398 0.0037121587
0.028325005 -0.024181591 -0.00076020975 -0.010730983 -0.004251418 0.011019367 0.00584639 0.009152906
0.008994831 -0.0065007703 -0.0025398028 0.010063373 0.010378544 -0.007819868 -0.0070730336 0.011919993
-0.0005303949 -0.007818783 0.009664078 -0.012441348 0.008246447 -0.012599948 -0.0041271667 0.0058650654
0.003095988 -0.0099163 -0.005684756 0.0072676996 0.006850168 -0.010095681 0.005554345 -0.0011377996
0.0054133884 -0.0017204195 -0.002837307 0.016710283 0.0015515414 0.012304763 -0.0061235772 -0.0031650804
-0.0037328906 0.013799928 0.00064984453 -0.0007560485 -0.011353977 0.009264449 -0.01032397 0.006760552
-0.020093026 -0.009532838 0.01207376 -0.018363418 0.013181654 0.011462502 -0.011644724 0.0016620081
0.007530962 -0.0031827725 0.0039199865 0.0057657748 0.009449456 -0.008200347 0.00918758 0.0023807702
-0.0004795509 -0.009673941 0.011781026 0.010231937 0.014284955 -0.0062245107 0.0037125219 0.013140514
-0.0061816867 -0.014869707 0.005561288 -0.006131591 -0.020980569 0.0015487911 0.0073390338 0.010560383
-0.0009078576 -0.0003607197 -0.0014219013 0.011008906 0.0011207806 0.009169675 -0.001716186 -0.013301834

action_model._discrete_distribution.branches.1.bias f4 [19]
00000000: 0000 0000 0000 0000 0000 0000 0000 0000
00000010: 0000 0000 0000 0000 0000 0000 0000 0000
00000020: 0000 0000 0000 0000 0000 0000 0000 0000
00000030: 0000 0000 0000 0000 0000 0000 0000 0000
00000040: 0000 0000 0000 0000 0000 0000
0.0 0.0 0.0 0.0 0.0 0.0 0.0 0.0
0.0 0.0 0.0 0.0 0.0 0.0 0.0 0.0
0.0 0.0 0.0

action_model._discrete_distribution.branches.1.weight f4 [19, 128]
00000000: 0411 0cbc cbb2 74bc 3feb 32bc 8819 9fbc
00000010: cbd0 1ab9 db2d e43b 4230 f03a a748 ddbb
00000020: ff64 1ebc f7db 00bc f809 123c a1d7 44bc
00000030: 7b1b 233c f2f5 30bc a052 903b 4bff 863b
00000040: 58de d439 fbfb 353b e55a bfbb 5dca 8dbc
00000050: f3e6 dcba 6c8e 3dbb 4dc8 06bc 2559 313c
00000060: 934e b63c d76d 2a3b 6bf4 b03b a171 8cbb
00000070: f0ad 5a3c 7280 8ebc a7d9 e1ba ea09 d63b
00000080: e827 d9bb a7e1 9db8 87d4 10bc bfac 603c
00000090: e808 c43b cf5d 393c d76d 753c 58f0 5cbb
000000a0: f319 83bb 7894 aabb f250 b6ba 3cbb a43c
000000b0: 40ff a3bc 3753 d8b9 a5fc 00bc 8bbc 383b
000000c0: a653 05bc 63e1 5fba bf62 71ba f372 08bc
000000d0: 1d44 dcba 871e 1b3c 79a6 8ebc c5b0 fcb8
000000e0: 1576 96bb b7d3 383c fea7 0b3b cde0 cd3a
000000f0: 033a 673b 5711 1cbc 83fc 7d3c 1e3d 16bc
00000100: 3f7e 94bb 5f9d a03a 1841 3f3c 85c6 b13c
00000110: 22ea 5f3a b8a0 b03b 309a 153b 15f4 763b
00000120: 53f1 2cbc 2467 bd3a a7c9 713c 95ea 2abc
00000130: cfba a2ba 57f7 37bb d72a d63b 8b72 2fbb
00000140: 1f55 be3a cf91 3abb 393e 84bb 98a0 51bb
00000150: 5be9 823b 2971 293c 36c8 17bc 40eb 393c
00000160: d716 b23b d59f ab3b e861 d63b ff96 8839
00000170: 2baf aebc 0284 e63a b2d0 5fbb 4775 903c
00000180: ab89 b03b e4f6 3bbb 03a2 0c3b f45e bb3a
00000190: f305 db3a 315e 9ebb 1f13 61bc 387d d8ba
000001a0: 1bce eaba e260 b439 773c deba e55f 97bb
000001b0: 7f7d 26bb ed11 ecbb 87f2 24bb d378 1c3b
000001c0: 82f0 f6bb ff78 95bc 615b 41bb b3b5 993b
000001d0: 9f55 3b3c c295 933b 6c8d 0bbc 2824 95bb
000001e0: e846 bc3b 0ff5 e73a 7dd9 3738 3f4b edbb
000001f0: 0f85 0f3b e937 8cbc f382 213b b303 09bc
00000200: 836a 8c3a 2578 3c3a 721b 77bc 6b55 eabc
00000210: 1e32 2a3c df6b ec3a faea 9fbb 9a34 6eba
00000220: d73b eebb eb45 f63b b98a a7ba bace 01bc
00000230: 2fe6 2c3b f823 31bc eb7c 153b f5c2 4ebc
00000240: f80b 7abc 5d86 f23b 8d90 f239 a7a8 8dbc
00000250: 33c5 243a 0284 113c 5bd9 04bc bd39 563c
00000260: d0eb 943c 3dbc eb3a e30b 59bc 571e bbbb
00000270: 82d2 5a3b f54f 77bc 1376 08bb 5f8f 363c
00000280: 7454 16bb 19ef 143c f394 3c3b dfc8 013b
00000290: 80cb 8cbb 6ec1 853b 13d4 fc3b 31ef 21bb
000002a0: fd52 dc3b 20ff 453b fb6f 8f3c 8693 973b
000002b0: c126 003c 3562 2b3c 1859 8cbb eace ae3b
000002c0: 77c7 a539 7474 893c 930e 6cbb cea3 3d3c
000002d0: 0d67 d6bb cf08 20bc 4bcb 73bc 5fe0 c5bb
000002e0: 933e efba 6142 173c 1b17 c23a 90e0 723b
000002f0: bf95 153a 747e 933c df1d e2bb 6029 87bc
00000300: 2dee ea3a 4280 d93b 8a4d 15bc 9250 d5bb
00000310: 4347 bbbb a6e6 28bc cf51 e7bb e34a 45bb
00000320: 0af7 97b9 8386 fa3b 7ffc 11bc e754 1dbc
00000330: 62c6 ef39 1bdb 853b 6f3f cd3b c249 1db9
00000340: 8a70 08bc 11f5 833c 27ee c03b f0b5 30bc
00000350: 5b29 7ebb 1b7e 7c3a d12a 14bb 96f7 b93a
00000360: a3cc 80bc 569d 3c3a 253e 0e3b a17d a63b
00000370: 1f16 94bb 1b91 aabb 9fe0 413c dda7 39bc
00000380: cb35 9e3c 07c8 a83b 3a6f 6fbb 8710 1ebc
00000390: 0b09 f8ba a754 81bb 6763 f4bb a75d 1cbc
000003a0: 0272 b5bb 0796 1e3c 7d0d 8d3c 958f b73b
000003b0: 7264 873b 4b85 88bb aa24 51bb 1b30 87ba
000003c0: 225d 5cbc 3ba9 3d3b e7eb a23b 4fa6 27bc
000003d0: 5315 853b f708 5b3c de90 1fbc 3192 b93a
000003e0: ef3f cbbb 62fc e73b 00e0 cfbb 73c3 3cbc
000003f0: fa80 81bc 274f c23b 1d00 23bc ff9f 28bb
-0.008548979 -0.014935206 -0.010920345 -0.019421354 -0.00014764366 0.006963474 0.0018324929 -0.0067530456
-0.009667634 -0.007864944 0.00891351 -0.012014301 0.009955282 -0.010800825 0.004404381 0.0041197888
0.0004060145 0.00277686 -0.005839693 -0.017308408 -0.0016853496 -0.0028924001 -0.008226466 0.010824476
0.022254264 0.002600541 0.0054002306 -0.0042860066 0.013347134 -0.017395232 -0.0017231003 0.0065319436
-0.0066270716 -7.5283744e-05 -0.008839733 0.013713061 0.005982507 0.01131387 0.014979801 -0.0033712592
-0.004000896 -0.005205687 -0.0013909622 0.020108812 -0.020019174 -0.0004126073 -0.007872735 0.0028188552
-0.008137619 -0.000854036 -0.0009208135 -0.008328187 -0.0016804967 0.0094677275 -0.017413365 -0.00012049222
-0.004591713 0.0112809455 0.0021309848 0.0015707255 0.003528238 -0.0095256185 0.015502098 -0.009169845
-0.0045316513 0.0012253931 0.011673234 0.021701107 0.00085416634 0.005390253 0.0022827499 0.0037682105
-0.010555583 0.0014450294 0.01475755 -0.010431905 -0.0012415292 -0.002807101 0.0065358686 -0.0026771154
0.0014521218 -0.0028468256 -0.004035738 -0.003198659 0.0039951033 0.010341921 -0.009264043 0.011347592
0.0054348516 0.0052375593 0.006542433 0.00026052442 -0.021323761 0.0017586949 -0.0034151492 0.017634047
0.005387505 -0.0028681094 0.0021458871 0.0014295266 0.0016710147 -0.004833006 -0.013737469 -0.001651681
-0.0017914207 0.0003440446 -0.0016955276 -0.004619586 -0.0025404391 -0.0072042854 -0.0025168972 0.0023875728
-0.007535995 -0.018246172 -0.002950393 0.0046908497 0.011433988 0.0045039365 -0.008517604 -0.0045514293
0.0057457574 0.0017696935 4.383315e-05 -0.007241636 0.0021899377 -0.017116504 0.0024644702 -0.008362698
0.0010712895 0.0007189534 -0.015082227 -0.028605184 0.010387925 0.0018037519 -0.0048803063 -0.0009086818
-0.007270317 0.007515659 -0.0012782431 -0.007922823 0.0026382317 -0.010811798 0.0022810053 -0.012619724
-0.015261643 0.0074012713 0.00046265536 -0.017292334 0.00062854885 0.008881571 -0.008108462 0.013075289
0.01817885 0.0017985177 -0.013247463 -0.005710404 0.0033389633 -0.015094747 -0.002082233 0.011142581
-0.0022938522 0.009090208 0.0028775304 0.0019803566 -0.00429672 0.0040818965 0.007715711 -0.002470922
0.00672376 0.003021188 0.017509451 0.0046257405 0.00782174 0.010460426 -0.0042830817 0.0053347247
0.00031619865 0.016779162 -0.003601943 0.011574699 -0.0065430463 -0.009767725 -0.014880012 -0.00603871
-0.0018252902 0.009232135 0.0014807911 0.003706012 0.0005706213 0.018004633 -0.0069005336 -0.016499221
0.0017923765 0.006637604 -0.009112725 -0.006509849 -0.005715282 -0.010308897 -0.007059313 -0.003010445
-0.00028985023 0.0076454296 -0.008910297 -0.009602762 0.0004573344 0.0040849573 0.0062636654 -0.00015000164
-0.008327613 0.016108068 0.005887765 -0.010785565 -0.0038781974 0.0009631828 -0.0022608528 0.0014188166
-0.015722578 0.0007195076 0.0021704521 0.005080894 -0.0045192386 -0.005205286 0.011833339 -0.011331526
0.01931276 0.0051507982 -0.0036534802 -0.009647495 -0.0018923593 -0.003946859 -0.0074581387 -0.009543813
-0.0055372724 0.009679324 0.017218346 0.005601833 0.004131847 -0.0041662804 -0.0031912723 -0.0010314019
-0.013449939 0.002893998 0.0049719694 -0.010232522 0.00406138 0.013368837 -0.009739129 0.0014157948
-0.00620269 0.007079647 -0.0063438416 -0.011521208 -0.015808571 0.005929846 -0.0099487575 -0.002573013

action_model._discrete_distribution.branches.2.bias f4 [15]
00000000: 0000 0000 0000 0000 0000 0000 0000 0000
00000010: 0000 0000 0000 0000 0000 0000 0000 0000
00000020: 0000 0000 0000 0000 0000 0000 0000 0000
00000030: 0000 0000 0000 0000 0000 0000
0.0 0.0 0.0 0.0 0.0 0.0 0.0 0.0
0.0 0.0 0.0 0.0 0.0 0.0 0.0

action_model._discrete_distribution.branches.2.weight f4 [15, 128]
00000000: 3c96 b53b c2f4 76ba 6775 70bb e341 05bc
00000010: fd16 6b3b 17b4 4a3b 45c5 733c 97bc 17bc
00000020: 3fa1 c83b f528 fabb 527a dbba bc37 85bb
00000030: e32e 9cba 9a90 9c3b 0361 ed3a 6d69 7d3c
00000040: aafb f23b d4a5 3a3b dbe4 67bb 93b4 88bc
00000050: 0d8f d33b 7e8b afbc 1147 94bb 8036 5bbb
00000060: b4e3 c73b 2c10 aebb 6262 2dbc e07f a4bb
00000070: 9a74 f33b 6818 7a3c 066d 083b 4dc4 4fbb
00000080: eff5 cebb 63f1 6d3a be29 0abc 6f8f 803c
00000090: 731e 23bb cbaa 96ba 1926 39bc da84 d9bb
000000a0: ba42 6f3c 0741 e9b8 67f8 453b 1767 d03b
000000b0: 756e 0b3c 3177 b4ba 5a23 39bb 36c0 38bc
000000c0: 251b 1fbc 3a70 5339 e76b a639 2242 1c3a
000000d0: de40 99bb 87a0 b0ba 56ab 2b3c 854c 3a3c
000000e0: cbfd 81bc b5bc 003b ef4c 05ba 6b4f 08ba
000000f0: 7922 493b d913 833b 1db8 b5bb 3f52 473b
00000100: a90e ad3b f7be ddba 0807 6e3c 6349 043c
00000110: 3a3e a03b 8862 dbb9 fd86 f13b 5df5 273c
00000120: 74c7 9ebb 243a 1b3c 5fa2 093b 3fe6 e63b
00000130: c980 ac3c 756f f0bb 5357 12bc d7a6 c0b9
00000140: c7b7 74bc 2a1a f23b 9b08 8f3c 21d5 873b
00000150: f71e 21bb 8aa9 77bb b332 ecbb 96ab 803c
00000160: 7896 daba 654a 2d3b b83f 803b 3722 7f3b
00000170: 65d9 1b3c 7320 253c 3143 06bc aed5 90bc
00000180: e963 1c3c 49ac 32bc 94f2 243c 8286 873b
00000190: fe6c c93a e79e 36bb d5d4 a9ba 3023 8b3b
000001a0: ba66 af3b 7400 463c 61f7 1f3c 7519 fa3b
000001b0: 6ba2 9e3b 4212 8e3b 1482 28bb 0c64 013b
000001c0: ad63 513b d807 b93b 6706 0a3c a075 df3b
000001d0: 575e 013c 8ea5 48bc 6c70 8d3c 001a bebb
000001e0: 62aa 3a3a 1735 6bbb 546d 33bc 70c2 37bc
000001f0: 806b e23b dfca d43b 990b 48bc 81e4 2fbc
00000200: 0706 273c f0fc f5bb 53c6 12bc 9374 883b
00000210: afca b2bb 771b f73b dca9 923b 851b dbbb
00000220: f7c6 9f3b a572 b63b db04 8fbb 4c5d c73a
00000230: 5371 47ba 8529 36bc cb49 e43b 4505 0f3c
00000240: 9075 793c edc0 a9ba ab76 a5bc a701 113b
00000250: a38c 413c f310 91b9 12f7 75bc 1716 8f3b
00000260: 5734 8d3a edf5 7abc 900e 61bb b499 1a3c
00000270: 23c1 f1ba e301 fabb a540 82bc 7f9a e93b
00000280: faba dd3b d8cc c53a ea54 cfbb af31 ff3b
00000290: 88f5 6f3c aaf2 94bc e0c8 e7ba d629 143c
000002a0: 74d4 963c 42c9 0d3b 2b97 5e3b e037 b9bb
000002b0: 8fc0 69ba b6ed 87bc e545 223c 174b b43a
000002c0: a740 d23b a30c 11bc 307b 3f3c 4c0d 9c3c
000002d0: bf84 f9ba 1d08 503a 5ac6 99b9 c31e 08bc
000002e0: 133f f43b cfde 3c3c 4f43 4dbc 0173 3d3c
000002f0: 508d 6abb dbe6 343b 7f7f 7abb 7730 f8bb
00000300: 7336 e9bb e109 803b e8aa ccb9 9e98 b8bb
00000310: 7f7d 75bc 3bc5 4ebc ad6f e2bb d8bd 1c3c
00000320: 9f0a 333c b357 dbbb 33af 3739 8c56 24bc
00000330: 423d 633b 8566 ef3a dd5e 7abc f1a5 b5bb
00000340: 7c69 2dbb 82de 123c 2c6c 383b e3fb 8e3c
00000350: 3e45 9f3b 69ad 013c 4d6f 563c d757 3e3c
00000360: a8e2 3939 4b1a d4bb 82a8 97bc 0323 f53b
00000370: 4ae7 553c 0421 91bc feed 81ba f799 893a
00000380: 99a6 4b3c a747 14b8 9e93 2a3c 05fd f03b
00000390: 384f febb 2442 463c 4054 47bb 4bda ab3b
000003a0: 5b3a dcba cdfa 453b 4fc9 953b 7d17 bd3b
000003b0: f84c bb3b 9b1f 913b 28e1 8e3c 07a8 75bc
000003c0: 63d8 ecba ab1c 883b 5ff9 73bc bfe2 583c
000003d0: fd84 06bb 17b5 053c dc90 07bc 1a5d f23a
000003e0: 8cdd 233b 1b79 80bb fea4 98bc ef10 e03b
000003f0: d391 113b a351 a23c d7f3 b13b 4fe7 7939
0.005541591 -0.0009420627 -0.003669107 -0.008133384 0.0035871856 0.0030930096 0.014878576 -0.009261272
0.0061227377 -0.007634277 -0.0016744828 -0.004065482 -0.0011915829 0.00477798 0.0018110577 0.01546703
0.0074152546 0.002848019 -0.0035384211 -0.016687667 0.006456262 -0.02142882 -0.0045250733 -0.0033449233
0.0061001424 -0.0053119864 -0.010582538 -0.0050201267 0.0074296715 0.015264608 0.0020816936 -0.0031702698
-0.0063159387 0.0009076802 -0.008432804 0.015693394 -0.0024889975 -0.0011494992 -0.011300587 -0.0066381516
0.014603311 -0.00011122418 0.0030207874 0.0063599455 0.008510222 -0.0013768432 -0.002824983 -0.011276295
-0.009711062 0.00020164336 0.0003174238 0.00059607823 -0.004676922 -0.0013475575 0.010477861 0.011370783
-0.015868088 0.0019643728 -0.00050850114 -0.00051998225 0.0030690713 0.0040001688 -0.0055456297 0.0030414013
0.0052812886 -0.0016917874 0.014528044 0.008074137 0.0048902305 -0.00041844347 0.007370828 0.01025137
-0.004845554 0.009474311 0.0021001322 0.0070464904 0.021057503 -0.0073375055 -0.0089319525 -0.000367454
-0.014936394 0.007388373 0.017460158 0.00414528 -0.0024585107 -0.0037790262 -0.0072081923 0.015706819
-0.0016676923 0.0026442048 0.003913846 0.0038930306 0.00951228 0.010078537 -0.008194731 -0.017680015
0.009545305 -0.010905334 0.010067601 0.0041359076 0.0015367565 -0.002786571 -0.0012957106 0.004246138
0.005352822 0.012085069 0.00976357 0.0076324292 0.004841139 0.0043356726 -0.0025712298 0.001974347
0.003195028 0.005646687 0.008424378 0.006819442 0.0078960275 -0.012246503 0.017265521 -0.0058014393
0.0007120726 -0.0035889798 -0.010951359 -0.011215791 0.0069097877 0.0064939107 -0.012209796 -0.010735632
0.010194308 -0.007506959 -0.008958417 0.0041642874 -0.0054562907 0.007541116 0.004475815 -0.00668663
0.0048760134 0.005567866 -0.0043645925 0.00152103 -0.0007608134 -0.011118297 0.0069668046 0.008729284
0.015225783 -0.0012951173 -0.020198187 0.002212623 0.011813316 -0.00027669183 -0.015012519 0.004366647
0.0010773045 -0.015317422 -0.0034340955 0.00943606 -0.00184444 -0.0076296194 -0.015899966 0.007129013
0.006766674 0.0015090955 -0.006327261 0.007787905 0.014645942 -0.018182117 -0.0017683767 0.009043178
0.018411852 0.0021634852 0.0033964615 -0.005652413 -0.0008916938 -0.016592842 0.0099043595 0.0013755289
0.0064163986 -0.0088531105 0.011687085 0.01904931 -0.0019036754 0.0007935779 -0.00029330218 -0.008308115
0.007453808 0.011527731 -0.012528255 0.011563064 -0.0035789795 0.002760342 -0.0038222966 -0.007574137
-0.0071170866 0.0039074277 -0.00039037247 -0.0056334278 -0.014983534 -0.012620266 -0.0069102854 0.009566747
0.010927825 -0.006693804 0.00017517507 -0.0100304 0.0034673964 0.0018264806 -0.015281406 -0.0055434634
-0.0026460579 0.008964183 0.0028140647 0.017454093 0.0048605492 0.007914879 0.01308806 0.011617622
0.00017727411 -0.006472861 -0.018512968 0.0074809804 0.013055632 -0.017715938 -0.0009912846 0.0010498156
0.012429857 -3.535268e-05 0.010411171 0.007354381 -0.0077609085 0.01210073 -0.0030415207 0.0052445284
-0.0016802059 0.0030209303 0.004571117 0.0057706223 0.0057159625 0.0044288165 0.017441347 -0.014993674
-0.0018069859 0.004153808 -0.014890998 0.013237654 -0.0020526045 0.008160851 -0.008274283 0.0018490881
0.0025003878 -0.003920687 -0.018633362 0.006837956 0.0022212162 0.019814318 0.0054306793 0.0002383266

discrete_action_output_shape f4 [1, 3]
00000000: 0000 0040 0000 9841 0000 7041
2.0 19.0 15.0

network_body._body_endoder.seq_layers.0.bias f4 [128]
00000000: 0000 0000 0000 0000 0000 0000 0000 0000
00000010: 0000 0000 0000 0000 0000 0000 0000 0000
00000020: 0000 0000 0000 0000 0000 0000 0000 0000
00000030: 0000 0000 0000 0000 0000 0000 0000 0000
00000040: 0000 0000 0000 0000 0000 0000 0000 0000
00000050: 0000 0000 0000 0000 0000 0000 0000 0000
00000060: 0000 0000 0000 0000 0000 0000 0000 0000
00000070: 0000 0000 0000 0000 0000 0000 0000 0000
00000080: 0000 0000 0000 0000 0000 0000 0000 0000
00000090: 0000 0000 0000 0000 0000 0000 0000 0000
000000a0: 0000 0000 0000 0000 0000 0000 0000 0000
000000b0: 0000 0000 0000 0000 0000 0000 0000 0000
000000c0: 0000 0000 0000 0000 0000 0000 0000 0000
000000d0: 0000 0000 0000 0000 0000 0000 0000 0000
000000e0: 0000 0000 0000 0000 0000 0000 0000 0000
000000f0: 0000 0000 0000 0000 0000 0000 0000 0000
00000100: 0000 0000 0000 0000 0000 0000 0000 0000
00000110: 0000 0000 0000 0000 0000 0000 0000 0000
00000120: 0000 0000 0000 0000 0000 0000 0000 0000
00000130: 0000 0000 0000 0000 0000 0000 0000 0000
00000140: 0000 0000 0000 0000 0000 0000 0000 0000
00000150: 0000 0000 0000 0000 0000 0000 0000 0000
00000160: 0000 0000 0000 0000 0000 0000 0000 0000
00000170: 0000 0000 0000 0000 0000 0000 0000 0000
00000180: 0000 0000 0000 0000 0000 0000 0000 0000
00000190: 0000 0000 0000 0000 0000 0000 0000 0000
000001a0: 0000 0000 0000 0000 0000 0000 0000 0000
000001b0: 0000 0000 0000 0000 0000 0000 0000 0000
000001c0: 0000 0000 0000 0000 0000 0000 0000 0000
000001d0: 0000 0000 0000 0000 0000 0000 0000 0000
000001e0: 0000 0000 0000 0000 0000 0000 0000 0000
000001f0: 0000 0000 0000 0000 0000 0000 0000 0000
0.0 0.0 0.0 0.0 0.0 0.0 0.0 0.0
0.0 0.0 0.0 0.0 0.0 0.0 0.0 0.0
0.0 0.0 0.0 0.0 0.0 0.0 0.0 0.0
0.0 0.0 0.0 0.0 0.0 0.0 0.0 0.0
0.0 0.0 0.0 0.0 0.0 0.0 0.0 0.0
0.0 0.0 0.0 0.0 0.0 0.0 0.0 0.0
0.0 0.0 0.0 0.0 0.0 0.0 0.0 0.0
0.0 0.0 0.0 0.0 0.0 0.0 0.0 0.0
0.0 0.0 0.0 0.0 0.0 0.0 0.0 0.0
0.0 0.0 0.0 0.0 0.0 0.0 0.0 0.0
0.0 0.0 0.0 0.0 0.0 0.0 0.0 0.0
0.0 0.0 0.0 0.0 0.0 0.0 0.0 0.0
0.0 0.0 0.0 0.0 0.0 0.0 0.0 0.0
0.0 0.0 0.0 0.0 0.0 0.0 0.0 0.0
0.0 0.0 0.0 0.0 0.0 0.0 0.0 0.0
0.0 0.0 0.0 0.0 0.0 0.0 0.0 0.0

network_body._body_endoder.seq_layers.0.weight f4 [128, 78]
00000000: d975 b63a 4c3a 86be 4bbf c2bd c02d e1bd
00000010: 9544 483e 41d0 7dbd f0b2 20bd d85b f3bd
00000020: 94f8 96bd 62fa 34be 8512 c9bd d787 7d3d
00000030: 29ce 1d3d fc5a 4bbd c0d8 0f3d 9728 09bd
00000040: 5a36 253d 9df9 3e3e 5565 72bd 6ca5 043c
00000050: 47f7 1f3d 0f7b 0f3e ee57 86bd 32ce a4bb
00000060: 19e3 4b3e 4f2e 0fbd 43b3 68bd ad1b 8abb
00000070: e82a 9ebd 34bb 653e e350 2d3d 66bb 453d
00000080: 6aa1 5a3c 030a 55be da39 5f3d c999 3a3c
00000090: 7b53 17be 9c42 4dbd eaa0 0f3e 715e 3b3b
000000a0: a066 173e a1e9 253e a60a 48bc 3c06 1c3c
000000b0: 0916 0cbe 34d5 a4bd a30c 94bd 403b e73d
000000c0: edf6 2cbe 0d55 4e3d 0ff9 d9bd 2e0d 6e3e
000000d0: c223 78be 6c77 2d3d 6cf0 57be 635e 473d
000000e0: ea97 ca3c 7a20 1a3e f980 c33c 99d7 603d
000000f0: 68c6 e0bb 84cc 27be 2b37 90bd 2df8 03be
00000100: 5822 bebc 99d6 24be dda3 8abd 3089 03be
00000110: 0ce0 e43d 9bdc 7e3c c2e9 b0bc eeff c0bd
00000120: 4aa7 2bbe 5f79 f73d a218 a0bd 450a 533d
00000130: d5d3 dabb 4e88 26be f245 72bd 149d 953d
00000140: 3cb5 08bd d38f 64bd 0a0c 823d e8f3 c4bd
00000150: 6b39 653d 032c 07be 1f72 93be 7fbb e9bd
00000160: 13d5 da3d 75db b93d 7974 b33c 4845 12be
00000170: f6c4 76bd 26e5 283d 5dc5 8cbd 70f0 bbbd
00000180: 08b2 1e3d 225a 84be 0991 1f3e 6e06 2ebe
00000190: ced4 a13c 3df3 0abe 91c3 133e 08cf c8bd
000001a0: cebd 92bd ef03 1cbe cd7c 943d 32e2 63b9
000001b0: 717a 25bc f42e fc3d 8966 8bbc 4148 4c3d
000001c0: 45e4 4bba 4264 e53d 397b 913d 5cce 2fbe
000001d0: dacb 49bd 21f8 9c3d 634f 253e 8359 973d
000001e0: bfa6 ad3d 46e2 1cbe 9232 ea3d f6cb bcbd
000001f0: 4336 083d e723 b5bd 2356 2d3e 3900 36be
00000200: 3ece 60bd bf9f 28bd 9624 2ebd e6ca b03d
00000210: a181 1a3d 5f19 d3bd 6d9f febd 6b2c 57bc
00000220: a1cd ad3c eadc 943d 4f2f f23d 67f6 933d
00000230: 8409 0abe 0427 0b3e 7a8a f0bd b2c0 8cbe
00000240: 2a7c 0dbe e590 9e3d 8639 513e c944 2e3b
00000250: d1a7 46be 7655 b3bc 15b4 6a3c c9bf 88bd
00000260: 51c0 a3bd 4230 c43d 1c8b 363d 4407 04bc
00000270: 9cd4 edbb 4a2a 1dbc 5bff 653e 0a2a f6bd
00000280: e41a 97bd fee4 803d 7ae2 93be 7f76 a63d
00000290: 98ef 24be 393b d8bd 3afe d2bd 200e d4bd
000002a0: 747b ce3c 76d4 f93d 18f1 4c3e 8ec1 bf3d
000002b0: bf39 92bd 383c 393e 42e6 bbbd a145 aabd
000002c0: 54fb 133c 0603 8c3e a7b7 513d 0bd2 15bd
000002d0: a067 433d 02f4 83bc d7f6 90bd f3eb cfbc
000002e0: b736 1ebd 21bc 673e 7dc2 3abd e5c6 c83d
000002f0: 3c43 d7bd 4dc3 c73d 39f8 2cbd d589 863d
00000300: db77 33be e0bf 1abe 663b ecbb ec73 223e
00000310: f149 3dbd 3e83 26be 0089 debd 7e16 27be
00000320: 6a6e b8bc 2e01 09be 6ff8 cabc cd75 b1bd
00000330: f987 88bd d682 823e c1f0 193e 21d4 21be
00000340: 1df4 203d d9bd 843c 0ad9 0dbe b605 3b3e
00000350: da9a 493b 9190 63bd 80b1 dd3a 8d71 ab3d
00000360: 5237 e53d 465f fa3d c88f 7ebd 7919 383e
00000370: 8852 0c3e b0bc 10bc 60b3 ecbd eb39 56bd
00000380: 00de b03d 234e e13d ae35 a03d d1d3 75be
00000390: f32c 09be 1a2c 4ebe 3ea3 ed3c f6c9 38be
000003a0: af5b f6bc f725 1abd 04fd 86bd bf80 9a3d
000003b0: e6f6 40bd 4dd0 eeba 822f 013d 8016 ae3d
000003c0: d32f b7bd 88a9 04bc 277a acbc d166 7a3e
000003d0: b118 aebd 35fc 04bd d4cc 863e 76e3 ffbc
000003e0: ac37 98bb 5953 e43d 7357 273e cbcf 473e
000003f0: e260 babc 345e 943d b496 523e 0e8e 403e
0.0013920619 -0.26216352 -0.095091425 -0.10995054 0.19557412 -0.061966185 -0.039233148 -0.11882752
-0.07371631 -0.17673638 -0.098179854 0.061897125 0.038526688 -0.049647316 0.03511882 -0.033485975
0.040335037 0.18649907 -0.05917867 0.00809608 0.03905418 0.14011787 -0.0655974 -0.005029463
0.1991085 -0.034956273 -0.056811582 -0.004214725 -0.077230275 0.22434694 0.042313468 0.04827442
0.013344148 -0.208046 0.05449853 0.011389204 -0.14777939 -0.05011235 0.14026228 0.0028590227
0.14785242 0.16202404 -0.01220957 0.009522971 -0.1368028 -0.08048478 -0.07228973 0.11290598
-0.1689107 0.05037408 -0.10643207 0.23247215 -0.2423239 0.042350218 -0.21087807 0.048674
0.024730641 0.15051451 0.02386521 0.05489311 -0.0068595894 -0.1638661 -0.070417725 -0.1288764
-0.023209736 -0.16097488 -0.06769536 -0.12845302 0.11175546 0.015555526 -0.02159584 -0.09423815
-0.16763034 0.120836966 -0.07817198 0.051523466 -0.0066780844 -0.16262934 -0.059148736 0.07305351
-0.033375964 -0.055801224 0.063499525 -0.09616834 0.05596296 -0.13200383 -0.28798005 -0.11412715
0.10685172 0.09075061 0.021906124 -0.14284241 -0.06024643 0.041234158 -0.068735816 -0.09176719
0.038744003 -0.25850016 0.1558267 -0.1699464 0.019754793 -0.1356935 0.14430071 -0.09805113
-0.071651086 -0.15235876 0.07250366 -0.00021732671 -0.010099993 0.12313643 -0.017016666 0.049873594
-0.000777785 0.11200763 0.07103581 -0.17168564 -0.049266674 0.07664514 0.16143565 0.0739012
0.0847907 -0.15320691 0.11435427 -0.0921859 0.033254873 -0.088447385 0.1692739 -0.17773522
-0.054884188 -0.04116797 -0.04251536 0.0863245 0.03772128 -0.103075735 -0.12432752 -0.013133149
0.021216216 0.072686985 0.1182543 0.07224732 -0.13480192 0.13589102 -0.11745162 -0.27490765
-0.13816896 0.0774248 0.204321 0.0026591292 -0.19399954 -0.021891337 0.014325161 -0.06677205
-0.07995666 0.09579517 0.04456626 -0.008058373 -0.007258011 -0.009592602 0.22460692 -0.12019737
-0.07378176 0.06293677 -0.28883725 0.0812807 -0.16107023 -0.10558171 -0.10302396 -0.10354257
0.025205351 0.12198727 0.20013845 0.093630895 -0.071399204 0.18089378 -0.091747776 -0.08314062
0.009032089 0.27346057 0.051200535 -0.036577266 0.047706246 -0.016107563 -0.07078331 -0.025381064
-0.0386264 0.22630359 -0.045595635 0.09803561 -0.10510871 0.097540475 -0.04222891 0.06569258
-0.1752619 -0.15112257 -0.0072092293 0.15864533 -0.046213094 -0.16261002 -0.108659744 -0.16317174
-0.022513587 -0.13379356 -0.024776665 -0.08665047 -0.0666656 0.25490445 0.15033247 -0.15803577
0.039295305 0.016203808 -0.13852325 0.18263897 0.0030762465 -0.05555779 0.0016913861 0.083712675
0.11192192 0.12225203 -0.06214884 0.17978467 0.13703358 -0.008834049 -0.115576506 -0.05230133
0.08636093 0.110012315 0.078227386 -0.24006583 -0.13396053 -0.20134011 0.029008504 -0.18045792
-0.030073015 -0.037633862 -0.06591228 0.075440876 -0.04711046 -0.0018220037 0.031539448 0.08500385
-0.089446686 -0.00809706 -0.02105434 0.24453284 -0.08500803 -0.032467086 0.26328146 -0.031236392
-0.0046453085 0.1114871 0.16341953 0.1951286 -0.022751275 0.0724453 0.20565301 0.1880419

network_body._body_endoder.seq_layers.2.bias f4 [128]
00000000: 0000 0000 0000 0000 0000 0000 0000 0000
00000010: 0000 0000 0000 0000 0000 0000 0000 0000
00000020: 0000 0000 0000 0000 0000 0000 0000 0000
00000030: 0000 0000 0000 0000 0000 0000 0000 0000
00000040: 0000 0000 0000 0000 0000 0000 0000 0000
00000050: 0000 0000 0000 0000 0000 0000 0000 0000
00000060: 0000 0000 0000 0000 0000 0000 0000 0000
00000070: 0000 0000 0000 0000 0000 0000 0000 0000
00000080: 0000 0000 0000 0000 0000 0000 0000 0000
00000090: 0000 0000 0000 0000 0000 0000 0000 0000
000000a0: 0000 0000 0000 0000 0000 0000 0000 0000
000000b0: 0000 0000 0000 0000 0000 0000 0000 0000
000000c0: 0000 0000 0000 0000 0000 0000 0000 0000
000000d0: 0000 0000 0000 0000 0000 0000 0000 0000
000000e0: 0000 0000 0000 0000 0000 0000 0000 0000
000000f0: 0000 0000 0000 0000 0000 0000 0000 0000
00000100: 0000 0000 0000 0000 0000 0000 0000 0000
00000110: 0000 0000 0000 0000 0000 0000 0000 0000
00000120: 0000 0000 0000 0000 0000 0000 0000 0000
00000130: 0000 0000 0000 0000 0000 0000 0000 0000
00000140: 0000 0000 0000 0000 0000 0000 0000 0000
00000150: 0000 0000 0000 0000 0000 0000 0000 0000
00000160: 0000 0000 0000 0000 0000 0000 0000 0000
00000170: 0000 0000 0000 0000 0000 0000 0000 0000
00000180: 0000 0000 0000 0000 0000 0000 0000 0000
00000190: 0000 0000 0000 0000 0000 0000 0000 0000
000001a0: 0000 0000 0000 0000 0000 0000 0000 0000
000001b0: 0000 0000 0000 0000 0000 0000 0000 0000
000001c0: 0000 0000 0000 0000 0000 0000 0000 0000
000001d0: 0000 0000 0000 0000 0000 0000 0000 0000
000001e0: 0000 0000 0000 0000 0000 0000 0000 0000
000001f0: 0000 0000 0000 0000 0000 0000 0000 0000
0.0 0.0 0.0 0.0 0.0 0.0 0.0 0.0
0.0 0.0 0.0 0.0 0.0 0.0 0.0 0.0
0.0 0.0 0.0 0.0 0.0 0.0 0.0 0.0
0.0 0.0 0.0 0.0 0.0 0.0 0.0 0.0
0.0 0.0 0.0 0.0 0.0 0.0 0.0 0.0
0.0 0.0 0.0 0.0 0.0 0.0 0.0 0.0
0.0 0.0 0.0 0.0 0.0 0.0 0.0 0.0
0.0 0.0 0.0 0.0 0.0 0.0 0.0 0.0
0.0 0.0 0.0 0.0 0.0 0.0 0.0 0.0
0.0 0.0 0.0 0.0 0.0 0.0 0.0 0.0
0.0 0.0 0.0 0.0 0.0 0.0 0.0 0.0
0.0 0.0 0.0 0.0 0.0 0.0 0.0 0.0
0.0 0.0 0.0 0.0 0.0 0.0 0.0 0.0
0.0 0.0 0.0 0.0 0.0 0.0 0.0 0.0
0.0 0.0 0.0 0.0 0.0 0.0 0.0 0.0
0.0 0.0 0.0 0.0 0.0 0.0 0.0 0.0

network_body._body_endoder.seq_layers.2.weight f4 [128, 128]
00000000: 93e1 81be 6dc9 1ebe 15d4 00bc a53c 5f3d
00000010: 48ea 7dbc 000f e1bc 3c24 163c 584e 0cbe
00000020: e6b1 cfbd 648e ac3d f233 88bd c196 1b3b
00000030: 00f6 69bd 7596 e63c 66c7 ca3d e335 8b3c
00000040: cc67 63bc a98d a13c ddf0 033e 31a6 62bd
00000050: 1435 df3c e92f 6fbc 41f2 8abd e86f 173e
00000060: 46a8 8b3b 9c4e 943d 3430 24ba 2df8 08bb
00000070: a445 763c cde0 a9bc 95d6 3d3c eb2c 043d
00000080: 8dbe 9cbc 88c8 883d 21fb 043e 3adb 7d3d
00000090: 19f0 b13b 73f0 87bd c7f4 13bc 2f79 d63d
000000a0: e87a 2b3e 12c8 263e 394b 593c c448 01be
000000b0: 0dae 9cbd bf57 cbbd 2749 8d3d 6a98 2fbd
000000c0: 84a6 f8bd 74bb 8fbd 8b00 b23b 2910 1fbe
000000d0: 699c 733d c7d6 9abd b959 7d3d 8c8a 373c
000000e0: db69 f8bc a2fa 4d3d 614f 353d ae5c c8bb
000000f0: be3c 9cbd 00df bcbd 924b db3b b22a 3ebd
00000100: aaba c4bd b9f2 ed3a fae6 2e3e dae5 d33d
00000110: 4779 a4bc d766 b93b 0697 1bbd 1ea7 b23c
00000120: 0e4d 57bd 8c73 05bd aba2 53bd aeca 3abe
00000130: b7e2 38bc 9d28 323d 2c1b c93b 4ee7 a03b
00000140: ba24 d3bd 9617 6dbd 9770 c6bc 4a9d eebc
00000150: 9fb7 793d 4680 30bd 0467 ea3d 5565 74bd
00000160: 042f 11bd 11ac bc3d 62eb 5cbb 0174 48be
00000170: 37be dcbb aeb4 c2bc 3787 433e bc65 1bbd
00000180: 6a4b 13bc 88ac 703d 0a7b a1bc 3091 54be
00000190: 9be1 aebc d85e 00be ff89 35bc 72e8 00bd
000001a0: f408 bf3c b402 50bd 4ad7 3fbd 0e02 a03b
000001b0: 4b87 a2bc 0778 b73d 6d8d c7bd ef57 ca3d
000001c0: 135d 2b3c 1b6b 1fbd 63a6 493d 0bb9 08be
000001d0: f6be 923c 1396 053d 2efb a5bd 1379 2dbe
000001e0: 6d66 aabc 6f69 20bd fff4 3d3d 8bdb 20be
000001f0: bca5 f0bc c68b 6cbe f253 223e ff33 033d
00000200: aa71 103e 995d b8bd 3b03 8e3c 91e6 88bd
00000210: 6dd6 633d 851e 103e a94f 343e 6609 afbd
00000220: 1c1e 66be efdf 563e c258 93bd adc7 e73c
00000230: 3efd a6bd 84cb 80bb 5296 053e 626d a3bd
00000240: 12b6 243d 254c 673c fdec 11bd 2916 1cbe
00000250: 1c0d c63d 6af0 e8bc 12f8 01be 80e1 c63d
00000260: 11ce 37be ed9b 453e 5f55 0f3d 6121 0a3e
00000270: 445f 433b c48f ccbc 1632 013d f66e 5ebd
00000280: a9c7 abbd e144 523e 804e 0b3c cb91 e43d
00000290: deac b1bc db96 27bd 783e 233d 81d7 21bd
000002a0: b22f 5ebc 0152 0f3d 412d 4b3e f51b d73d
000002b0: 8958 193e 3e79 28bd 1e0b c43d c8ad 8fbd
000002c0: 4216 13be 9b93 c53d 05c0 c1bd f5c8 3abe
000002d0: 8c61 943d 898e 013e 466b 803d c670 84bd
000002e0: d2d0 943d 752b c0bd da09 90bc b2e1 283d
000002f0: f0e7 643c 6b06 393d 4300 fb3c 3866 3fbd
00000300: 0cd3 e9bd 8bdd 023e 0f9a 49bc b871 97bd
00000310: c6ac 243e b0dc 47bd 1f41 35be c682 6a3c
00000320: 1299 fc3d a503 8fbd 94b7 273e 814d 0dbd
00000330: 9a90 a3bd be3f ee3c 6c55 9dbd 31df 1b3e
00000340: 4576 68bd ccd4 533d 308e 163e 3dcf 18be
00000350: f1bc 51bc e6bf d03c 5a15 2a3d 2a03 af3b
00000360: 5ec5 923c c7ad 373d 64a7 b53d c9ee 8bbd
00000370: 49be ff3c 7f62 6abc dc02 be3c f7d8 02bd
00000380: 0fd1 b0bd ce2d 7f3b 2c3e e63d 8f96 bcbc
00000390: d2db ab3c 8423 5bbe 79d2 36bd d26d db3c
000003a0: 2d09 36bd 898c ee3c a3af b13d db86 873e
000003b0: 33b1 41bd 0db3 f23c c6e6 0dbd 0391 253d
000003c0: b4d6 e93c 0cff 903d 19cf ad3d 26e2 d33d
000003d0: 7323 ab3d 915e 09bd bbb0 80bd 0570 0f3e
000003e0: 9d7e 87bd b837 a43d 3b80 99bd f80d 2d3d
000003f0: 3116 1f3e 6bdd e43c b15e efbd 5fc7 60be
-0.25367412 -0.15506525 -0.007863064 0.054501195 -0.0154977515 -0.027472973 0.009163912 -0.13701761
-0.10141353 0.08425596 -0.06650533 0.002374098 -0.05711937 0.028147915 0.099013135 0.016993469
-0.013879728 0.01972087 0.12884851 -0.055334274 0.02724699 -0.014598825 -0.067844875 0.14788783
0.004262003 0.07241556 -0.00062632863 -0.0020899877 0.015031252 -0.020737076 0.011586805 0.0322694
-0.01913383 0.06678873 0.12986423 0.06197665 0.005430233 -0.06637659 -0.009030527 0.10472333
0.16746104 0.16287258 0.013262563 -0.12625414 -0.07650385 -0.099288456 0.06898718 -0.042869963
-0.12141135 -0.07018176 0.0054321936 -0.15533508 0.059475336 -0.07560497 0.061853144 0.011202466
-0.030323913 0.05028785 0.044265155 -0.006114564 -0.07628773 -0.092222214 0.0066923583 -0.046427436
-0.09605916 0.0018154002 0.17080298 0.10346575 -0.02007736 0.0056580114 -0.037985824 0.021808203
-0.05256372 -0.032580897 -0.051668804 -0.18241379 -0.011284522 0.043495763 0.0061372723 0.004910386
-0.103097394 -0.05788382 -0.024223609 -0.029127736 0.06096613 -0.04309108 0.1144543 -0.05966695
-0.03544523 0.092125066 -0.0033709635 -0.19575502 -0.0067365426 -0.023767795 0.19094549 -0.03793882
-0.008990148 0.05875829 -0.01971199 -0.2075851 -0.021347811 -0.1253618 -0.011080264 -0.031471677
0.023319699 -0.050783828 -0.046836175 0.0048830574 -0.019839903 0.0895844 -0.09743772 0.09880053
0.010459202 -0.038920503 0.049230944 -0.13351838 0.017913323 0.032613825 -0.08104549 -0.16940717
-0.020800794 -0.03916305 0.046376225 -0.15708749 -0.029375903 -0.23100194 0.15852335 0.03203201
0.1410586 -0.09002227 0.017335525 -0.06684602 0.055624414 0.14074142 0.17608513 -0.085467145
-0.22472423 0.20983861 -0.071946636 0.028293455 -0.08153771 -0.003930511 0.13045624 -0.079798475
0.0402127 0.014117275 -0.0356264 -0.15242828 0.09670469 -0.02843495 -0.12692288 0.097109795
-0.17949702 0.19297762 0.034993526 0.13489296 0.0029811421 -0.024970897 0.031541906 -0.05430504
-0.083876915 0.20534088 0.008502603 0.1116062 -0.021688875 -0.04091535 0.039854497 -0.03951216
-0.013561176 0.034990314 0.19841482 0.10503379 0.1497518 -0.04113125 0.09572433 -0.07015568
-0.1436396 0.09647294 -0.09460453 -0.18240722 0.07245168 0.12652029 0.06270461 -0.06466822
0.07266392 -0.09383289 -0.017582823 0.041230865 0.013971314 0.045172136 0.030639773 -0.046728343
-0.11417207 0.12779824 -0.012304797 -0.07394737 0.16081533 -0.04879445 -0.17700623 0.014313405
0.12333883 -0.06983117 0.16378623 -0.03449774 -0.07986565 0.029083129 -0.076823086 0.1522186
-0.056753416 0.05171661 0.14702678 -0.14922805 -0.012801395 0.02548213 0.04152427 0.0053409534
0.017916378 0.04484346 0.08869818 -0.06832654 0.031218665 -0.01430571 0.023194723 -0.031945195
-0.08633625 0.0038937214 0.11242327 -0.02302101 0.020978842 -0.21400267 -0.044634316 0.026785765
-0.044442344 0.029119747 0.08676078 0.26470074 -0.04728813 0.029626394 -0.03464391 0.040421497
0.028544761 0.07079896 0.08486766 0.10345869 0.08356371 -0.03353745 -0.06283709 0.14007576
-0.066159464 0.0801844 -0.07495161 0.04224965 0.15535809 0.027937612 -0.11687983 -0.21951054
