FYPprototype/results/ShortTest3/AIBalancing/AIBalancing-9770.onnx (onnx, 70746 bytes, 6 tensors)

action_model._discrete_distribution.branches.0.bias f4 [2]
00000000: 0000 0000 0000 0000
0.0 0.0

action_model._discrete_distribution.branches.0.weight f4 [2, 128]
00000000: c9fa 4b3b bf32 41bc 0543 2d3a 13ea 97bb
00000010: 77cd 7cbb 5bf0 a33b d0af a43c 9092 b1bb
00000020: 07cb 3fba e7e1 703c d639 99b9 a299 c53a
00000030: ee51 a4bb f1c3 0dbc d8cf 303a 5a3e 873a
00000040: 9bb2 8c3b 7b4e 7bba 5261 2f3c 5fa5 05bc
00000050: 3aba 53bc c4b7 93bb bab4 0f3c 20ec ff3b
00000060: 08b6 9bbb 571c 4bbb 10b5 80bb a7a7 9dbb
00000070: ff3e ed3a cdd3 64bc cb87 ffbb 4d28 2bbc
00000080: 3b03 d7ba 64c5 113c 0218 d739 32da 8ebc
00000090: 03e0 25b9 bf76 84bb f844 45bc 2b9b f2bb
000000a0: bf4f efba ba11 ee3b 695e 193a 2ea6 a9bc
000000b0: cd16 dbbb ad22 38bc b6a6 aebc e5f0 36bc
000000c0: bbc1 9dbb b581 2abc 0d6c a1bc d70a 4b3c
000000d0: 9357 59bc f6c5 9fbb 4f28 71bb 7b68 633c
000000e0: 6ced 2d3c ef5e 073c 5e3a 12bc 9d05 b8ba
000000f0: 7b04 d33b 8381 40bc f785 933c 4d5c 9ebb
00000100: 6223 883b 0a8f 3f3c 983e 5dba 5f75 123b
00000110: f23f 953a 7237 d03b 9fc5 0bbc d160 14b9
00000120: d51b 3c3c c093 98bc 10cb c7bb 9e1c 293b
00000130: 1508 2dbb 8763 c1bb 152d 1bbb b3b6 13bc
00000140: 0f1d 063b 8f60 80bb 411d 07bc 305f c63b
00000150: 3c32 b2bb 941d 25bc f5cd 57bc a0ef 57bc
00000160: 07a8 9c3b 52ec 1f3c e02f bc3c 0062 1c3a
00000170: 8f9a 38bc 8539 85ba ed59 d8bb c26a 473c
00000180: c772 803c c9f0 b13a a997 17bc d506 623c
00000190: 48fc 7cbb af72 adbc f181 2e3c cfd1 58bc
000001a0: 99e2 30bc 935b 333c da45 da3a e08b b5b9
000001b0: c21e 28bc 5381 58bb 5659 9fba 0b52 9f3b
000001c0: 532a ec3b da5f 0ebc 251a 803c 3a61 e33b
000001d0: 8a4e 783c 6a30 d93c 9328 83bc 7852 aebb
000001e0: 5196 a3bb ec8d 0cbc 63da 013c 9bf4 5d3b
000001f0: 40df e2bb 5b66 f938 982f 9239 4d38 573a
00000200: 1113 1b3c 37a6 5ebc 80d4 583c 0299 07bc
00000210: 3298 2dbc 261c b3bb 2a6f 33bb b01f f53b
00000220: afd4 023c fb55 23bb 4a4d 783b 686d 46bb
00000230: 8382 483b b39c 83bb 0d13 973b 50be ab3b
00000240: 568b 8ebc 3185 3bbb bf11 4d3c cc66 0ebc
00000250: 3d00 d939 651e f13b 803f 1d3b b681 013c
00000260: 00f9 503c e402 82ba c52b e63b bca3 453b
00000270: 62f5 373c ade5 73bc 5217 fe3b 9ffb a2bb
00000280: 9f8b 513b 6331 503c 4c6e 243c 1d7d 9abb
00000290: 3e67 103c d8e6 383c 93c8 06bc 0441 bdbb
000002a0: 4ae3 78bc 464f b23b cd7f 783c 087f 2b3b
000002b0: 4f5a ec3b 5638 813b 5357 7a3c 785d 593c
000002c0: fda4 5dbb 5bcc a1ba bf8e c13a 0c29 1c3b
000002d0: 7591 9f3b 943c 3f3c b250 67bb 25d7 23bc
000002e0: 8b1e e63b 97fa 27bc 85f6 5cbb 7313 363c
000002f0: 7bb9 3cbc ba7a 4eba eb67 81ba ab02 bfba
00000300: 76a3 2a3b 89a7 17ba 037a 9639 d8cb 053b
00000310: f2df edbb 8880 f33b 4671 9ebb 2b93 2dbc
00000320: 058c f0bb 9ba6 dd3b 9123 113c 51db c8bb
00000330: b720 613c fcfa 1a3c 7914 883b 7864 dcbb
00000340: 068d 8c3a bac1 1e3c 4ad0 533c 8079 753c
00000350: 80f7 34bc 157d 80bc 5235 a1bc 7535 6fbc
00000360: e2de cabb 9940 a73b 71c6 873b 2c8d 303b
00000370: 76e5 813c 8ad5 ccba 82b7 e9bb 29b6 3f3b
00000380: e87e 6d39 1a6c 573b 6b46 44bc 794f 283c
00000390: b2cf da3b 5a88 dd3a 1934 1939 ff83 5eb9
000003a0: 9727 9db9 7aec 853b b379 fa3b 621a 76ba
000003b0: 0302 8b3c b001 5d3c 8a0e 653b a818 6f3c
000003c0: b022 563c fbaa 78ba 10e1 f3ba 71f7 39bc
000003d0: 1084 913b 5528 f23b c746 ad3c 8f90 0bbb
000003e0: 02e8 dcbb 1807 773c cf0d af3a d551 09bc
000003f0: a976 05bc cfc1 55bb 0a9a 313b d3a2 2bbb
0.0031124821 -0.011791884 0.0006609413 -0.004636058 -0.0038574615 0.005003018 0.020103365 -0.005419083
-0.0007316325 0.014702297 -0.00029225525 0.0015075693 -0.0050146496 -0.008652673 0.00067448383 0.0010318265
0.0042937524 -0.00095865846 0.010704355 -0.008157103 -0.012922818 -0.0045079906 0.008771116 0.0078101307
-0.0047519244 -0.0030992234 -0.0039278343 -0.0048112455 0.0018100439 -0.013966513 -0.00779817 -0.01044662
-0.0016404161 0.008897159 0.00041025883 -0.017438028 -0.00015819077 -0.004042476 -0.012040369 -0.0074037514
-0.0018258019 0.0072652968 0.0005850555 -0.020709123 -0.0066860677 -0.011238736 -0.021319728 -0.011165832
-0.0048143542 -0.010406901 -0.019704843 0.012392721 -0.013265508 -0.0048758937 -0.0036797707 0.013879891
0.010615688 0.00826238 -0.008925049 -0.0014039759 0.006439743 -0.011749628 0.018008215 -0.0048327805
0.0041546086 0.011691818 -0.0008439808 0.002234779 0.0011386855 0.006354266 -0.008531003 -0.00014150447
0.011481245 -0.01862514 -0.006097205 0.002580441 -0.0026402522 -0.005901757 -0.0023677994 -0.009015727
0.0020464098 -0.0039177607 -0.008246721 0.0060538277 -0.0054381173 -0.010077853 -0.013171663 -0.01317969
0.0047807726 0.009760933 0.022972047 0.0005965531 -0.011267318 -0.0010164237 -0.006602517 0.012171449
0.01567973 0.0013575788 -0.009252467 0.013795574 -0.003860252 -0.02117285 0.010651098 -0.013233616
-0.010796213 0.010947126 0.0016652897 -0.00034627225 -0.0102612395 -0.0033036068 -0.0012157361 0.004862075
0.007207194 -0.008689845 0.015637467 0.0069390805 0.015155444 0.026512343 -0.016010558 -0.0053198896
-0.0049922843 -0.008578759 0.007925603 0.003386772 -0.006923586 0.000118923104 0.0002788275 0.00082099886
0.009464995 -0.013589433 0.013234258 -0.008276226 -0.010595368 -0.005466002 -0.0027379491 0.007480584
0.007985278 -0.0024923075 0.0037887865 -0.0030277614 0.003059537 -0.0040164827 0.0046104253 0.005241193
-0.017400425 -0.0028613324 0.012516438 -0.008691501 0.00041389643 0.0073583596 0.0023994148 0.007904461
0.012754679 -0.0009919074 0.0070242607 0.0030157408 0.011227937 -0.014886302 0.007754245 -0.004973843
0.003197409 0.012707087 0.010036062 -0.0047146217 0.008813677 0.011285506 -0.008226532 -0.0057755727
-0.015190909 0.005441579 0.015167189 0.0026168246 0.007212914 0.0039434833 0.015279609 0.013266914
-0.0033820265 -0.0012344228 0.0014767273 0.0023828177 0.0048696348 0.011672158 -0.00352959 -0.010000025
0.007022684 -0.010252616 -0.0033716273 0.0111130355 -0.011518831 -0.0007876564 -0.0009872889 -0.0014572939
0.0026037372 -0.00057851576 0.00028701135 0.002041569 -0.0072593624 0.0074310936 -0.0048352806 -0.01059417
-0.0073409104 0.0067642457 0.008858577 -0.00612966 0.01374071 0.009459253 0.004152831 -0.006725844
0.0010723181 0.009689743 0.012928078 0.014982581 -0.011045337 -0.015684644 -0.019678745 -0.0146001475
-0.0061911205 0.005104136 0.004143529 0.0026939614 0.015856486 -0.0015627604 -0.0071324715 0.0029252863
0.00022649358 0.003287083 -0.01197968 0.010272854 0.0066775912 0.0016901598 0.00014610625 -0.00021220742
-0.0002997487 0.004087028 0.007643902 -0.00093880866 0.016968733 0.013489172 0.0034951293 0.014593281
0.013069794 -0.00094859273 -0.0018606503 -0.011350499 0.004440792 0.007390062 0.021151913 -0.002129588
-0.0067415247 0.015077375 0.0013355556 -0.008381327 -0.008145967 -0.003261674 0.002709987 -0.002618958

network_body._body_endoder.seq_layers.0.bias f4 [128]
00000000: 0000 0000 0000 0000 0000 0000 0000 0000
00000010: 0000 0000 0000 0000 0000 0000 0000 0000
00000020: 0000 0000 0000 0000 0000 0000 0000 0000
00000030: 0000 0000 0000 0000 0000 0000 0000 0000
00000040: 0000 0000 0000 0000 0000 0000 0000 0000
00000050: 0000 0000 0000 0000 0000 0000 0000 0000
00000060: 0000 0000 0000 0000 0000 0000 0000 0000
00000070: 0000 0000 0000 0000 0000 0000 0000 0000
00000080: 0000 0000 0000 0000 0000 0000 0000 0000
00000090: 0000 0000 0000 0000 0000 0000 0000 0000
000000a0: 0000 0000 0000 0000 0000 0000 0000 0000
000000b0: 0000 0000 0000 0000 0000 0000 0000 0000
000000c0: 0000 0000 0000 0000 0000 0000 0000 0000
000000d0: 0000 0000 0000 0000 0000 0000 0000 0000
000000e0: 0000 0000 0000 0000 0000 0000 0000 0000
000000f0: 0000 0000 0000 0000 0000 0000 0000 0000
00000100: 0000 0000 0000 0000 0000 0000 0000 0000
00000110: 0000 0000 0000 0000 0000 0000 0000 0000
00000120: 0000 0000 0000 0000 0000 0000 0000 0000
00000130: 0000 0000 0000 0000 0000 0000 0000 0000
00000140: 0000 0000 0000 0000 0000 0000 0000 0000
00000150: 0000 0000 0000 0000 0000 0000 0000 0000
00000160: 0000 0000 0000 0000 0000 0000 0000 0000
00000170: 0000 0000 0000 0000 0000 0000 0000 0000
00000180: 0000 0000 0000 0000 0000 0000 0000 0000
00000190: 0000 0000 0000 0000 0000 0000 0000 0000
000001a0: 0000 0000 0000 0000 0000 0000 0000 0000
000001b0: 0000 0000 0000 0000 0000 0000 0000 0000
000001c0: 0000 0000 0000 0000 0000 0000 0000 0000
000001d0: 0000 0000 0000 0000 0000 0000 0000 0000
000001e0: 0000 0000 0000 0000 0000 0000 0000 0000
000001f0: 0000 0000 0000 0000 0000 0000 0000 0000
0.0 0.0 0.0 0.0 0.0 0.0 0.0 0.0
0.0 0.0 0.0 0.0 0.0 0.0 0.0 0.0
0.0 0.0 0.0 0.0 0.0 0.0 0.0 0.0
0.0 0.0 0.0 0.0 0.0 0.0 0.0 0.0
0.0 0.0 0.0 0.0 0.0 0.0 0.0 0.0
0.0 0.0 0.0 0.0 0.0 0.0 0.0 0.0
0.0 0.0 0.0 0.0 0.0 0.0 0.0 0.0
0.0 0.0 0.0 0.0 0.0 0.0 0.0 0.0
0.0 0.0 0.0 0.0 0.0 0.0 0.0 0.0
0.0 0.0 0.0 0.0 0.0 0.0 0.0 0.0
0.0 0.0 0.0 0.0 0.0 0.0 0.0 0.0
0.0 0.0 0.0 0.0 0.0 0.0 0.0 0.0
0.0 0.0 0.0 0.0 0.0 0.0 0.0 0.0
0.0 0.0 0.0 0.0 0.0 0.0 0.0 0.0
0.0 0.0 0.0 0.0 0.0 0.0 0.0 0.0
0.0 0.0 0.0 0.0 0.0 0.0 0.0 0.0

network_body._body_endoder.seq_layers.0.weight f4 [128, 2]
00000000: 95b5 323f f7df 49be 7828 7fbe a2c2 3f3f
00000010: 3ab9 173f 6aec fdbd 324c 063f 2e7e a73f
00000020: 1d94 2ebf c49b c63e e8e3 14bf 4050 f3bd
00000030: 5e84 9e3d 2eab 28bf d159 a8be 6ce5 a4bf
00000040: 0064 89bf fbc2 19be 3ebc eabe 76ef 893f
00000050: fe11 51bf b076 003f 1c02 11bf e05c acbe
00000060: fe0e 703d 4b6a e0be fad6 a83f 28f6 933c
00000070: bab5 da3d df31 293f 0431 a6be 6a84 b0be
00000080: 5ffc abbd 1ac1 d1bf eaf6 a2bf f342 523f
00000090: 1bc7 08bf ad5b 903e c527 dcbe b123 b23f
000000a0: 3673 463e 5244 0c3f 3cc7 20bf b0a3 15bf
000000b0: a2a9 6dbe af9a 89bf 70d8 e5be 48a7 d43d
000000c0: 76fd 90bf 0de8 36be 634e 5b3d bc3f 0ebf
000000d0: 9d48 8cbe 30d2 8bbe 6f95 7dbf 6ce4 84bf
000000e0: d69d a63e dbae bbbd 6a2f 3a3f b085 5ebf
000000f0: 9577 eebe 41fc 02be 35e1 c83e 0caa 22bf
00000100: 1363 383e a53f 483d 5c2c 883b 52ce 84bd
00000110: 09a0 7bbd 78d0 5a3e 519b bb3f 56c4 863f
00000120: 85d9 fdbf d804 a2be 49bc 81bf ff19 efbe
00000130: 8fcd 60bf 1f45 3fbf 6233 b8bf 3275 8dbf
00000140: 35ad a4be d597 6cbe 6964 8dbe b85c 603f
00000150: 238a b2bc 3258 dcbe 2b27 903e 4f99 853e
00000160: 6b4a 8bbe 4ae2 53bf 110e 08bf f949 69bf
00000170: 58e2 8fbe f295 f03e 20cf aabe 10bc cf3e
00000180: 9b5b 1b3f 2f9b 69bf 2ae1 233d 39bc 043f
00000190: e477 953f aa8b 9dbe fbec 48bf 74de c43f
000001a0: 2dde 893f 54ff 113f 8e35 efbe 3ac2 2c3f
000001b0: 3e26 c63e 53f9 c03e ae2e 1a3f 31d1 5abf
000001c0: 9a34 57be 9076 5e3e b3bf 29bf 9e06 f1bc
000001d0: ce7d 3ebf e446 e63f 88cc acbe 680f f53e
000001e0: 88a1 143f 09c4 d1be f50c 02bf 89d2 2a3e
000001f0: 15f1 aa3e 1e42 513f f85a f43e cdba 69be
00000200: 25a9 043d de40 05bf 3215 7e3f d913 2e3f
00000210: ee61 1ebf 220c 1ebf 91cd 52bf 5b7b 41be
00000220: a820 563e 3761 473f d1f1 bf3e be4c b4be
00000230: 15a9 76bf 2f03 2b3e fde3 533f a4ba 513e
00000240: 41ed dbbe a01d 03be 1030 c33e 806d 8dbe
00000250: becf e7be 29a1 81bf 2c71 423f fb04 0f3d
00000260: e387 e2be ff3c bdbe 8e91 61bf 9bfe 2b3f
00000270: 97a8 0bbf 2d9c ac3d f6da 2dbe b0fe 82be
00000280: 6720 14bf f929 ae3e 10ff 8d3f aba7 8b3f
00000290: 8ebe 893e 28f4 e03e 4e79 bebe ffd3 8bbf
000002a0: 66b7 203e 42a3 3abf 7bd0 a53e cce8 21bf
000002b0: c4fb 30be 2204 28bf 14fd 8f3f 7643 efbd
000002c0: 9a31 4ebe 95ec 9bbf 2cbe 953f cadd b53d
000002d0: 7e2a d93d 070a e63e eae5 243f e482 5c3f
000002e0: 4b33 8b3f 91f8 65be 9703 a83f 4fcf 573e
000002f0: 2291 0fbf 0034 d23e d1a4 0cbf fe39 0abd
00000300: 3cdf 963e f811 08bf 2e34 89be cef5 6dbe
00000310: 0f0c f63e fbb5 2a3f c8e1 253f 88ae 1fbf
00000320: e5c4 42bf 8ca0 80bc 82e4 693f 97f7 c93f
00000330: c762 853e d79f 68bf fcf1 2f3f 2a35 23be
00000340: 3d35 d3be 2477 563f 4e3a 90bf 4258 64bf
00000350: bed0 22bc 5a63 82bd 8c2f 30be 4cc5 b1bf
00000360: 302d 9d3f d7bc 423f 2c86 c33f 4f9f 64bf
00000370: f91e d7bf 4843 0dbf f7e8 f3be 4456 74bf
00000380: 1557 21be 169f c2be 1bf1 743f 296c 15bf
00000390: c2ea 43bf 6fb5 823e d579 503e 69af 863e
000003a0: 21b0 0fbf 405c 53be f55b a43e bbcb 983c
000003b0: 75a2 aabf bd40 72bf 0ba9 e2be 2e1d b7bf
000003c0: 01d9 903f 279f 6dbc 71c0 d63f 1cbb 403f
000003d0: 1fb0 bdbd 44f4 99bf c1c6 39bf 6a49 b9be
000003e0: ec1d 52be ecae 83bd 2e92 0f3f 5917 39bf
000003f0: 6022 aebe 8302 7fbf e94a cdbd cc0b 8ebe
0.6980832 -0.19714342 -0.24917781 0.7490636 0.5926701 -0.12398608 0.52460015 1.3085382
-0.6819475 0.38790715 -0.5816026 -0.11880541 0.07740091 -0.658862 -0.32881024 -1.2882514
-1.0733643 -0.15015785 -0.45846742 1.0776203 -0.8166808 0.501811 -0.56643844 -0.33664608
0.058608048 -0.43831095 1.3190606 0.018061712 0.10679193 0.6609172 -0.3245927 -0.34476024
-0.08397745 -1.6387055 -1.2731602 0.82133406 -0.5342881 0.28194943 -0.42999092 1.3917142
0.19379887 0.5479175 -0.6280401 -0.5845289 -0.23209241 -1.0750331 -0.4489169 0.10383469
-1.132735 -0.17861958 0.053541552 -0.55566 -0.2739915 -0.27308798 -0.9905614 -1.0382209
0.32542294 -0.091642104 0.727286 -0.8692274 -0.4657561 -0.1279154 0.3923432 -0.6354072
0.18006544 0.04888882 0.0041556787 -0.06484665 -0.06143192 0.21368587 1.4656774 1.0528667
-1.9832007 -0.3164432 -1.0135585 -0.4669952 -0.8781366 -0.74714845 -1.4390681 -1.105139
-0.32163396 -0.23104794 -0.2761567 0.8764148 -0.021794384 -0.43036038 0.28154883 0.26093528
-0.27205214 -0.82767165 -0.53146464 -0.911285 -0.28102374 0.469894 -0.3336115 0.40573168
0.60686654 -0.91252416 0.040009655 0.51849705 1.1677213 -0.30770618 -0.78486603 1.5380387
1.0770928 0.57030225 -0.46720546 0.67483866 0.3870105 0.3769022 0.6022748 -0.8547545
-0.2101616 0.21724916 -0.66308135 -0.0294221 -0.7441071 1.7990384 -0.33749795 0.47863317
0.5805898 -0.40969875 -0.5080102 0.16681875 0.33387056 0.8174151 0.47725654 -0.22825165
0.03238787 -0.52052104 0.9925109 0.67999035 -0.6186818 -0.61737263 -0.8234492 -0.18894713
0.20910895 0.77882713 0.3748918 -0.352148 -0.9635175 0.16700433 0.8276976 0.20481354
-0.42954448 -0.1280427 0.38122606 -0.27622604 -0.45275682 -1.0127307 0.75953937 0.03491686
-0.44244298 -0.369606 -0.88112724 0.6718537 -0.5455412 0.08428226 -0.16978058 -0.25584936
-0.5786194 0.34016398 1.1093464 1.0910543 0.26903194 0.43936276 -0.37201923 -1.0924071
0.15694961 -0.7290536 0.3238562 -0.63245845 -0.17283541 -0.65631306 1.1249108 -0.11682789
-0.20136109 -1.2181574 1.1698661 0.088801935 0.10603808 0.44929525 0.6441332 0.86137223
1.0875028 -0.22458102 1.3126096 0.21075176 -0.5608083 0.41055298 -0.5493899 -0.033746712
0.2946719 -0.5315242 -0.26797622 -0.23238298 0.48056075 0.6668393 0.6479764 -0.6237569
-0.7608169 -0.015701555 0.913643 1.5778683 0.26051924 -0.90868896 0.68728614 -0.15938249
-0.41251555 0.83775544 -1.1267793 -0.8919717 -0.009937463 -0.06366606 -0.17205638 -1.3888335
1.2279415 0.76069397 1.5275321 -0.89305586 -1.6806327 -0.5518079 -0.47638676 -0.9544413
-0.15755875 -0.38011998 0.956804 -0.58368164 -0.76530087 0.25529048 0.20358975 0.26305702
-0.56128126 -0.2064066 0.32101408 0.018651834 -1.3330828 -0.9463003 -0.44269595 -1.430578
1.1316224 -0.014503277 1.6777478 0.75285506 -0.09262108 -1.2027669 -0.725689 -0.36188823
-0.20519227 -0.06429848 0.5608243 -0.7230125 -0.340106 -0.9961321 -0.100240536 -0.27743375

network_body._body_endoder.seq_layers.2.bias f4 [128]
00000000: 0000 0000 0000 0000 0000 0000 0000 0000
00000010: 0000 0000 0000 0000 0000 0000 0000 0000
00000020: 0000 0000 0000 0000 0000 0000 0000 0000
00000030: 0000 0000 0000 0000 0000 0000 0000 0000
00000040: 0000 0000 0000 0000 0000 0000 0000 0000
00000050: 0000 0000 0000 0000 0000 0000 0000 0000
00000060: 0000 0000 0000 0000 0000 0000 0000 0000
00000070: 0000 0000 0000 0000 0000 0000 0000 0000
00000080: 0000 0000 0000 0000 0000 0000 0000 0000
00000090: 0000 0000 0000 0000 0000 0000 0000 0000
000000a0: 0000 0000 0000 0000 0000 0000 0000 0000
000000b0: 0000 0000 0000 0000 0000 0000 0000 0000
000000c0: 0000 0000 0000 0000 0000 0000 0000 0000
000000d0: 0000 0000 0000 0000 0000 0000 0000 0000
000000e0: 0000 0000 0000 0000 0000 0000 0000 0000
000000f0: 0000 0000 0000 0000 0000 0000 0000 0000
00000100: 0000 0000 0000 0000 0000 0000 0000 0000
00000110: 0000 0000 0000 0000 0000 0000 0000 0000
00000120: 0000 0000 0000 0000 0000 0000 0000 0000
00000130: 0000 0000 0000 0000 0000 0000 0000 0000
00000140: 0000 0000 0000 0000 0000 0000 0000 0000
00000150: 0000 0000 0000 0000 0000 0000 0000 0000
00000160: 0000 0000 0000 0000 0000 0000 0000 0000
00000170: 0000 0000 0000 0000 0000 0000 0000 0000
00000180: 0000 0000 0000 0000 0000 0000 0000 0000
00000190: 0000 0000 0000 0000 0000 0000 0000 0000
000001a0: 0000 0000 0000 0000 0000 0000 0000 0000
000001b0: 0000 0000 0000 0000 0000 0000 0000 0000
000001c0: 0000 0000 0000 0000 0000 0000 0000 0000
000001d0: 0000 0000 0000 0000 0000 0000 0000 0000
000001e0: 0000 0000 0000 0000 0000 0000 0000 0000
000001f0: 0000 0000 0000 0000 0000 0000 0000 0000
0.0 0.0 0.0 0.0 0.0 0.0 0.0 0.0
0.0 0.0 0.0 0.0 0.0 0.0 0.0 0.0
0.0 0.0 0.0 0.0 0.0 0.0 0.0 0.0
0.0 0.0 0.0 0.0 0.0 0.0 0.0 0.0
0.0 0.0 0.0 0.0 0.0 0.0 0.0 0.0
0.0 0.0 0.0 0.0 0.0 0.0 0.0 0.0
0.0 0.0 0.0 0.0 0.0 0.0 0.0 0.0
0.0 0.0 0.0 0.0 0.0 0.0 0.0 0.0
0.0 0.0 0.0 0.0 0.0 0.0 0.0 0.0
0.0 0.0 0.0 0.0 0.0 0.0 0.0 0.0
0.0 0.0 0.0 0.0 0.0 0.0 0.0 0.0
0.0 0.0 0.0 0.0 0.0 0.0 0.0 0.0
0.0 0.0 0.0 0.0 0.0 0.0 0.0 0.0
0.0 0.0 0.0 0.0 0.0 0.0 0.0 0.0
0.0 0.0 0.0 0.0 0.0 0.0 0.0 0.0
0.0 0.0 0.0 0.0 0.0 0.0 0.0 0.0

network_body._body_endoder.seq_layers.2.weight f4 [128, 128]
00000000: a17c 3b3e a008 a53b e0b2 a3bd 9c65 81bc
00000010: 05ea f8bd f483 37bd c6d3 d1bc 7404 3d3c
00000020: c015 653e 799f 183d 1e92 5cbd 6b76 613d
00000030: 7949 873d a9d7 3ebe a336 e63d fc8e b53d
00000040: 1266 723e cfb6 debd 12bd 763b 71ca 733d
00000050: c909 b13c 565b 9bbd 456d 6bbb 07f3 b73c
00000060: ddf5 083e ab36 093d c327 093e bba7 afbd
00000070: 350e 063d 2a82 193e 355f 823d a4d8 2ebd
00000080: 4b75 053d 4638 1a3d d628 9b3d 7417 5abe
00000090: 94db 433d 296a 31bc 3eff 85bd aa0f 63bc
000000a0: fff2 8ebd f908 893d fe31 513d 7a85 56ba
000000b0: fda8 4dbe 0b77 77bd fb3d 173d 25ce a1bc
000000c0: 273d ff3d 62f3 c8bd 85f3 04bd 1110 693d
000000d0: bcb2 fa3d 55d1 37bd 2716 a73d d7d2 32bd
000000e0: 1b23 dcbd 4b09 e9bc d88d 32bd ff77 143e
000000f0: 06df 033d 7164 463b f49f dabc 1cfd 8b3c
00000100: e8af eebd 3b72 af3d 944b b4bd c456 8f3d
00000110: d3c3 1cbe c9e3 3dbc fdc7 efba 22a2 84bd
00000120: 14dd afbd 6506 40bd bfab c1bd 545f 343e
00000130: 3298 eaba 2ad3 b2bd cd98 5a3d 0ece 743d
00000140: 4b46 9ebd b0d3 fcbc 6da8 cf3b b3a3 c6bc
00000150: 8548 993c ea45 32bd be26 f93c 5f76 d1bd
00000160: 61cc 553d 6207 453e 622d f7bb e035 3dbe
00000170: 5d1f 4c3d 4280 023e efd1 5a3d ca4d 85bd
00000180: ff61 f23d 0dd3 b93c d569 eebd 3ce1 10be
00000190: 6db2 e3bc 5c4e 17be 64dc 44ba 47fb f13d
000001a0: 6f7a 1abe 6dbf 04be bb22 113d d62b 70bc
000001b0: d4ab e8bb f1d6 9cbd 5c4d 43be 00c2 a2bc
000001c0: 4ab9 a43d d5ea 93bb d312 abbd 8424 513d
000001d0: a842 3cbe 2029 063e 1112 113e 0cc0 a43d
000001e0: 9ae1 ae3d db7e 7c3c 2eb4 733d 6340 903d
000001f0: d029 a2bd 06f8 703c fb2b 11be b540 03bd
00000200: 0f12 79bd 894d 973d ac4f e93d 71a4 02bc
00000210: ba57 38bd 9b6d 17bc e453 95bd 7200 8a3d
00000220: 63d5 bfbc a0c8 81bd 938c ff3c 70cb 2c3e
00000230: 2b6b 68bd 150a ccbc 1a53 b33d 10ce fb3c
00000240: f652 c53c 5816 953c cec9 d63d fb7b a43b
00000250: 7af9 01be 5311 0a3e c45a d33d 06c0 efbd
00000260: 6c95 553d fc64 11bd b26b e43b e857 dbbd
00000270: 32da 46be 992f b83d e300 243d 7065 09bd
00000280: 04db 8abd bedb fc3b 013d 2a3e c2b5 903d
00000290: a6b9 5e3d d9e6 d93d 0e45 cf39 d2bc 98bd
000002a0: 8bea 39bd e312 363e d06e e0bd 6784 f5bb
000002b0: 8ec4 a13d df88 a7bb c93f ed3b 0d23 1cbe
000002c0: db61 323d 05b5 4a3d f574 8abc 6ce1 eebd
000002d0: efff 94bc 6172 6abc 97c2 853d 7ba4 4dbd
000002e0: 9459 d53d 46f7 013e 936d c7bc 69ce b73b
000002f0: 6771 babb b02c 3fbe 01d1 703d fac0 07be
00000300: 743a b6bc 288e b53d 40c8 793d 8fbe 073c
00000310: 0ac7 dc3c 4fb3 6a3e 4899 9c3d d177 463c
00000320: 7f5e 333d cebd 893d 987b 083e 4f0d ca3d
00000330: 140f 4d3b 2cce 003e 36d4 7a3e 6e3b 6c3c
00000340: d4e8 b23d 8c4b d5bd d1fe 0c3e 1f27 e73c
00000350: d7fc 303d 18f7 22bd 0305 3cbd 3b91 d5bd
00000360: dd51 c73c 0714 303e 79f3 103d 3a97 13be
00000370: 917a 2ebe da52 1c3e 96cd 8c3d a2bb e1bd
00000380: 55f6 bbbd b4d5 ecbd 7ec7 913c 3239 28bb
00000390: 02d0 82bc 1caa 393e 1da1 c1bc ef15 c43d
000003a0: a5ad b43b a616 f7bd 2ec9 c5bd 07bf bfbc
000003b0: c63c 2dbd 26ee 063e e13b 85bd b794 b8bc
000003c0: c03a b83c 6c76 a03b daeb b53d 62dd a33c
000003d0: cd79 9b3d 4cde 923d b6af b73d 4273 f53d
000003e0: fdca 243e ae23 5f3a 9571 56bd 844f 8d3d
000003f0: e1ce acbd d6da 30bb b6ff 293d 2e22 623d
0.18309261 0.0050364286 -0.07993102 -0.015795521 -0.12154011 -0.044803575 -0.025613677 0.011536706
0.22371578 0.03726146 -0.053850286 0.055044573 0.06605811 -0.18636955 0.1124089 0.08865163
0.23671749 -0.10874712 0.0037649316 0.059519235 0.021611111 -0.0758578 -0.0035923284 0.022454752
0.1337504 0.0334994 0.13394074 -0.08576914 0.032728393 0.1499106 0.063658156 -0.042687073
0.032582562 0.037651323 0.07576148 -0.21298009 0.047816828 -0.010828533 -0.06542824 -0.013858715
-0.069799416 0.066911645 0.051073067 -0.00081833417 -0.20083995 -0.060416263 0.036924344 -0.019751618
0.12462836 -0.098120466 -0.0324588 0.056900088 0.12241122 -0.04487737 0.08158522 -0.043658104
-0.10748883 -0.028446814 -0.043592304 0.144989 0.032195114 0.003027227 -0.0266876 0.017088465
-0.11654645 0.085667096 -0.08803478 0.06998971 -0.15309076 -0.011589953 -0.0018293854 -0.06476237
-0.08587089 -0.0468811 -0.09456586 0.1761449 -0.0017898141 -0.087316826 0.05336838 0.05976682
-0.07728251 -0.03086266 0.0063372166 -0.02424798 0.018711338 -0.043523706 0.030413982 -0.102276556
0.052196864 0.19241098 -0.007543252 -0.18477583 0.049834598 0.12744239 0.053422865 -0.06508978
0.118350975 0.022683645 -0.116412796 -0.1414842 -0.027795041 -0.14775985 -0.00075096474 0.118155055
-0.15085767 -0.12963648 0.035433512 -0.014658889 -0.0071005616 -0.07658184 -0.19072479 -0.019867897
0.080431536 -0.004514078 -0.083532 0.051060215 -0.18384802 0.13101625 0.14167048 0.080444425
0.08539124 0.015411104 0.059498005 0.07043531 -0.07918131 0.014707571 -0.14176933 -0.03204413
-0.060808238 0.073878355 0.11392149 -0.007973776 -0.045005538 -0.009242441 -0.072913915 0.06738366
-0.02341718 -0.06337094 0.03119496 0.1687448 -0.05674283 -0.024907151 0.08756085 0.030737907
0.02408741 0.01819913 0.1048771 0.0050196624 -0.12692824 0.13483171 0.103200465 -0.117065474
0.052144453 -0.035496697 0.006970846 -0.10710126 -0.19419172 0.089934535 0.04003991 -0.033544004
-0.06780055 0.007716625 0.16624834 0.070659176 0.054376267 0.10639734 0.00039533566 -0.074578896
-0.045389693 0.17780642 -0.10958636 -0.00749259 0.07898818 -0.005112752 0.00724027 -0.15247746
0.043550353 0.04948904 -0.016901473 -0.116640896 -0.018188445 -0.014309497 0.06531256 -0.05020569
0.10417476 0.12691984 -0.024344241 0.005609323 -0.005689788 -0.1866939 0.05879307 -0.13257208
-0.02224467 0.08865005 0.06098199 0.008285179 0.026950378 0.22919963 0.076464236 0.012113527
0.04379129 0.067256555 0.13328397 0.0986582 0.0031289505 0.12578648 0.24495015 0.014418466
0.08735815 -0.104148 0.1376908 0.028216897 0.043209877 -0.03978643 -0.045903217 -0.10428091
0.024331028 0.1719514 0.035388444 -0.14413157 -0.17038943 0.1526598 0.0687515 -0.11022116
-0.091778435 -0.11564198 0.01779532 -0.0025668857 -0.015968326 0.18131298 -0.023636395 0.09574496
0.005513864 -0.12064867 -0.096575126 -0.023406519 -0.042294286 0.13176784 -0.065055616 -0.02253185
0.022488952 0.0048969295 0.08882876 0.020003024 0.07591591 0.07171306 0.08969061 0.11984874
0.16093059 0.00085120916 -0.052354414 0.06899932 -0.084378965 -0.0026985905 0.04150363 0.055208378
