FYPprototype/results/ShortTest3/AIBalancing/AIBalancing-499987.onnx (onnx, 70746 bytes, 6 tensors)

action_model._discrete_distribution.branches.0.bias f4 [2]
0	0xba9a187e	-0.0011756567
1	0x3a9a1878	0.001175656

action_model._discrete_distribution.branches.0.weight f4 [2, 128]
0	0xbb85f88e	-0.004088468
1	0xbc686672	-0.014184581
2	0xbbe9cf0d	-0.007135278
3	0xbb8609f4	-0.004090542
4	0xbc3258c7	-0.010885424
5	0x3bc75926	0.0060836254
6	0x3c328732	0.010896491
7	0xba1609f6	-0.000572353
8	0x3b2aa458	0.0026037898
9	0xbc6ea907	-0.014566666
10	0xbb13b12f	-0.002253603
11	0xbc1cca00	-0.009569645
12	0xbc36024f	-0.011108949
13	0xbc904202	-0.0176096
14	0xbbb22cb1	-0.0054374565
15	0xbc545122	-0.012958797
16	0xbbc9630c	-0.0061458405
17	0xbbf098a3	-0.0073424145
18	0x3a796cd7	0.00095148146
19	0x3c095f31	0.008384512
20	0xbca15c9d	-0.019697482
21	0x3c12dc02	0.008963587
22	0xbb0dfd0a	-0.0021665716
23	0xbc14fc64	-0.009093378
24	0x3b9a8afe	0.004716276
25	0xba36b172	-0.00069691904
26	0xbc8c43b4	-0.017122127
27	0x3c48ec24	0.012263332
28	0x3c793922	0.015211375
29	0xbc1a3b95	-0.0094136195
30	0xbbc97f72	-0.006149226
31	0xbc11c86a	-0.00889788
32	0x3bf8ece5	0.0075965994
33	0x383bf9b8	4.4816843e-05
34	0xbba6e422	-0.0050931135
35	0x3a31cc03	0.0006782414
36	0xbb31850e	-0.0027087363
37	0xbb88e88a	-0.0041781114
38	0x3b8edff4	0.0043601934
39	0xbc427225	-0.0118680345
40	0x3b8cabb9	0.004292932
41	0xbba481aa	-0.00502034
42	0x3a2d6acc	0.000661534
43	0x3b496b0e	0.0030733976
44	0xbc8ced86	-0.017203104
45	0xbbeb0202	-0.00717187
46	0x3c7e8766	0.015535211
47	0xbb68011d	-0.0035401054
48	0xb7e0b36c	-2.678643e-05
49	0x3b8bdede	0.004268511
50	0x3bc0de40	0.0058858693
51	0x3ba5ee68	0.0050638206
52	0xbbd114bb	-0.006380645
53	0x3bdefabc	0.006804792
54	0xbafb1172	-0.0019154979
55	0xba7e7a5b	-0.00097075634
56	0xbbe8ece9	-0.00710832
57	0x3c21a23c	0.00986534
58	0x39d4f767	0.0004062012
59	0x3ae58ef2	0.0017513914
60	0x3ba80728	0.005127806
61	0x3c09e3d6	0.008416137
62	0xbbbe2afe	-0.005803465
63	0xba41ccfa	-0.00073929096
64	0xbc4d481a	-0.012529397
65	0x3ab1221f	0.0013514197
66	0xba98b475	-0.001165046
67	0x3c7452e6	0.014912343
68	0x3c1b7919	0.009489321
69	0xbc8b5cbf	-0.017011998
70	0xbbf2fda5	-0.0074154907
71	0x3c07a54b	0.008279155
72	0x3c872461	0.016496839
73	0xb8c79173	-9.5161515e-05
74	0xbab710e1	-0.0013966822
75	0xbbad20b6	-0.0052834405
76	0x3c5adcf9	0.013358348
77	0xbac7bc8f	-0.001523869
78	0xbbd1283d	-0.0063829706
79	0x3b769c9b	0.0037629965
80	0x3b3f7efa	0.002921997
81	0xbb491473	-0.0030682355
82	0xbbcb80ce	-0.006210423
83	0x3bebdd3e	0.007198005
84	0x374de7a6	1.2272887e-05
85	0xbbadd8ed	-0.0053054006
86	0xbbf3ba3d	-0.007437973
87	0xbbd8502a	-0.006601353
88	0x3bca0f25	0.006166356
89	0xbb4ab747	-0.0030931996
90	0xbc3d38b4	-0.011549164
91	0x3b4300ff	0.0029755232
92	0x3c56dcf1	0.0131142
93	0x3c842829	0.016132431
94	0xbb1b9601	-0.0023740532
95	0x3c656a0b	0.014002333
96	0x3aad2d1d	0.0013212297
97	0x3c35f1f2	0.011105048
98	0x3a09ad2b	0.00052519393
99	0x3b6d2ccf	0.0036190038
100	0x3c68d6ad	0.014211339
101	0xb7c479d4	-2.3421751e-05
102	0x3b586661	0.0033020007
103	0x3c753d0f	0.014968171
104	0x3bf80931	0.007569455
105	0xbb98029d	-0.0046389834
106	0xbb852990	-0.0040637925
107	0x3afe9e9a	0.0019425929
108	0x3b60a370	0.0034277104
109	0x3b9b7bb8	0.004744973
110	0xbc07ece5	-0.008296226
111	0xbbd93da0	-0.0066296607
112	0xbb2bcd02	-0.0026214723
113	0x3bc501c9	0.0060121757
114	0xbad088ca	-0.0015909907
115	0x3bd96e30	0.00663545
116	0xbbbe7142	-0.005811841
117	0x3bc874c2	0.0061174342
118	0xbc0686ae	-0.008210821
119	0xbc4cc48b	-0.012498031
120	0x3c6d5d3f	0.014487564
121	0xbc11d949	-0.0089019025
122	0xbb8f243d	-0.0043683336
123	0xba4585b7	-0.00075348787
124	0x3c4b2865	0.0123997675
125	0x3be72948	0.0070544817
126	0x3a8fb2ba	0.0010963299
127	0x3c2fff68	0.010742046
128	0x3c4077bc	0.011747297
129	0xbc680b6c	-0.014162879
130	0x3c24272d	0.010019106
131	0xbc8567d5	-0.016284863
132	0x3b0ed2be	0.0021793093
133	0xbb7f5724	-0.0038961852
134	0xbc381486	-0.011235362
135	0xbaa460d7	-0.0012541068
136	0x3b58eb86	0.0033099367
137	0xbb51a01b	-0.00319863
138	0xbc51a2d5	-0.01279517
139	0x3bf8eb43	0.0075964048
140	0x3c832cff	0.016012667
141	0xbbf628df	-0.0075121964
142	0x3b267ca7	0.0025403888
143	0xbbbb7900	-0.0057212114
144	0xbbb42a42	-0.0054982016
145	0x3b8f86d0	0.0043800846
146	0x3a1a3467	0.00058824423
147	0xbc6f282b	-0.014596979
148	0xbc99086d	-0.018680776
149	0xba2391ee	-0.0006239702
150	0x3c42b683	0.0118843345
151	0x3b85b5ef	0.004080526
152	0xbb18b3a5	-0.0023300436
153	0xba75bde4	-0.0009374304
154	0xbc0b4349	-0.008499929
155	0x3b913dc8	0.0044324137
156	0xbb9ec0ad	-0.004844746
157	0xbc089c6e	-0.008338077
158	0xbbf910e1	-0.007600889
159	0x3c1fde38	0.009757571
160	0x3bf71411	0.007540234
161	0xbbe60bf6	-0.007020469
162	0xbc041082	-0.008060576
163	0x3a81d11b	0.0009904237
164	0x3a806e0c	0.0009798422
165	0xbc03ea3a	-0.008051449
166	0xbc5ad88d	-0.013357294
167	0x3b66f5bc	0.0035241684
168	0xbaec3b8d	-0.0018023119
169	0xbc2aca2e	-0.01042418
170	0x3a93626e	0.0011244544
171	0x3bc052eb	0.0058692596
172	0x3bf8613b	0.00757995
173	0xbc54a94b	-0.012979816
174	0xbc163fc3	-0.009170475
175	0x3bb4f86d	0.0055227787
176	0xbcbd4784	-0.02310539
177	0x3a1b8e69	0.00059340015
178	0x37f2998e	2.8920153e-05
179	0x3be20d39	0.006898549
180	0x3b425294	0.0029651271
181	0xbc3a719e	-0.0113796275
182	0x3c4b0dee	0.012393458
183	0x3aabf8fd	0.0013120469
184	0x3c517711	0.012784735
185	0xbb6625a1	-0.0035117643
186	0x3aadc856	0.0013258557
187	0xbb862be8	-0.0040945895
188	0x3ba40f3e	0.0050067
189	0xb908ec41	-0.00013057982
190	0xbc922644	-0.017840512
191	0xba2192e0	-0.00061635487
192	0x3c80ef54	0.01573912
193	0x3c9b4cb6	0.018957477
194	0x3bc20fa6	0.0059222756
195	0x3c305b88	0.01076401
196	0x3bfa5025	0.0076389485
197	0x3c574e2e	0.013141198
198	0x3b3f00e7	0.0029144825
199	0x3b80c4a7	0.003929693
200	0xbc1d2ff6	-0.009593954
201	0x3b07917e	0.0020686085
202	0xbba8e72f	-0.0051545124
203	0xbb625d92	-0.0034540636
204	0x3ac9f451	0.0015407895
205	0xbb90d163	-0.004419492
206	0xbaf6ad5a	-0.0018819973
207	0xbc643356	-0.013928255
208	0xbb3c412b	-0.0028725367
209	0x3c86a3ce	0.01643553
210	0xbc37d23d	-0.011219558
211	0xbaea5786	-0.0017878867
212	0xbb94da8c	-0.0045426544
213	0x3c165103	0.009174588
214	0xbb8c2b3b	-0.0042776144
215	0xbbdc906a	-0.0067310827
216	0xbb9bddc9	-0.0047566635
217	0xbb409a8d	-0.0029388994
218	0xbb1c878a	-0.0023884499
219	0x3b38e99e	0.0028215419
220	0x3ca5519a	0.020180512
221	0x3b2288c2	0.0024800752
222	0x3be77fa0	0.0070647746
223	0xba908017	-0.0011024502
224	0xbbaaf459	-0.005217117
225	0x3c46f7ca	0.012144038
226	0x3bc6be7d	0.0060651884
227	0x3c54c1fd	0.012985704
228	0x3c0bfbf3	0.008543956
229	0x3adcb2f2	0.0016837998
230	0x3c6a3e7e	0.014297126
231	0x3bc24c34	0.0059294943
232	0x3bf9810a	0.0076142596
233	0x3c627ddf	0.013823955
234	0x3c57daa2	0.013174685
235	0xbb3132e8	-0.00270384
236	0xbc0d9895	-0.008642335
237	0xbc3e7c78	-0.011626355
238	0xbb9d8d66	-0.004808116
239	0xbb918063	-0.0044403537
240	0xbb36ae9f	-0.0027875078
241	0xbb37401f	-0.0027961803
242	0x3afc8129	0.0019264567
243	0x3ba10456	0.004913847
244	0xbaae5ea9	-0.0013303357
245	0x3c354d89	0.011065849
246	0xbc0ae9c6	-0.0084785875
247	0xbc326096	-0.010887286
248	0x3b17eefa	0.0023183213
249	0x3c292eb6	0.010326078
250	0xbb93b101	-0.0045071845
251	0x39edb39d	0.00045337985
252	0x3c58ff07	0.013244397
253	0x3a922498	0.0011149822
254	0x3c8f05fd	0.01745891
255	0x3bbe16ca	0.0058010565

network_body._body_endoder.seq_layers.0.bias f4 [128]
0	0xbb0a150b	-0.0021069671
1	0xba51c623	-0.0008002242
2	0xbb1bd493	-0.0023777827
3	0xbae7e9cb	-0.0017693577
4	0xb9b95d32	-0.00035355386
5	0x39f1fecd	0.00046156943
6	0x3aeb7289	0.0017963211
7	0xb9dde93a	-0.00042326172
8	0x3bb5f906	0.0055533675
9	0xb91e0959	-0.00015071536
10	0x3a22d74b	0.0006211891
11	0xbc1dfb42	-0.009642424
12	0xbc0ba24a	-0.008522579
13	0x3c031d37	0.008002571
14	0xbab71573	-0.0013968184
15	0x3a235e05	0.00062319665
16	0xbafc4418	-0.0019246368
17	0x39acb884	0.0003294387
18	0x3a519602	0.000799507
19	0xbb36c646	-0.0027889176
20	0x3bcd0b06	0.0062574176
21	0xba0ede29	-0.00054499746
22	0xbb697d56	-0.0035627685
23	0xbb163b3c	-0.002292349
24	0x3a7b1b56	0.00095789635
25	0xb8f6fdb5	-0.00011777451
26	0x3a87fa52	0.0010374284
27	0xbc1e5b5a	-0.009665335
28	0x3a7ca6e6	0.0009637907
29	0xba0affd2	-0.00053024024
30	0x3b7dfed2	0.003875662
31	0xbb000320	-0.0019533113
32	0x3a3dfae9	0.00072471664
33	0xb94744e5	-0.00019003784
34	0x3b00fc3f	0.00196816
35	0x3b7d5ca5	0.0038659957
36	0xb9af9b25	-0.00033494193
37	0xbad44009	-0.00161934
38	0x3a158e6e	0.00057051226
39	0xbb176962	-0.0023103585
40	0xbbd36258	-0.0064509325
41	0x3aa626d8	0.0012676371
42	0xbb0d4800	-0.0021557808
43	0xbbbc8a4a	-0.00575379
44	0x3a1ae5f1	0.0005908898
45	0xbb12b3d8	-0.0022385027
46	0xb9d448fe	-0.00040490174
47	0xb99ac9e9	-0.00029523604
48	0xba944c1a	-0.0011314184
49	0xbbe0b288	-0.00685722
50	0xba16a122	-0.00057460566
51	0x3a8cf5d7	0.0010754418
52	0xba95aacb	-0.0011418698
53	0xbc0b2a02	-0.008493902
54	0xbbf054aa	-0.0073343115
55	0x3bf52abc	0.007481901
56	0xb9699213	-0.00022275028
57	0x3a1698ac	0.0005744796
58	0xbb195efa	-0.0023402558
59	0xba4401ec	-0.0007477093
60	0xbb67f349	-0.0035392812
61	0xbb010f52	-0.001969297
62	0x3adc52d8	0.0016809357
63	0xbb1ba9ee	-0.002375241
64	0xba908628	-0.001102631
65	0xbacd1105	-0.0015645331
66	0x3af875bf	0.001895599
67	0x3a12e360	0.00056033395
68	0x3bba08d9	0.0056773243
69	0xbab77460	-0.0013996474
70	0xbb45be65	-0.0030173298
71	0xbb19e00f	-0.0023479497
72	0xbbaf9a90	-0.0053590015
73	0x3a5536ea	0.0008133488
74	0xba5207ad	-0.0008012008
75	0x390ca9b9	0.00013414667
76	0x38a3df3d	7.814027e-05
77	0xbb09f92f	-0.0021053066
78	0xbbd86328	-0.006603617
79	0x3b402656	0.0029319725
80	0x390949cf	0.00013092834
81	0xb868f94d	-5.554529e-05
82	0xbbf656c6	-0.0075176684
83	0xbc320b1a	-0.010866905
84	0x3a1785b7	0.0005780118
85	0xbb00f744	-0.0019678632
86	0x3a39f539	0.0007093731
87	0x3a5a3fdd	0.00083255564
88	0xbadb64c1	-0.0016738401
89	0x3b88fb82	0.0041803727
90	0xbaf12e5a	-0.0018400655
91	0xba840c47	-0.001007446
92	0xbb8ac2be	-0.004234641
93	0xbad5bccc	-0.0016306876
94	0x399e1777	0.0003015359
95	0x3b8ac009	0.004234318
96	0xbbe6a208	-0.0070383586
97	0xba7323de	-0.0009275059
98	0xbc10c809	-0.008836755
99	0x39cb8ad0	0.000388226
100	0xba3f4565	-0.00072964124
101	0xbafefce6	-0.0019454032
102	0x3a4dbd4d	0.00078483374
103	0xbae2b61e	-0.0017296707
104	0x39855022	0.0002542744
105	0xba8f3eef	-0.001092879
106	0xbb21ecfd	-0.0024707906
107	0x3ab66612	0.0013915917
108	0xbc56967a	-0.0130974
109	0xbaa5ae79	-0.0012640498
110	0xbadb0a0d	-0.0016711369
111	0xba5bd3bb	-0.00083857373
112	0xba699a4f	-0.00089112384
113	0xbad08ccf	-0.0015911105
114	0x3c0148d1	0.007890896
115	0x371ce00d	9.3504905e-06
116	0xbb1906cc	-0.0023349999
117	0xbb398b3b	-0.0028311748
118	0xb91810fa	-0.00014502174
119	0xbafb3666	-0.0019165992
120	0xbacfc907	-0.0015852757
121	0x3ad55bbd	0.001627795
122	0xbb216dee	-0.0024632174
123	0xbb988331	-0.004654311
124	0xbb467154	-0.0030279951
125	0xbc131991	-0.0089782635
126	0xbaaaeb8f	-0.0013040173
127	0xbbed615f	-0.0072442736

network_body._body_endoder.seq_layers.0.weight f4 [128, 2]
0	0x3de50fe4	0.111846715
1	0x3eaad2d7	0.33363983
2	0xbe2be3dc	-0.1678614
3	0xbf8ae343	-1.0850605
4	0x3ed0c5f1	0.40776017
5	0x3f58fc2b	0.8475978
6	0xbe5b5958	-0.214208
7	0xbf3e3073	-0.7429268
8	0xbdabba44	-0.08385137
9	0x3eb08eec	0.3448404
10	0x3f649939	0.892963
11	0x3f917081	1.1362458
12	0xbe19542b	-0.14973514
13	0x3cdeba72	0.027188513
14	0xbf3543de	-0.7080668
15	0xbf3f5e4d	-0.74753267
16	0x3e4aafa2	0.19793561
17	0x3e318f6e	0.1733987
18	0x3e99f2ff	0.30068204
19	0x3f88e908	1.0696115
20	0xbf31328d	-0.6921776
21	0xbdc4d33b	-0.096106015
22	0x3f86618b	1.0498518
23	0x3f4b3602	0.79379284
24	0x3eec2009	0.4611819
25	0xbdcccece	-0.10000382
26	0xbf17f44f	-0.5935716
27	0xbeae88d0	-0.34088755
28	0x3d833eb5	0.06408445
29	0xbef3b4e6	-0.47598952
30	0xbf121599	-0.57064205
31	0x3f286766	0.65782773
32	0x3ec1eac6	0.3787443
33	0xbd812f7f	-0.06307887
34	0x3f02a2e1	0.51029783
35	0xbf9e4a82	-1.2366488
36	0x3f263384	0.64922357
37	0x3e87cff7	0.26525852
38	0x3f1fcd32	0.6242248
39	0xbf6f3f85	-0.934563
40	0xbf04cf30	-0.51878643
41	0x3e79fea0	0.24413538
42	0x3f5a2176	0.8520731
43	0xbd326ef9	-0.043562863
44	0x3eb714ee	0.35758156
45	0xbda797d4	-0.08183256
46	0xbdab20c7	-0.08355861
47	0xbf94c3a3	-1.1622204
48	0xbcbe55d5	-0.023234287
49	0xbe90bf84	-0.28271115
50	0x3e5df07f	0.21673773
51	0xbf27c098	-0.6552825
52	0xbe5233d3	-0.20527582
53	0xbf25b47e	-0.64728534
54	0xbf420751	-0.75792414
55	0xbe2feb04	-0.17179495
56	0xbe41a015	-0.18908723
57	0xbe486af0	-0.19572043
58	0x3ede8fc7	0.43469068
59	0x3f1dbaf7	0.6161341
60	0x3ea5bd20	0.32370853
61	0x3e2774b6	0.16353115
62	0xbf479b35	-0.779712
63	0xbe69cefe	-0.22832868
64	0x3f9c0c04	1.2191167
65	0x3d76848f	0.06018501
66	0x3b989c3a	0.0046572955
67	0xbf91966e	-1.1374032
68	0xbe5532bf	-0.2082014
69	0x3f25d7a2	0.64782155
70	0xbf8a52f7	-1.0806569
71	0x3fd1b592	1.6383536
72	0xbe94e3dd	-0.29080096
73	0x3d20a178	0.03921649
74	0x3ed2183d	0.41034117
75	0xbf76d763	-0.96422404
76	0x3dfba2ad	0.12286887
77	0x3f608e58	0.877172
78	0xbf6c57c8	-0.92321444
79	0x3f842f60	1.0326958
80	0xbf0dec19	-0.5543838
81	0x3ea61af0	0.32442427
82	0x3ec98490	0.3935895
83	0x3d781be1	0.060573462
84	0xbfa77d1f	-1.3085059
85	0xbf94f0d9	-1.1636001
86	0x3f2ac057	0.6669974
87	0xbf0e388d	-0.5555504
88	0x3ebfb8f5	0.374458
89	0xbd5665ad	-0.05234306
90	0x3f93d304	1.1548772
91	0x3e7470d0	0.2387116
92	0x3f2eca58	0.682775
93	0x3da86b13	0.08223548
94	0xbf86c756	-1.0529583
95	0x3dbe312f	0.09286725
96	0xbedc4220	-0.430192
97	0xbdf77c72	-0.12084283
98	0x3f8cbcee	1.0995157
99	0x3f139863	0.576544
100	0x3f003de1	0.5009442
101	0x3f1f4fd1	0.62231165
102	0xbea87a6d	-0.32905903
103	0xbe51a5d7	-0.20473419
104	0x3f29de1c	0.66354537
105	0x3fc659d8	1.5496168
106	0x3e09e282	0.13465312
107	0xbd331049	-0.043716703
108	0x3f42f5ce	0.7615632
109	0xbe357a80	-0.17722511
110	0xbf16fd80	-0.5898056
111	0xbe96f672	-0.29484898
112	0x3ea659e9	0.3249047
113	0xbe01783e	-0.12643525
114	0x3e8da758	0.27666736
115	0x3f9f5f31	1.2450925
116	0x3fa5004a	1.2890713
117	0x3e368c44	0.17826945
118	0x3fa3957f	1.2779998
119	0x3ec1f8a1	0.37885
120	0x3f9a0890	1.2033863
121	0x3f9a9018	1.2075224
122	0xbd2e72ba	-0.04258988
123	0x3dd4820f	0.10376369
124	0xbef1f0d1	-0.4725404
125	0x3d8d2c4a	0.06893213
126	0x3fc31c7e	1.524307
127	0xbf416bdc	-0.75555205
128	0xbf2c87cc	-0.6739471
129	0xc016f5bb	-2.3587482
130	0x3da0d47c	0.07853028
131	0x3d660c39	0.056164
132	0xbe36d897	-0.1785606
133	0xbefaf9df	-0.49018762
134	0x3eb3a94d	0.35090104
135	0xbed04fd3	-0.406859
136	0xbf2cc132	-0.6748229
137	0xbee5cf41	-0.44884685
138	0xbf7a197c	-0.97695136
139	0x3e0eb2f3	0.13935451
140	0x3e82587a	0.25458127
141	0xbf08259d	-0.53182393
142	0xbf3e482c	-0.74328876
143	0x3ed6e7bf	0.41973683
144	0x3e696919	0.22793998
145	0x3f62faba	0.8866383
146	0xbf174130	-0.59083843
147	0xbd223db5	-0.03960963
148	0x3d27dc0a	0.04098133
149	0x3e17dc1c	0.14830059
150	0x3d904ca9	0.07045872
151	0xbf41e707	-0.75743145
152	0xbf2451fd	-0.64187604
153	0xbfd5516d	-1.6665474
154	0xbbdce1be	-0.0067407778
155	0x3e18b983	0.14914517
156	0x3e4adb82	0.19810298
157	0x3f4b6188	0.79445696
158	0xbf38a2c3	-0.72123355
159	0x3d7e3e18	0.062070936
160	0xbf49e684	-0.78867364
161	0xbe70d77e	-0.23519704
162	0x3ee3ef1f	0.44518372
163	0xbf002aac	-0.5006511
164	0x3f4b2f2b	0.7936885
165	0xbf17e5ed	-0.59335214
166	0xbf62e34a	-0.88628066
167	0x3ece5afb	0.40303788
168	0x3ebc0b6c	0.36727464
169	0x3e927bfc	0.28610218
170	0xbf6fc720	-0.93663216
171	0x3eebd927	0.46064112
172	0xbe1c607f	-0.15271185
173	0x3f105127	0.5637383
174	0x3f72d059	0.94849163
175	0x3f1054a5	0.5637916
176	0x3f821b0c	1.0164504
177	0xbfad1b0a	-1.3523877
178	0xbf925dd4	-1.1434884
179	0x3e63c092	0.22241428
180	0xbf232db8	-0.63741636
181	0xbea46cb0	-0.32114172
182	0xbf6004a3	-0.87507075
183	0xbfae5d1e	-1.3622167
184	0xbeb33610	-0.35002184
185	0xbd4c55ab	-0.049886387
186	0x3e3d7424	0.18501335
187	0xbf94b695	-1.161822
188	0x3f266e81	0.65012366
189	0x3ed3d91a	0.41376573
190	0xbf9d0373	-1.2266678
191	0x3f7850ee	0.9699849
192	0xbf88e1cf	-1.0693911
193	0xbf2a4ed6	-0.66526544
194	0x3e97f0ad	0.2967581
195	0x3f7a41f6	0.977569
196	0xbed4ec84	-0.41586697
197	0x3e8c54b2	0.27408367
198	0x3f82dee2	1.0224268
199	0xbf7187cf	-0.9434785
200	0xbe5e0000	-0.21679688
201	0x3ee21722	0.44158274
202	0xbeac620a	-0.33668548
203	0x3f82c056	1.0214946
204	0x3edd15ee	0.43180794
205	0x3eae7ea2	0.34080988
206	0xbf1e27e7	-0.61779636
207	0xbe2f7135	-0.17133029
208	0xbf1d8cc5	-0.6154292
209	0x3e4e0cf7	0.20122133
210	0x3fc5474a	1.5412381
211	0xbfbdea45	-1.4837118
212	0xbe674a07	-0.22586833
213	0x3f658d8e	0.8966912
214	0x3ecb9474	0.39761698
215	0x3f1d71e1	0.6150189
216	0xbea74c64	-0.3267547
217	0x3f9e5102	1.2368472
218	0x3fe76eff	1.8080748
219	0xbf1b2d30	-0.60615826
220	0xbf64e75c	-0.89415526
221	0x3e266aad	0.16251631
222	0xbf2b0498	-0.66803885
223	0xbfa45676	-1.2838886
224	0xbdcfdcc5	-0.1014953
225	0x3f48d5fd	0.7845152
226	0xbd297eae	-0.041380577
227	0x3fea3c09	1.8299571
228	0xbefe128b	-0.49623522
229	0x3f4adf16	0.7924665
230	0x3f0e5935	0.5560487
231	0x3e7111c2	0.2354193
232	0x3ed52201	0.41627505
233	0xbe706cb7	-0.23478971
234	0x3ed1d335	0.4098145
235	0xbef9dfb1	-0.48803475
236	0x3f25cb0f	0.6476297
237	0x3f2e16fb	0.68003815
238	0x3f54f9d1	0.8319369
239	0x3e505e29	0.20348419
240	0x3f5ec819	0.87024075
241	0xbe5d4679	-0.21608914
242	0xbe80b47d	-0.25137702
243	0x3ca07648	0.01958765
244	0x3f445c4a	0.7670332
245	0xbf0e1566	-0.555014
246	0xbf911591	-1.1334707
247	0x3ca69cc4	0.020338424
248	0xbd96c788	-0.07362276
249	0x3ea46470	0.32107878
250	0x3e6f3d31	0.23363186
251	0x3f9bb37c	1.2164149
252	0x3ee48750	0.44634485
253	0xbec6772c	-0.38762796
254	0xbf973ff9	-1.1816398
255	0x3e3ba997	0.18326412

network_body._body_endoder.seq_layers.2.bias f4 [128]
0	0x38fd6759	0.0001208323
1	0xbbd325a4	-0.006443696
2	0x3952364c	0.00020047388
3	0xbb1aa927	-0.0023599358
4	0xb924c01c	-0.00015711825
5	0xbb2f7954	-0.0026775198
6	0xbb1ae919	-0.0023637472
7	0xb93720b5	-0.00017464424
8	0x3b164e8c	0.0022935001
9	0xbaae30f5	-0.0013289737
10	0xbb29cfe1	-0.002591126
11	0xbb626cb3	-0.0034549653
12	0xba59035f	-0.00082783954
13	0xb9b73265	-0.00034942027
14	0xbba3f573	-0.005003625
15	0xbaca1bc0	-0.0015419647
16	0x3ab6ea55	0.0013955334
17	0xbab4ad28	-0.0013784515
18	0xb95bf7a1	-0.00020977716
19	0x3c05bc41	0.008162559
20	0xba103fb2	-0.00055026554
21	0xbb2e9d2b	-0.0026643972
22	0xb8f16c7e	-0.00011511984
23	0xba417a65	-0.0007380604
24	0xbb1e0132	-0.00241096
25	0xbba269f8	-0.00495648
26	0xbb1af5bf	-0.0023645011
27	0xbb46911c	-0.0030298894
28	0xba0c043c	-0.0005341207
29	0xbc19b69b	-0.009381915
30	0xbbc7af3e	-0.0060938885
31	0xba83b0e3	-0.0010047223
32	0xbbebabdb	-0.0071921176
33	0xbaad1db5	-0.0013207706
34	0xbb21e140	-0.002470091
35	0x3b610af8	0.0034338813
36	0xbb915f3c	-0.0044364017
37	0xba88cd45	-0.0010437152
38	0xbaf9a22b	-0.0019045522
39	0xbafd8753	-0.0019342698
40	0xbb538bee	-0.003227945
41	0xbb83327b	-0.0040038205
42	0xbc03c47d	-0.008042452
43	0xbba5da1e	-0.005061402
44	0x3a1202bd	0.0005569866
45	0xb9337c14	-0.00017116993
46	0xb9bcf99e	-0.00036044134
47	0xbb11ec86	-0.0022266223
48	0xba5053a7	-0.00079470355
49	0xbaf283e2	-0.0018502439
50	0xbaa40a1b	-0.0012515219
51	0xbbba6ac1	-0.0056889956
52	0x3968dcd2	0.00022207506
53	0xbad47118	-0.0016208021
54	0x38cf4c7f	9.884778e-05
55	0xbb9d1df9	-0.004794833
56	0x3a67e391	0.0008845861
57	0x3b398f49	0.0028314164
58	0xbc118241	-0.008881153
59	0xba48c538	-0.00076587824
60	0x39624094	0.00021577097
61	0xba636a0c	-0.0008675165
62	0xba7ebc9d	-0.00097174366
63	0x3b45e7e0	0.0030198023
64	0x3a22a7b7	0.0006204801
65	0xb96add84	-0.000223985
66	0xbbb2a549	-0.0054518324
67	0xbaf1f75f	-0.0018460563
68	0xbb47899f	-0.0030447019
69	0xb9067a46	-0.00012824786
70	0xba63f4ef	-0.0008695861
71	0xbb31a895	-0.002710854
72	0xba70de72	-0.00091884204
73	0xbb3d529b	-0.0028888348
74	0xbb9c7145	-0.004774245
75	0xbb96b03c	-0.0045986455
76	0xbb110d47	-0.0022133158
77	0xbb40147c	-0.0029309085
78	0xbb64d9d0	-0.0034919865
79	0xbb3c6dce	-0.0028751972
80	0xbb1cc03e	-0.0023918296
81	0x39ba28a9	0.0003550698
82	0xbad61ff7	-0.001633643
83	0xbab8b636	-0.0014092389
84	0x399fa325	0.00030448395
85	0xbb45fcd0	-0.0030210502
86	0xbb5bfae3	-0.0033566288
87	0xbb99e061	-0.0046959375
88	0xb8b31810	-8.539867e-05
89	0x3b7db128	0.003871033
90	0xba2d19dc	-0.00066032796
91	0xbbb1b266	-0.005422878
92	0xba7f732c	-0.000974464
93	0xba901e12	-0.001099529
94	0xbb335b2b	-0.0027367573
95	0xba7eb255	-0.00097159046
96	0xbb0b3f76	-0.0021247542
97	0x3a012f2d	0.0004927989
98	0xbbe2db89	-0.0069231433
99	0xba1d8027	-0.0006008171
100	0xbb1511eb	-0.0022746276
101	0xbc034bb8	-0.008013658
102	0xbb2a7f34	-0.002601576
103	0x39a7fb9c	0.00032040186
104	0xbbd51d96	-0.006503771
105	0xbb05ea9c	-0.0020434028
106	0x393460f3	0.00017202254
107	0xbb930773	-0.004486972
108	0x3a5ac6d1	0.0008345666
109	0xba1e87d5	-0.0006047462
110	0xbb8eda86	-0.004359546
111	0xbbbddbcc	-0.005794024
112	0xbb91d56c	-0.0044504907
113	0x3ab91b83	0.0014122579
114	0xbb748706	-0.0037311926
115	0xbb6a9881	-0.0035796466
116	0xbbb9fbd7	-0.0056757736
117	0xbb083f8f	-0.0020789837
118	0xbc2505c4	-0.010072175
119	0xbbe192cf	-0.006883956
120	0xbb0716ee	-0.0020613032
121	0x39adf904	0.00033182662
122	0xbb86f393	-0.004118392
123	0x3b127300	0.0022346377
124	0xbc07cda3	-0.008288774
125	0xbb63310b	-0.0034666683
126	0xba7fd6ae	-0.0009759468
127	0xbb8f2718	-0.004368674

network_body._body_endoder.seq_layers.2.weight f4 [128, 128]
0	0x37efc04c	2.8580565e-05
1	0x3c8864f9	0.01664971
2	0xbde02d74	-0.109461695
3	0x3e141a44	0.14463145
4	0xbca0c4f1	-0.019625159
5	0x3dcfb860	0.101425886
6	0x3d920ce1	0.07131363
7	0x3dcf5fd3	0.10125699
8	0x3d3b9e48	0.045805246
9	0x3d114f0c	0.035475776
10	0xbd9f7b96	-0.07787244
11	0xbdb0417a	-0.08606239
12	0x3da25b2c	0.07927546
13	0x3e1ed8f2	0.15512446
14	0x3e7172e0	0.23578978
15	0xbd15dc0b	-0.036586802
16	0xbd8fe325	-0.07025746
17	0xbe378e6f	-0.17925428
18	0x3d627ba5	0.055293698
19	0xbd5c3af4	-0.05376716
20	0x3d5bad6b	0.05363218
21	0x3d048683	0.032354843
22	0x3e023afa	0.1271781
23	0xbd0213d8	-0.031757206
24	0xbe5fcce9	-0.21855511
25	0xbc5b8909	-0.013399371
26	0x3d9a9048	0.07547051
27	0xbd089d1a	-0.03335295
28	0xbcc2fe3e	-0.023802873
29	0xbbc53c1c	-0.0060191285
30	0x3e259332	0.16169432
31	0xbdc417e6	-0.09574871
32	0x3d8a6ea5	0.06759385
33	0xbdc273b5	-0.094947256
34	0xbd692133	-0.056916427
35	0xbe24481f	-0.16043137
36	0x3d9e9364	0.07742956
37	0x3d78fb8c	0.06078677
38	0xbd6fa79d	-0.058509458
39	0x3cd15fc2	0.025558356
40	0x3c896063	0.016769594
41	0xbd76c1f2	-0.060243554
42	0xbd26dc2a	-0.04073731
43	0x3cc880ab	0.024475416
44	0xbd50ebd4	-0.051006153
45	0xbdbb45a7	-0.091441445
46	0x3dd8b34d	0.10581074
47	0xbddc606e	-0.1076058
48	0xbd20d86d	-0.0392689
49	0x3e00b9a0	0.1257081
50	0x3e03e5d9	0.12880649
51	0xbd9bda91	-0.076100476
52	0xbdc43e13	-0.09582152
53	0x3ccf3363	0.025293058
54	0xbd7904ae	-0.06079548
55	0xbc2c4a40	-0.010515749
56	0xbd05cfdd	-0.032668937
57	0x3b5b4e4e	0.0033463421
58	0x3d8fafb3	0.07015934
59	0xbcf508c8	-0.029911414
60	0xbcb3bb92	-0.021940026
61	0xbd0ef092	-0.034897394
62	0x3dc0aeed	0.094083644
63	0xbdd3deb1	-0.103452094
64	0x3d16e65a	0.036840774
65	0x3d4e20ee	0.050324373
66	0x3e005390	0.12531877
67	0xbac2863d	-0.0014841032
68	0x3dad3b33	0.08458557
69	0x3c71daaf	0.014761611
70	0x3e0b5c11	0.1360934
71	0xbc9acd1b	-0.01889663
72	0xbd8e8ecd	-0.06960831
73	0x3d2bbc50	0.041927636
74	0x3d5e1f21	0.054228906
75	0xbd536afb	-0.051615696
76	0xbd4e3ba8	-0.05034986
77	0x3e1ba6d1	0.15200354
78	0x3d35dbe5	0.04439916
79	0xbd43ad37	-0.047772612
80	0xbc76a944	-0.0150550045
81	0x3c3f2da4	0.011668596
82	0x3dd4e153	0.1039454
83	0xbc1c2da8	-0.00953237
84	0xbdd0fbd6	-0.10204284
85	0x3ca82c78	0.020529017
86	0xbe447435	-0.19184954
87	0x3c8bcc64	0.017065234
88	0xbd9a21a5	-0.075259484
89	0x3dfbb362	0.12290074
90	0x3e4322fe	0.19056317
91	0x3e3957db	0.1809992
92	0xbcaa2500	-0.020769596
93	0x3b2e9ffb	0.0026645649
94	0xbb7b4a08	-0.0038343687
95	0x3982f980	0.00024981424
96	0x3d88360d	0.06650934
97	0x3d8a1f2a	0.06744225
98	0x3babca5a	0.005242628
99	0xbde4b907	-0.11168104
100	0xbdb212f1	-0.08695019
101	0x3cd14fd7	0.025550766
102	0x3dcfb2e0	0.101415396
103	0x3d8dccb0	0.06923807
104	0xbe2e6d3e	-0.1703386
105	0x3db08ce5	0.086206235
106	0xbd067ec8	-0.03283575
107	0x3d93a1f0	0.072086215
108	0x3d96d298	0.07364386
109	0x3de361f2	0.11102666
110	0x3e645fba	0.22302142
111	0xbd855dec	-0.06512055
112	0xbe0babdf	-0.13639782
113	0xbd01e482	-0.031712063
114	0xbd16f6aa	-0.03685633
115	0xbdd276db	-0.10276576
116	0x3cb1ec5d	0.021719152
117	0xbd86e1e7	-0.06586056
118	0x3d13c86f	0.03607982
119	0x3e599306	0.21247491
120	0x3d278006	0.040893577
121	0xbd4ad6db	-0.04952131
122	0xbc80e53c	-0.015734307
123	0x3e80c13e	0.25147432
124	0x3e16b2ab	0.14716594
125	0xbbfc6003	-0.007701875
126	0x3c5584fb	0.013032193
127	0xbd0e8583	-0.034795295
128	0xbd00eed1	-0.031477753
129	0x3dde215f	0.10846209
130	0xbca1ab8d	-0.019735122
131	0xbc12e4c4	-0.008965675
132	0xbdb45066	-0.08804397
133	0xbdf96809	-0.12178046
134	0x3d1c98d1	0.038231675
135	0x3cc2ca0a	0.02377798
136	0x3d22d6c5	0.0397556
137	0x3d7fa9bb	0.062417727
138	0x3d5766a5	0.052588124
139	0x3ddf8060	0.109131575
140	0xbbbdd049	-0.005792652
141	0x3d141db7	0.03616115
142	0xbd600043	-0.05468775
143	0x3d5d2655	0.053991634
144	0xbd93ebd4	-0.07222715
145	0xbd49aea2	-0.04923881
146	0xbdb3451b	-0.08753415
147	0xbda1551a	-0.0787756
148	0x3d4bcecc	0.049757764
149	0xbd152034	-0.036407664
150	0xbbb71cb5	-0.005588139
151	0x3ca7fd34	0.020506479
152	0xbcc2a429	-0.023759918
153	0x3e06dccd	0.13170166
154	0x3d33bfd4	0.043884113
155	0xbc695cfb	-0.01424336
156	0xbc995edd	-0.018721992
157	0xbd200254	-0.03906472
158	0xbd0ac7c9	-0.033881936
159	0xbd45f4db	-0.048329215
160	0x3c89f3ec	0.016839944
161	0x3df9f45f	0.12204813
162	0x3bca9a31	0.006182932
163	0xbd9a0578	-0.07520574
164	0x3e1ff89a	0.15622178
165	0xbb81b34b	-0.003958141
166	0x3e23de57	0.16002785
167	0x3e308751	0.17239119
168	0xbd17f068	-0.037094504
169	0xbd020e4b	-0.031751912
170	0xbdccc798	-0.09999007
171	0x3d7aee24	0.061262265
172	0x3d17e08d	0.037079383
173	0x3e1f94e1	0.15584137
174	0x3ca7508a	0.020424146
175	0x3c524b4a	0.012835333
176	0xbc0d3b36	-0.008620074
177	0x3d89cf1e	0.067289576
178	0xbcad347b	-0.021143189
179	0xbe7f959e	-0.24959418
180	0xbd57ba5d	-0.052667964
181	0xbd59ec6d	-0.05320399
182	0x3c0069ff	0.007837771
183	0xbd8ee4b3	-0.06977215
184	0xbe2852c9	-0.1643783
185	0xbd2d2640	-0.042272806
186	0x3d20984c	0.03920774
187	0xbd217a33	-0.03942318
188	0xbe134b43	-0.14384179
189	0x3d07b770	0.033133924
190	0x3e406112	0.1878703
191	0x3dfd5208	0.12369162
192	0xbcfe4d85	-0.031042824
193	0xbd320ffc	-0.043472275
194	0xbbeaa387	-0.0071606073
195	0x3d51e441	0.05124307
196	0xbcfd941c	-0.030954413
197	0xbd3dc89d	-0.046333898
198	0xbcd89157	-0.026436491
199	0xbe233609	-0.15938582
200	0x3c7c6e96	0.015407225
201	0x3b7bbcb0	0.0038412027
202	0xbdd01171	-0.10159577
203	0x3e00a2b2	0.12562063
204	0xbcb43969	-0.022000032
205	0xbcf9ed45	-0.030508647
206	0xbd5710e2	-0.052506335
207	0x3c2901f3	0.010315406
208	0xbcdba09d	-0.026809985
209	0xbcf70498	-0.030153558
210	0x3c4243f7	0.011857024
211	0x3d2ac8bf	0.041695353
212	0x3dd0b4dc	0.10190746
213	0xbd8ffeff	-0.070310585
214	0x3da7e35d	0.08197663
215	0x3df84617	0.121227436
216	0x3d754203	0.059877407
217	0xbe06a29a	-0.13147965
218	0x3d9d36ca	0.07676466
219	0xbc1cc98d	-0.009569538
220	0x3c248fc3	0.010044041
221	0xbe06dcc1	-0.13170148
222	0xbc8ea0a3	-0.017410582
223	0x3d7f0bfb	0.062267285
224	0x3dc3e815	0.095657505
225	0xbd8910e1	-0.066926725
226	0xbd8a3b65	-0.0674961
227	0x3e39a6bd	0.18130012
228	0x3d21a32e	0.03946226
229	0x3df47655	0.119366325
230	0xbdcc797c	-0.09984109
231	0xbd2401a2	-0.04004062
232	0xbda3fc27	-0.080070786
233	0xbe61effc	-0.22064203
234	0x3b7d14e3	0.0038617186
235	0xbcacf3df	-0.02111238
236	0x3d212763	0.039344203
237	0xbd71bbe2	-0.05901707
238	0xbd0e975f	-0.034812327
239	0x3c6ac7e7	0.014329887
240	0x3e376e85	0.17913254
241	0xbdb6b452	-0.08921112
242	0x3c932e8b	0.01796653
243	0x3d9f5247	0.07779365
244	0xbb453f38	-0.0030097496
245	0x3d2449d5	0.040109474
246	0xbca480ad	-0.020080889
247	0x3c7bf829	0.01537899
248	0xbd029e97	-0.031889524
249	0x3d2369b3	0.039895725
250	0x3d659211	0.056047503
251	0x3dd429c9	0.103595324
252	0xbe2ee030	-0.17077708
253	0x3ca23ae5	0.019803474
254	0x3ca5456e	0.020174708
255	0x3ba475bf	0.0050189192
