FYPprototype/results/ShortTest3/AIBalancing/AIBalancing-782.onnx (onnx, 72282 bytes, 6 tensors)

action_model._discrete_distribution.branches.0.bias f4 [2]
00000000: 0000 0000 0000 0000
0.0 0.0

action_model._discrete_distribution.branches.0.weight f4 [2, 128]
00000000: a72f 0d3c 4a4e f839 a845 e03b 588a 0cbc
00000010: 5727 663c bf1e 13bb 25c4 3e3c 3261 22bb
00000020: 5ae2 d63b 4f73 f8ba e3bf 9ebb 4bdb a1bb
00000030: 1c18 183b 4652 8b3a 7727 0a3c 5ef1 163c
00000040: 6842 b83b 3fe3 16bc 0363 453b afe8 07bc
00000050: b87f d6bb c363 29bc 1fde df3b da8f 373b
00000060: 5bb9 ff3b 212b b73a 47ea 18bc d567 af3b
00000070: 6f1d 3bbb 3d40 923b bf1a 083c 0d79 b137
00000080: e239 8e3b 1fdb 7cbb f1ce 1f3c e571 1dbc
00000090: 278d 383b c4dd 09bb 8a6d 31bc da41 e53b
000000a0: a7ff 1bbc 85d4 6fbb 3c82 353b e446 0c3c
000000b0: 5be8 f2ba 6e4f 20bc 3bc9 2c3b 8b48 7e3c
000000c0: 12f6 7d3c 5e0c 9f39 0a31 e83b 1d3a 75bc
000000d0: 3d48 4f39 cfca a7bb efb9 843b aeed 9e3b
000000e0: 21e0 093b 6452 9f39 709a 80bb f16d 883c
000000f0: 5b3d 053c c18a 093b 4626 35bb 9524 103c
00000100: f7d3 c03b a7da 95bc 1fd4 263b 002c 28bc
00000110: cd7f 973b d6ee 49bb 7f1f 62bc f77f 843b
00000120: 1348 a13b 584a cd3a 958c dd3b fdfc 48bb
00000130: 1644 c6bb b9aa 8bba ebd1 36ba d381 7abc
00000140: 29ea 07bc eaef 743b ee32 c1bb cb44 973c
00000150: cdcd 44bc 3af0 df3b eae7 303c 05de 57bb
00000160: 5d0e 723b 5b7b bcbb bf0c 883b d32c 81bc
00000170: 1bed 48bc 5386 433b 9002 a73b d30b 413c
00000180: 8972 203c b928 a4bb e2d3 2abb 2905 9cbb
00000190: fda1 983c cda3 813b 9f41 173b ad5e ef3b
000001a0: 434f a6ba cd31 87bb d755 5eba eb44 a8bb
000001b0: 8257 dc3a ad59 eabb e697 beba fc10 1ebc
000001c0: 8939 c5b9 48ec 9f3b 7b65 1d3c 057a 2fbb
000001d0: 580e 03bc f227 caba e027 cdba 202c 89bc
000001e0: f574 3e3b 883f 053b d0f3 a3bb 372a 5abb
000001f0: db13 31bc 1036 1abc b7ab 40bc 2bb3 8cba
00000200: 85ac d63b 74a7 ae3b 621e 5dbc be9c 33bc
00000210: 8ada f9ba 2f20 ab3a 87ac b9b9 c861 643c
00000220: 907b dc3b d7d5 c03b 5047 b4bb e7e3 fdba
00000230: 4f21 143c 2f68 633a fab8 2e3c 53d4 883b
00000240: 6cc1 01bc e496 80bc 098c c9b8 a5f3 773b
00000250: f042 373b aca2 283c 6d02 9f39 0023 b5bc
00000260: 23ce c63b e340 893c 7c1a 423a a79f 9bba
00000270: 0872 68bc e407 13bb f7b3 e8bb ef12 4d3c
00000280: 0b82 9bbb 5ef7 c2bb 2de5 e43a bb57 7b3c
00000290: 9466 a2bc 0541 1dbb 5d7b 583c 7f55 58bb
000002a0: b60d a4bc 92db 81bb 3a98 61bc ef92 1dbc
000002b0: ef54 5ebc 9dbf 8ebb 9721 1ebc 27cf 10bb
000002c0: 45f7 763c 90b9 723b 4051 f3bb 7033 fc3b
000002d0: 768a 023c 6e19 9fb8 cb17 12bc e88d 783c
000002e0: d1e6 93bb 62dc 10bc 05c5 ae3b e220 2ebc
000002f0: 4dca 653b 1b33 efbb b96b 9b3b 53bd 81bb
00000300: 053f b2bb 740f a0bb 2689 94bb 2d5f 2dbc
00000310: f798 9abb 0aa7 fa3a b533 84bb 1794 f93b
00000320: a1c6 abbb 37cb b13b c915 92bb db02 8abb
00000330: 5aa8 9dbc ba32 ee3b c8e9 15bc 55e6 4b3c
00000340: 9698 3b39 00e2 e13a c252 d1ba 87f1 7dbc
00000350: a76d 6e3c f711 60bc 8d03 50bc 0259 ef3b
00000360: aff0 623c 0523 453b dc0c 05bc 17bd ff3b
00000370: bb66 0a3c 72f6 a43b 5e83 83bb df3c dbbb
00000380: cbc9 f33b 70fe dfbb 83a4 293c b21e 543c
00000390: d07f 003b 4bd2 723b dde9 04bb 0e31 0b3b
000003a0: 1229 29bc e0d1 61bc b4cd 873c 661b 193c
000003b0: b285 11bc af1e c9bb dc96 4abb b37f 6b3c
000003c0: 1b63 403b f039 a2bb 7e30 1d3c 35cb 9fbb
000003d0: c03d fd3b 0b3a 05bc eaa5 5bb9 0fbd aebc
000003e0: b378 2ebc 7cb7 91bc 5b55 6fb9 7f83 563b
000003f0: 3539 e03b fd34 b5bb 527b f7bb 0b7b 17bc
0.008617318 0.00047360576 0.006844241 -0.008577906 0.014047465 -0.0022448746 0.011643444 -0.0024777171
0.006557745 -0.0018955263 -0.004844652 -0.004939472 0.002320773 0.0010629378 0.008432261 0.00921282
0.0056231506 -0.009209453 0.003011883 -0.008295222 -0.006545987 -0.010338726 0.006831899 0.0028009326
0.0078040785 0.0013974645 -0.0093332 0.005352954 -0.002855148 0.004463224 0.008307158 2.1156413e-05
0.0043403963 -0.0038582755 0.0097539285 -0.009609674 0.0028160305 -0.0021036724 -0.010829339 0.0069963755
-0.0095214015 -0.0036595177 0.0027696034 0.0085618235 -0.0018532382 -0.0097845625 0.002636506 0.015520225
0.015500562 0.00030336058 0.007085924 -0.014967469 0.00019767969 -0.005120612 0.0040504853 0.004850111
0.0021038132 0.0003038823 -0.0039246604 0.016653987 0.008132304 0.0020987245 -0.002764122 0.008797784
0.005884643 -0.018292738 0.0025456024 -0.010264397 0.0046233893 -0.0030812523 -0.013801455 0.004043575
0.004921922 0.0015662415 0.0067611434 -0.003066837 -0.006050597 -0.0010655738 -0.0006974029 -0.015289742
-0.008295574 0.0037374445 -0.005895964 0.01846542 -0.012011957 0.006834057 0.01079748 -0.003293873
0.003693483 -0.00575201 0.00415191 -0.015768444 -0.012263562 0.0029834702 0.005096741 0.011782604
0.009792932 -0.0050097373 -0.0026066233 -0.0047613573 0.01863193 0.003956294 0.0023079885 0.0073049874
-0.0012688417 -0.0041258098 -0.0008481419 -0.005135169 0.0016810747 -0.0071518035 -0.0014541119 -0.009647604
-0.00037617635 0.004880462 0.009606714 -0.002677561 -0.007999025 -0.0015423282 -0.0015652142 -0.016744673
0.002906141 0.0020332057 -0.00500343 -0.0033289322 -0.010807957 -0.009412304 -0.01175969 -0.0010734549
0.0065513276 0.0053300206 -0.013496013 -0.010962663 -0.0019062322 0.0013055856 -0.00035414493 0.0139393285
0.006728597 0.0058848667 -0.005501665 -0.0019370288 0.0090411445 0.00086748874 0.010664219 0.0041757016
-0.0079196505 -0.01569695 -9.6105105e-05 0.0037834432 0.0027963482 0.01029269 0.0003032865 -0.022111416
0.006067054 0.016754573 0.0007404459 -0.0011873142 -0.014187343 -0.0022435123 -0.0071015316 0.012516721
-0.004745727 -0.0059498986 0.0017463319 0.015340741 -0.019824304 -0.0023995053 0.013213006 -0.0033009944
-0.02002607 -0.0039629424 -0.013769204 -0.009617551 -0.013570054 -0.004356338 -0.009651563 -0.0022096129
0.015073602 0.0037036873 -0.0074254572 0.0076965615 0.007967582 -7.5864475e-05 -0.0089168055 0.015170552
-0.0045135994 -0.008841606 0.005333545 -0.010627957 0.0035063208 -0.0072997934 0.004743066 -0.003959337
-0.0054396414 -0.0048846547 -0.004532951 -0.010581774 -0.004717942 0.0019123268 -0.0040344843 0.0076165306
-0.0052421843 0.0054258364 -0.0044581634 -0.004211766 -0.019245315 0.0072692307 -0.009149976 0.012445052
0.00017890552 0.0017233491 -0.0015970098 -0.015499479 0.01455251 -0.013676158 -0.012696159 0.0073043117
0.013851329 0.0030080688 -0.008120742 0.0078045237 0.008447344 0.0050342614 -0.004013463 -0.006690606
0.007439827 -0.0068357512 0.010354164 0.012946771 0.0019607432 0.0037051614 -0.0020280995 0.0021238956
-0.010324733 -0.013782948 0.01657758 0.009344911 -0.008881973 -0.006137691 -0.0030912673 0.014373708
0.0029355946 -0.0049507543 0.009594081 -0.004876519 0.0077283084 -0.008131514 -0.00020947275 -0.021330385
-0.010648894 -0.017787687 -0.00022824614 0.0032732186 0.006842757 -0.0055299983 -0.0075525427 -0.009245644

network_body._body_endoder.seq_layers.0.bias f4 [128]
00000000: 0000 0000 0000 0000 0000 0000 0000 0000
00000010: 0000 0000 0000 0000 0000 0000 0000 0000
00000020: 0000 0000 0000 0000 0000 0000 0000 0000
00000030: 0000 0000 0000 0000 0000 0000 0000 0000
00000040: 0000 0000 0000 0000 0000 0000 0000 0000
00000050: 0000 0000 0000 0000 0000 0000 0000 0000
00000060: 0000 0000 0000 0000 0000 0000 0000 0000
00000070: 0000 0000 0000 0000 0000 0000 0000 0000
00000080: 0000 0000 0000 0000 0000 0000 0000 0000
00000090: 0000 0000 0000 0000 0000 0000 0000 0000
000000a0: 0000 0000 0000 0000 0000 0000 0000 0000
000000b0: 0000 0000 0000 0000 0000 0000 0000 0000
000000c0: 0000 0000 0000 0000 0000 0000 0000 0000
000000d0: 0000 0000 0000 0000 0000 0000 0000 0000
000000e0: 0000 0000 0000 0000 0000 0000 0000 0000
000000f0: 0000 0000 0000 0000 0000 0000 0000 0000
00000100: 0000 0000 0000 0000 0000 0000 0000 0000
00000110: 0000 0000 0000 0000 0000 0000 0000 0000
00000120: 0000 0000 0000 0000 0000 0000 0000 0000
00000130: 0000 0000 0000 0000 0000 0000 0000 0000
00000140: 0000 0000 0000 0000 0000 0000 0000 0000
00000150: 0000 0000 0000 0000 0000 0000 0000 0000
00000160: 0000 0000 0000 0000 0000 0000 0000 0000
00000170: 0000 0000 0000 0000 0000 0000 0000 0000
00000180: 0000 0000 0000 0000 0000 0000 0000 0000
00000190: 0000 0000 0000 0000 0000 0000 0000 0000
000001a0: 0000 0000 0000 0000 0000 0000 0000 0000
000001b0: 0000 0000 0000 0000 0000 0000 0000 0000
000001c0: 0000 0000 0000 0000 0000 0000 0000 0000
000001d0: 0000 0000 0000 0000 0000 0000 0000 0000
000001e0: 0000 0000 0000 0000 0000 0000 0000 0000
000001f0: 0000 0000 0000 0000 0000 0000 0000 0000
0.0 0.0 0.0 0.0 0.0 0.0 0.0 0.0
0.0 0.0 0.0 0.0 0.0 0.0 0.0 0.0
0.0 0.0 0.0 0.0 0.0 0.0 0.0 0.0
0.0 0.0 0.0 0.0 0.0 0.0 0.0 0.0
0.0 0.0 0.0 0.0 0.0 0.0 0.0 0.0
0.0 0.0 0.0 0.0 0.0 0.0 0.0 0.0
0.0 0.0 0.0 0.0 0.0 0.0 0.0 0.0
0.0 0.0 0.0 0.0 0.0 0.0 0.0 0.0
0.0 0.0 0.0 0.0 0.0 0.0 0.0 0.0
0.0 0.0 0.0 0.0 0.0 0.0 0.0 0.0
0.0 0.0 0.0 0.0 0.0 0.0 0.0 0.0
0.0 0.0 0.0 0.0 0.0 0.0 0.0 0.0
0.0 0.0 0.0 0.0 0.0 0.0 0.0 0.0
0.0 0.0 0.0 0.0 0.0 0.0 0.0 0.0
0.0 0.0 0.0 0.0 0.0 0.0 0.0 0.0
0.0 0.0 0.0 0.0 0.0 0.0 0.0 0.0

network_body._body_endoder.seq_layers.0.weight f4 [128, 5]
00000000: e00f 36bf 6732 6cbf 2b8d a03e 20b4 77bf
00000010: e0ab a63e cec8 84bf 59ee 953f b480 c53e
00000020: f253 663e d967 b1be ae67 723f 3ef2 4b3d
00000030: 887e 24bf 4342 a2be a1c1 373f 5b20 e13c
00000040: 0b00 353f 6570 163f 5e7a 6bbf 2fda 7cbe
00000050: dad3 183e dc70 853e 8195 80bf 3539 69bf
00000060: 129a 173e a7cd 6fbf 224d b03d 4513 423c
00000070: cdc7 923e c91c 17bf 74ab 643e ce28 0a3f
00000080: 9d74 6abe e87b dabd efb0 24bf cb5b 9abe
00000090: d6fd a2be 1eb2 27be fc71 113f 1b91 803e
000000a0: 651e 11bc 2304 b23d 398b 99be 4f71 2b3e
000000b0: bb79 c2be 0793 f03d 0aeb 483d c2c2 8b3e
000000c0: a2db 83bf 037a 4bbf ec89 703f 2d00 803c
000000d0: d635 2dbc a1c6 80be 984a d63d 7abd aebe
000000e0: 5c3b 203f 9b7d f8be 2b66 11bf 797f 3e3f
000000f0: 0cf8 d9be 23d4 6b3f 2320 f8bd 942a e6be
00000100: 7083 103f 2661 92be 64c9 febb 1541 773e
00000110: 7ac2 283e 7406 a9be a777 c93d 3ec9 b73d
00000120: b844 4ebe 7001 2e3f 1978 9abe 91ce ef3e
00000130: 976b 003f 4032 1c3f 9389 9c3e 48bb a9be
00000140: 074a 913e d854 08bd 71be c2bd b45c 073f
00000150: ad20 27be f276 323d 66bc 8dbd 7b95 b1be
00000160: 2ae2 bb3e 6172 cc3d 71de a9ba 4565 8cbe
00000170: c80e 2f3f efd2 713d 24b1 363e 6b6e 0dbf
00000180: e4b0 25bf 99cd eb3e 65c3 183f e634 b6be
00000190: 67f1 ac3e ed79 1f3f 771f b43e 5a16 6f3e
000001a0: 2461 a23e 82c1 85be a541 a5be d71d 1cbf
000001b0: 7420 62bf 3b55 5ebd 5dc0 b4be ec09 043f
000001c0: 75f8 f23d ea8e 6abe 583f f03d 5d4a 70be
000001d0: 2d68 62be 2f76 033f 03e6 d73e 70e4 ae3e
000001e0: eb63 b8be c65a cf3e 7c7a 1e3f e1cf a23e
000001f0: 2e1a 0c3e 303e 863f db95 c93c 134e 00bf
00000200: 7620 d23e 4e46 4cbd 40a9 24bf beb3 263f
00000210: cd97 9ebd b3f1 933e 1828 273e 8581 09bf
00000220: 2943 b3be b910 17bf 8c88 b53e ba8a a73e
00000230: e705 c0be b645 ad3e 7553 6f3d d47c 8cbd
00000240: 5434 c6be 5483 1fbf c3fb 1c3f 1505 1a3e
00000250: 5b94 13bf db83 193f fb01 673f 3cc0 e0be
00000260: aa9e 56bd 1d43 083e 55a9 a63e 8b61 93bd
00000270: 3d9d e1bd 26fd 7bbe d7b1 0dbf 48ff 49be
00000280: 454e 1fbe 8a70 0cbe 2b42 083f 538c f73e
00000290: be52 f9be 0977 7fbe 9232 233d b504 053e
000002a0: cff4 243f a624 db3d ac58 00bf 2df5 2a3e
000002b0: e79b 23bd b1c0 59be 3561 983e ee06 5bbd
000002c0: 2ac0 7ebe 3f59 d63e 5311 9bbe 236f 9d3e
000002d0: e909 eebe d46e 82be a673 9a3e 33b8 0ebe
000002e0: bab9 dbbe 8138 013f 002e 003e 4e53 c03e
000002f0: b205 e93d 81bf 403e 6fe1 c1bc 544e de3c
00000300: ebac 183f b482 2c3f 553c 8cbe 226f d53c
00000310: 4cf3 c8bd d9f7 a2be 9afd feb9 ef7f ebbe
00000320: affd 093e b4c1 ab3e d6c5 153e 8d81 af3e
00000330: 6809 423f dd3c b6bd f6b2 30bf 44ba 233e
00000340: 933e a6bd 0051 edbe 3d34 f4bd af22 963d
00000350: f2e3 b5be 9bab 1e3e 55d0 1fbe 46d0 223d
00000360: c23c 84bf 843c 2dbf 6fc7 423d 96ef 963e
00000370: 986b 0d3e 8ad0 ce3e d9fd 843e 7bc4 a0be
00000380: 9f1d 3ebf abe9 48be b5ed 533e d4cb 4e3f
00000390: 3492 a1be 4a2d 063e a9e9 803d d563 023e
000003a0: 4cf2 37bf 8293 48be ea9b 41bf c458 f03d
000003b0: 6f0c e7be 3e11 413f 3733 d9be 1d15 bcbe
000003c0: ba2e 133e 94b6 8bbe bf63 16be 4600 65be
000003d0: 9d2a f2be d54e 91be fdbd a33e 5560 83bd
000003e0: 8495 253f 50f7 dfbe 9003 403f 1c98 b3be
000003f0: eca2 e2bc a369 b6be 9fd2 b93d e854 61be
-0.71117973 -0.9226441 0.31357703 -0.96759224 0.32553005 -1.0373781 1.1713363 0.38574755
0.2249296 -0.34649542 0.9468945 0.049791567 -0.6425557 -0.3169118 0.7177983 0.027481249
0.7070319 0.5876525 -0.9198359 -0.24692605 0.14924565 0.26062667 -1.0045625 -0.91102916
0.14804867 -0.93673176 0.08608462 0.0118454145 0.2866806 -0.590283 0.22331029 0.53968513
-0.22896047 -0.106681645 -0.6433248 -0.30148157 -0.31834286 -0.1637654 0.5681455 0.25110707
-0.008857344 0.08692195 -0.2998903 0.16742443 -0.37983498 0.11746793 0.049052276 0.27297026
-1.0301402 -0.7948305 0.9396045 0.015625084 -0.0105719175 -0.25151542 0.104634464 -0.34128934
0.62590575 -0.4853333 -0.5679652 0.7441326 -0.42572057 0.9212057 -0.121155046 -0.4495436
0.5645056 -0.28589743 -0.0077754725 0.2414592 0.16480437 -0.33012736 0.09837275 0.08973931
-0.20143402 0.67970943 -0.30169752 0.46837285 0.5016417 0.61014175 0.3057371 -0.33150697
0.2837679 -0.03328404 -0.0950898 0.5287583 -0.16321059 0.043570466 -0.069207 -0.34684357
0.36695987 0.099827535 -0.001295997 -0.27421013 0.6838193 0.059039053 0.17841011 -0.5524661
-0.6472304 0.46055296 0.5967315 -0.35587233 0.33777925 0.6229542 0.35180256 0.2334837
0.31714737 -0.26124197 -0.32276645 -0.6098303 -0.8833077 -0.0542805 -0.35303012 0.5157764
0.11863796 -0.2290608 0.11730832 -0.23465867 -0.22110052 0.5135221 0.42167673 0.3415866
-0.3601373 0.40498942 0.61905646 0.31799224 0.13681862 1.0487728 0.02460759 -0.5011913
0.4104039 -0.049871735 -0.64320755 0.65118015 -0.077437975 0.2889534 0.16323888 -0.53713256
-0.35012177 -0.5900989 0.3545574 0.32723027 -0.37504503 0.33842248 0.0584292 -0.068597466
-0.38711798 -0.62309766 0.6132166 0.15041001 -0.5764825 0.5996682 0.90237397 -0.43896663
-0.052397408 0.13306852 0.32551065 -0.07196339 -0.11016319 -0.24608287 -0.5534949 -0.19726288
-0.15557201 -0.13714805 0.53225964 0.48349246 -0.4869594 -0.24947752 0.03984315 0.12990077
0.6443605 0.107003495 -0.501353 0.1669509 -0.039943602 -0.21264912 0.29761663 -0.053473406
-0.24877992 0.41864964 -0.30286655 0.30748853 -0.46491936 -0.2547518 0.30166358 -0.13937454
-0.42915136 0.50476843 0.12517548 0.37563556 0.113780394 0.18823053 -0.023667065 0.02713696
0.5963885 0.6738694 -0.2738978 0.026053969 -0.0981203 -0.31829718 -0.00048635603 -0.45996043
0.13475679 0.3354622 0.1462625 0.34278527 0.757956 -0.088983275 -0.6902307 0.15989023
-0.08117404 -0.4635086 -0.11924026 0.07330834 -0.3552547 0.1549515 -0.15606816 0.039749406
-1.0331042 -0.67670465 0.047553476 0.29479665 0.13810575 0.40393478 0.2597492 -0.31399903
-0.7426395 -0.19620387 0.20696147 0.8077977 -0.31556857 0.13103214 0.06294567 0.12733395
-0.7185409 -0.1958752 -0.7562853 0.11735681 -0.45126674 0.75416934 -0.42421886 -0.36734858
0.14373294 -0.27287734 -0.14686488 -0.22363386 -0.47298136 -0.28380457 0.31980887 -0.06414858
0.6468127 -0.43743372 0.75005436 -0.35076988 -0.027665578 -0.3562747 0.09073376 -0.22005045

network_body._body_endoder.seq_layers.2.bias f4 [128]
00000000: 0000 0000 0000 0000 0000 0000 0000 0000
00000010: 0000 0000 0000 0000 0000 0000 0000 0000
00000020: 0000 0000 0000 0000 0000 0000 0000 0000
00000030: 0000 0000 0000 0000 0000 0000 0000 0000
00000040: 0000 0000 0000 0000 0000 0000 0000 0000
00000050: 0000 0000 0000 0000 0000 0000 0000 0000
00000060: 0000 0000 0000 0000 0000 0000 0000 0000
00000070: 0000 0000 0000 0000 0000 0000 0000 0000
00000080: 0000 0000 0000 0000 0000 0000 0000 0000
00000090: 0000 0000 0000 0000 0000 0000 0000 0000
000000a0: 0000 0000 0000 0000 0000 0000 0000 0000
000000b0: 0000 0000 0000 0000 0000 0000 0000 0000
000000c0: 0000 0000 0000 0000 0000 0000 0000 0000
000000d0: 0000 0000 0000 0000 0000 0000 0000 0000
000000e0: 0000 0000 0000 0000 0000 0000 0000 0000
000000f0: 0000 0000 0000 0000 0000 0000 0000 0000
00000100: 0000 0000 0000 0000 0000 0000 0000 0000
00000110: 0000 0000 0000 0000 0000 0000 0000 0000
00000120: 0000 0000 0000 0000 0000 0000 0000 0000
00000130: 0000 0000 0000 0000 0000 0000 0000 0000
00000140: 0000 0000 0000 0000 0000 0000 0000 0000
00000150: 0000 0000 0000 0000 0000 0000 0000 0000
00000160: 0000 0000 0000 0000 0000 0000 0000 0000
00000170: 0000 0000 0000 0000 0000 0000 0000 0000
00000180: 0000 0000 0000 0000 0000 0000 0000 0000
00000190: 0000 0000 0000 0000 0000 0000 0000 0000
000001a0: 0000 0000 0000 0000 0000 0000 0000 0000
000001b0: 0000 0000 0000 0000 0000 0000 0000 0000
000001c0: 0000 0000 0000 0000 0000 0000 0000 0000
000001d0: 0000 0000 0000 0000 0000 0000 0000 0000
000001e0: 0000 0000 0000 0000 0000 0000 0000 0000
000001f0: 0000 0000 0000 0000 0000 0000 0000 0000
0.0 0.0 0.0 0.0 0.0 0.0 0.0 0.0
0.0 0.0 0.0 0.0 0.0 0.0 0.0 0.0
0.0 0.0 0.0 0.0 0.0 0.0 0.0 0.0
0.0 0.0 0.0 0.0 0.0 0.0 0.0 0.0
0.0 0.0 0.0 0.0 0.0 0.0 0.0 0.0
0.0 0.0 0.0 0.0 0.0 0.0 0.0 0.0
0.0 0.0 0.0 0.0 0.0 0.0 0.0 0.0
0.0 0.0 0.0 0.0 0.0 0.0 0.0 0.0
0.0 0.0 0.0 0.0 0.0 0.0 0.0 0.0
0.0 0.0 0.0 0.0 0.0 0.0 0.0 0.0
0.0 0.0 0.0 0.0 0.0 0.0 0.0 0.0
0.0 0.0 0.0 0.0 0.0 0.0 0.0 0.0
0.0 0.0 0.0 0.0 0.0 0.0 0.0 0.0
0.0 0.0 0.0 0.0 0.0 0.0 0.0 0.0
0.0 0.0 0.0 0.0 0.0 0.0 0.0 0.0
0.0 0.0 0.0 0.0 0.0 0.0 0.0 0.0

network_body._body_endoder.seq_layers.2.weight f4 [128, 128]
00000000: 7c7f 62bd b15a b5bd f9e4 54be 3fb2 b73d
00000010: bae1 5ebb 9221 313d b78b 38bd 37e3 9abd
00000020: 4042 aabd c582 f1bc 6c68 c0bc e573 bbbd
00000030: a24a 77bd e6e3 13be 14d7 fd3c 709f 04be
00000040: 68a6 e93d e137 023e a572 143d 33a6 143d
00000050: 18bb 0bbd d443 073e 3e54 8d3d fe26 c1bb
00000060: 2600 b7bc 2d5a 7e3b 6b22 0ebe 6ac5 06bb
00000070: 65b2 2bbd a325 95bc 0bcf 23be ae4a 66bd
00000080: 97cf 043e 0881 aabd 5e16 1ebd 777c 6e3d
00000090: 8226 2b3e 74e9 7abb 640a a4bd 8a21 163e
000000a0: 2e06 d53c db5c 54bd b6ac b93d 099f 56be
000000b0: c4ba d23c 21a1 12be b561 6dbd e9da c43d
000000c0: 3c0f b5bd 3336 c8bd cba8 4cbd 710b 8f3d
000000d0: 707e 6a3d 9210 423e e32e 1d3e 104c 34bd
000000e0: b87f 16bc baee 3b3d 0968 44bd 2c5d ac3d
000000f0: b10c 773d 5e78 003d df0a aebd 2d57 e6bb
00000100: 228a 953d 49d4 80be 4869 f63c 1f93 2b3e
00000110: 9abe feb8 95da 91bb 6193 87bd 1b11 93bc
00000120: a60c 1bbe fe16 b83d 86f9 403c 76ce 9bbd
00000130: f716 9ebd dfc2 473d 0666 c13d 3eae 41bc
00000140: 9529 febd 57d5 363c ff56 ee3d 60c9 743d
00000150: 1fef 44bd f7f8 45be f500 793d 87f7 a3bd
00000160: 949b 94bb 692f c8bd d7d3 dfbc 83b3 283d
00000170: 8380 27bc ecd5 483d db6b e0bd ba00 403e
00000180: 7feb c0bd 70a2 ffbc eb18 d7bc aee7 48bd
00000190: 7d40 9fbd 387c 8abd 25d9 6d3e 6767 a3bd
000001a0: 297c b3bd 0d80 b53c d2b5 ca3c f362 863d
000001b0: 39c2 0bbd a89a b73d d58e a33d cdbc a4bc
000001c0: 1d8b 24be 2c6b d13d 8f1e b53d e072 de3d
000001d0: b845 13bd 4ebd b03d 9384 7dbc caf1 be3d
000001e0: 12b6 1cbc 751f 7abd 8578 c3bd 9300 aebc
000001f0: 557f 263c 2234 47bd d588 78bb e98f c13d
00000200: 9f6d 9d3c c23b 3c3e 8de6 be3c 8bbd 933d
00000210: 832b 0e3e 395f d03d 4ccc 28bd 3c24 693d
00000220: b1a8 423d 29ec 97bd fb90 2cbc ce11 babc
00000230: a5e8 913d 0876 27be fd33 c93d aefd 393c
00000240: 7360 ad3d 270e 93bd cd54 0ebd 5cd4 f83c
00000250: 362c 5f3d c3e8 8c3d 16e0 5d3e 259e ba3d
00000260: 40d4 873c f834 45bd 084b 39bc 0cf8 043e
00000270: 6a17 063e e947 1c3d d42c b5bc 3570 efbc
00000280: 043f b5bb 9f18 253e 4a69 8f3c c63e 823d
00000290: 216a 573e c407 75bd 616d 4a3c e726 33bd
000002a0: f725 3e3d edb7 a53c efad 90bb 19bd 3c3d
000002b0: 956f 71be a494 8fbd 2da5 3bbc 3443 50bc
000002c0: 3594 1e3d 8547 ee3c 5afa a73d 57ee c9bc
000002d0: 5ddd a83d accd 403e 4626 6b3d 0e67 4a3e
000002e0: 8d1e 283e 82bd aa3d 2b9a 52bd 9bde 3bbe
000002f0: d737 3bbe 648b 843d ccd8 0f3e e466 d6bc
00000300: af39 f13d d81b e2bc 70bf 88bd c1be 98bd
00000310: 1b05 303d 7cb7 d63c c253 ce3d 3844 243e
00000320: 86f1 d6bb fec6 01bd 34c6 56bd 285c 4ebc
00000330: 03f8 10bd 80f2 f83d 5e3b 7a3d 1a27 7d3d
00000340: 5b94 863b 1c99 b8bc 5a53 e3bd 7fdb aabd
00000350: d11b 113d 4dbc 913c 282b 0b3d 32f7 0c3d
00000360: 32bd 943d 8803 043c 727d 953d ba55 783c
00000370: 4bb1 7bbe ef79 1b3d 435a 9ebd df2e a33d
00000380: bcbf dbbc 37f0 8f3b ebce 1e3d 322a c1bd
00000390: 1adc 063c 97b5 573e d2c1 74bd 1117 7c3c
000003a0: 6af5 d83a 551c 97bd c584 8c3d 55a1 6abe
000003b0: 8585 debd 11a6 2ebe d4bc dbbd e1a0 9bbd
000003c0: 386b 82bd a175 08bd 7a27 873d ca51 50bd
000003d0: 3dc1 9a3d 4b96 90bd 0481 043d bc0d 2c3e
000003e0: a3da 813d edbd 25bd 819f 99bd f7a2 433d
000003f0: 9d01 29be 3c4e 45bc 5011 993d 4faf 373e
-0.05529736 -0.08855189 -0.20790471 0.089695446 -0.0034009055 0.043244906 -0.045055117 -0.07562869
-0.083134174 -0.029481301 -0.023487292 -0.091529645 -0.06037391 -0.14442405 0.030986346 -0.12951446
0.114086926 0.12716629 0.036242146 0.036291312 -0.034113973 0.13209468 0.069008335 -0.005894541
-0.022338938 0.0038811073 -0.13880317 -0.0020564445 -0.041918177 -0.018206423 -0.1599695 -0.056223564
0.12969814 -0.08325392 -0.03859555 0.058224168 0.16713908 -0.0038286122 -0.08009794 0.14661232
0.026003923 -0.051846366 0.09066145 -0.20959105 0.025723822 -0.14319278 -0.05795451 0.09612066
-0.08840796 -0.09775963 -0.04996566 0.06984604 0.057249486 0.18951634 0.15349917 -0.04401785
-0.009185724 0.045881964 -0.04795078 0.084162086 0.060314838 0.03136479 -0.08498167 -0.007029435
0.07301737 -0.2516196 0.030079499 0.16755341 -0.00012147166 -0.004451106 -0.06619907 -0.017952492
-0.15141544 0.089887604 0.011778241 -0.07607739 -0.07719224 0.048769828 0.094432876 -0.011821328
-0.12410275 0.011159263 0.11637687 0.05976236 -0.048079606 -0.19333254 0.06079193 -0.080061965
-0.004535148 -0.09774668 -0.027322693 0.04118682 -0.010223511 0.049032137 -0.10958072 0.18750277
-0.09419917 -0.031205386 -0.026256999 -0.049049072 -0.07775972 -0.06761974 0.23227365 -0.07978707
-0.08763916 0.022155786 0.024744902 0.06561842 -0.034120772 0.08965045 0.079862274 -0.020109558
-0.16068693 0.102255195 0.08843719 0.108617544 -0.03595516 0.08629857 -0.015473503 0.09323461
-0.009564893 -0.061065156 -0.09544472 -0.021240508 0.010162194 -0.048633702 -0.0037923355 0.09451277
0.01921731 0.18382171 0.023303295 0.07213887 0.13883786 0.10174412 -0.041210458 0.05691932
0.047524158 -0.07418091 -0.010532613 -0.022713568 0.071244515 -0.16353619 0.09824369 0.011351986
0.08465662 -0.07180434 -0.03474884 0.030374698 0.054485522 0.06880333 0.21667513 0.09112195
0.0165807 -0.048146218 -0.011309393 0.12985247 0.1309487 0.038154516 -0.022116102 -0.02922831
-0.0055311937 0.16122673 0.01750626 0.06359629 0.21036579 -0.05982186 0.0123551795 -0.043738272
0.046422925 0.020229304 -0.0044152658 0.046078775 -0.23577721 -0.07010773 -0.011452955 -0.012711335
0.03871556 0.029086838 0.08202048 -0.024649782 0.08245347 0.18828458 0.057409547 0.19765875
0.16417904 0.08336927 -0.051416557 -0.18346636 -0.1828302 0.06471899 0.14047545 -0.026172109
0.117785804 -0.027601168 -0.06677139 -0.074582584 0.04297362 0.026210539 0.10074569 0.16041648
-0.0065595536 -0.031683914 -0.052435115 -0.012595214 -0.035392772 0.12155628 0.061091773 0.06180487
0.004107041 -0.022533946 -0.110998824 -0.08342647 0.03542692 0.017789984 0.033976704 0.03441543
0.07262649 0.008057483 0.072993174 0.015157158 -0.2457935 0.03795808 -0.0773206 0.07967924
-0.026824825 0.0043926495 0.03877155 -0.09431876 0.008231187 0.21065365 -0.059755154 0.015386359
0.0016552631 -0.07378451 0.06861261 -0.22913106 -0.108653106 -0.17055537 -0.107293755 -0.075990446
-0.063681066 -0.033315305 0.065993264 -0.05085925 0.075563885 -0.07059916 0.0323496 0.16802114
0.0634053 -0.04046433 -0.07501126 0.047762837 -0.16504522 -0.012042578 0.07474005 0.17937969
