FYPprototype/results/ShortTest3/AIBalancing/AIBalancing-500019.pt (torch, 426055 bytes, 33 tensors)

network_body._body_endoder.seq_layers.0.weight f4 [128, 2]
00000000: e40f e53d d7d2 aa3e dce3 2bbe 43e3 8abf
00000010: f1c5 d03e 2bfc 583f 5859 5bbe 7330 3ebf
00000020: 44ba abbd ec8e b03e 3999 643f 8170 913f
00000030: 2b54 19be 72ba de3c de43 35bf 4d5e 3fbf
00000040: a2af 4a3e 6e8f 313e fff2 993e 08e9 883f
00000050: 8d32 31bf 3bd3 c4bd 8b61 863f 0236 4b3f
00000060: 0920 ec3e cece ccbd 4ff4 17bf d088 aebe
00000070: b53e 833d e6b4 f3be 9915 12bf 6667 283f
00000080: c6ea c13e 7f2f 81bd e1a2 023f 824a 9ebf
00000090: 8433 263f f7cf 873e 32cd 1f3f 853f 6fbf
000000a0: 30cf 04bf a0fe 793e 7621 5a3f f96e 32bd
000000b0: ee14 b73e d497 a7bd c720 abbd a3c3 94bf
000000c0: d555 bebc 84bf 90be 7ff0 5d3e 98c0 27bf
000000d0: d333 52be 7eb4 25bf 5107 42bf 04eb 2fbe
000000e0: 15a0 41be f06a 48be c78f de3e f7ba 1d3f
000000f0: 20bd a53e b674 273e 359b 47bf fece 69be
00000100: 040c 9c3f 8f84 763d 3a9c 983b 6e96 91bf
00000110: bf32 55be a2d7 253f f752 8abf 92b5 d13f
00000120: dde3 94be 78a1 203d 3d18 d23e 63d7 76bf
00000130: ada2 fb3d 588e 603f c857 6cbf 602f 843f
00000140: 19ec 0dbf f01a a63e 9084 c93e e11b 783d
00000150: 1f7d a7bf d9f0 94bf 57c0 2a3f 8d38 0ebf
00000160: f5b8 bf3e ad65 56bd 04d3 933f d070 743e
00000170: 58ca 2e3f 136b a83d 56c7 86bf 2f31 be3d
00000180: 2042 dcbe 727c f7bd eebc 8c3f 6398 133f
00000190: e13d 003f d14f 1f3f 6d7a a8be d7a5 51be
000001a0: 1cde 293f d859 c63f 82e2 093e 4910 33bd
000001b0: cef5 423f 807a 35be 80fd 16bf 72f6 96be
000001c0: e959 a63e 3e78 01be 58a7 8d3e 315f 9f3f
000001d0: 4a00 a53f 448c 363e 7f95 a33f a1f8 c13e
000001e0: 9008 9a3f 1890 9a3f ba72 2ebd 0f82 d43d
000001f0: d1f0 f1be 4a2c 8d3d 7e1c c33f dc6b 41bf
00000200: cc87 2cbf bbf5 16c0 7cd4 a03d 390c 663d
00000210: 97d8 36be dff9 fabe 4da9 b33e d34f d0be
00000220: 32c1 2cbf 41cf e5be 7c19 7abf f3b2 0e3e
00000230: 7a58 823e 9d25 08bf 2c48 3ebf bfe7 d63e
00000240: 1969 693e bafa 623f 3041 17bf b53d 22bd
00000250: 0adc 273d 1cdc 173e a94c 903d 07e7 41bf
00000260: fd51 24bf 6d51 d5bf bee1 dcbb 83b9 183e
00000270: 82db 4a3e 8861 4b3f c3a2 38bf 183e 7e3d
00000280: 84e6 49bf 7ed7 70be 1fef e33e ac2a 00bf
00000290: 2b2f 4b3f ede5 17bf 4ae3 62bf fb5a ce3e
000002a0: 6c0b bc3e fc7b 923e 20c7 6fbf 27d9 eb3e
000002b0: 7f60 1cbe 2751 103f 59d0 723f a554 103f
000002c0: 0c1b 823f 0a1b adbf d45d 92bf 92c0 633e
000002d0: b82d 23bf b06c a4be a304 60bf 1e5d aebf
000002e0: 1036 b3be ab55 4cbd 2474 3d3e 95b6 94bf
000002f0: 816e 263f 1ad9 d33e 7303 9dbf ee50 783f
00000300: cfe1 88bf d64e 2abf adf0 973e f641 7a3f
00000310: 84ec d4be b254 8c3e e2de 823f cf87 71bf
00000320: 0000 5ebe 2217 e23e 0a62 acbe 56c0 823f
00000330: ee15 dd3e a27e ae3e e727 1ebf 3571 2fbe
00000340: c58c 1dbf f70c 4e3e 4a47 c53f 45ea bdbf
00000350: 074a 67be 8e8d 653f 7494 cb3e e171 1d3f
00000360: 644c a7be 0251 9e3f ff6e e73f 302d 1bbf
00000370: 5ce7 64bf ad6a 263e 9804 2bbf 7656 a4bf
00000380: c5dc cfbd fdd5 483f ae7e 29bd 093c ea3f
00000390: 8b12 febe 16df 4a3f 3559 0e3f c211 713e
000003a0: 0122 d53e b76c 70be 35d3 d13e b1df f9be
000003b0: 0fcb 253f fb16 2e3f d1f9 543f 295e 503e
000003c0: 19c8 5e3f 7946 5dbe 7db4 80be 4876 a03c
000003d0: 4a5c 443f 6615 0ebf 9115 91bf c49c a63c
000003e0: 88c7 96bd 7064 a43e 313d 6f3e 7cb3 9b3f
000003f0: 5087 e43e 2c77 c6be f93f 97bf 97a9 3b3e
0.111846715 0.33363983 -0.1678614 -1.0850605 0.40776017 0.8475978 -0.214208 -0.7429268
-0.08385137 0.3448404 0.892963 1.1362458 -0.14973514 0.027188513 -0.7080668 -0.74753267
0.19793561 0.1733987 0.30068204 1.0696115 -0.6921776 -0.096106015 1.0498518 0.79379284
0.4611819 -0.10000382 -0.5935716 -0.34088755 0.06408445 -0.47598952 -0.57064205 0.65782773
0.3787443 -0.06307887 0.51029783 -1.2366488 0.64922357 0.26525852 0.6242248 -0.934563
-0.51878643 0.24413538 0.8520731 -0.043562863 0.35758156 -0.08183256 -0.08355861 -1.1622204
-0.023234287 -0.28271115 0.21673773 -0.6552825 -0.20527582 -0.64728534 -0.75792414 -0.17179495
-0.18908723 -0.19572043 0.43469068 0.6161341 0.32370853 0.16353115 -0.779712 -0.22832868
1.2191167 0.06018501 0.0046572955 -1.1374032 -0.2082014 0.64782155 -1.0806569 1.6383536
-0.29080096 0.03921649 0.41034117 -0.96422404 0.12286887 0.877172 -0.92321444 1.0326958
-0.5543838 0.32442427 0.3935895 0.060573462 -1.3085059 -1.1636001 0.6669974 -0.5555504
0.374458 -0.05234306 1.1548772 0.2387116 0.682775 0.08223548 -1.0529583 0.09286725
-0.430192 -0.12084283 1.0995157 0.576544 0.5009442 0.62231165 -0.32905903 -0.20473419
0.66354537 1.5496168 0.13465312 -0.043716703 0.7615632 -0.17722511 -0.5898056 -0.29484898
0.3249047 -0.12643525 0.27666736 1.2450925 1.2890713 0.17826945 1.2779998 0.37885
1.2033863 1.2075224 -0.04258988 0.10376369 -0.4725404 0.06893213 1.524307 -0.75555205
-0.6739471 -2.3587482 0.07853028 0.056164 -0.1785606 -0.49018762 0.35090104 -0.406859
-0.6748229 -0.44884685 -0.97695136 0.13935451 0.25458127 -0.53182393 -0.74328876 0.41973683
0.22793998 0.8866383 -0.59083843 -0.03960963 0.04098133 0.14830059 0.07045872 -0.75743145
-0.64187604 -1.6665474 -0.0067407778 0.14914517 0.19810298 0.79445696 -0.72123355 0.062070936
-0.78867364 -0.23519704 0.44518372 -0.5006511 0.7936885 -0.59335214 -0.88628066 0.40303788
0.36727464 0.28610218 -0.93663216 0.46064112 -0.15271185 0.5637383 0.94849163 0.5637916
1.0164504 -1.3523877 -1.1434884 0.22241428 -0.63741636 -0.32114172 -0.87507075 -1.3622167
-0.35002184 -0.049886387 0.18501335 -1.161822 0.65012366 0.41376573 -1.2266678 0.9699849
-1.0693911 -0.66526544 0.2967581 0.977569 -0.41586697 0.27408367 1.0224268 -0.9434785
-0.21679688 0.44158274 -0.33668548 1.0214946 0.43180794 0.34080988 -0.61779636 -0.17133029
-0.6154292 0.20122133 1.5412381 -1.4837118 -0.22586833 0.8966912 0.39761698 0.6150189
-0.3267547 1.2368472 1.8080748 -0.60615826 -0.89415526 0.16251631 -0.66803885 -1.2838886
-0.1014953 0.7845152 -0.041380577 1.8299571 -0.49623522 0.7924665 0.5560487 0.2354193
0.41627505 -0.23478971 0.4098145 -0.48803475 0.6476297 0.68003815 0.8319369 0.20348419
0.87024075 -0.21608914 -0.25137702 0.01958765 0.7670332 -0.555014 -1.1334707 0.020338424
-0.07362276 0.32107878 0.23363186 1.2164149 0.44634485 -0.38762796 -1.1816398 0.18326412

network_body._body_endoder.seq_layers.0.bias f4 [128]
00000000: 0b15 0abb 23c6 51ba 93d4 1bbb cbe9 e7ba
00000010: 325d b9b9 cdfe f139 8972 eb3a 3ae9 ddb9
00000020: 06f9 b53b 5909 1eb9 4bd7 223a 42fb 1dbc
00000030: 4aa2 0bbc 371d 033c 7315 b7ba 055e 233a
00000040: 1844 fcba 84b8 ac39 0296 513a 46c6 36bb
00000050: 060b cd3b 29de 0eba 567d 69bb 3c3b 16bb
00000060: 561b 7b3a b5fd f6b8 52fa 873a 5a5b 1ebc
00000070: e6a6 7c3a d2ff 0aba d2fe 7d3b 2003 00bb
00000080: e9fa 3d3a e544 47b9 3ffc 003b a55c 7d3b
00000090: 259b afb9 0940 d4ba 6e8e 153a 6269 17bb
000000a0: 5862 d3bb d826 a63a 0048 0dbb 4a8a bcbb
000000b0: f1e5 1a3a d8b3 12bb fe48 d4b9 e9c9 9ab9
000000c0: 1a4c 94ba 88b2 e0bb 22a1 16ba d7f5 8c3a
000000d0: cbaa 95ba 022a 0bbc aa54 f0bb bc2a f53b
000000e0: 1392 69b9 ac98 163a fa5e 19bb ec01 44ba
000000f0: 49f3 67bb 520f 01bb d852 dc3a eea9 1bbb
00000100: 2886 90ba 0511 cdba bf75 f83a 60e3 123a
00000110: d908 ba3b 6074 b7ba 65be 45bb 0fe0 19bb
00000120: 909a afbb ea36 553a ad07 52ba b9a9 0c39
00000130: 3ddf a338 2ff9 09bb 2863 d8bb 5626 403b
00000140: cf49 0939 4df9 68b8 c656 f6bb 1a0b 32bc
00000150: b785 173a 44f7 00bb 39f5 393a dd3f 5a3a
00000160: c164 dbba 82fb 883b 5a2e f1ba 470c 84ba
00000170: bec2 8abb ccbc d5ba 7717 9e39 09c0 8a3b
00000180: 08a2 e6bb de23 73ba 09c8 10bc d08a cb39
00000190: 6545 3fba e6fc feba 4dbd 4d3a 1eb6 e2ba
000001a0: 2250 8539 ef3e 8fba fdec 21bb 1266 b63a
000001b0: 7a96 56bc 79ae a5ba 0d0a dbba bbd3 5bba
000001c0: 4f9a 69ba cf8c d0ba d148 013c 0de0 1c37
000001d0: cc06 19bb 3b8b 39bb fa10 18b9 6636 fbba
000001e0: 07c9 cfba bd5b d53a ee6d 21bb 3183 98bb
000001f0: 5471 46bb 9119 13bc 8feb aaba 5f61 edbb
-0.0021069671 -0.0008002242 -0.0023777827 -0.0017693577 -0.00035355386 0.00046156943 0.0017963211 -0.00042326172
0.0055533675 -0.00015071536 0.0006211891 -0.009642424 -0.008522579 0.008002571 -0.0013968184 0.00062319665
-0.0019246368 0.0003294387 0.000799507 -0.0027889176 0.0062574176 -0.00054499746 -0.0035627685 -0.002292349
0.00095789635 -0.00011777451 0.0010374284 -0.009665335 0.0009637907 -0.00053024024 0.003875662 -0.0019533113
0.00072471664 -0.00019003784 0.00196816 0.0038659957 -0.00033494193 -0.00161934 0.00057051226 -0.0023103585
-0.0064509325 0.0012676371 -0.0021557808 -0.00575379 0.0005908898 -0.0022385027 -0.00040490174 -0.00029523604
-0.0011314184 -0.00685722 -0.00057460566 0.0010754418 -0.0011418698 -0.008493902 -0.0073343115 0.007481901
-0.00022275028 0.0005744796 -0.0023402558 -0.0007477093 -0.0035392812 -0.001969297 0.0016809357 -0.002375241
-0.001102631 -0.0015645331 0.001895599 0.00056033395 0.0056773243 -0.0013996474 -0.0030173298 -0.0023479497
-0.0053590015 0.0008133488 -0.0008012008 0.00013414667 7.814027e-05 -0.0021053066 -0.006603617 0.0029319725
0.00013092834 -5.554529e-05 -0.0075176684 -0.010866905 0.0005780118 -0.0019678632 0.0007093731 0.00083255564
-0.0016738401 0.0041803727 -0.0018400655 -0.001007446 -0.004234641 -0.0016306876 0.0003015359 0.004234318
-0.0070383586 -0.0009275059 -0.008836755 0.000388226 -0.00072964124 -0.0019454032 0.00078483374 -0.0017296707
0.0002542744 -0.001092879 -0.0024707906 0.0013915917 -0.0130974 -0.0012640498 -0.0016711369 -0.00083857373
-0.00089112384 -0.0015911105 0.007890896 9.3504905e-06 -0.0023349999 -0.0028311748 -0.00014502174 -0.0019165992
-0.0015852757 0.001627795 -0.0024632174 -0.004654311 -0.0030279951 -0.0089782635 -0.0013040173 -0.0072442736

network_body._body_endoder.seq_layers.2.weight f4 [128, 128]
00000000: 4cc0 ef37 f964 883c 742d e0bd 441a 143e
00000010: f1c4 a0bc 60b8 cf3d e10c 923d d35f cf3d
00000020: 489e 3b3d 0c4f 113d 967b 9fbd 7a41 b0bd
00000030: 2c5b a23d f2d8 1e3e e072 713e 0bdc 15bd
00000040: 25e3 8fbd 6f8e 37be a57b 623d f43a 5cbd
00000050: 6bad 5b3d 8386 043d fa3a 023e d813 02bd
00000060: e9cc 5fbe 0989 5bbc 4890 9a3d 1a9d 08bd
00000070: 3efe c2bc 1c3c c5bb 3293 253e e617 c4bd
00000080: a56e 8a3d b573 c2bd 3321 69bd 1f48 24be
00000090: 6493 9e3d 8cfb 783d 9da7 6fbd c25f d13c
000000a0: 6360 893c f2c1 76bd 2adc 26bd ab80 c83c
000000b0: d4eb 50bd a745 bbbd 4db3 d83d 6e60 dcbd
000000c0: 6dd8 20bd a0b9 003e d9e5 033e 91da 9bbd
000000d0: 133e c4bd 6333 cf3c ae04 79bd 404a 2cbc
000000e0: ddcf 05bd 4e4e 5b3b b3af 8f3d c808 f5bc
000000f0: 92bb b3bc 92f0 0ebd edae c03d b1de d3bd
00000100: 5ae6 163d ee20 4e3d 9053 003e 3d86 c2ba
00000110: 333b ad3d afda 713c 115c 0b3e 1bcd 9abc
00000120: cd8e 8ebd 50bc 2b3d 211f 5e3d fb6a 53bd
00000130: a83b 4ebd d1a6 1b3e e5db 353d 37ad 43bd
00000140: 44a9 76bc a42d 3f3c 53e1 d43d a82d 1cbc
00000150: d6fb d0bd 782c a83c 3574 44be 64cc 8b3c
00000160: a521 9abd 62b3 fb3d fe22 433e db57 393e
00000170: 0025 aabc fb9f 2e3b 084a 7bbb 80f9 8239
00000180: 0d36 883d 2a1f 8a3d 5aca ab3b 07b9 e4bd
00000190: f112 b2bd d74f d13c e0b2 cf3d b0cc 8d3d
000001a0: 3e6d 2ebe e58c b03d c87e 06bd f0a1 933d
000001b0: 98d2 963d f261 e33d ba5f 643e ec5d 85bd
000001c0: dfab 0bbe 82e4 01bd aaf6 16bd db76 d2bd
000001d0: 5dec b13c e7e1 86bd 6fc8 133d 0693 593e
000001e0: 0680 273d dbd6 4abd 3ce5 80bc 3ec1 803e
000001f0: abb2 163e 0360 fcbb fb84 553c 8385 0ebd
00000200: d1ee 00bd 5f21 de3d 8dab a1bc c4e4 12bc
00000210: 6650 b4bd 0968 f9bd d198 1c3d 0aca c23c
00000220: c5d6 223d bba9 7f3d a566 573d 6080 df3d
00000230: 49d0 bdbb b71d 143d 4300 60bd 5526 5d3d
00000240: d4eb 93bd a2ae 49bd 1b45 b3bd 1a55 a1bd
00000250: ccce 4b3d 3420 15bd b51c b7bb 34fd a73c
00000260: 29a4 c2bc cddc 063e d4bf 333d fb5c 69bc
00000270: dd5e 99bc 5402 20bd c9c7 0abd dbf4 45bd
00000280: ecf3 893c 5ff4 f93d 319a ca3b 7805 9abd
00000290: 9af8 1f3e 4bb3 81bb 57de 233e 5187 303e
000002a0: 68f0 17bd 4b0e 02bd 98c7 ccbd 24ee 7a3d
000002b0: 8de0 173d e194 1f3e 8a50 a73c 4a4b 523c
000002c0: 363b 0dbc 1ecf 893d 7b34 adbc 9e95 7fbe
000002d0: 5dba 57bd 6dec 59bd ff69 003c b3e4 8ebd
000002e0: c952 28be 4026 2dbd 4c98 203d 337a 21bd
000002f0: 434b 13be 70b7 073d 1261 403e 0852 fd3d
00000300: 854d febc fc0f 32bd 87a3 eabb 41e4 513d
00000310: 1c94 fdbc 9dc8 3dbd 5791 d8bc 0936 23be
00000320: 966e 7c3c b0bc 7b3b 7111 d0bd b2a2 003e
00000330: 6939 b4bc 45ed f9bc e210 57bd f301 293c
00000340: 9da0 dbbc 9804 f7bc f743 423c bfc8 2a3d
00000350: dcb4 d03d fffe 8fbd 5de3 a73d 1746 f83d
00000360: 0342 753d 9aa2 06be ca36 9d3d 8dc9 1cbc
00000370: c38f 243c c1dc 06be a3a0 8ebc fb0b 7f3d
00000380: 15e8 c33d e110 89bd 653b 8abd bda6 393e
00000390: 2ea3 213d 5576 f43d 7c79 ccbd a201 24bd
000003a0: 27fc a3bd fcef 61be e314 7d3b dff3 acbc
000003b0: 6327 213d e2bb 71bd 5f97 0ebd e7c7 6a3c
000003c0: 856e 373e 52b4 b6bd 8b2e 933c 4752 9f3d
000003d0: 383f 45bb d549 243d ad80 a4bc 29f8 7b3c
000003e0: 979e 02bd b369 233d 1192 653d c929 d43d
000003f0: 30e0 2ebe e53a a23c 6e45 a53c bf75 a43b
2.8580565e-05 0.01664971 -0.109461695 0.14463145 -0.019625159 0.101425886 0.07131363 0.10125699
0.045805246 0.035475776 -0.07787244 -0.08606239 0.07927546 0.15512446 0.23578978 -0.036586802
-0.07025746 -0.17925428 0.055293698 -0.05376716 0.05363218 0.032354843 0.1271781 -0.031757206
-0.21855511 -0.013399371 0.07547051 -0.03335295 -0.023802873 -0.0060191285 0.16169432 -0.09574871
0.06759385 -0.094947256 -0.056916427 -0.16043137 0.07742956 0.06078677 -0.058509458 0.025558356
0.016769594 -0.060243554 -0.04073731 0.024475416 -0.051006153 -0.091441445 0.10581074 -0.1076058
-0.0392689 0.1257081 0.12880649 -0.076100476 -0.09582152 0.025293058 -0.06079548 -0.010515749
-0.032668937 0.0033463421 0.07015934 -0.029911414 -0.021940026 -0.034897394 0.094083644 -0.103452094
0.036840774 0.050324373 0.12531877 -0.0014841032 0.08458557 0.014761611 0.1360934 -0.01889663
-0.06960831 0.041927636 0.054228906 -0.051615696 -0.05034986 0.15200354 0.04439916 -0.047772612
-0.0150550045 0.011668596 0.1039454 -0.00953237 -0.10204284 0.020529017 -0.19184954 0.017065234
-0.075259484 0.12290074 0.19056317 0.1809992 -0.020769596 0.0026645649 -0.0038343687 0.00024981424
0.06650934 0.06744225 0.005242628 -0.11168104 -0.08695019 0.025550766 0.101415396 0.06923807
-0.1703386 0.086206235 -0.03283575 0.072086215 0.07364386 0.11102666 0.22302142 -0.06512055
-0.13639782 -0.031712063 -0.03685633 -0.10276576 0.021719152 -0.06586056 0.03607982 0.21247491
0.040893577 -0.04952131 -0.015734307 0.25147432 0.14716594 -0.007701875 0.013032193 -0.034795295
-0.031477753 0.10846209 -0.019735122 -0.008965675 -0.08804397 -0.12178046 0.038231675 0.02377798
0.0397556 0.062417727 0.052588124 0.109131575 -0.005792652 0.03616115 -0.05468775 0.053991634
-0.07222715 -0.04923881 -0.08753415 -0.0787756 0.049757764 -0.036407664 -0.005588139 0.020506479
-0.023759918 0.13170166 0.043884113 -0.01424336 -0.018721992 -0.03906472 -0.033881936 -0.048329215
0.016839944 0.12204813 0.006182932 -0.07520574 0.15622178 -0.003958141 0.16002785 0.17239119
-0.037094504 -0.031751912 -0.09999007 0.061262265 0.037079383 0.15584137 0.020424146 0.012835333
-0.008620074 0.067289576 -0.021143189 -0.24959418 -0.052667964 -0.05320399 0.007837771 -0.06977215
-0.1643783 -0.042272806 0.03920774 -0.03942318 -0.14384179 0.033133924 0.1878703 0.12369162
-0.031042824 -0.043472275 -0.0071606073 0.05124307 -0.030954413 -0.046333898 -0.026436491 -0.15938582
0.015407225 0.0038412027 -0.10159577 0.12562063 -0.022000032 -0.030508647 -0.052506335 0.010315406
-0.026809985 -0.030153558 0.011857024 0.041695353 0.10190746 -0.070310585 0.08197663 0.121227436
0.059877407 -0.13147965 0.07676466 -0.009569538 0.010044041 -0.13170148 -0.017410582 0.062267285
0.095657505 -0.066926725 -0.0674961 0.18130012 0.03946226 0.119366325 -0.09984109 -0.04004062
-0.080070786 -0.22064203 0.0038617186 -0.02111238 0.039344203 -0.05901707 -0.034812327 0.014329887
0.17913254 -0.08921112 0.01796653 0.07779365 -0.0030097496 0.040109474 -0.020080889 0.01537899
-0.031889524 0.039895725 0.056047503 0.103595324 -0.17077708 0.019803474 0.020174708 0.0050189192

network_body._body_endoder.seq_layers.2.bias f4 [128]
00000000: 5967 fd38 a425 d3bb 4c36 5239 27a9 1abb
00000010: 1cc0 24b9 5479 2fbb 19e9 1abb b520 37b9
00000020: 8c4e 163b f530 aeba e1cf 29bb b36c 62bb
00000030: 5f03 59ba 6532 b7b9 73f5 a3bb c01b caba
00000040: 55ea b63a 28ad b4ba a1f7 5bb9 41bc 053c
00000050: b23f 10ba 2b9d 2ebb 7e6c f1b8 657a 41ba
00000060: 3201 1ebb f869 a2bb bff5 1abb 1c91 46bb
00000070: 3c04 0cba 9bb6 19bc 3eaf c7bb e3b0 83ba
00000080: dbab ebbb b51d adba 40e1 21bb f80a 613b
00000090: 3c5f 91bb 45cd 88ba 2ba2 f9ba 5387 fdba
000000a0: ee8b 53bb 7b32 83bb 7dc4 03bc 1eda a5bb
000000b0: bd02 123a 147c 33b9 9ef9 bcb9 86ec 11bb
000000c0: a753 50ba e283 f2ba 1b0a a4ba c16a babb
000000d0: d2dc 6839 1871 d4ba 7f4c cf38 f91d 9dbb
000000e0: 91e3 673a 498f 393b 4182 11bc 38c5 48ba
000000f0: 9440 6239 0c6a 63ba 9dbc 7eba e0e7 453b
00000100: b7a7 223a 84dd 6ab9 49a5 b2bb 5ff7 f1ba
00000110: 9f89 47bb 467a 06b9 eff4 63ba 95a8 31bb
00000120: 72de 70ba 9b52 3dbb 4571 9cbb 3cb0 96bb
00000130: 470d 11bb 7c14 40bb d0d9 64bb ce6d 3cbb
00000140: 3ec0 1cbb a928 ba39 f71f d6ba 36b6 b8ba
00000150: 25a3 9f39 d0fc 45bb e3fa 5bbb 61e0 99bb
00000160: 1018 b3b8 28b1 7d3b dc19 2dba 66b2 b1bb
00000170: 2c73 7fba 121e 90ba 2b5b 33bb 55b2 7eba
00000180: 763f 0bbb 2d2f 013a 89db e2bb 2780 1dba
00000190: eb11 15bb b84b 03bc 347f 2abb 9cfb a739
000001a0: 961d d5bb 9cea 05bb f360 3439 7307 93bb
000001b0: d1c6 5a3a d587 1eba 86da 8ebb ccdb bdbb
000001c0: 6cd5 91bb 831b b93a 0687 74bb 8198 6abb
000001d0: d7fb b9bb 8f3f 08bb c405 25bc cf92 e1bb
000001e0: ee16 07bb 04f9 ad39 93f3 86bb 0073 123b
000001f0: a3cd 07bc 0b31 63bb aed6 7fba 1827 8fbb
0.0001208323 -0.006443696 0.00020047388 -0.0023599358 -0.00015711825 -0.0026775198 -0.0023637472 -0.00017464424
0.0022935001 -0.0013289737 -0.002591126 -0.0034549653 -0.00082783954 -0.00034942027 -0.005003625 -0.0015419647
0.0013955334 -0.0013784515 -0.00020977716 0.008162559 -0.00055026554 -0.0026643972 -0.00011511984 -0.0007380604
-0.00241096 -0.00495648 -0.0023645011 -0.0030298894 -0.0005341207 -0.009381915 -0.0060938885 -0.0010047223
-0.0071921176 -0.0013207706 -0.002470091 0.0034338813 -0.0044364017 -0.0010437152 -0.0019045522 -0.0019342698
-0.003227945 -0.0040038205 -0.008042452 -0.005061402 0.0005569866 -0.00017116993 -0.00036044134 -0.0022266223
-0.00079470355 -0.0018502439 -0.0012515219 -0.0056889956 0.00022207506 -0.0016208021 9.884778e-05 -0.004794833
0.0008845861 0.0028314164 -0.008881153 -0.00076587824 0.00021577097 -0.0008675165 -0.00097174366 0.0030198023
0.0006204801 -0.000223985 -0.0054518324 -0.0018460563 -0.0030447019 -0.00012824786 -0.0008695861 -0.002710854
-0.00091884204 -0.0028888348 -0.004774245 -0.0045986455 -0.0022133158 -0.0029309085 -0.0034919865 -0.0028751972
-0.0023918296 0.0003550698 -0.001633643 -0.0014092389 0.00030448395 -0.0030210502 -0.0033566288 -0.0046959375
-8.539867e-05 0.003871033 -0.00066032796 -0.005422878 -0.000974464 -0.001099529 -0.0027367573 -0.00097159046
-0.0021247542 0.0004927989 -0.0069231433 -0.0006008171 -0.0022746276 -0.008013658 -0.002601576 0.00032040186
-0.006503771 -0.0020434028 0.00017202254 -0.004486972 0.0008345666 -0.0006047462 -0.004359546 -0.005794024
-0.0044504907 0.0014122579 -0.0037311926 -0.0035796466 -0.0056757736 -0.0020789837 -0.010072175 -0.006883956
-0.0020613032 0.00033182662 -0.004118392 0.0022346377 -0.008288774 -0.0034666683 -0.0009759468 -0.004368674

action_model._discrete_distribution.branches.0.weight f4 [2, 128]
00000000: 8ef8 85bb 7266 68bc 0dcf e9bb f409 86bb
00000010: c758 32bc 2659 c73b 3287 323c f609 16ba
00000020: 58a4 2a3b 07a9 6ebc 2fb1 13bb 00ca 1cbc
00000030: 4f02 36bc 0242 90bc b12c b2bb 2251 54bc
00000040: 0c63 c9bb a398 f0bb d76c 793a 315f 093c
00000050: 9d5c a1bc 02dc 123c 0afd 0dbb 64fc 14bc
00000060: fe8a 9a3b 72b1 36ba b443 8cbc 24ec 483c
00000070: 2239 793c 953b 1abc 727f c9bb 6ac8 11bc
00000080: e5ec f83b b8f9 3b38 22e4 a6bb 03cc 313a
00000090: 0e85 31bb 8ae8 88bb f4df 8e3b 2572 42bc
000000a0: b9ab 8c3b aa81 a4bb cc6a 2d3a 0e6b 493b
000000b0: 86ed 8cbc 0202 ebbb 6687 7e3c 1d01 68bb
000000c0: 6cb3 e0b7 dede 8b3b 40de c03b 68ee a53b
000000d0: bb14 d1bb bcfa de3b 7211 fbba 5b7a 7eba
000000e0: e9ec e8bb 3ca2 213c 67f7 d439 f28e e53a
000000f0: 2807 a83b d6e3 093c fe2a bebb facc 41ba
00000100: 1a48 4dbc 1f22 b13a 75b4 98ba e652 743c
00000110: 1979 1b3c bf5c 8bbc a5fd f2bb 4ba5 073c
00000120: 6124 873c 7391 c7b8 e110 b7ba b620 adbb
00000130: f9dc 5a3c 8fbc c7ba 3d28 d1bb 9b9c 763b
00000140: fa7e 3f3b 7314 49bb ce80 cbbb 3edd eb3b
00000150: a6e7 4d37 edd8 adbb 3dba f3bb 2a50 d8bb
00000160: 250f ca3b 47b7 4abb b438 3dbc ff00 433b
00000170: f1dc 563c 2928 843c 0196 1bbb 0b6a 653c
00000180: 1d2d ad3a f2f1 353c 2bad 093a cf2c 6d3b
00000190: add6 683c d479 c4b7 6166 583b 0f3d 753c
000001a0: 3109 f83b 9d02 98bb 9029 85bb 9a9e fe3a
000001b0: 70a3 603b b87b 9b3b e5ec 07bc a03d d9bb
000001c0: 02cd 2bbb c901 c53b ca88 d0ba 306e d93b
000001d0: 4271 bebb c274 c83b ae86 06bc 8bc4 4cbc
000001e0: 3f5d 6d3c 49d9 11bc 3d24 8fbb b785 45ba
000001f0: 6528 4b3c 4829 e73b bab2 8f3a 68ff 2f3c
00000200: bc77 403c 6c0b 68bc 2d27 243c d567 85bc
00000210: bed2 0e3b 2457 7fbb 8614 38bc d760 a4ba
00000220: 86eb 583b 1ba0 51bb d5a2 51bc 43eb f83b
00000230: ff2c 833c df28 f6bb a77c 263b 0079 bbbb
00000240: 422a b4bb d086 8f3b 6734 1a3a 2b28 6fbc
00000250: 6d08 99bc ee91 23ba 83b6 423c efb5 853b
00000260: a5b3 18bb e4bd 75ba 4943 0bbc c83d 913b
00000270: adc0 9ebb 6e9c 08bc e110 f9bb 38de 1f3c
00000280: 1114 f73b f60b e6bb 8210 04bc 1bd1 813a
00000290: 0c6e 803a 3aea 03bc 8dd8 5abc bcf5 663b
000002a0: 8d3b ecba 2eca 2abc 6e62 933a eb52 c03b
000002b0: 3b61 f83b 4ba9 54bc c33f 16bc 6df8 b43b
000002c0: 8447 bdbc 698e 1b3a 8e99 f237 390d e23b
000002d0: 9452 423b 9e71 3abc ee0d 4b3c fdf8 ab3a
000002e0: 1177 513c a125 66bb 56c8 ad3a e82b 86bb
000002f0: 3e0f a43b 41ec 08b9 4426 92bc e092 21ba
00000300: 54ef 803c b64c 9b3c a60f c23b 885b 303c
00000310: 2550 fa3b 2e4e 573c e700 3f3b a7c4 803b
00000320: f62f 1dbc 7e91 073b 2fe7 a8bb 925d 62bb
00000330: 51f4 c93a 63d1 90bb 5aad f6ba 5633 64bc
00000340: 2b41 3cbb cea3 863c 3dd2 37bc 8657 eaba
00000350: 8cda 94bb 0351 163c 3b2b 8cbb 6a90 dcbb
00000360: c9dd 9bbb 8d9a 40bb 8a87 1cbb 9ee9 383b
00000370: 9a51 a53c c288 223b a07f e73b 1780 90ba
00000380: 59f4 aabb caf7 463c 7dbe c63b fdc1 543c
00000390: f3fb 0b3c f2b2 dc3a 7e3e 6a3c 344c c23b
000003a0: 0a81 f93b df7d 623c a2da 573c e832 31bb
000003b0: 9598 0dbc 787c 3ebc 668d 9dbb 6380 91bb
000003c0: 9fae 36bb 1f40 37bb 2981 fc3a 5604 a13b
000003d0: a95e aeba 894d 353c c6e9 0abc 9660 32bc
000003e0: faee 173b b62e 293c 01b1 93bb 9db3 ed39
000003f0: 07ff 583c 9824 923a fd05 8f3c ca16 be3b
-0.004088468 -0.014184581 -0.007135278 -0.004090542 -0.010885424 0.0060836254 0.010896491 -0.000572353
0.0026037898 -0.014566666 -0.002253603 -0.009569645 -0.011108949 -0.0176096 -0.0054374565 -0.012958797
-0.0061458405 -0.0073424145 0.00095148146 0.008384512 -0.019697482 0.008963587 -0.0021665716 -0.009093378
0.004716276 -0.00069691904 -0.017122127 0.012263332 0.015211375 -0.0094136195 -0.006149226 -0.00889788
0.0075965994 4.4816843e-05 -0.0050931135 0.0006782414 -0.0027087363 -0.0041781114 0.0043601934 -0.0118680345
0.004292932 -0.00502034 0.000661534 0.0030733976 -0.017203104 -0.00717187 0.015535211 -0.0035401054
-2.678643e-05 0.004268511 0.0058858693 0.0050638206 -0.006380645 0.006804792 -0.0019154979 -0.00097075634
-0.00710832 0.00986534 0.0004062012 0.0017513914 0.005127806 0.008416137 -0.005803465 -0.00073929096
-0.012529397 0.0013514197 -0.001165046 0.014912343 0.009489321 -0.017011998 -0.0074154907 0.008279155
0.016496839 -9.5161515e-05 -0.0013966822 -0.0052834405 0.013358348 -0.001523869 -0.0063829706 0.0037629965
0.002921997 -0.0030682355 -0.006210423 0.007198005 1.2272887e-05 -0.0053054006 -0.007437973 -0.006601353
0.006166356 -0.0030931996 -0.011549164 0.0029755232 0.0131142 0.016132431 -0.0023740532 0.014002333
0.0013212297 0.011105048 0.00052519393 0.0036190038 0.014211339 -2.3421751e-05 0.0033020007 0.014968171
0.007569455 -0.0046389834 -0.0040637925 0.0019425929 0.0034277104 0.004744973 -0.008296226 -0.0066296607
-0.0026214723 0.0060121757 -0.0015909907 0.00663545 -0.005811841 0.0061174342 -0.008210821 -0.012498031
0.014487564 -0.0089019025 -0.0043683336 -0.00075348787 0.0123997675 0.0070544817 0.0010963299 0.010742046
0.011747297 -0.014162879 0.010019106 -0.016284863 0.0021793093 -0.0038961852 -0.011235362 -0.0012541068
0.0033099367 -0.00319863 -0.01279517 0.0075964048 0.016012667 -0.0075121964 0.0025403888 -0.0057212114
-0.0054982016 0.0043800846 0.00058824423 -0.014596979 -0.018680776 -0.0006239702 0.0118843345 0.004080526
-0.0023300436 -0.0009374304 -0.008499929 0.0044324137 -0.004844746 -0.008338077 -0.007600889 0.009757571
0.007540234 -0.007020469 -0.008060576 0.0009904237 0.0009798422 -0.008051449 -0.013357294 0.0035241684
-0.0018023119 -0.01042418 0.0011244544 0.0058692596 0.00757995 -0.012979816 -0.009170475 0.0055227787
-0.02310539 0.00059340015 2.8920153e-05 0.006898549 0.0029651271 -0.0113796275 0.012393458 0.0013120469
0.012784735 -0.0035117643 0.0013258557 -0.0040945895 0.0050067 -0.00013057982 -0.017840512 -0.00061635487
0.01573912 0.018957477 0.0059222756 0.01076401 0.0076389485 0.013141198 0.0029144825 0.003929693
-0.009593954 0.0020686085 -0.0051545124 -0.0034540636 0.0015407895 -0.004419492 -0.0018819973 -0.013928255
-0.0028725367 0.01643553 -0.011219558 -0.0017878867 -0.0045426544 0.009174588 -0.0042776144 -0.0067310827
-0.0047566635 -0.0029388994 -0.0023884499 0.0028215419 0.020180512 0.0024800752 0.0070647746 -0.0011024502
-0.005217117 0.012144038 0.0060651884 0.012985704 0.008543956 0.0016837998 0.014297126 0.0059294943
0.0076142596 0.013823955 0.013174685 -0.00270384 -0.008642335 -0.011626355 -0.004808116 -0.0044403537
-0.0027875078 -0.0027961803 0.0019264567 0.004913847 -0.0013303357 0.011065849 -0.0084785875 -0.010887286
0.0023183213 0.010326078 -0.0045071845 0.00045337985 0.013244397 0.0011149822 0.01745891 0.0058010565

action_model._discrete_distribution.branches.0.bias f4 [2]
00000000: 7e18 9aba 7818 9a3a
-0.0011756567 0.001175656

exp_avg f4 [128, 2]
00000000: 52a7 1aba 7e2f 1938 1f9d 89b8 9175 9e36
00000010: 835f e2b9 3896 db37 a43f 0db7 2396 5935
00000020: 334c c1b8 b1db c836 698a 113a b159 0eb8
00000030: 6251 aa36 c0aa 1bb5 17c3 b5b7 f61d 8b35
00000040: 8f08 ed38 a4ea f6b6 a02f 95ba 1a1f 9238
00000050: afab 8737 d1eb 8db5 da83 0439 49f6 0ab7
00000060: edf4 5939 c294 56b7 f759 45b6 47c0 3734
00000070: cb9a e339 2ac8 e0b7 24c9 0d38 1304 0fb6
00000080: 9ac2 e8b9 7769 df37 b39d 82b9 4986 7d37
00000090: 3f88 e239 0576 e1b7 7b9e 87b9 8168 8837
000000a0: 72bd 6eb6 2b3e 7334 c3c7 a539 f036 a8b7
000000b0: 895b c339 e89b bfb7 613b 80b8 9d73 8a36
000000c0: a30f aa37 dc2b 01b6 e68b aa3a 7b0f a8b8
000000d0: 3486 5bb6 1517 99b4 f69a d5b5 07d1 8c31
000000e0: 0d80 c437 e8c3 b5b5 67fd 8aba 28d7 8838
000000f0: a071 a338 f787 90b6 6b22 f435 02e4 ffb3
00000100: 8469 003a 5a11 fbb7 072e 18ba 63d3 1838
00000110: 0ed4 bf37 b972 bab5 dc75 9c35 8364 85b4
00000120: ab15 c538 cef5 b4b6 1b23 0f3a 60be 11b8
00000130: 5aec f0b9 a901 ee37 a17b b6b5 bbc7 4134
00000140: 6d57 2237 0aab 1cb5 c615 c238 3157 c8b6
00000150: 3695 d433 9192 c7b2 b149 f839 650c f4b7
00000160: 15ae 61ba 7aba 5c38 e847 04ba db6c 0338
00000170: 65d1 593a d6fe 56b8 928e 2b35 8c52 c2b3
00000180: 051b 4d38 3296 33b6 da90 b138 c89e a9b6
00000190: be79 2a3a 1638 28b8 cef2 2038 a4a3 0db6
000001a0: e2fd 8cba bd14 8b38 3b49 8037 33fa 6fb5
000001b0: 97f0 9539 4b8b 9ab7 58f6 20b5 e420 1433
000001c0: 104e 39ba e70b 3838 5f9d 8f3a 1489 8cb8
000001d0: f382 51ba 7b92 5238 2c67 9c39 0d77 a1b7
000001e0: af6b b0b9 4be9 b137 778e 30b9 30e5 2f37
000001f0: 8371 9e37 ada1 8db5 114a e9b9 e452 eb37
00000200: 9f43 d437 12e3 06b5 42e8 f739 3290 f6b7
00000210: ffa7 d836 aca0 ebb4 4026 e33a 11f5 e1b8
00000220: c247 0ab6 8623 0034 9a9f 5d34 c4cd fab3
00000230: fdcb 8f39 86cf 8bb7 b055 9936 a230 abb4
00000240: a90b beb8 7cda b636 4dc2 97b7 68c0 8835
00000250: 26e9 063a 57ce 04b8 3e3b 27ba f5cf 2538
00000260: 3b9a b437 7e1e 5ab5 6e9f 1eb9 6280 2237
00000270: 6406 bc39 533d b7b7 0a7a b0b5 4b49 3a33
00000280: ccda ba34 f9c7 c032 9e4b 0b3a 0992 0bb8
00000290: 6079 2938 2b9a 2cb6 0545 e1b2 20af dd32
000002a0: 2635 f839 cf1e f9b7 2565 c4b5 af20 1c34
000002b0: 9cad dd37 8cef d4b5 e862 a13a 70b7 a0b8
000002c0: 3e4b 95b9 91b7 9037 7b5c b735 437b abb4
000002d0: 9def 0eb6 8301 fc33 d8ef 57b6 b6ef 8f33
000002e0: 6703 45b7 90b6 1f35 684b 03ba b11b 0138
000002f0: 6a0a 363a 0e89 33b8 6b81 1635 5418 1ab4
00000300: aa3b a6b4 dee7 1433 ad29 a93a 8798 a5b8
00000310: f59e beb6 aa84 bf34 e46f 5d3a 2dbd 5eb8
00000320: a5d0 b1b8 49f2 a336 77b9 dbb7 a5c4 d635
00000330: a676 2aba e560 2a38 a926 8db7 dfd3 8035
00000340: e675 c037 9d47 bfb5 e80c ab3a eaaf a9b8
00000350: ca5f d637 a60e ccb5 85d0 f3b9 c8cc ec37
00000360: 222b a1b6 815f 9934 82fa 863a 51a5 86b8
00000370: 2253 23b6 686d 6834 40a9 adb6 2b13 a933
00000380: f971 15b7 bcf0 2235 1838 6236 0539 0cb4
00000390: bcde e8b6 45dd c434 f7b9 a839 5019 a9b7
000003a0: f0b3 1bba 38e2 1738 c1ab e8b9 2b45 e637
000003b0: bf05 7e3a be25 7cb8 4e51 123a 0463 12b8
000003c0: 5ca1 d8b9 3bda da37 c5f8 0137 fa66 ceb4
000003d0: 4dbb 673a be79 66b8 2279 14b5 6a14 1734
000003e0: d377 4538 34b5 39b6 f929 8639 adb2 85b7
000003f0: a29b 473a ccf0 46b8 e09a d5b3 c242 a532
-0.00058995665 3.6522273e-05 -6.561935e-05 4.7224535e-06 -0.0004317724 2.6176785e-05 -8.419072e-06 8.1057277e-07
-9.2171504e-05 5.98604e-06 0.0005551936 -3.393897e-05 5.075869e-06 -5.7990474e-07 -2.1667727e-05 1.0365027e-06
0.00011302635 -7.358687e-06 -0.0011381991 6.9676156e-05 1.61732e-05 -1.057395e-06 0.0001263762 -8.282784e-06
0.00020785975 -1.2790029e-05 -2.9407654e-06 1.7113153e-07 0.00043412144 -2.679609e-05 3.3804346e-05 -2.1311032e-06
-0.00044395478 2.6632782e-05 -0.00024913027 1.5111241e-05 0.0004320759 -2.6877047e-05 -0.00025867284 1.6261127e-05
-3.5575035e-06 2.2653755e-07 0.00031620087 -2.0052743e-05 0.00037261497 -2.2841574e-05 -6.114576e-05 4.1261796e-06
2.027286e-05 -1.9248027e-06 0.0013011664 -8.013748e-05 -3.271166e-06 -2.8515265e-07 -1.5914836e-06 4.0983e-09
2.3424649e-05 -1.3542567e-06 -0.0010604084 6.525061e-05 7.79361e-05 -4.307363e-06 1.8189434e-06 -1.1915837e-07
0.00048985356 -2.9929612e-05 -0.00058051985 3.6436493e-05 2.286772e-05 -1.3891469e-06 1.1657207e-06 -2.4846312e-07
9.397728e-05 -5.3930335e-06 0.0005460248 -3.4747995e-05 -0.00045952463 2.8372584e-05 -1.3596037e-06 1.8047187e-07
9.676308e-06 -5.8363423e-07 9.2546965e-05 -5.970615e-06 9.8991606e-08 -2.32333e-08 0.0004735715 -2.9092838e-05
-0.0008609009 5.2625757e-05 -0.0005046115 3.1334213e-05 0.0008309095 -5.125891e-05 6.390993e-07 -9.048844e-08
4.8900973e-05 -2.6760504e-06 8.4669984e-05 -5.055077e-06 0.00065031264 -4.0106555e-05 3.8373102e-05 -2.1105889e-06
-0.0010756815 6.631899e-05 1.529289e-05 -8.9398526e-07 0.00028598748 -1.8423094e-05 -5.996312e-07 3.448885e-08
-0.0007068822 4.3880103e-05 0.0010956934 -6.701253e-05 -0.000799223 5.0204322e-05 0.00029831508 -1.9248133e-05
-0.00033649566 2.120868e-05 -0.0001683774 1.0484175e-05 1.8887926e-05 -1.0552372e-06 -0.00044496407 2.8052782e-05
2.5303858e-05 -5.024932e-07 0.00047284557 -2.9392631e-05 6.456859e-06 -4.3889065e-07 0.0017330125 -0.00010774483
-2.060537e-06 1.1933852e-07 2.0640292e-07 -1.1678961e-07 0.0002742707 -1.6666727e-05 4.5697307e-06 -3.1886617e-07
-9.062078e-05 5.4494576e-06 -1.8091081e-05 1.0188787e-06 0.0005146436 -3.166342e-05 -0.0006379372 3.953274e-05
2.1529491e-05 -8.12557e-07 -0.00015127446 9.685844e-06 0.00035862916 -2.1843856e-05 -1.314854e-06 4.337316e-08
3.4804395e-07 2.2442679e-08 0.0005313697 -3.327619e-05 4.040578e-05 -2.5719735e-06 -2.6224834e-08 2.5807424e-08
0.00047341845 -2.969746e-05 -1.4632575e-06 1.4540522e-07 2.6426096e-05 -1.5864948e-06 0.0012312802 -7.6635624e-05
-0.00028475554 1.7251617e-05 1.3661478e-06 -3.1940917e-07 -2.1299122e-06 1.17349394e-07 -3.2177104e-06 6.7025596e-08
-1.1742907e-05 5.949778e-07 -0.000500849 3.0781786e-05 0.0006944301 -4.2804568e-05 5.606768e-07 -1.4351218e-07
-3.096332e-07 3.4669817e-08 0.0012906097 -7.8962235e-05 -5.6809463e-06 3.5673048e-07 0.0008447154 -5.310511e-05
-8.478881e-05 4.8859843e-06 -2.6193198e-05 1.6001474e-06 -0.00065026653 4.06214e-05 -1.6826512e-05 9.598406e-07
2.2943084e-05 -1.4251451e-06 0.0013050111 -8.0913145e-05 2.5555393e-05 -1.5203448e-06 -0.0004650393 2.8228751e-05
-4.803195e-06 2.856796e-07 0.0010298046 -6.4204105e-05 -2.4337282e-06 2.1646485e-07 -5.175505e-06 7.8731624e-08
-8.907628e-06 6.070002e-07 3.3709275e-06 -1.305926e-07 -6.9400685e-06 3.666884e-07 0.00032182012 -2.0158157e-05
-0.00059395935 3.6211888e-05 -0.00044378455 2.7450345e-05 0.0009690187 -6.0116632e-05 0.00055815734 -3.4901328e-05
-0.00041318953 2.6089247e-05 7.74692e-06 -3.8445415e-07 0.00088398607 -5.4949654e-05 -5.531057e-07 1.4070397e-07
4.7080055e-05 -2.7672622e-06 0.00025589744 -1.5938038e-05 0.00076144387 -4.743114e-05 -9.946757e-08 1.9238886e-08

exp_avg_sq f4 [128, 2]
00000000: 2bc7 7535 8306 8031 b67c 9232 6bfe 122f
00000010: 4a26 ed34 93b7 0431 b507 982f e8db 9b2c
00000020: ca14 ea32 92df 152f 3651 5135 6cb7 5c31
00000030: 07be e62f c017 e42c b40f 3231 4fdb b22d
00000040: 30b9 3033 36ac 412f bc13 7636 ebc0 8032
00000050: 4e99 cd30 e795 5a2d 8b02 b833 1571 cd2f
00000060: ce3e da33 0699 eb2f 7f71 322e 6eb8 852a
00000070: cba3 2f35 f156 3a31 00d1 a931 779c 042e
00000080: aefd 0b35 1650 1231 5bf4 3b34 ab9b 4730
00000090: 9321 ff34 42ab 0631 c53b a734 3ef1 b530
000000a0: de64 832e 2bc4 972a 330c d434 8ed9 f030
000000b0: 183b 0635 9fcc 1031 fce8 0633 1d2b 1f2f
000000c0: d019 9a32 5993 af2e 9c25 9e36 b791 a732
000000d0: 65c8 e22f 1d30 212d 3ee9 6b2d a3dc 172a
000000e0: d6d4 ed30 7e76 8b2d 8564 6736 3e5f 7d32
000000f0: efed 5832 58a5 712e c0f9 012e 040e 722a
00000100: 98c3 4f35 7079 5b31 6a29 7d35 7df4 8a31
00000110: 01d5 a830 3079 aa2c e195 472d a7be ad2a
00000120: f826 d932 29f5 db2e f971 8035 8844 8e31
00000130: 0db7 2b35 3409 3131 838b 382d e09d 4b2a
00000140: 6cdd b52f 222a ff2b 8cb0 9a33 c226 a12f
00000150: b876 972b 339f b728 bdd5 8935 56c7 9831
00000160: b8b0 0c36 b3be 1532 3f4b 4e35 d302 5a31
00000170: 6ddd 0736 9b67 1232 8487 d32c a98a ef29
00000180: cf06 1832 b584 2c2e 65c0 f332 8305 f52e
00000190: 4657 f235 bd29 0532 4118 a631 c24a a92d
000001a0: 5500 6036 1935 7832 1d96 8f32 0bb1 b22e
000001b0: c705 d334 90f1 ed30 558e 762d 6d22 d729
000001c0: 950c ac35 f914 be31 3b86 6a36 b514 7432
000001d0: 5b5e 0136 3237 0a32 3676 a234 473a b530
000001e0: 7f6d b634 e597 c630 51ab ae33 177c c22f
000001f0: b0ae d030 c2cd 042d 5b3c 0335 ebba 1031
00000200: 715c 5431 c614 8d2d 69b1 5335 32ea 6131
00000210: 26ee 4d30 61a2 3a2d 95a4 0837 29bf 1433
00000220: 4e67 912d 1eab ac29 a1f8 f42b e45e 8729
00000230: 6076 9b34 5fbf a230 406d 0b2f fcb9 9a2b
00000240: dd4c 2c33 7228 2c2f a39e b930 e332 102d
00000250: 3eb3 5435 f214 6531 eb1a 9535 566a a231
00000260: 42ff 0831 a832 312d 68c5 a333 f1d3 b32f
00000270: e192 b234 b7f1 b630 f215 b92d 7bae 5a2a
00000280: 4372 072d 60cf b129 ac9e 8635 91a5 9331
00000290: d03e 9132 b455 f22e ea93 762b c10d 7428
000002a0: 5031 3e35 1251 5631 3a3b c22d e403 b52a
000002b0: cc6e fe30 6432 062d 11f9 8d36 17ac 9a32
000002c0: de42 8334 f2e2 8c30 494b a62d 3224 162b
000002d0: 2d8c 132e daf1 b92a 5f59 ae2f 719f 992c
000002e0: 3aab b92f 051b d02b 8b39 7835 d2eb 8531
000002f0: 4891 d035 38dd db31 427a 732c fbbf f529
00000300: 7e0c 202c 3d03 2129 126d a536 524e ad32
00000310: ab2a 5e2f dfc6 6d2b 6fcc 2536 9454 3632
00000320: 8754 b132 73c9 b22e 3423 2931 dbce 3a2d
00000330: 4791 a235 8606 b031 37e8 ac30 1099 162d
00000340: 84d5 2931 3929 982d 22aa ac36 6bd8 b932
00000350: 734e 6031 890e 6d2d 4cdf d234 c659 dd30
00000360: cbde 122e 509e 3f2a 8e7e 7536 d6cc 8532
00000370: 16ca 852e 0578 702b 8603 902f c731 f62b
00000380: d058 b42f 7acf 422c 8188 082f 3a7c 942b
00000390: de99 312f 3955 422b be35 a434 a95d b930
000003a0: b9c7 7f35 35f4 8931 ce8f 3b35 c0ea 4e31
000003b0: 34f3 3736 1895 4632 384c a235 9f33 b331
000003c0: 4a80 1f35 6a1c 2d31 6865 452f db24 4f2b
000003d0: f8b9 3036 36a6 4332 6620 d02c 2b4b 292a
000003e0: ac0c ff31 768c 092e a5a8 9534 e8af 9b30
000003f0: a5cc ec35 2778 0232 55d4 c82a 3847 3028
9.155944e-07 3.7260306e-09 1.7053349e-08 1.336901e-10 4.417255e-07 1.9312878e-09 2.7654115e-10 4.4297795e-12
2.7250639e-08 1.3630899e-10 7.7976745e-07 3.2118477e-09 4.197178e-10 6.4827865e-12 2.5911335e-09 2.033365e-11
4.114662e-08 1.761443e-10 3.6668343e-06 1.498889e-08 1.4959285e-09 1.242515e-11 8.56863e-08 3.7369632e-10
1.016284e-07 4.285498e-10 4.057332e-11 2.375352e-13 6.543093e-07 2.7115983e-09 4.942308e-09 3.0152294e-11
5.215069e-07 2.129132e-09 1.7504628e-07 7.2616996e-10 4.752188e-07 1.9596915e-09 3.1149662e-07 1.3238048e-09
5.975108e-11 2.6959107e-13 3.9496953e-07 1.7524131e-09 5.000488e-07 2.1071072e-09 3.1411204e-08 1.4476283e-10
1.7939698e-08 7.984253e-11 4.7131452e-06 1.9507622e-08 4.125155e-10 9.162474e-12 1.3409994e-11 1.3488043e-13
1.7304511e-09 1.5855092e-11 3.4480192e-06 1.4748194e-08 1.2626955e-08 5.494391e-11 2.9553027e-11 2.149878e-13
7.7398136e-07 3.1937724e-09 9.431011e-07 4.0441237e-09 1.2284148e-09 4.845145e-12 1.134512e-11 3.0863265e-13
2.5279846e-08 1.0002516e-10 9.569914e-07 4.140535e-09 6.396884e-07 2.5762121e-09 1.0490167e-11 1.8084796e-13
3.3081038e-10 1.8130534e-12 7.2032975e-08 2.9313268e-10 1.0762146e-12 2.0386123e-14 1.0269501e-06 4.446444e-09
2.096449e-06 8.7163015e-09 7.685048e-07 3.172478e-09 2.0245454e-06 8.521876e-09 6.012026e-12 1.0637786e-13
8.8491126e-09 3.922614e-11 2.8376414e-08 1.1142289e-10 1.8055805e-06 7.751109e-09 4.833993e-09 1.9246275e-11
3.3378794e-06 1.4447573e-08 1.6715655e-08 8.125952e-11 3.9306016e-07 1.7312676e-09 1.4015085e-11 9.55389e-14
1.281866e-06 5.532112e-09 3.494685e-06 1.42073775e-08 1.927742e-06 8.045207e-09 3.026086e-07 1.3186047e-09
3.397981e-07 1.4449567e-09 8.133669e-08 3.5376566e-10 1.5183641e-09 7.549019e-12 4.888913e-07 2.1061008e-09
3.0902607e-09 1.603907e-11 7.886179e-07 3.2874934e-09 7.4916995e-10 1.0608931e-11 8.144551e-06 3.4632794e-08
1.6530468e-11 7.6680185e-14 1.7406251e-12 6.011665e-14 2.895713e-07 1.1841442e-09 1.268079e-10 1.0993979e-12
4.0116777e-08 1.5657678e-10 1.3505609e-09 8.1967514e-12 7.9236986e-07 3.3335792e-09 1.1109199e-06 4.7269095e-09
1.9935702e-09 1.0072533e-11 7.626187e-08 3.2710504e-10 3.3261952e-07 1.3310942e-09 2.104181e-11 1.9422825e-13
7.699233e-12 7.896353e-14 1.0029958e-06 4.297086e-09 1.6908785e-08 1.102011e-10 8.760203e-13 1.3547703e-14
7.0852275e-07 3.1187182e-09 2.2081548e-11 3.2154758e-13 1.8512423e-09 7.628207e-12 4.2311226e-06 1.8006217e-08
2.4449304e-07 1.0250842e-09 1.8905448e-11 5.3340936e-13 3.354843e-11 3.303042e-13 3.1713918e-10 4.366223e-12
3.3772968e-10 1.4786788e-12 9.2470935e-07 3.897619e-09 1.553949e-06 6.3988885e-09 3.4600244e-12 1.0913489e-13
2.2744302e-12 3.575199e-14 4.9300806e-06 2.0175467e-08 2.0205941e-10 8.4475303e-13 2.4705912e-06 1.0613025e-08
2.064395e-08 8.1302874e-11 2.4612747e-09 1.0618807e-11 1.2112222e-06 5.123016e-09 1.2580647e-09 8.5604995e-12
2.4714106e-09 1.7298706e-11 5.1458055e-06 2.163525e-08 3.2640883e-09 1.3475118e-11 3.9278018e-07 1.6105381e-09
3.3394437e-11 1.7019133e-13 3.658151e-06 1.5576386e-08 6.0840374e-11 8.543169e-13 2.619595e-10 1.7493167e-12
3.2804914e-10 2.768423e-12 1.2417624e-10 1.0550512e-12 1.6152721e-10 6.9040916e-13 3.0586483e-07 1.3487141e-09
9.528554e-07 4.014988e-09 6.987219e-07 3.0110385e-09 2.7410688e-06 1.1559017e-08 1.2092123e-06 5.2154543e-09
5.94188e-07 2.5190965e-09 1.7953072e-10 7.359232e-13 2.6334292e-06 1.1388286e-08 5.9153125e-12 1.5036294e-13
7.4229174e-09 3.1274948e-11 2.7876118e-07 1.132773e-09 1.764293e-06 7.594315e-09 3.5674472e-13 9.785406e-15

exp_avg f4 [128]
00000000: c4f6 98b8 42f4 12b7 228c 5db8 0118 b3b5
00000010: bb32 44b7 8807 8f38 ca69 7135 498b 1fb6
00000020: 67b0 7037 84b8 12b9 274b 0a36 1612 8737
00000030: f505 d737 a995 bdb4 42b3 6038 83c6 8d36
00000040: 789d 62b8 8788 ffb7 ed8a 6038 9f3d 07b8
00000050: 1864 efb4 c1ee 2538 223d 4038 8d5c 04b7
00000060: 4ef9 5436 873f 2839 e43e b833 fde5 dab3
00000070: 2692 3b36 c50e 09b9 151d 1937 7fbf 7834
00000080: 0a4a 7c38 1a77 97b8 57cf 3b36 43d1 ac34
00000090: 62b4 3b37 a38d 8f38 e90f 6eb8 2587 8eb4
000000a0: a5b1 9e35 a247 4437 ac1d fa32 9dac 7438
000000b0: 23ce ddb8 f307 83b8 7011 d738 1c83 0c34
000000c0: a010 bf36 aa7b 2c37 2741 a838 3f24 9636
000000d0: 5d29 0bb9 352b f735 2e4d 1738 e09c 98b3
000000e0: 3786 b7b8 932b 0d39 83b6 d0b8 66f8 1d38
000000f0: 280b 30b8 aa29 afb7 1826 1536 afdd 68b8
00000100: 7186 0936 c3b6 7538 20ad 6035 9e25 6139
00000110: 746b 84b4 45bd 0b34 bbeb 0c38 a4c7 2135
00000120: 3a5f 39b7 8976 0fb6 6a07 8538 4070 a5b8
00000130: c155 0f36 84a8 9fb7 ed6a 3838 4d0a 06b4
00000140: bbb6 83b0 7b93 8a38 4746 aa36 2327 edb2
00000150: 9117 7738 5f6b 7eb4 c359 5736 390b 2039
00000160: 4507 12b8 c6e2 d934 acd7 85b4 794a 90b4
00000170: b712 b1b5 dc5e 81b8 70a3 b338 cf2f 4034
00000180: cea2 68b3 924c 2639 878e 3db5 b0b9 dc38
00000190: f197 29b7 780c 58b6 0c61 a9b8 b94b 06b6
000001a0: d109 3f36 be4c 2939 49e4 4f36 6bc4 6eb8
000001b0: d641 1cb5 18f7 0539 8df3 c5b4 905a d5b4
000001c0: 79a6 9db5 41cc c234 8394 55b5 11da 2738
000001d0: 7ccd 98b8 0401 66b8 268b fb38 7079 9138
000001e0: c45f 58b8 0b58 6735 fea8 e538 74f9 3cb4
000001f0: 4997 be36 971d 0538 1f13 c638 7b48 dbb2
-7.2938885e-05 -8.759149e-06 -5.2821015e-05 -1.3343525e-06 -1.1694322e-05 6.820174e-05 8.993344e-07 -2.377392e-06
1.4346187e-05 -0.00013992382 2.0607347e-06 1.6101676e-05 2.5632771e-05 -3.5312885e-07 5.357271e-05 4.2252373e-06
-5.4029253e-05 -3.0461944e-05 5.3535146e-05 -3.2243897e-05 -4.4590047e-07 3.9561422e-05 4.58333e-05 -7.889362e-06
3.1735576e-06 0.00016045394 8.5796074e-08 -1.0193251e-07 2.795024e-06 -0.0001307084 9.126282e-06 2.3166466e-07
6.0150436e-05 -7.2224255e-05 2.798586e-06 3.2189755e-07 1.1188067e-05 6.845153e-05 -5.675844e-05 -2.6547892e-07
1.1823619e-06 1.1699189e-05 2.9117324e-08 5.8334892e-05 -0.00010576497 -6.2480474e-05 0.00010255247 1.3086213e-07
5.694179e-06 1.0280792e-05 8.023e-05 4.474568e-06 -0.00013271482 1.8415509e-06 3.6073085e-05 -7.106587e-08
-8.7511195e-05 0.0001346304 -9.952208e-05 3.7663056e-05 -4.197206e-05 -2.0881027e-05 2.2224904e-06 -5.551957e-05
2.0492846e-06 5.8582762e-05 8.369843e-07 0.00021471686 -2.4665098e-07 1.301424e-07 3.3598142e-05 6.026769e-07
-1.1049031e-05 -2.1377657e-06 6.343315e-05 -7.888721e-05 2.1358576e-06 -1.9032748e-05 4.39686e-05 -1.248347e-07
-9.58344e-10 6.607823e-05 5.074576e-06 -2.7608229e-08 5.8911337e-05 -2.3694655e-07 3.2089745e-06 0.0001526297
-3.4815883e-05 4.05844e-07 -2.4930102e-07 -2.6876276e-07 -1.3192974e-06 -6.168868e-05 8.565828e-05 1.7898786e-07
-5.416478e-08 0.00015859518 -7.061539e-07 0.000105250045 -1.0108562e-05 -3.2193766e-06 -8.076624e-05 -2.0011632e-06
2.8466932e-06 0.00016145685 3.0978283e-06 -5.692655e-05 -5.821033e-07 0.00012775918 -3.6871316e-07 -3.9740235e-07
-1.1745861e-06 3.628393e-07 -7.9564796e-07 4.0018993e-05 -7.286199e-05 -5.483722e-05 0.00011994531 6.936758e-05
-5.15876e-05 8.6182325e-07 0.00010951048 -1.7599615e-07 5.680053e-06 3.173723e-05 9.444937e-05 -2.5527916e-08

exp_avg_sq f4 [128]
00000000: 6dae 7932 dd05 cd2f 1c5e f831 111b 2c2d
00000010: a430 0230 c1bb 5532 7a15 7a2d d7f4 7a2e
00000020: a254 3730 4d75 7a33 b44c 152e e660 c030
00000030: 8c1b e130 6be3 562b 7ec2 3332 8128 d02e
00000040: cc64 0e32 e96e 4031 674e 0232 38f8 ac31
00000050: 779c 8b2b c062 df31 bb5a 0a32 ea60 1030
00000060: d8fe a12f e4cc a133 8c37 a02d 4135 ba2a
00000070: da18 372e 4e09 7033 c032 622f b9ef 2d2b
00000080: 3543 5432 f06b 8332 2246 a92d 73b6 212b
00000090: 4ff2 d92f a1df 8532 9db4 2d32 6464 d52a
000000a0: ce4c d32c bb12 9d30 c687 4129 17b9 8f32
000000b0: 6736 1033 f2cf 5232 edfc 0b33 b1bd 7d2a
000000c0: 1625 202f a5f0 f32f 8cbf fb32 a608 a72e
000000d0: 588b 6933 e8a9 9d2f 9584 dd31 7dd5 9f2a
000000e0: 992b b332 9227 6e33 eec7 0433 a3d4 a931
000000f0: c1b7 bc31 9480 b630 087d e72d ed8b 0832
00000100: e850 6d2e 3035 5932 81bf d32d 8d66 0d34
00000110: 9543 9c2a b874 ea29 693b 9e31 e96d 4f2c
00000120: 83e9 2b30 6e34 e32d c91c 5b32 ba54 9a32
00000130: cbb4 182e 3e10 aa30 e429 b431 f2ef 0f2b
00000140: 7343 5f2a aab9 8b32 4c59 b82f fb39 0329
00000150: acb0 4732 d763 4a2b 15d7 012e 29f5 9233
00000160: 7507 8731 296b 8a2b d3a4 6e2b 5c7a 302d
00000170: 4240 c22c 9edd 7f32 e3e8 d432 ed3e 5d2a
00000180: c489 b029 2c72 a833 85dd 632c ba45 2c33
00000190: c499 b12f df20 302e 5cd6 a732 01b8 e02d
000001a0: 08f0 5f2e c1ce b133 ec29 652e 66e9 d631
000001b0: 4b3d 242b f821 7e33 e160 082c f1ea b82c
000001c0: 61ea 042d 1585 472c ea39 382c 2b8a ac31
000001d0: edd3 8332 eb26 4332 56af 3d33 fdee a832
000001e0: 50ce 2432 eb6a 482c c02a 3833 d928 a12a
000001f0: 4880 032f 13f2 9731 fd4f f632 247c a428
1.4533367e-08 3.729345e-10 7.228449e-09 9.783078e-12 4.7362847e-10 1.2440922e-08 1.42156235e-11 5.706088e-11
6.669528e-10 5.8314345e-08 3.3946804e-11 1.3997379e-09 1.6378734e-09 7.634368e-13 1.0463394e-08 9.46594e-11
8.288406e-09 2.8002722e-09 7.5848225e-09 5.034078e-09 9.919972e-13 6.5013808e-09 8.053287e-09 5.252462e-10
2.9466807e-10 7.534416e-08 1.8214562e-11 3.307719e-13 4.1631455e-11 5.5887817e-08 2.057261e-10 6.179463e-13
1.2355305e-08 1.5299491e-08 1.924422e-11 5.745189e-13 3.964424e-10 1.5584932e-08 1.0110992e-08 3.790606e-13
6.0055077e-12 1.1428577e-09 4.2972373e-14 1.673156e-08 3.357709e-08 1.227089e-08 3.2593494e-08 2.2536726e-13
1.4565091e-10 4.437243e-10 2.9307351e-08 7.595817e-11 5.4376272e-08 2.867886e-10 6.4470194e-09 2.839221e-13
2.0858169e-08 5.5449682e-08 3.091548e-08 4.9427213e-09 5.4924105e-09 1.3278787e-09 2.6317185e-11 7.948057e-09
5.395942e-11 1.2643156e-08 2.4072968e-11 1.3168956e-07 2.775806e-13 1.0411935e-13 4.6051594e-09 2.9477482e-12
6.254128e-10 2.5830196e-11 1.2754023e-08 1.7966489e-08 3.4721375e-11 1.2373744e-09 5.243452e-09 5.1136797e-13
1.982978e-13 1.626616e-08 3.3532854e-10 2.9138133e-14 1.1623495e-08 7.190337e-13 2.9522235e-11 6.843249e-08
3.929865e-09 9.835233e-13 8.4783325e-13 1.0031611e-11 5.5209457e-12 1.48933434e-08 2.4785953e-08 1.9650575e-13
7.8398686e-14 7.8438774e-08 3.2381608e-12 4.0110287e-08 3.230537e-10 4.0046962e-11 1.9538838e-08 2.5547566e-11
5.091752e-11 8.279813e-08 5.2105806e-11 6.254754e-09 5.8349565e-13 5.9169878e-08 1.938054e-12 5.2556783e-12
7.555374e-12 2.8353476e-12 2.6180121e-12 5.0215667e-09 1.534678e-08 1.1359343e-08 4.416446e-08 1.9666453e-08
9.592966e-09 2.848106e-12 4.287972e-08 2.862769e-13 1.1959955e-10 4.422199e-09 2.8674544e-08 1.8261495e-14
