FYPprototype/results/Test1/AIBalancing/AIBalancing-500011.onnx (onnx, 70746 bytes, 6 tensors)

action_model._discrete_distribution.branches.0.bias f4 [2]
00000000: dc2e 9a3b de2e 9abb
0.004705293 -0.004705294

action_model._discrete_distribution.branches.0.weight f4 [2, 128]
00000000: 2d87 413c 6a17 a8ba 1d5c 743c 17f2 2bbc
00000010: 99da 153b 1666 9f3c 572f 393a a3ba 593b
00000020: d81a 9d3b ce9a 333c a1f7 8a3b 2808 953c
00000030: 1fb7 27bc a3ef cd38 fcd0 2fbc d7e8 b4bb
00000040: f24b 003c a3bf 6f3c 8447 0c3c a8ec 9aba
00000050: 3371 e5bb ece2 f138 8c10 093c 1b3f 403b
00000060: 8e88 59bc 6af1 65bc fad9 2d3b 1838 c6bb
00000070: cea0 b1bb 8b2c 2cbc 10e1 ae3b 66d9 a2ba
00000080: 8501 21bc a9d0 3bbb e418 933c 6544 71bc
00000090: 2bd3 183c 107e bdba 3d7b aa3b 92f7 1cbc
000000a0: bf5f 083b ec69 b2bb a1ae 90bb 383e f4bb
000000b0: 857c 9d39 3ba9 83bb f639 92bc 7913 5b3b
000000c0: 45ad 143b 6b20 91bc 162d 9fbb 964f cbbb
000000d0: 0b42 873c b664 76bb d794 85bb 5536 c43b
000000e0: 2845 c53c f6e4 843c 4e69 07bc f2c0 1cbc
000000f0: c45a 1ebc fe34 acba cee0 cd3b 76aa 9e3b
00000100: 3e23 8b3b 5e36 8d3b 2e0d 1abc a0e9 283b
00000110: 544a f4bb 91eb 71bc f45c 1ebb b7f2 c53a
00000120: 0c59 60bc ba33 84bb 20b4 cebc 708f 83bb
00000130: 3caf 5cba b63b 0a3c bf9d b639 e6bd 8eba
00000140: bc92 323c 8c11 b03b 767f b03b 4d65 5c3c
00000150: fa90 fbba 78cd 8c3b f6c0 443a 93ff b8bb
00000160: af96 823c 679e c2bb bea1 51bc a798 ec3b
00000170: b29c 03bc 41a1 feba afa8 573c be06 923c
00000180: c081 f9b9 0ec5 9c3a 707e 02bc 9d44 9abc
00000190: 780c c2bc d012 023c 90ad 2b3b 9d56 c33c
000001a0: b98f b8ba db72 993a 9d43 bb3a ab5c 81bc
000001b0: e1ff 9c3c 5c4a 053b a4e1 6439 4f1a cb3b
000001c0: c619 cb3b 3a82 ffba dd4d bb3a 83f3 263c
000001d0: 1255 79bc d734 bbbb 2d4b b63b 7b96 c13b
000001e0: 1ee0 d3ba 906b 89bb bc66 f73a 3c28 a83b
000001f0: 823e 64bc a739 283c 7b5a cdbc 0dcf adbb
00000200: 167c ba3b c9fd 273b 5bec 093c bcf4 b13c
00000210: ddc1 19bc 7b23 453b 09c7 1abc 4cb5 c5ba
00000220: 8165 a5bb 187a d03a 8cb7 883b 941e 50bb
00000230: 0aaa e8ba 441c 22bb cf84 4e3b 3209 49bb
00000240: 9420 d73b 94b8 133c aadb 843c b57e ffbb
00000250: df97 5bbc f8c2 5a3b 0550 123c ec76 f23a
00000260: e1fd 4b3a 1444 233c b679 2d3b ec39 c1bb
00000270: bb16 2cbb 0aaa 11bc dc53 abbc 4abf d73c
00000280: d219 9c3c e39b 76bc d33f f0bb 7184 863b
00000290: 2e4c 163c 295f 6c3c 52af 6b3c 459d dc3b
000002a0: 6e57 563c c9ce 903c 4ef5 56bb 3c8d 103c
000002b0: f748 eeba c17f 9e3c 727a 0a3c 5db0 023a
000002c0: 4e6d 093b 4ae4 cc3a f4f0 53bb 03db 9c3b
000002d0: e1b1 fb3b 87db bfbc 4a7b 3cba df22 88bb
000002e0: 6160 0a39 29bd 0d3c b388 143c fa8d d13c
000002f0: add3 9c3a 0b7e bb39 fc05 ce3b 4156 c5bb
00000300: 29cb 9bbc c727 35bc a992 113c 9c8b 163b
00000310: f185 313c 4472 82bb 9a27 c1bb 90b2 b33b
00000320: 6b35 903c 1522 c3bb c9fe a53b 04fd 3b3b
00000330: 4d12 8cbc a834 87ba 2f06 e5bb 05d2 13bc
00000340: 338e 273c afe1 af3b 2537 053c 6f07 04bc
00000350: 9a2f 61bb 0428 fa3a 2a67 4ebc 207c 65bb
00000360: 2e5b c7ba d97f cdbb 7e1e 6c3c 6047 ea3b
00000370: ce4e 7c3c 0aad f83b 1843 213c a5f2 da3a
00000380: 45f2 b83b d413 1a3b efbd f0bb d0e4 1fbb
00000390: 12d0 a63c 5d4c b0ba 87ea 1c3b 87cd fbba
000003a0: 4ce4 dbba dcc9 2b3a fdb7 15ba 8f69 fabb
000003b0: 85be 9a3c 8c1b 4dbc 8f7e 2ebc 24df 38ba
000003c0: df25 3d3c c21d 18bb 5742 a7bc 3c6d 623c
000003d0: 2ab7 6a3c f95b c13b 15c8 333c 3334 743c
000003e0: 7483 d63b 871e da3c c1fa d43a 4dec 033c
000003f0: 03ba 413c 3a07 4e3a d715 d9bb 3b73 823c
0.011812014 -0.0012824361 0.01491454 -0.01049473 0.002286589 0.019457858 0.0007064244 0.0033222816
0.00479446 0.010962201 0.0042409454 0.018192366 -0.010236531 9.8197976e-05 -0.010730978 -0.0055209207
0.007830607 0.014633092 0.0085619725 -0.0011819797 -0.00700202 0.00011534043 0.0083657615 0.0029334489
-0.013277186 -0.014034608 0.002652763 -0.0060491674 -0.0054207807 -0.010508667 0.005336888 -0.0012424409
-0.009827022 -0.0028658307 0.017956205 -0.014725779 0.00932769 -0.0014457125 0.0052026794 -0.00958051
0.0020809022 -0.005444756 -0.0044153486 -0.007453706 0.00030038148 -0.0040179766 -0.017849904 0.0033428355
0.0022686285 -0.017715653 -0.0048576696 -0.0062045557 0.016510984 -0.003759665 -0.004076581 0.005987922
0.024080828 0.016222458 -0.008264853 -0.009567486 -0.009665195 -0.0013138351 0.0062829023 0.004842098
0.0042461446 0.0043094596 -0.009402556 0.0025774017 -0.0074551497 -0.014765636 -0.002416429 0.0015102242
-0.013693105 -0.0040344866 -0.025232375 -0.004014902 -0.0008418446 0.008437088 0.00034831275 -0.0010890334
0.010899242 0.0053731855 0.0053862883 0.013451886 -0.0019192987 0.0042969547 0.000750556 -0.005645701
0.015940992 -0.005939293 -0.01279491 0.007220346 -0.008032965 -0.001942672 0.013162776 0.01782548
-0.00047589652 0.0011960582 -0.007964715 -0.018831545 -0.023687586 0.007939056 0.002619598 0.023845011
-0.0014080919 0.0011707203 0.0014287118 -0.015791258 0.019164981 0.002033851 0.00021827832 0.0061982046
0.006198141 -0.0019493767 0.0014290173 0.010189894 -0.015218036 -0.005713086 0.005563161 0.0059078312
-0.0016164815 -0.0041937307 0.0018875222 0.0051317494 -0.013930919 0.010267652 -0.025067559 -0.0053042234
0.0056910617 0.0025633445 0.008418168 0.021723144 -0.0093845995 0.0030080962 -0.009446868 -0.0015083938
-0.0050475006 0.0015905527 0.004172271 -0.0031756507 -0.0017750871 -0.0024736086 0.0031512266 -0.0030675647
0.006565163 0.009016175 0.016218025 -0.007797087 -0.013402908 0.003338037 0.008930211 0.0018498576
0.00077816664 0.009964962 0.002647025 -0.0058967974 -0.0026258666 -0.008890638 -0.02091401 0.02633633
0.01905528 -0.015051815 -0.007331827 0.0041051437 0.009173436 0.014426985 0.014385061 0.006732615
0.013082368 0.017676728 -0.0032800022 0.008822735 -0.0018179704 0.019348027 0.008452045 0.00049853866
0.0020969692 0.0015632 -0.0032339664 0.0047868504 0.007681117 -0.023420108 -0.00071900024 -0.0041545476
0.0001319661 0.008651056 0.009065795 0.025580395 0.001196494 0.0003576133 0.0062873345 -0.006022245
-0.019017773 -0.011056847 0.008885064 0.0022971397 0.010835157 -0.0039809067 -0.0058946135 0.005483933
0.017603597 -0.0059549906 0.005065773 0.0028684745 -0.01709857 -0.0010315375 -0.0069892625 -0.0090222405
0.010226774 0.0053674798 0.008130823 -0.008058413 -0.0034360648 0.0019085412 -0.012597838 -0.0035016611
-0.0015209669 -0.006271344 0.014411567 0.007149622 0.015399648 0.0075889872 0.009842657 0.0016704394
0.005644115 0.0023510354 -0.0073468606 -0.0024397857 0.020362888 -0.0013450492 0.00239435 -0.0019211032
-0.0016776412 0.0006553212 -0.00057113153 -0.007641978 0.018889675 -0.012518775 -0.010650291 -0.00070522935
0.011544674 -0.0023211096 -0.020417375 0.013819989 0.014325896 0.0059008566 0.010972996 0.014905023
0.006546432 0.026625885 0.0016249047 0.008051944 0.011824134 0.0007859353 -0.006624918 0.015924087

network_body._body_endoder.seq_layers.0.bias f4 [128]
00000000: 32be b4bb 29b1 60bb ae23 fd3b 21a5 68bc
00000010: 6fd6 f33b 4ee5 f1bb 0eeb 0d3b 0812 1f3a
00000020: 9a05 133c 54df 7aba d3a1 183c ac42 af3b
00000030: 0f2a 88bb 4bad b43a fb33 4b3b c7e5 22bc
00000040: 4595 d23b eaef 433b e28d 42bb 4c1b c33b
00000050: f687 0c3c 614b 81bb 9f49 27bc 3f17 84ba
00000060: fd7d a7bb a455 343b 3840 cc3b 535d 003c
00000070: 57d4 e0ba 6127 ecbb 3f9d c13b 95b4 263c
00000080: 6b96 94bb 43a7 9c3b 4272 1b3c 9e72 8cbb
00000090: 2edd a03a f372 ae3a c79c bb3b 2f58 163c
000000a0: df63 72ba b3f3 f93a 1ac1 143c 6b90 d73a
000000b0: e61b de3b 34d1 39bc 6b9f 01bb 6b86 f0bb
000000c0: 624f 543a 92e7 063c 2090 89bb c7d1 c63a
000000d0: 4146 103c 2661 bfbb 9a19 b2bb 8772 8a3b
000000e0: f5d0 e4ba f869 4abc 39ec 92ba ff1f 6fba
000000f0: e0bb 933b ed89 0ebb dea2 37bc cc88 1ebc
00000100: f404 433b 86dc 1539 6283 d638 9e43 f93a
00000110: 5f64 80bb 35ce f9bb 0988 a739 4bb0 a6bb
00000120: cf85 653b 3c64 8a3b 56d6 293b 42da 4ebb
00000130: 06fc 483b e857 bc38 61e1 30bc 077c f5ba
00000140: 02d7 993b 0918 1c3c 5b5f 3e3b f8cd 833b
00000150: e769 c4bb 857e 63bb ca07 a43a c9bf 6dbb
00000160: f10f 1f3c dc78 683b 8459 a63a bcae 06bc
00000170: 1457 2cbc 46e7 9c3b cbc0 4b3b 6f38 fc3b
00000180: 6b1e 163c 7191 343b a48f e83b 0cd1 cf3a
00000190: efbc 023c 889b 72bb bf62 d9bb 8ba2 d8bb
000001a0: 3bce 333b 77db 4bbb 2f49 bd3a a933 923a
000001b0: 39da 223a c93b 79bb 75db 1f3c 8b56 633b
000001c0: 1ef6 f03b c97d 30bc 0746 0c3b 0172 953b
000001d0: 9c0f 513b 4126 803b a720 df3b a1b2 353b
000001e0: 6f0a 9dbb c129 50bb af00 133b 7135 843b
000001f0: 5804 c23b 2702 8dbb 0aeb c83a 44aa 15bc
-0.005515837 -0.0034285283 0.0077252006 -0.014199526 0.007441334 -0.0073820716 0.0021654996 0.00060680555
0.0089735035 -0.00095700216 0.009315926 0.005348524 -0.0041554044 0.0013784555 0.0031006325 -0.0099424785
0.0064264857 0.0029897639 -0.002968662 0.005954182 0.0085773375 -0.0039457534 -0.010210424 -0.0010077729
-0.0051114545 0.0027516866 0.0062332414 0.00783475 -0.0017153126 -0.007206843 0.005908638 0.01017489
-0.004534533 0.0047806813 0.00948769 -0.0042861244 0.0012272948 0.0013309404 0.0057254764 0.009176298
-0.00092464493 0.001906982 0.009079242 0.0016446238 0.006778228 -0.011341382 -0.0019778858 -0.0073402426
0.0008098987 0.008233922 -0.0041980892 0.001516872 0.008805812 -0.0058404384 -0.005435181 0.0042250785
-0.0017457294 -0.0123543665 -0.0011209316 -0.0009121894 0.0045084804 -0.002174969 -0.011208264 -0.00967617
0.002975759 0.00014291899 0.00010228787 0.0019017344 -0.003918215 -0.0076234587 0.00031954076 -0.0050869337
0.0035022383 0.0042233746 0.0025915108 -0.0031563197 0.0030667796 8.9809124e-05 -0.010795922 -0.001872898
0.0046948204 0.009527215 0.0029048536 0.004022356 -0.00599407 -0.0034712863 0.0012514528 -0.0036277643
0.009708391 0.0035472428 0.0012691473 -0.008220371 -0.010518808 0.004788312 0.0031090255 0.007697157
0.009162526 0.002755251 0.0070972014 0.0015855148 0.007979616 -0.0037018973 -0.006634086 -0.0066111735
0.0027436155 -0.0031106153 0.0014441366 0.0011154312 0.0006212327 -0.003803002 0.0097569125 0.0034689035
0.007353558 -0.010772177 0.0021404044 0.0045607095 0.0031900173 0.00391081 0.0068093124 0.002772488
-0.0047925035 -0.0031763169 0.0022430827 0.004034691 0.005920928 -0.004303235 0.0015328836 -0.009134833

network_body._body_endoder.seq_layers.0.weight f4 [128, 2]
00000000: 7d5a 603f fb26 243d 9176 7ebe f30b 913f
00000010: 71a2 eebe 1ccb 27bf 3fa6 3ebe a50b 67bf
00000020: cb2a ecbe 2c54 3dbe af57 43be d57f 9e3e
00000030: 25a7 a3be 0e59 463f ad2d 8abe ed11 51be
00000040: a6da d1be 68d0 71be 4894 7abf a18e 8dbf
00000050: ab7b 7abf b76a 243e 7a31 dfbe 99f6 043e
00000060: 7263 253b 79a9 ce3f da49 343e 5149 563e
00000070: c84b 87bd 2ad5 503f 66b2 663f 193f e23e
00000080: e845 b9bf 67f4 c8be b34d 4cbf 0245 b63f
00000090: 2232 ac3e e958 52bf 9e67 cebf d688 29be
000000a0: 5e03 28bf c632 de3e 7e52 10be e233 eabe
000000b0: 0bdd 463f 5e88 373f a718 00bf 92ef 03be
000000c0: d689 8abf 11e2 0dbf 909c 4f3f 2fbb 773f
000000d0: bdc3 09bf c5e2 593f 2e72 28bf 63b3 d93e
000000e0: 46b4 b23f 8ced 373f a3b0 05bf ac75 fc3d
000000f0: 8c5f ee3d 5d92 9abf 90e2 45bf 7629 85bf
00000100: b7bb 4c3e 9d07 80bf ab4d 43be 6fc7 5bbe
00000110: 369a 76bf 4f7c ce3e 3245 0a3e 0199 a23f
00000120: 04e3 2b3d 07b8 723f f424 5ebe 6208 ddbe
00000130: 135b f03d 01cf 803d 1673 49bf cd2d 823e
00000140: 972e 8b3f e621 9e3f ab41 af3f f8be 6dbe
00000150: 1738 1bbf c4ad d7bd db73 2dbf b2a6 44bf
00000160: 7d68 e7be 703a 473e 130e 74bf 12d0 b33f
00000170: ab74 a8be cc87 9c3e d334 24bf 2d4e ba3e
00000180: b080 693e 071e 15bd 8859 8bbf a07c 10bf
00000190: 74a4 133e 3e9b 833f 2bb3 06bf 5111 99be
000001a0: f1cc 81bf 5010 12bf b4fc d6bd 8047 343d
000001b0: 24f8 6abf e156 fbbc e5ae acbe d1b4 ad3f
000001c0: ac0a 8d3d a95d 913e 626f ab3f 3c9f b33d
000001d0: 3a75 aebf 7075 babf f2cd b1bf cb89 1d3f
000001e0: 8d51 b5bd e35a 183f 4a85 7bbe d2d4 4cbf
000001f0: 6511 7d3f 49e5 3b3e 132c 463e df82 e23f
00000200: 559e 6e3f 5b2b b73e d8bc c6be 50e3 8abe
00000210: fcbb 063e 7a72 9cbd dd56 ca3d 83cf cb3e
00000220: ffe2 6dbf d567 3e3e 4c60 c6bb 4ed5 24bf
00000230: 9a0e 8c3f 0327 69bd 14be c6be e33a 8d3f
00000240: 4928 9e3f caef 22bd cf06 6e3f 89b5 36be
00000250: 0519 0bbf 5ae6 773d 4eff 303e 23be ff3e
00000260: 3a06 473e c5cc 893e 7401 b03e 6f8f 403f
00000270: 11ce 3a3f 7422 033e be7a 90be 859f d63e
00000280: 6013 75be f164 543f b7e9 02be 48e4 03bf
00000290: 6f3e 863f 0488 16bf 5913 cb3d ce2a 043f
000002a0: e804 81be 0ba6 833e 9196 58bf c945 38bf
000002b0: 6555 7d3d 666d 2f3e 2c93 a33f c8b8 35bf
000002c0: e7bf 01bf 3069 a2bf 24ff 323f 929e 24bf
000002d0: 3119 973e e862 3cbf ea56 b9be 4814 01c0
000002e0: f27c 873f 091c d63e d04a 3abf 715e 223e
000002f0: ace9 6c3e c3c1 3d3e 9047 8abf a2cf 5ebf
00000300: 4a5e 27be 1fa0 5fbe fe84 413e 0f3e 08be
00000310: 88c3 edbd d686 88bc bcbe bd3f 2dd8 ce3f
00000320: d462 41bf 58d8 7c3f b7aa f13e a814 04bf
00000330: bd6e 173d 046f 28bf 1228 0dbd 3c17 a53e
00000340: f55e 5ebe 9455 8b3f f216 00bd d17a 223e
00000350: 6d92 a63e 214c d7be 6d69 c8be 8f60 fcbd
00000360: 5984 9a3d f321 213f 3040 b8be 0d05 513e
00000370: 7fc9 52be d214 8a3e 7db9 053e 54a9 99bf
00000380: 6926 fbbd 341d 213d aa3c 09bf 3f81 e93f
00000390: 225b 743e 1c46 553e b8df a73f 14fd a13d
000003a0: eba4 5a3e c263 99bf 8010 05bf 5e5b ee3e
000003b0: 7187 b7be 9730 c43d 6c63 333f a978 2d3f
000003c0: 0859 773f b4df 20bf 5bd2 493e 7bab 5a3e
000003d0: 5314 46be d839 b4bf 5d2b c33e c189 74be
000003e0: 4b6a f9be 7d94 afbe a011 d9be b81c d6be
000003f0: ed5e 963e 5b66 443f 9ed1 99bd b848 55bf
0.87638074 0.040076237 -0.24849917 1.1331772 -0.46608308 -0.65544295 -0.18618105 -0.90252143
-0.46126398 -0.1848914 -0.19076417 0.30956903 -0.3196346 0.77479637 -0.26987973 -0.20416994
-0.40987128 -0.23614657 -0.9788251 -1.1059152 -0.9784495 0.16056333 -0.43592435 0.12984695
0.0025236276 1.6145469 0.17606297 0.20926405 -0.06606251 0.8157526 0.90115964 0.44188765
-1.4474459 -0.39248964 -0.7980606 1.423981 0.33631998 -0.82166916 -1.6125371 -0.16556105
-0.6563014 0.43398112 -0.14093968 -0.45742708 0.77681035 0.71692455 -0.50037616 -0.12884358
-1.0823314 -0.55423075 0.8109827 0.96769994 -0.538143 0.8511165 -0.65799224 0.42519674
1.3961265 0.7184684 -0.5222265 0.12327132 0.11639318 -1.2075917 -0.7729883 -1.0403278
0.19993483 -1.0002323 -0.19072597 -0.21462797 -0.9632906 0.40329215 0.13502958 1.2702943
0.041964546 0.94812053 -0.21693784 -0.43170458 0.11736121 0.06289483 -0.7869123 0.25425568
1.0873593 1.2354095 1.3691915 -0.2321738 -0.6063246 -0.1053119 -0.67754906 -0.76816857
-0.45196906 0.19455886 -0.95333976 1.4047873 -0.3290151 0.30572355 -0.64143103 0.36387768
0.22802997 -0.03640559 -1.0886698 -0.5644016 0.14418203 1.0281751 -0.5261714 -0.29896024
-1.0140668 -0.5705614 -0.10497418 0.0440135 -0.9178488 -0.030681076 -0.33727184 1.3570806
0.06886801 0.2839177 1.3393366 0.08770606 -1.3629525 -1.4567089 -1.3890975 0.6153838
-0.08853445 0.5951368 -0.24562564 -0.8001224 0.98854667 0.18349184 0.1935275 1.7696189
0.93210346 0.35775265 -0.3881595 -0.2712655 0.13157648 -0.07639022 0.09879849 0.39806756
-0.92924494 0.18594296 -0.00605396 -0.6438798 1.0941956 -0.05692197 -0.38816893 1.1033596
1.2356044 -0.039779462 0.9297914 -0.17842688 -0.5433505 0.060522415 0.17284891 0.4994975
0.19435969 0.2691404 0.3437611 0.7521886 0.7297068 0.12806112 -0.28218645 0.4191858
-0.23933172 0.82966524 -0.12784468 -0.51520205 1.0487803 -0.58801293 0.099158 0.51627815
-0.25199056 0.25712618 -0.84604746 -0.71981484 0.061849017 0.17131576 1.2779288 -0.7098508
-0.50683445 -1.2688351 0.69920564 -0.6430446 0.29511407 -0.7358842 -0.36199123 -2.0168629
1.0585005 0.41818264 -0.72770405 0.15856339 0.23136014 0.18530945 -1.0803089 -0.8703557
-0.16344562 -0.21838425 0.18898389 -0.13304923 -0.1160956 -0.016665857 1.4823833 1.6159722
-0.75541425 0.98767614 0.47200558 -0.5159402 0.036970843 -0.65794396 -0.034462042 0.3224429
-0.2171591 1.0885491 -0.031271882 0.15867163 0.3253359 -0.4205027 -0.39142933 -0.123231046
0.075447746 0.6294243 -0.3598647 0.20412083 -0.20584677 0.2696901 0.1305904 -1.20048
-0.122631855 0.03933449 -0.5360819 1.8242568 0.2386289 0.20827526 1.3115149 0.07909599
0.21351974 -1.1983569 -0.519783 0.46554083 -0.3584552 0.0957958 0.7007358 0.6776224
0.96620226 -0.62841344 0.1970915 0.21354477 -0.1934369 -1.4080153 0.3811902 -0.23880674
-0.48713908 -0.34292975 -0.4239626 -0.41818786 0.29369298 0.7671868 -0.075106844 -0.83314085

network_body._body_endoder.seq_layers.2.bias f4 [128]
00000000: eb77 bd39 112b b4bb 0f1b 153a 9969 4e3b
00000010: ae66 293b dff4 d3bb 3f71 333b bd3d bf3b
00000020: 9530 e5bb 2f7e dabb 982d b03b 6d6e ef3a
00000030: 3453 033b bbbe 88bb 9cfc b7bb a94e 9e3a
00000040: 3752 b63b f1cd 643a 4c68 08bb 9606 0d3c
00000050: 81ca debb 1388 dabb dea8 0fba 9d2e 0fbc
00000060: da81 aebb 40b0 9fbb 21b9 e1bb e311 01bb
00000070: 0f0f c33a 068d 1dbb 5e0b 8a3b 51d6 ea3b
00000080: d6d1 7a3c 910f 9d3b 9ace 883b 9144 933b
00000090: 4d54 78ba 0271 c43a f64d 073a 505a 0a3c
000000a0: a53c 7cbb 4bbc a8bb 3444 f2ba c74e 47bb
000000b0: 9e0b 64bc c88a dd3b a217 233c 8cf1 963a
000000c0: cac4 b5bb 38b9 1a3c 3906 853a 5d98 833b
000000d0: a6b9 163b 1bcb 7d3b 8c6b 67b9 d79f 0e3c
000000e0: 1fb1 853b 8a73 d23a 1011 9d3b 4cf1 8ebb
000000f0: 0962 98bb c5aa 4cbb cfd4 cfbb 0768 403b
00000100: fc26 683b 1589 653b d081 c93b 5068 c1bb
00000110: 0d93 a03b 8957 9ebb 76ec dcba a07d 41bb
00000120: 498c 3f3c 2d24 eabb 6bfa 3c3c aca9 aab8
00000130: 1677 743b 6321 1c3b abb7 d6bb 89c8 b83a
00000140: 1151 2bbb 095b ca3b 99f6 a8bb 3487 843b
00000150: d8e9 57bc 066d 0dbb bbff 5e3b 9378 113b
00000160: fd21 793b e2ee b5bb 0682 75bb aa0b fe3b
00000170: 9297 96bb 4947 3f3b 9ecd e8b9 0435 5e3b
00000180: ec78 b1bb 6d38 ad38 b450 a1bb de50 97bb
00000190: 024a e13b 74bd e43a 6396 b6bb 8457 863b
000001a0: 022c c23b b7a7 0bbc 16cd 62bc 4401 06bb
000001b0: 8149 ed39 0a63 633b c39d 283b ad06 e5bb
000001c0: 13e6 3eba 7f4a 16bc 2289 853b 475f ae3b
000001d0: 4f04 6d3b 1d08 a2bb d757 cfba c9a5 843a
000001e0: db5a c1bb 6477 253c ab20 ebbb 12c1 91bb
000001f0: 3819 b73b 605c 283b 6aef acbb c50d 523b
0.00036138235 -0.005498298 0.0005687931 0.0031496047 0.0025848555 -0.0064684 0.0027380732 0.005836217
-0.006994317 -0.0066678743 0.005376529 0.0018267162 0.0020038607 -0.0041731275 -0.00561483 0.0012077886
0.005564 0.00087281974 -0.002081412 0.008607527 -0.0067990427 -0.0066690533 -0.000548018 -0.008739141
-0.005325538 -0.0048733056 -0.006888524 -0.00196945 0.0014881807 -0.0024040355 0.004212781 0.007166662
0.015308818 0.0047931154 0.0041750195 0.0044942577 -0.0009473011 0.0014987292 0.00051614584 0.008444384
-0.0038488295 -0.0051493994 -0.0018483461 -0.0030411945 -0.013918785 0.006760929 0.009954365 0.0011516078
-0.0055471407 0.009443574 0.0010148949 0.004015966 0.0022998839 0.0038725797 -0.00022069941 0.008705101
0.0040799524 0.0016056162 0.004793294 -0.004362261 -0.0046503586 -0.0031229716 -0.0063425074 0.002935888
0.0035423627 0.0035024334 0.006149508 -0.0059023276 0.0049003423 -0.0048322123 -0.0016855139 -0.0029524341
0.011691161 -0.007145426 0.011534314 -8.1378355e-05 0.0037302426 0.002382361 -0.0065526566 0.001409785
-0.0026140849 0.006175403 -0.00515635 0.004044438 -0.013178311 -0.0021579876 0.003402694 0.0022197112
0.0038014643 -0.0055521587 -0.0037461533 0.0077528553 -0.0045957053 0.0029186776 -0.00044403685 0.0033906111
-0.0054160263 8.259793e-05 -0.0049229506 -0.0046177944 0.0068752775 0.0017451481 -0.0055721267 0.004099788
0.0059256563 -0.008523873 -0.013842842 -0.0020447532 0.00045258927 0.0034696483 0.00257288 -0.006989321
-0.00072822085 -0.009173035 0.0040751854 0.0053214165 0.0036165898 -0.004944815 -0.0015819025 0.0010120209
-0.0059007234 0.010099266 -0.007175525 -0.0044480646 0.005587723 0.0025689825 -0.005277564 0.0032051664

network_body._body_endoder.seq_layers.2.weight f4 [128, 128]
00000000: 959d a93d b06e 0b3d 2eaf f6bd c2d4 f73c
00000010: 3d0e 16bd 0d87 9a3d 29c8 da3c d834 09be
00000020: d8d9 9abd 69d6 053d 5384 953d 6ed5 27be
00000030: 42f5 2abd 52c1 04bd dcda 15bb 746f 3c3e
00000040: 72c8 cb3c 0a16 10bd b182 7d3c c429 583c
00000050: 3837 91bd db10 053d 8cd5 a9bc f8d7 2a3e
00000060: a8ad 24be 6101 23be c179 dd3d c2b4 003c
00000070: e43c e13d a53d b73d 6fca c1ba a9c4 9b3c
00000080: 2c01 db3d faf2 89bd 14a5 8b3d 36bd b63c
00000090: 9f2d 44bd 7f59 293d 8835 bdbc 9888 27be
000000a0: 224a 353e 74ba 0a3d d21d 703d 8e91 853c
000000b0: cb5e 3dbd 0bc5 02be a5ff 283e 8912 6f3d
000000c0: c89c 963c 1ab4 a83d edd5 b83d 34a5 ec3d
000000d0: 3c92 c2bd c678 793d f66a 4a3d 286c 86bc
000000e0: 07e6 86bd e82a 0bbd 27cb 8abd 51fd cdbd
000000f0: bea2 31be 3292 ccbd 791b ef3d 33f5 3cbd
00000100: 505a 0a3d c95b 673d d71a 133e 0e54 003e
00000110: 55e7 873d 8fbe 3c3e 5cda fcbc ed8f 1e3d
00000120: de21 cabd 84c4 89bd 18c5 fa3d 4e36 07be
00000130: 763c 5b3c 1674 fcbb 8ba9 043e 70de fa3c
00000140: 89b2 8ebc f61e 953c fd7d 743d 3396 d83d
00000150: 4675 8abc e171 923d ebc1 6ebd 51a5 e0bc
00000160: 280b 443d 0bb6 46bd fd55 a43d 9c7b ba3d
00000170: 50d8 563d 7c8d 943d fc0c 4ebd cfb2 a0bc
00000180: 51b5 0f3d 9bcd a4bd 06ab 333d 0ebd fb3d
00000190: f63e 1f3e 394c 113c ba92 b8bd d2c9 10bd
000001a0: 24b8 ac39 a32f f2bb ecc9 f8bd 6b56 1bbe
000001b0: 8ee0 8bbd d792 5dbd 77bf 0c3c 074a c8bd
000001c0: 5d78 0ebd ff8e 133b b82a 103e 5737 333c
000001d0: 4958 d5bd 34f0 a13d 5eb9 00be bec0 debd
000001e0: 37b7 ecbd fe75 56be 1742 30bc 9a3e 393c
000001f0: f6f0 89bd 9ef3 5a3d 8d3a dc3d 3337 993d
00000200: 4809 193d e7f9 2fbc 65d6 91bd e575 debd
00000210: 161e 9e3d c249 633d d39c 9cb9 357c 593d
00000220: 8be2 5ebd 51bb 5b3d 4146 533d b0db 0dbc
00000230: e920 273e 37cf 843d af85 b4bc c74b 14bd
00000240: 20e1 133e 9d90 ccbd 3ca6 2abd 1d26 fc3d
00000250: 55d4 373c 2baa 3a3c c955 713e d88a 123e
00000260: a4f1 a03c a771 dc3d 23a0 e63d fd67 e5bb
00000270: ef02 e93b 0dcc cabb a973 c4bd b99d 0bbc
00000280: 7bca 023e 3116 b1bd 4a6f 45bd f4c2 ad3d
00000290: f132 93bd f3d9 aa3c c737 c33d 35cd 42bd
000002a0: 7037 0fbe e260 083d af39 b2bd c870 0bbc
000002b0: 4354 e9bd ddf7 d23d ca67 4c3c 4dda c23d
000002c0: 01f2 833d 3ff0 413d 3b5f fa3c 414f 863d
000002d0: e38f c73a 24de f83d 495d d1bd d3c9 84bd
000002e0: 0db0 bb3b c0b8 f93d d8ac c1bd a8dd dcbc
000002f0: f1ee cdbd f8ed d83d b33d dfbd 096c 4ebe
00000300: 0fae b1bd f515 94bb 9c55 5c3d 13ca 5c3d
00000310: 5d31 243e e2c0 8cbd 5cdf b7bd c4c5 98bc
00000320: 8dfa b4bd bffb 7fba 7527 1c3d 031f 1f3e
00000330: 9b50 893c cd61 a53d 5171 67bd c5f0 5abe
00000340: bb6d a8bd 7d00 f03d c3a6 75bc 6dd5 bfbd
00000350: 5f50 94bd 414b f6bd 0d5e 93bd f5d5 633e
00000360: 9793 223e 2722 253e 896b 133d 3ba9 a33c
00000370: be28 393e 99b6 a33c a37d c539 93f5 e23b
00000380: e0e7 8bbd 904e 90bc 7323 683c 4212 bdbd
00000390: f3a0 b83d abbf feba 9e5d 483c 39b3 a63d
000003a0: 73bf 283e b507 2c3e 81ab adbc 33f6 5b3b
000003b0: fd2f 013e dff8 f33c f20e f7bc 8115 7f3b
000003c0: ba39 efbd 56a8 bfbc 737e 79bd 5333 a8bd
000003d0: f283 1ebe d2ba e03d 155b 073d 6f2e e9bd
000003e0: 34e4 253d 0a68 db3d 63bb d53d 38c6 9bbc
000003f0: c56d 0f3e db90 1ebe e441 93be ed5d 99bd
0.082820095 0.034041107 -0.120451316 0.030252818 -0.036634672 0.0754529 0.026706772 -0.13399065
-0.07561082 0.03267518 0.073006295 -0.1639001 -0.041737802 -0.032410927 -0.0022866046 0.18401891
0.024875853 -0.035177268 0.015473054 0.013193551 -0.0709061 0.032486778 -0.02073171 0.16683948
-0.1608187 -0.15918495 0.10814238 0.007855596 0.10997942 0.08947305 -0.0014785061 0.019014673
0.10693583 -0.06735797 0.068185955 0.02230702 -0.04789507 0.041345116 -0.023096815 -0.163607
0.1770406 0.03386922 0.05862219 0.016304757 -0.04623298 -0.12770478 0.1650377 0.058367286
0.018385306 0.08237477 0.09025178 0.115549475 -0.09500548 0.060906194 0.049418412 -0.016408995
-0.06586843 -0.033976465 -0.067770295 -0.10058082 -0.17347237 -0.09988822 0.11675162 -0.046132278
0.033777535 0.056484018 0.14365707 0.12532064 0.0663592 0.18432067 -0.03086584 0.038711477
-0.09869741 -0.067269355 0.12244624 -0.1320431 0.013381114 -0.007704268 0.129553 0.030623645
-0.017419117 0.01820324 0.059690464 0.10575523 -0.016901623 0.07150627 -0.058290403 -0.027422579
0.047862202 -0.048513453 0.080242135 0.09105608 0.052452385 0.072535485 -0.05030535 -0.019616513
0.035085026 -0.08047029 0.043864273 0.12291919 0.15551361 0.008868271 -0.09012361 -0.03534872
0.00032943592 -0.0073909326 -0.121478885 -0.15169685 -0.0682994 -0.054095116 0.008590571 -0.097797446
-0.034782756 0.0022515652 0.14078796 0.010938487 -0.1041723 0.07907143 -0.12570712 -0.108766064
-0.11558383 -0.20943448 -0.010757945 0.011306429 -0.06735413 0.053454988 0.10753355 0.074812315
0.037362367 -0.010740734 -0.07120971 -0.1086233 0.07720582 0.055490263 -0.00029871482 0.05309697
-0.054415267 0.053645436 0.05158067 -0.008658335 0.16321148 0.064848356 -0.022036402 -0.03620508
0.14441347 -0.0998852 -0.04166244 0.12311957 0.0112200575 0.01139311 0.2356788 0.14310777
0.019646473 0.10763865 0.112610124 -0.0070009218 0.0071109454 -0.0061888755 -0.09592373 -0.008521491
0.12772553 -0.08646811 -0.048201837 0.0848445 -0.07187451 0.02085588 0.09532123 -0.047558982
-0.13985991 0.03329552 -0.087024085 -0.008510776 -0.11393025 0.103011824 0.012475917 0.09514294
0.06442643 0.047348257 0.030562988 0.06558085 0.0015225377 0.12151745 -0.10222871 -0.064838074
0.005727774 0.121934414 -0.094567955 -0.026961163 -0.1005534 0.10592264 -0.1090044 -0.201584
-0.08675777 -0.004519219 0.05379258 0.05390365 0.16034456 -0.06872727 -0.08978149 -0.01864899
-0.08836851 -0.0009764991 0.038123567 0.15539174 0.016762068 0.08075295 -0.05650455 -0.21380909
-0.082240544 0.11718843 -0.014993372 -0.093668796 -0.07241892 -0.12026072 -0.07195673 0.22249587
0.15876614 0.1612631 0.035991225 0.019978156 0.18081948 0.01998453 0.00037668375 0.0069262474
-0.06831336 -0.017615587 0.014168608 -0.09231998 0.090150736 -0.0019435784 0.012229351 0.08139653
0.16479282 0.16799815 -0.021199943 0.0033563494 0.12615962 0.029781757 -0.030158494 0.003892273
-0.11680932 -0.023395699 -0.060911607 -0.08212914 -0.1548002 0.10973133 0.033045847 -0.1138581
0.040500835 0.10713203 0.10436132 -0.019015417 0.14006718 -0.15484945 -0.28761208 -0.07488618
