FYPprototype/results/Test1/AIBalancing/AIBalancing-499994.onnx (onnx, 70746 bytes, 6 tensors)

action_model._discrete_distribution.branches.0.bias f4 [2]
0.005656781 -0.0056567816
00000000: 855c b93b 865c b9bb

action_model._discrete_distribution.branches.0.weight f4 [2, 128]
0.0053196033 -0.004390101 0.003949631 0.0074510043 0.002113994 0.0066652605 0.0012613991 -0.0053739417
-0.00092791667 -0.0013851812 -0.0069031953 -0.00013753644 0.019370964 -0.0045063216 0.0014787699 -0.01673982
-0.0061781304 0.0047799614 -0.0038208754 0.006195355 0.015206997 -0.0031751874 -3.2697855e-05 0.018774401
-0.0042332495 -0.0022230202 -0.010585694 -0.012418164 0.0011662146 -0.0005020713 -0.000119039156 -0.0016309404
0.013565099 0.0012133217 0.0152491005 -0.00026289417 -0.0024678165 -0.008683437 -0.0030047453 0.0017868973
0.0008494426 0.01658598 -0.015464548 0.0042350064 -0.025087161 -0.004890464 -0.0013237265 -0.0027832517
0.0015836995 0.0020029317 -0.002535885 0.012406698 -0.0009924562 -0.01235924 -0.008683296 0.012748581
0.0035609424 0.0050487523 0.0010750369 0.011070357 0.0072658663 0.0073850863 0.0060170656 -0.012182731
-0.00476032 -0.013877977 -0.012761295 -0.00643484 0.00674141 0.0056718416 -0.016879216 -0.014849871
0.0069259973 -0.0139077315 0.0066668084 -0.013497031 0.0036983811 -0.0051447884 0.00078200834 0.0034610513
0.00086274056 0.019721603 -0.001532136 0.0049201115 0.0023367482 -0.0023199928 -0.014196082 -0.004478355
-0.003438202 0.000587261 -0.0073053055 0.0001848024 0.0014083419 0.00043390246 -0.012443394 -0.010937653
-0.0023266708 0.0057383026 -0.002449943 -0.005598411 0.0028886013 0.0058341874 0.01293989 -0.006850231
0.009039207 0.0003418424 0.014535116 0.0045944513 0.003256769 0.001160763 -0.0010800416 -0.010987333
-0.0060797934 -0.017355056 0.0006104175 -0.0051717227 -0.0046746274 0.0052358727 -0.003577933 0.0046020686
-0.009110964 0.0055382694 0.00391546 0.01546783 -0.00049383315 0.0088554295 -0.016238641 -0.020902617
0.0031735501 -0.009650803 -0.02176439 0.023452662 -0.0050639366 0.013949995 0.0059333383 -0.0034613821
0.005005242 0.020573786 -0.011158721 -0.011188025 -0.0016377966 0.01736225 0.006058974 -0.009645378
-0.009983883 0.0036569412 -0.012030761 -0.011795869 -0.0022844125 -0.013713479 0.009941603 0.0043951697
0.0015793006 -0.00247997 0.0059814434 0.0017956814 0.0017233667 -0.0038466093 -0.007403199 -0.001384448
-0.002353194 -0.0013890953 0.02015953 0.000555071 0.011701506 0.0122627 -0.0014086677 0.004673007
0.0021964426 -0.0034765953 0.0030440853 0.0032969115 0.013891346 -0.008650303 -0.0001789168 -0.008448543
0.005559042 -0.0156827 -0.01586862 -0.005658763 0.01566094 -0.0019747321 -0.006433031 -0.014780397
-0.009698607 -0.018635387 0.0013937777 0.0043311967 -0.011724953 -0.0121418 0.00666386 0.0039105453
-0.0036574653 0.010160174 -0.0014197469 -0.009456815 -0.01567038 0.005317454 -0.008248188 -0.0059007695
-0.0061033946 -0.01345998 -0.022458151 0.005322187 0.010164669 0.0013233378 -0.0037954424 0.011613259
0.00946507 -0.011757282 -0.0041104415 0.0023777839 0.002079682 0.00079505495 -0.016177125 0.009741238
0.009288023 -0.0051089944 -0.01047 -0.0012702985 -0.01531931 0.012269616 0.0035874906 0.011594497
0.00998857 -0.0044414606 0.0054279715 -0.0041285227 -0.0041651465 -0.00094792276 -0.021701477 0.0010759645
0.0015654602 -0.013442989 -0.017617626 -0.011031183 -0.010777353 0.0052943197 0.019290095 -0.009105674
-0.010606029 0.003122315 0.0030562826 -0.0029041877 0.001878588 0.012094265 0.016657108 -0.015454529
-0.009945724 -0.014831344 -0.00203128 -0.0059402976 0.0069772745 -0.0030196235 0.0014955921 0.016039819
00000000: 1150 ae3b d6da 8fbb e86b 813b 8e27 f43b
00000010: ef8a 0a3b 4268 da3b 8855 a53a e417 b0bb
00000020: 6f3f 73ba f88e b5ba 3334 e2bb a837 10b9
00000030: dbaf 9e3c c4a9 93bb 49d3 c13a f221 89bc
00000040: ea71 cabb 39a1 9c3b a767 7abb 6802 cb3b
00000050: c526 793c ce16 50bb 0e25 09b8 c6cc 993c
00000060: 12b7 8abb 17b0 11bb 9e6f 2dbc 8e75 4bbc
00000070: abdb 983a 6f9d 03ba a9a4 f9b8 47c5 d5ba
00000080: 2640 5e3c 5208 9f3a 5dd7 793c 0fd5 89b9
00000090: 17bb 21bb f944 0ebc 43eb 44bb 5336 ea3a
000000a0: 21ad 5e3a 52df 873c 045f 7dbc cfc5 8a3b
000000b0: 9783 cdbc 2f40 a0bb e480 adba 3767 36bb
000000c0: 2394 cf3a 9e43 033b 1731 26bb 7745 4b3c
000000d0: 4e15 82ba 697e 4abc 6244 0ebc 6ddf 503c
000000e0: b35e 693b 0170 a53b 41e8 8c3a 7160 353c
000000f0: 8116 ee3b 98fe f13b ce2a c53b 149a 47bc
00000100: 75fc 9bbb 7460 63bc c014 51bc 5adb d2bb
00000110: 0ce7 dc3b dbda b93b 4846 8abc e04c 73bc
00000120: 7af3 e23b 41dd 63bc 3e75 da3b a722 5dbc
00000130: 8a60 723b 9d95 a8bb b1ff 4c3a ced2 623b
00000140: 8a29 623a 338f a13c f4d1 c8ba e338 a13b
00000150: 2124 193b 050b 18bb af96 68bc 2abf 92bb
00000160: 7553 61bb 6bf2 193a 5861 efbb 84c7 4139
00000170: 1d98 b83a 677d e339 61df 4bbc d733 33bc
00000180: 0f7b 18bb 5f08 bc3b 398f 20bb e072 b7bb
00000190: b04e 3d3b b62c bf3b d501 543c e777 e0bb
000001a0: 2f19 143c 4f39 b339 b224 6e3c 0d8d 963b
000001b0: 846f 553b be24 983a 2f90 8dba 3704 34bc
000001c0: 0139 c7bb 312c 8ebc 6d04 203a 8e77 a9bb
000001d0: 9e2d 99bb af91 ab3b c17b 6abb f3cc 963b
000001e0: 2746 15bc 5f7a b53b 424d 803b c86c 7d3c
000001f0: 9574 01ba 5d16 113c e606 85bc f73b abbc
00000200: 56fb 4f3b 671e 1ebc 3c4b b2bc cc1f c03c
00000210: 61ef a5bb 858e 643c 736c c23b 5bd8 62bb
00000220: 0303 a43b 5b8a a83c 11d3 36bc fa4d 37bc
00000230: 56ab d6ba 473b 8e3c 5c8a c63b a607 1ebc
00000240: 7193 23bc 4ba9 6f3b ab1c 45bc 7643 41bc
00000250: 15b6 15bb 80ae 60bc 1be2 223c 5b05 903b
00000260: 8900 cf3a fe86 22bb fcff c33b 125d eb3a
00000270: 97e2 e13a 6517 7cbb 8996 f2bb 5e76 b5ba
00000280: 0b38 1abb 4e12 b6ba 9925 a53c 2f82 113a
00000290: acb7 3f3c 7ee9 483c 0ba3 b8ba 0620 993b
000002a0: 31f2 0f3b 97d7 63bb 477f 473b ff10 583b
000002b0: 8798 633c 00ba 0dbc 9d9b 3bb9 c26b 0abc
000002c0: a028 b63b 0179 80bc e8fe 81bc 256d b9bb
000002d0: 5f4b 803c 826a 01bb 2dcc d2bb 7a29 72bc
000002e0: e8e6 1ebc 3da9 98bc 6baf b63a b6ec 8d3b
000002f0: 041a 40bc 66ee 46bc 825c da3b 0824 803b
00000300: 16b2 6fbb dc76 263c cd16 baba c2f0 1abc
00000310: 2b5f 80bc 0a3e ae3b 6823 07bc 3e5b c1bb
00000320: fcfe c7bb 3f87 5cbc 28fa b7bc be65 ae3b
00000330: b689 263c d973 ad3a f5bc 78bb 8a45 3e3c
00000340: 6213 1b3c 9da1 40bc e2b0 86bb 98d4 1b3b
00000350: 464b 083b 3c6b 503a e485 84bc b799 1f3c
00000360: cb2c 183c 5a69 a7bb 5d8a 2bbc 2580 a6ba
00000370: d8fd 7abc 8006 493c 1b1c 6b3b d8f6 3d3c
00000380: 19a7 233c ac89 91bb 20dd b13b 8f48 87bb
00000390: c87b 88bb 057e 78ba 4cc7 b1bc 6107 8d3a
000003a0: 2130 cd3a fc3f 5cbc d752 90bc 23bc 34bc
000003b0: 7f93 30bc f97b ad3b 4306 9e3c f72f 15bc
000003c0: e9c4 2dbc c19f 4c3b ea4b 483b 2f54 3ebb
000003d0: f43a f63a 0627 463c 7d74 883c fe34 7dbc
000003e0: 64f3 22bc 2aff 72bc 391f 05bb d4a6 c2bb
000003f0: 9fa1 e43b e0e4 45bb be07 c43a f065 833c

network_body._body_endoder.seq_layers.0.bias f4 [128]
-0.0062949276 0.00532004 0.0021319643 -0.0051174136 0.0029256337 -0.0011026884 -0.004154975 -0.0046693548
0.00540206 -0.0014414875 0.0049915803 0.0011017319 -0.0022969763 -0.0019034323 -0.0058195055 -0.0013494965
0.0029349225 -0.0030866587 -0.0023115037 0.00097087526 0.002339258 0.0052480246 -0.00567005 0.00079591054
-0.004777256 0.009322286 0.0065114046 -0.0044635036 0.002821556 -0.0031171383 -0.0028869966 0.004977131
0.0023287667 0.0051472397 0.005373506 -0.0053980453 -0.0015622245 0.0035091504 -0.010617474 -0.0011867938
0.0042733354 0.0056556775 0.0056431424 -0.0053047547 0.004923418 -0.0010327632 -0.0032650074 -0.01036049
0.0025153318 -0.0010978113 0.0054463157 0.0055882554 -0.0036334093 -0.0044797854 0.0066729183 -0.0062451926
-0.0069723614 -0.0023050453 -0.0053899707 0.001189635 -0.002844611 -0.0050129965 0.005373526 0.00570257
0.0018548142 0.005713166 -0.0005683555 -0.0026720634 0.0036134864 0.0049461476 -0.0010690114 -0.0045654313
0.0050874497 0.0037792877 0.0058033126 -0.0020068053 -0.0074127936 0.005143477 -0.004414517 0.004796279
-0.0047000395 0.002099227 0.002180829 0.003055249 0.000359459 -0.0053036227 0.0010038238 0.0054856297
0.001749451 0.00058139325 0.005076011 0.0013935282 -0.0052275956 0.0056505334 -0.002428875 0.0016682193
0.00021759182 -0.008393248 0.0065211663 -0.0012680511 0.00562247 -0.004611012 0.0032784252 -0.005003579
0.0042604557 0.008476662 -0.004656278 0.002462264 0.0054215193 -0.0026131899 -0.004988124 -0.0055374675
-0.0041442337 -0.0055275112 0.0028156333 0.0052835234 -0.0008832307 -0.00051364617 0.0037291918 -0.0023713445
0.006119694 -0.005331483 -0.00481166 0.003317731 0.0038880445 0.00034295325 -0.000558264 0.005017838
00000000: ae45 cebb bb53 ae3b 6db8 0b3b faaf a7bb
00000010: fdbb 3f3b 1588 90ba 7526 88bb 6301 99bb
00000020: c403 b13b 4bf0 bcba 6990 a33b fd67 903a
00000030: de88 16bb 977c f9ba 8db1 bebb 97e1 b0ba
00000040: d457 403b 8a49 4abb 997c 17bb 5682 7e3a
00000050: 3d4e 193b 9ff7 ab3b d4cb b9bb a7a4 503a
00000060: 878a 9cbb 80bc 183c 9f5d d53b 9542 92bb
00000070: dbe9 383b e748 4cbb c433 3dbb 3317 a33b
00000080: 399e 183b 2daa a83b 3c14 b03b 16e2 b0bb
00000090: 8ec3 ccba c6f9 653b eaf4 2dbc 318e 9bba
000000a0: 5607 8c3b 4353 b93b 1cea b83b 82d3 adbb
000000b0: a054 a13b c85d 87ba bcf9 55bb 0bbf 29bc
000000c0: 44d8 243b 6fe4 8fba 0277 b23b af1d b73b
000000d0: 7e1e 6ebb 2acb 92bb 7fa8 da3b 79a4 ccbb
000000e0: 6878 e4bb 3e10 17bb 5a9e b0bb 87ed 9b3a
000000f0: a76c 3abb 1044 a4bb 6714 b03b a0dc ba3b
00000100: 3d1d f33a 8335 bb3b b1fd 14ba c91d 2fbb
00000110: 3ed0 6c3b 4b13 a23b 121e 8cba 9d99 95bb
00000120: 9fb4 a63b edad 773b b729 be3b 9b84 03bb
00000130: 05e7 f2bb 9d8a a83b a7a7 90bb 1b2a 9d3b
00000140: ca02 9abb 2f93 093b 3dec 0e3b 933a 483b
00000150: c575 bc39 03ca adbb bd92 833a ccc0 b33b
00000160: d64d e53a a468 183a ab54 a63b 0ca7 b63a
00000170: 404c abbb 1c28 b93b c32d 1fbb 27a8 da3a
00000180: 5c29 6439 d583 09bc 82af d53b bc34 a6ba
00000190: b23c b83b f917 97bb d9da 563b 10f5 a3bb
000001a0: 4b9b 8b3b b3e1 0a3c b193 98bb ef5d 213b
000001b0: 00a7 b13b 0d42 2bbb 6b73 a3bb a573 b5bb
000001c0: 5acc 87bb 2020 b5bb 7d86 383b 6821 ad3b
000001d0: 9c88 67ba 36a6 06ba 7565 743b 8f68 1bbb
000001e0: b787 c83b b9b3 aebb 21ab 9dbb 4a6e 593b
000001f0: 90ce 7e3b 68ce b339 7658 12ba ad6c a43b

network_body._body_endoder.seq_layers.0.weight f4 [128, 2]
0.4316886 -0.2459984 -0.47484112 -1.0928637 -0.5383649 -0.315005 0.21104279 -0.8271028
-0.66033554 0.70893824 -0.2228449 0.078850165 0.1858308 -0.534776 -1.421296 -0.3677718
0.003389171 -0.9884733 -1.033391 0.9884204 0.3367404 -0.058537163 -0.7146498 1.2795259
0.15853515 -0.030305112 0.3645741 -1.4581908 0.38979873 0.9836467 0.31075528 0.86239964
-0.00527756 0.07322199 0.033425383 0.68693304 -0.17741945 -0.6185945 -1.0389404 -1.0603173
0.018980686 0.6954187 -0.052785784 -0.24461925 -0.292915 -0.77531195 1.2717744 0.14156523
0.12944518 0.650515 -0.1304838 -0.3834986 -0.06456577 -0.6152548 1.0490477 -1.0484424
-0.94773084 -0.54894704 -0.65133613 0.9058775 0.34985274 0.048344 0.6132467 0.148158
-1.6025554 0.7274827 0.36308867 -0.23022807 0.03745587 -0.98171985 0.5971278 0.5154281
-0.8802064 1.1174124 -0.12139777 0.61109704 -0.8054505 0.35013518 -1.0925822 0.039424676
-0.20253968 0.72014695 0.4863697 0.41805696 0.1817565 1.2827 0.17575265 -1.2538266
0.03629102 0.3548928 0.8746689 -0.15126954 0.24820843 -0.92202497 -1.2068361 0.40619668
1.022341 0.06155436 1.0778613 1.0725656 0.2834856 -0.39383796 -0.34307885 -1.0820763
-0.6128281 0.5117944 -0.40286994 0.3427916 0.05041172 1.0301555 -0.18098071 0.7777991
0.4223375 -0.6968339 -0.8620432 1.0555947 -0.52783304 -1.4346862 0.12396054 -0.67603695
0.6625972 -0.5286188 0.30807298 -0.15813051 1.2615287 0.30374217 1.300397 -0.44350606
-0.9420551 0.5505388 0.32609805 0.25444826 -0.26797315 0.4346527 -0.87949705 0.926769
-0.5216934 -1.0389491 0.21270093 -0.28860223 0.81713957 0.64740485 0.561543 -0.46879828
0.4435806 -0.7824947 -0.37477964 0.5707215 -0.2766259 1.9042238 0.9770038 -0.18850055
0.60705465 -0.18563071 -0.25252306 0.106167294 0.46015063 0.34113166 0.52567387 0.35512158
0.31572506 -0.13846545 0.22027917 0.07592771 -0.7433349 -0.7492252 1.1941198 0.38501
-0.9706218 -0.4180967 0.32307678 -1.1939217 0.1716083 -0.23135568 0.16203201 0.04427349
-1.9422443 0.1642783 0.28747436 0.27070525 -0.45511734 0.5765303 -0.6361668 -0.5545868
0.68893665 0.536978 -0.08514942 -0.53386694 1.3967835 -0.043729477 0.28849316 -0.33585662
-1.5835222 -0.14488514 -0.7075039 -0.10421084 -0.22307515 -0.5842239 -0.8426501 -1.3617673
-0.402653 0.46642417 0.13905714 -0.010792453 0.06907533 0.64639837 0.2625151 -0.55592555
0.36583313 0.36953753 -0.020266814 -0.20349649 -1.7248012 -1.3929106 0.9463716 -0.07424856
0.16403225 0.062644 0.237759 0.3932479 -0.08330089 1.009362 0.1776799 -0.19980617
-1.6400343 1.3408984 0.72847813 -0.15319346 -0.5461326 0.1345195 -0.3930124 -0.8779076
-0.18281049 -0.6114245 -1.3816245 0.12649484 -0.4359638 0.5176411 1.4091775 1.73864
0.23512748 1.1558992 0.84485203 -0.82315475 -0.37519798 1.0753123 -0.6414138 -0.036369525
0.59979886 0.09638712 0.927505 -0.57717264 0.48629576 0.69687384 0.94286424 0.29888558
00000000: 4a06 dd3e 01e7 7bbe 601e f3be f5e2 8bbf
00000010: 48d2 09bf 5648 a1be 9a1b 583e 02bd 53bf
00000020: c00b 29bf fa7c 353f 7431 64be 327c a13d
00000030: 6e4a 3e3e 14e7 08bf 07ed b5bf 964c bcbe
00000040: db1c 5e3b 960c 7dbf 2846 84bf 1f09 7d3f
00000050: 3d69 ac3e aac4 6fbd 4af3 36bf 81c7 a33f
00000060: 0a57 223e 6d42 f8bc 75a9 ba3e ffa5 babf
00000070: b393 c73e 45d0 7b3f 511b 9f3e 39c6 5c3f
00000080: 62ef acbb 69f5 953d 0ee9 083d d8da 2f3f
00000090: 72ad 35be 365c 1ebf 00fc 84bf 7ab8 87bf
000000a0: 627d 9b3c f606 323f e835 58bd 787d 7abe
000000b0: f4f8 95be d87a 46bf 81c9 a23f 7af6 103e
000000c0: 478d 043e 2788 263f 8c9d 05be ee59 c4be
000000d0: 0f3b 84bd 5781 1dbf 3247 863f 5c33 86bf
000000e0: 7d9e 72bf cb87 0cbf f7bd 26bf 96e7 673f
000000f0: e61f b33e 5c04 463d bcfd 1c3f bbb6 173e
00000100: 8920 cdbf 4e3c 3a3f c2e6 b93e e8c0 6bbe
00000110: 546b 193d fe51 7bbf 5edd 183f 19f3 033f
00000120: 3555 61bf 5f07 8f3f 659f f8bd db70 1c3f
00000130: 0132 4ebf eb44 b33e bcd9 8bbf c57b 213d
00000140: 9066 4fbe 8d5b 383f 7305 f93e 900b d63e
00000150: 601e 3a3e 832f a43f 81f8 333e 647d a0bf
00000160: e5a5 143d 82b4 b53e 4dea 5f3f 67e6 1abe
00000170: 5a2a 7e3e d409 6cbf 9b79 9abf 03f9 cf3e
00000180: 12dc 823f 6d20 7c3d 5cf7 893f d449 893f
00000190: 0625 913e 21a5 c9be 08a8 afbe 7a81 8abf
000001a0: 4de2 1cbf f504 033f f844 cebe 6182 af3e
000001b0: 857c 4e3d 23dc 833f 0253 39be d81d 473f
000001c0: 9f3c d83e b563 32bf ddae 5cbf ba1d 873f
000001d0: 1120 07bf cca3 b7bf 06df fd3d c210 2dbf
000001e0: f89f 293f 9053 07bf bebb 9d3e f7ec 21be
000001f0: c679 a13f 1884 9b3e 6973 a63f 3a13 e3be
00000200: 862a 71bf 1cf0 0c3f 53f6 a63e 0b47 823e
00000210: c733 89be cc8a de3e b826 61bf bc40 6d3f
00000220: b38d 05bf 49fc 84bf 46ce 593e acc3 93be
00000230: 0f30 513f 53bc 253f 48c1 0f3f 5406 f0be
00000240: ff1c e33e 9351 48bf 1ee3 bfbe ce1a 123f
00000250: e9a1 8dbe 9bbd f33f ec1c 7a3f 4a06 41be
00000260: ef67 1b3f fa15 3ebe b44a 81be 3d6e d93d
00000270: dd98 eb3e cfa8 ae3e 9092 063f 7fd2 b53e
00000280: b7a6 a13e e3c9 0dbe dd90 613e fd7f 9b3d
00000290: 324b 3ebf 39cd 3fbf ebd8 983f 0820 c53e
000002a0: ac7a 78bf c510 d6be 526a a53e 6dd2 98bf
000002b0: 16ba 2f3e 81e8 6cbe b8eb 253e 1e58 353d
000002c0: 769b f8bf 9238 283e d72f 933e e199 8a3e
000002d0: 2405 e9be 7d97 133f d4db 22bf 67f9 0dbf
000002e0: 275e 303f 6477 093f d262 aebd 81ab 08bf
000002f0: cdc9 b23f ae1d 33bd 60b5 933e 66f5 abbe
00000300: dbb0 cabf c55c 14be fa1e 35bf 7e6c d5bd
00000310: d06d 64be b38f 15bf ebb7 57bf 644e aebf
00000320: 8928 cebe 26cf ee3e ff64 0e3e d4d2 30bc
00000330: 5e77 8d3d 5d7a 253f 6168 863e 2351 0ebf
00000340: 7b4e bb3e 0634 bd3e 9706 a6bc 6261 50be
00000350: 49c6 dcbf e54a b2bf 6945 723f a10f 98bd
00000360: 12f8 273e 7f4b 803d 1877 733e ca57 c93e
00000370: a899 aabd c632 813f b8f1 353e fd99 4cbe
00000380: a5ec d1bf 8fa2 ab3f 8b7d 3a3f bfde 1cbe
00000390: 59cf 0bbf 7bbf 093e ec38 c9be 8dbe 60bf
000003a0: ac32 3bbe 5186 1cbf 12d9 b0bf dd87 013e
000003b0: a636 dfbe 2184 043f ee5f b43f c18b de3f
000003c0: 42c5 703e 81f4 933f 3948 583f 45ba 52bf
000003d0: f319 c0be d5a3 893f b233 24bf 36f8 14bd
000003e0: 6b8c 193f 9c66 c53d f870 6d3f 96c1 13bf
000003f0: c2fb f83e 5366 323f 8d5f 713f 8807 993e

network_body._body_endoder.seq_layers.2.bias f4 [128]
-0.006393884 0.0015601105 0.00528981 0.0039268783 -0.0018641535 -0.0038085843 -0.0021850942 -0.0031967673
-0.0015843154 0.0041187904 -0.0019274825 0.0022243632 0.005528532 0.00038429763 -0.001338817 -0.0038049265
-0.0020148226 -0.001818777 0.0003255877 0.00510265 0.0048550977 0.0019685773 -0.0031649692 0.0039128633
-0.0017620126 -0.005230875 -0.0064250114 0.0010665964 -0.00021266036 -0.003258306 -0.00074198685 0.0052979495
0.0044182986 -0.002884057 -0.0048755 0.0011979572 0.0035607258 0.005000941 -0.0031579507 0.0005954622
-0.0032637184 0.0053703766 0.0010293005 -0.003918244 0.00018849174 -0.0024145157 -0.0050104964 -0.0010806099
-0.0048488635 0.0046514333 -0.0043220934 0.004678438 -0.0032843899 0.0010054869 -0.004205584 0.005525823
0.0032486068 0.0055756727 -0.00025609334 -0.0013329198 0.00364576 0.0048042014 -0.004094249 0.0033196248
-0.004591034 0.0040835636 -0.005166403 -0.0027669217 0.00531517 -0.0036068426 -0.003472981 -0.001991428
-0.0031147194 0.0017245293 0.0055772425 -0.0029099372 -0.004973047 -0.005857931 -0.0032274537 -0.00048415415
-0.0014604921 0.0055907564 0.00090539845 0.004445945 -0.007437993 0.0015459441 -0.003753193 0.003112334
-0.0014665655 -0.0041175075 -0.0034997528 -0.0046758517 0.0048386855 -0.0031112428 -0.0038237444 -0.00022593039
0.0012315672 -0.0038569714 -0.004145848 -0.0027879141 -0.0032461584 -0.0026976552 0.0044749184 -0.0035040928
-0.00075684383 0.0035596772 0.005639093 0.0043105436 0.0033926943 -0.00484858 0.003481332 -0.004698781
-0.0012598196 0.0027469622 -0.0030934755 -0.0030173156 -0.0068655447 -0.0028868378 0.0021618288 0.0052213073
-0.0012445219 0.0054519074 -0.0011214984 0.005578659 -0.0003192635 0.0026289308 -3.9078677e-05 0.0036370552
00000000: c983 d1bb 9f7c cc3a 2456 ad3b 0bad 803b
00000010: 9d56 f4ba 7199 79bb cc33 0fbb db80 51bb
00000020: cea8 cfba ebf6 863b 95a3 fcba 9fc6 113b
00000030: b028 b53b 8e7b c939 3e7b afba 135c 79bb
00000040: 1d0b 04bb 0764 eeba a4b3 aa39 2134 a73b
00000050: 8317 9f3b 3f03 013b 5f6b 4fbb 7a37 803b
00000060: 55f3 e6ba c367 abbb e788 d2bb 09cd 8b3a
00000070: 95fd 5eb9 4e89 55bb e581 42ba 6c9a ad3b
00000080: 60c7 903b 7202 3dbb a9c2 9fbb c604 9d3a
00000090: 115b 693b efde a33b 9ff5 4ebb cb18 1c3a
000000a0: 1ce4 55bb fcf9 af3b 98e9 863a 9d64 80bb
000000b0: dea5 4539 da3c 1ebb 172f a4bb 40a3 8dba
000000c0: 37e3 9ebb 0d6b 983b 59a0 8dbb 954d 993b
000000d0: eb3e 57bb 8bca 833a ffce 89bb f711 b53b
000000e0: 94e6 543b 22b4 b63b 4444 86b9 5eb5 aeba
000000f0: b4ed 6e3b 906c 9d3b 0d29 86bb 108e 593b
00000100: 6270 96bb 6acf 853b ee4a a9bb 3e55 35bb
00000110: e12a ae3b c760 6cbb f49a 63bb 9e82 02bb
00000120: 5220 4cbb 9a09 e23a 4dc1 b63b a5b4 3ebb
00000130: f1f4 a2bb e3f3 bfbb b083 53bb 12d6 fdb9
00000140: fc6d bfba aa32 b73b 4358 6d3a 4aaf 913b
00000150: 68ba f3bb 47a1 ca3a 21f8 75bb 4df8 4b3b
00000160: c639 c0ba 28ec 86bb 1c5c 65bb e337 99bb
00000170: d68d 9e3b fee5 4bbb c997 7abb bae7 6cb9
00000180: 8a6c a13a 3ec5 7cbb e5d9 87bb 70b5 36bb
00000190: 80bd 54bb 25cb 30bb 56a2 923b eca4 65bb
000001a0: ee66 46ba 7949 693b 24c8 b83b 763f 8d3b
000001b0: f757 5e3b d6e0 9ebb 0f27 643b 3bf8 99bb
000001c0: 8820 a5ba 6106 343b e8bb 4abb 28be 45bb
000001d0: 5df8 e0bb 1a31 3dbb 78ad 0d3b 8017 ab3b
000001e0: 3a1f a3ba eaa5 b23b 3eff 92ba 2fcd b63b
000001f0: d262 a7b9 244a 2c3b 69e8 23b8 a95b 6e3b

network_body._body_endoder.seq_layers.2.weight f4 [128, 128]
0.07916819 0.04203378 0.028602086 0.018079923 -0.009574433 -0.13080345 0.08781241 -0.12979132
0.025968287 0.06643046 -0.007229727 -0.053304505 -0.10331266 0.0055549718 -0.085652575 0.0017308709
-0.16499801 0.0462759 0.10333357 -0.010349925 0.23039335 -0.0012385433 -0.03218287 -0.09710004
0.23299535 -0.12937795 -0.108155936 0.027046822 -0.09826441 0.03746986 0.07677109 0.057782065
-0.13402353 -0.10154909 0.009630277 -0.024017327 -0.26975727 -0.042738426 0.045711756 0.046165865
-0.04212255 -0.07325532 -0.13165882 0.076614805 0.11418171 -0.028538156 -0.1156387 0.19070677
-0.0061469125 -0.031683814 0.060046878 -0.12539351 0.09546716 -0.047122978 -0.002552452 0.17491415
-0.014273839 0.04368401 -0.019462707 0.028130936 -0.18600184 -0.016584327 0.032723125 0.13914552
-0.028924042 0.051286243 0.11049998 0.105064675 0.1278713 -0.026881319 0.11820865 -0.043400217
0.049910367 0.02649802 0.080832906 0.1290251 -0.11910746 -0.07800987 0.021060606 -0.11705069
-0.011860444 0.05754847 0.016994076 0.12468217 0.06576297 0.040125936 0.045568604 0.11969591
0.09669974 0.15456021 0.10198794 0.080331825 -0.1467177 0.012222396 -0.0023249865 -0.092721336
0.12291139 -0.04553449 -0.018805012 0.03416192 0.12503344 -0.09137765 0.11057126 0.025282526
-0.02977219 0.0031141492 -0.14711317 -0.23144108 -0.24063301 -0.1657477 -0.12218063 0.11707433
0.046711773 0.0043152426 -0.14609987 -0.14182898 0.011188303 0.06819073 -0.1450125 -0.069217466
0.0019046596 0.0137592545 0.09782799 0.25322193 -0.015620119 -0.21203418 -0.064820245 0.09798656
-0.12896454 0.010436212 -0.04125056 0.07044181 0.20953226 -0.0031693745 -0.04887813 0.088199556
-0.05021347 -0.12872392 -0.105525546 -0.0024847465 -0.105217524 0.049691614 -0.10639562 0.07760444
0.090105966 0.058685187 0.01596222 -0.037053883 0.016247816 0.17960012 -0.05651189 0.060194086
0.045567058 -0.053030897 0.20196022 -0.08897007 0.040035054 0.01115626 0.008381647 0.003880649
-0.20204763 -0.05622585 -0.07517522 -0.012136259 -0.06086373 0.0119666755 0.07574356 -0.0006018788
-0.021576023 0.04690343 -0.10731369 0.16389503 0.087657936 -0.044247843 0.08504778 0.026068116
-0.08147238 0.007760634 0.036653187 -0.097818874 -0.03597742 0.022750273 0.040962394 0.09647601
-0.02713153 -0.073191606 0.09370518 -0.003887977 0.023063362 -0.04754487 0.05723172 -0.04960119
-0.028562842 0.12959827 -0.05768898 -0.13938433 0.03671569 -0.03319223 -0.13289583 0.061729588
-0.09050228 -0.04040259 0.014142462 -0.08597512 -0.09434195 -0.100859806 -0.13449307 0.028906072
0.11152681 -0.064939454 0.029224763 -0.082017876 0.04353399 -0.061206564 0.041475438 -0.099535495
0.1015836 -0.015685927 0.044805467 -0.046288345 0.08761243 0.04074052 -0.05296834 0.10267931
0.008181684 0.10545177 0.0583638 0.036507558 -0.038461495 0.08653025 0.05340503 -0.17066781
-0.026946325 -0.13210665 -0.078689374 0.07918186 -0.05167629 -0.009805454 -0.056017548 -0.12346984
-0.13301224 -0.11052236 0.07989474 -0.02054257 0.118202455 -0.11694909 -0.12676562 -0.051770646
-0.110283434 0.065752946 -0.009737098 -0.16980712 -0.14909868 -0.043578096 -0.24146579 -0.06915433
00000000: ef22 a23d 9d2b 2c3d ec4e ea3c 591c 943c
00000010: 15de 1cbc 57f1 05be fed6 b33d 04e8 04be
00000020: 72bb d43c b10c 883d 59e7 ecbb d355 5abd
00000030: 9695 d3bd 7b06 b63b 9e6a afbd 64de e23a
00000040: 3df5 28be cc8b 3d3d 8da0 d33d bb92 29bc
00000050: 3cec 6b3e 9e56 a2ba 2fd2 03bd 63dc c6bd
00000060: 5596 6e3e a77b 04be dc80 ddbd 4c91 dd3c
00000070: da3e c9bd ff79 193d 293a 9d3d e3ac 6c3d
00000080: 773d 09be f8f8 cfbd 4fc8 1d3c fcbf c4bc
00000090: a01d 8abe 7d0e 2fbd 403c 3b3d 6b18 3d3d
000000a0: b288 2cbd e306 96bd 92d1 06be 39e8 9c3d
000000b0: 1ad8 e93d dac8 e9bc fcd3 ecbd a348 433e
000000c0: 0a6c c9bb e3c6 01bd b7f3 753d 2867 00be
000000d0: 4984 c33d 0604 41bd 0a47 27bb b21c 333e
000000e0: d2dc 69bc 01ee 323d 4170 9fbc d972 e63c
000000f0: 4477 3ebe dbdb 87bc af08 063d 2a7c 0e3e
00000100: 1df2 ecbc 8611 523d d04d e23d 262c d73d
00000110: b2f0 023e 3636 dcbc 6017 f23d 6dc4 31bd
00000120: d06e 4c3d 6012 d93c b98b a53d 281f 043e
00000130: 9dee f3bd a4c3 9fbd 4b87 ac3c 46b8 efbd
00000140: 4f52 42bc f2b7 6b3d 2937 8b3c 5e59 ff3d
00000150: bcae 863d 185b 243d 25a6 3a3d 2123 f53d
00000160: 830a c63d 0845 1e3e 0edf d03d 0385 a43d
00000170: 2a3d 16be 7240 483c cd5e 18bb afe4 bdbd
00000180: f8b8 fb3d 6082 3abd f80c 9abc 5fed 0b3d
00000190: c408 003e 3524 bbbd 2f73 e23d 4d1d cf3c
000001a0: cfe4 f3bc c116 4c3b d6a4 16be e4fe 6cbe
000001b0: 8068 76be c4b9 29be d739 fabd abc4 ef3d
000001c0: d854 3f3d e166 8d3b 349b 15be 9e3b 11be
000001d0: 254f 373c 95a7 8b3d 287e 14be e3c1 8dbd
000001e0: c5a5 f93a 7f6e 613c 0b5a c83d 4ea6 813e
000001f0: 87eb 7fbc 7d1f 59be 7ac0 84bd 2dad c83d
00000200: 480f 04be a5fc 2a3c 59f6 28bd cc43 903d
00000210: a08f 563e 48b5 4fbb 6f34 48bd f8a1 b43d
00000220: a4ac 4dbd 34d0 03be c71d d8bd 21d7 22bb
00000230: 497c d7bd 6f89 4b3d f2e5 d9bd 14ef 9e3d
00000240: 7a89 b83d e15f 703d 34c3 823c d0c5 17bd
00000250: 241a 853c 18e9 373e 0379 67bd 138e 763d
00000260: 86a4 3a3d ed36 59bd a9ce 4e3e f135 b6bd
00000270: ccfb 233d bfc8 363c 2d53 093c 7d52 7e3b
00000280: 93e5 4ebe 144d 66bd 77f5 99bd 29d7 46bc
00000290: 3f4c 79bd e00f 443c 711f 9b3d 67c7 1dba
000002a0: 33c0 b0bc d01d 403d 48c7 dbbd 19d4 273e
000002b0: 0186 b33d 3a3d 35bd 882d ae3d cd8c d53c
000002c0: feda a6bd eb4c fe3b a721 163d 4355 c8bd
000002d0: 0f5d 13bd c85e ba3c 2fc8 273d 3795 c53d
000002e0: f142 debc 7be5 95bd 80e8 bf3d 6ecd 7ebb
000002f0: 60ef bc3c 69be 42bd cf6b 6a3d 9e2a 4bbd
00000300: 9ffc e9bc 69b5 043e 484b 6cbd c4ba 0ebe
00000310: 3163 163d 93f4 07bd d815 08be 2ad8 7c3d
00000320: 4259 b9bd 307d 25bd c9b5 673c b913 b0bd
00000330: 5a36 c1bd 968f cebd 8db8 09be 6dcc ec3c
00000340: 2b68 e43d fafe 84bd c568 ef3c fdf8 a7bd
00000350: b250 323d bcb3 7abd 26e2 293d 44d9 cbbd
00000360: 100b d03d c67f 80bc f085 373d d998 3dbd
00000370: 256e b33d 88df 263d 55f5 58bd 8849 d23d
00000380: 780c 063c 19f7 d73d e10e 6f3d f388 153d
00000390: cd89 1dbd c636 b13d 3cbf 5a3d 8bc3 2ebe
000003a0: 8abe dcbc f746 07be e527 a1bd 192a a23d
000003b0: 84aa 53bd 0ea7 20bc a872 65bd c1dd fcbd
000003c0: 5c34 08be 8c59 e2bd da9f a33d e448 a8bc
000003d0: 2114 f23d 0183 efbd d9ce 01be 750d 54bd
000003e0: 48dc e1bd 7ba9 863d 5988 1fbc ebe1 2dbe
000003f0: 53ad 18be f27e 32bd cf42 77be c9a0 8dbd
