FYPprototype/results/Test1/AIBalancing/AIBalancing-499951.pt (torch, 426055 bytes, 33 tensors)

network_body._body_endoder.seq_layers.0.weight f4 [128, 2]
0	0x3f605a7d	0.87638074
1	0x3d2426fb	0.040076237
2	0xbe7e7691	-0.24849917
3	0x3f910bf3	1.1331772
4	0xbeeea271	-0.46608308
5	0xbf27cb1c	-0.65544295
6	0xbe3ea63f	-0.18618105
7	0xbf670ba5	-0.90252143
8	0xbeec2acb	-0.46126398
9	0xbe3d542c	-0.1848914
10	0xbe4357af	-0.19076417
11	0x3e9e7fd5	0.30956903
12	0xbea3a725	-0.3196346
13	0x3f46590e	0.77479637
14	0xbe8a2dad	-0.26987973
15	0xbe5111ed	-0.20416994
16	0xbed1daa6	-0.40987128
17	0xbe71d068	-0.23614657
18	0xbf7a9448	-0.9788251
19	0xbf8d8ea1	-1.1059152
20	0xbf7a7bab	-0.9784495
21	0x3e246ab7	0.16056333
22	0xbedf317a	-0.43592435
23	0x3e04f699	0.12984695
24	0x3b256372	0.0025236276
25	0x3fcea979	1.6145469
26	0x3e3449da	0.17606297
27	0x3e564951	0.20926405
28	0xbd874bc8	-0.06606251
29	0x3f50d52a	0.8157526
30	0x3f66b266	0.90115964
31	0x3ee23f19	0.44188765
32	0xbfb945e8	-1.4474459
33	0xbec8f467	-0.39248964
34	0xbf4c4db3	-0.7980606
35	0x3fb64502	1.423981
36	0x3eac3222	0.33631998
37	0xbf5258e9	-0.82166916
38	0xbfce679e	-1.6125371
39	0xbe2988d6	-0.16556105
40	0xbf28035e	-0.6563014
41	0x3ede32c6	0.43398112
42	0xbe10527e	-0.14093968
43	0xbeea33e2	-0.45742708
44	0x3f46dd0b	0.77681035
45	0x3f37885e	0.71692455
46	0xbf0018a7	-0.50037616
47	0xbe03ef92	-0.12884358
48	0xbf8a89d6	-1.0823314
49	0xbf0de211	-0.55423075
50	0x3f4f9c90	0.8109827
51	0x3f77bb2f	0.96769994
52	0xbf09c3bd	-0.538143
53	0x3f59e2c5	0.8511165
54	0xbf28722e	-0.65799224
55	0x3ed9b363	0.42519674
56	0x3fb2b446	1.3961265
57	0x3f37ed8c	0.7184684
58	0xbf05b0a3	-0.5222265
59	0x3dfc75ac	0.12327132
60	0x3dee5f8c	0.11639318
61	0xbf9a925d	-1.2075917
62	0xbf45e290	-0.7729883
63	0xbf852976	-1.0403278
64	0x3e4cbbb7	0.19993483
65	0xbf80079d	-1.0002323
66	0xbe434dab	-0.19072597
67	0xbe5bc76f	-0.21462797
68	0xbf769a36	-0.9632906
69	0x3ece7c4f	0.40329215
70	0x3e0a4532	0.13502958
71	0x3fa29901	1.2702943
72	0x3d2be304	0.041964546
73	0x3f72b807	0.94812053
74	0xbe5e24f4	-0.21693784
75	0xbedd0862	-0.43170458
76	0x3df05b13	0.11736121
77	0x3d80cf01	0.06289483
78	0xbf497316	-0.7869123
79	0x3e822dcd	0.25425568
80	0x3f8b2e97	1.0873593
81	0x3f9e21e6	1.2354095
82	0x3faf41ab	1.3691915
83	0xbe6dbef8	-0.2321738
84	0xbf1b3817	-0.6063246
85	0xbdd7adc4	-0.1053119
86	0xbf2d73db	-0.67754906
87	0xbf44a6b2	-0.76816857
88	0xbee7687d	-0.45196906
89	0x3e473a70	0.19455886
90	0xbf740e13	-0.95333976
91	0x3fb3d012	1.4047873
92	0xbea874ab	-0.3290151
93	0x3e9c87cc	0.30572355
94	0xbf2434d3	-0.64143103
95	0x3eba4e2d	0.36387768
96	0x3e6980b0	0.22802997
97	0xbd151e07	-0.03640559
98	0xbf8b5988	-1.0886698
99	0xbf107ca0	-0.5644016
100	0x3e13a474	0.14418203
101	0x3f839b3e	1.0281751
102	0xbf06b32b	-0.5261714
103	0xbe991151	-0.29896024
104	0xbf81ccf1	-1.0140668
105	0xbf121050	-0.5705614
106	0xbdd6fcb4	-0.10497418
107	0x3d344780	0.0440135
108	0xbf6af824	-0.9178488
109	0xbcfb56e1	-0.030681076
110	0xbeacaee5	-0.33727184
111	0x3fadb4d1	1.3570806
112	0x3d8d0aac	0.06886801
113	0x3e915da9	0.2839177
114	0x3fab6f62	1.3393366
115	0x3db39f3c	0.08770606
116	0xbfae753a	-1.3629525
117	0xbfba7570	-1.4567089
118	0xbfb1cdf2	-1.3890975
119	0x3f1d89cb	0.6153838
120	0xbdb5518d	-0.08853445
121	0x3f185ae3	0.5951368
122	0xbe7b854a	-0.24562564
123	0xbf4cd4d2	-0.8001224
124	0x3f7d1165	0.98854667
125	0x3e3be549	0.18349184
126	0x3e462c13	0.1935275
127	0x3fe282df	1.7696189
128	0x3f6e9e55	0.93210346
129	0x3eb72b5b	0.35775265
130	0xbec6bcd8	-0.3881595
131	0xbe8ae350	-0.2712655
132	0x3e06bbfc	0.13157648
133	0xbd9c727a	-0.07639022
134	0x3dca56dd	0.09879849
135	0x3ecbcf83	0.39806756
136	0xbf6de2ff	-0.92924494
137	0x3e3e67d5	0.18594296
138	0xbbc6604c	-0.00605396
139	0xbf24d54e	-0.6438798
140	0x3f8c0e9a	1.0941956
141	0xbd692703	-0.05692197
142	0xbec6be14	-0.38816893
143	0x3f8d3ae3	1.1033596
144	0x3f9e2849	1.2356044
145	0xbd22efca	-0.039779462
146	0x3f6e06cf	0.9297914
147	0xbe36b589	-0.17842688
148	0xbf0b1905	-0.5433505
149	0x3d77e65a	0.060522415
150	0x3e30ff4e	0.17284891
151	0x3effbe23	0.4994975
152	0x3e47063a	0.19435969
153	0x3e89ccc5	0.2691404
154	0x3eb00174	0.3437611
155	0x3f408f6f	0.7521886
156	0x3f3ace11	0.7297068
157	0x3e032274	0.12806112
158	0xbe907abe	-0.28218645
159	0x3ed69f85	0.4191858
160	0xbe751360	-0.23933172
161	0x3f5464f1	0.82966524
162	0xbe02e9b7	-0.12784468
163	0xbf03e448	-0.51520205
164	0x3f863e6f	1.0487803
165	0xbf168804	-0.58801293
166	0x3dcb1359	0.099158
167	0x3f042ace	0.51627815
168	0xbe8104e8	-0.25199056
169	0x3e83a60b	0.25712618
170	0xbf589691	-0.84604746
171	0xbf3845c9	-0.71981484
172	0x3d7d5565	0.061849017
173	0x3e2f6d66	0.17131576
174	0x3fa3932c	1.2779288
175	0xbf35b8c8	-0.7098508
176	0xbf01bfe7	-0.50683445
177	0xbfa26930	-1.2688351
178	0x3f32ff24	0.69920564
179	0xbf249e92	-0.6430446
180	0x3e971931	0.29511407
181	0xbf3c62e8	-0.7358842
182	0xbeb956ea	-0.36199123
183	0xc0011448	-2.0168629
184	0x3f877cf2	1.0585005
185	0x3ed61c09	0.41818264
186	0xbf3a4ad0	-0.72770405
187	0x3e225e71	0.15856339
188	0x3e6ce9ac	0.23136014
189	0x3e3dc1c3	0.18530945
190	0xbf8a4790	-1.0803089
191	0xbf5ecfa2	-0.8703557
192	0xbe275e4a	-0.16344562
193	0xbe5fa01f	-0.21838425
194	0x3e4184fe	0.18898389
195	0xbe083e0f	-0.13304923
196	0xbdedc388	-0.1160956
197	0xbc8886d6	-0.016665857
198	0x3fbdbebc	1.4823833
199	0x3fced82d	1.6159722
200	0xbf4162d4	-0.75541425
201	0x3f7cd858	0.98767614
202	0x3ef1aab7	0.47200558
203	0xbf0414a8	-0.5159402
204	0x3d176ebd	0.036970843
205	0xbf286f04	-0.65794396
206	0xbd0d2812	-0.034462042
207	0x3ea5173c	0.3224429
208	0xbe5e5ef5	-0.2171591
209	0x3f8b5594	1.0885491
210	0xbd0016f2	-0.031271882
211	0x3e227ad1	0.15867163
212	0x3ea6926d	0.3253359
213	0xbed74c21	-0.4205027
214	0xbec8696d	-0.39142933
215	0xbdfc608f	-0.123231046
216	0x3d9a8459	0.075447746
217	0x3f2121f3	0.6294243
218	0xbeb84030	-0.3598647
219	0x3e51050d	0.20412083
220	0xbe52c97f	-0.20584677
221	0x3e8a14d2	0.2696901
222	0x3e05b97d	0.1305904
223	0xbf99a954	-1.20048
224	0xbdfb2669	-0.122631855
225	0x3d211d34	0.03933449
226	0xbf093caa	-0.5360819
227	0x3fe9813f	1.8242568
228	0x3e745b22	0.2386289
229	0x3e55461c	0.20827526
230	0x3fa7dfb8	1.3115149
231	0x3da1fd14	0.07909599
232	0x3e5aa4eb	0.21351974
233	0xbf9963c2	-1.1983569
234	0xbf051080	-0.519783
235	0x3eee5b5e	0.46554083
236	0xbeb78771	-0.3584552
237	0x3dc43097	0.0957958
238	0x3f33636c	0.7007358
239	0x3f2d78a9	0.6776224
240	0x3f775908	0.96620226
241	0xbf20dfb4	-0.62841344
242	0x3e49d25b	0.1970915
243	0x3e5aab7b	0.21354477
244	0xbe461453	-0.1934369
245	0xbfb439d8	-1.4080153
246	0x3ec32b5d	0.3811902
247	0xbe7489c1	-0.23880674
248	0xbef96a4b	-0.48713908
249	0xbeaf947d	-0.34292975
250	0xbed911a0	-0.4239626
251	0xbed61cb8	-0.41818786
252	0x3e965eed	0.29369298
253	0x3f44665b	0.7671868
254	0xbd99d19e	-0.075106844
255	0xbf5548b8	-0.83314085

network_body._body_endoder.seq_layers.0.bias f4 [128]
0	0xbbb4be32	-0.005515837
1	0xbb60b129	-0.0034285283
2	0x3bfd23ae	0.0077252006
3	0xbc68a521	-0.014199526
4	0x3bf3d66f	0.007441334
5	0xbbf1e54e	-0.0073820716
6	0x3b0deb0e	0.0021654996
7	0x3a1f1208	0.00060680555
8	0x3c13059a	0.0089735035
9	0xba7adf54	-0.00095700216
10	0x3c18a1d3	0.009315926
11	0x3baf42ac	0.005348524
12	0xbb882a0f	-0.0041554044
13	0x3ab4ad4b	0.0013784555
14	0x3b4b33fb	0.0031006325
15	0xbc22e5c7	-0.0099424785
16	0x3bd29545	0.0064264857
17	0x3b43efea	0.0029897639
18	0xbb428de2	-0.002968662
19	0x3bc31b4c	0.005954182
20	0x3c0c87f6	0.0085773375
21	0xbb814b61	-0.0039457534
22	0xbc27499f	-0.010210424
23	0xba84173f	-0.0010077729
24	0xbba77dfd	-0.0051114545
25	0x3b3455a4	0.0027516866
26	0x3bcc4038	0.0062332414
27	0x3c005d53	0.00783475
28	0xbae0d457	-0.0017153126
29	0xbbec2761	-0.007206843
30	0x3bc19d3f	0.005908638
31	0x3c26b495	0.01017489
32	0xbb94966b	-0.004534533
33	0x3b9ca743	0.0047806813
34	0x3c1b7242	0.00948769
35	0xbb8c729e	-0.0042861244
36	0x3aa0dd2e	0.0012272948
37	0x3aae72f3	0.0013309404
38	0x3bbb9cc7	0.0057254764
39	0x3c16582f	0.009176298
40	0xba7263df	-0.00092464493
41	0x3af9f3b3	0.001906982
42	0x3c14c11a	0.009079242
43	0x3ad7906b	0.0016446238
44	0x3bde1be6	0.006778228
45	0xbc39d134	-0.011341382
46	0xbb019f6b	-0.0019778858
47	0xbbf0866b	-0.0073402426
48	0x3a544f62	0.0008098987
49	0x3c06e792	0.008233922
50	0xbb899020	-0.0041980892
51	0x3ac6d1c7	0.001516872
52	0x3c104641	0.008805812
53	0xbbbf6126	-0.0058404384
54	0xbbb2199a	-0.005435181
55	0x3b8a7287	0.0042250785
56	0xbae4d0f5	-0.0017457294
57	0xbc4a69f8	-0.0123543665
58	0xba92ec39	-0.0011209316
59	0xba6f1fff	-0.0009121894
60	0x3b93bbe0	0.0045084804
61	0xbb0e89ed	-0.002174969
62	0xbc37a2de	-0.011208264
63	0xbc1e88cc	-0.00967617
64	0x3b4304f4	0.002975759
65	0x3915dc86	0.00014291899
66	0x38d68362	0.00010228787
67	0x3af9439e	0.0019017344
68	0xbb80645f	-0.003918215
69	0xbbf9ce35	-0.0076234587
70	0x39a78809	0.00031954076
71	0xbba6b04b	-0.0050869337
72	0x3b6585cf	0.0035022383
73	0x3b8a643c	0.0042233746
74	0x3b29d656	0.0025915108
75	0xbb4eda42	-0.0031563197
76	0x3b48fc06	0.0030667796
77	0x38bc57e8	8.9809124e-05
78	0xbc30e161	-0.010795922
79	0xbaf57c07	-0.001872898
80	0x3b99d702	0.0046948204
81	0x3c1c1809	0.009527215
82	0x3b3e5f5b	0.0029048536
83	0x3b83cdf8	0.004022356
84	0xbbc469e7	-0.00599407
85	0xbb637e85	-0.0034712863
86	0x3aa407ca	0.0012514528
87	0xbb6dbfc9	-0.0036277643
88	0x3c1f0ff1	0.009708391
89	0x3b6878dc	0.0035472428
90	0x3aa65984	0.0012691473
91	0xbc06aebc	-0.008220371
92	0xbc2c5714	-0.010518808
93	0x3b9ce746	0.004788312
94	0x3b4bc0cb	0.0031090255
95	0x3bfc386f	0.007697157
96	0x3c161e6b	0.009162526
97	0x3b349171	0.002755251
98	0x3be88fa4	0.0070972014
99	0x3acfd10c	0.0015855148
100	0x3c02bcef	0.007979616
101	0xbb729b88	-0.0037018973
102	0xbbd962bf	-0.006634086
103	0xbbd8a28b	-0.0066111735
104	0x3b33ce3b	0.0027436155
105	0xbb4bdb77	-0.0031106153
106	0x3abd492f	0.0014441366
107	0x3a9233a9	0.0011154312
108	0x3a22da39	0.0006212327
109	0xbb793bc9	-0.003803002
110	0x3c1fdb75	0.0097569125
111	0x3b63568b	0.0034689035
112	0x3bf0f61e	0.007353558
113	0xbc307dc9	-0.010772177
114	0x3b0c4607	0.0021404044
115	0x3b957201	0.0045607095
116	0x3b510f9c	0.0031900173
117	0x3b802641	0.00391081
118	0x3bdf20a7	0.0068093124
119	0x3b35b2a1	0.002772488
120	0xbb9d0a6f	-0.0047925035
121	0xbb5029c1	-0.0031763169
122	0x3b1300af	0.0022430827
123	0x3b843571	0.004034691
124	0x3bc20458	0.005920928
125	0xbb8d0227	-0.004303235
126	0x3ac8eb0a	0.0015328836
127	0xbc15aa44	-0.009134833

network_body._body_endoder.seq_layers.2.weight f4 [128, 128]
0	0x3da99d95	0.082820095
1	0x3d0b6eb0	0.034041107
2	0xbdf6af2e	-0.120451316
3	0x3cf7d4c2	0.030252818
4	0xbd160e3d	-0.036634672
5	0x3d9a870d	0.0754529
6	0x3cdac829	0.026706772
7	0xbe0934d8	-0.13399065
8	0xbd9ad9d8	-0.07561082
9	0x3d05d669	0.03267518
10	0x3d958453	0.073006295
11	0xbe27d56e	-0.1639001
12	0xbd2af542	-0.041737802
13	0xbd04c152	-0.032410927
14	0xbb15dadc	-0.0022866046
15	0x3e3c6f74	0.18401891
16	0x3ccbc872	0.024875853
17	0xbd10160a	-0.035177268
18	0x3c7d82b1	0.015473054
19	0x3c5829c4	0.013193551
20	0xbd913738	-0.0709061
21	0x3d0510db	0.032486778
22	0xbca9d58c	-0.02073171
23	0x3e2ad7f8	0.16683948
24	0xbe24ada8	-0.1608187
25	0xbe230161	-0.15918495
26	0x3ddd79c1	0.10814238
27	0x3c00b4c2	0.007855596
28	0x3de13ce4	0.10997942
29	0x3db73da5	0.08947305
30	0xbac1ca6f	-0.0014785061
31	0x3c9bc4a9	0.019014673
32	0x3ddb012c	0.10693583
33	0xbd89f2fa	-0.06735797
34	0x3d8ba514	0.068185955
35	0x3cb6bd36	0.02230702
36	0xbd442d9f	-0.04789507
37	0x3d29597f	0.041345116
38	0xbcbd3588	-0.023096815
39	0xbe278898	-0.163607
40	0x3e354a22	0.1770406
41	0x3d0aba74	0.03386922
42	0x3d701dd2	0.05862219
43	0x3c85918e	0.016304757
44	0xbd3d5ecb	-0.04623298
45	0xbe02c50b	-0.12770478
46	0x3e28ffa5	0.1650377
47	0x3d6f1289	0.058367286
48	0x3c969cc8	0.018385306
49	0x3da8b41a	0.08237477
50	0x3db8d5ed	0.09025178
51	0x3deca534	0.115549475
52	0xbdc2923c	-0.09500548
53	0x3d7978c6	0.060906194
54	0x3d4a6af6	0.049418412
55	0xbc866c28	-0.016408995
56	0xbd86e607	-0.06586843
57	0xbd0b2ae8	-0.033976465
58	0xbd8acb27	-0.067770295
59	0xbdcdfd51	-0.10058082
60	0xbe31a2be	-0.17347237
61	0xbdcc9232	-0.09988822
62	0x3def1b79	0.11675162
63	0xbd3cf533	-0.046132278
64	0x3d0a5a50	0.033777535
65	0x3d675bc9	0.056484018
66	0x3e131ad7	0.14365707
67	0x3e00540e	0.12532064
68	0x3d87e755	0.0663592
69	0x3e3cbe8f	0.18432067
70	0xbcfcda5c	-0.03086584
71	0x3d1e8fed	0.038711477
72	0xbdca21de	-0.09869741
73	0xbd89c484	-0.067269355
74	0x3dfac518	0.12244624
75	0xbe07364e	-0.1320431
76	0x3c5b3c76	0.013381114
77	0xbbfc7416	-0.007704268
78	0x3e04a98b	0.129553
79	0x3cfade70	0.030623645
80	0xbc8eb289	-0.017419117
81	0x3c951ef6	0.01820324
82	0x3d747dfd	0.059690464
83	0x3dd89633	0.10575523
84	0xbc8a7546	-0.016901623
85	0x3d9271e1	0.07150627
86	0xbd6ec1eb	-0.058290403
87	0xbce0a551	-0.027422579
88	0x3d440b28	0.047862202
89	0xbd46b60b	-0.048513453
90	0x3da455fd	0.080242135
91	0x3dba7b9c	0.09105608
92	0x3d56d850	0.052452385
93	0x3d948d7c	0.072535485
94	0xbd4e0cfc	-0.05030535
95	0xbca0b2cf	-0.019616513
96	0x3d0fb551	0.035085026
97	0xbda4cd9b	-0.08047029
98	0x3d33ab06	0.043864273
99	0x3dfbbd0e	0.12291919
100	0x3e1f3ef6	0.15551361
101	0x3c114c39	0.008868271
102	0xbdb892ba	-0.09012361
103	0xbd10c9d2	-0.03534872
104	0x39acb824	0.00032943592
105	0xbbf22fa3	-0.0073909326
106	0xbdf8c9ec	-0.121478885
107	0xbe1b566b	-0.15169685
108	0xbd8be08e	-0.0682994
109	0xbd5d92d7	-0.054095116
110	0x3c0cbf77	0.008590571
111	0xbdc84a07	-0.097797446
112	0xbd0e785d	-0.034782756
113	0x3b138eff	0.0022515652
114	0x3e102ab8	0.14078796
115	0x3c333757	0.010938487
116	0xbdd55849	-0.1041723
117	0x3da1f034	0.07907143
118	0xbe00b95e	-0.12570712
119	0xbddec0be	-0.108766064
120	0xbdecb737	-0.11558383
121	0xbe5675fe	-0.20943448
122	0xbc304217	-0.010757945
123	0x3c393e9a	0.011306429
124	0xbd89f0f6	-0.06735413
125	0x3d5af39e	0.053454988
126	0x3ddc3a8d	0.10753355
127	0x3d993733	0.074812315
128	0x3d190948	0.037362367
129	0xbc2ff9e7	-0.010740734
130	0xbd91d665	-0.07120971
131	0xbdde75e5	-0.1086233
132	0x3d9e1e16	0.07720582
133	0x3d6349c2	0.055490263
134	0xb99c9cd3	-0.00029871482
135	0x3d597c35	0.05309697
136	0xbd5ee28b	-0.054415267
137	0x3d5bbb51	0.053645436
138	0x3d534641	0.05158067
139	0xbc0ddbb0	-0.008658335
140	0x3e2720e9	0.16321148
141	0x3d84cf37	0.064848356
142	0xbcb485af	-0.022036402
143	0xbd144bc7	-0.03620508
144	0x3e13e120	0.14441347
145	0xbdcc909d	-0.0998852
146	0xbd2aa63c	-0.04166244
147	0x3dfc261d	0.12311957
148	0x3c37d455	0.0112200575
149	0x3c3aaa2b	0.01139311
150	0x3e7155c9	0.2356788
151	0x3e128ad8	0.14310777
152	0x3ca0f1a4	0.019646473
153	0x3ddc71a7	0.10763865
154	0x3de6a023	0.112610124
155	0xbbe567fd	-0.0070009218
156	0x3be902ef	0.0071109454
157	0xbbcacc0d	-0.0061888755
158	0xbdc473a9	-0.09592373
159	0xbc0b9db9	-0.008521491
160	0x3e02ca7b	0.12772553
161	0xbdb11631	-0.08646811
162	0xbd456f4a	-0.048201837
163	0x3dadc2f4	0.0848445
164	0xbd9332f1	-0.07187451
165	0x3caad9f3	0.02085588
166	0x3dc337c7	0.09532123
167	0xbd42cd35	-0.047558982
168	0xbe0f3770	-0.13985991
169	0x3d0860e2	0.03329552
170	0xbdb239af	-0.087024085
171	0xbc0b70c8	-0.008510776
172	0xbde95443	-0.11393025
173	0x3dd2f7dd	0.103011824
174	0x3c4c67ca	0.012475917
175	0x3dc2da4d	0.09514294
176	0x3d83f201	0.06442643
177	0x3d41f03f	0.047348257
178	0x3cfa5f3b	0.030562988
179	0x3d864f41	0.06558085
180	0x3ac78fe3	0.0015225377
181	0x3df8de24	0.12151745
182	0xbdd15d49	-0.10222871
183	0xbd84c9d3	-0.064838074
184	0x3bbbb00d	0.005727774
185	0x3df9b8c0	0.121934414
186	0xbdc1acd8	-0.094567955
187	0xbcdcdda8	-0.026961163
188	0xbdcdeef1	-0.1005534
189	0x3dd8edf8	0.10592264
190	0xbddf3db3	-0.1090044
191	0xbe4e6c09	-0.201584
192	0xbdb1ae0f	-0.08675777
193	0xbb9415f5	-0.004519219
194	0x3d5c559c	0.05379258
195	0x3d5cca13	0.05390365
196	0x3e24315d	0.16034456
197	0xbd8cc0e2	-0.06872727
198	0xbdb7df5c	-0.08978149
199	0xbc98c5c4	-0.01864899
200	0xbdb4fa8d	-0.08836851
201	0xba7ffbbf	-0.0009764991
202	0x3d1c2775	0.038123567
203	0x3e1f1f03	0.15539174
204	0x3c89509b	0.016762068
205	0x3da561cd	0.08075295
206	0xbd677151	-0.05650455
207	0xbe5af0c5	-0.21380909
208	0xbda86dbb	-0.082240544
209	0x3df0007d	0.11718843
210	0xbc75a6c3	-0.014993372
211	0xbdbfd56d	-0.093668796
212	0xbd94505f	-0.07241892
213	0xbdf64b41	-0.12026072
214	0xbd935e0d	-0.07195673
215	0x3e63d5f5	0.22249587
216	0x3e229397	0.15876614
217	0x3e252227	0.1612631
218	0x3d136b89	0.035991225
219	0x3ca3a93b	0.019978156
220	0x3e3928be	0.18081948
221	0x3ca3b699	0.01998453
222	0x39c57da3	0.00037668375
223	0x3be2f593	0.0069262474
224	0xbd8be7e0	-0.06831336
225	0xbc904e90	-0.017615587
226	0x3c682373	0.014168608
227	0xbdbd1242	-0.09231998
228	0x3db8a0f3	0.090150736
229	0xbafebfab	-0.0019435784
230	0x3c485d9e	0.012229351
231	0x3da6b339	0.08139653
232	0x3e28bf73	0.16479282
233	0x3e2c07b5	0.16799815
234	0xbcadab81	-0.021199943
235	0x3b5bf633	0.0033563494
236	0x3e012ffd	0.12615962
237	0x3cf3f8df	0.029781757
238	0xbcf70ef2	-0.030158494
239	0x3b7f1581	0.003892273
240	0xbdef39ba	-0.11680932
241	0xbcbfa856	-0.023395699
242	0xbd797e73	-0.060911607
243	0xbda83353	-0.08212914
244	0xbe1e83f2	-0.1548002
245	0x3de0bad2	0.10973133
246	0x3d075b15	0.033045847
247	0xbde92e6f	-0.1138581
248	0x3d25e434	0.040500835
249	0x3ddb680a	0.10713203
250	0x3dd5bb63	0.10436132
251	0xbc9bc638	-0.019015417
252	0x3e0f6dc5	0.14006718
253	0xbe1e90db	-0.15484945
254	0xbe9341e4	-0.28761208
255	0xbd995ded	-0.07488618

network_body._body_endoder.seq_layers.2.bias f4 [128]
0	0x39bd77eb	0.00036138235
1	0xbbb42b11	-0.005498298
2	0x3a151b0f	0.0005687931
3	0x3b4e6999	0.0031496047
4	0x3b2966ae	0.0025848555
5	0xbbd3f4df	-0.0064684
6	0x3b33713f	0.0027380732
7	0x3bbf3dbd	0.005836217
8	0xbbe53095	-0.006994317
9	0xbbda7e2f	-0.0066678743
10	0x3bb02d98	0.005376529
11	0x3aef6e6d	0.0018267162
12	0x3b035334	0.0020038607
13	0xbb88bebb	-0.0041731275
14	0xbbb7fc9c	-0.00561483
15	0x3a9e4ea9	0.0012077886
16	0x3bb65237	0.005564
17	0x3a64cdf1	0.00087281974
18	0xbb08684c	-0.002081412
19	0x3c0d0696	0.008607527
20	0xbbdeca81	-0.0067990427
21	0xbbda8813	-0.0066690533
22	0xba0fa8de	-0.000548018
23	0xbc0f2e9d	-0.008739141
24	0xbbae81da	-0.005325538
25	0xbb9fb040	-0.0048733056
26	0xbbe1b921	-0.006888524
27	0xbb0111e3	-0.00196945
28	0x3ac30f0f	0.0014881807
29	0xbb1d8d06	-0.0024040355
30	0x3b8a0b5e	0.004212781
31	0x3bead651	0.007166662
32	0x3c7ad1d6	0.015308818
33	0x3b9d0f91	0.0047931154
34	0x3b88ce9a	0.0041750195
35	0x3b934491	0.0044942577
36	0xba78544d	-0.0009473011
37	0x3ac47102	0.0014987292
38	0x3a074df6	0.00051614584
39	0x3c0a5a50	0.008444384
40	0xbb7c3ca5	-0.0038488295
41	0xbba8bc4b	-0.0051493994
42	0xbaf24434	-0.0018483461
43	0xbb474ec7	-0.0030411945
44	0xbc640b9e	-0.013918785
45	0x3bdd8ac8	0.006760929
46	0x3c2317a2	0.009954365
47	0x3a96f18c	0.0011516078
48	0xbbb5c4ca	-0.0055471407
49	0x3c1ab938	0.009443574
50	0x3a850639	0.0010148949
51	0x3b83985d	0.004015966
52	0x3b16b9a6	0.0022998839
53	0x3b7dcb1b	0.0038725797
54	0xb9676b8c	-0.00022069941
55	0x3c0e9fd7	0.008705101
56	0x3b85b11f	0.0040799524
57	0x3ad2738a	0.0016056162
58	0x3b9d1110	0.004793294
59	0xbb8ef14c	-0.004362261
60	0xbb986209	-0.0046503586
61	0xbb4caac5	-0.0031229716
62	0xbbcfd4cf	-0.0063425074
63	0x3b406807	0.002935888
64	0x3b6826fc	0.0035423627
65	0x3b658915	0.0035024334
66	0x3bc981d0	0.006149508
67	0xbbc16850	-0.0059023276
68	0x3ba0930d	0.0049003423
69	0xbb9e5789	-0.0048322123
70	0xbadcec76	-0.0016855139
71	0xbb417da0	-0.0029524341
72	0x3c3f8c49	0.011691161
73	0xbbea242d	-0.007145426
74	0x3c3cfa6b	0.011534314
75	0xb8aaa9ac	-8.1378355e-05
76	0x3b747716	0.0037302426
77	0x3b1c2163	0.002382361
78	0xbbd6b7ab	-0.0065526566
79	0x3ab8c889	0.001409785
80	0xbb2b5111	-0.0026140849
81	0x3bca5b09	0.006175403
82	0xbba8f699	-0.00515635
83	0x3b848734	0.004044438
84	0xbc57e9d8	-0.013178311
85	0xbb0d6d06	-0.0021579876
86	0x3b5effbb	0.003402694
87	0x3b117893	0.0022197112
88	0x3b7921fd	0.0038014643
89	0xbbb5eee2	-0.0055521587
90	0xbb758206	-0.0037461533
91	0x3bfe0baa	0.0077528553
92	0xbb969792	-0.0045957053
93	0x3b3f4749	0.0029186776
94	0xb9e8cd9e	-0.00044403685
95	0x3b5e3504	0.0033906111
96	0xbbb178ec	-0.0054160263
97	0x38ad386d	8.259793e-05
98	0xbba150b4	-0.0049229506
99	0xbb9750de	-0.0046177944
100	0x3be14a02	0.0068752775
101	0x3ae4bd74	0.0017451481
102	0xbbb69663	-0.0055721267
103	0x3b865784	0.004099788
104	0x3bc22c02	0.0059256563
105	0xbc0ba7b7	-0.008523873
106	0xbc62cd16	-0.013842842
107	0xbb060144	-0.0020447532
108	0x39ed4981	0.00045258927
109	0x3b63630a	0.0034696483
110	0x3b289dc3	0.00257288
111	0xbbe506ad	-0.006989321
112	0xba3ee613	-0.00072822085
113	0xbc164a7f	-0.009173035
114	0x3b858922	0.0040751854
115	0x3bae5f47	0.0053214165
116	0x3b6d044f	0.0036165898
117	0xbba2081d	-0.004944815
118	0xbacf57d7	-0.0015819025
119	0x3a84a5c9	0.0010120209
120	0xbbc15adb	-0.0059007234
121	0x3c257764	0.010099266
122	0xbbeb20ab	-0.007175525
123	0xbb91c112	-0.0044480646
124	0x3bb71938	0.005587723
125	0x3b285c60	0.0025689825
126	0xbbacef6a	-0.005277564
127	0x3b520dc5	0.0032051664

action_model._discrete_distribution.branches.0.weight f4 [2, 128]
0	0x3c41872d	0.011812014
1	0xbaa8176a	-0.0012824361
2	0x3c745c1d	0.01491454
3	0xbc2bf217	-0.01049473
4	0x3b15da99	0.002286589
5	0x3c9f6616	0.019457858
6	0x3a392f57	0.0007064244
7	0x3b59baa3	0.0033222816
8	0x3b9d1ad8	0.00479446
9	0x3c339ace	0.010962201
10	0x3b8af7a1	0.0042409454
11	0x3c950828	0.018192366
12	0xbc27b71f	-0.010236531
13	0x38cdefa3	9.8197976e-05
14	0xbc2fd0fc	-0.010730978
15	0xbbb4e8d7	-0.0055209207
16	0x3c004bf2	0.007830607
17	0x3c6fbfa3	0.014633092
18	0x3c0c4784	0.0085619725
19	0xba9aeca8	-0.0011819797
20	0xbbe57133	-0.00700202
21	0x38f1e2ec	0.00011534043
22	0x3c09108c	0.0083657615
23	0x3b403f1b	0.0029334489
24	0xbc59888e	-0.013277186
25	0xbc65f16a	-0.014034608
26	0x3b2dd9fa	0.002652763
27	0xbbc63818	-0.0060491674
28	0xbbb1a0ce	-0.0054207807
29	0xbc2c2c8b	-0.010508667
30	0x3baee110	0.005336888
31	0xbaa2d966	-0.0012424409
32	0xbc210185	-0.009827022
33	0xbb3bd0a9	-0.0028658307
34	0x3c9318e4	0.017956205
35	0xbc714465	-0.014725779
36	0x3c18d32b	0.00932769
37	0xbabd7e10	-0.0014457125
38	0x3baa7b3d	0.0052026794
39	0xbc1cf792	-0.00958051
40	0x3b085fbf	0.0020809022
41	0xbbb269ec	-0.005444756
42	0xbb90aea1	-0.0044153486
43	0xbbf43e38	-0.007453706
44	0x399d7c85	0.00030038148
45	0xbb83a93b	-0.0040179766
46	0xbc9239f6	-0.017849904
47	0x3b5b1379	0.0033428355
48	0x3b14ad45	0.0022686285
49	0xbc91206b	-0.017715653
50	0xbb9f2d16	-0.0048576696
51	0xbbcb4f96	-0.0062045557
52	0x3c87420b	0.016510984
53	0xbb7664b6	-0.003759665
54	0xbb8594d7	-0.004076581
55	0x3bc43655	0.005987922
56	0x3cc54528	0.024080828
57	0x3c84e4f6	0.016222458
58	0xbc07694e	-0.008264853
59	0xbc1cc0f2	-0.009567486
60	0xbc1e5ac4	-0.009665195
61	0xbaac34fe	-0.0013138351
62	0x3bcde0ce	0.0062829023
63	0x3b9eaa76	0.004842098
64	0x3b8b233e	0.0042461446
65	0x3b8d365e	0.0043094596
66	0xbc1a0d2e	-0.009402556
67	0x3b28e9a0	0.0025774017
68	0xbbf44a54	-0.0074551497
69	0xbc71eb91	-0.014765636
70	0xbb1e5cf4	-0.002416429
71	0x3ac5f2b7	0.0015102242
72	0xbc60590c	-0.013693105
73	0xbb8433ba	-0.0040344866
74	0xbcceb420	-0.025232375
75	0xbb838f70	-0.004014902
76	0xba5caf3c	-0.0008418446
77	0x3c0a3bb6	0.008437088
78	0x39b69dbf	0.00034831275
79	0xba8ebde6	-0.0010890334
80	0x3c3292bc	0.010899242
81	0x3bb0118c	0.0053731855
82	0x3bb07f76	0.0053862883
83	0x3c5c654d	0.013451886
84	0xbafb90fa	-0.0019192987
85	0x3b8ccd78	0.0042969547
86	0x3a44c0f6	0.000750556
87	0xbbb8ff93	-0.005645701
88	0x3c8296af	0.015940992
89	0xbbc29e67	-0.005939293
90	0xbc51a1be	-0.01279491
91	0x3bec98a7	0.007220346
92	0xbc039cb2	-0.008032965
93	0xbafea141	-0.001942672
94	0x3c57a8af	0.013162776
95	0x3c9206be	0.01782548
96	0xb9f981c0	-0.00047589652
97	0x3a9cc50e	0.0011960582
98	0xbc027e70	-0.007964715
99	0xbc9a449d	-0.018831545
100	0xbcc20c78	-0.023687586
101	0x3c0212d0	0.007939056
102	0x3b2bad90	0.002619598
103	0x3cc3569d	0.023845011
104	0xbab88fb9	-0.0014080919
105	0x3a9972db	0.0011707203
106	0x3abb439d	0.0014287118
107	0xbc815cab	-0.015791258
108	0x3c9cffe1	0.019164981
109	0x3b054a5c	0.002033851
110	0x3964e1a4	0.00021827832
111	0x3bcb1a4f	0.0061982046
112	0x3bcb19c6	0.006198141
113	0xbaff823a	-0.0019493767
114	0x3abb4ddd	0.0014290173
115	0x3c26f383	0.010189894
116	0xbc795512	-0.015218036
117	0xbbbb34d7	-0.005713086
118	0x3bb64b2d	0.005563161
119	0x3bc1967b	0.0059078312
120	0xbad3e01e	-0.0016164815
121	0xbb896b90	-0.0041937307
122	0x3af766bc	0.0018875222
123	0x3ba8283c	0.0051317494
124	0xbc643e82	-0.013930919
125	0x3c2839a7	0.010267652
126	0xbccd5a7b	-0.025067559
127	0xbbadcf0d	-0.0053042234
128	0x3bba7c16	0.0056910617
129	0x3b27fdc9	0.0025633445
130	0x3c09ec5b	0.008418168
131	0x3cb1f4bc	0.021723144
132	0xbc19c1dd	-0.0093845995
133	0x3b45237b	0.0030080962
134	0xbc1ac709	-0.009446868
135	0xbac5b54c	-0.0015083938
136	0xbba56581	-0.0050475006
137	0x3ad07a18	0.0015905527
138	0x3b88b78c	0.004172271
139	0xbb501e94	-0.0031756507
140	0xbae8aa0a	-0.0017750871
141	0xbb221c44	-0.0024736086
142	0x3b4e84cf	0.0031512266
143	0xbb490932	-0.0030675647
144	0x3bd72094	0.006565163
145	0x3c13b894	0.009016175
146	0x3c84dbaa	0.016218025
147	0xbbff7eb5	-0.007797087
148	0xbc5b97df	-0.013402908
149	0x3b5ac2f8	0.003338037
150	0x3c125005	0.008930211
151	0x3af276ec	0.0018498576
152	0x3a4bfde1	0.00077816664
153	0x3c234414	0.009964962
154	0x3b2d79b6	0.002647025
155	0xbbc139ec	-0.0058967974
156	0xbb2c16bb	-0.0026258666
157	0xbc11aa0a	-0.008890638
158	0xbcab53dc	-0.02091401
159	0x3cd7bf4a	0.02633633
160	0x3c9c19d2	0.01905528
161	0xbc769be3	-0.015051815
162	0xbbf03fd3	-0.007331827
163	0x3b868471	0.0041051437
164	0x3c164c2e	0.009173436
165	0x3c6c5f29	0.014426985
166	0x3c6baf52	0.014385061
167	0x3bdc9d45	0.006732615
168	0x3c56576e	0.013082368
169	0x3c90cec9	0.017676728
170	0xbb56f54e	-0.0032800022
171	0x3c108d3c	0.008822735
172	0xbaee48f7	-0.0018179704
173	0x3c9e7fc1	0.019348027
174	0x3c0a7a72	0.008452045
175	0x3a02b05d	0.00049853866
176	0x3b096d4e	0.0020969692
177	0x3acce44a	0.0015632
178	0xbb53f0f4	-0.0032339664
179	0x3b9cdb03	0.0047868504
180	0x3bfbb1e1	0.007681117
181	0xbcbfdb87	-0.023420108
182	0xba3c7b4a	-0.00071900024
183	0xbb8822df	-0.0041545476
184	0x390a6061	0.0001319661
185	0x3c0dbd29	0.008651056
186	0x3c1488b3	0.009065795
187	0x3cd18dfa	0.025580395
188	0x3a9cd3ad	0.001196494
189	0x39bb7e0b	0.0003576133
190	0x3bce05fc	0.0062873345
191	0xbbc55641	-0.006022245
192	0xbc9bcb29	-0.019017773
193	0xbc3527c7	-0.011056847
194	0x3c1192a9	0.008885064
195	0x3b168b9c	0.0022971397
196	0x3c3185f1	0.010835157
197	0xbb827244	-0.0039809067
198	0xbbc1279a	-0.0058946135
199	0x3bb3b290	0.005483933
200	0x3c90356b	0.017603597
201	0xbbc32215	-0.0059549906
202	0x3ba5fec9	0.005065773
203	0x3b3bfd04	0.0028684745
204	0xbc8c124d	-0.01709857
205	0xba8734a8	-0.0010315375
206	0xbbe5062f	-0.0069892625
207	0xbc13d205	-0.0090222405
208	0x3c278e33	0.010226774
209	0x3bafe1af	0.0053674798
210	0x3c053725	0.008130823
211	0xbc04076f	-0.008058413
212	0xbb612f9a	-0.0034360648
213	0x3afa2804	0.0019085412
214	0xbc4e672a	-0.012597838
215	0xbb657c20	-0.0035016611
216	0xbac75b2e	-0.0015209669
217	0xbbcd7fd9	-0.006271344
218	0x3c6c1e7e	0.014411567
219	0x3bea4760	0.007149622
220	0x3c7c4ece	0.015399648
221	0x3bf8ad0a	0.0075889872
222	0x3c214318	0.009842657
223	0x3adaf2a5	0.0016704394
224	0x3bb8f245	0.005644115
225	0x3b1a13d4	0.0023510354
226	0xbbf0bdef	-0.0073468606
227	0xbb1fe4d0	-0.0024397857
228	0x3ca6d012	0.020362888
229	0xbab04c5d	-0.0013450492
230	0x3b1cea87	0.00239435
231	0xbafbcd87	-0.0019211032
232	0xbadbe44c	-0.0016776412
233	0x3a2bc9dc	0.0006553212
234	0xba15b7fd	-0.00057113153
235	0xbbfa698f	-0.007641978
236	0x3c9abe85	0.018889675
237	0xbc4d1b8c	-0.012518775
238	0xbc2e7e8f	-0.010650291
239	0xba38df24	-0.00070522935
240	0x3c3d25df	0.011544674
241	0xbb181dc2	-0.0023211096
242	0xbca74257	-0.020417375
243	0x3c626d3c	0.013819989
244	0x3c6ab72a	0.014325896
245	0x3bc15bf9	0.0059008566
246	0x3c33c815	0.010972996
247	0x3c743433	0.014905023
248	0x3bd68374	0.006546432
249	0x3cda1e87	0.026625885
250	0x3ad4fac1	0.0016249047
251	0x3c03ec4d	0.008051944
252	0x3c41ba03	0.011824134
253	0x3a4e073a	0.0007859353
254	0xbbd915d7	-0.006624918
255	0x3c82733b	0.015924087

action_model._discrete_distribution.branches.0.bias f4 [2]
0	0x3b9a2edc	0.004705293
1	0xbb9a2ede	-0.004705294

exp_avg f4 [128, 2]
0	0xba1ce01c	-0.00059843226
1	0xb88e8288	-6.795401e-05
2	0xb91ffb65	-0.00015257073
3	0xb793c253	-1.7614255e-05
4	0x3869bf3f	5.572964e-05
5	0x36c194dc	5.7691777e-06
6	0x38874cc9	6.451604e-05
7	0x3709a239	8.203607e-06
8	0x3866fc2b	5.5071123e-05
9	0x36c99b99	6.0083808e-06
10	0xb8085c3e	-3.2510834e-05
11	0xb62a6224	-2.53891e-06
12	0x389b84db	7.415722e-05
13	0x37187344	9.086743e-06
14	0x38ed850d	0.00011325823
15	0x37681b6f	1.3834665e-05
16	0x384ee089	4.9323342e-05
17	0x36b5640f	5.4058687e-06
18	0xb4b5169a	-3.3730322e-07
19	0xb247fd12	-1.1640866e-08
20	0x366681d9	3.4348252e-06
21	0x34941506	2.7582445e-07
22	0x391160e4	0.00013864372
23	0x37820ac2	1.5502217e-05
24	0xba63e09b	-0.00086928316
25	0xb8d5db34	-0.00010197461
26	0x39955b5c	0.00028487563
27	0x380ab9b4	3.3074713e-05
28	0x37d71041	2.5637566e-05
29	0x36711d8a	3.5928992e-06
30	0xb8748f59	-5.8307636e-05
31	0xb700ba76	-7.672808e-06
32	0x34afa4ae	3.271611e-07
33	0x3293fd40	1.7228217e-08
34	0x3781b76b	1.5463409e-05
35	0x35c5b77c	1.4731045e-06
36	0xba9d3572	-0.0011994077
37	0xb911a006	-0.00013887891
38	0xb211ec14	-8.493789e-09
39	0xb001e710	-4.7258286e-10
40	0x371d988e	9.393449e-06
41	0x3577b31a	9.22753e-07
42	0x373362dc	1.0692249e-05
43	0x35d52535	1.5880565e-06
44	0x3a4863d4	0.000764427
45	0x38b6787a	8.700877e-05
46	0x36893616	4.0892146e-06
47	0x35038742	4.899813e-07
48	0xb64aade7	-3.020157e-06
49	0xb44d5c5b	-1.9125712e-07
50	0x3aca37d9	0.0015428021
51	0x39395a29	0.00017676562
52	0x38d04eda	9.9329e-05
53	0x37387d79	1.09964685e-05
54	0x386891bd	5.544884e-05
55	0x36be71c8	5.675687e-06
56	0x39fbf271	0.00048055084
57	0x3863d8e5	5.4323016e-05
58	0xb84a4f1b	-4.8234226e-05
59	0xb6aa5c98	-5.077174e-06
60	0x3a0dffb9	0.0005416829
61	0x3879b64b	5.9536e-05
62	0x36edee9b	7.0909277e-06
63	0x35191069	5.702082e-07
64	0xba1ecf72	-0.00060581334
65	0xb8914a65	-6.927996e-05
66	0xb83c66a3	-4.491828e-05
67	0xb6cadc78	-6.045735e-06
68	0x36d37dfc	6.3029565e-06
69	0x350aab2d	5.16581e-07
70	0xba740f80	-0.0009310171
71	0xb8e89d90	-0.000110919704
72	0x3a30d173	0.00067450776
73	0x38a5a495	7.898469e-05
74	0xb86161f0	-5.373539e-05
75	0xb6e4bbb8	-6.816783e-06
76	0x38ff9103	0.00012186358
77	0x377d06b5	1.5081537e-05
78	0x37894139	1.6362044e-05
79	0x35c5b691	1.4730778e-06
80	0x3a504d3b	0.00079460785
81	0x38bf7d2c	9.130905e-05
82	0x3aa6bb1a	0.0012720556
83	0x39194616	0.00014617326
84	0x37e05b1b	2.6745305e-05
85	0x3630b7f1	2.6333112e-06
86	0xb6945268	-4.420337e-06
87	0xb4de91c0	-4.145677e-07
88	0x3853586c	5.038867e-05
89	0x36ba296d	5.5480546e-06
90	0x3547de10	7.445642e-07
91	0x33b8e3f8	8.609635e-08
92	0xb8c62cdf	-9.4497336e-05
93	0xb73c7126	-1.1232018e-05
94	0xb82b9414	-4.0907486e-05
95	0xb68be4b9	-4.1691496e-06
96	0x3a53ef4f	0.0008084671
97	0x38c371ec	9.319544e-05
98	0x360605fa	1.9971035e-06
99	0x340d629e	1.3167525e-07
100	0xba771b7a	-0.00094263966
101	0xb8e8d2d2	-0.000111018904
102	0x3648ed27	2.9940363e-06
103	0x347131fe	2.2463061e-07
104	0x364c3793	3.0430717e-06
105	0x345b0d8a	2.040089e-07
106	0xb8e1ef91	-0.00010773459
107	0xb744dea8	-1.1734352e-05
108	0xb62dd8da	-2.5905233e-06
109	0xb44aa0d2	-1.8871222e-07
110	0x3760b3b9	1.3393285e-05
111	0x35e5e609	1.7128779e-06
112	0xb83e8af7	-4.542895e-05
113	0xb6cb8be9	-6.066159e-06
114	0x3a3b7429	0.0007150793
115	0x38ab7d31	8.177234e-05
116	0xb4f8aad4	-4.6317894e-07
117	0xb2c43431	-2.2841137e-08
118	0xb56ec61b	-8.895019e-07
119	0xb34cfe08	-4.772849e-08
120	0xb8ce9793	-9.851078e-05
121	0xb73decea	-1.1320439e-05
122	0x38d715be	0.00010256049
123	0x374fbfe0	1.2382836e-05
124	0x3735f760	1.0846037e-05
125	0x3507da9e	5.060955e-07
126	0xb776ebc0	-1.4717632e-05
127	0xb5d13ce2	-1.5589433e-06
128	0x3ad3e851	0.0016167258
129	0x3940e0b0	0.0001839425
130	0x379c2e5c	1.8618237e-05
131	0x3609321f	2.0443765e-06
132	0x3a94e2f0	0.0011359137
133	0x390a60bd	0.00013196743
134	0x3a7783d1	0.00094419444
135	0x38e74799	0.000110282745
136	0xb608c97d	-2.038286e-06
137	0xb426a75c	-1.552084e-07
138	0xb8620fa6	-5.3897173e-05
139	0xb6bae83e	-5.5702685e-06
140	0x3a24977f	0.0006278678
141	0x3898288a	7.255476e-05
142	0x34034899	1.2226737e-07
143	0x32f372e6	2.8341173e-08
144	0x3ae5f22f	0.001754349
145	0x39518248	0.00019980327
146	0x3ace9852	0.0015761948
147	0x393cd0af	0.00018006818
148	0xb6eeac00	-7.112976e-06
149	0xb5519012	-7.8068217e-07
150	0xba39d8b6	-0.00070894824
151	0xb8acb40d	-8.235136e-05
152	0x3a8e93ef	0.0010877828
153	0x390361ee	0.00012529615
154	0x396ff300	0.0002288334
155	0x37d79845	2.5700903e-05
156	0xb908b0fc	-0.00013035903
157	0xb764bd6d	-1.3633963e-05
158	0xb7f4134a	-2.9096049e-05
159	0xb672231b	-3.6081244e-06
160	0x380ec06f	3.4034656e-05
161	0x36753583	3.6538993e-06
162	0xb7f890d5	-2.9631346e-05
163	0xb6bb8511	-5.5885253e-06
164	0x39e9a02f	0.0004456057
165	0x3858c05d	5.1677565e-05
166	0x3a70ae92	0.00091812864
167	0x38e013bc	0.00010684828
168	0x389db1b6	7.5194446e-05
169	0x372183f6	9.627072e-06
170	0xb569a1e9	-8.7034874e-07
171	0xb3936f40	-6.865457e-08
172	0x3a1e55e4	0.00060400204
173	0x38937ced	7.0327755e-05
174	0x39909347	0.0002757555
175	0x37f71378	2.945376e-05
176	0x3839d901	4.4309538e-05
177	0x368d0e2b	4.203777e-06
178	0x3ac18949	0.0014765646
179	0x39319f7e	0.00016939451
180	0x3997ef63	0.0002897932
181	0x3813e63d	3.5261957e-05
182	0xb75a292d	-1.30033995e-05
183	0xb5a59081	-1.2335514e-06
184	0xb946ea5a	-0.00018970054
185	0xb7b60b5c	-2.170138e-05
186	0xb508578f	-5.079136e-07
187	0xb31bc4ef	-3.626786e-08
188	0x3aa9bd87	0.001295016
189	0x391e3e05	0.00015091158
190	0x346b3694	2.1905936e-07
191	0x3281ba65	1.5102339e-08
192	0xb7cfc513	-2.4768093e-05
193	0xb68bcd16	-4.166398e-06
194	0x3abcbd09	0.0014399599
195	0x392ed3b8	0.00016672804
196	0x38af4adf	8.358596e-05
197	0x37101386	8.5876145e-06
198	0x3a9290f0	0.0011182111
199	0x3905ea7d	0.00012771222
200	0x379f05fd	1.8957066e-05
201	0x35fb771f	1.8735626e-06
202	0xbab2d696	-0.0013644274
203	0xb923a712	-0.0001560713
204	0xb94713d9	-0.00018985513
205	0xb7ab93d6	-2.045363e-05
206	0xb919a319	-0.00014651976
207	0xb78f1d22	-1.7060494e-05
208	0xb6d10372	-6.2290865e-06
209	0xb5197a84	-5.7175225e-07
210	0xba149afb	-0.0005668846
211	0xb888dcfc	-6.526147e-05
212	0x39eaef2f	0.00044810164
213	0x385a2cd5	5.2017003e-05
214	0x374f2a4c	1.23480095e-05
215	0x35a7a70b	1.2491085e-06
216	0x39153a32	0.00014231427
217	0x378925f6	1.634935e-05
218	0xb8152d53	-3.556658e-05
219	0xb68b2a6d	-4.147462e-06
220	0xb5704295	-8.9503857e-07
221	0xb49d74ef	-2.932861e-07
222	0x39dee901	0.0004251674
223	0x3843a38a	4.664393e-05
224	0x393ba1f9	0.00017894049
225	0x379e7619	1.8890061e-05
226	0x37dbe6b4	2.6214264e-05
227	0x364d84e9	3.0624744e-06
228	0x3ac3fdad	0.0014952921
229	0x39352450	0.00017275033
230	0x39cb5c4b	0.0003878794
231	0x383985da	4.4232096e-05
232	0x397537da	0.00023385827
233	0x37d9411d	2.5898737e-05
234	0x3862b702	5.405304e-05
235	0x36c80f9c	5.9622816e-06
236	0x36a2ffa2	4.857736e-06
237	0x3517bf19	5.652997e-07
238	0x3a8b5e79	0.0010633013
239	0x38fc6aa0	0.00012036157
240	0xb9d78fbc	-0.00041115086
241	0xb84a8165	-4.828106e-05
242	0xbab70d03	-0.001396567
243	0xb9298157	-0.00016165279
244	0x378c2050	1.6704347e-05
245	0x360923da	2.043546e-06
246	0x3b00976b	0.0019621502
247	0x396c7d38	0.00022553361
248	0x37b86f99	2.1986476e-05
249	0x36224e60	2.4185501e-06
250	0xb8140a62	-3.529562e-05
251	0xb680597e	-3.8251155e-06
252	0x3aa01a5e	0.0012214889
253	0x391309dc	0.00014022685
254	0x36d6ef6f	6.4055707e-06
255	0x35bd776c	1.4116354e-06

exp_avg_sq f4 [128, 2]
0	0x350b9f83	5.2013655e-07
1	0x31fae55d	7.302033e-09
2	0x331b0fee	3.6103238e-08
3	0x30195264	5.577816e-10
4	0x31902f2a	4.1963135e-09
5	0x2e4424bf	4.4597877e-11
6	0x31857ef7	3.8852437e-09
7	0x2e85391a	6.058283e-11
8	0x31cbad9c	5.9278147e-09
9	0x2ea40473	7.458647e-11
10	0x311d7067	2.29104e-09
11	0x2d818caa	1.472807e-11
12	0x32045605	7.70297e-09
13	0x2f0303f6	1.1915788e-10
14	0x32908cb3	1.6827789e-08
15	0x2f8fa507	2.6128807e-10
16	0x311b7d2d	2.2626623e-09
17	0x2dfc3e15	2.8676653e-11
18	0x2c113203	2.0633501e-12
19	0x28078818	7.523516e-15
20	0x2e510029	4.752124e-11
21	0x2a7b4fbb	2.232094e-13
22	0x32b6c778	2.1278296e-08
23	0x2f9dbbd8	2.8691605e-10
24	0x359b3f07	1.1566743e-06
25	0x3294796a	1.728468e-08
26	0x344d4789	1.9118137e-07
27	0x313e7005	2.7712315e-09
28	0x32e69245	2.684204e-08
29	0x2fe075dd	4.082911e-10
30	0x34324539	1.6602725e-07
31	0x31281e00	2.446427e-09
32	0x2ba69b83	1.1838173e-12
33	0x279ae2fc	4.2989683e-15
34	0x2f8ad0f4	2.5250524e-10
35	0x2c0e7832	2.0246135e-12
36	0x35d72337	1.6028997e-06
37	0x32c8cdad	2.3376595e-08
38	0x29ac68d2	7.656518e-14
39	0x25d85b27	3.7531794e-16
40	0x2f2c78a9	1.5686176e-10
41	0x2bcc3a92	1.4511328e-12
42	0x2fb4d9b0	3.2896486e-10
43	0x2c8b8303	3.965163e-12
44	0x34a12082	3.001224e-07
45	0x3191ae50	4.2398725e-09
46	0x2e9fc552	7.265534e-11
47	0x2b8b195d	9.883584e-13
48	0x2e37091d	4.1617477e-11
49	0x2a0f6433	1.2735715e-13
50	0x361bb090	2.3199573e-06
51	0x330e790d	3.3172046e-08
52	0x32684906	1.3520781e-08
53	0x2f44a079	1.7883107e-10
54	0x319718da	4.3975037e-09
55	0x2e451075	4.480723e-11
56	0x34482a22	1.864178e-07
57	0x31320047	2.5902567e-09
58	0x3173df2b	3.548801e-09
59	0x2e3062d6	4.010555e-11
60	0x34e542b7	4.2703115e-07
61	0x31b9643e	5.395605e-09
62	0x2f352da1	1.6478065e-10
63	0x2b40d94a	6.851365e-13
64	0x35247833	6.1269674e-07
65	0x321615df	8.736122e-09
66	0x318d9550	4.120615e-09
67	0x2e8762ea	6.15666e-11
68	0x2ee01ae3	1.0191117e-10
69	0x2b102197	5.120569e-13
70	0x3602ba1f	1.9479846e-06
71	0x32fce279	2.9439649e-08
72	0x3501d53b	4.8366536e-07
73	0x31f71ad6	7.191697e-09
74	0x31ac06a9	5.006616e-09
75	0x2eab9cc0	7.804024e-11
76	0x33226399	3.7809148e-08
77	0x30217f41	5.87523e-10
78	0x3021fc2a	5.8929805e-10
79	0x2c853376	3.7858007e-12
80	0x34e8524b	4.3273243e-07
81	0x31d61c21	6.2314176e-09
82	0x35d4a9b7	1.5844624e-06
83	0x32c4fd45	2.2932577e-08
84	0x307c9b52	9.189779e-10
85	0x2d127dd0	8.327075e-12
86	0x2d70426f	1.3657172e-11
87	0x29d0e519	9.276798e-14
88	0x313e3826	2.7680556e-09
89	0x2e1bf569	3.5460888e-11
90	0x2ca059c0	4.5574378e-12
91	0x28e85337	2.5793263e-14
92	0x3217ca69	8.8353795e-09
93	0x2f132678	1.3383239e-10
94	0x31016e41	1.8834643e-09
95	0x2da5b553	1.8838852e-11
96	0x350cf915	5.2516526e-07
97	0x32033d5c	7.639155e-09
98	0x2e11766e	3.307437e-11
99	0x29f5de80	1.0918783e-13
100	0x35b2295e	1.3274073e-06
101	0x32aac565	1.988037e-08
102	0x2f00f329	1.172792e-10
103	0x2b7759c0	8.787658e-13
104	0x2e5660c2	4.8743905e-11
105	0x2a3170cd	1.5759894e-13
106	0x3293d275	1.7208757e-08
107	0x2f7184dd	2.1966025e-10
108	0x2e45095a	4.480092e-11
109	0x2a40c6e2	1.7122027e-13
110	0x2f936497	2.6810618e-10
111	0x2cf1ba51	6.8703172e-12
112	0x31c00634	5.5886407e-09
113	0x2eb7861e	8.3457005e-11
114	0x349b4099	2.8918e-07
115	0x318cbe9b	4.0962056e-09
116	0x2c46dda1	2.8260521e-12
117	0x286c4d47	1.31173885e-14
118	0x2cab042d	4.860576e-12
119	0x28ac9295	1.9159406e-14
120	0x322f12ac	1.0190586e-08
121	0x2f22cb4c	1.480604e-10
122	0x322b6333	9.976065e-09
123	0x2f29cfd1	1.5444292e-10
124	0x33041ab4	3.075793e-08
125	0x2ff88d72	4.521144e-10
126	0x3381cf1e	6.044705e-08
127	0x30692cf9	8.4828816e-10
128	0x362f6baa	2.61397e-06
129	0x331e1bed	3.681264e-08
130	0x302c2a1a	6.2633065e-10
131	0x2d0d5d50	8.035642e-12
132	0x359644dd	1.1195913e-06
133	0x328cf254	1.6408343e-08
134	0x35781a37	9.2425347e-07
135	0x326b85f5	1.3709259e-08
136	0x2d8c602d	1.5958868e-11
137	0x299f29a4	7.068242e-14
138	0x31f20ffb	7.0449437e-09
139	0x2e9e37d3	7.1949245e-11
140	0x34ecf3b6	4.4135749e-07
141	0x31dac376	6.3668564e-09
142	0x2f5d701a	2.013966e-10
143	0x2c50f721	2.9695762e-12
144	0x365ab0fb	3.2587548e-06
145	0x334567d0	4.5962054e-08
146	0x365a7a07	3.255556e-06
147	0x334698e5	4.6239524e-08
148	0x2ee7e1fa	1.0544805e-10
149	0x2bb1f3fa	1.2644324e-12
150	0x354ca258	7.6232163e-07
151	0x3240e765	1.1228484e-08
152	0x35bcb64d	1.4060148e-06
153	0x32adfffa	2.0256255e-08
154	0x335f3aed	5.1974826e-08
155	0x304652cb	7.2149636e-10
156	0x332260f2	3.7806736e-08
157	0x2fe7f35c	4.2191572e-10
158	0x305b8817	7.986513e-10
159	0x2d5abbb2	1.2433542e-11
160	0x30c2cabc	1.4172978e-09
161	0x2da9a3e2	1.9285854e-11
162	0x31e2e19a	6.6031136e-09
163	0x2e82a893	5.9416604e-11
164	0x3459d34b	2.0286568e-07
165	0x314ddaeb	2.9955867e-09
166	0x3585314f	9.923623e-07
167	0x327c5271	1.46870756e-08
168	0x31c90a43	5.8510365e-09
169	0x2ec81f5b	9.100517e-11
170	0x2cbd30c7	5.3771185e-12
171	0x28aac589	1.8959459e-14
172	0x34dd1c60	4.1185103e-07
173	0x31d155ba	6.0924465e-09
174	0x334502c3	4.587015e-08
175	0x300ea5ea	5.1895077e-10
176	0x3192a34e	4.267725e-09
177	0x2e06b831	3.0631667e-11
178	0x3633d96f	2.6799642e-06
179	0x33257bfd	3.8529823e-08
180	0x3439cd2a	1.7304106e-07
181	0x3134b245	2.6294782e-09
182	0x2ff3b22f	4.432805e-10
183	0x2c6a4d3d	3.3296276e-12
184	0x33b981bc	8.6383324e-08
185	0x30a80f81	1.2228015e-09
186	0x2e4acae3	4.6109682e-11
187	0x2ac7a4a9	3.5463757e-13
188	0x36146c1d	2.2116649e-06
189	0x330bd90d	3.2560866e-08
190	0x2c7b6a05	3.5728098e-12
191	0x284c5817	1.1343376e-14
192	0x315b39c2	3.1901526e-09
193	0x2e1478ce	3.37586e-11
194	0x3618bc38	2.2759323e-06
195	0x330f2e7b	3.3337056e-08
196	0x31ee6d9c	6.939173e-09
197	0x2e984e1e	6.926036e-11
198	0x35860015	9.983802e-07
199	0x3274d501	1.4251101e-08
200	0x2ff95695	4.5354356e-10
201	0x2c949d12	4.2238513e-12
202	0x35dc1e13	1.640003e-06
203	0x32c896eb	2.3351694e-08
204	0x33a32ef2	7.598818e-08
205	0x307e5352	9.2523067e-10
206	0x337174ac	5.6218298e-08
207	0x30639d2a	8.280546e-10
208	0x30d396f4	1.5395174e-09
209	0x2dc9f2cd	2.295888e-11
210	0x34c5e4ca	3.6860575e-07
211	0x31b830d1	5.3606546e-09
212	0x34b16d5a	3.3048383e-07
213	0x31a82700	4.8938773e-09
214	0x2f51684a	1.904549e-10
215	0x2c08a176	1.9416391e-12
216	0x33350740	4.214894e-08
217	0x30274bb6	6.086184e-10
218	0x30d9e22d	1.5853111e-09
219	0x2dcf9f27	2.3603853e-11
220	0x2eb3aaa7	8.1702915e-11
221	0x2b32205b	6.3283206e-13
222	0x34694ddc	2.1728141e-07
223	0x31390b9f	2.692765e-09
224	0x333ab716	4.3473015e-08
225	0x3006bff5	4.9021703e-10
226	0x301874ad	5.5463084e-10
227	0x2d0b4723	7.917031e-12
228	0x36106399	2.1515646e-06
229	0x330688aa	3.13236e-08
230	0x345f880a	2.0817984e-07
231	0x31491917	2.9263612e-09
232	0x33a7938e	7.8033835e-08
233	0x30863831	9.765754e-10
234	0x3165cdd0	3.3440877e-09
235	0x2e3befa4	4.273172e-11
236	0x3039cb31	6.759136e-10
237	0x2d2ac60e	9.707358e-12
238	0x3573700a	9.068759e-07
239	0x3257245d	1.2522915e-08
240	0x350e6d8c	5.3058534e-07
241	0x32049b50	7.718725e-09
242	0x36280dcc	2.5041982e-06
243	0x331d349d	3.6602263e-08
244	0x30832c2a	9.544057e-10
245	0x2d81e8c2	1.4768967e-11
246	0x369501f3	4.440773e-06
247	0x3389e9f1	6.422113e-08
248	0x30526754	7.6544393e-10
249	0x2d2aa259	9.69943e-12
250	0x308767e1	9.852067e-10
251	0x2d59413b	1.2349506e-11
252	0x3593c581	1.1009835e-06
253	0x32888cb1	1.5896463e-08
254	0x3063d6a3	8.2887136e-10
255	0x2ce3fad8	6.4795773e-12

exp_avg f4 [128]
0	0xb8a96567	-8.0774356e-05
1	0xb7a651b1	-1.9826783e-05
2	0x370697d7	8.022375e-06
3	0x37038c71	7.8409075e-06
4	0x37005b54	7.6506585e-06
5	0xb6b1c0a9	-5.2974397e-06
6	0x372065f4	9.560481e-06
7	0x37715ad3	1.4385866e-05
8	0x36e5266c	6.8292047e-06
9	0xb39cd0da	-7.302306e-08
10	0x351732d6	5.632586e-07
11	0x379ed1d4	1.8932777e-05
12	0xb8ef53f1	-0.000114120434
13	0x381ead6c	3.7831647e-05
14	0x363bb7cf	2.7972162e-06
15	0xb6e4dda5	-6.8207323e-06
16	0x3387f7c9	6.331499e-08
17	0x361bb790	2.3203647e-06
18	0xb92772dc	-0.0001596915
19	0xb0f9f1c3	-1.8185847e-09
20	0x35bbaa77	1.3982198e-06
21	0x3592b4f2	1.093051e-06
22	0x38d7da03	0.00010292607
23	0x350d66d3	5.267622e-07
24	0xb513af4c	-5.501686e-07
25	0x3958f04e	0.00020688886
26	0x3765dbbd	1.37006255e-05
27	0x3706acb0	8.027229e-06
28	0x38886a83	6.504825e-05
29	0xb6e67f87	-6.8693803e-06
30	0x389dee98	7.530785e-05
31	0x359e41f6	1.1791115e-06
32	0xb8ab016c	-8.15418e-05
33	0xb6ae4bd5	-5.194432e-06
34	0x35899364	1.0250192e-06
35	0xb8fd36e2	-0.00012074203
36	0x38ba52e0	8.884608e-05
37	0xb6dc5d21	-6.5673526e-06
38	0x377f4b65	1.5216739e-05
39	0x362b2233	2.5500892e-06
40	0x38df06ae	0.00010634713
41	0x393245df	0.00017001432
42	0x36850627	3.964425e-06
43	0xb535c44e	-6.7713415e-07
44	0x36e9cfa1	6.9681123e-06
45	0x33d5e5b7	9.96037e-08
46	0xb74f33e1	-1.23502405e-05
47	0xb6c74bfa	-5.939507e-06
48	0x38e23831	0.00010786986
49	0x34bffea1	3.576179e-07
50	0xb90174ba	-0.00012345883
51	0x350a865a	5.1604513e-07
52	0x35118f88	5.4225575e-07
53	0xb77b0ebc	-1.4964196e-05
54	0xb4ef2591	-4.4544552e-07
55	0x36025e35	1.9426345e-06
56	0xb6b1d58b	-5.2998707e-06
57	0x38c975b7	9.606353e-05
58	0xb3c4533a	-9.1421e-08
59	0xb431b89c	-1.655157e-07
60	0xb75bcc6e	-1.3101015e-05
61	0x375bef8e	1.3109193e-05
62	0x3612662e	2.1815172e-06
63	0xb6048932	-1.974939e-06
64	0x396479c5	0.00021789137
65	0x362d2b2f	2.5804145e-06
66	0x391df744	0.000150648
67	0x39029370	0.00012452691
68	0xb4b74a47	-3.414045e-07
69	0xb7031719	-7.813586e-06
70	0x38af4996	8.358357e-05
71	0xb2dfb81c	-2.604434e-08
72	0x3977ce87	0.00023632693
73	0x395e08d4	0.00021174859
74	0xb58334a1	-9.775578e-07
75	0xb8c4fdbb	-9.393269e-05
76	0x39185179	0.000145262
77	0x3802a89a	3.1151438e-05
78	0xb79d569c	-1.875619e-05
79	0xb676b746	-3.6763536e-06
80	0x369c33db	4.655199e-06
81	0xb5fc2009	-1.8784787e-06
82	0x3877878f	5.9015638e-05
83	0x38fec4eb	0.00012148343
84	0x371b0fcc	9.242398e-06
85	0xb41f64cf	-1.4844703e-07
86	0x38a76e6b	7.9837475e-05
87	0x382315fe	3.888271e-05
88	0x36e2fd8d	6.764842e-06
89	0x394f3363	0.00019760201
90	0x381b068a	3.696097e-05
91	0xb605624b	-1.9875758e-06
92	0xb7d53fd0	-2.5421294e-05
93	0xb3c068fb	-8.9597926e-08
94	0x393393c1	0.00017125813
95	0x33276286	3.8972324e-08
96	0xb60c3b79	-2.0896243e-06
97	0x3948c790	0.00019147829
98	0x374b69de	1.2124392e-05
99	0x391d90a4	0.0001502657
100	0x363b73ce	2.7932579e-06
101	0xb93fedc6	-0.00018303757
102	0xb7e037d5	-2.672888e-05
103	0xb7a25d0c	-1.9355233e-05
104	0xb5826f1a	-9.71809e-07
105	0xb89ea1a5	-7.564136e-05
106	0x387909db	5.9375405e-05
107	0x35f20e8f	1.8034642e-06
108	0x37a00281	1.9074652e-05
109	0xb69deadd	-4.7063063e-06
110	0x335409f0	4.9369135e-08
111	0x38783539	5.9177375e-05
112	0x37d539db	2.541852e-05
113	0x366bfbc4	3.5164276e-06
114	0x3950cd1b	0.00019912834
115	0x385b285e	5.2251264e-05
116	0x38078fcd	3.2320433e-05
117	0x36fa6ccc	7.463246e-06
118	0x352e3977	6.4903674e-07
119	0x3916e8e7	0.00014391878
120	0xb862e2b0	-5.4093718e-05
121	0xb942adef	-0.00018566077
122	0x360c3a8d	2.0895707e-06
123	0x398992af	0.00026239964
124	0x364bacce	3.0349943e-06
125	0xb6a51ece	-4.9209693e-06
126	0x392b6756	0.00016346326
127	0x3462ea86	2.113321e-07

exp_avg_sq f4 [128]
0	0x322630ab	9.6735375e-09
1	0x302cea7e	6.290647e-10
2	0x2ee6877b	1.0483255e-10
3	0x2e8b8ebf	6.346345e-11
4	0x2f0aa09c	1.2608087e-10
5	0x2eb673f2	8.296998e-11
6	0x2f074bc3	1.2305094e-10
7	0x2f92e313	2.671859e-10
8	0x2e52fcf8	4.7973153e-11
9	0x29ef765a	1.0634263e-13
10	0x2c03a2b8	1.8706547e-12
11	0x2fe55441	4.1714723e-10
12	0x32a7d6f3	1.9539106e-08
13	0x3165fdd0	3.3468162e-09
14	0x2ff2043d	4.4022555e-10
15	0x31455fe7	2.8721787e-09
16	0x29a1dc70	7.188076e-14
17	0x2d0fb80b	8.169475e-12
18	0x32f15eb3	2.8099157e-08
19	0x27c5f94d	5.4948776e-15
20	0x2c9ba9f9	4.4242357e-12
21	0x2d048870	7.5336265e-12
22	0x31c0b7fe	5.608853e-09
23	0x2bc41c94	1.393457e-12
24	0x2c0aa915	1.9704839e-12
25	0x3334aa76	4.206455e-08
26	0x2f958f6f	2.7204858e-10
27	0x2efe75e9	1.1571528e-10
28	0x3173fa98	3.55036e-09
29	0x2eba08d0	8.459866e-11
30	0x3219d2b4	8.9536805e-09
31	0x2cdcec2c	6.2789964e-12
32	0x323e61b0	1.1081667e-08
33	0x2e9a6158	7.020401e-11
34	0x2c89d974	3.9179163e-12
35	0x330a7e84	3.2245694e-08
36	0x320dbabe	8.2497404e-09
37	0x2eb0d5c9	8.041529e-11
38	0x30260de3	6.041018e-10
39	0x2db1a925	2.0197686e-11
40	0x32057603	7.768452e-09
41	0x32f2c4d6	2.8262019e-08
42	0x2de64c7b	2.6181937e-11
43	0x2afd03b1	4.494439e-13
44	0x2e7dfc79	5.774978e-11
45	0x2a3abaaa	1.6584881e-13
46	0x2f203f20	1.4574342e-10
47	0x2e5cb3bc	5.0181845e-11
48	0x321fb008	9.295043e-09
49	0x2bcfa936	1.47552e-12
50	0x32bfcd95	2.2328814e-08
51	0x2c7b1e95	3.5686222e-12
52	0x2c123e00	2.0782265e-12
53	0x2fc81c0d	3.639972e-10
54	0x2c131740	2.0902863e-12
55	0x2d08255d	7.739001e-12
56	0x2ed161d1	9.521595e-11
57	0x31b71c9a	5.3292526e-09
58	0x2a85bcae	2.375647e-13
59	0x2aa85a9a	2.9905662e-13
60	0x2f483396	1.8208221e-10
61	0x2f32cbf5	1.6261466e-10
62	0x3014f222	5.418618e-10
63	0x30986c02	1.1090153e-09
64	0x33505d8f	4.8513865e-08
65	0x2d62fd4b	1.2902855e-11
66	0x32a7d00b	1.9535966e-08
67	0x328825ee	1.5849732e-08
68	0x2b33eb88	6.392044e-13
69	0x2f45e7c4	1.7999385e-10
70	0x32072d3f	7.868322e-09
71	0x2c783f57	3.527808e-12
72	0x338161fb	6.024853e-08
73	0x337f8ad2	5.949807e-08
74	0x2c25ed7c	2.357974e-12
75	0x32623765	1.3167527e-08
76	0x32d770d2	2.5080599e-08
77	0x3087e817	9.888507e-10
78	0x30756f06	8.9288255e-10
79	0x2d5d50f2	1.2580369e-11
80	0x2e0c8578	3.195086e-11
81	0x2f53e008	1.926993e-10
82	0x31720dd7	3.5223502e-09
83	0x3292aa13	1.7073978e-08
84	0x2ecdaa23	9.352543e-11
85	0x2a795b2e	2.2147277e-13
86	0x31f3be54	7.0938686e-09
87	0x30992726	1.1143342e-09
88	0x2f12dbaa	1.3356663e-10
89	0x334ed85e	4.8159897e-08
90	0x3141bca1	2.819242e-09
91	0x2d7c600d	1.4345869e-11
92	0x30da5ac5	1.5887386e-09
93	0x2bc8b7c7	1.4261863e-12
94	0x33241b24	3.820891e-08
95	0x2a33962b	1.5950494e-13
96	0x2eb581a5	8.2539565e-11
97	0x332aa760	3.9733436e-08
98	0x2f4cc41e	1.8623367e-10
99	0x329cb727	1.8244078e-08
100	0x2d6276e5	1.28730126e-11
101	0x3300e87b	3.0013762e-08
102	0x30e5938b	1.6703877e-09
103	0x3084d49d	9.664692e-10
104	0x2dea9225	2.6667621e-11
105	0x31e02d97	6.524441e-09
106	0x31c2b991	5.6672396e-09
107	0x2cacd2c0	4.911932e-12
108	0x304ccfd5	7.4510115e-10
109	0x2ded8702	2.7003736e-11
110	0x2c437318	2.7775057e-12
111	0x319ef6da	4.626469e-09
112	0x30909100	1.051859e-09
113	0x2d2fdd7a	9.996776e-12
114	0x3322f14e	3.793803e-08
115	0x3183fc5d	3.841292e-09
116	0x30e1c0a3	1.6425655e-09
117	0x2e999f41	6.9859236e-11
118	0x2d50c51e	1.18672e-11
119	0x3294978a	1.729838e-08
120	0x321fc414	9.299601e-09
121	0x333c2adf	4.3811152e-08
122	0x2d8b893b	1.5863413e-11
123	0x33a9ce7e	7.9072365e-08
124	0x2d8db32f	1.6109418e-11
125	0x2dbb33c6	2.128243e-11
126	0x32a9aa6c	1.9751688e-08
127	0x2ddabc82	2.4867445e-11
